SinGan/TrainedModels/cows/scale_factor=0.750000,alpha=10/4/netD.pth (torch_old, 461765 bytes, 25 tensors)

head.conv.weight f4 [64, 3, 3, 3]
00000000: 34fa 86bd a12b 10bd b916 5e3d 6c1f b9bc
00000010: 54c2 a9bb 6ad8 bc3c f75a 773c d3df b73c
00000020: 56fa 9cbc 8e6b 8abd 0e30 0cbc 7567 c33d
00000030: aa64 ecbc cb6c 433c 35c4 303d 5298 943b
00000040: b699 0d3d e5b1 d8bc db0a 013d a207 283c
00000050: b789 143d bc6e 6c3c 4963 1539 cbb1 23bc
00000060: def3 14bb 981e 8f3b dd24 3dbd 4016 af3d
00000070: 8f6c 55bd 96aa 53ba b9d8 b1bc 049d 523d
00000080: 3e3d 053c accd 3abd aa02 003b 41f1 ba3c
00000090: e8d4 c13d 9ea1 cdbc 48ef 32bb 4462 49bc
000000a0: b61c 433d 8216 4dbb f2bb 85bd 6814 a5bc
000000b0: 36af c83b 6abe 053e 12cb 07bd 49fa 38bc
000000c0: 2ca9 91bc 6f2f c83c bff5 893c dd00 a8bc
000000d0: 2eca 1fbc bb6a a53c 9039 1bbd d2a2 bf3c
000000e0: d97a 243d ae1f 53bc fe17 d23b 8dda 35bb
000000f0: 1e6d 873d a304 8ebc df46 0bbd e6f0 81bd
00000100: cb45 6bbc efb5 91bc e75c 0ebd 0b8e 14bc
00000110: 48d1 4dbc 2585 813d 9980 b2bc 7d7e 0dbc
00000120: 1886 6cbc 31c3 ee3c b6a3 003d 0a9d 923a
00000130: 3950 743c 50ea 233c 5b25 b13d f0d6 23bb
00000140: ab84 fbbb 0d4c 9b3d 801e fd3c ccaa 2a3d
00000150: f1fc 853d 1b50 cc3c c59a a93c baf2 443d
00000160: c13e b73c 26a8 813c abcc 04bd 8663 19bd
00000170: 9387 0cbd 5263 97bc a9bc 15bd d5ee 28bd
00000180: 06d1 cbbc 47b7 7abc 4fa8 d33b cbcb 5ebd
00000190: e918 c9bc 3120 57bd 37d1 e0bc 996f d3bc
000001a0: 861e b6bc c0d1 91bc bf7b f9bb 230e 1cbd
000001b0: 30a6 fd3b c7d2 d13b 797d a03c 828f 983c
000001c0: 9cf5 c83c 8e85 303d 04a6 8a3c a0fa 8ebc
000001d0: 7136 4b3d 8244 09bd bc56 c8bc ada1 8abd
000001e0: 44d5 77bc 7003 4239 56bb 9abc 806f 80bc
000001f0: 4020 efbc afbc efbc e113 e6bc b7a8 7f3a
00000200: 96a3 c33d a22e da3c 4a15 643c 8564 c13d
00000210: 3a4b 843d ac39 023b 22bf 943d f56d d53c
00000220: e9d0 523d 4c46 b43c b6e6 943a c3df f63b
00000230: 9a64 913c 3565 36ba 5ec1 1f3c b1ff aa3c
00000240: f67c 9dbd fb99 83bc 39fc 05bd 758e a0bd
00000250: 78ea afbc 7b9a 0cbc e2e6 43bd 6f93 87bc
00000260: ba2f a4bb 765d 2c3b 8dda 31bb 5c9e 84bc
00000270: d063 c0bb f09c d2ba 7ce5 e2bc 2f56 413d
00000280: b285 bd3c 0281 433c ec9f 14bd 6e6e 45bd
00000290: 9251 4a3d 9957 033d 145e 1dbc fbe2 0e3c
000002a0: 8fe9 2abd 5ff4 ec3c 7406 b7bc 0aaf 8d3b
000002b0: 8094 09bd 7e95 2f3d a7a2 623d fdc1 f4bb
000002c0: 48f2 cabc 8fb9 79ba db23 753c 7685 15bd
000002d0: 99ec ef3a 4984 b4bb 858e 953d c147 293d
000002e0: 202c a8bc 24bd 2dbd 349d 9fbd 050d 9cbc
000002f0: 3d86 95bd b802 8c3d bbf4 843d 8f8c e63c
00000300: 460f 6fbc 60d7 b1ba 2a68 33bd 906e 71bd
00000310: 57fc c2bc cc86 573c 722b c43c 228f 2c3d
00000320: 072f 933c 5c34 eabc d583 dbbb a258 1ebd
00000330: 2595 07bd 2a8e ac3c 4f2d 463d 2a78 9b3d
00000340: 73cd 623d da23 7b3d 9880 cdbb 90ad 35bc
00000350: 5d60 1ebd f9bc 4cbd 4eda 24bd bd21 d13b
00000360: 94d3 b8ba 32b5 27bd 317c 54bd aa7f 36bd
00000370: fdf1 0b39 cfd3 f63c ff77 58bc 442e 0b3d
00000380: ca13 853d 2af1 2f3d 7fb3 0fbc 8dcf 2cbd
00000390: 7fc5 19bd 07a1 4aba a369 873c 2b8b 07bd
000003a0: 1eab ef3b 64c6 0e3d 2aeb 8f3d 3a6f 8e3c
000003b0: acf1 86bc 68d5 90bc e562 c53c f790 853c
000003c0: cf01 95bc b1d1 69bc 501e f7bc 0033 183c
000003d0: 6d48 ec3b 1f2b ef3c 7949 14bd 89fd 3cbd
000003e0: dce4 93bc 4fdb b53d 8f9e e53c 8166 203d
000003f0: 20d0 dd3c f502 f83c 70b0 653c ef80 26bd
-0.06590691 -0.035197858 0.05422089 -0.02259799 -0.0051806364 0.023052413 0.015097371 0.022445595
-0.019162338 -0.06758796 -0.008556379 0.09541217 -0.028856594 0.011927794 0.043155868 0.0045347596
0.03457042 -0.026452014 0.031504493 0.010255726 0.036264148 0.014430698 0.00014246734 -0.00999112
-0.0022728364 0.0043676607 -0.046177734 0.08549166 -0.052105483 -0.00080744305 -0.021709787 0.051419273
0.008132277 -0.0456063 0.0019532838 0.022820117 0.09464437 -0.02510148 -0.0027303267 -0.012291495
0.047634803 -0.0031293933 -0.06529988 -0.020151332 0.0061244024 0.13060918 -0.033152647 -0.011290141
-0.017780863 0.02443668 0.016840814 -0.020508224 -0.009752793 0.020192495 -0.037896693 0.023393068
0.04015622 -0.012885971 0.0064115515 -0.0027748675 0.06612609 -0.017336195 -0.034003135 -0.06344776
-0.014359902 -0.017786948 -0.034756567 -0.009067069 -0.012562104 0.063242234 -0.021789836 -0.008636114
-0.014436267 0.029145809 0.031406127 0.0011185717 0.014911705 0.010004595 0.08649703 -0.002499994
-0.0076757274 0.07582865 0.030898333 0.04166679 0.06542385 0.024940541 0.020703683 0.048083045
0.02236879 0.01582725 -0.03242175 -0.03744843 -0.03430898 -0.018479977 -0.036556873 -0.041243393
-0.024879944 -0.015302486 0.006459273 -0.05439357 -0.02454801 -0.052520934 -0.027443511 -0.02581005
-0.022231352 -0.017800212 -0.0076136286 -0.03809942 0.0077407584 0.0064033004 0.01959108 0.018623117
0.024531178 0.043096118 0.016924866 -0.017453492 0.049612466 -0.0335126 -0.02445542 -0.067691185
-0.01512653 0.00018502562 -0.018888157 -0.015678167 -0.029190183 -0.029264776 -0.02808565 0.00097526185
0.09552686 0.026633564 0.013921091 0.09443001 0.06459661 0.00198708 0.07263018 0.026053408
0.051468764 0.022006176 0.0011360261 0.0075339987 0.017748166 -0.000695783 0.009750692 0.020873876
-0.0768985 -0.016064635 -0.03271124 -0.078396715 -0.021474108 -0.008581753 -0.04782761 -0.016549794
-0.0050105723 0.0026300824 -0.0027138323 -0.016188793 -0.0058712736 -0.00160685 -0.027697317 0.04720133
0.02313504 0.011932613 -0.036285326 -0.048201017 0.049394198 0.03206596 -0.0096049495 0.008721109
-0.041726645 0.028925119 -0.022341944 0.004323845 -0.033588886 0.042867176 0.0553309 -0.0074694143
-0.024773732 -0.00095262466 0.014962162 -0.03650423 0.0018304765 -0.0055089337 0.07302574 0.041328195
-0.020528853 -0.042416707 -0.07793656 -0.019049177 -0.073009945 0.06836456 0.06491991 0.028143195
-0.014591044 -0.0013568215 -0.04380051 -0.05894333 -0.023801966 0.013154697 0.023946498 0.04212869
0.01796676 -0.02858942 -0.006699065 -0.038658746 -0.03310122 0.021063883 0.048383053 0.07591279
0.055371713 0.061313488 -0.006271433 -0.011088744 -0.038666118 -0.049984906 -0.040247254 0.0063821957
-0.0014101141 -0.040944286 -0.05187625 -0.044555344 0.0001334622 0.030130295 -0.013212203 0.03397967
0.06497915 0.0429546 -0.008770823 -0.042190123 -0.037541863 -0.00077296834 0.016529864 -0.033091705
0.0073141 0.03485717 0.07027276 0.017387021 -0.01647266 -0.017679885 0.024095008 0.016304476
-0.018189339 -0.014271186 -0.030165821 0.009289503 0.0072107823 0.029195366 -0.03620288 -0.046140227
-0.018053465 0.088797204 0.028029708 0.039160255 0.02707678 0.030274848 0.014019117 -0.040650304

head.conv.bias f4 [64]
00000000: 4230 84be 3ea3 a23d 7f0c 96be e331 753e
00000010: 47e7 243e 3afa b33e ee4e 29be ca49 5e3d
00000020: c367 bd3e 3f96 1a3e 0b2b 873e 2f73 9e3e
00000030: 45bc d93d 393a 9dbd 6d6a d93d 4de1 e2bc
00000040: 4c1b 4abd 07dd 273c 3af1 e6bd d5db 45bd
00000050: 70ac febb cf91 b73e b46d b7be c8a3 d1bd
00000060: 6438 85bc be8c a4bd 83aa 7ebe 7785 8a3e
00000070: 5d70 0e3e 5d67 dd3d cfcf c13e 5893 263d
00000080: 42d2 943d a3cd debd 34c5 39be 3bee d53b
00000090: 1c5c a13e 7cb7 073e b8ed 64be 7f9c dc3d
000000a0: 23e7 193d 7a2c ac3e 8108 543e da58 853d
000000b0: 4c35 83be 58d4 09be 13cb 823d 55a7 36be
000000c0: 2a84 62bc de55 d83d de3c b53d d024 22bd
000000d0: 5253 3e3e ab76 6fbd b027 8abd 8b52 1abd
000000e0: de4f 84be 691b 9dbb cd14 b43e 8e4d bd3c
000000f0: c8d5 8eba 7b4f 103e 03e2 273e 745b 393e
-0.25818068 0.07941292 -0.2930641 0.23944812 0.1610385 0.35151845 -0.16534016 0.05426959
0.36993226 0.15096377 0.26400027 0.30947253 0.10631613 -0.07677121 0.10616002 -0.027695322
-0.04934244 0.010245568 -0.11276479 -0.04830535 -0.007772021 0.3585343 -0.35825884 -0.10236317
-0.01626224 -0.08034657 -0.24869733 0.2705495 0.1391005 0.108107306 0.37853858 0.04066786
0.07266666 -0.10879066 -0.18141633 0.0065286434 0.31515586 0.13253587 -0.22356308 0.10772037
0.037573945 0.33627683 0.20706369 0.06511088 -0.256266 -0.13459909 0.063863896 -0.1783727
-0.013825456 0.10563253 0.088495 -0.03958589 0.18586472 -0.05846278 -0.06745851 -0.037676375
-0.25842184 -0.0047945273 0.3517212 0.02310827 -0.0010897452 0.1409282 0.1639481 0.18101293

head.norm.weight f4 [64]
00000000: 5b5a 8a3f e419 5b3f 9970 813f dec6 703f
00000010: 79d9 653f c0fe 553f 566b 7d3f 25de 8a3f
00000020: f302 843f 7531 7f3f df00 803f 37da 863f
00000030: e0c8 793f d11b 8c3f 10f5 5b3f 29fc 753f
00000040: 560a 5f3f 0a36 503f b1e3 713f 9f71 793f
00000050: 4246 623f 1f45 713f 3078 5d3f 88f8 5b3f
00000060: 7049 4f3f 2ad3 8e3f e4c2 6c3f ac07 803f
00000070: fcb0 853f 91c1 6e3f 0a64 7b3f fed3 5d3f
00000080: bda7 723f 811f 943f e960 813f 2635 4f3f
00000090: 6ccb 713f a9ab 673f 1a6f 923f 84a1 833f
000000a0: f984 693f 3ca8 793f 78f5 6f3f c24d 8c3f
000000b0: 6753 813f 2e8c 663f 078b 773f b59a 843f
000000c0: 77ba 803f 1b2c 4d3f 8f58 633f b571 8e3f
000000d0: 5bf7 823f 5ab5 6d3f f781 8b3f 9b52 883f
000000e0: 68ce 6d3f 4174 523f bc5b 713f 91c5 6e3f
000000f0: cbda 803f d3af 8c3f d619 803f d955 6f3f
1.0808824 0.8558638 1.0112487 0.9405345 0.8978496 0.8359184 0.98991907 1.0849043
1.03134 0.9968484 1.0000266 1.0535344 0.97572136 1.0945989 0.8592081 0.9608789
0.87125146 0.8133246 0.94488055 0.97439 0.88388455 0.94246095 0.86511517 0.85926104
0.8097143 1.1158192 0.9248488 1.0002341 1.0444636 0.9326411 0.9819952 0.866516
0.947872 1.1572114 1.01077 0.80940473 0.9445102 0.9049631 1.1440156 1.0283666
0.91218525 0.9752233 0.9373393 1.096123 1.0103577 0.9005765 0.96696514 1.0359713
1.0056905 0.80145425 0.88807005 1.1128451 1.0231737 0.92854846 1.0899037 1.0650209
0.92893076 0.8220864 0.942806 0.9327021 1.006677 1.0991157 1.0007885 0.9349037

head.norm.bias f4 [64]
00000000: 6ff8 29bd e433 043f dcfb c63e 24c5 7a3e
00000010: adb5 d53e bcb6 533f 60f0 243e 2739 953e
00000020: 03a2 3b3e b4be e33e 2e33 823e d2aa 813e
00000030: b458 57bc 5d67 bb3e f875 093f b98d 493e
00000040: 6c05 b73e 0a25 f33e 5d16 a63e 4168 4a3e
00000050: 7a6c 113f 345f 8e3e 1663 d63e e8c3 093f
00000060: c6d3 bf3e c59f a93c 3bae 103f c2e0 4cbe
00000070: fb41 3c3e ce0d 743e cd1a a03e 33a6 bf3e
00000080: 7a82 983e c0cf 303e bda6 e63c fd89 d23e
00000090: 4444 8b3e 1954 863e aebb 623d 19f5 043f
000000a0: 845d c53e f2da d03e 9936 033f fd87 cc3d
000000b0: debc 963c 9026 8c3e 20f8 7d3e acda 263c
000000c0: c8de e63d 6691 d13e cec3 983e 5e81 703e
000000d0: a3f4 ec3e 4aae d63d d71d 963e a264 333e
000000e0: c32a 2f3f 1add 9f3e d7dd 8a3d af69 24bc
000000f0: 2f7c f73c 0c18 63bd bd83 6ebd 8420 f03e
-0.04149669 0.5164168 0.38864028 0.24489266 0.4174017 0.82700706 0.16107321 0.29145166
0.18323521 0.44481432 0.25429672 0.25325638 -0.013143707 0.36602297 0.5369563 0.19682969
0.35746324 0.47489196 0.32438937 0.19766332 0.5680615 0.2780701 0.41872472 0.53814554
0.37466258 0.020706067 0.56515855 -0.20007613 0.18384545 0.23833391 0.31270447 0.37431487
0.29787046 0.1726675 0.028155679 0.41120902 0.2720052 0.26236036 0.055354767 0.5193649
0.3854791 0.40792042 0.51255184 0.09986875 0.018400606 0.2737317 0.24801683 0.010183971
0.11272961 0.40931243 0.29836887 0.2348685 0.46280393 0.10482462 0.2931964 0.17518857
0.68424624 0.31223375 0.06780594 -0.010034963 0.030210583 -0.055442855 -0.058231104 0.46899807

head.norm.running_mean f4 [64]
00000000: a649 8dbe 5c09 0e3d c3d3 bdbe 2a34 c33e
00000010: e678 24bc f49c a83e ffe2 d9bd 3125 093d
00000020: 922e b43e aa0f 1e3e 757e 933e 5e00 ea3e
00000030: 8216 f8bc e2ab eabd 5a2a fb3d b529 41be
00000040: 57ec 34bd 474f 643d 1513 c5bc bfd0 c3bd
00000050: a042 e3bd 663c 613e f651 87be 8e1f 61be
00000060: 9872 d3bc 035f 97bb c70f 83be b774 da3e
00000070: 1b04 373e 4101 293e 3364 ab3e 1f88 053d
00000080: 490b 0a3e e7c2 da3c 5584 7dbe 06b1 c6bc
00000090: f87b 8f3e 2a4b a83d 0a13 6abe 6599 5a3d
000000a0: abac c13c 4857 ac3e be1d 363e 00c3 db3d
000000b0: 8b83 5abe 77c3 8abd 9c63 bd3d 10cb 4bbe
000000c0: 1a49 bcbc 96c5 d73d 4105 6f3e 8352 20bc
000000d0: 75f0 aa3d b1ec 98bd c854 be3b 3800 a13d
000000e0: c0ee c8be f06f 7d3d b2dd a83e 0e37 b4ba
000000f0: 2c9d c33d 802b cf3d a50c 4a3e 14e3 313e
-0.27595252 0.034676895 -0.37075624 0.38125736 -0.01003859 0.32932246 -0.10638999 0.033482734
0.3519178 0.15435663 0.28807417 0.45703405 -0.03028417 -0.11458565 0.12263937 -0.18863566
-0.044170704 0.055739667 -0.02405695 -0.095612995 -0.11096692 0.21995696 -0.2642972 -0.21984693
-0.025811478 -0.0046194806 -0.25597975 0.4266717 0.1787266 0.16504385 0.33474883 0.03260052
0.13480867 0.026704265 -0.24757512 -0.024254333 0.28024268 0.082174614 -0.22858825 0.053368945
0.023641905 0.3366034 0.17784783 0.10730553 -0.21339242 -0.06775563 0.092475146 -0.19901681
-0.022984076 0.105357334 0.23341848 -0.009785297 0.08346645 -0.0746702 0.0058084466 0.0786137
-0.39244652 0.06187433 0.3298164 -0.0013749318 0.095514625 0.10115719 0.19731386 0.1737178

head.norm.running_var f4 [64]
00000000: 4ed2 bb3a 4499 083b bd0a 973a 7cb6 b23a
00000010: c12e 2e3b f9f5 953a 572c a73a 763c 4d3b
00000020: a698 813a abcd e53a f1df 993a 953b 0f3b
00000030: 9681 ad3b b8e6 853b ef7a 833b 799d 0d3b
00000040: 657a c03b f3b6 8e3b c9c3 cd3b 4cc8 663a
00000050: 9ecc 423b 3748 c53a ae46 b73a eb6e 793b
00000060: 6995 db3b bdba 0b3b 02a5 b43a 5378 ea3a
00000070: 5926 013b bff4 e73a dd7f 9b3a e441 de3b
00000080: a407 2e3c 785d 933b c092 993b 8ba6 7f3b
00000090: 7203 753a c785 183b 93d1 d23a bd38 813b
000000a0: e1c0 de3a 5f9f d63a b5a8 ad3a b990 213b
000000b0: 9178 253b 56a6 1b3b 461e d23b 4b2e 0e3c
000000c0: e817 863a 5485 ac3b 0d02 773b b400 a53a
000000d0: 2890 073b 1114 7f3b 8a68 b63b d92b 1a3b
000000e0: 3e19 053b a68c 0f3c b6b9 0e3a 7c08 d43b
000000f0: afab 7c3b 6591 723b ed54 a63a f0b6 b73a
0.0014329643 0.0020843307 0.0011523586 0.0013634707 0.002657816 0.0011441103 0.0012754303 0.0031316555
0.0009887412 0.0017532607 0.0011739713 0.0021855582 0.005294989 0.0040863417 0.0040124576 0.0021608754
0.0058739656 0.0043553053 0.006279443 0.000880365 0.0029724012 0.0015051429 0.0013982856 0.0038060497
0.0067011607 0.0021321021 0.0013782086 0.0017888643 0.0019706695 0.0017696841 0.0011863668 0.006782757
0.010621939 0.0044972263 0.0046866834 0.003900918 0.00093465217 0.0023273097 0.0016084186 0.0039435313
0.0016994738 0.0016374401 0.0013249131 0.0024652912 0.0025248865 0.0023750267 0.0064123003 0.008678029
0.0010230513 0.0052649174 0.0037690431 0.001258871 0.002068529 0.0038921873 0.0055666612 0.002352467
0.0020309235 0.008761561 0.0005444543 0.006470738 0.003855448 0.0037012931 0.0012690105 0.0014016312

body.block1.conv.weight f4 [64, 64, 3, 3]
00000000: d663 ee3d e81f 923c 8c01 dfbb f258 0a38
00000010: 001a 29bc 66c3 5d3b cf8d 68bc fd37 bebc
00000020: 088d 3abd e98f 1d3d ffeb 033d 9bc8 d83b
00000030: fb65 30bb 7ea5 b6bb 9f83 e0bb eeca 433d
00000040: 26d6 4b3c d0da 06bd d22d 92bc e857 4abd
00000050: bbcb 4bbc 576f 08bd de6b 75bd fa15 a2bc
00000060: 1891 933d 2fbd ae3b 8641 7abc a2e5 a33d
00000070: 943c df3c 91d8 d43d 58dd c43c 3cb7 663c
00000080: 1e75 103d 83a0 493d 5208 093d bc41 f23c
00000090: b6b1 2fbd 1f81 09bd e8ae 7abd e930 d7bc
000000a0: 261a 1e3c 82a8 fabc 90e4 233d 78cd 6c3c
000000b0: 6ae5 193c 4c27 883d f614 d63a 80fe f8bb
000000c0: 6c06 113d 83c3 863b bd95 76bd 0d66 d73c
000000d0: 1916 01bc 8f59 2e3c f9b0 54bd cfe8 8fbc
000000e0: bf5a a13c 498e 093d 0d80 8d3a 0b20 72bc
000000f0: 9657 b13c d88c 4d3d df7c 9b3c c2ec 8a3c
00000100: ff8d 263d 988e 9abc 781b 2e3d 698b 343d
00000110: 951f 8d3c befc 9cbc df4b 14bc 9f9e ad3c
00000120: 886e 15bd f04d 5f3d d409 003c a301 58bb
00000130: 11e7 bdbc 1633 98bc 0d21 9a3d 8463 773d
00000140: f560 8f3d c4bd 6fbd cf94 27bd 018b 123b
00000150: 9afb b7bd 17f7 a3bc a104 823c 224c 1e3d
00000160: 70e1 023c ca95 4c3d 083c a43c 6584 07bd
00000170: 14cb 213d 2806 a13c c4f4 aebc 1d01 8b3d
00000180: c9f2 b3bc d092 3ebd 1e01 d93d b833 d1bd
00000190: 7aeb cabc af14 cdbd d07e b1bd cd06 cabc
000001a0: f2a0 48bd 2890 24bd 9351 60bc ce2a 48bd
000001b0: e41c 893d 6e03 ee3b 5bdf fbba cbc3 19bb
000001c0: dc6b 503d 4963 713d b7ee 0dbc 77ce 4a3d
000001d0: 5f75 2e3d 8c22 553d 1be8 44bd 740a acbc
000001e0: 81ad bf3d 79b2 d238 384b 373c 2cfa 893d
000001f0: 59f4 96bb 02bd 073a 5af7 29bc 79c6 603c
00000200: 3c33 623c e0e9 75ba 34be a8bc d7f9 b7bc
00000210: a42b 03bc 6aac e03b a419 32bd 9149 0abd
00000220: 9ab9 7c3c 38a7 8bbc ff4e fd3c f933 8e3c
00000230: a433 8bbd 8489 863d 3b39 c43c b575 663c
00000240: 356d c03d f64b f43c 4abd 7e3c 8112 573d
00000250: 26b4 b8bc ea53 353c a744 043d 71f8 3d3d
00000260: 8163 8f3d 74c6 453d 2f8d 3a3d 25d2 a33c
00000270: f62f 06bd 5ca9 7bbc bdef 63bd 8709 8bbd
00000280: b800 a9bc 7ac0 ffbc 46b7 84bd 6fdd c4bc
00000290: 3e4f 4fbd 88bf 06bd fe5b ed3b a691 c8bb
000002a0: ddd4 7bbd 5f99 5ebd 806f 243c 5fa2 7dbd
000002b0: 4e8f 9abd 7eb0 4bbd 4f72 ba3b 1746 04bb
000002c0: ce62 b2bc e8d1 413d 1004 af3c c84c 853c
000002d0: 8864 193d 11e2 44bc db3a ddbc ebf7 7dbc
000002e0: 50fa cabc 61ba 083d cf5e ed3c 640d f8bb
000002f0: 8085 e33d 8508 313c c2ad d83b 1b40 2e3d
00000300: b6c9 fd3b 9566 a5bb 2ac0 e73c b005 63bc
00000310: 18da 9f3c 9fc8 b43d 6000 063d 91c9 79bc
00000320: 30a9 373d 8347 233d 559d 413d 0097 233d
00000330: 1dc0 1b3d 0159 833d 34ff 0f3d 621b 343d
00000340: 13a2 72bc 3318 8dbc caca d1ba e957 713c
00000350: 25d5 913d 8180 83bc 5201 3f3d f760 5f3d
00000360: d8f1 16bd af30 20bd 6231 3f3d e371 1cbc
00000370: 89f9 213d 5811 29bd 2888 863c 6a22 1e3d
00000380: 0ac1 de3c 5794 0bbc 83c9 5bbc f132 f8bc
00000390: b3e1 4abd 91e9 8c3c ec35 153b 9d45 8f3d
000003a0: 2fcf 243d 472d bb3d 7128 3b3c 4f07 413d
000003b0: 59cc d7bb d18a 303d bba2 28bc 8374 a3bd
000003c0: e93d 7f3d 530b b23d 4916 38bd 1842 afbc
000003d0: 179e 083c bc41 a0bc 3824 2d3d 7d5f 35bb
000003e0: 5db2 5d3d 266d dc3c 7a2d 2ebb 7a50 d63c
000003f0: 8e92 45bd 40a1 383c 5e06 013d 9ab8 bbbc
0.11640136 0.01783748 -0.0068056043 3.29846e-05 -0.01032114 0.003383839 -0.014193966 -0.023220057
-0.045544654 0.03846732 0.032207485 0.006615711 -0.0026916254 -0.0055739274 -0.006851628 0.04780095
0.012441194 -0.03292352 -0.017844114 -0.04940024 -0.01243871 -0.033309307 -0.059917323 -0.01978587
0.07205409 0.005332611 -0.015274411 0.08002783 0.027250566 0.10392869 0.024031326 0.014081772
0.03526794 0.04922534 0.0334552 0.02957236 -0.042894088 -0.033570405 -0.06120196 -0.02626844
0.009649789 -0.030597929 0.040012896 0.014453284 0.0093930755 0.0664812 0.0016333151 -0.007598698
0.035406515 0.0041126623 -0.060201395 0.026293779 -0.007878804 0.01064147 -0.051926587 -0.017567066
0.019696591 0.03358296 0.0010795608 -0.014778147 0.02164821 0.050183147 0.018980442 0.016958598
0.04066276 -0.018866822 0.042506665 0.044078264 0.017226974 -0.019163486 -0.009051292 0.0211938
-0.036482364 0.054517686 0.007814843 -0.003295996 -0.02318147 -0.018579047 0.07525835 0.06039764
0.07000915 -0.058530584 -0.0409134 0.0022360685 -0.08983536 -0.020015283 0.015871348 0.038646825
0.007988319 0.049947537 0.020048156 -0.033085246 0.03950031 0.019656256 -0.021356948 0.06787322
-0.021966355 -0.04652673 0.10595916 -0.10214943 -0.024770487 -0.10013711 -0.08666766 -0.024661446
-0.048981614 -0.04017654 -0.013691324 -0.048868947 0.066949636 0.0072635924 -0.0019216345 -0.002346265
0.050884113 0.058932576 -0.008662871 0.049513306 0.042592403 0.0520349 -0.048072916 -0.021001078
0.09359265 0.000100468234 0.011187367 0.067371696 -0.004606765 0.00051780057 -0.010373915 0.013719195
0.013806161 -0.00093808584 -0.020598508 -0.022458 -0.00800601 0.006856491 -0.043481484 -0.033761565
0.01542511 -0.01704751 0.030921457 0.017358767 -0.06796959 0.06569198 0.02395307 0.0140661495
0.093958296 0.029821377 0.01554806 0.05250788 -0.022546839 0.01106737 0.032292034 0.04637951
0.07001401 0.048284963 0.0455448 0.019997666 -0.032760583 -0.015360203 -0.055648554 -0.067889266
-0.020630226 -0.03121971 -0.06480269 -0.024031369 -0.05061268 -0.032897502 0.0072436323 -0.0061208783
-0.0614823 -0.054345485 0.010036349 -0.061922427 -0.075468644 -0.049728863 0.005689896 -0.0020183378
-0.02177563 0.047319323 0.021364242 0.016271964 0.03744939 -0.012016789 -0.027005604 -0.015501003
-0.024777561 0.03338087 0.028975872 -0.0075699557 0.111094475 0.010805254 0.0066125104 0.042541604
0.007744993 -0.005047629 0.028289873 -0.0138563365 0.019513175 0.08827328 0.0327152 -0.015245811
0.044839084 0.03986312 0.047269184 0.039938927 0.03802501 0.064134605 0.03515549 0.043971427
-0.014809149 -0.017223453 -0.001600587 0.014730432 0.07120732 -0.016052486 0.04663212 0.054535832
-0.036851734 -0.03910893 0.046677954 -0.009548637 0.039544616 -0.041276306 0.016422346 0.03860704
0.027191658 -0.008519254 -0.013414743 -0.030297728 -0.04953165 0.017201217 0.0022767736 0.069956996
0.04023665 0.09139495 0.011423216 0.04712611 -0.0065856394 0.043101136 -0.010292704 -0.07981207
0.0623149 0.08693566 -0.044943128 -0.02139382 0.008338473 -0.019562595 0.04227087 -0.0027675324
0.05412518 0.026907515 -0.00265774 0.026161421 -0.04823547 0.011268914 0.031500213 -0.022915173

body.block1.conv.bias f4 [64]
00000000: 3398 11bd 3cdb 5839 c042 a1bc 36f0 0f3d
00000010: b99a 93bc 4f53 593c 704c a63c 2e6c 203c
00000020: 01bd febb 9272 0ebd 25a0 033c c070 6bbc
00000030: 16d6 1abd ffe0 313d 4743 9fb9 ac69 753c
00000040: 9426 463c 9779 90bc 77ba 113c 42f1 8a3c
00000050: 4d29 8a3b 0d8d c73a 2aa8 bfbc c7dc f83c
00000060: ba32 25bd 1453 ad3c b38e 7e3c 7fae 0e3d
00000070: c449 013d de87 86bb 56c2 6a3c c3d2 4a3d
00000080: 2e5f 33bc 8370 103d 6700 28bd dd33 963c
00000090: 2540 413c 28d2 a9bb 5e42 d73b 5f9f f43c
000000a0: 2d96 77bc 555c 463b 0642 7b3c 1fe2 123c
000000b0: 4373 fcbc f212 2ebc 5e66 8d3c 4093 513c
000000c0: 2745 cbbc 89b8 c4bc f76a c0bc 86ca 3dbc
000000d0: d32b e63b 51e6 fc3c 937d f23c b7cd 823c
000000e0: 180c 21bd cc29 23bd fec2 0aba ff0c 293c
000000f0: c15b 91bc 662c dbbc 8f48 a73c 986c e7bc
-0.03554554 0.00020681036 -0.01968515 0.035141192 -0.018018113 0.013264491 0.02030012 0.009791417
-0.007773996 -0.03477723 0.008033787 -0.014370143 -0.037801825 0.043427464 -0.0003037697 0.014978807
0.012094159 -0.017636104 0.008894554 0.016960744 0.004216349 0.0015224532 -0.023395617 0.030378712
-0.04033158 0.021157779 0.015536952 0.03483438 0.03156449 -0.004105552 0.01432856 0.049517404
-0.010947986 0.03526355 -0.04101601 0.018335277 0.011795078 -0.0051825233 0.006569191 0.02986115
-0.015111488 0.0030267437 0.015335565 0.008965044 -0.03081668 -0.010624634 0.017260727 0.012791455
-0.024813248 -0.024013774 -0.023488505 -0.01158393 0.007024267 0.030871542 0.029600894 0.015967233
-0.039318174 -0.039834782 -0.00052933383 0.01031804 -0.017743947 -0.02675457 0.02042034 -0.028250024

body.block1.norm.weight f4 [64]
00000000: 995c 6f3f 2b72 7b3f 1fdd 653f 0a2b 8c3f
00000010: 67cc 7e3f 454a 7a3f a537 5a3f dab5 743f
00000020: 0eff 763f 152e 6c3f ece4 763f 4852 653f
00000030: 0fff 6e3f ec6f 813f ef86 8a3f 9112 683f
00000040: 03ad 813f d3dd 873f 471d 673f f54b 743f
00000050: 0ec3 6a3f 84f0 643f 73c9 6f3f d61f 853f
00000060: 5e10 873f 251b 7a3f 0217 683f 132a 693f
00000070: 1851 5f3f 063a 7e3f 4e9c 813f 1bbb 7a3f
00000080: 3e23 843f 9525 833f 5522 493f 3d5f 823f
00000090: 7566 733f 8b96 6f3f 0cf8 773f 1019 763f
000000a0: 33bf 753f e880 843f b067 803f de2c 743f
000000b0: c252 6b3f c833 853f f495 813f 36f7 683f
000000c0: ac76 6d3f 5393 6a3f d321 673f df2c 833f
000000d0: b663 653f b5ad 7e3f 9779 613f 5744 5d3f
000000e0: 1c27 813f 2110 843f 81e1 5b3f bb33 7e3f
000000f0: 4233 723f 7f30 723f c864 723f de36 613f
0.9350067 0.9822108 0.8979053 1.0950634 0.99530643 0.97769576 0.85241157 0.95589983
0.9648293 0.92257816 0.9644306 0.89578676 0.9335794 1.0112281 1.0822428 0.9065333
1.0130924 1.061457 0.9027905 0.954284 0.9170388 0.894295 0.9366676 1.040034
1.055187 0.9769767 0.9066011 0.91079825 0.87233114 0.99307287 1.0125825 0.9794175
1.0323255 1.0245844 0.7856801 1.0185314 0.9507821 0.93589085 0.96862864 0.9613199
0.9599487 1.0351839 1.0031643 0.9538096 0.91923153 1.0406427 1.0123887 0.91002214
0.92759204 0.9163105 0.90285987 1.0248069 0.8960527 0.99483806 0.88076156 0.86432403
1.009006 1.0317422 0.85890967 0.99297684 0.94609463 0.9460525 0.9468503 0.87974346

body.block1.norm.bias f4 [64]
00000000: 965f c33e 2cfa 9cbd c77b fa3e 1c4c 4e3e
00000010: 69ab b83e 6e65 c13e 5436 0d3f af79 8a3e
00000020: 17bb b73e dfcb e03e 9b3f b03e 37c8 b63e
00000030: 3871 b33e 743a 83bc 86df 813e def2 a53e
00000040: 53aa 0a3f 6bd9 883e fa38 f83e d143 093f
00000050: eb52 be3e 0ae8 0b3f b945 963e 01b2 a03d
00000060: 2bdc 703e 2602 183e 34d7 b33e 1691 e43e
00000070: 36c5 b03e f12e 173e f6e7 9e3e 64d0 9c3d
00000080: c7fb 0a3e 328e a63e 41c4 323f 235f 103f
00000090: 722d 973e d716 043f d821 e93e 16aa 9f3e
000000a0: d57d d73e a80f bb3e cd44 823e dc0a aa3e
000000b0: 61b4 883e 93e5 733e 8c3b cf3e 5e42 073f
000000c0: 7b10 533e 5c08 d63e f3fb c83e b6ef 443e
000000d0: aa1e 9b3e f586 a53e 95bf 463f 96ed 2a3f
000000e0: 610d 613e a675 e23e 23bd 0e3f e23d ab3d
000000f0: 49f6 c83e 3a0e 1e3e 05e1 433e ee0b e53e
0.38158864 -0.07664904 0.4892256 0.20146221 0.36068276 0.37772697 0.55161023 0.27045962
0.35884926 0.4390554 0.34423527 0.35699627 0.35047317 -0.016019084 0.25365847 0.32411855
0.54166144 0.26728377 0.4848097 0.53619105 0.37172636 0.5465094 0.2935007 0.078464516
0.23521487 0.1484457 0.35125124 0.44641942 0.3452546 0.14764 0.31036347 0.07656935
0.13572608 0.3253036 0.6983071 0.5639517 0.2952686 0.5159735 0.45533633 0.31184453
0.4208819 0.36535382 0.25443116 0.3321141 0.26700118 0.23818044 0.40475118 0.52835643
0.20611756 0.41803253 0.39254722 0.19232067 0.30296832 0.32329527 0.7763608 0.6676878
0.2197776 0.44230384 0.5575735 0.083614126 0.392504 0.15435115 0.19128807 0.44735664

body.block1.norm.running_mean f4 [64]
00000000: 44e7 463f 850d a3bf 8bd1 00c0 e061 85bf
00000010: 86c8 1dbf 0335 423f 8d2b 4a40 a080 a63e
00000020: 9dda 1dbf 6a0b e03e 213b 7b3d f47a 25be
00000030: 4ac8 4b3f 01b1 8bbf 7952 79bf 4f1f 24bf
00000040: 4ac0 acbe 42bd 4abf 897e 88bf 03ce 6ebe
00000050: 133a a43f 89f9 17bd 16f6 7cbf 6d9c 4ac0
00000060: 77ea 92be 5a99 73bf d415 9b3f 0203 90be
00000070: 91f0 2abf e521 aabf 5e21 823e ff78 fc3e
00000080: d1d2 293e 076c d9bf c966 3540 18bc 69be
00000090: 21d9 27bf 274b 153f d3c5 68bf 2042 82bf
000000a0: db15 72be 2167 40bf a8a2 ff3f 697c 0d3e
000000b0: 5f52 e2bd 7d90 d0bf 354f b93e 8d93 cf3d
000000c0: 6602 8cbf ff0b 90bf f2ca f73e aa0a 9fbf
000000d0: 5be8 8dbf 6270 3fbf 8c94 5abe ab13 c53f
000000e0: 1647 03c0 44e3 203f 0951 763e 9c6f 4ebf
000000f0: 98ed 383f 42c8 8ebf 66f8 0dc0 fc6c 66be
0.77696633 -1.2738501 -2.0127895 -1.0420494 -0.616341 0.7586214 3.1589081 0.32520008
-0.616617 0.43758708 0.061335687 -0.16160184 0.7960249 -1.0913392 -0.9739147 -0.64110273
-0.33740455 -0.79195035 -1.0663615 -0.23320775 1.2830223 -0.03710321 -0.98813 -3.1657975
-0.28694507 -0.9515587 1.2116036 -0.28127295 -0.66773325 -1.3291594 0.25416082 0.49311063
0.16584326 -1.6986092 2.8343985 -0.22825658 -0.6556569 0.583178 -0.90926856 -1.017643
-0.2364115 -0.7515736 1.9971514 0.1381699 -0.11050867 -1.6294094 0.36193243 0.10135565
-1.0938232 -1.1253661 0.48397022 -1.242513 -1.1086534 -0.7478086 -0.21345729 1.5396627
-2.0512137 0.6284678 0.2405435 -0.8063905 0.7223754 -1.1154864 -2.218286 -0.22502512

body.block1.norm.running_var f4 [64]
00000000: 1ece 633f 3c94 a83f 84d1 623f 780d 9a3f
00000010: d2f1 d13e 2eb5 8c3f 5212 df3f 1e6e ff3e
00000020: b7d6 da3e e37f 363f 8437 203f 7894 b33e
00000030: cfde c73e e247 0940 86e2 303f 9c93 153f
00000040: 585b 6c3f 438a 323f 07dd ca3e ee34 073f
00000050: 01d5 063f 9d79 0e3f 7f84 f23e b147 3840
00000060: 6db2 0a3f e061 293f 2ace 333f 433e fe3e
00000070: d766 3e3f b0cd 5d3f 4720 4a3f 4aa3 bd3e
00000080: 1120 093f babf 8c3f da1f 3740 6f64 fd3e
00000090: 753a e93f 2ff9 cf3f b629 103f daeb 923f
000000a0: 60d2 1c3f fa3f 303f 709a 5e3f f595 ee3e
000000b0: 9340 023f 5bf4 ad3f 81e0 063f 6d00 1a3f
000000c0: ec06 e83e 7b48 173f 37a2 3e3f 9b39 2b3f
000000d0: cab3 2d3f cd43 193f 24df 283f 16b0 913f
000000e0: 0fe2 0440 3aaf 493f 3836 cb3e 5403 913f
000000f0: 74f5 323f c8e3 b83f f250 d13f d09b 103f
0.88986385 1.3170238 0.88600945 1.203536 0.41004807 1.0992792 1.7427466 0.498887
0.4274194 0.7128889 0.6258471 0.3507421 0.39037177 2.1450124 0.6909565 0.5842836
0.9232688 0.6974222 0.39621755 0.5281514 0.5266877 0.5565432 0.47366711 2.8793757
0.54178506 0.6616497 0.70236456 0.49656877 0.7437567 0.8664198 0.789555 0.37038642
0.53564554 1.099601 2.861319 0.49490687 1.8220965 1.624792 0.56313646 1.1478226
0.61258507 0.6884762 0.869544 0.46598783 0.5087978 1.3590196 0.52686316 0.601569
0.4531778 0.5909497 0.7446627 0.66884774 0.6785246 0.5986908 0.65965486 1.1381862
2.0762975 0.78783 0.39689803 1.1329141 0.6990578 1.4444513 1.6352828 0.5648775

body.block2.conv.weight f4 [64, 64, 3, 3]
00000000: 7827 a0bd 502e b1bd aef5 11bd d5c5 55bd
00000010: e297 563b 9bd8 11bc f8f4 fa3c 7564 39bd
00000020: cc6c c7bb c187 233d ba48 173d e742 a13a
00000030: 3b27 d13c b4bd bebc 0284 babb 9b10 223d
00000040: f060 9cbd 858e 42bc c455 7a3d 19a9 563c
00000050: 85cb 4dbd 5129 873c aa4c 27bd 236d 22bb
00000060: 91d4 32bb fc27 f7bc c5a1 873b 63e6 6fbd
00000070: e411 853d da6c c5bb 1e0a 453d 3371 863d
00000080: ec12 9c3c c1ef 5e3c 6796 1e3d 44ff 9cbc
00000090: 5dd7 9e3b 7e2a e9bc a7c2 4a3d b9ed b7bc
000000a0: 6ac9 1bbc 650c 813d f01c fb3c 05cb 813c
000000b0: 31f2 6b3c ed20 4bbc 2f22 ab3b 8142 66bb
000000c0: 9692 3d3d 336a 55bd b3e1 7fbd a745 de3c
000000d0: 56fb ef3b c89b cdba 539b 903d 2b87 da3b
000000e0: 4616 4bbd 2606 863d 0e37 0f3c 4f2c eabc
000000f0: f0ce b93c c3b7 e43c 0a80 1b3a 9f37 7c3d
00000100: 345e ef3c 45e7 8dbc 6d90 3cbd 7b61 5e3c
00000110: 916b 61bc 4518 fabc f101 5fbd b2d0 833c
00000120: 439f b2bc 3479 7e3b f1dd d4bb 97d0 85bd
00000130: 7d42 61bc e74a 86bd 9a6b 533d c4fb 75bc
00000140: 592e 873c 55c6 adbd f79e 60bd 4392 053d
00000150: 5563 4a3d 7933 713d 5efb 623d 3914 cbba
00000160: 187f d0bc 7b38 e3bc d064 a3bd 659a da3b
00000170: 9c47 823d 2de4 f63c 7bfb 43bc 78ed f13c
00000180: 766c f3bc 9487 93bd 3b81 fbbc c4d2 fa3b
00000190: 74f8 d33c e992 353d 53bc 143d a19b c6bc
000001a0: 285d e0bc 64fe 773d 4388 3abd 0a0c f43b
000001b0: 2e1e b2bb b9da f53c 7b97 a33d 8801 1f3d
000001c0: b9b0 6a39 aa2e 1abc 4f11 51bc cdd0 5dbd
000001d0: 58c9 21b9 a739 2d3d 59f9 803c 4aec 27bd
000001e0: 378e 663d 18ad ddbc 2e89 943c aab3 10bd
000001f0: 7ccd c1bd ed06 14bd ae18 453c 3f0b 3e3b
00000200: 88bc 993d 0298 2e3d 2707 d9bc 5b03 393d
00000210: 915f a53b 37d3 b2bc bb14 d2bc 60e0 403d
00000220: ae5f 723d 10b0 26bd 4e15 49bd b01e 47bc
00000230: 5c72 b6bc 8275 d7bd 124d 43bd 8659 8c3c
00000240: 77ed 32bc d16a 183d 1d84 a43c 45f8 a83c
00000250: 09de 3fbd 0721 5ebd 2aaf c03d 02a6 05bb
00000260: daeb fabc 8688 95bc 3066 56bd 1dea 40bd
00000270: 398b e93c db2d 983c 71d7 86bd c753 683d
00000280: 3548 9bbb ff60 c0bc 367e d63c a3d5 3dbb
00000290: 237d 17bd 59d6 cd3d bd49 3f3c bc59 4bbd
000002a0: 97bb 523c 925a 6dbc 8e71 0fbc b531 ebbc
000002b0: 35c1 0dbc 7944 a2bc fc30 05bd b7b5 523d
000002c0: 43ed a83d 3e40 a0bc 7bf6 23bd 0721 643c
000002d0: 85d5 c73c 0bb8 073d 9b38 853a 3847 c9bb
000002e0: 9729 533d c307 cfba a507 2fbd 1a28 893c
000002f0: 73dd 1abd 0b99 223d 29f2 30bc ac47 0d3c
00000300: 0765 743c c6ba 79bc 7b0a a3bc 9c99 74bd
00000310: ca98 9abd b4ed 853b 2cb2 e83b 15f4 de3c
00000320: c0ec a63b 2353 ed3b 28d3 e23b fc57 283d
00000330: 8afa 2dbd d48f d0bc 6182 c3bb 2234 013d
00000340: f193 643c e8ce ae3b 675d 8dbc 6eb1 3bbd
00000350: e77c 8cbc f30b 7a3d 239d 723d 99d8 183c
00000360: 1fd8 7cbc 1010 80bd 543b 47bd d1ec 403d
00000370: b0ac 1a3d 0453 c6bb 331c d13c 59bb 06bd
00000380: ecf8 12bd 53bc 2e3d b2b0 133d 0610 79bd
00000390: 6e81 85bc 5e3c 31bb 977a 10bc 1df6 06bc
000003a0: 68b7 08bd 5c62 443c f319 773d e2b7 d93c
000003b0: cd45 c93c 8323 20bc cb7c a33c 4475 75bd
000003c0: f98d 9dbd 024e b2bc e252 913c bbf4 49bd
000003d0: 88b7 fdbc 8352 b43c 8faa 97bb 9ece 29bc
000003e0: 2766 4c3d 0eae 42ba e497 4bbd 70a2 3abd
000003f0: 18b4 14bd d30f a7bd 1e69 bebd 45cd 5ebd
-0.07820028 -0.086514115 -0.03563469 -0.05219062 0.0032744338 -0.00890174 0.030634388 -0.04526182
-0.0060859676 0.039924387 0.03693459 0.0012303264 0.025531402 -0.023283817 -0.005692006 0.039566617
-0.07635677 -0.0118748 0.06111695 0.013101839 -0.05024292 0.016499193 -0.040844597 -0.0024784289
-0.0027287344 -0.030170433 0.0041391575 -0.058569323 0.06497553 -0.006024939 0.04810535 0.0656456
0.019051991 0.0136069665 0.038717654 -0.019164689 0.0048474506 -0.028462645 0.04950204 -0.022452222
-0.00950847 0.06301192 0.030653447 0.015843878 0.014401005 -0.012397987 0.005222581 -0.0035134854
0.046282373 -0.052103233 -0.062471103 0.027132822 0.0073236628 -0.0015686685 0.07060876 0.0066689453
-0.04958179 0.065441415 0.008741153 -0.028585581 0.022681683 0.027919656 0.000593186 0.061576482
0.029219724 -0.017322192 -0.046036173 0.013573046 -0.013758556 -0.03052915 -0.05444521 0.016090725
-0.021804458 0.0038829567 -0.006496184 -0.06533926 -0.013748762 -0.06557255 0.05161629 -0.015013639
0.016501592 -0.084850945 -0.0548391 0.03261019 0.049411137 0.05888698 0.055415504 -0.0015493698
-0.025451228 -0.027736893 -0.07978213 0.0066712373 0.06361315 0.0301381 -0.011961813 0.02953218
-0.029714804 -0.07203594 -0.03070127 0.0076545198 0.025875308 0.044329558 0.036312412 -0.024244132
-0.02738817 0.06054534 -0.045540106 0.007447724 -0.0054357266 0.030011522 0.07987877 0.03881982
0.00022381813 -0.00941054 -0.012760474 -0.054154206 -0.00015429163 0.04229131 0.015743898 -0.040996827
0.05628797 -0.027060077 0.018131819 -0.03532759 -0.09463021 -0.036139417 0.01202981 0.0028998402
0.075066626 0.042625435 -0.026492668 0.045169216 0.005046793 -0.02182923 -0.02564465 0.04708898
0.05917328 -0.04069525 -0.049092583 -0.012153313 -0.022271328 -0.1052046 -0.04768092 0.017132532
-0.010920874 0.037211243 0.020082528 0.020626197 -0.04684261 -0.054230716 0.0940841 -0.0020393138
-0.03063004 -0.018253576 -0.052343547 -0.047098268 0.02850877 0.018576553 -0.06584061 0.05672052
-0.0047388324 -0.023483751 0.026183229 -0.0028966449 -0.036984574 0.10050649 0.011675295 -0.049646124
0.012862108 -0.014486926 -0.008755101 -0.028710226 -0.008652021 -0.019808041 -0.03251742 0.051442828
0.08248379 -0.019561883 -0.040029984 0.01392389 0.024393806 0.0331345 0.0010163964 -0.006142523
0.051553335 -0.001579516 -0.0427319 0.016742755 -0.037808847 0.039696734 -0.010799923 0.008623045
0.014916665 -0.015242284 -0.019902458 -0.059716806 -0.075486735 0.0040871743 0.007101318 0.027215997
0.005094141 0.0072425767 0.0069221444 0.041099533 -0.04247526 -0.025459208 -0.00596647 0.03154386
0.013951288 0.0053347237 -0.017256452 -0.045823507 -0.017149402 0.061046552 0.05923189 0.009328985
-0.015432387 -0.06253064 -0.048640564 0.047100846 0.037762344 -0.0060523767 0.025526142 -0.032893512
-0.03588192 0.04266007 0.03605718 -0.060806297 -0.016297068 -0.0027044038 -0.00881829 -0.008237389
-0.033378035 0.011986341 0.06032748 0.02657694 0.024569416 -0.009774092 0.019956967 -0.059926286
-0.07693095 -0.021765713 0.017739717 -0.04930566 -0.030971304 0.022012 -0.0046284865 -0.010364203
0.049902108 -0.0007426449 -0.0497054 -0.04556507 -0.036304563 -0.08157315 -0.09297393 -0.05439498

body.block2.conv.bias f4 [64]
00000000: ee7b 2cbd 4655 f33c 8887 afbb 94d1 09bb
00000010: 8c9e 9a3c 6e14 00bc 9eb3 413c f8af 1ebd
00000020: 5645 80bb 35e3 09bd 9dab 95bc 7b35 353d
00000030: be5b 213c b2fe ed3c c255 04bd f0b6 1e3d
00000040: 6cf8 f5bc 9974 b6bb 0fd5 1a3d e544 6fbc
00000050: 4abf 7fbc 506d cebb ed11 213d 237c 0cbd
00000060: f5f5 c4bc 273a 203d 2f27 523c 5e82 4b3c
00000070: 386a 30bc 9970 29bc 8c7e 26bc f4b9 58bc
00000080: 154a 8139 ac0a f03c 2df5 0abd db2b e3bb
00000090: 5d14 c33c dc58 223b 0215 97bc c564 19bd
000000a0: deda f3bc b2ac 093c 183b 6abc ae09 883c
000000b0: b764 c23c 655f 64bc 3557 e83a fc6d 76bc
000000c0: 9e66 1c3d 69ff e13b 0509 3cbd 34f2 18bd
000000d0: 9730 093c 6c57 a9bc d865 f8bc 5e8c b6bc
000000e0: a41a d2bc d364 fdbc 049c cfbc 42ca 6dbb
000000f0: 8871 0f3d bb07 f33c 92eb cebc 9d55 0fbd
-0.042110376 0.029703747 -0.0053567328 -0.002102946 0.01887443 -0.007817371 0.011822609 -0.038742036
-0.0039145155 -0.033663947 -0.018270308 0.044240456 0.009848533 0.029052112 -0.032308348 0.03874868
-0.030025683 -0.0055680987 0.037800845 -0.014603828 -0.015609572 -0.006299652 0.039323736 -0.034298074
-0.024043063 0.03911796 0.012826725 0.012421219 -0.010767512 -0.010341787 -0.010162007 -0.013227928
0.00024659993 0.029301964 -0.033925224 -0.006932718 0.02381342 0.0024772203 -0.018442634 -0.037449617
-0.02976745 0.00840299 -0.014296316 0.016606178 0.023729665 -0.013938759 0.0017726185 -0.015040871
0.0381838 0.0068969023 -0.04590704 -0.037340358 0.008373401 -0.020671569 -0.030322 -0.02228373
-0.025647469 -0.030931866 -0.025342949 -0.0036283885 0.03502038 0.029666772 -0.025258813 -0.034993757

body.block2.norm.weight f4 [64]
00000000: ddcb 6c3f c4d5 6c3f 469e 6d3f 8119 873f
00000010: 44ab 6d3f a021 723f 5577 823f 0bbc 773f
00000020: ddc2 693f 82c8 6d3f 3f4d 883f 282f 7e3f
00000030: 680b 633f a88b 763f 5c0b 653f 9a12 663f
00000040: 672c 7c3f 3f58 803f 5dc9 703f f8c3 643f
00000050: cc09 6c3f 1558 7d3f 0e08 6c3f aedd 833f
00000060: 589b 7d3f 21ba 733f 6b44 813f 7bb5 6d3f
00000070: 5f78 823f c1f0 773f 5d4a 823f 5013 723f
00000080: 5b70 803f 1a03 753f b89d 6e3f c73d 723f
00000090: b821 763f f811 803f 18d5 6f3f d98a 793f
000000a0: 0aca 783f 86e1 8f3f a13a 713f fa98 543f
000000b0: 904c 713f f14d 5f3f 801b 603f 503f 803f
000000c0: 6313 813f e866 663f 7b81 5b3f f20f 743f
000000d0: 229c 703f 53a3 7e3f b991 703f 3f61 723f
000000e0: bb1e 833f 5a28 683f 81dc 6e3f 9e82 7e3f
000000f0: 7d3f 7a3f 7d52 883f 355e 6a3f 4b58 853f
0.9249857 0.9251368 0.9281963 1.0554658 0.92839456 0.9458256 1.0192667 0.96771306
0.9131296 0.92884076 1.0648574 0.99290705 0.8868928 0.9630685 0.8947046 0.89872134
0.9850525 1.002693 0.94057256 0.89361525 0.9220245 0.9896253 0.9219979 1.0302026
0.9906516 0.95205885 1.0099005 0.9285504 1.0192984 0.96851736 1.0178944 0.9456072
1.0034288 0.9570786 0.9320941 0.94625515 0.961452 1.0005484 0.9368453 0.9747749
0.9718329 1.1240699 0.94230086 0.83045924 0.9425745 0.87228304 0.8754196 1.0019321
1.0084041 0.9000077 0.85744447 0.9533683 0.9398824 0.99467963 0.93972355 0.94679636
1.0243753 0.9068657 0.9330521 0.99418056 0.97753125 1.0650173 0.9155 1.041757

body.block2.norm.bias f4 [64]
00000000: 8336 a93e 5737 913e 270d dc3e 7355 e73e
00000010: 6313 e23e dc93 a33e a836 a03e b71f 803e
00000020: 938a 0c3f 87ed fb3e 17d1 f03d 1908 843d
00000030: 3538 d73e ba42 ff3e b4eb d93e aa41 ce3e
00000040: e07a d53e d6db 3a3e 66bf 973e fe9e f63e
00000050: d2f6 a13e 17a5 5b3e a3ae fa3e e166 c43e
00000060: a421 c33d 3e7a 823e f482 d03c e227 ae3e
00000070: d5ba 4dbb d8ab 543c 26e8 533e b2d7 d43e
00000080: 8c3d 8f3e 70af 9f3e ed96 163e b43f 9f3e
00000090: 6eb0 af3e e7a5 733e a223 3f3f 6947 da3e
000000a0: cc3d 12bd 0b92 e33d 0150 c13d de6b 053f
000000b0: 0179 ba3e f86d 0d3f 3a0f 0b3f 410f 903e
000000c0: 48e1 653e 3e63 093f 751a 833e 2d5a a13e
000000d0: 29d2 a53e 51b6 98bd 9bbe b53e be95 ca3e
000000e0: 9021 943d a4f8 de3e bde8 8f3e 8ceb 943e
000000f0: c03c a93e 0b66 3d3e 808f ae3e f64d cf3d
0.33049402 0.28362533 0.42978784 0.4518238 0.44155416 0.31948745 0.312917 0.25024197
0.5489895 0.49204656 0.11758631 0.06446857 0.4203507 0.49855596 0.4256264 0.40284473
0.4169531 0.18247923 0.29638213 0.48168176 0.3163362 0.21449696 0.48961362 0.3835974
0.09527901 0.25483888 0.025453068 0.34014803 -0.0031391878 0.012980424 0.20694026 0.41570812
0.27976644 0.31188536 0.14706011 0.3110329 0.34314293 0.23793755 0.74663746 0.42632607
-0.035703465 0.1111184 0.09439088 0.5211772 0.36420444 0.55245924 0.5432011 0.28136638
0.22449219 0.53667057 0.25606123 0.3151411 0.32386902 -0.07456649 0.35496983 0.3956737
0.07232964 0.43549073 0.28107253 0.29085958 0.3305416 0.18495958 0.34093857 0.10122292

body.block2.norm.running_mean f4 [64]
00000000: 0ab4 28bf cfb5 57bf af5e 9dbe 6d9e 87c0
00000010: 38f3 0bc0 37ff 80bf ce30 313e 0ca0 62bf
00000020: 62e1 09c0 abef 653e 6095 7ac0 8172 dbbe
00000030: 920f 40bf 326d d2be 1a22 3b3f 6e27 a6be
00000040: 05cd 6b3e 9c1e e9be 53ef c23e 0139 103f
00000050: 0c9c 16bf 59fe c63e 5c65 7bbf 7d0d 15be
00000060: 8ff9 10c0 a0c1 293c 10ec debe 7aa2 a8bf
00000070: 9920 963f e431 83be eba2 f5bf b944 4fbf
00000080: e495 a1bf 78ba bc3f 2503 49bf 0e74 afbf
00000090: f016 213f 993a 8fbe 235c 41bf 0c47 21bf
000000a0: 28cd 07c0 e6e3 0d40 7df0 26bf 5070 83bf
000000b0: 7d45 18c0 1e0c 83be dee3 fdbf 75ac d8bd
000000c0: 3ab3 dabf 7a83 a3bf a5e6 47bf 40f6 b5bf
000000d0: f27d fb3e 77c0 003f 19ed 4bbe 4ee1 eabe
000000e0: 5f4b cbbf e3a6 a5bd 892c d33e 4304 e4bf
000000f0: 9934 3d3f 8ac5 87bf 96e7 39bf 9260 acbf
-0.6589972 -0.8426179 -0.307363 -4.238089 -2.18672 -1.0077885 0.17303774 -0.8852546
-2.1543813 0.22454707 -3.9153671 -0.42860797 -0.7502376 -0.41098934 0.7309891 -0.32451957
0.23027427 -0.45531166 0.38073215 0.5633698 -0.5883186 0.38865927 -0.9820154 -0.14555927
-2.2652318 0.010361105 -0.43539476 -1.3174584 1.1728698 -0.25624 -1.9190344 -0.8096424
-1.2623868 1.4744406 -0.78520423 -1.3707292 0.62925625 -0.27974394 -0.75531214 -0.62999034
-2.1218967 2.2170348 -0.65210706 -1.026865 -2.3792412 -0.25595182 -1.9835165 -0.105797686
-1.7085946 -1.2774498 -0.7808631 -1.4215775 0.49119526 0.5029368 -0.19914664 -0.4587502
-1.5882376 -0.08088472 0.41244915 -1.78138 0.7390838 -1.0607159 -0.72619 -1.3466971

body.block2.norm.running_var f4 [64]
00000000: 9ad2 e03e b387 c23e 5444 fa3e 39e9 4040
00000010: a8d5 8e3f b380 e83e 1343 993f 93af 183f
00000020: fca3 d93f 88c0 403f 421b 543f 1446 9f3e
00000030: 5ea5 d23e 1425 cb3e b42d cd3e 2cd6 993e
00000040: b399 a93e b6d1 de3e c1b8 993e f00f a73e
00000050: 4baf ec3e 82ef 6f3f 713f 063f fd84 433f
00000060: 4d76 653f 0cf0 b93e 7ca7 f53e 76c0 e53e
00000070: 621f 133f 7d82 253f 3bf8 663f 4150 de3e
00000080: 28c4 553f 26c6 763f a271 df3e 9ef5 c73e
00000090: cdd6 1c3f f45a f83e 5f6f 8d3e 67d1 d23e
000000a0: 48f2 ef3e ac94 0840 080f 863e be38 3d3f
000000b0: bfbe 3d3f d067 c03e 9389 243f 58ba dd3e
000000c0: 61ac 003f 7002 b73e caf9 9d3e 1df4 f13e
000000d0: 9827 c03e 3b53 973e a0f2 953e 99a0 383f
000000e0: 9ffb 963f 8c96 de3e ada7 903e 00de 8c3f
000000f0: ad25 343f 788e 2b3f 2d29 0c3f 2505 143f
0.43910676 0.37994155 0.48880255 3.0142348 1.1158953 0.4541069 1.1973594 0.59642905
1.7003169 0.7529378 0.8285409 0.31108153 0.4114179 0.39676726 0.4007393 0.30046213
0.33125076 0.43519372 0.3002377 0.32629347 0.46227488 0.93724835 0.52440554 0.763748
0.8963364 0.36315954 0.47979343 0.448734 0.5746976 0.64652234 0.9022252 0.43420604
0.83502436 0.963961 0.43641382 0.3905458 0.6126526 0.48506892 0.27624032 0.41175386
0.46864533 2.1340742 0.26183343 0.73914707 0.7411918 0.37579203 0.6427242 0.43306231
0.5026303 0.35744047 0.30854636 0.47256556 0.37530208 0.29555687 0.2928667 0.7212005
1.1795539 0.43474233 0.28252926 1.1005249 0.7036999 0.67014265 0.5475033 0.5782035

body.block3.conv.weight f4 [64, 64, 3, 3]
00000000: fdec 1fbb d567 813c 85d6 913c c04b dabb
00000010: 8c6e 473d 1fa1 1abd ea9c 5dbd 2c04 753d
00000020: 74a6 81bc f76e 9d3c 0923 38bd 93b2 90bc
00000030: 33af 073c fd2a 9b3c 99c1 7cbc f6fc d73c
00000040: 9859 003d 7a57 55bc 2c15 0abd d097 413b
00000050: a38d 45bd 6deb 253c dbae 9dbc 34be 65bd
00000060: cff2 71bc a5b2 83bc bf49 f5bc 88ca 643b
00000070: 554c 683c 1b62 87ba 7b97 ae3b e379 bd3c
00000080: 2f9f 38bb 68ad 813c 580a 04bc 0b5c 973a
00000090: 444f 7f3b 4950 b1bc aaab d9bc 5031 47bd
000000a0: 7d2b 0e3c ff50 04bd 9574 32bd 459b 07bd
000000b0: c101 17bd b102 743d b54f 293d 3329 643b
000000c0: 3a44 ce3c 9fff fc3b f8dc 06bd 5cd2 0a3c
000000d0: f174 9d39 2e30 07bd 34fc 89bd 79e6 94bc
000000e0: 0296 b13c 4656 c4bc 95b3 2fbd 1461 82bb
000000f0: 9c5f dfbc d1e3 efbc 624a 7c3b 6298 80bc
00000100: 32bf ac3c 709b 4d3c 5f54 88bb 25d4 fdbb
00000110: 27e3 43bc d59b 1a3d 48f7 0f3c 084e 28bc
00000120: 9722 20bd 011f 36bd 4d79 9ebb 63c7 163d
00000130: d7d1 84bc ef58 9dbc c81c 34bc a40c 69bb
00000140: 416f 98ba 1fc7 f93b 10c2 b3bc 02d5 38bd
00000150: 9231 90bc 5dd5 833b 8cfd 383c 481a 3dbc
00000160: 861f 583c 34ea 833d 1c9a d0b9 2340 4c3c
00000170: 26c4 0c3d b4d1 2b3c 9144 4d3c d2b4 abbb
00000180: 4eaf 0b3c 34aa 3dbd 5c33 2bbd 0a96 9bbc
00000190: c290 263d af57 1d3d a491 bfbc 35ee f23c
000001a0: 36d7 403d c319 303d 2cde 9b3b 5698 5b3c
000001b0: c86e cebc 7c62 c9bc e020 17bc 1f4b df3b
000001c0: d89b 67bc 64e7 883c 1123 0c3c 51e7 c43b
000001d0: a07e 5f3b 9a04 b7bb ebd9 02bd dd7e b43a
000001e0: a4b7 b1ba f1ac 673d b72c 913d a05d 473d
000001f0: e786 ad3c f18a d03d ed2f aebc 821b 00bd
00000200: ba9d 2cbd afb6 f8bc 0dcb 4e3c 2ad2 803c
00000210: bdd1 e73c 20d5 8e3d 7ca0 2e3d 4b94 64bc
00000220: 1add 03bd a526 9e3c e6c8 03bd 801f 59bd
00000230: 7bbd 153c 2964 953a 8e2c b3bc f415 a93c
00000240: a09d 1cbc 7d26 eebb 3fbd d9bc 49c9 e53c
00000250: d28f 8b3b f00a 1939 2fac 8b38 6c38 c6bc
00000260: 6d05 d73b bacc 013c 1ea7 ed3c 0fc9 f1bc
00000270: d7c3 c4bb 8599 ffbb a758 9dbc ee3e f33b
00000280: a757 3c3d fdd6 be3c 1c61 813c 222e b53c
00000290: f421 643d 8072 86bb 9a9c a7bb 97bf 06bc
000002a0: 5452 343c bd4b d9bb 55a1 2fbd 8200 a5bc
000002b0: cc86 da3b 04ae ad3c 1bad b43c b5c4 73bc
000002c0: 3f7a 463c 737f f63b dd93 cabc 4172 57bc
000002d0: 02a4 6abd eb26 3fbc 993a 6d3d 6ecd 42bd
000002e0: 6243 6dbc 7bc1 fd3b a32f d7bc 612a bcbb
000002f0: 3b02 f73c 0766 5ebd 7841 84bd 3b4c 69bd
00000300: ea41 1abd 5da9 debc 817d 40bd b4c8 88bd
00000310: 4d2f 5abb 89fc 0bbd 52f3 7ebc 7e9a 60bd
00000320: c935 c4bc 5d9f e23a c0c7 d03c 7069 00bc
00000330: 450b 02bd 01a7 213c 507e a73b 348e a3bc
00000340: bfbf cb3c 8cfe 65bb 1299 4ebd 0b09 7e3c
00000350: e6a9 c4bc 0e3c 8bbc 5960 9fbc 708a 27bd
00000360: 9815 973c e7ab f9bb 856a e4ba a9d2 a1bc
00000370: 7a37 7fbc 5a73 c1bb c787 e1bc afcf 0dbd
00000380: aecb eabc 832d 953c 8404 3ebc b14a ffbc
00000390: 7efd 0abc 100f d8bb 21be 5abc eb56 b2bc
000003a0: 62f0 d53c 0782 6a3c 2ea4 cebb 9fbb c9bc
000003b0: 988f 32bd b9b3 01bc 0b4e 093c 3ede a7bc
000003c0: 84c2 8ebb 26fe 38bc 0820 60bd 2138 68bb
000003d0: dd95 243d 430f 493d ffb8 033c c1d5 413d
000003e0: 6fb7 0b3d 9900 20bb c191 a03d 2440 afbc
000003f0: d898 f73c bc54 3c3d fd7f 1f3d 66e4 f8bb
-0.002440273 0.015796581 0.017802486 -0.006661862 0.04868941 -0.037751313 -0.054104723 0.05981843
-0.015826441 0.019217951 -0.044955287 -0.017663276 0.008281517 0.018941397 -0.015427017 0.026365738
0.031335443 -0.013021344 -0.033711597 0.002953995 -0.04823078 0.010126931 -0.019248417 -0.056089595
-0.014767363 -0.016076395 -0.029942391 0.0034910757 0.014178355 -0.001032892 0.0053281165 0.02312941
-0.0028171053 0.015829757 -0.008059107 0.0011547817 0.0038957158 -0.021644728 -0.026571114 -0.048631012
0.008677361 -0.032303806 -0.043568213 -0.03310706 -0.036866907 0.05957288 0.04133578 0.0034814596
0.025179017 0.007720902 -0.032925576 0.008473005 0.00030032502 -0.033004932 -0.06737557 -0.018176304
0.021677975 -0.02396692 -0.042895872 -0.003978858 -0.02726727 -0.029283436 0.0038496484 -0.015697662
0.021087263 0.012549266 -0.0041604484 -0.007746237 -0.011956013 0.03774627 0.008786984 -0.01027251
-0.039095487 -0.04446316 -0.0048362375 0.036811244 -0.01621334 -0.019207446 -0.01099319 -0.0035560513
-0.0011629836 0.007622614 -0.021943122 -0.045125015 -0.017601762 0.0040232376 0.011290919 -0.0115419105
0.0131911095 0.06441155 -0.00039787672 0.012466463 0.03436675 0.010487009 0.012528555 -0.0052400613
0.008525683 -0.046304896 -0.041797027 -0.018992443 0.040665396 0.0384137 -0.023384877 0.029654602
0.04708024 0.04299332 0.0047567096 0.013403019 -0.025199309 -0.024583094 -0.009224147 0.006814375
-0.014136277 0.016711898 0.008553282 0.0060090204 0.0034102574 -0.0055852653 -0.031946104 0.0013770718
-0.0013558757 0.056561414 0.07088607 0.048673272 0.02118249 0.10182751 -0.021263087 -0.031276233
-0.042142607 -0.030360548 0.012621653 0.015725214 0.028298253 0.06974244 0.04263352 -0.013951371
-0.03219328 0.019305537 -0.032174014 -0.053008556 0.009139414 0.0011397648 -0.021871831 0.02064035
-0.009559065 -0.0072677718 -0.026579497 0.028050082 0.004259088 0.00014595292 6.660108e-05 -0.024196826
0.006561926 0.007922346 0.029010352 -0.029514818 -0.0060047912 -0.0078002834 -0.019207312 0.0074232733
0.04598203 0.023295874 0.015793376 0.022116724 0.055696443 -0.004103005 -0.005115104 -0.0082243895
0.011005957 -0.006631343 -0.042878468 -0.020141844 0.006668901 0.021201141 0.0220552 -0.014878442
0.012114107 0.0075225173 -0.02472871 -0.013149799 -0.057285316 -0.011666994 0.05791721 -0.047559194
-0.014481397 0.007744012 -0.026267832 -0.0057423566 0.03015243 -0.05429652 -0.064578 -0.056957465
-0.037660517 -0.027180368 -0.04699469 -0.06678906 -0.0033292354 -0.034176383 -0.015560942 -0.054834835
-0.023951428 0.0017289926 0.025485873 -0.007837638 -0.03174903 0.009866477 0.005111493 -0.019965269
0.024871705 -0.0035094349 -0.050438948 0.015505086 -0.024006795 -0.01699641 -0.019455122 -0.04090351
0.018442914 -0.0076193693 -0.0017426765 -0.01975377 -0.0155771915 -0.0059036436 -0.027530564 -0.03462189
-0.028661575 0.018210178 -0.011597756 -0.031163545 -0.008483289 -0.0065935925 -0.013350994 -0.021769961
0.0261156 0.0143132275 -0.006306193 -0.024625598 -0.043593973 -0.007916384 0.008380423 -0.020491716
-0.004356684 -0.011291062 -0.054718047 -0.0035433846 0.040181983 0.04908682 0.008039712 0.047322992
0.034110483 -0.0024414419 0.078403 -0.02139289 0.030224249 0.045979246 0.03894042 -0.0075955866

body.block3.conv.bias f4 [64]
00000000: 51e5 55bb fecd 423d 9564 003c 0935 1dbd
00000010: 07f3 073d 58d5 3b3c 989c 393d 5aec 303d
00000020: f49f 45bd acd2 9f3c dbca 253c d711 873c
00000030: 0b78 383c a37f 553c 89b0 a43c b189 293d
00000040: 1b9d 6c3d 4ec0 74bc c548 8abd 12c2 093c
00000050: c5f8 6ebc f15a 2dbc 6d41 0b3d 65eb 58bd
00000060: 032e 3bbd fee7 d2bd 473d 573d ee61 a13b
00000070: 5632 953c d97c 073d dd49 e93c 976a 873d
00000080: cf7a b13c 787d 57bd f931 ecbb aef0 e33c
00000090: 60f2 fa3c fc73 da3d eaf1 883c 5727 793d
000000a0: 1825 be3c 7e2b f83c aad9 1cbd 341a 9bbc
000000b0: 5af0 3abb 49ea 54bd c32c 1b3c 4a96 683d
000000c0: 3f7f c23c e030 ddbc 42e2 26bd 48ef 283b
000000d0: a4a5 d43b e2d3 263c 954c 8f3c 6540 29bb
000000e0: bece 45bd f8fa 13bd 30b7 ba3c 7c3a 053d
000000f0: 8507 943d 79da 683d c44b 20bd 6ab8 8fbd
-0.0032637904 0.04755973 0.007836481 -0.038380656 0.033190753 0.011464439 0.045315355 0.043194152
-0.048248246 0.019509636 0.010119165 0.016487999 0.011259089 0.013030919 0.02010371 0.04139108
0.057767015 -0.014938427 -0.06752161 0.008408086 -0.0145856785 -0.010580764 0.03399794 -0.052958865
-0.045698177 -0.10298155 0.052548673 0.004925004 0.018212479 0.03307805 0.028477604 0.06612127
0.021665005 -0.05260989 -0.0072081056 0.027824726 0.030633152 0.106666535 0.016716916 0.060828533
0.023211047 0.030294176 -0.038293518 -0.018933393 -0.0028524608 -0.051981244 0.009471121 0.05678395
0.023742316 -0.027000844 -0.04074312 0.0025777388 0.0064894725 0.010182353 0.017492572 -0.0025825736
-0.048292868 -0.036128014 0.022792429 0.03252648 0.07227997 0.056848977 -0.039134756 -0.07017596
