trained_models/sinGan/cows/scale_factor=0.750000,alpha=10/1/netG.pth (torch_old, 125197 bytes, 26 tensors)

head.conv.weight f4 [32, 3, 3, 3]
000000 56 88 66 bc f0 23 7f bd d4 de 75 3c d8 93 94 bd
       -0.014070591 -0.062290132 0.01500674 -0.072547615
000010 74 5f 79 bd 60 4d a1 3c 5d 1d 63 bd 0c 70 40 3d
       -0.060882047 0.019690216 -0.055447925 0.046981856
000020 85 95 16 be aa 92 10 3d 28 e7 25 bc ad f7 74 3d
       -0.14705475 0.03529612 -0.010125913 0.059806515
000030 56 30 82 3c f1 d1 f4 bc 84 15 92 3d 16 9f 79 3d
       0.015892189 -0.029885264 0.0713301 0.06094273
000040 ab 71 9c 3d 45 14 30 be b2 26 e7 3d 76 ae 2f 3d
       0.07638868 -0.17195232 0.112866774 0.04289099
000050 49 90 89 bd bd 37 02 3d 18 69 43 bd 79 34 b4 bd
       -0.06716973 0.031791437 -0.047707647 -0.08799071
000060 b2 3c 11 3d c8 33 74 3d 62 dd 32 be 71 09 f0 3b
       0.035458274 0.059619695 -0.17467263 0.0073253443
000070 7b d5 13 3d 61 3a 90 3e f3 d5 1b bc 61 5e 7e bd
       0.036092263 0.2816954 -0.009511459 -0.062101725
000080 23 2a db bd e4 0e 3b bd a2 61 9e bd 44 d3 68 bd
       -0.10701396 -0.045668498 -0.07733466 -0.056842104
000090 cd f6 1b 3d 07 bd 05 bd a8 87 53 3e b2 1c 06 3c
       0.038077164 -0.032650974 0.20657218 0.008185552
0000a0 b3 84 d5 bc c2 2a 77 3d 63 3a 6a bc eb 8d 4f bd
       -0.026064252 0.06034351 -0.014296147 -0.050672453
0000b0 aa 66 c8 3d 33 4c 41 bc 8c f0 98 3d 62 0f b0 3e
       0.097852066 -0.0117979525 0.07467756 0.34386736
0000c0 ba 88 fd bc 7e f8 c7 3c eb 3d 85 bd ef be 8c bd
       -0.030948985 0.024410482 -0.065059505 -0.06872355
0000d0 27 8d 86 3b 47 9f 22 b9 40 4b dd bb 9b ed 3f bc
       0.004106182 -0.0001550886 -0.0067533553 -0.011714364
0000e0 36 0e cf 3d ac bc 45 ba b9 ee 1f b9 56 4f b7 bc
       0.101101324 -0.0007543068 -0.00015252353 -0.022376698
0000f0 ff d7 c5 bd a6 13 c1 3d 96 7d 22 3e c8 cc 3d bc
       -0.096603386 0.09427576 0.1586822 -0.011584468
000100 33 9f 7a 3c da ec 82 3b d9 c0 10 3d 50 d9 85 bd
       0.015296745 0.00399552 0.035340164 -0.0653559
000110 21 7f 8f bd 27 93 99 bd f0 3d 83 bb 29 85 a3 bb
       -0.0700667 -0.0749877 -0.0040051863 -0.004990239
000120 de 3d 3a bd 45 49 d3 bd 58 d4 9c bd 2e 23 30 3d
       -0.045469157 -0.103167094 -0.07657689 0.0430023
000130 05 d0 3b bd c1 06 e9 bd 6d ed 2b 3d c8 5c c6 3d
       -0.04585268 -0.11378241 0.041974474 0.09685665
000140 7d db cf 3d 38 c8 3b 3d 63 2a a2 3d e1 8a 95 bd
       0.10149286 0.04584524 0.07918241 -0.0730188
000150 e6 89 45 bd 67 60 a2 3c 0e 7c b2 3d 15 8a 33 bd
       -0.048227213 0.019821359 0.08715068 -0.043832857
000160 fb 9b b5 bc 41 0c b8 bb d7 f3 d7 bc 5c f0 89 bc
       -0.022169104 -0.005616695 -0.02636139 -0.016838245
000170 d4 97 d9 bd 8f 45 d1 bd 9c 9b 9b bd 40 19 d4 3d
       -0.10624662 -0.102183454 -0.075980395 0.103563786
000180 cc d3 33 bd 14 7f 10 3d 0f 0e f6 3d 5a 60 9f 3d
       -0.043903157 0.03527744 0.120144 0.077820495
000190 a9 bf 0f 3c ca b0 21 be ea bf a6 3d 0a 40 31 3d
       0.008773723 -0.15790096 0.081420735 0.043273963
0001a0 7f a9 d6 3d 0b e9 45 3d 85 f1 c6 3c 68 4e e1 bc
       0.104815476 0.04831795 0.024285087 -0.027503207
0001b0 c0 ea e5 bd d7 7b 29 be eb 41 54 3e 33 6a 5c bd
       -0.11226416 -0.16551147 0.2072827 -0.053812217
0001c0 53 07 7a bd d8 ec 0b bd 17 af b8 bc 88 79 17 bd
       -0.06104214 -0.03416142 -0.022544427 -0.036981136
0001d0 39 b7 05 be 2a 94 43 3d 32 ee 86 bd 69 72 55 3e
       -0.13058175 0.047748722 -0.06588401 0.20844425
0001e0 7a 53 a6 3c 55 71 96 bb c0 52 45 3b c2 1f b6 bb
       0.020303477 -0.004591147 0.0030109137 -0.005557985
0001f0 2d 5e e1 bc 52 a0 80 bd 8a 4c 58 bd 2d 1b 8d bd
       -0.027510727 -0.06280579 -0.05280737 -0.06889949
000200 d8 3b cb 3d 01 2a 3b bd c4 8f 00 3d dd ce fc bb
       0.09923524 -0.045694355 0.031387106 -0.0077150897
000210 12 70 51 3c f0 2c b9 3c 9c 15 b1 3d 80 2d 3f 3c
       0.012783067 0.022604436 0.086467 0.011668563
000220 18 f4 44 3c 7f f1 6d 3d d3 5d 7c 3c bd 58 31 bd
       0.012021087 0.058091637 0.015403229 -0.043297518
000230 9c c2 53 3c ec b6 00 3e 54 30 aa 3d 59 54 a9 bd
       0.012924816 0.12569779 0.08309999 -0.08268041
000240 8d 01 34 bd 6b 97 a0 bc 21 e7 4e 3d 61 49 79 3d
       -0.04394679 -0.019603452 0.05051339 0.060860995
000250 c9 5d 86 bc a7 1e b4 3d 42 ff 0c 3e ad 09 0a 3e
       -0.016402142 0.08794909 0.13769248 0.13480254
000260 b0 38 49 bd b1 64 d9 3b e9 97 f7 3c 01 f7 98 bb
       -0.049126327 0.006634318 0.030223804 -0.004668117
000270 8a a4 f3 3c ea a8 bf 3d c8 55 a0 3b 98 09 bb 3d
       0.029741544 0.0935839 0.0048930384 0.09132689
000280 21 8e 67 3e d0 2e a5 bd 0f 13 15 3d d8 ad d6 bd
       0.22612812 -0.080655694 0.03639513 -0.10482377
000290 9f ba 48 bc 39 a2 9c 3d a9 9e 8f bd 66 f7 1e 3c
       -0.012251525 0.07648129 -0.07012684 0.009702539
0002a0 c8 09 b6 3e ba 66 79 bd 7d 95 af 3d 0c 1d 6c 3c
       0.35554338 -0.060888983 0.085734345 0.014411222
0002b0 1f 44 16 bd dc 7e 37 3d 4e 76 1a 3e 45 a5 56 3d
       -0.03668606 0.044798717 0.15084192 0.052403707
0002c0 80 e1 d1 3d fa f4 bd 3e cb d0 9c bd db 1f ad 3d
       0.10248089 0.37100965 -0.076570116 0.084533416
0002d0 aa 23 98 bc 05 5a 76 3d 2c d9 bd 3c b9 95 28 bd
       -0.018571693 0.060144443 0.023174845 -0.04115841
0002e0 37 9b 36 3c 2f 89 e2 3b 5e 0c 73 3e cd 5d 7a bc
       0.011145405 0.006913326 0.23735186 -0.015281153
0002f0 ae 84 9d 3c 6d f5 96 3d 21 3c d0 3d dd bf 0d 3d
       0.019228306 0.0737103 0.10167719 0.034606803
000300 84 ff 12 3d 03 61 f6 3c 6d 06 2c bc 17 cf cc bd
       0.03588821 0.030075556 -0.010499579 -0.10000437
000310 ee 1a a0 3d 58 39 05 be 13 1b 0c bd 5b 11 1d bc
       0.078176364 -0.13010156 -0.034205507 -0.009586657
000320 5d 10 83 3c cb 59 ec bc a6 74 b0 3c 4c 4d e1 3c
       0.015999014 -0.02885141 0.021539997 0.027502678
000330 cc d4 5e be b3 55 d4 3d 15 a3 c5 3d fc 9f db 3c
       -0.21760863 0.10367908 0.09650246 0.026809685
000340 8e 26 1c bd 4c dd 5c bd fa 55 9e 3c da 92 0d ba
       -0.038122706 -0.053921983 0.019328106 -0.0005400606
000350 03 42 c6 bb 62 a2 36 be 25 3e 16 3e 57 49 7f 3d
       -0.0060503497 -0.17835382 0.14672144 0.0623258
000360 1f ab 4a 3d 17 e4 30 bc 63 53 bf bc 37 2f a3 3d
       0.0494796 -0.010796568 -0.023355192 0.0796799
000370 0e 4a 43 bd 1b a2 0c 3d 7d fb b3 3e a0 df 9b 3c
       -0.047678046 0.034334283 0.35152808 0.019027531
000380 ab e5 39 3d 2b 33 6e 3d 68 3e dd bc 75 10 8a bb
       0.045385044 0.058154266 -0.027007297 -0.0042133876
000390 3b 00 dc 3d 6d 4e a1 3c 05 8b ab 3b 44 0e 79 3e
       0.107422315 0.019690717 0.0052350783 0.24321848
0003a0 c4 87 38 bd e8 4c 64 3d 46 7b 25 39 c8 d9 03 3c
       -0.04505135 0.055737406 0.00015781549 0.008047529
0003b0 97 c3 55 3d 61 51 13 bc d4 36 d1 3c 65 5a 80 3d
       0.052188482 -0.00899157 0.02553884 0.062672414
0003c0 cc a8 1c 3e 1d 2b 4c bc f9 82 8b 3d 56 9d 73 3d
       0.15298766 -0.012461451 0.068120904 0.05947622
0003d0 3c 87 9f 3d 6c 05 a1 3e a4 3a ae b8 d5 02 0e bd
       0.07789466 0.3144945 -8.307889e-05 -0.03467067
0003e0 50 8b ee bc e9 c2 11 bc b4 31 83 bd 3d 49 12 bd
       -0.029119164 -0.008896568 -0.064059645 -0.035714377
0003f0 9b b8 91 3d 6d f4 39 ba 20 82 9f 3e e9 a3 c8 3d
       0.07115289 -0.0007093612 0.31153965 0.097968884

head.conv.bias f4 [32]
000000 6a 5c 49 be b2 74 4c be b7 7e b8 b7 f1 0a 86 bd
       -0.1966416 -0.1996639 -2.1993515e-05 -0.06545056
000010 92 56 60 be 0d c1 b8 bc ff 4b 00 3e e8 8e 90 3c
       -0.21908024 -0.022552991 0.1252899 0.017646268
000020 c3 5a 24 be a6 5e 56 bd 42 9e ca 3d 73 32 76 3d
       -0.16050248 -0.052336358 0.098934665 0.060106706
000030 04 b3 a6 bd 4d 85 2f 3e 56 0f 49 be 16 6a 2d 3e
       -0.08139613 0.17140694 -0.19634756 0.16935
000040 1e 0b 39 bd 26 9b 1b bc 41 3e 45 3e 6c 0f bd 3b
       -0.045176618 -0.0094974395 0.19262029 0.0057696607
000050 80 cf bf 3d e9 fd 3d 3e 83 93 03 3e 50 67 99 bd
       0.09365749 0.1855389 0.1284924 -0.074904084
000060 dc b3 52 3e d5 3f 7a bd 74 ea c6 bb fe b8 26 3e
       0.20576423 -0.06109603 -0.0060704295 0.16281506
000070 0f 49 63 3d 15 52 21 3e 31 87 7b 3c 4d 77 04 3e
       0.055489596 0.15753968 0.015352056 0.12936135

head.norm.weight f4 [32]
000000 de 9d 86 3f 2c 7a ad 3f f1 e8 87 3f ef a4 80 3f
       1.0516927 1.3552909 1.0617963 1.0050334
000010 99 be a3 3f 8d 5d 9e 3f 03 c7 ae 3f b3 8d a7 3f
       1.2792541 1.23723 1.3654484 1.3090118
000020 4c 83 ad 3f b5 cb ab 3f 49 52 98 3f d1 1a 88 3f
       1.3555694 1.3421541 1.1900111 1.0633184
000030 c4 f8 a9 3f ce 08 9d 3f 6a 95 9a 3f 3e 33 96 3f
       1.3279042 1.2268312 1.2076848 1.1734388
000040 8d 93 96 3f 5e b3 89 3f c7 b3 93 3f a8 b7 7f 3f
       1.1763779 1.0757864 1.1539239 0.9988961
000050 bd da a1 3f 65 5c 98 3f d5 ec 9b 3f 06 ac 83 3f
       1.2644879 1.1903197 1.218165 1.0286872
000060 ba 48 9c 3f f4 e2 96 3f 1b 94 97 3f 55 5b 91 3f
       1.2209694 1.1788011 1.1842073 1.1355997
000070 51 a4 ac 3f 79 c3 78 3f 58 2c 9a 3f 0e 7e 99 3f
       1.3487645 0.9717327 1.2044783 1.1991594

head.norm.bias f4 [32]
000000 5e f5 1e be f0 dd e4 bd 87 2d 4d bc 43 b7 79 3d
       -0.15523288 -0.11175144 -0.012523062 0.060965788
000010 4a cd 95 be d9 94 d1 bc f2 b4 60 3c fe 19 08 3e
       -0.29258186 -0.025583671 0.013715016 0.13291165
000020 12 7c 9d bb 14 61 a3 bc a5 13 b0 3d 91 2d b7 bc
       -0.00480605 -0.019943751 0.08597497 -0.022360595
000030 e3 7d 5d bd f7 50 09 bd 57 de 1d be 19 2a 1a be
       -0.054075133 -0.03352448 -0.15416847 -0.15055121
000040 77 7c 0b bd 1c e4 65 be 01 02 1e be f7 13 66 bd
       -0.034054246 -0.22450298 -0.15430452 -0.056171384
000050 4f b4 b2 3c db 70 6c bd 37 c5 60 bd de af b1 bd
       0.021814493 -0.057724815 -0.05487558 -0.08676122
000060 c2 45 f9 3d ce f5 71 be d1 a6 eb bd 12 bd ce 3d
       0.12171508 -0.23628923 -0.11506427 0.10094656
000070 c6 04 cd bd e7 28 9e 3d eb 87 50 bd 29 ab 46 be
       -0.10010676 0.07722645 -0.05091087 -0.1940123

head.norm.running_mean f4 [32]
000000 97 d6 2e be 26 93 91 be 26 a6 12 3d 8c b0 0e be
       -0.17074047 -0.28432578 0.035802983 -0.13934535
000010 b4 09 83 be fa e4 10 be 44 6e 82 3d ab 3c e6 3c
       -0.2559334 -0.14149848 0.06368688 0.0281051
000020 21 12 7f be 50 ae 82 bd 84 bc 01 3e 51 8f cf 3d
       -0.2490926 -0.06380904 0.12669569 0.10134757
000030 37 ca a8 3d 0c 00 39 3e ff 74 4d be 6a 4e 2a 3e
       0.082416944 0.18066424 -0.20064162 0.16631475
000040 48 d0 de bc 5e ca 2d bc bc b4 4d 3e 9b 59 3a bd
       -0.027198926 -0.01060733 0.20088476 -0.04549561
000050 e9 e4 c1 3d 34 5b 0f 3e 5c 1b 24 3e 3b 71 ca bc
       0.09467489 0.13999635 0.16026062 -0.024712196
000060 a6 3a 5d 3e 65 6d c6 3d e7 fa 0d bd d3 7e 45 3e
       0.21604404 0.09688834 -0.034663107 0.19286661
000070 43 a4 59 3d 77 49 13 3d 20 d6 56 3c 98 65 c3 3d
       0.053135168 0.035958733 0.013112575 0.09540862

head.norm.running_var f4 [32]
000000 a5 6f 1d 3b 0a f0 00 3c 38 8f 24 3b 5e 89 62 3b
       0.0024022844 0.00786973 0.002510978 0.003456674
000010 9e a3 26 3b 91 2e 38 3c e2 df 57 3c 53 61 7c 3a
       0.0025427113 0.011241571 0.013175936 0.00096275395
000020 4e 8a 5e 3c 08 01 21 3c 0b 2f be 3a 43 59 98 3b
       0.013582779 0.009826906 0.001450987 0.0046493127
000030 ed da e0 3c 2d 5a cc 3a 20 86 96 3a ed c0 23 3b
       0.027448142 0.0015590839 0.0011484064 0.002498682
000040 68 6b ac 3b 5d d7 93 3a 04 be 64 3a 63 e9 06 3c
       0.0052618273 0.0011279393 0.00087258243 0.008234355
000050 0f 13 52 3a ff a4 87 3b 69 a7 1f 3b 2b 94 93 3b
       0.0008013704 0.004139542 0.002436126 0.004503747
000060 01 32 6b 3a 24 12 42 3c 4f f0 a2 3b b2 9a 85 3b
       0.000897199 0.011845145 0.0049724947 0.004077279
000070 f8 c6 df 3b 01 7a e6 3b 47 a0 6a 3b 9b 48 34 3b
       0.006829139 0.007033587 0.00358011 0.0027509097

body.block1.conv.weight f4 [32, 32, 3, 3]
000000 79 ea b2 bd 03 ef 55 bc 2b a5 44 3d b1 53 93 bd
       -0.08736128 -0.013057473 0.04800908 -0.07193697
000010 4d 5a 79 bd ac 69 79 bd fb c6 e5 bb 15 b8 95 3d
       -0.060877133 -0.060891792 -0.0070122457 0.073105015
000020 b2 36 8a 3d 22 96 94 bc a0 b7 a3 bd f6 80 3b bd
       0.067487136 -0.018137995 -0.07994008 -0.045777284
000030 db ef ea bc 72 89 21 bc 48 df 12 bd 3b 09 45 3c
       -0.028678825 -0.00985943 -0.03585747 0.0120261265
000040 75 d5 13 3b b9 7f 6a bc 08 e5 07 3e b2 9f 8d 3d
       0.002255765 -0.014312678 0.13270962 0.06915225
000050 4e 8f a7 bd 64 1a a4 3d c7 61 06 3c 4a 43 ab bd
       -0.0818163 0.08012846 0.008202023 -0.08362444
000060 3a 1d 33 3d 1c 7a 0b be a0 a4 3e bd cc 08 c6 bd
       0.043729044 -0.136208 -0.046543717 -0.096696466
000070 63 43 84 3c fb 4b 3c 3d 47 2c c7 bd 5a 49 29 3b
       0.016145414 0.045970898 -0.09725242 0.0025831074
000080 a5 00 7b 3c 8c b6 0a be 36 2c 81 bd 51 c4 11 bd
       0.015319978 -0.13546199 -0.06307261 -0.035587613
000090 d3 39 33 bd 9e de 37 bd 3d 63 7c 3d f6 8a f9 bc
       -0.043756317 -0.04489004 0.06161808 -0.03046177
0000a0 e7 67 d2 39 65 79 11 3d 3a 05 83 bd 10 a7 ad 3d
       0.00040131735 0.03551616 -0.06397481 0.0847913
0000b0 e3 e4 b8 bd 9a e1 19 3d 4d 0c 75 bd d0 f9 9f bc
       -0.09028032 0.037568666 -0.059826184 -0.0195283
0000c0 31 ef ac bd 72 44 4d bd b7 c3 83 3c 5b 00 3f bd
       -0.0844406 -0.050114103 0.016084535 -0.0466312
0000d0 42 99 46 3d 24 4f 11 3c 84 5c 47 3c 0d 7f 7c 3c
       0.048486 0.008868966 0.012168054 0.015411151
0000e0 f8 1a ab bd dc e6 b7 bd 4b 8c d1 bd 31 1e a3 bd
       -0.08354753 -0.0897958 -0.10231837 -0.07964743
0000f0 84 73 c2 bd 9f e6 a3 bc 84 b3 1f 3d 88 dc ec 3d
       -0.09494689 -0.02000743 0.03898956 0.115655005
000100 97 5a a4 3c 85 a8 65 3d be 3f 8b 3d 9c 35 ac 3d
       0.020062728 0.056068916 0.06799267 0.08408663
000110 ad e8 7b 3d f1 2d 9c 3d 2c 19 27 bd d9 3d 4b bb
       0.061501194 0.0762595 -0.04079549 -0.0031012206
000120 fa a5 3c 3d 4c f9 24 3c 29 30 a7 bd 5a 25 86 bd
       0.046056725 0.010069203 -0.08163483 -0.06550093
000130 73 01 98 bd 31 fe de bc 11 9f 8d bd 33 60 53 3d
       -0.074221514 -0.027220817 -0.06915105 0.051605415
000140 30 e9 95 3d 6c 64 78 3d df cd 02 bd dc 39 25 bd
       0.073198676 0.060642645 -0.031934615 -0.040338382
000150 bf 52 35 3d fb 7b 65 bd 63 97 74 bd db cc 16 bd
       0.044268366 -0.05602644 -0.059714686 -0.03681646
000160 c7 1e bc bd 10 b8 ce bd 75 0b 34 bd 42 61 f8 bc
       -0.09185558 -0.10093701 -0.04395624 -0.030319814
000170 65 aa 5a 3d 68 53 9c bc aa 06 45 3c 46 f6 94 bd
       0.053385157 -0.01908274 0.012025515 -0.072735354
000180 96 1e 01 3e 98 b8 79 3d ec e7 96 bd 4d 18 c0 3c
       0.12609324 0.060967058 -0.07368454 0.023449088
000190 e2 62 1f 3d 86 f5 35 bc 71 dd ae bd 30 73 60 bd
       0.03891266 -0.011105901 -0.0853833 -0.05479735
0001a0 06 80 2b bd ce b4 1f bd 20 4a 6d bd 9c b0 13 3d
       -0.04187014 -0.03899079 -0.05793202 0.0360571
0001b0 c9 aa 8c bd c0 71 ca 3a b5 e5 8a 3d e9 44 20 bd
       -0.06868512 0.0015445277 0.067820944 -0.039128218
0001c0 ba 4d 7c bb 5f 53 5f 3d 70 7a c5 bd 62 40 13 bd
       -0.0038498477 0.05452287 -0.09642494 -0.035950072
0001d0 ba b2 9c 3d cd 1f e0 bd 3d 76 84 bd f0 cc 8d bd
       0.07651277 -0.109435655 -0.06467865 -0.06923854
0001e0 d0 d9 01 be ed 53 d7 bb 5d 0a da bd df 80 c4 3c
       -0.12680745 -0.006571284 -0.10646508 0.023987232
0001f0 52 b6 65 3d 86 c4 29 be e5 88 b0 3d cc e0 e8 3d
       0.056082077 -0.16578874 0.086198606 0.113710016
000200 da 08 05 be 35 30 7f 3d 3e aa 92 bc ec b7 ae bc
       -0.12991658 0.062301833 -0.017903443 -0.021327935
000210 b3 4e c4 bc 97 a5 5d bd 58 b9 9e bc 2a 45 81 3d
       -0.023963308 -0.054112997 -0.019375488 0.0631202
000220 00 c1 97 3c a1 e8 ea 3c 42 12 a5 3d 80 08 12 3d
       0.018524647 0.02867538 0.08060123 0.035652637
000230 90 c5 99 bd bd e2 9f 3c e3 2c 1a be 07 19 06 be
       -0.07508385 0.019517297 -0.15056185 -0.13095485
000240 0a 00 80 3d 40 b9 b3 3d 9e 68 aa bd 10 e7 d8 3b
       0.062500075 0.08775568 -0.083207354 0.0066193417
000250 29 d8 8b bd 87 41 6f bd 24 84 23 3d 81 7f ec bc
       -0.06828339 -0.0584121 0.03992094 -0.028869392
000260 ba 7b 92 3c a9 80 78 3d 03 95 22 bd 3a e9 58 bd
       0.017881263 0.060669575 -0.03969289 -0.052956797
000270 8f 7d c1 bc 5d 26 93 bc 5c 42 3e bd 2a c8 e8 bc
       -0.023619441 -0.017962629 -0.046450004 -0.028415758
000280 64 b7 3b 3d d6 5a ad 3d b7 07 82 bb 14 fa 92 bc
       0.04582919 0.08464591 -0.003968205 -0.017941512
000290 06 1d 2e be d4 91 71 bd 6e de 38 be 12 b0 84 be
       -0.17003259 -0.058976963 -0.180536 -0.2591558
0002a0 97 8e 58 3d 77 9e 4a bd 18 e4 76 be 27 d5 18 3d
       0.05287036 -0.04946753 -0.24110448 0.037312653
0002b0 4f d7 04 bd 46 18 b7 bc 93 7b 17 3d 1c 8b 2a bd
       -0.032431897 -0.022350442 0.036983084 -0.04163657
0002c0 d6 07 3d bd 93 cc 4b 3d e2 55 2a bd 3c df 8d 3c
       -0.04615005 0.049755644 -0.04158581 0.01731836
0002d0 22 b0 78 3d 93 eb 26 3d 2c d0 35 3e 6d 58 f4 bc
       0.06071485 0.040752005 0.17755193 -0.029827321
0002e0 19 13 70 3d 95 85 88 3d 0d 2a 3d bc 74 1e 16 bd
       0.058611963 0.06666104 -0.01154567 -0.036650136
0002f0 c9 de f0 3c 2f 50 99 3b b8 85 03 3c 93 58 43 3d
       0.029403107 0.004678748 0.0080274865 0.047691893
000300 bb 7b 5c bd 9a 76 15 bc 10 85 77 3d ee 5a cc 3d
       -0.053828936 -0.009122515 0.060429633 0.09978281
000310 be 01 22 3c 26 85 9a bc 39 cc f9 3c 26 a8 9e 3c
       0.009888111 -0.018862318 0.030492889 0.019367289
000320 b6 f9 df 3a 46 ff 08 3b 12 94 78 bd 37 2e 1f bd
       0.001708797 0.0020904108 -0.060688086 -0.038862433
000330 c9 49 0a be 53 9f 4e bd bb 2e 80 bd 6d 36 a2 3d
       -0.1350471 -0.050444912 -0.06258913 0.07920537
000340 c3 44 1c 3c 26 3b 55 bd 9b bf 1c bc 6b 35 29 bd
       0.009537878 -0.05205836 -0.009567167 -0.04131071
000350 1b ca 87 bc e0 8d 44 3d c1 52 72 bb ec a1 86 3d
       -0.016575864 0.047986865 -0.0036975595 0.06573853
000360 d5 38 53 3e c3 dc 8e 3d 0b 38 20 3e 62 e9 86 3d
       0.20627148 0.06975701 0.15646379 0.06587483
000370 5c 00 a5 bd 0b ad 1f bc 8c 43 98 3b 54 5e 06 bd
       -0.08056709 -0.0097458465 0.004646724 -0.032804802
000380 4e 0d 6b bd d1 8f 15 3d 33 bf f7 3d 1a 39 a0 bd
       -0.057385735 0.036514107 0.12097015 -0.07823391
000390 51 4c c5 3c 19 67 0e bd a4 39 c6 bd 86 5c 33 3d
       0.024084242 -0.03476629 -0.09678963 0.04378941
0003a0 2b a1 82 bd dc 37 4d bd 68 e9 ab 3d 92 41 ad bc
       -0.063783966 -0.0501021 0.08394128 -0.02114943
0003b0 fe d3 e8 bb 2d 8e bc 3d db a6 17 3d e2 08 68 bd
       -0.0071053496 0.092068054 0.03702436 -0.056649096
0003c0 85 ac 6b 3d 77 56 c3 bc 3d d2 61 bb 19 12 51 be
       0.057537574 -0.02384494 -0.0034457587 -0.2041706
0003d0 33 67 a8 bd e2 f5 b8 3b 61 55 e0 bd db 5b c7 bc
       -0.08222809 0.005644546 -0.10953785 -0.024335792
0003e0 56 1d 1a bc ab ae a5 3d 26 dc 44 3d 95 ec 9c bd
       -0.009406408 0.08089956 0.048061512 -0.07662312
0003f0 2a 16 52 bc f0 5a b5 3b ff 10 e2 3d b3 79 15 3c
       -0.012822667 0.0055345222 0.11038398 0.009123254

body.block1.conv.bias f4 [32]
000000 9e d8 97 bb 5b c5 50 3d c3 e6 2d 3d dc 37 ab 3b
       -0.004633977 0.050969463 0.0424564 0.005225165
000010 06 34 b1 bc d2 8b 14 3d aa 33 bb bc 5f 3e 9d bc
       -0.021631252 0.036266156 -0.022851784 -0.01919478
000020 1b 3a 0c 3b 60 00 45 3c 2e 46 22 3d 14 03 a2 3c
       0.0021396938 0.012024015 0.03961771 0.019776858
000030 fe 6c 13 3c 25 d8 49 3d 45 08 77 3d 8f 63 bc 3b
       0.008998154 0.049278397 0.06031062 0.005749173
000040 3f 3c ae 3c ba c0 d6 3c 81 ec 3b 3d da b2 3d 3c
       0.021268962 0.026214946 0.045879845 0.011578286
000050 1b 21 44 bd ff f1 b8 bc 0e 1c 46 bd 02 31 85 3c
       -0.047883134 -0.02257633 -0.0483666 0.01625872
000060 6b e3 5c 3d b5 36 3e bd ac 98 54 3d d1 de a1 3b
       0.05392782 -0.04643889 0.05190341 0.004939892
000070 c9 26 47 3d 03 c4 25 bd 77 f0 65 3d 0f fb 6b bb
       0.048620973 -0.040470134 0.05613753 -0.0036007797

body.block1.norm.weight f4 [32]
000000 d2 ee 89 3f aa fd ac 3f aa 99 87 3f d1 ec 94 3f
       1.0776007 1.3514912 1.059377 1.1634771
000010 1f 43 8b 3f c0 56 91 3f 79 f6 9c 3f 63 66 98 3f
       1.0879859 1.1354599 1.2262717 1.1906246
000020 f7 9d 8d 3f 81 89 97 3f 12 a9 af 3f a5 b4 90 3f
       1.1063832 1.1838838 1.3723471 1.1305128
000030 27 bb 87 3f 3c 6d 6e 3f 09 7d b2 3f 21 15 ad 3f
       1.0603989 0.9313543 1.3944408 1.3522073
000040 5d 79 a5 3f ca 01 9f 3f 24 ee 8d 3f 5e f9 96 3f
       1.2927662 1.2422421 1.10883 1.1794851
000050 b3 17 a8 3f 90 43 a2 3f d0 09 a9 3f 67 2d 9e 3f
       1.3132232 1.2676868 1.320612 1.2357606
000060 5f e6 99 3f e1 05 87 3f f3 02 90 3f 60 a6 9b 3f
       1.2023429 1.0548669 1.12509 1.2160149
000070 86 0f 94 3f 03 9a 8d 3f ba 37 9b 3f ca d5 8d 3f
       1.1567237 1.1062626 1.2126381 1.1080868

body.block1.norm.bias f4 [32]
000000 16 09 2d bd 9a 5a 94 be 54 2f 3a be 90 44 30 be
       -0.042244993 -0.28975374 -0.18182117 -0.17213655
000010 57 73 72 be 26 8b 57 be d0 f2 3d be d6 e7 fc bc
       -0.23676811 -0.21049175 -0.18549657 -0.030872267
000020 df 25 6b be aa 89 d4 bd 28 d2 00 bf eb a2 65 be
       -0.22963665 -0.1037782 -0.50320673 -0.2242543
000030 56 4d 9e be 3c 4b 4a be 08 24 a5 bd 68 80 1f be
       -0.30918378 -0.19755262 -0.08063513 -0.15576327
000040 73 40 d2 3a e0 78 37 be a5 af 65 be e6 59 89 be
       0.0016040936 -0.17917204 -0.22430284 -0.268264
000050 37 84 b0 3d 5d c1 ab 3d c2 81 11 be 1c 6a 9d 3d
       0.08618968 0.083864905 -0.14209655 0.076862544
000060 f7 9d 9c be fe 2c 99 bd 9b 2b 4b be 72 fd 1e 3d
       -0.30589268 -0.07479285 -0.19840853 0.038815923
000070 b6 38 e0 be 4e 60 3f be e5 45 f6 bd bd a5 ac be
       -0.43793267 -0.18689081 -0.1202505 -0.33720198

body.block1.norm.running_mean f4 [32]
000000 27 f3 6e bf 3e a9 aa bf 94 92 d6 3f 07 d7 09 3f
       -0.9333977 -1.3332899 1.6763482 0.5384373
000010 f2 89 02 40 5c 90 6b 3e 5d af 9d 3e 65 b6 aa 3e
       2.0396695 0.23004287 0.30797854 0.3334228
000020 6d 6a 1b bf 89 be 7a 3f be 66 f9 bf 8a 61 94 3d
       -0.6070927 0.97946984 -1.948448 0.072451666
000030 cb 42 f6 3e 91 51 51 3f 92 fb 1d c0 00 de 0a c0
       0.48097834 0.81765085 -2.4684796 -2.1697998
000040 73 f1 27 c0 7e 03 3e 3f a9 23 f9 3f 0f 2f b6 3f
       -2.624112 0.7422408 1.9464008 1.4233111
000050 64 44 16 c0 d0 77 87 bf 2f a9 3c bf c8 cf 07 c0
       -2.3479242 -1.0583439 -0.73695654 -2.122057
000060 07 ef d0 bf 25 65 b7 be 8b 56 d7 3e 59 c9 57 bf
       -1.6322945 -0.35819355 0.42058215 -0.8429161
000070 64 49 87 3f e7 7a 8a bd 9d a7 32 bf 2e 59 91 3f
       1.0569272 -0.06761723 -0.6978701 1.135534

body.block1.norm.running_var f4 [32]
000000 f7 9f 0d 40 f6 18 46 40 35 b3 0b 40 9a 78 21 40
       2.2128885 3.0952735 2.182813 2.522986
000010 03 65 5c 40 6b 7e 73 40 4f 7b ff 3f 05 fd 7c 40
       3.4436653 3.804591 1.9959506 3.952943
000020 8e 50 31 40 77 8f a6 40 77 4b d5 40 01 59 3d 40
       2.7705417 5.205013 6.665462 2.9585574
000030 22 21 44 40 e9 03 fc 40 e5 42 fa 40 91 42 6d 40
       3.0645223 7.8754773 7.820666 3.707188
000040 58 61 39 40 5e bf d7 3f 3f 50 1c 40 7d ff 0d 40
       2.8965664 1.6855276 2.4423978 2.2187188
000050 e2 88 14 41 a2 03 e2 3f cf 66 8c 40 ce b3 41 40
       9.283419 1.7657359 4.38755 3.0265994
000060 98 61 62 40 41 bb df 40 48 7c 1a 40 8b b4 77 40
       3.5372066 6.991608 2.4138355 3.8703945
000070 4a 05 40 40 e9 c8 0b 41 0e da 0b 40 a1 bf 13 40
       3.0003228 8.73655 2.185184 2.308571

body.block2.conv.weight f4 [32, 32, 3, 3]
000000 ae 3b 93 bd fe 9b 03 bc 32 cd 2e bd a5 4e 87 3d
       -0.07189117 -0.008032797 -0.04267616 0.06606797
000010 67 36 0c 3e b6 39 09 bc 05 9b e4 3d 89 76 ed bc
       0.13692628 -0.008375576 0.1116238 -0.028987186
000020 9e 4a e6 bd 36 f5 02 3e a6 24 d4 bc 9e 22 5c bc
       -0.11244701 0.12788853 -0.025896382 -0.013435988
000030 a8 f5 73 bd 5a d7 34 bd 2e 79 25 3d 24 c7 74 bd
       -0.059560448 -0.044150688 0.04039877 -0.059760228
000040 d4 12 ec bd bf dc df bd 69 49 04 3e e3 3a e5 3d
       -0.11527029 -0.10930776 0.12918629 0.111928724
000050 ee 88 af 3d 02 c1 7c 3c 54 4b 09 bc 10 12 dc bc
       0.08571039 0.015426876 -0.008379776 -0.026864082
000060 9b 18 22 bd d4 0f 96 3c 25 f3 48 bd d9 76 a9 bd
       -0.039574247 0.018318094 -0.049060006 -0.082746215
000070 16 b2 d3 bc 8f e6 b6 3d 0f e9 1c be 86 d6 19 bd
       -0.025841754 0.08930694 -0.1532328 -0.0375581
000080 ce d5 d3 3d 1a ce 12 3e 5c c7 34 3d 52 aa 9c 3c
       0.103435144 0.14336434 0.044135436 0.019124184
000090 3b 74 0e bd 70 50 e5 bd 1c 34 ee bd eb 4d 79 bb
       -0.034778815 -0.11196983 -0.11631033 -0.0038040827
0000a0 d0 98 93 bb cb 52 9f bc 2d 8a 68 3c 2f e7 46 bd
       -0.0045043007 -0.019448658 0.0141931 -0.048560318
0000b0 76 b7 35 bd 4b b1 09 bc 63 ea 8b bd 1b de 31 bd
       -0.044364415 -0.008404086 -0.06831815 -0.043424707
0000c0 f0 b1 9e bc cd d2 97 3c 2e c3 aa 3c 08 5e fa 3c
       -0.019371957 0.018533135 0.020845022 0.030562416
0000d0 28 7f 59 3d ba c1 4c bb b3 c5 92 3c 52 fb 66 bd
       0.05309978 -0.00312434 0.017916536 -0.05639202
0000e0 45 f2 bc bd 8c b0 c6 3b 2c 53 bb 3c 1d 82 aa bd
       -0.09225897 0.0060635265 0.022866808 -0.083255984
0000f0 b9 a0 80 bb 8e 27 9e 3c 26 03 7a bd 7a c0 f7 3d
       -0.0039254096 0.01930597 -0.06103816 0.12097259
000100 77 0e 9a 3d df 6c cf 3c 82 a8 1b 3d e7 34 8e 3c
       0.0752229 0.025320468 0.0380025 0.01735921
000110 55 3b c8 bd 09 83 dd 3d fa ca 22 3d 7d f7 7a 3d
       -0.09776942 0.108160086 0.039744355 0.06127118
000120 68 e3 96 3d 64 3d 9d bc 46 9a 13 be 6e 01 69 3d
       0.07367593 -0.019194312 -0.1441432 0.05688613
000130 7c e7 19 bd 4d 8b 9d bd 30 63 b2 3d 91 3a 35 bd
       -0.037574276 -0.07692585 0.08710325 -0.044245306
000140 5b c4 54 bd 62 9c 80 bd b6 ef 66 3d c5 9b 88 3d
       -0.05194507 -0.06279828 0.05638095 0.06670336
000150 a6 19 43 3d 4e 25 2e 3d 91 c9 e6 3c 63 c9 a3 bc
       0.047631882 0.042516045 0.028172286 -0.01999349
000160 0a b3 57 bd a2 e0 c9 3b 70 2c 49 3d 1f d0 6e 3c
       -0.05266098 0.0061608115 0.049114645 0.014575987
000170 3f c5 ce bd 32 43 03 be 0a 6d d7 bd c3 0f 21 3c
       -0.100962155 -0.12818602 -0.105188444 0.009830418
000180 f9 74 c7 bd 33 11 89 bd 5e 43 e7 bd 8c 5c 3d bd
       -0.09739108 -0.066927336 -0.11292146 -0.046230838
000190 d6 be a0 bd 17 da 06 bd b8 60 63 bd a6 43 ca 3d
       -0.07848899 -0.03292283 -0.05551216 0.09876184
0001a0 66 76 a3 3d 30 db 6a 3d fa 56 02 3d d9 36 d0 3c
       0.07981567 0.05733794 0.03182123 0.025416778
0001b0 58 f4 8d 3d 0f 23 a5 3b b6 f1 a9 bc 3c ec 04 3e
       0.069313705 0.0050395797 -0.02074514 0.12980741
0001c0 04 b3 1b 3d 11 f6 12 bd e3 ce 2a 3d f1 c2 17 bd
       0.03801252 -0.0358792 0.04170121 -0.037051145
0001d0 ed 1b 0a 3d 70 9a 48 3d d5 f5 fe 3c bc e4 9b bd
       0.03371804 0.048975408 0.031123081 -0.07611987
0001e0 2c 8d 4c 3b 9d c8 7c 3c 9d 10 90 bb 3f 5f 95 3c
       0.0031212075 0.015428689 -0.0043965117 0.018233893
0001f0 49 a9 56 bd 15 df 8e bd c1 e4 ac bd 87 22 0e bd
       -0.052407537 -0.06976143 -0.08442069 -0.034700897
000200 7c d6 9a 3d 65 a5 2f bd 8d a2 2b bd e5 d3 f8 3d
       0.07560441 -0.042882342 -0.041903067 0.12149791
000210 44 06 1c 3d be 21 46 3d 51 90 08 3e da 15 8c 3d
       0.038091913 0.048372023 0.13336302 0.06840105
000220 42 62 1a 3d 27 15 90 3d 80 f9 ea 3d 96 24 3a 3d
       0.037691362 0.070352845 0.114733696 0.045445047
000230 3b 17 3a 3e c5 f5 61 3d af 0a c9 bd bc cc 6e 3d
       0.18172924 0.055166025 -0.09816491 0.05830072
000240 0e 7b 17 be 9b 72 c9 3c 38 bb 51 3e 72 64 72 bd
       -0.14793035 0.024590781 0.20481575 -0.059177823
000250 a5 42 65 bb 1b fc 9c 3d e3 bd ca bd 3c 76 ed bd
       -0.003498235 0.07665273 -0.09899499 -0.11594817
000260 cb 20 32 bc 6b 95 83 3d 5d 8f 9c 3d 3b 6d 27 3e
       -0.010872076 0.064249836 0.07644532 0.16350262
000270 34 8b 18 3d e9 6e 4c 3d ae 76 59 bb a0 4d 04 3d
       0.03724213 0.04991046 -0.003318231 0.03230059
000280 ed 70 ad bc f4 29 76 3d 3c 6e 07 3e 14 3b e6 3a
       -0.021172011 0.060098603 0.13225645 0.0017565214
000290 72 8e 2d bc 19 37 9e 3d 04 a4 44 bd 2b 69 cf bd
       -0.010593044 0.07725353 -0.04800798 -0.10127481
0002a0 df 68 89 bc 8d 38 9a bc 56 4f 5f bd 17 92 8a bd
       -0.01677364 -0.018825794 -0.05451902 -0.06766146
0002b0 68 cc 1a bd 66 4c c4 bd af 0b 5a bd dd 5d 31 bd
       -0.037792593 -0.09584884 -0.0532338 -0.043302406
0002c0 ff d6 93 bd 05 27 23 3e 54 aa d1 3c a4 9e 6e 3b
       -0.072187416 0.15932854 0.025593914 0.0036410475
0002d0 26 98 83 bd 07 79 9f bd 80 d3 ee 3c 3e 1e 20 bd
       -0.064255044 -0.07786756 0.029153585 -0.03909134
0002e0 74 42 b4 bc 0f 41 3c 3e df c3 b6 3d 43 12 a9 3d
       -0.022004344 0.18384193 0.08924078 0.08255436
0002f0 1e bb 4f 3e f8 88 53 3d 05 ae 8a 3c 83 83 59 3d
       0.20286223 0.051644295 0.016928682 0.053103935
000300 e3 1d b2 3d 3c 9f 17 3c e7 5e d4 3d a1 6b f7 3d
       0.08697107 0.009254273 0.10369664 0.120810755
000310 94 5a bf 3d 4d 71 7d 3d d1 af e9 bd ea 71 58 bd
       0.09343448 0.06187563 -0.114104874 -0.052843012
000320 1c 94 26 3d a7 23 f2 bd e3 4d ac bd 79 3b 96 bd
       0.04066859 -0.118232064 -0.08413293 -0.07335562
000330 aa d1 cf bd 98 84 7c bd bf d8 86 bd 57 a5 e2 bc
       -0.10147412 -0.06164989 -0.0658431 -0.02766673
000340 b4 26 39 3d 50 90 16 3e 2c d5 27 3d d3 69 d7 bc
       0.045202926 0.14703488 0.04097478 -0.026295578
000350 9b d8 89 3b 57 83 21 bc 4e c8 e9 bc 36 9d 4e 3e
       0.0042067296 -0.009857974 -0.028537896 0.20177159
000360 06 50 41 bc f5 ca 9e bc c8 d0 47 3d 7b be 31 be
       -0.011798864 -0.019383887 0.048783094 -0.17357819
000370 4d 83 ec bd 86 60 11 b9 b2 df 92 3c bd 3e 68 bd
       -0.11548481 -0.00013864235 0.017928932 -0.056700457
000380 94 de 54 bd 6c 6d ff 3c ca d5 9a 3d 54 71 77 3d
       -0.05197008 0.031180106 0.07560308 0.060410812
000390 b4 0b a2 bd fe 11 c0 3b 13 cc a3 39 f2 85 a8 3c
       -0.079123884 0.00586152 0.0003124183 0.020571683
0003a0 a5 f7 c2 bc 86 d1 92 3c 9e 01 fb 3d d0 24 9a 3d
       -0.023799727 0.017922174 0.12256168 0.07526553
0003b0 da 3b 1f bd 79 63 c7 3d 8f 9e ce 3c ca 50 54 3d
       -0.03887544 0.0973577 0.025222091 0.05183486
0003c0 1b de aa bc aa cc fb bd 6f 4b 73 bd 29 af 12 be
       -0.020857861 -0.12294896 -0.05939811 -0.14324631
0003d0 f1 e6 d2 bd 90 cd fb 3b 8a 54 86 3c d4 2f 57 3d
       -0.10297955 0.007684417 0.016397733 0.052535847
0003e0 13 c9 28 3d bf 59 54 3d 3f 33 54 3d 43 25 c5 3d
       0.041207384 0.0518434 0.051806685 0.09626248
0003f0 1e b1 0d 3e 7f 4c 89 3d 8c 16 7c bc 49 a5 c0 bd
       0.13837096 0.067040436 -0.015386235 -0.09406526

body.block2.conv.bias f4 [32]
000000 18 0f ad 3b a7 bc a8 3c e0 79 32 3d 58 19 79 bc
       0.0052813403 0.020597769 0.04357326 -0.015203796
000010 ed 82 06 3b f4 4e fb bc 49 ea ce bc df db fe bb
       0.0020524815 -0.030677296 -0.0252582 -0.0077776755
000020 f7 2c 73 bc 60 79 2c bd 6c 0d eb 3c e0 60 2e 3b
       -0.014842263 -0.04210794 0.028692923 0.0026608035
000030 f4 08 16 3d 6e 06 0a 3c 8a 37 00 3d 4e 05 7a bc
       0.036629632 0.0084243845 0.031302966 -0.015260054
000040 e9 82 c0 bb 98 4d ff bc 34 73 14 bd b4 55 1c bc
       -0.0058749807 -0.03116493 -0.03624268 -0.009541918
000050 24 85 f7 bc 18 8e 61 bd fa da d4 3c 06 16 2e bd
       -0.030214854 -0.05506715 0.025983322 -0.042501472
000060 6e 65 08 bd 0e d6 5c bd 1e da 42 3d 51 1f 14 3c
       -0.033299856 -0.053915076 0.047571294 0.00904067
000070 d2 b3 b1 3c 9c 75 b1 3b 25 6e 46 3d 11 82 b9 3b
       0.02169219 0.0054156315 0.048444886 0.005661257

body.block2.norm.weight f4 [32]
000000 98 77 98 3f 08 d6 90 3f 5d 58 8f 3f 30 94 9c 3f
       1.1911497 1.1315317 1.1198841 1.2232723
000010 d7 cf a2 3f a9 42 9f 3f 2d 56 91 3f 1f 3c a1 3f
       1.2719678 1.2442218 1.1354424 1.2596473
000020 6c 3f 96 3f c4 e6 92 3f b9 40 9a 3f 24 f3 af 3f
       1.1738105 1.1476674 1.2051002 1.3746076
000030 f8 ff 9b 3f 46 0a 96 3f bd 44 8b 3f e7 3e 99 3f
       1.218749 1.1721885 1.0880352 1.1972321
000040 73 65 95 3f f8 07 a9 3f 51 90 8d 3f ef 92 9b 3f
       1.1671585 1.3205557 1.1059667 1.2154216
000050 d8 a3 94 3f 88 8d bc 3f af 18 a2 3f 7a a5 a5 3f
       1.1612501 1.4730692 1.2663783 1.2941124
000060 8f 89 8b 3f fb 8f 94 3f 96 b8 93 3f 34 3c 8c 3f
       1.0901355 1.1606439 1.1540706 1.0955873
000070 53 7f 9a 3f 07 cd 9b 3f 8a ba 99 3f f1 8d af 3f
       1.2070106 1.2171944 1.2010052 1.3715192

body.block2.norm.bias f4 [32]
000000 93 3e b9 be 92 d7 46 be 55 4c a2 bd 89 3d f0 bc
       -0.36180553 -0.19418171 -0.079247154 -0.029326217
000010 1e 12 db be 56 da 53 bd a6 36 99 3d 29 a6 e4 bd
       -0.4278726 -0.051721893 0.074811265 -0.11164505
000020 2b 54 54 be 5b ca 1e be 60 3e 7e be ab 9a e5 be
       -0.20735233 -0.1550688 -0.24828482 -0.44844565
000030 7e 9e 50 3c 37 be 6e be c2 bb 92 be 34 98 6c 3c
       0.0127331 -0.23314749 -0.28658873 0.014440585
000040 c2 ff 45 be c9 24 4f be 58 56 ce bd b2 4a 05 bc
       -0.19335845 -0.20228876 -0.100750625 -0.0081354845
000050 3d d6 f0 bd 2f 01 d7 be e7 dd 35 be f5 9c 68 be
       -0.11759613 -0.4199309 -0.1776043 -0.22716124
000060 c4 39 0d bd bb cb bf 3b d9 b2 e1 be 94 63 25 be
       -0.034478918 0.005853144 -0.44081762 -0.16151267
000070 76 9b 3a be f2 57 2f bd f5 44 90 bd 2e ed a9 bb
       -0.18223366 -0.04280848 -0.070444025 -0.0051857447

body.block2.norm.running_mean f4 [32]
000000 c9 f9 31 3f 23 10 e0 bd 5a d1 91 be 1c d4 ac bf
       0.69521767 -0.10940578 -0.28480035 -1.3502231
000010 2b 22 29 3f d4 4f f5 bd 8f b8 dc bf 09 ec 5e bd
       0.6606776 -0.11978117 -1.7243823 -0.05442432
000020 5b 7f 3a bd bd b4 db 3c 8b 8b 49 bd e5 a0 53 bf
       -0.045531612 0.026819581 -0.049205344 -0.8266738
000030 c6 fd 8f bf 1d 4c 70 3e 77 96 1f be aa 96 97 3f
       -1.124932 0.23466535 -0.15584742 1.1842854
000040 8d bd be be e7 37 23 bf e8 ba 9d 3f c6 db 2d bf
       -0.3725399 -0.63757175 1.2322664 -0.6791347
000050 c5 8c d5 bf 72 e6 f8 be 2d c5 03 40 c2 65 23 bf
       -1.6683584 -0.48613316 2.0589097 -0.63827145
000060 98 54 c8 bf e0 e4 a2 bf eb 20 3d 3f fc 3a 1e bf
       -1.5650816 -1.2726097 0.73878354 -0.61808753
000070 a8 bf a0 3e cd 8a 23 bf 71 f6 78 3e d2 d2 0e 3f
       0.31396222 -0.6388367 0.2431276 0.55790436

body.block2.norm.running_var f4 [32]
000000 3b 71 e1 3f 3c 65 b0 3f db 78 02 40 c7 0c 94 3f
       1.761268 1.3780894 2.0386264 1.1566399
000010 5d 62 9d 3f 66 ac f8 3f ec 66 fd 3f f1 f0 cf 3f
       1.2295643 1.9427612 1.9797034 1.6245404
000020 de 0c ce 3f c0 04 fe 3f d1 6c 7e 40 95 8e 1f 40
       1.6097677 1.98452 3.9753916 2.4930775
000030 b6 bb 37 40 79 a1 aa 3f fa d7 70 40 f2 c4 ef 3f
       2.870832 1.3330528 3.7631822 1.8731978
000040 98 1c 30 40 99 34 a6 3f ef 0b 4c 40 86 3b c6 3f
       2.7517452 1.2984802 3.1882284 1.5486915
000050 53 fa c7 3f 1b 63 15 3f a4 e9 e2 3f 24 ac 2e 40
       1.5623268 0.5835435 1.7727551 2.7292566
000060 f2 98 b0 3f a6 9f 99 3f 61 ec 00 40 9a b6 4c 40
       1.3796675 1.2001846 2.0144274 3.198645
000070 d6 b9 c8 3f bb a0 a8 3f 60 3b ce 3f cb c5 02 40
       1.5681713 1.3174051 1.611187 2.0433223

body.block3.conv.weight f4 [32, 32, 3, 3]
000000 66 51 d7 bc 71 ec 73 bc 7d 59 cd bd 40 19 c7 3d
       -0.026283931 -0.014887915 -0.10026834 0.09721613
000010 d6 e4 a8 3d c5 a2 1e bd 04 39 18 bc 9e a0 19 bd
       0.08246772 -0.038729448 -0.009290937 -0.037506692
000020 b8 36 85 bc f1 14 b0 bc 91 a2 0c be d8 d0 df bd
       -0.016261443 -0.02149436 -0.13733889 -0.10928506
000030 30 c1 d2 3d 3e c7 d5 3d 0b 05 02 bd c7 fb 15 be
       0.10290754 0.10438393 -0.03174309 -0.14646827
000040 8b df 09 be ec c3 62 bd f7 71 b1 bd ca 7d 66 3b
       -0.13464181 -0.055362627 -0.08664315 0.003517019
000050 93 44 1a 3d ea c9 38 3c 8d 94 89 3d 35 a2 60 3c
       0.037663054 0.011278609 0.06717787 0.013710548
000060 3f fc ee 3c 84 42 c1 bc 0b d9 c4 bd 34 06 96 3d
       0.029173015 -0.023591287 -0.0961171 0.07325402
000070 ca 46 f2 bd b2 9a 10 be 37 50 45 bd 89 14 2d bd
       -0.11829908 -0.14121512 -0.048172202 -0.042255912
000080 ea 47 30 bd 0c 94 85 b9 1b b5 21 bd 0e 09 39 3d
       -0.043037333 -0.0002547804 -0.039479356 0.04517465
000090 91 0a 0c 3d 1b 75 ee bd 10 3b 93 bd 5c e6 2e be
       0.034189764 -0.1164343 -0.07189 -0.17080063
0000a0 4f 78 bf bd b3 fb 9e 3d 0e 8d 0d be ac e6 84 bd
       -0.09349119 0.077628516 -0.1382334 -0.0648931
0000b0 ae 5b f4 3d 3c 42 2f bd 76 46 7d 3d 1e 9e 17 3c
       0.11931549 -0.042787775 0.061834775 0.009254007
0000c0 3e a0 fc bc 41 46 d9 bc ff c7 ac bc a6 42 72 bd
       -0.030838128 -0.026522757 -0.02109146 -0.059145592
0000d0 3d c1 80 3c dc d7 2c bc bf d9 21 bd bd be 99 bd
       0.015717143 -0.010549512 -0.0395143 -0.075070836
0000e0 ff a7 30 bd 52 fe fa 3d 30 ef bb bc ef ad d7 bc
       -0.043128964 0.12255539 -0.022941202 -0.026328055
0000f0 89 74 b0 bc c6 34 75 3b 08 4e 6d 3c 08 5f 25 bd
       -0.021539943 0.0037415489 0.014483936 -0.040373832
000100 8c 30 9a 3d 0f 02 9a bc 58 e1 8c bd 7f 22 94 bd
       0.07528791 -0.01879981 -0.068789184 -0.07233142
000110 7d 24 f2 bd e2 07 74 3d d0 d4 38 bc 51 c1 08 be
       -0.11823366 0.05957783 -0.011281207 -0.13354994
000120 f7 d4 c9 3d 9b 26 a9 3d 42 ac 98 3d 6d 3f ab 3d
       0.09855073 0.082593165 0.074547306 0.08361707
000130 1d d1 8e 3c 3a e0 0c 3d 78 0d f5 3d d2 94 c7 3d
       0.017433697 0.034393527 0.119654596 0.09745182
000140 78 c7 ee 3b 7d 52 55 3c dd 21 ef bd ce 51 2e 3c
       0.007286962 0.013020155 -0.11676381 0.010639621
000150 c4 af 6d bd ca b9 ba bb 3e 65 94 3d fd 12 ac bd
       -0.05802895 -0.0056984173 0.07245873 -0.08402059
000160 62 f1 a6 bc b9 56 02 bd 04 b0 92 bc 2c 95 f3 3b
       -0.020378772 -0.031820986 -0.017906196 0.007433554
000170 2f 2d d6 bc 4f a6 fd bc 86 2e 33 be 41 84 c8 bd
       -0.026144592 -0.030963091 -0.17498216 -0.097908504
000180 bf 57 b8 bd 60 0c 8f bd f5 e0 b1 bd 82 f7 fd bc
       -0.09001111 -0.06984782 -0.08685485 -0.03100181
000190 1d 30 36 bd b3 38 d2 3c 3f 33 4a bd 3d 08 71 bd
       -0.04447948 0.025661802 -0.04936528 -0.058845747
0001a0 0a c0 6b bd 2a 32 96 bd f5 06 b8 bd ce d2 c1 bd
       -0.05755619 -0.07333787 -0.08985702 -0.09464036
0001b0 7b 7e a9 3d 45 61 9d 3c ce 86 91 bd 90 57 b1 3d
       0.08276077 0.01921142 -0.0710579 0.08659279
0001c0 1b 91 ae 3d be 2b ee 3c 6d 51 ab 3d ea b2 85 3a
       0.085237704 0.029073592 0.0836514 0.0010200415
0001d0 64 f8 0a 3a 2c bf 03 3e ff e2 08 3e 7a 9e 0c bd
       0.00053012953 0.12865895 0.13367842 -0.034330823
0001e0 b6 d1 84 3a 8d b9 88 3d 50 a7 9a 3b a9 4d b9 3d
       0.00101333 0.06676016 0.0047196522 0.090480156
0001f0 89 16 e7 3d b3 0b 13 3d 4b b9 10 3e 53 16 c1 3d
       0.11283595 0.03589983 0.14133184 0.09428086
000200 5f 93 0b 3d 4c 18 70 bd 55 3a 21 3d 69 b9 66 3d
       0.03407609 -0.05861692 0.03936227 0.056329165
000210 cf 3e 02 be 28 a4 9c bd 75 87 8e bc b6 6e bc bd
       -0.12719272 -0.07648498 -0.017398575 -0.09200804
000220 be 02 af bd b1 4c 49 bd f8 d7 f6 bd af cb 0a bc
       -0.08545445 -0.049145404 -0.120529115 -0.0084714135
000230 54 68 25 bc cf f6 dc bd 06 0c 38 bd d4 0b 98 bd
       -0.010095675 -0.107892625 -0.04493334 -0.07424131
000240 d2 73 44 3d 32 60 be 3c ca 88 26 3d 3a 88 2e bc
       0.047962017 0.023239229 0.040657796 -0.010652596
000250 f2 51 1b 3d 46 fd 1d 3c 22 4b 19 bd 16 1f 25 3c
       0.037919946 0.009642905 -0.037425168 0.010078212
000260 40 9f e6 bb 07 ab 64 3d ef b0 50 3e 74 7e a9 3d
       -0.007038027 0.055827167 0.20379995 0.08276072
000270 3b bd ac 3d f4 09 f9 3d 36 7b c3 bc 5a 8b 91 3d
       0.0843453 0.121601015 -0.023862462 0.07106657
000280 a1 12 8f bc 75 19 75 3d 55 8e 95 bc 88 3a 81 bd
       -0.017464938 0.05983873 -0.018256346 -0.06309992
000290 0b b6 e0 bd dd fd 35 3c d3 95 a8 b9 fb 7b 85 bd
       -0.10972222 0.011107889 -0.00032155085 -0.06517788
0002a0 e8 20 81 ba 27 55 70 3c c3 35 81 bd 84 f2 a3 3d
       -0.0009851726 0.014668739 -0.06309082 0.080052406
0002b0 93 df ab 3c ec f7 90 3a cb 46 81 3d 7c 3d 97 bd
       0.020980632 0.0011060215 0.06312331 -0.07384774
0002c0 c5 5c b2 3c c1 c4 a0 3d d2 9b 84 3c 71 15 c5 bb
       0.021772752 0.07850028 0.016187582 -0.006014519
0002d0 cc c1 49 bd 23 45 f4 3d dc 5d 1a 3e d4 cd 1b bd
       -0.049257085 0.11927249 0.15074867 -0.03803809
0002e0 57 95 2e bc ef cf 96 3d 65 a1 49 3d c9 82 9c 3b
       -0.010655723 0.07363879 0.049226183 0.004776333
0002f0 d7 e7 0b 3d 4b 7e b3 bd 6d b5 4c 3d 41 26 9a bd
       0.034156647 -0.08764323 0.04997771 -0.075268276
000300 c1 8b 68 3d 6f 87 89 3d 02 7f a2 3d 02 bc 8a 3d
       0.056773905 0.06715285 0.07934381 0.06774141
000310 e0 2a 88 3c f5 b8 e7 3c 0c ac bb 3d a0 4c e2 3c
       0.016622007 0.028286437 0.09163675 0.027624428
000320 16 18 37 bd d0 58 11 3d 34 86 c1 bc be 54 e1 bd
       -0.044700705 0.03548509 -0.023623563 -0.110024914
000330 3d da 84 3d 73 1a 1c 3b 70 99 88 bd 80 47 db bd
       0.06486938 0.0023819476 -0.06669891 -0.10706997
000340 51 14 25 3c 68 3c a2 3c 4e f9 fb bd c3 76 3a bd
       0.010075645 0.019804195 -0.123034105 -0.045523416
000350 bc c7 40 bb 6b 93 e4 bd 93 e8 3b bd 8e c9 0c ba
       -0.0029415926 -0.1116093 -0.045876097 -0.000537061
000360 f7 88 92 3d 13 f8 26 bd 1c 18 a8 bb c2 fa 64 bd
       0.0715503 -0.040763926 -0.005129827 -0.055903204
000370 d2 61 b8 bc 65 1b 7a bd ac 27 2a be 78 de 10 be
       -0.022507582 -0.06106128 -0.16616696 -0.14147365
000380 3e f3 97 bc 32 09 92 bc 4f b5 58 bc b9 60 0b bd
       -0.018548604 -0.01782665 -0.013226821 -0.03402779
000390 b8 a5 c3 3a 6f 96 9d 3d f9 1d 9e 3c 04 ca 6d 3d
       0.0014926707 0.076947086 0.019301401 0.058053985
0003a0 b1 a6 ae 3d fd d5 91 3d a2 03 17 be bd e7 ab bd
       0.085278876 0.07120893 -0.1474748 -0.0839381
0003b0 8c f2 be bc 1b 44 98 bd dc 66 a5 bd ad 7e fb 3c
       -0.023309015 -0.07434865 -0.080762595 0.030700052
0003c0 1a 1b 11 bd 33 5d bb bc e8 51 be 3d d6 6a 47 bd
       -0.035426237 -0.02287159 0.09292966 -0.04868587
0003d0 fd d6 b7 bd d4 9d ac bd 15 6f 85 bd 3f fd ad bc
       -0.08976553 -0.08428541 -0.06515328 -0.021238921
0003e0 06 73 18 3b 1d d6 ee bd ed 98 1b be 03 fa 8d bd
       0.0023261919 -0.116619326 -0.15195055 -0.069324516
0003f0 cd ff a4 bd b5 f6 3a 3c d8 d5 16 3d c1 1b 01 bb
       -0.080566026 0.011411359 0.03682503 -0.001970038

body.block3.conv.bias f4 [32]
000000 3a 5f 5d 3d c3 55 3f bd 65 dc 51 bd cc c2 75 bd
       0.054045893 -0.046712648 -0.051235575 -0.060000226
000010 a8 bb cf bc 5a 39 3f bd f0 3b e9 3c 08 65 0b bb
       -0.025358036 -0.046685554 0.028470963 -0.0021269936
000020 d9 2d 1d 3d 1d b0 30 bd ea 4c d8 3c c4 25 ec 3c
       0.0383738 -0.043136705 0.026403863 0.028826602
000030 c9 8c a5 bb b3 8e 20 3d 72 8d f2 bc f0 2e 49 bd
       -0.0050521833 0.03919859 -0.029608462 -0.04911703
000040 9f 23 9a b9 3a ee 19 3d ec 4e af bc 2c fb 20 bc
       -0.0002939971 0.037580706 -0.021399938 -0.009825509
000050 56 be 14 3d 8a 1f e6 3c dc 62 29 bd 99 f3 ae 3c
       0.03631433 0.02809121 -0.041354045 0.02135639
000060 b9 b2 6f bb 16 3b ed 3c 58 9a 2b 3d 61 2a 86 bc
       -0.0036575033 0.028958838 0.04189524 -0.01637763
000070 e5 6c 5b bd f5 f4 05 3b 86 d5 24 bd 98 5c d5 bb
       -0.053570647 0.0020440195 -0.040242694 -0.006511282

body.block3.norm.weight f4 [32]
000000 31 5f 20 3f 4a f0 4f 3f 92 90 4c 3f dc 8a 3e 3f
       0.6264525 0.81226027 0.79908097 0.7443063
000010 e0 b5 32 3f 32 f7 17 3f fd be 1d 3f 0b ea 27 3f
       0.6980877 0.59361565 0.6161955 0.65591496
000020 0e d3 45 3f 07 68 2e 3f 2b 93 35 3f 85 28 1d 3f
       0.7727517 0.68127483 0.70927685 0.6138995
000030 a7 d0 24 3f b0 f8 2b 3f 55 91 2a 3f b4 96 2b 3f
       0.6438088 0.6717634 0.6662801 0.6702683
000040 df f1 39 3f 7f 20 12 3f ff cb 2e 3f 43 6a 3d 3f
       0.7263469 0.57080835 0.68280023 0.7399027
000050 83 1e 1e 3f b2 3a 1a 3f 7e b7 10 3f 42 ff 3c 3f
       0.6176531 0.6024581 0.56529987 0.7382699
000060 a4 f8 ff 3e f3 11 2f 3f 84 b5 1e 3f a2 b7 2f 3f
       0.49994385 0.68386763 0.6199572 0.68639576
000070 a0 1a 51 3f 0a eb 25 3f ae 71 3f 3f da 97 fa 3e
       0.8168125 0.64811766 0.74782836 0.4894398

body.block3.norm.bias f4 [32]
000000 9f 43 8f be 5f 98 d7 3c 74 b4 ac be 39 1c 01 bf
       -0.27981278 0.026317773 -0.33731425 -0.5043369
000010 5d bc ff be 94 3b a9 be 61 10 bc be 0b 04 1f be
       -0.49948397 -0.33053267 -0.36731246 -0.15528886
000020 40 f0 2f bf a6 88 43 be 1d 16 fb be 60 9d 9a be
       -0.6872597 -0.19095096 -0.4904031 -0.30198193
000030 b5 08 a9 be 5c 28 0f bf bd 5d 8d be ab 84 9d be
       -0.33014455 -0.5592096 -0.2761058 -0.3076528
000040 4b a0 41 be 15 1f e5 be 5b 4d df be 89 15 ce bd
       -0.18908803 -0.44750276 -0.43613705 -0.10062701
000050 8e 38 07 bf e5 6c 78 be b5 e7 2e bd 04 cb 97 be
       -0.5282067 -0.2426029 -0.04270144 -0.29647076
000060 5d d5 6c be 05 32 93 be e2 58 0e bf c4 11 c4 be
       -0.23128267 -0.287491 -0.55604374 -0.38294804
000070 46 cc 32 bf dd c7 89 be a1 18 8d 3d 0d 19 dc be
       -0.69842947 -0.26910296 0.06889463 -0.42987862

body.block3.norm.running_mean f4 [32]
000000 7a 86 3e bf aa c8 8b 3e 19 2c cd be 13 e3 27 be
       -0.74423945 0.27301532 -0.40072706 -0.16395216
000010 97 3c 55 be 83 a3 8c bf a5 f1 e0 be 0f bf 82 bf
       -0.20823894 -1.09874 -0.4393436 -1.0214556
000020 c6 2e 29 bf 39 c0 e3 bd 91 21 78 be 13 f9 34 be
       -0.66086996 -0.11120648 -0.24231555 -0.1767314
000030 0f 68 62 bf b9 03 96 bf 4a ec 02 bf be b5 b9 bf
       -0.8844003 -1.1719886 -0.511418 -1.4508588
000040 f2 46 62 bf c5 07 2c bf b1 ad d4 bd 70 12 5b bf
       -0.88389504 -0.67199355 -0.103846915 -0.8557501
000050 27 49 2f be 09 6c e7 bf 82 60 70 3e 2d 3b 06 c0
       -0.17117749 -1.8079845 0.23474315 -2.0973618
000060 e9 e7 dd 3e 4b 1d b1 bf 2a 1c 9f bf 47 ec 31 bf
       0.43340996 -1.3837065 -1.243047 -0.69501156
000070 56 29 c6 bf a0 75 93 bf 5d 7f 2b c0 ed 18 02 c0
       -1.5481365 -1.1520271 -2.6796486 -2.0327713

body.block3.norm.running_var f4 [32]
000000 44 f3 ea 3f 34 1c 3c 40 9c 46 cc 40 4f 0e 05 3f
       1.8355489 2.9392214 6.3836193 0.5197496
000010 7b 60 a7 3f 97 93 d5 3f 98 d4 82 3f c0 28 eb 3f
       1.3076319 1.6685666 1.0221128 1.8371811
000020 36 b2 f7 3f 12 71 01 40 2d d7 eb 3f 2f 5b cd 3f
       1.9351261 2.0225263 1.8425041 1.6043452
000030 85 02 24 40 fe 7b c3 3f 06 6a f4 3f 45 43 b4 3f
       2.5626538 1.5272214 1.9094856 1.4083029
000040 23 97 95 3f 77 3a ae 3f 78 29 2e 3f 19 f0 30 40
       1.1686748 1.3611592 0.68032026 2.7646544
000050 2e 09 db 3f e6 bc 12 40 81 c6 d4 3f af 35 6e 40
       1.7112176 2.2927794 1.6623079 3.7220266
000060 a0 23 de 3f 4f 95 60 40 e2 1a 09 40 b2 3c c1 3f
       1.7354622 3.509113 2.1422658 1.5096648
000070 b2 6c e2 3f ff 8b 50 40 95 a6 0f 40 3a ef 17 40
       1.7689421 3.2585447 2.2445424 2.3739762
