SinGan/TrainedModels/cows/scale_factor=0.750000,alpha=10/7/netD.pth (torch_old, 461765 bytes, 25 tensors)

head.conv.weight f4 [64, 3, 3, 3]
0	0xbe1e70ec	-0.15472764
1	0xbd2a1d62	-0.041531928
2	0x3d932ef3	0.07186689
3	0xbd9dd401	-0.07706452
4	0xbd2dce9f	-0.042433377
5	0x3c996007	0.018722547
6	0xbcaf3c0f	-0.021390943
7	0x3b4e2049	0.003145235
8	0x3ca99a91	0.020703586
9	0xbdda55ed	-0.1066092
10	0x3bccc4f7	0.006249066
11	0x3e2b253f	0.16713427
12	0xbcdcff68	-0.026977256
13	0xba605d66	-0.00085588393
14	0x3d91edd4	0.0712544
15	0x3bd50942	0.0065013478
16	0x3ccf3bc2	0.02529705
17	0x3d78c582	0.060735233
18	0x3bb303de	0.0054631075
19	0x3d18c5cf	0.03729802
20	0x3de68de3	0.112575315
21	0x3cb3a8fc	0.021931164
22	0xbbff5aa5	-0.007792788
23	0xbc4f55ca	-0.012654731
24	0x3ca7b523	0.020472115
25	0xbc6e6e2e	-0.014552636
26	0xbc6564d6	-0.014001092
27	0x3dde3fa4	0.10851982
28	0xbb92317e	-0.0044614663
29	0xbd392a21	-0.045206193
30	0xbb33387b	-0.0027346897
31	0x3d0f90d2	0.03505022
32	0x3cfee393	0.031114375
33	0xbe00a397	-0.12562405
34	0xbb75c7f3	-0.0037503212
35	0x3d307d50	0.043088257
36	0x3e078b76	0.13236794
37	0xbc08e1b1	-0.00835459
38	0xbdc540d6	-0.09631507
39	0x3cacb3e2	0.021081869
40	0x3d4ddca1	0.050259236
41	0xbb07f87b	-0.002074747
42	0xbdec92e8	-0.11551458
43	0x3c4ee310	0.012627378
44	0x3cb55647	0.022135867
45	0x3e07945a	0.13240185
46	0xbd29e012	-0.041473456
47	0xbdd9971c	-0.10624525
48	0x3b757eb9	0.0037459566
49	0x3d03ab5d	0.032145847
50	0x3d1258f6	0.03572937
51	0xbdb19ae8	-0.08672124
52	0x3d05c8ee	0.032662325
53	0x3dac9738	0.0842728
54	0xbdbeadef	-0.09310519
55	0xbc6580d1	-0.014007763
56	0x3c0b5ea9	0.008506455
57	0xbc9c4274	-0.019074656
58	0x3ce64474	0.028108813
59	0x3c59d9ff	0.013296603
60	0x3e0662e5	0.13123663
61	0x3cbe2b0b	0.023213884
62	0xbd117c4e	-0.035518937
63	0xbe093681	-0.13399698
64	0xbd0a530d	-0.03377061
65	0xbd3279f9	-0.043573353
66	0xbd28c85e	-0.04120671
67	0x3ae4fbdf	0.0017470083
68	0xbd07ef92	-0.033187456
69	0x3de9b8c8	0.11412197
70	0xbc2352f7	-0.009968511
71	0xbd3d8bb0	-0.046275795
72	0xbbb3c497	-0.005486082
73	0x3d42956d	0.047505785
74	0x3de40c28	0.11135131
75	0x3c380bb3	0.011233258
76	0x3d466aed	0.048441816
77	0x3d5bfc36	0.053707324
78	0x3dedf903	0.11619761
79	0xbc172b1e	-0.0092265885
80	0xbd927d4b	-0.07152804
81	0x3e0a0fc8	0.13482583
82	0x3d82676e	0.06367384
83	0x3d8a2fb4	0.0674738
84	0x3d52771b	0.05138312
85	0x3d0e2848	0.034706384
86	0x3d1b4d94	0.03791578
87	0x3dcb7d6a	0.0993603
88	0x3d0fea67	0.035135653
89	0x3d3b96f3	0.045798253
90	0xbdb696aa	-0.08915456
91	0xbd656c9c	-0.05601178
92	0xbdcb5cfc	-0.09929845
93	0xbd42b9d7	-0.047540512
94	0xbcd66ef4	-0.026175953
95	0xbd2ada94	-0.04171236
96	0xbdbd981d	-0.09257529
97	0xbd65c66b	-0.05609743
98	0xbcefd1dc	-0.029274873
99	0xbdd0b417	-0.101905994
100	0xbd5b96f0	-0.053610742
101	0xbdace23a	-0.08441587
102	0xbcf24f37	-0.029578788
103	0xbb530460	-0.0032198653
104	0xbcc0938a	-0.023507852
105	0xbce17d80	-0.027525663
106	0xb9ff6f9d	-0.00048720549
107	0xbd712058	-0.058868736
108	0x3d08aa04	0.033365265
109	0x3c9644cd	0.018343354
110	0x3d6ee32a	0.05832211
111	0xbbcc9408	-0.0062432326
112	0xbc76f71f	-0.015073567
113	0x3ceb47db	0.028720787
114	0x3c50ef22	0.012752326
115	0xbc9a26cb	-0.018817326
116	0x3c9e73fe	0.019342419
117	0xbdb79cb4	-0.089654356
118	0xbcb03bf8	-0.02151297
119	0xbd9d1df1	-0.076717265
120	0xbd6c5166	-0.057694815
121	0xbcba802f	-0.0227662
122	0xbc8d6713	-0.017261064
123	0xbd361da4	-0.04446186
124	0xbd1a303f	-0.037643667
125	0xbd56cf2a	-0.05244366
126	0x3df94ddf	0.12173056
127	0x3d865941	0.065599926
128	0x3e27d58e	0.16390058
129	0x3dc496cc	0.09599075
130	0xbc8022ad	-0.015641535
131	0x3d925851	0.07145751
132	0x3e1fe603	0.15615086
133	0x3bf0713e	0.0073377183
134	0x3e1afe6c	0.15136117
135	0x3d6bbe03	0.057554256
136	0x3d25c17c	0.040467724
137	0x3d13dfde	0.03610217
138	0x3c8e5f5c	0.017379455
139	0x3cf4209f	0.029800711
140	0x3cba09c6	0.022709738
141	0xbcea2f36	-0.028586965
142	0xbc174f25	-0.009235178
143	0x3a87f496	0.0010372575
144	0xbe606c85	-0.21916397
145	0xbda74034	-0.08166543
146	0xbdbabef7	-0.09118455
147	0xbdabc984	-0.083880454
148	0xbbf4c60a	-0.007469897
149	0xbc97f2ef	-0.018548457
150	0xbd8f8a53	-0.07008805
151	0xbccdd3f0	-0.025125474
152	0x3c815884	0.015789278
153	0x3d99b471	0.075051196
154	0x3d156b7d	0.036479462
155	0x3ced2cf5	0.028952101
156	0x3d00e442	0.031467684
157	0x3cae08e8	0.021244481
158	0xbd28a896	-0.0411764
159	0x3d775ad2	0.060389347
160	0x3d074dc9	0.033033166
161	0xbcd7431c	-0.026277117
162	0xbd6f1289	-0.058367286
163	0xbda180d6	-0.07885902
164	0x3de58be7	0.11208325
165	0x3d32f2ab	0.043688457
166	0xbbed8ad7	-0.007249217
167	0x3dd472c3	0.103734516
168	0xbccdbd3e	-0.025114652
169	0x3ba08ff0	0.004899971
170	0xbd3a322e	-0.04545801
171	0x3b48435b	0.0030557725
172	0xbd6dc4d6	-0.058049046
173	0x3d967153	0.07345834
174	0x3d987446	0.074440524
175	0xbce24dd5	-0.027625004
176	0x3cddb307	0.027062906
177	0x3be5c50c	0.007012015
178	0xbcd1e3c3	-0.0256213
179	0xbe17d048	-0.14825547
180	0x3c6f493f	0.014604866
181	0xbd77538b	-0.060382407
182	0x3db8ec8b	0.09029492
183	0x3d51c6d6	0.051215015
184	0xbd080695	-0.033209402
185	0xba7952fd	-0.00095109624
186	0xbd010f82	-0.03150893
187	0xbd0fb329	-0.03508297
188	0xbe131fd6	-0.14367613
189	0x3e1a3549	0.15059389
190	0x3d86013f	0.065432064
191	0x3dc2d2d8	0.095128715
192	0x3d109cce	0.03530579
193	0xbbab45e1	-0.005226836
194	0x3c3b9bd7	0.011450729
195	0xbe015d19	-0.1263317
196	0xbd25b3cc	-0.04045467
197	0xbc92ed77	-0.017935498
198	0x3db73bc9	0.0894695
199	0x3d3a2fb4	0.04545565
200	0x3dcbee08	0.0995751
201	0xbc89360a	-0.0167494
202	0xbcb77034	-0.02239237
203	0x3b853c17	0.004066001
204	0xbdd820fa	-0.10553165
205	0xbd132fc7	-0.035934236
206	0xbbabde6b	-0.00524502
207	0x3db4b412	0.08823408
208	0x3d439c66	0.047756575
209	0x3dbf0d75	0.093287386
210	0xbd3d757d	-0.046254624
211	0xbd32cebe	-0.043654196
212	0xbc4491e7	-0.011997676
213	0xbdfb86ce	-0.12281571
214	0xbd369362	-0.04457415
215	0xbcc4e1ea	-0.024033505
216	0xbccef1a9	-0.025261717
217	0xbd36cb80	-0.044627666
218	0xbddb9bc7	-0.107230715
219	0xbd379c38	-0.044826716
220	0x3c92628b	0.017869255
221	0x3d7329a2	0.059365876
222	0xbc9517c4	-0.018199809
223	0x3d226723	0.03964914
224	0x3e2d8c09	0.1694795
225	0x3d3be4f4	0.045872644
226	0xbcd95a24	-0.02653224
227	0xbdf89755	-0.12138239
228	0xbd0aef77	-0.033919778
229	0x3b8b82c8	0.0042575337
230	0x3ba07236	0.0048964275
231	0xbd1cb7bf	-0.03826117
232	0xbb6d88dc	-0.0036244905
233	0x3d92d9a7	0.0717042
234	0x3df12f69	0.11776621
235	0x3d332ae0	0.04374206
236	0xbca89d5b	-0.020582845
237	0xbc9c0f18	-0.019050166
238	0x3ba6116f	0.005067996
239	0x3c9d5a3c	0.019208066
240	0xbd924b61	-0.07143284
241	0xbd1cb247	-0.038255956
242	0x3c0adba5	0.008475219
243	0x3c161b20	0.009161741
244	0xba22a723	-0.0006204715
245	0x3d1809f5	0.03711887
246	0xbd68c151	-0.056824986
247	0xbdbed3ef	-0.09317767
248	0xbd535f00	-0.05160427
249	0x3df59715	0.11991707
250	0x3b467156	0.0030279956
251	0x3d89c34e	0.067267045
252	0x3d2abe04	0.04168512
253	0x3d0a7b64	0.03380908
254	0x3d553bee	0.052059107
255	0xbd53f0c4	-0.051743284

head.conv.bias f4 [64]
0	0xbdec6010	-0.1154176
1	0x3c84d145	0.016213069
2	0xbe564cbb	-0.20927708
3	0x3e5d846f	0.2163255
4	0x3e6cdb10	0.2313044
5	0x3e397703	0.18111806
6	0xbe1b9b0e	-0.15195867
7	0xbd43c2a5	-0.04779305
8	0x3e2e1a9b	0.17002337
9	0x3d7a47bd	0.06110357
10	0x3e63da00	0.22251129
11	0x3e1bb7eb	0.15206878
12	0xbb188b3a	-0.0023276345
13	0xbe032f73	-0.12811069
14	0x3e4f8786	0.20266542
15	0x3d4ef52f	0.050526794
16	0xbdce860e	-0.10084163
17	0x3e46c9fd	0.1941299
18	0xbe07ad78	-0.13249767
19	0x3d687297	0.056749906
20	0xbe044e99	-0.12920608
21	0x3e3b4be1	0.18290664
22	0xbe827b6b	-0.25484785
23	0xbe78f513	-0.24312238
24	0xbd93f970	-0.07225311
25	0xbda97e7c	-0.08276078
26	0xbe02f237	-0.1278771
27	0x3e56dfef	0.20983861
28	0x3e3011aa	0.17194238
29	0x3d400dca	0.04688815
30	0x3e913acd	0.28365174
31	0x3d07d1cd	0.033159066
32	0x3da961d1	0.0827061
33	0xbdcfe1d3	-0.101504944
34	0x3b5d2f1b	0.003375
35	0x3cdc5e23	0.026900357
36	0x3e34d631	0.17659833
37	0x3e0d0528	0.13771498
38	0xbe514e96	-0.20440134
39	0x3e013d4e	0.12621042
40	0x3d5fe1a5	0.05465855
41	0x3e5460f6	0.20740113
42	0x3e5469bc	0.2074346
43	0x3dd0485a	0.1017005
44	0xbe764b44	-0.24052149
45	0xbe0290c0	-0.1275053
46	0x3d78d8cd	0.060753632
47	0xbe0402d6	-0.12891707
48	0xbd1b4546	-0.03790786
49	0x3e37239e	0.1788468
50	0x3e427d97	0.18993221
51	0xbdf9e36b	-0.1220158
52	0x3e3febbb	0.18742268
53	0x3c8e9759	0.017406153
54	0xbdca3e5c	-0.09875175
55	0xbd4fb57b	-0.050710183
56	0xbeada638	-0.33915877
57	0xbc8e63eb	-0.017381629
58	0x3e53bc53	0.20677309
59	0xbbb69b52	-0.005572715
60	0x3d245cf9	0.040127728
61	0x3daecaa6	0.08534746
62	0x3daef00b	0.08541878
63	0x3def89ac	0.11696181

head.norm.weight f4 [64]
0	0x3f97353f	1.1813124
1	0x3f7428dc	0.95374846
2	0x3f505cb6	0.81391466
3	0x3f73067f	0.9493179
4	0x3f767dad	0.96285516
5	0x3f375bd7	0.7162451
6	0x3f691847	0.9105267
7	0x3f950a9a	1.164386
8	0x3f56a995	0.8385251
9	0x3f5c33f1	0.86016756
10	0x3f3feeb0	0.74973583
11	0x3f83f7c6	1.030999
12	0x3f84ef07	1.0385445
13	0x3f95ab6c	1.1692939
14	0x3f5bc456	0.8584646
15	0x3f763d8c	0.96187663
16	0x3f6a645c	0.91559386
17	0x3f40023a	0.750034
18	0x3f718df7	0.94357246
19	0x3f5664c5	0.8374751
20	0x3f4ec5aa	0.8077036
21	0x3f54798a	0.82997954
22	0x3f419894	0.7562344
23	0x3f5b9ba5	0.8578437
24	0x3f40b931	0.7528258
25	0x3f97fef9	1.1874686
26	0x3f4e2d0a	0.80537474
27	0x3f80cd6a	1.0062687
28	0x3f804640	1.0021439
29	0x3f3f206a	0.74658835
30	0x3f691a61	0.91055876
31	0x3f49ad82	0.78780377
32	0x3f8e3587	1.1110085
33	0x3fac8a24	1.3479657
34	0x3f84475e	1.033428
35	0x3f37b964	0.7176726
36	0x3f65c250	0.8974962
37	0x3f5a3a32	0.8524505
38	0x3f9805dd	1.1876789
39	0x3f894c7a	1.0726464
40	0x3f522ebb	0.82102555
41	0x3f5eae1f	0.8698444
42	0x3f304265	0.6885131
43	0x3f995c10	1.198122
44	0x3f814ca8	1.0101519
45	0x3f5b4dee	0.85665786
46	0x3f8cf767	1.1013001
47	0x3f8e9248	1.1138391
48	0x3f4e852d	0.8067196
49	0x3f704598	0.9385619
50	0x3f654374	0.8955605
51	0x3f6bab9d	0.92058736
52	0x3f7bc566	0.9834808
53	0x3f5de9c3	0.8668482
54	0x3faf5357	1.3697308
55	0x3f8be887	1.0930337
56	0x3f5e4a93	0.8683254
57	0x3f4d4442	0.8018228
58	0x3f312ce5	0.6920913
59	0x3f709f43	0.93993014
60	0x3f8c914e	1.0981843
61	0x3f9adc25	1.2098433
62	0x3f55e6d5	0.83555347
63	0x3f3b9418	0.7327285

head.norm.bias f4 [64]
0	0xbd900f66	-0.07034187
1	0x3dbd8fc1	0.092559345
2	0x3ef27977	0.47358295
3	0x3e60552b	0.21907489
4	0x3e663d5e	0.22484347
5	0x3f68e220	0.9097004
6	0x3d2fba89	0.042902503
7	0x3ed45f5a	0.41478997
8	0x3e0a674f	0.13515972
9	0x3ec230b5	0.37927786
10	0x3df1ec70	0.11812675
11	0x3f02b3cb	0.5105559
12	0xbdd39a13	-0.10332122
13	0x3f1debed	0.6168812
14	0x3f7fea3c	0.9996679
15	0x3d0d2300	0.034457207
16	0x3ec84e37	0.39122173
17	0x3ea50d76	0.32236832
18	0x3e7f4137	0.24927221
19	0x3f053441	0.5203286
20	0x3f7d67a6	0.9898628
21	0xbbc5a836	-0.006032015
22	0x3eb71651	0.35759214
23	0x3eda67b4	0.42657244
24	0x3ece16d5	0.40251794
25	0x3d33f133	0.043931197
26	0x3ebac32c	0.3647703
27	0xbe7fda80	-0.24985695
28	0x3e5dd581	0.21663477
29	0x3e85ccb9	0.26132753
30	0x3e03c997	0.12869869
31	0x3ebe0651	0.37114194
32	0x3e847d66	0.2587692
33	0x3e4a66dc	0.197658
34	0xbebf5bc2	-0.37374693
35	0x3ed4567f	0.4147224
36	0x3ed90647	0.42387602
37	0x3d8e2777	0.06941121
38	0x3e4c2440	0.19935703
39	0x3ebfdde1	0.37473968
40	0x3ea163b7	0.3152139
41	0x3e733b30	0.23753047
42	0x3e3636e7	0.17794381
43	0x3e40b143	0.1881762
44	0x3db4ed8e	0.088343725
45	0x3e6c9d7f	0.23106955
46	0x3e5e97e7	0.21737634
47	0xbeb34ba1	-0.35018638
48	0x3d292a9c	0.0413004
49	0x3f071ebd	0.5278128
50	0x3e997de1	0.2997885
51	0x3d1a089f	0.037605878
52	0x3e96f9ed	0.29487553
53	0x3d40a9fa	0.047037102
54	0x3ea20cb8	0.3165033
55	0xbdb90dfa	-0.09035869
56	0x3f1ab8e3	0.60438365
57	0x3e9837ae	0.2972998
58	0x3e3b60c3	0.1829863
59	0xbce10cb3	-0.027471876
60	0xbd31ee14	-0.04343994
61	0xbe1a1f9a	-0.15051118
62	0xbe0c8842	-0.13723853
63	0x3e81f87c	0.2538489

head.norm.running_mean f4 [64]
0	0xbe4223fa	-0.18959036
1	0xbcbdf867	-0.023189737
2	0xbebd2fcb	-0.36950526
3	0x3ecfe6e0	0.4060583
4	0xbe42a3a2	-0.19007733
5	0x3d458257	0.048220005
6	0xbda39785	-0.079878844
7	0xbb0f518a	-0.002186867
8	0x3e13f7e7	0.14450036
9	0xbc185615	-0.009297867
10	0x3e83b5df	0.25724694
11	0x3ee2dad1	0.4430757
12	0xbeacc24f	-0.33741996
13	0xbe807108	-0.25086236
14	0x3ea7eda9	0.32798508
15	0xbe7e2339	-0.24818124
16	0xba9e65d4	-0.001208479
17	0x3e831dfa	0.25608808
18	0x3c9ad06a	0.018898208
19	0x3cd47698	0.025935456
20	0xbe2f469b	-0.17116778
21	0xbdcabc1d	-0.09899161
22	0xbdd29056	-0.10281436
23	0xbef72a26	-0.48274344
24	0xbe146c14	-0.14494354
25	0x3dd3aaf0	0.10335338
26	0xbe995815	-0.29950014
27	0x3f05d18d	0.52272874
28	0x3e842fd9	0.25817755
29	0x3e02d878	0.12777889
30	0x3e4d4f14	0.20049697
31	0xbda0e1a3	-0.07855537
32	0x3dd69e69	0.10479433
33	0x3db08989	0.08619983
34	0xbe39319d	-0.18085332
35	0xbd5df172	-0.05418534
36	0x3e24865d	0.1606688
37	0xbbfbb692	-0.007681676
38	0xbe4da04b	-0.20080678
39	0x3d8a3e4a	0.06750162
40	0xbb961545	-0.0045801722
41	0x3e692296	0.227671
42	0x3e2806af	0.164088
43	0x3e28309d	0.16424794
44	0xbe36b948	-0.17844117
45	0xbcdf6c48	-0.027273312
46	0x3dd0b97c	0.10191628
47	0xbd0922d1	-0.03348047
48	0xbd3994ae	-0.045307808
49	0x3e8ca02c	0.2746595
50	0x3ed4c271	0.41554597
51	0xbe266467	-0.16249238
52	0xbd7ee8e3	-0.062233817
53	0x3d77f094	0.060532168
54	0x3ce6092c	0.028080545
55	0x3e3ae893	0.18252783
56	0xbee10420	-0.4394846
57	0x3dce4997	0.1007263
58	0x3e456ee5	0.19280584
59	0xbc79833c	-0.015229043
60	0x3e8cdacf	0.27510688
61	0x3cdb42b1	0.0267652
62	0x3dff4155	0.12463633
63	0x3cc03502	0.023462776

head.norm.running_var f4 [64]
0	0x3bf7df73	0.007564479
1	0x3bc41da3	0.0059849783
2	0x3bd578b4	0.006514633
3	0x3bd52a05	0.0065052533
4	0x3c6a13c5	0.01428694
5	0x3bdd94f7	0.0067621428
6	0x3bae0e9d	0.0053118006
7	0x3c99cb55	0.018773714
8	0x3b8ae101	0.0042382483
9	0x3bc19c77	0.0059085446
10	0x3b66e445	0.0035231274
11	0x3c3ce584	0.01152933
12	0x3ca2c6d3	0.019870197
13	0x3c771735	0.015081217
14	0x3d1f8248	0.038942605
15	0x3c3de9a0	0.011591345
16	0x3ce8da05	0.028424272
17	0x3c66f48e	0.014096392
18	0x3cdd5a53	0.027020609
19	0x3bbcb85a	0.005759281
20	0x3c8f57b3	0.017497873
21	0x3be316cc	0.006930208
22	0x3ba161c8	0.0049249865
23	0x3c826e65	0.01592178
24	0x3d18cba2	0.037303574
25	0x3c4c402b	0.012466471
26	0x3ba3991b	0.004992617
27	0x3c285ea0	0.010276467
28	0x3c28a603	0.0102934865
29	0x3bfe2e39	0.007756975
30	0x3bdcb738	0.0067357086
31	0x3cd25792	0.025676522
32	0x3cef3e3f	0.029204486
33	0x3c9cfacf	0.019162564
34	0x3ccb77c6	0.024837386
35	0x3c5deabe	0.013544736
36	0x3bab82fe	0.0052341213
37	0x3c082b6b	0.008311133
38	0x3bda6df9	0.006665942
39	0x3c6731ce	0.014110995
40	0x3bf5618a	0.007488434
41	0x3b9597c9	0.0045652133
42	0x3b778958	0.0037771072
43	0x3c60ee17	0.01372864
44	0x3c183374	0.009289611
45	0x3c066a1e	0.008204011
46	0x3ccf8938	0.025333986
47	0x3d465096	0.048416696
48	0x3b6768d4	0.0035310285
49	0x3c8604e9	0.016359763
50	0x3c5ee824	0.013605151
51	0x3baf3861	0.005347297
52	0x3c2ea34d	0.010659051
53	0x3c13433a	0.008988196
54	0x3cd781dc	0.026307039
55	0x3c42e5ac	0.011895578
56	0x3c0a3c61	0.008437247
57	0x3cc4b121	0.024010243
58	0x3b1e1dbb	0.0024126607
59	0x3c9a8cd6	0.018865984
60	0x3d0b5af0	0.03402227
61	0x3c77b67a	0.015119189
62	0x3b5a0bae	0.0033271122
63	0x3bbc6ad3	0.005750039

body.block1.conv.weight f4 [64, 64, 3, 3]
0	0x3e302b6d	0.17204066
1	0x3d97edf3	0.07418432
2	0x3d5dc5fe	0.0541439
3	0xbc04aeba	-0.008098299
4	0xbd82a73f	-0.06379556
5	0xbd86702b	-0.06564363
6	0xbd90ad6d	-0.07064328
7	0xbd522370	-0.051303327
8	0xbd4c61c8	-0.04989794
9	0x3e2b359c	0.16719669
10	0x3c07f506	0.008298164
11	0x3d6e78b4	0.05822058
12	0x3d9ed517	0.077554874
13	0xbdceb8a4	-0.10093811
14	0x3c8b2c85	0.016989002
15	0x3cee3c0d	0.029081369
16	0x3b452202	0.0030080085
17	0x3d959a5c	0.07304832
18	0xbd883b9c	-0.066519946
19	0xbd7f5674	-0.062338307
20	0x3c8d7f14	0.01727251
21	0xbd1a7210	-0.037706435
22	0xbda1468d	-0.078747846
23	0x3b90a91e	0.0044146916
24	0x3d87baef	0.06627452
25	0x3d62a42c	0.055332348
26	0x3c9d3acc	0.019193076
27	0x3e412ce0	0.18864775
28	0xbc115f01	-0.008872748
29	0x3d5c425d	0.053774226
30	0x3cc1514e	0.02359834
31	0xbd79388f	-0.060844954
32	0xbd9de09f	-0.07708859
33	0x3e0dc021	0.13842823
34	0xbaa8b51c	-0.0012871358
35	0xbd84296a	-0.064532116
36	0xbd890cf6	-0.06691925
37	0xbcb4b4ab	-0.022058805
38	0xbd9f64ca	-0.07782896
39	0xbc3d63ef	-0.011559471
40	0x3c9fc737	0.019504173
41	0xbd07ceea	-0.033156313
42	0x3d2ec28a	0.042665996
43	0xbb1b5634	-0.0023702504
44	0xbd0a698e	-0.03379207
45	0x3dc7fca0	0.09764981
46	0xbd967318	-0.07346171
47	0xbd4d1f53	-0.0500787
48	0x3cfe6597	0.031054301
49	0xbd34f624	-0.04418005
50	0xbd9b7a4d	-0.075916864
51	0x3dcbfad7	0.09959953
52	0xbc2bfbc1	-0.0104970345
53	0xbd37acfc	-0.044842705
54	0x3db750ac	0.08950934
55	0x3d8b4c27	0.06801634
56	0x3caccb48	0.021093026
57	0xbd062225	-0.032747407
58	0x3ba2f7aa	0.0049733715
59	0xbd7ee65c	-0.062231407
60	0xbd610087	-0.054932144
61	0x3d645861	0.055748347
62	0x3d62f69b	0.055410963
63	0x3db74d3d	0.08950279
64	0x3d6b3dea	0.057432093
65	0x3db07488	0.086159766
66	0x3abec4c0	0.0014554486
67	0x3c813a2f	0.015774814
68	0x3d869dcd	0.06573067
69	0x3d481c2f	0.048855003
70	0x3c8dbdab	0.017302355
71	0x3d53b58c	0.05168681
72	0xbd84f642	-0.064922825
73	0x3decd618	0.11564273
74	0x3d6f2fda	0.058395244
75	0x3dd20d76	0.10256474
76	0x3d0beacd	0.03415947
77	0x3d7e5104	0.06208898
78	0x3e2d1a1f	0.16904496
79	0x3cb47a1e	0.022030886
80	0x3e12cb25	0.14335306
81	0x3d321e00	0.04348564
82	0xbcd227ad	-0.025653685
83	0x3bfe6390	0.0077633336
84	0xbbcd87e2	-0.006272302
85	0xbd84ebcd	-0.06490288
86	0x3bb66d9a	0.0055672647
87	0xbd38301a	-0.04496775
88	0x3b8347ac	0.0040063467
89	0x3de69b44	0.11260083
90	0xbd339ae1	-0.043848876
91	0xbd134c35	-0.03596135
92	0x3da358d3	0.07975926
93	0x3c0d4b15	0.008623858
94	0xbccc0d10	-0.024908572
95	0x3dfeb180	0.12436199
96	0xbd51fa36	-0.05126401
97	0xbc29aacc	-0.010355663
98	0x3dce22c3	0.10065224
99	0xbe0ff3cd	-0.14057846
100	0x3cfede20	0.031111777
101	0x3c11ad15	0.008891364
102	0xbdc7ee3d	-0.09762237
103	0xbb107243	-0.0022040762
104	0xbc25748e	-0.01009859
105	0xbd996260	-0.07489467
106	0xbc8fd3bc	-0.017557018
107	0xbbac6c51	-0.0052619358
108	0x3dcf45f5	0.10120765
109	0x3d67a19c	0.056550607
110	0x3d85947d	0.065224625
111	0x3d2d6695	0.042334158
112	0x3d8991d4	0.06717268
113	0x3d664e74	0.056227162
114	0x3d2c46bf	0.042059656
115	0x3dd22405	0.102607764
116	0x3d408210	0.046999037
117	0x3e25f561	0.16206886
118	0x3d3621c8	0.04446581
119	0xbc0e7e66	-0.008697128
120	0x3e3a6503	0.18202595
121	0x3cd5725c	0.026055507
122	0xbd9d4466	-0.076790616
123	0x3e01d5cc	0.12679213
124	0x3c27637b	0.010216589
125	0xbcee8c4d	-0.029119635
126	0xbd45b96e	-0.048272543
127	0xbcf5b66b	-0.02999421
128	0xbcac1c89	-0.0210097
129	0x3ab0b4f0	0.0013481658
130	0xbd7685db	-0.06018625
131	0xbda6eaf0	-0.081502795
132	0x3d4f9d2e	0.050687008
133	0x3d0be796	0.034156404
134	0xbc393705	-0.011304622
135	0x3d339be3	0.043849837
136	0x3d89a9e9	0.06721861
137	0x3cf72984	0.030171163
138	0x3d4c63fa	0.049900033
139	0xbd599f4e	-0.05313044
140	0xbd8443ba	-0.0645823
141	0x3df78185	0.12085251
142	0xbcd23717	-0.025661035
143	0x3daa2954	0.08308664
144	0x3d87662c	0.066112846
145	0x3c283187	0.0102657145
146	0xbd219f73	-0.039458703
147	0x3cd0855b	0.025454214
148	0xbd694a4e	-0.056955628
149	0xbd88342c	-0.06650576
150	0x3d4939e1	0.049127463
151	0xbab6005f	-0.0013885609
152	0xbb02f743	-0.0019983805
153	0x3d4b4a01	0.049631122
154	0x3d36e5c4	0.044652715
155	0x3d0b19aa	0.033960022
156	0x3b899cc8	0.004199598
157	0xbc0e4864	-0.008684251
158	0xbd5b6e95	-0.053572256
159	0xbc9f2f46	-0.019431721
160	0xbb8590dc	-0.0040761065
161	0xbbbcf427	-0.00576641
162	0xbe157398	-0.14594877
163	0xbce46891	-0.027881892
164	0xbd0edb78	-0.03487727
165	0xbdc79c37	-0.097465925
166	0xbca80cae	-0.020513859
167	0xbbd82a27	-0.006596822
168	0xbe123f5f	-0.14281987
169	0xbe00839c	-0.12550205
170	0xbd05e0e9	-0.032685194
171	0xbda04a01	-0.07826615
172	0xbd867167	-0.065645985
173	0xbd4923f6	-0.04910656
174	0xbd2ef893	-0.042717528
175	0xbd9e0d09	-0.0771733
176	0xbd3d5318	-0.046221823
177	0x3dd7ab2f	0.105306976
178	0x3d8927cd	0.066970445
179	0x3d940615	0.072277226
180	0x3d39f551	0.045399968
181	0x3c5b46f2	0.013383614
182	0xbc45906a	-0.012058357
183	0xbc28ad62	-0.010295244
184	0xbca451d7	-0.020058556
185	0xbb01ec55	-0.0019824703
186	0x3ccd8387	0.025087131
187	0xbd3454a5	-0.044026036
188	0x3b98a1ff	0.0046579833
189	0x3cf8e6fe	0.030383583
190	0xbd391d1c	-0.045193776
191	0x3d30e513	0.043187212
192	0xbc69f166	-0.014278745
193	0xbde2ff38	-0.11083835
194	0xbcc5645c	-0.024095707
195	0x3d6cf902	0.05785466
196	0x3cf43a68	0.029813007
197	0x3defc719	0.11707897
198	0xbd3f41e0	-0.046693683
199	0xbce501ed	-0.02795502
200	0x3cee89b2	0.029118393
201	0x3d4179ef	0.047235426
202	0x3d84be4c	0.06481609
203	0x3cd25050	0.025673062
204	0x3e1b820b	0.15186326
205	0x3e0c68b2	0.13711813
206	0x3e263464	0.16230923
207	0x3d3313d2	0.043720074
208	0xbca93b4c	-0.020658158
209	0x3cddd4ad	0.02707895
210	0x3c56532a	0.013081351
211	0xbc0455dd	-0.008077112
212	0x3da7c671	0.081921466
213	0x3d494893	0.049141478
214	0x3ddb9585	0.10721878
215	0x3e06fc37	0.1318215
216	0xbd156da1	-0.036481503
217	0xbd1cfb68	-0.038325697
218	0x3d8f9d68	0.07012445
219	0xbc96ade9	-0.018393474
220	0x3d3da04e	0.046295457
221	0xbcf2ee28	-0.029654577
222	0x3bef6404	0.007305624
223	0x3cae9a1f	0.021313725
224	0x3d84dbb5	0.06487218
225	0x3d8313e6	0.0640028
226	0x3c76b8ff	0.015058755
227	0xbbd6982c	-0.006548902
228	0xbd3de57f	-0.046361443
229	0xbd905ac4	-0.07048562
230	0xbcccbe9a	-0.02499323
231	0x3d58d660	0.05293882
232	0x3d469737	0.048484053
233	0x3e5b8687	0.21438037
234	0xbcb007d9	-0.021488117
235	0xbb082203	-0.0020772226
236	0x3ce0b57b	0.027430287
237	0xbc47c613	-0.012193221
238	0xbd0b1505	-0.033955593
239	0x3b5588d0	0.0032582767
240	0x3d9c7cdc	0.076410025
241	0x3e193ef8	0.14965427
242	0x3e1d427a	0.1535739
243	0x3c7c90b5	0.01541536
244	0x3cd6e59a	0.02623253
245	0x3b12da49	0.002240794
246	0x3d83eafb	0.06441303
247	0xbc2f8658	-0.010713182
248	0x3d2fc6db	0.042914253
249	0x3e06e212	0.13172176
250	0x3bf9d28f	0.0076239775
251	0x3d444c3a	0.047924258
252	0xbde7928e	-0.1130725
253	0xbcbb267e	-0.022845503
254	0x3da20342	0.07910778
255	0x3cf58e8f	0.029975204

body.block1.conv.bias f4 [64]
0	0xbd11fd57	-0.035641994
1	0x3a84ed5a	0.0010141537
2	0xbcb1c345	-0.021699557
3	0x3d1fb61a	0.038992025
4	0xbc3141eb	-0.010818939
5	0x3c9a2c65	0.018819997
6	0x3cb32705	0.021869192
7	0x3b4fed95	0.0031727303
8	0xbb205223	-0.002446302
9	0xbd22dbf5	-0.03976055
10	0x3c3a7c09	0.011382111
11	0xbb7862f2	-0.0037900773
12	0xbd152533	-0.03641243
13	0x3d3c2be3	0.04594029
14	0xbb20869a	-0.0024494291
15	0x3c89eedd	0.016837532
16	0x3bf7d209	0.00756288
17	0xbc20169d	-0.009771016
18	0x3bb23142	0.005438001
19	0x3c9ff9da	0.019528318
20	0xbc917657	-0.017756624
21	0xbbaf56a0	-0.0053509027
22	0xbcc76061	-0.02433795
23	0x3c8d8be5	0.017278621
24	0xbd0faf46	-0.035079263
25	0x3cd561a5	0.026047537
26	0x3c863590	0.016382962
27	0x3d1ccfc5	0.038284082
28	0x3cea8589	0.028628128
29	0xbbd4d18e	-0.0064947074
30	0x3c8cce19	0.017188119
31	0x3d172047	0.036896016
32	0xbc2e61a7	-0.010643399
33	0x3d3dc0ec	0.046326563
34	0xbd2db969	-0.04241315
35	0x3c0f611a	0.008751178
36	0x3c4be731	0.012445257
37	0xbc1f37c4	-0.009717885
38	0xbc04f4f8	-0.008115046
39	0x3cc02e19	0.023459481
40	0xbc6cb0cd	-0.0144464495
41	0xba0ad684	-0.00052962475
42	0x3c5bf843	0.013425889
43	0x3beedbfc	0.007289408
44	0xbce5cf57	-0.028052969
45	0xbc599bc6	-0.013281768
46	0x3c8c91e7	0.017159415
47	0x3c8f6c8a	0.01750781
48	0xbd0e5b77	-0.034755196
49	0xbcb3d3b8	-0.021951541
50	0xbcacaa8e	-0.02107742
51	0xbc27843f	-0.010224401
52	0x3a82e388	0.0009986022
53	0x3d06e5fc	0.032934174
54	0x3cf9bb01	0.030484678
55	0x3c1abbb9	0.009444171
56	0xbd1b371c	-0.037894353
57	0xbd4aa8d9	-0.049477432
58	0xbafb838c	-0.0019188984
59	0x3a26f5f9	0.000636905
60	0xbd0feb38	-0.03513643
61	0xbc94dc2a	-0.018171389
62	0x3cb0323f	0.021508334
63	0xbceb8c18	-0.028753325

body.block1.norm.weight f4 [64]
0	0x3f4dff40	0.80467606
1	0x3f8cefca	1.1010678
2	0x3f69c9ac	0.9132335
3	0x3f880e84	1.062943
4	0x3f67a7e9	0.90490586
5	0x3f81708a	1.0112469
6	0x3f3bcb2a	0.7335688
7	0x3f759de6	0.9594406
8	0x3f5952ee	0.84892166
9	0x3f5d686d	0.86487466
10	0x3f69cea8	0.9133096
11	0x3f507143	0.81422824
12	0x3f509e80	0.8149185
13	0x3f868ac1	1.0511094
14	0x3f7c415c	0.9853723
15	0x3f6054b6	0.8762926
16	0x3f86878c	1.0510116
17	0x3f49e444	0.7886393
18	0x3f596383	0.8491747
19	0x3f617263	0.88065165
20	0x3f556230	0.8335295
21	0x3f4f7e59	0.81052166
22	0x3f768f3a	0.96312296
23	0x3f9240b3	1.1425995
24	0x3f7149f2	0.94253457
25	0x3f84df41	1.0380632
26	0x3f696794	0.9117367
27	0x3f53d9a4	0.8275397
28	0x3f552c50	0.8327074
29	0x3f5f6925	0.8726981
30	0x3f50c65c	0.8155267
31	0x3f5cbef4	0.8622887
32	0x3f8e3e03	1.1112674
33	0x3f7c9cd9	0.9867683
34	0x3f208787	0.627068
35	0x3f7dbe94	0.99118924
36	0x3f77415a	0.96584094
37	0x3f67c76a	0.90538657
38	0x3f76c919	0.964006
39	0x3f660e3b	0.89865464
40	0x3f64dd38	0.89400053
41	0x3f83fd35	1.0311648
42	0x3f7fd41d	0.99933034
43	0x3f7b8bfb	0.9826047
44	0x3f54bd0e	0.83100975
45	0x3f926097	1.1435727
46	0x3f7df06e	0.9919499
47	0x3f56e792	0.839471
48	0x3f735de6	0.9506515
49	0x3f4ff9f7	0.8124079
50	0x3f59fe00	0.851532
51	0x3f7faf54	0.99876904
52	0x3f4e53b6	0.8059648
53	0x3f840a20	1.031559
54	0x3f62f65f	0.8865718
55	0x3f38cedd	0.7219065
56	0x3f8a35f7	1.0797719
57	0x3f801459	1.000621
58	0x3f3f4b60	0.7472439
59	0x3f840073	1.0312637
60	0x3f5b3301	0.856247
61	0x3f6c694c	0.9234817
62	0x3f6e1c1f	0.9301166
63	0x3f63faac	0.8905437

body.block1.norm.bias f4 [64]
0	0x3f174c22	0.59100544
1	0x3dd8ff94	0.10595623
2	0x3f52d296	0.8235258
3	0x3ecb1f86	0.39672488
4	0x3f0494b4	0.517894
5	0x3ee3d76c	0.4450029
6	0x3f08504b	0.5324752
7	0x3e6c2c33	0.23063736
8	0x3eb83dcb	0.35984644
9	0x3eed80cc	0.46387327
10	0x3da57a0e	0.08079921
11	0x3e8f7c32	0.2802444
12	0x3efe97fe	0.49725336
13	0xbe1dabb0	-0.15397525
14	0x3ea450f6	0.32093018
15	0x3f117906	0.5682529
16	0x3f18e108	0.5971837
17	0x3eed933f	0.46401402
18	0x3f04db81	0.51897436
19	0x3f245765	0.64195853
20	0x3ea1bb27	0.31588098
21	0x3f803d2f	1.0018672
22	0x3e90e71c	0.28301322
23	0xbd955632	-0.07291831
24	0x3e554bbc	0.20829672
25	0x3f0978b1	0.53699785
26	0x3ed36f46	0.41295832
27	0x3f3de26b	0.7417361
28	0x3ea9f540	0.33194923
29	0x3f0d4314	0.5518048
30	0x3ebcbdc4	0.3686353
31	0x3e2dccae	0.1697261
32	0x3b4b87c6	0.003105627
33	0x3f6491e9	0.8928514
34	0x3f55c283	0.83499926
35	0x3f40663a	0.75155985
36	0x3ebaf2fc	0.36513507
37	0x3f1b2123	0.6059744
38	0x3f2d5d94	0.67720914
39	0x3f2de40b	0.6792609
40	0x3e421048	0.18951523
41	0x3f41e1aa	0.7573496
42	0x3ebd8515	0.37015596
43	0x3e36d5c4	0.17854983
44	0x3eabdf63	0.33568868
45	0x3edaed30	0.42759085
46	0x3ebcd4cf	0.3688111
47	0x3f103a39	0.5633884
48	0x3d32d733	0.04366226
49	0x3f63f588	0.89046526
50	0x3ec93880	0.3930092
51	0x3caca4ff	0.02107477
52	0x3f823304	1.0171819
53	0x3e3863e0	0.1800685
54	0x3f6a0478	0.9141307
55	0x3ee1e891	0.44122747
56	0x3ee9dc46	0.45675868
57	0x3ead93ac	0.33901727
58	0x3f0a0615	0.5391553
59	0x3edd7877	0.4325597
60	0x3f067800	0.52526855
61	0x3f181941	0.59413534
62	0x3e828f4a	0.25499946
63	0x3eeeca5c	0.46638763

body.block1.norm.running_mean f4 [64]
0	0x3f164849	0.5870405
1	0xbf00657b	-0.50154847
2	0xc0b6bb47	-5.710361
3	0xbfe3528f	-1.775957
4	0x3fb4c4f5	1.4122607
5	0x3fb41ea6	1.4071853
6	0x40565bf2	3.349362
7	0x3fd2747e	1.64418
8	0xc00ef5f4	-2.2337618
9	0x3ff9bb99	1.9510375
10	0x40111388	2.266817
11	0x3dec5270	0.11539161
12	0xbe49b0df	-0.19696377
13	0x3f8b1a72	1.0867445
14	0xbf98d5ce	-1.1940248
15	0xbda9df93	-0.082945965
16	0xc00d231c	-2.205268
17	0x3f8a8af5	1.0823656
18	0xc01c2509	-2.4397604
19	0xbf81b9cc	-1.0134826
20	0x4071063f	3.7660062
21	0x3eb3db70	0.35128355
22	0xc02dae8e	-2.713779
23	0xc0a60f1f	-5.189346
24	0x3e9fb05d	0.31189242
25	0xbfdfdf58	-1.7490034
26	0x4044b4d8	3.0735378
27	0xbf825999	-1.0183593
28	0xbf993406	-1.1969001
29	0xbfa6e119	-1.3037444
30	0x3f033ae7	0.5126175
31	0x3f2192e2	0.6311475
32	0x3f24f257	0.6443228
33	0xc06353e5	-3.5519955
34	0x407b1774	3.9233065
35	0x3e5588ae	0.2085292
36	0xbf256f05	-0.6462253
37	0x3fbd6429	1.4796191
38	0xbffd8dd4	-1.9808908
39	0xc01c75e5	-2.4446957
40	0x3f2069ed	0.6266163
41	0x3f2fffd7	0.68749756
42	0x4063d6f0	3.5599937
43	0xbf264f0b	-0.6496436
44	0x3ecdc323	0.4018794
45	0xc06ff08f	-3.7490575
46	0x3e0d4ef4	0.1379965
47	0xbf3d87cc	-0.74035335
48	0xc0545830	-3.3178825
49	0xc027fb00	-2.6246948
50	0x3ff38e05	1.9027716
51	0xc0276a55	-2.615865
52	0xbfe35fea	-1.7763646
53	0xbf8d1c36	-1.1024234
54	0xc04c791f	-3.1948926
55	0x409eaf75	4.958918
56	0xc08fe911	-4.4972005
57	0x401bfc13	2.4372604
58	0x3f48dff2	0.78466713
59	0xc0224c11	-2.5358927
60	0x40040906	2.0630507
61	0xbfdae4c5	-1.7101065
62	0xc0057468	-2.0852299
63	0xbfd42ca7	-1.6576127

body.block1.norm.running_var f4 [64]
0	0x40225855	2.5366414
1	0x401c5785	2.4428418
2	0x40b9b534	5.8033695
3	0x4055e662	3.3421865
4	0x3f7fb9ee	0.9989308
5	0x405aa981	3.4165957
6	0x403474f4	2.8196383
7	0x3f8bdcdb	1.0926775
8	0x3f4e9705	0.8069919
9	0x3fc67f50	1.5507603
10	0x40274485	2.613557
11	0x3f6b1261	0.9182492
12	0x3f5d042c	0.8633449
13	0x40a44bbe	5.134246
14	0x3fbe8494	1.488421
15	0x3fda9ccc	1.7079101
16	0x4046fa39	3.1090224
17	0x3f8b9061	1.0903436
18	0x3f5330db	0.8249642
19	0x3fb18871	1.3869764
20	0x3fa38014	1.2773461
21	0x3f959f47	1.1689233
22	0x400f9fa6	2.2441192
23	0x40bf14f9	5.97131
24	0x3f7ce662	0.98789036
25	0x3fe42256	1.7822978
26	0x4045dc0d	3.0915558
27	0x3fcf5440	1.6197586
28	0x3fa48737	1.2853764
29	0x3ffea551	1.98942
30	0x3f8468bb	1.0344461
31	0x3f074eed	0.52854806
32	0x3fffde3d	1.9989697
33	0x40732a4f	3.7994573
34	0x40c4e832	6.153344
35	0x3fb8a3fe	1.4425046
36	0x4079c441	3.9026034
37	0x4035d485	2.8410962
38	0x3ffb65f2	1.9640486
39	0x4029aa56	2.6510215
40	0x3f9d1d44	1.2274556
41	0x3fcfc7d3	1.6232857
42	0x402b3bf4	2.6755342
43	0x3fd79a71	1.6844007
44	0x3f96a010	1.1767597
45	0x4083b8f9	4.1163297
46	0x4009fb44	2.155961
47	0x3f994b61	1.1976129
48	0x3f971d54	1.1805825
49	0x3fb15780	1.3854828
50	0x3fbdc85d	1.4826771
51	0x40050fed	2.079097
52	0x400b3eb2	2.1757016
53	0x40165138	2.3487072
54	0x3fd98af9	1.6995536
55	0x4037798c	2.8667936
56	0x40b4a388	5.6449623
57	0x3fa7b23d	1.3101269
58	0x3f8ed544	1.1158834
59	0x403939d8	2.8941555
60	0x3fa1ff77	1.2656087
61	0x4072fa0f	3.7965124
62	0x4025b455	2.5891316
63	0x3fbdef4d	1.4838654

body.block2.conv.weight f4 [64, 64, 3, 3]
0	0xbd826473	-0.063668154
1	0xbe122cb2	-0.14274862
2	0xbe023dda	-0.12718907
3	0x39917081	0.00027740377
4	0xbba3c211	-0.0049974998
5	0xbca381ed	-0.019959414
6	0x3da69ae4	0.08135012
7	0xbc497092	-0.012294905
8	0xbd029fb6	-0.031890593
9	0x3d96eac8	0.07369
10	0x3de4a453	0.11164155
11	0x3c924bef	0.017858474
12	0x3ce49e66	0.027907562
13	0xbbae199f	-0.005313113
14	0x3ca6280e	0.020282771
15	0x3d062008	0.03274539
16	0xbd3a6f93	-0.04551656
17	0x3d880cc2	0.06643058
18	0x3d90bb77	0.07067006
19	0x3d22b8e0	0.03972709
20	0xbd421f7a	-0.0473933
21	0x3cf7374f	0.03017774
22	0xbaf20547	-0.0018464708
23	0xbd436e38	-0.047712535
24	0xbd18dbd1	-0.03731901
25	0xbd68b047	-0.056808736
26	0xbe091a35	-0.13388903
27	0xbdcf6f6b	-0.10128673
28	0x3d087d5c	0.033322677
29	0x3d2743e4	0.04083623
30	0xbc3ff99d	-0.011717227
31	0x3d2688d5	0.040657837
32	0x3da9b4b3	0.08286419
33	0x3d39ecc2	0.045391805
34	0x3cd9014e	0.02648988
35	0x3b7eb436	0.0038864738
36	0xbd2e5577	-0.042561974
37	0xbd38edce	-0.045148663
38	0xbac52373	-0.0015040472
39	0xbb977146	-0.0046216575
40	0x3bacfbc0	0.0052790344
41	0xbdae0a4c	-0.08498058
42	0xbd238a82	-0.039927013
43	0x3b52fc65	0.0032193896
44	0xbd849cbc	-0.06475207
45	0xbd03223b	-0.032015067
46	0x3c326816	0.010889074
47	0xbd82b3d0	-0.06381953
48	0xbc558946	-0.013033217
49	0xbd515316	-0.051104628
50	0xbbf8ec9c	-0.0075965654
51	0xbd19f951	-0.037591282
52	0xbd59e56e	-0.053197317
53	0xbd992d52	-0.07479347
54	0x3d4cde59	0.050016735
55	0x3c480876	0.0122090485
56	0xbd20a641	-0.039221052
57	0x3d85a946	0.06526427
58	0x3d3cfa62	0.04613722
59	0x3b6c34de	0.0036042253
60	0x3be9cd9f	0.0071351076
61	0x3cab4828	0.02090843
62	0xbcdd6d45	-0.027029643
63	0x3d775851	0.06038696
64	0x3d0d20ae	0.034454994
65	0xbd30610e	-0.04306131
66	0x3cd9a6cd	0.026568795
67	0x3d347630	0.044058025
68	0x3c307553	0.01077016
69	0x3bbbb1f5	0.0057280012
70	0xbcbe01ad	-0.023194158
71	0xbbd7a7f0	-0.006581299
72	0xbd51814d	-0.0511487
73	0x3d1ae3f8	0.037815064
74	0x3d6634bb	0.05620263
75	0xbd991de8	-0.07476407
76	0x3d3107de	0.043220393
77	0xbd185837	-0.037193503
78	0x3ce576a1	0.028010668
79	0xbcf86a90	-0.03032425
80	0xbd248110	-0.040162146
81	0xbdb7bec8	-0.089719355
82	0xbe04b690	-0.12960267
83	0x3c215057	0.009845815
84	0x3d20957b	0.039205056
85	0xbdb0784d	-0.086166956
86	0xbbba1646	-0.0056789247
87	0x3d207df5	0.039182622
88	0x3da0d25d	0.078526236
89	0xbd1dd1db	-0.038530212
90	0xbdd50869	-0.10401995
91	0xbd73b5c9	-0.059499536
92	0x3d2d02d2	0.042239018
93	0xbd005819	-0.031334016
94	0xbd10cdff	-0.035352703
95	0x3d7ac53c	0.061223254
96	0x3a64cc0b	0.00087279145
97	0xbdef12b9	-0.11673493
98	0xbdb57a58	-0.08861226
99	0x3c35413e	0.011062918
100	0x3d30e059	0.043182705
101	0x3e3c4455	0.18385442
102	0x3cc38d95	0.023871223
103	0xbd8024b1	-0.06256998
104	0xbc7b38d4	-0.015333373
105	0x3d48e8de	0.049050204
106	0xbd0166a7	-0.031592038
107	0xbdb511c3	-0.088412784
108	0xbc2fed59	-0.01073774
109	0x3dc118d7	0.09428566
110	0x3e3de568	0.18544543
111	0x3b313eeb	0.0027045559
112	0x3c85e4a1	0.01634437
113	0x3c3fa213	0.011696356
114	0xbd00f54b	-0.03148393
115	0xbd91ca72	-0.071186915
116	0xbe332122	-0.17493108
117	0x3d6b93ef	0.057514127
118	0x3d4b621e	0.04965412
119	0xbcf5eee8	-0.030021146
120	0x3cff65b8	0.031176433
121	0xbd23b68a	-0.039969005
122	0x3cc7110c	0.02430012
123	0xbc318fae	-0.010837479
124	0xbd8a51ee	-0.06753908
125	0x3c6d7c72	0.014495002
126	0x3d0a5678	0.03377387
127	0xbc20baf4	-0.009810198
128	0xbc8f2f60	-0.017478645
129	0xbd837a35	-0.064197935
130	0xbd7d9d77	-0.06191775
131	0x3d5a6d8a	0.05332712
132	0xbd8f05b7	-0.06983512
133	0xbd4454b1	-0.04793233
134	0x3d29367b	0.041311722
135	0xbb4d6013	-0.0031337782
136	0x3d10c13b	0.03534053
137	0xbc5b0527	-0.013367928
138	0xbcee450e	-0.029085662
139	0x3d724b84	0.05915405
140	0x3bfe0364	0.007751869
141	0xbe39a4e5	-0.18129309
142	0xbd0a89ad	-0.033822704
143	0xbd673db0	-0.056455314
144	0x3c9f40cb	0.019440075
145	0x3c8d5211	0.017251046
146	0xbc9aeb85	-0.018911133
147	0x3c9f2842	0.019428376
148	0xbbe0ebb7	-0.006864037
149	0xbd3ce91a	-0.04612074
150	0x3d1984f3	0.037480306
151	0xbdbc574f	-0.0919634
152	0xbe41b22d	-0.18915625
153	0x3dff9d99	0.12481231
154	0xbd947934	-0.0724968
155	0xbdf42590	-0.11921227
156	0x3c961d8f	0.018324642
157	0xbd5b588b	-0.053551238
158	0xbe049a92	-0.12949589
159	0x3cc0479b	0.023471644
160	0xbd1b1808	-0.037864715
161	0xbd6bc90f	-0.05756479
162	0x3cd09123	0.025459832
163	0x3dd7f826	0.105453774
164	0x3d5cfc27	0.05395141
165	0x3dad3c84	0.08458808
166	0x3d9ba2bf	0.07599401
167	0xbce0ab5b	-0.027425459
168	0xbbe67cb0	-0.007033907
169	0xbd1e71cf	-0.038682755
170	0xbd607850	-0.05480224
171	0xbca01688	-0.019541994
172	0x3bd39cd1	0.006457903
173	0x3d0968ff	0.033547398
174	0x3ccd1821	0.02503592
175	0x3cea51d8	0.02860348
176	0x3db3ced0	0.08779681
177	0xbda497f3	-0.080367945
178	0xbbae7b7c	-0.005324779
179	0x3cc74ac0	0.024327636
180	0x3e17aa23	0.14810996
181	0xbc007c60	-0.007842153
182	0xbd72d9a2	-0.059289582
183	0x3c8bd1e4	0.017067857
184	0x3c220d70	0.009890899
185	0xbcd102ad	-0.025513971
186	0x3c74b8ca	0.014936635
187	0x3cb1cb37	0.021703346
188	0xbdaa3b3c	-0.08312079
189	0x3d0bfa4b	0.034174245
190	0x3c82cb90	0.015966207
191	0xbdff902c	-0.124786705
192	0xbc966824	-0.018360205
193	0xbb9c6815	-0.0047731497
194	0xbdce6e1d	-0.10079596
195	0xbdb49b31	-0.08818663
196	0xbc859d7e	-0.01631045
197	0xbddd83b6	-0.108161375
198	0xbd1aa46b	-0.037754457
199	0x3d84a801	0.06477357
200	0x3e1f892e	0.15579674
201	0xbd1f138c	-0.038837
202	0x3d2fef70	0.042952955
203	0x3def8d6b	0.11696895
204	0x3bc4e17a	0.006008324
205	0x3c3a8858	0.011385046
206	0xb916cbe9	-0.00014381077
207	0xbd85b5c3	-0.06528809
208	0xbd69ac2c	-0.05704896
209	0xbd12f514	-0.035878256
210	0xbc2f6c2e	-0.010706944
211	0xbd0dfbff	-0.03466415
212	0xbcde9ec6	-0.027175318
213	0x3e0a0edf	0.13482235
214	0x3e08a081	0.13342477
215	0x3c5c5feb	0.013450603
216	0xbe13a533	-0.14418487
217	0xbe32bf1a	-0.17455712
218	0xbdf7f2aa	-0.12106831
219	0xbd255420	-0.04036343
220	0xbde14b1d	-0.11000655
221	0xbd657b02	-0.056025513
222	0x3e14a5c6	0.14516363
223	0xbdda37c8	-0.10655171
224	0xbd824ce5	-0.06362323
225	0x3cfbb432	0.030725572
226	0x3b550134	0.0032501938
227	0xbe42ca63	-0.19022517
228	0xbd922f8b	-0.07137974
229	0x3b4acba8	0.0030944142
230	0xbd8b1f28	-0.06793052
231	0xbd956c85	-0.07296089
232	0xbc7a8e40	-0.015292704
233	0x3bb4792e	0.00550761
234	0x3dad16d5	0.084516205
235	0x3dbe096d	0.092791416
236	0x3d4d79c5	0.050164957
237	0xbda8762a	-0.08225663
238	0x3c0df66d	0.0086647095
239	0xbd767571	-0.060170595
240	0xbe66cbb0	-0.22538638
241	0xbdc6040f	-0.09668743
242	0x3d53bc6f	0.051693376
243	0x3c91b592	0.017786775
244	0x3e1c769e	0.15279624
245	0x3b69eb99	0.0035693406
246	0x3d5489ff	0.051889416
247	0x3db17dea	0.08666594
248	0x3d0171b7	0.031602588
249	0x3ce631e6	0.028099965
250	0xbd43f798	-0.047843546
251	0xbd67b402	-0.056568153
252	0xbd8a1e32	-0.067440405
253	0xbd0ee9f0	-0.03489107
254	0xbe45ae73	-0.19304828
255	0x3d72b735	0.05925675

body.block2.conv.bias f4 [64]
0	0xbd1a150b	-0.037617724
1	0x3cc78f75	0.024360398
2	0xbbee754b	-0.007277166
3	0xbc90d5e9	-0.017680125
4	0x3c4b7a09	0.012419232
5	0xbc45755b	-0.0120519055
6	0x3bfdd3a7	0.007746178
7	0xbd236742	-0.039893396
8	0xbc35f4e3	-0.011105749
9	0xbd115bf8	-0.0354881
10	0xbc0a094b	-0.008425067
11	0x3d555d2c	0.05209081
12	0x3bddf7a3	0.0067739054
13	0x3d07beed	0.033141065
14	0xbd12377f	-0.035697456
15	0x3d167632	0.036733814
16	0xbbf25f6e	-0.00739663
17	0xbc0ba9f7	-0.0085244095
18	0x3d19cb16	0.037547193
19	0xbc87575b	-0.016521147
20	0x39eada25	0.00044794488
21	0x3af34c02	0.0018562081
22	0x3cda9265	0.026681134
23	0xbcf6549c	-0.030069642
24	0xbca8df8b	-0.020614406
25	0x3d2856b3	0.041098308
26	0x3c9a9e66	0.018874358
27	0x3c818b1b	0.015813401
28	0x3b486b53	0.0030581548
29	0xbc472203	-0.012154105
30	0xbc2e1eb2	-0.0106274355
31	0xbc920b49	-0.017827647
32	0x3b3aa7a7	0.0028481276
33	0x3d279010	0.040908873
34	0xbcdf6376	-0.027269106
35	0xbd022ea0	-0.031782746
36	0x3cf4e2a0	0.02989322
37	0x3c2a68ec	0.010400992
38	0xbccb0b49	-0.024785655
39	0xbd56742e	-0.05235689
40	0xbce85811	-0.028362306
41	0x3c026d31	0.007960604
42	0xbc82abcc	-0.01595106
43	0xbbd2a394	-0.0064281914
44	0x3c56b135	0.013103773
45	0xbc76f6c0	-0.015073478
46	0xbbebcc8c	-0.0071960147
47	0xbc594ef0	-0.013263449
48	0x3cdeb90f	0.027187852
49	0x3c38f9e8	0.011290051
50	0xbd26f05c	-0.04075657
51	0xbce4588d	-0.027874256
52	0x3b97759f	0.004622176
53	0xbcb8ceb5	-0.022559503
54	0xbcc68e7a	-0.02423786
55	0xbcaf43cb	-0.02139463
56	0xbcf778c7	-0.030208958
57	0xbd1e3f0a	-0.038634337
58	0xbcf29100	-0.029610157
59	0xbc817fcb	-0.015808007
60	0x3d1721f5	0.03689762
61	0x3d274dce	0.040845685
62	0xbccabd10	-0.024748355
63	0xbd23d5a8	-0.03999868

body.block2.norm.weight f4 [64]
0	0x3f47189b	0.7777192
1	0x3f46099b	0.77358407
2	0x3f58134e	0.84404457
3	0x3f872d40	1.0560684
4	0x3f566dba	0.8376118
5	0x3f5b15e5	0.85580283
6	0x3f831209	1.0239879
7	0x3f6d35c2	0.9266015
8	0x3f61c955	0.88197833
9	0x3f7480f7	0.95509285
10	0x3f8bdcaa	1.0926716
11	0x3f669c7e	0.9008254
12	0x3f4015c1	0.75033194
13	0x3f76a8ec	0.96351504
14	0x3f56dfb3	0.8393509
15	0x3f3fa211	0.7485667
16	0x3f661897	0.8988127
17	0x3f3eae94	0.74485135
18	0x3f541e96	0.8285917
19	0x3f3bfd4f	0.73433393
20	0x3f5b8e67	0.85764164
21	0x3f77d826	0.9681419
22	0x3f5042ad	0.8135174
23	0x3f892e76	1.0717304
24	0x3f77ea0f	0.9684152
25	0x3f68e7ad	0.9097851
26	0x3f628872	0.8848945
27	0x3f669195	0.9006589
28	0x3f7095b1	0.9397841
29	0x3f63d581	0.88997656
30	0x3f6cd48f	0.9251184
31	0x3f5d1e5c	0.8637445
32	0x3f7cf87b	0.9881665
33	0x3f63759a	0.8885132
34	0x3f6f18f9	0.9339748
35	0x3f528a62	0.82242405
36	0x3f4f8f67	0.8107819
37	0x3f7fb054	0.9987843
38	0x3f602201	0.87551886
39	0x3f60e161	0.878439
40	0x3f6f26fb	0.93418854
41	0x3f9b573f	1.2136
42	0x3f68a9ab	0.9088389
43	0x3f3c6543	0.73592013
44	0x3f646fa8	0.89232874
45	0x3f60a48d	0.87751085
46	0x3f632e19	0.88742214
47	0x3f7a5a75	0.97794276
48	0x3f83dfc4	1.0302663
49	0x3f500da0	0.8127079
50	0x3f63e0c8	0.89014864
51	0x3f656a02	0.8961488
52	0x3f5c3e39	0.86032444
53	0x3f84b6be	1.0368268
54	0x3f546768	0.82970285
55	0x3f588248	0.84573793
56	0x3f7b0cde	0.9806651
57	0x3f4c9ca6	0.79926527
58	0x3f592727	0.84825367
59	0x3f83538f	1.0259875
60	0x3f6f3d9f	0.934534
61	0x3f8d2859	1.1027938
62	0x3f664d7f	0.89962
63	0x3f7a946d	0.9788273

body.block2.norm.bias f4 [64]
0	0x3ede46c7	0.43413374
1	0x3f02c736	0.5108522
2	0x3ef8e162	0.48609453
3	0x3f158776	0.5840982
4	0x3f28467c	0.6573255
5	0x3f36a5dd	0.7134684
6	0x3f1d28cf	0.61390394
7	0x3ecce53f	0.4001865
8	0x3f518299	0.818399
9	0x3f17735e	0.5916041
10	0xbea068cd	-0.31329957
11	0x3e588607	0.21144877
12	0x3f769da8	0.96334314
13	0x3f1a74d5	0.6033452
14	0x3e939555	0.2882487
15	0x3f26b603	0.6512148
16	0x3f17544a	0.5911299
17	0x3f472467	0.7778992
18	0x3efad143	0.4898778
19	0x3f8134e3	1.0094265
20	0x3e8ded5e	0.2772016
21	0x3efa16bd	0.48845473
22	0x3f2d0909	0.6759191
23	0x3efbfcb5	0.49216238
24	0x3e8028a7	0.25031015
25	0x3e4196dc	0.18905205
26	0x3e438172	0.19092348
27	0x3e876f1e	0.26451963
28	0x3cd55d3f	0.02604544
29	0x3e8940a0	0.26807117
30	0x3f500c70	0.8126898
31	0x3f1b7725	0.60728675
32	0x3f01add5	0.5065587
33	0x3f12bdb5	0.5732072
34	0x3e87702a	0.26452762
35	0x3ef97e63	0.48729238
36	0x3f2d110b	0.6760413
37	0x3ec7924b	0.389788
38	0x3f48d4ed	0.784499
39	0x3ebcfe89	0.36912945
40	0x3e9e5a00	0.3092804
41	0x3e2d70b7	0.16937529
42	0x3e7cf1ed	0.24701662
43	0x3f5942db	0.8486764
44	0x3ef0b7f7	0.47015354
45	0x3ef4f315	0.47841707
46	0x3f07fc81	0.53119665
47	0x3ea329b8	0.31867766
48	0x3ed51cad	0.4162344
49	0x3f0aa577	0.5415873
50	0xbe3616f4	-0.17782193
51	0x3f1e8752	0.6192523
52	0x3f149a66	0.58048093
53	0xbf19901b	-0.5998551
54	0x3f540d46	0.82832754
55	0x3ee2af2a	0.44274265
56	0x3f0fa21e	0.56106746
57	0x3f0d8152	0.5527545
58	0x3e3e4144	0.18579584
59	0x3eb45e4a	0.35228187
60	0x3e77db1c	0.24204677
61	0x3e5bcfb8	0.21465957
62	0x3e8a91a5	0.27064243
63	0x3cc9de9b	0.02464228

body.block2.norm.running_mean f4 [64]
0	0xc0070789	-2.109835
1	0xc029e711	-2.6547282
2	0xbfdf3123	-1.743687
3	0xc095a231	-4.6760488
4	0x3e381b05	0.17979057
5	0xbf13190e	-0.57460105
6	0x3ef46444	0.47732747
7	0xbf31b0a7	-0.69410175
8	0xc0a04c5b	-5.0093207
9	0x3fea1019	1.8286163
10	0xc11be130	-9.742477
11	0xc05e6bcc	-3.4753294
12	0xc0188a03	-2.3834236
13	0x3ec88be2	0.39169222
14	0x4051104e	3.2666202
15	0x40001ed1	2.001881
16	0xc021143e	-2.5168605
17	0xc0121e8d	-2.2831147
18	0xbed0baf6	-0.4076764
19	0x3ef401d1	0.47657636
20	0xc006e7d6	-2.1079001
21	0x3f93dfad	1.1552635
22	0xbf867938	-1.0505743
23	0xc07e800b	-3.9765651
24	0xc0998c79	-4.7983975
25	0x3e9795a5	0.29606357
26	0xbfd3733f	-1.6519545
27	0xc06347cb	-3.551257
28	0x405cd7b2	3.450665
29	0xbfb0f400	-1.3824463
30	0xbfe231f4	-1.7671494
31	0xbf9bcf8f	-1.2172717
32	0xc027242d	-2.611583
33	0x40a1d986	5.057803
34	0x402d2853	2.7055862
35	0xc0634b4d	-3.551471
36	0x3fa007e7	1.2502412
37	0xbf832ea7	-1.0248612
38	0x3e9f2fe9	0.3109124
39	0x3e954b06	0.291588
40	0xc0953e07	-4.6638217
41	0x4048030e	3.1251864
42	0xc019622a	-2.3966165
43	0xc0903103	-4.505983
44	0xc072cf9c	-3.7939215
45	0xc02bd937	-2.6851327
46	0x3cfbe475	0.030748585
47	0x3f917abb	1.1365579
48	0xc06d9861	-3.7124255
49	0xbfeb8ccd	-1.8402344
50	0xc038ff63	-2.8905876
51	0xc08cd61b	-4.401136
52	0xbfbbda17	-1.4675931
53	0x3efc4a40	0.49275398
54	0x3f5364fb	0.8257596
55	0xbed50293	-0.41603526
56	0x3dc0c8d0	0.09413302
57	0x3ff09779	1.8796226
58	0xbf11a68b	-0.5689475
59	0xc0657c43	-3.5857093
60	0x3f921aae	1.1414392
61	0xbeeb14f0	-0.45914412
62	0xbf9a9f6e	-1.2079904
63	0xc04e7b9c	-3.2262945

body.block2.norm.running_var f4 [64]
0	0x3f803498	1.001605
1	0x3f5ddcd8	0.86665106
2	0x3f366913	0.7125408
3	0x40a7ee9e	5.247878
4	0x3fccf06c	1.6010871
5	0x3faece3b	1.3656687
6	0x404a8515	3.1643727
7	0x3f902c02	1.126343
8	0x406028de	3.5024943
9	0x3fe5fc0e	1.7967546
10	0x3f7a7c73	0.97846144
11	0x3f3b727b	0.7322156
12	0x3f842b8b	1.0325788
13	0x3f6428da	0.89124835
14	0x3f7cba20	0.98721504
15	0x3f6cbe13	0.9247753
16	0x3f21244f	0.6294603
17	0x3f2e57dd	0.6810282
18	0x3f59bb2e	0.8505124
19	0x3f6c7a59	0.9237419
20	0x3f65db57	0.8978781
21	0x4016d916	2.3569999
22	0x3f67ed46	0.90596426
23	0x4038877d	2.8832695
24	0x40099664	2.149804
25	0x3f417e3b	0.7558324
26	0x3f54a7c8	0.83068514
27	0x3f94851d	1.1603123
28	0x3f87303a	1.0561593
29	0x3fa35417	1.2760037
30	0x4040752f	3.0071523
31	0x3f37f630	0.7186003
32	0x3fd2e851	1.6477147
33	0x3fb2417c	1.3926234
34	0x3f82dafd	1.022308
35	0x3fb4cba6	1.4124649
36	0x3f9c3950	1.220499
37	0x3ff79bb4	1.9344392
38	0x3f12affe	0.5729979
39	0x3fc0f7e6	1.5075653
40	0x3fb2121c	1.3911777
41	0x40c82fb6	6.255824
42	0x3f8479f3	1.0349716
43	0x3f98a26c	1.1924567
44	0x3ff54138	1.9160528
45	0x3fa8c13e	1.3183973
46	0x3fa764b1	1.3077604
47	0x3fddb35f	1.7320365
48	0x3fa75c55	1.3075052
49	0x3f8a6b02	1.0813906
50	0x3f6f635b	0.9351098
51	0x40432886	3.0493484
52	0x3f8bd6ea	1.0924962
53	0x3f1e55bb	0.61849564
54	0x3f40e90f	0.7535562
55	0x3fcf5618	1.6198149
56	0x40532743	3.2992713
57	0x3f745f32	0.95457757
58	0x3fa937df	1.3220176
59	0x40461883	3.095246
60	0x3fa59a2a	1.2937672
61	0x4004d934	2.075757
62	0x3fcce22c	1.6006522
63	0x3f77ddc0	0.9682274
