SinGan/TrainedModels/cows/scale_factor=0.750000,alpha=10/7/netG.pth (torch_old, 466445 bytes, 26 tensors)

head.conv.weight f4 [64, 3, 3, 3]
0	0x3e5ee53c	0.21767133
1	0x3e481032	0.19537428
2	0x3e1c436a	0.15260091
3	0x3da6ea8a	0.081502035
4	0x3d64e2fe	0.05588054
5	0xbd7f6c9f	-0.06235945
6	0xbdf796a3	-0.120892785
7	0xbdf5428e	-0.11975585
8	0xbda4efab	-0.080535255
9	0xbe043e07	-0.12914287
10	0xbdf4d44f	-0.11954557
11	0xbd5c7c98	-0.05382976
12	0xbce8a772	-0.028400157
13	0xbc8e48f7	-0.017368777
14	0xbd82422a	-0.06360276
15	0x3bc1571f	0.005900278
16	0x3da22419	0.07917041
17	0x3e2e3382	0.17011836
18	0xbe85b39a	-0.26113588
19	0xbdc069cf	-0.093951814
20	0xbd1e59ff	-0.038660046
21	0xbd44ec05	-0.04807665
22	0x3d16b00d	0.03678899
23	0xbcbae767	-0.02281542
24	0x3d1df417	0.03856286
25	0x3d9972a6	0.074925706
26	0x3ce66aee	0.02812716
27	0xbe351e2f	-0.17687295
28	0xbda7635e	-0.0817325
29	0xbe21e6ff	-0.15810774
30	0xbe4a593a	-0.197606
31	0x3bf44b18	0.007455241
32	0x3db973d0	0.090552926
33	0xbe8367ab	-0.2566503
34	0xbd69b545	-0.057057638
35	0xbdc9ba16	-0.09849946
36	0x3dceda1a	0.10100193
37	0x3e04cce3	0.12968783
38	0xbcadecb3	-0.021231031
39	0x3cb7f262	0.022454444
40	0x3e0ed527	0.13948499
41	0x3d9a65a7	0.0753892
42	0x3d33d9d5	0.043908913
43	0x3d574cef	0.052563604
44	0xbac40fcb	-0.001495832
45	0x3cc7b453	0.024377977
46	0xbc83fd61	-0.016112031
47	0x3cf4b620	0.029872
48	0xbc675e85	-0.014121656
49	0x3d7a7ecb	0.061156075
50	0xba9b8729	-0.0011865842
51	0x3cb9cb3a	0.022679914
52	0xbc70ed1a	-0.014704967
53	0xbe60f36e	-0.21967861
54	0xbda03f1a	-0.07824536
55	0x3d88a834	0.06672707
56	0x3da94aa7	0.08266192
57	0x3d30d36f	0.04317039
58	0x3d231d58	0.039822906
59	0x3e29f492	0.16597202
60	0xbc06e3d8	-0.008233033
61	0xbb667383	-0.0035164065
62	0x3eecbaeb	0.46236357
63	0xbe0ee8f3	-0.1395605
64	0xbd4227c7	-0.047401216
65	0xbe363e1f	-0.17797135
66	0x3daf197f	0.08549785
67	0xbc8b2d58	-0.016989395
68	0xbda876a0	-0.08225751
69	0xbdb0beb0	-0.08630121
70	0xbde92e96	-0.11385839
71	0x3dcbf124	0.09958103
72	0xbdacc637	-0.08436244
73	0xbc86dd50	-0.016462952
74	0xbd8125fb	-0.06306072
75	0x3cc76a7d	0.02434277
76	0x3b3cbd94	0.002879952
77	0x3c322acf	0.010874464
78	0xbcfe7d36	-0.031065565
79	0xbd777f15	-0.06042393
80	0x3e506e0b	0.20354478
81	0xbd71c228	-0.059023052
82	0xbe142714	-0.14468032
83	0xbe7eba0d	-0.2487566
84	0xbcc6f418	-0.024286315
85	0xbc21c381	-0.009873272
86	0xbd024d4e	-0.031812005
87	0x3d0df57b	0.034657937
88	0x3d31ea19	0.043436144
89	0x3cf45922	0.029827658
90	0x3dd6e832	0.104935065
91	0x3d70cf6c	0.058791563
92	0x3c606a3d	0.013697204
93	0x3c6b225c	0.014351454
94	0x3d2466e7	0.040137198
95	0x3e333a54	0.17502719
96	0xbd39c79e	-0.045356385
97	0xbca89c18	-0.020582244
98	0xbc524a9d	-0.012835172
99	0x3e6f8122	0.23389104
100	0xbc0e5305	-0.008686786
101	0xbe27eab4	-0.16398126
102	0x3e156857	0.14590584
103	0xbcd1e515	-0.02562193
104	0xbde105fe	-0.10987471
105	0x3e26f5c2	0.16304687
106	0xbca7b5ae	-0.020472374
107	0xbe11cd35	-0.14238437
108	0xbd14100a	-0.03614811
109	0x3c657b4c	0.014006447
110	0xbd7fa651	-0.06241447
111	0x3d9dd169	0.077059574
112	0x3d725289	0.059160743
113	0xbce0cc22	-0.027441088
114	0x3c18a6a6	0.009317076
115	0x3dd72a58	0.10506123
116	0x3ddba527	0.1072486
117	0xbe1fdcd7	-0.15611587
118	0xbdb8da3e	-0.090260014
119	0xbe5fff6c	-0.2187478
120	0xbcab48ae	-0.02090868
121	0x3b275a29	0.0025535917
122	0xbdfcd6fe	-0.12345694
123	0x3c897544	0.01677955
124	0x3d89aa6b	0.06721958
125	0xbd037323	-0.032092225
126	0x3da25e31	0.07928122
127	0xbd4d4e5d	-0.05012356
128	0xbdc1e5b9	-0.09467644
129	0x3dff746f	0.1247338
130	0xbcbebaba	-0.023282398
131	0xbe0aa40c	-0.13539141
132	0x3e5c43e3	0.21510272
133	0x3e415b11	0.18882395
134	0x3d93b600	0.07212448
135	0x3d6a3eca	0.057188787
136	0x3ca5f457	0.020258112
137	0x36f536da	7.3079545e-06
138	0xbcb04736	-0.021518331
139	0x3ca69d6d	0.020338738
140	0x3e68f156	0.22748312
141	0x3e0e2f3c	0.13885206
142	0x3d2a0952	0.041512795
143	0x3e5f6bec	0.21818513
144	0x3d384e1e	0.044996373
145	0xbd8d8f85	-0.0691214
146	0xbe26edbe	-0.16301629
147	0xbe102076	-0.14074883
148	0xbe1da08b	-0.15393274
149	0x3b0aa6b8	0.00211565
150	0xbe0c4092	-0.13696507
151	0xbe22a264	-0.1588226
152	0xbdc00af2	-0.09377088
153	0xbd0ef322	-0.03489984
154	0xbcc3d6f5	-0.02390621
155	0x3bd808e9	0.006592859
156	0xbdb59b21	-0.08867479
157	0xbdc9c9dc	-0.09852955
158	0x3de2a18b	0.11065968
159	0x3db9af09	0.090665884
160	0xbd6c39ef	-0.057672437
161	0x3d97b2e5	0.07407168
162	0xbdf6cea5	-0.12051133
163	0xbe148a53	-0.14505892
164	0xbdc82a2a	-0.09773667
165	0xbcbd921e	-0.023140963
166	0x3dab508a	0.08364971
167	0x3d6690ca	0.056290425
168	0xbe35b006	-0.17742929
169	0xbe06e255	-0.13172276
170	0xbe638d41	-0.22221853
171	0x3ddf4510	0.109018445
172	0x3cb84b08	0.022496715
173	0x3c07eb92	0.00829591
174	0x3df22151	0.11822761
175	0x3e5827aa	0.2110888
176	0x3e25b6ee	0.16183063
177	0xbd2905d3	-0.04126532
178	0x3e093eef	0.13402914
179	0x3bd46309	0.0064815325
180	0xbc0fdd79	-0.008780831
181	0xbda64f39	-0.08120579
182	0x3c93a87f	0.018024681
183	0x3d8fe743	0.070265315
184	0xbba9b5a6	-0.005179125
185	0x3b6e1712	0.003632967
186	0x3dd75040	0.10513353
187	0x3de2908e	0.11062728
188	0x3c1066b7	0.008813552
189	0xbe13def2	-0.14440516
190	0xbe5634c9	-0.20918573
191	0x3d61e512	0.0551501
192	0xbd427c1c	-0.04748164
193	0xbdcc65cb	-0.09980353
194	0x3da87c48	0.0822683
195	0xbdc957a2	-0.09831168
196	0xbdbf0ca9	-0.093285866
197	0x3da57ad2	0.08080067
198	0xbc66dda9	-0.014090934
199	0xbdd4bb1d	-0.103872515
200	0x3dd0a9b2	0.10188617
201	0x3dd576f9	0.10423083
202	0xbd7c5ab9	-0.061609957
203	0x3db7aebd	0.089688756
204	0xbdd5618b	-0.104189955
205	0xbe220d71	-0.1582544
206	0x3d1347b9	0.035957072
207	0x3d59c657	0.053167667
208	0xbbc08db6	-0.0058762683
209	0x3e4aef9e	0.19817969
210	0x3d303345	0.043017644
211	0xbd9e25e5	-0.077220716
212	0x3d4ba0a8	0.04971376
213	0x3d035f0a	0.03207306
214	0x3d148468	0.036259085
215	0x3e2aaa17	0.16666447
216	0xbe0ab997	-0.1354736
217	0xbcce33e1	-0.025171222
218	0xbd139c6a	-0.03603784
219	0x3ccf40c4	0.025299437
220	0x3d702eb9	0.05863831
221	0xbdd9ab8b	-0.10628422
222	0x3d738479	0.059452508
223	0xbd8e4409	-0.069465704
224	0xbe39d9e8	-0.18149531
225	0xbe578ab5	-0.21049006
226	0xbe03fa82	-0.1288853
227	0x3d89bdc9	0.06725652
228	0x3e061d8e	0.13097212
229	0x3db036d7	0.0860421
230	0x3d8441f4	0.06457892
231	0x3e39c9c0	0.18143368
232	0x3d8a1e4f	0.06744062
233	0xbd6d6db9	-0.057965968
234	0xbd8ab8ae	-0.06773506
235	0xbd576f84	-0.052596584
236	0x3ddcb50c	0.107767195
237	0x3e1f3915	0.15549119
238	0x3d895210	0.06705105
239	0x3b918d1c	0.0044418704
240	0x3e41e698	0.18935621
241	0x3d6de869	0.05808297
242	0xbc86023f	-0.016358493
243	0x3e284085	0.16430862
244	0x3dc8a4fa	0.09797092
245	0x3dec9283	0.115513824
246	0x3e1835d8	0.1486429
247	0x3df1ef7a	0.11813255
248	0x3d7d2fc9	0.06181315
249	0x3e1c33c8	0.15254128
250	0x3d9eca90	0.077534795
251	0x3d896c34	0.06710091
252	0x3e327cf5	0.1743048
253	0x3e07b1d3	0.13251428
254	0x3e9af0a7	0.30261728
255	0x3d5f8d72	0.054578252

head.conv.bias f4 [64]
0	0xbc2736ed	-0.010205966
1	0xbde2c023	-0.110718034
2	0x3e832bcb	0.2561935
3	0x3dd8374e	0.105574235
4	0x3e115310	0.14191842
5	0xbe44caee	-0.19218037
6	0xbd5cde43	-0.053922903
7	0xbdd6a1df	-0.10480093
8	0xbe2f8315	-0.17139848
9	0x3e42f16b	0.19037406
10	0x3ddf8097	0.109131984
11	0x3e62640d	0.22108479
12	0x3e520423	0.2050939
13	0x3e44bd90	0.19212937
14	0xbe90c754	-0.28277075
15	0x3e68afa8	0.22723258
16	0x3e183584	0.14864165
17	0xbdff2d28	-0.12459785
18	0x3e8a8a68	0.2705872
19	0xbe729f61	-0.2369361
20	0xbd3ac828	-0.04560104
21	0x3e28a8b3	0.16470604
22	0x3d5de4bc	0.054173216
23	0xbe1d6af9	-0.15372838
24	0x3c17af4f	0.009258105
25	0x3e06732c	0.13129872
26	0x3e1212c4	0.14264971
27	0x3e8178e2	0.2528754
28	0x3e24a32c	0.1607787
29	0xbe096077	-0.13415705
30	0xbe3b1e8f	-0.18273376
31	0x3ddf5087	0.10904031
32	0x3e578746	0.21047696
33	0xbdff0e66	-0.12453918
34	0xbc365dfc	-0.011130806
35	0x3e77c507	0.24196254
36	0x3e015193	0.12628774
37	0xbc3456e7	-0.011007047
38	0x3e448f9b	0.19195406
39	0x3dbcbbd9	0.092155166
40	0x3e492b2b	0.19645374
41	0x3dd76863	0.10517957
42	0x3d84a8e7	0.06477528
43	0x3e88175b	0.2658032
44	0x3dee0a51	0.116230614
45	0xbe45c882	-0.19314769
46	0x3e30080a	0.17190567
47	0xbddcc218	-0.10779208
48	0xbe139dd9	-0.14415683
49	0xbe239f04	-0.15978628
50	0xbe28a9fb	-0.16471092
51	0xbded6389	-0.115912504
52	0xbe2e97c1	-0.17050077
53	0x3dc8add2	0.097987786
54	0x3e1c3f33	0.15258484
55	0x3e21f7e8	0.15817225
56	0xbe79051f	-0.2431836
57	0x3e2e12e5	0.16999395
58	0x3d3bc80c	0.045845076
59	0x3dc1da24	0.09465435
60	0x3d1a2449	0.03763226
61	0x3d15b91b	0.036553483
62	0xbde2acbb	-0.11068102
63	0x3e3d110f	0.18463539

head.norm.weight f4 [64]
0	0x3faa2817	1.3293484
1	0x3fb721ce	1.4307191
2	0x3fbb65b3	1.4640411
3	0x3fca73e0	1.5816612
4	0x3fa078e3	1.2536892
5	0x3fa1ef89	1.2651225
6	0x3fb5879e	1.4182012
7	0x3fa4ba0f	1.286928
8	0x3fc0b0f3	1.5054001
9	0x3fbb678f	1.4640979
10	0x3fa59612	1.2936423
11	0x3fc0dd4b	1.5067533
12	0x3fb54673	1.4162124
13	0x3fb42600	1.4074097
14	0x3fca3d4a	1.5799954
15	0x3f93ce5d	1.1547352
16	0x3fc27aae	1.5193689
17	0x3fa72b04	1.3060002
18	0x3fae3bcc	1.3611999
19	0x3fc3c157	1.5293378
20	0x3fa6d30b	1.3033155
21	0x3f97a518	1.1847258
22	0x3fc1f057	1.5151471
23	0x3fbf41e5	1.4941984
24	0x3f911846	1.1335533
25	0x3fc8e892	1.5695975
26	0x3fb108de	1.3830831
27	0x3fdb1ca5	1.7118117
28	0x3fa9a1df	1.3252524
29	0x3fc79735	1.559302
30	0x3face1b4	1.3506379
31	0x3fb83897	1.439227
32	0x3fe3e796	1.780505
33	0x3f91b263	1.1382564
34	0x3f96c0c7	1.1777581
35	0x3fb078e1	1.3786889
36	0x3fbc2670	1.469923
37	0x3fab59c5	1.338677
38	0x3fba6cfb	1.4564508
39	0x3fca21a1	1.5791513
40	0x3fbdc1b1	1.4824735
41	0x3fbc819d	1.4727055
42	0x3f96fd10	1.1795979
43	0x3fb0813a	1.3789437
44	0x3faa0d55	1.3285319
45	0x3fc138d8	1.5095472
46	0x3fa5de94	1.295855
47	0x3fc4e9cd	1.538385
48	0x3fc6de3c	1.553657
49	0x3f8fb6eb	1.1227697
50	0x3fc7802f	1.5585994
51	0x3fc23455	1.517222
52	0x3fa2de8f	1.272417
53	0x3fa5007d	1.2890774
54	0x3faaea0b	1.3352674
55	0x3fd92492	1.6964285
56	0x3fb02f0d	1.3764359
57	0x3f8d91b9	1.1060096
58	0x3fb8097c	1.4377894
59	0x3fc43a22	1.5330241
60	0x3fcc1cba	1.5946267
61	0x3fc239a2	1.5173838
62	0x3fb5fa4e	1.4217012
63	0x3fbcacca	1.4740231

head.norm.bias f4 [64]
0	0xbe997477	-0.29971668
1	0xbdbb1eee	-0.09136759
2	0xbf0f7e89	-0.5605245
3	0xbeec6696	-0.46172017
4	0xbf4ee358	-0.8081565
5	0xbef22767	-0.47295687
6	0xbef33227	-0.474992
7	0xbf4db240	-0.8035011
8	0xbf6a4fc2	-0.9152795
9	0x3ef34d95	0.47520128
10	0xbea6e174	-0.32593882
11	0xbedca200	-0.43092346
12	0xbdfa58ee	-0.12223993
13	0x3f0c88a0	0.54895973
14	0xbefa0983	-0.48835382
15	0xbf1d798f	-0.6151361
16	0xbe7a33c1	-0.24433805
17	0x3e4f4d59	0.2024435
18	0x3e57cdeb	0.21074645
19	0xbf0a1c86	-0.53949773
20	0xbf1db368	-0.6160188
21	0xbf3b436a	-0.7314974
22	0x3f30514c	0.6887405
23	0x3c9033b9	0.017602788
24	0xbf7ddc57	-0.99164337
25	0xbdb3779c	-0.08763048
26	0xbed63cd2	-0.41843277
27	0xbbe15fd4	-0.0068778787
28	0xbf1624ec	-0.5865009
29	0xbf2cb7f0	-0.67468166
30	0xbe8d1b57	-0.2755992
31	0xbfbc1b50	-1.4695835
32	0xbf1bc64a	-0.6084944
33	0xbf0edce0	-0.5580578
34	0xbf84c556	-1.0372722
35	0x3e444c06	0.19169626
36	0xbeb1b808	-0.34710717
37	0xbe974b95	-0.29549852
38	0xbf7585cf	-0.959073
39	0xbf2e72fd	-0.6814421
40	0xbf2e5d5a	-0.68111193
41	0xbdce4055	-0.10070864
42	0xbf4010af	-0.7502546
43	0xbe8cd8a2	-0.27509028
44	0xbf94b0e6	-1.1616485
45	0xbf13bc70	-0.5770941
46	0xbe536d1c	-0.2064709
47	0xbeaf5919	-0.34247664
48	0xbe81181e	-0.25213712
49	0xbf9625c2	-1.1730273
50	0xbf0f4bc7	-0.55975
51	0x3ecc2480	0.39871597
52	0xbf04ba2c	-0.51846576
53	0x3e48086a	0.1953446
54	0xbeec565e	-0.46159643
55	0x3e31df7d	0.1737041
56	0xbe8bef5f	-0.27331063
57	0xbf55cf32	-0.8351928
58	0xbe2adfd8	-0.16686952
59	0x3ed5f02c	0.417848
60	0xbec0ca31	-0.3765426
61	0xbdb23751	-0.08701957
62	0xbe015764	-0.12630993
63	0x3df98a34	0.12184563

head.norm.running_mean f4 [64]
0	0x3e005a0c	0.1253435
1	0xbd9110da	-0.07083292
2	0x3e8c9a91	0.27461675
3	0x3d90c5c0	0.07068968
4	0xbd2b08e0	-0.04175651
5	0xbe4425d6	-0.19155058
6	0xbe1ddce2	-0.15416291
7	0xbeb5263b	-0.3538073
8	0xbec29350	-0.38003016
9	0x3eebf369	0.46084145
10	0x3e48c2ce	0.19605562
11	0x3ea9a7fb	0.3313597
12	0x3e88f634	0.26750338
13	0x3eeb6d15	0.4598166
14	0xbe95f98c	-0.29291952
15	0x3e416d54	0.18889362
16	0x3e958670	0.2920413
17	0xbeb25af4	-0.34835017
18	0x3f045da2	0.5170537
19	0xbe87945c	-0.26480377
20	0xbda54e07	-0.08071523
21	0xbe0959f9	-0.13413228
22	0x3ed43200	0.41444397
23	0xbdd4f39b	-0.103980266
24	0xbe5efe5c	-0.21776718
25	0x3ef2b0ea	0.474006
26	0x3e1a76eb	0.15084426
27	0x3eaea524	0.34110367
28	0x3e2c85a1	0.1684785
29	0xbdd4a527	-0.10383063
30	0xbf458af3	-0.77165145
31	0xbe065d37	-0.13121496
32	0x3ea6e2eb	0.32595
33	0xbe165841	-0.14682104
34	0xbe3c7c51	-0.18406798
35	0x3eb50da2	0.35361964
36	0x3dc99221	0.09842325
37	0x3f0eff33	0.55858153
38	0x3c36f7da	0.011167491
39	0x3caa5a8e	0.020795133
40	0x3e3125ed	0.17299624
41	0x3c5f6bd9	0.013636553
42	0x3dfe7821	0.124252565
43	0x3e78e8ab	0.24307506
44	0xbd0207ee	-0.031745844
45	0xbe4bf49a	-0.19917527
46	0x3e3674fc	0.17818063
47	0x3c04964b	0.008092473
48	0xbc234bca	-0.0099668
49	0xbe946585	-0.28983703
50	0xbde251a4	-0.11050728
51	0xbcd83a67	-0.026395036
52	0xbe52320d	-0.20526905
53	0x3e4a42c8	0.19752038
54	0x3e478290	0.194834
55	0x3e915462	0.2838469
56	0xbe7edcd7	-0.24888931
57	0xbd46ba39	-0.04851744
58	0x3da1f94d	0.079088785
59	0x3edd3469	0.43204048
60	0x3d601e08	0.05471614
61	0x3da77e8e	0.08178435
62	0xbf338cca	-0.701367
63	0x3e86ada2	0.26304346

head.norm.running_var f4 [64]
0	0x3bc8edcf	0.0061318646
1	0x3c7c828d	0.015411985
2	0x3c9e1d17	0.01930098
3	0x3c1e026e	0.009644134
4	0x3cd0b2b0	0.02547583
5	0x3c3b1b2a	0.011420051
6	0x3c2db653	0.0106025515
7	0x3ca4897f	0.020085094
8	0x3c9385ad	0.018008078
9	0x3e1b56e0	0.15169859
10	0x3c7228e0	0.014780253
11	0x3bea3c81	0.007148326
12	0x3c4e10fa	0.01257729
13	0x3ca70a5b	0.02039068
14	0x3bef1552	0.0072962428
15	0x3d2390d8	0.039933056
16	0x3c3889eb	0.011263351
17	0x3d0408a0	0.032234788
18	0x3d26c62a	0.040716328
19	0x3c90b43e	0.017664071
20	0x3cc0f557	0.023554487
21	0x3d19ee4f	0.037580784
22	0x3cf2cfb4	0.029640056
23	0x3cbc336a	0.022973735
24	0x3ca2fe0f	0.019896535
25	0x3d0b4b70	0.03400749
26	0x3bdb134b	0.0066856495
27	0x3be2213a	0.0069009336
28	0x3ca6396c	0.020291053
29	0x3af4ebe5	0.0018686025
30	0x3d9ba117	0.07599085
31	0x3c99ad19	0.018759297
32	0x3c0cc607	0.008592135
33	0x3cc5b55c	0.02413433
34	0x3c9551ad	0.018227423
35	0x3d2d006f	0.04223674
36	0x3c022a33	0.007944631
37	0x3dce8123	0.100832246
38	0x3c86dd1e	0.016462859
39	0x3ba5c307	0.0050586495
40	0x3bbd6973	0.005780393
41	0x3c672cc9	0.014109799
42	0x3c2934ec	0.010327559
43	0x3ca33938	0.019924745
44	0x3c47d56c	0.01219688
45	0x3bbee43d	0.005825548
46	0x3c3592c8	0.011082359
47	0x3b934e50	0.0044954196
48	0x3c90c017	0.01766972
49	0x3c0598d2	0.008154111
50	0x3c09085b	0.0083638085
51	0x3c12ed68	0.008967735
52	0x3c3d9f8c	0.0115736835
53	0x3bf06fbc	0.0073375385
54	0x3cdf8f42	0.02728999
55	0x3c14e65c	0.009088125
56	0x3cd2aa54	0.025715984
57	0x3cacd42a	0.021097261
58	0x3bc9b564	0.0061556567
59	0x3d26cf65	0.04072513
60	0x3be0a2d2	0.006855347
61	0x3b88582e	0.0041609025
62	0x3d903aed	0.07042489
63	0x3bddaeb3	0.0067652105

body.block1.conv.weight f4 [64, 64, 3, 3]
0	0x3cce9f4b	0.025222441
1	0xbb23d74f	-0.002500016
2	0x3e1f3e2f	0.15551065
3	0x3c5d6e14	0.013515014
4	0x3da89d6d	0.082331516
5	0x3dc8140c	0.09769449
6	0xbd9737ff	-0.07383727
7	0xbc70a544	-0.01468784
8	0xbda785df	-0.08179831
9	0xbe577012	-0.21038845
10	0xbe2eef65	-0.1708351
11	0xbba44b6f	-0.005013875
12	0x3cc424c3	0.02394331
13	0xbd810985	-0.06300644
14	0x3d0d17c3	0.03444649
15	0xbb3b934d	-0.0028621734
16	0x3d1db032	0.03849811
17	0x3c590afe	0.01324725
18	0xbe35861f	-0.17726944
19	0x3de7cdf4	0.11318579
20	0x3e1a3e3d	0.15062805
21	0x3e087c83	0.13328747
22	0xbcd8e67d	-0.026477093
23	0x3ced3386	0.028955232
24	0x3e0f1bda	0.13975468
25	0x3ddc8b86	0.107687995
26	0x3dd5d7a2	0.10441519
27	0x3b72799f	0.0036998761
28	0x3d54b4f1	0.05193037
29	0xbc949a54	-0.018139996
30	0xbd89fd7e	-0.06737803
31	0x3dc395b7	0.0955004
32	0xbd03fbe5	-0.032222647
33	0x3d778046	0.060425065
34	0x3e2e19e9	0.17002071
35	0xbe0650a1	-0.13116695
36	0xbe715f8a	-0.23571602
37	0xbe33a1f7	-0.17542253
38	0x3cf419b3	0.02979741
39	0xbc1a2cf6	-0.009410134
40	0xbcc794fa	-0.02436303
41	0xbdb85001	-0.089996345
42	0x3db20188	0.08691698
43	0x3e189bab	0.14903133
44	0x3d870d9f	0.06594395
45	0x3d82d9ca	0.06389196
46	0x3cca1082	0.024666075
47	0xbdb81d0b	-0.089899145
48	0xbc4f12b5	-0.012638737
49	0x3c1c9faf	0.009559556
50	0x3d197b39	0.03747103
51	0xbd99751c	-0.0749304
52	0xbd4066f3	-0.04697318
53	0x3ccf3775	0.025294999
54	0x3de8d4a1	0.11368681
55	0x3de9fdcb	0.1142536
56	0x3db56c60	0.088585615
57	0x3d5de629	0.054174576
58	0xbe0ed06a	-0.13946691
59	0x3cbf4b50	0.023351341
60	0xbe0f98c9	-0.14023127
61	0xbdabe44c	-0.083931535
62	0xbcf6a582	-0.030108217
63	0xbe2d9a4b	-0.1695339
64	0xbd84e079	-0.06488127
65	0xbc3d9a19	-0.011572384
66	0xbe0cd27d	-0.1375217
67	0xbe06676b	-0.13125388
68	0x3df30f81	0.118681915
69	0x3ab8b3d9	0.0014091685
70	0xbd29060f	-0.041265544
71	0x3db44469	0.08802111
72	0xbdcaec4e	-0.09908353
73	0xbe224056	-0.15844855
74	0x3cc98ccf	0.024603276
75	0x3e417a40	0.18894291
76	0x3c86dd05	0.016462812
77	0x3d47a8a9	0.04874483
78	0xbe209a5b	-0.15683882
79	0xbc473501	-0.012158633
80	0x3dd52505	0.104074515
81	0xbd6e5204	-0.058183685
82	0x3afb1755	0.0019156734
83	0x3b8ab274	0.004232699
84	0xbd821924	-0.063524514
85	0xbdcad5c4	-0.09904054
86	0xbd4ad3e8	-0.049518496
87	0xbe690f67	-0.22759782
88	0xbe8138b0	-0.25238562
89	0xbe44a7f4	-0.19204694
90	0x3cd8850e	0.026430633
91	0xbe1195ab	-0.1421725
92	0xbd84a21b	-0.06476232
93	0xbd9115e0	-0.070842505
94	0xbe0456b5	-0.12923701
95	0xbdcb1f5b	-0.0991809
96	0xbe0bcfe7	-0.13653527
97	0xbdba5c60	-0.090996504
98	0xbdb601f5	-0.08887092
99	0xbdd0a1c5	-0.10187105
100	0xbd4adaf4	-0.049525216
101	0xbd0e8572	-0.034795232
102	0xbd773cb4	-0.060360625
103	0x3c955969	0.01823111
104	0xbe12f9ee	-0.14353153
105	0xbc4cb24d	-0.012493682
106	0xbd865670	-0.065594554
107	0xbd5afc8d	-0.053463507
108	0xbdb473af	-0.088111274
109	0xbe844eb8	-0.25841308
110	0xbe796551	-0.24355055
111	0xbdac37b3	-0.08409061
112	0x3c88c123	0.016693657
113	0xbb6e2671	-0.003633883
114	0xbd78defb	-0.060759526
115	0x3e081b7b	0.13291733
116	0x3d84ef78	0.064909875
117	0xbd091f91	-0.03347737
118	0x3d9a130b	0.075231634
119	0x3d2049d9	0.039132927
120	0x3d126c38	0.035747737
121	0x3e1da68a	0.15395561
122	0xbd09d3e9	-0.03364936
123	0xbd99a68c	-0.075024694
124	0x3cac2f32	0.021018598
125	0xbdb6f341	-0.08933116
126	0xbd440d80	-0.047864437
127	0xbe328601	-0.17433931
128	0x3cb8d0d1	0.022560509
129	0x3b899af6	0.004199381
130	0x3cba7946	0.022762906
131	0xbce61c61	-0.028089704
132	0xbdb4d304	-0.088293105
133	0x3dab0157	0.08349865
134	0xbce4de06	-0.0279379
135	0xbe0bac87	-0.13640033
136	0xbe4ecbd2	-0.20194939
137	0xbe3a0a1b	-0.18167917
138	0xbcfd455b	-0.03091686
139	0xbdb724f5	-0.08942596
140	0xbd422de9	-0.047407065
141	0xbdd04442	-0.10169269
142	0xbd92fa8b	-0.071766935
143	0x3c25fff4	0.010131825
144	0xbe1937ef	-0.14962743
145	0xbe8d478b	-0.27593645
146	0xbc8fb676	-0.017543059
147	0x3e612a90	0.21988893
148	0x3dc5336c	0.096289486
149	0x3dcf7552	0.10129799
150	0xbd611467	-0.054951098
151	0xbd09a635	-0.033605773
152	0x3d7fb0d2	0.06242449
153	0x3c3726c7	0.011178679
154	0xbc7d4b9e	-0.015459923
155	0xbdce0ae6	-0.100606725
156	0xbdf1a2ba	-0.11798616
157	0x3d7e127b	0.062029343
158	0x3d5430a1	0.05180419
159	0xbe591521	-0.21199466
160	0xbe0fb7c7	-0.14034949
161	0xbdffd4cd	-0.124917604
162	0xbe277fc5	-0.16357334
163	0xbcdd8f95	-0.027046004
164	0xbc025a14	-0.007956047
165	0x3d5d55a7	0.054036763
166	0x3df1a44d	0.11798916
167	0x3c8dbf1b	0.01730304
168	0xbd80b4e6	-0.06284504
169	0xbd03d939	-0.03218958
170	0xbcfafbfe	-0.030637737
171	0xbe0a7d27	-0.13524304
172	0xbde04a27	-0.109516434
173	0xbbaf93e8	-0.005358208
174	0xbdb1ce12	-0.08681883
175	0xbdb2b687	-0.087262206
176	0xbe21a7fd	-0.15786739
177	0x3e12a17a	0.14319411
178	0x3e0ce869	0.13760532
179	0x3d791d17	0.060818758
180	0xbe1e4237	-0.15454946
181	0xbdacea6e	-0.084431514
182	0xbcfd581c	-0.030925803
183	0xbda80873	-0.082047366
184	0xbd8b5a53	-0.06804337
185	0xbd0d9bbc	-0.034572348
186	0x3d0531a0	0.03251803
187	0x3d81e580	0.06342602
188	0x3d9f48c7	0.07777553
189	0xbdf0395e	-0.11729692
190	0xbe2e37e6	-0.17013511
191	0xbdb4dd10	-0.08831227
192	0xbdec7a2c	-0.1154674
193	0xbe13c1d7	-0.14429413
194	0xbdaf2985	-0.08552841
195	0xbd369708	-0.04457763
196	0xbdb29ea5	-0.08721665
197	0xbe051ec3	-0.13000016
198	0xbd1be210	-0.038057387
199	0x3d7da38c	0.06192355
200	0x3d6ec718	0.05829534
201	0x3d5110f6	0.051041566
202	0x3e32913a	0.17438212
203	0x3e45a64f	0.19301723
204	0xbd7061c7	-0.058686998
205	0x3d4b6cde	0.04966437
206	0x3d9a93b6	0.07547705
207	0xbe281bf2	-0.1641691
208	0xbd6d1ad0	-0.0578869
209	0x3dcf7098	0.101288974
210	0x3e202409	0.15638746
211	0x3e72cb19	0.23710288
212	0x3dba16d9	0.09086389
213	0xbd7e5247	-0.062090185
214	0x3d207aeb	0.039179724
215	0xbd8c8dd8	-0.06862992
216	0xbe08a84e	-0.13345453
217	0x3c86ee7b	0.016471138
218	0x3cb87371	0.022515984
219	0xbdf802a1	-0.121098764
220	0xbe0b6d4f	-0.13615917
221	0x3a5c5f99	0.0008406579
222	0xbca9fdf1	-0.020750972
223	0xbce6cb38	-0.028173074
224	0x3e107623	0.14107566
225	0xbe215a0a	-0.15757003
226	0xbe01944d	-0.12654229
227	0x3d958b96	0.073020145
228	0xbd8a27f7	-0.06745904
229	0x3db4f292	0.08835329
230	0x3e414359	0.18873347
231	0xbde9217f	-0.11383342
232	0x3e231c66	0.15928802
233	0x3e6f7cb8	0.2338742
234	0x3cd3bd79	0.025847184
235	0x3d933476	0.071877405
236	0x3d10bb0f	0.035334643
237	0xbda0fb96	-0.07860486
238	0xbd770b5d	-0.06031357
239	0xbdaeb46e	-0.08530508
240	0xbbdc0797	-0.006714772
241	0x3d2a5cec	0.041592523
242	0xbc1601b0	-0.009155676
243	0x3cea78ac	0.028621994
244	0x3db8c996	0.090228245
245	0xbdf7c308	-0.12097746
246	0xbd13a876	-0.03604933
247	0x3db32d15	0.08748833
248	0xbc287b96	-0.010283371
249	0x3e3d1323	0.18464331
250	0x3da06f91	0.078337796
251	0xbdc16a95	-0.09444157
252	0xbe5c9606	-0.21541604
253	0xbe0fab57	-0.14030205
254	0xbe1460ef	-0.14490102
255	0x3d2cea73	0.042215776

body.block1.conv.bias f4 [64]
0	0xbc464196	-0.012100598
1	0x3cc1f420	0.023675978
2	0xbd183f8d	-0.03716998
3	0xbc5df0a9	-0.013546147
4	0xbc2e9e6d	-0.010657889
5	0x3ce70033	0.028198337
6	0x3d197306	0.03746321
7	0x3d20ab42	0.039225824
8	0x3bd3eecf	0.006467677
9	0x3d24b4ef	0.040211614
10	0xbbdd5a99	-0.006755185
11	0xbceb7963	-0.028744405
12	0x3d0810e6	0.03321924
13	0xbd18f26e	-0.037340574
14	0xbccf64b3	-0.025316572
15	0x3d139fa3	0.036040913
16	0x3cb1947f	0.021677254
17	0x3c363fe1	0.011123628
18	0xbca5687e	-0.020191427
19	0xbc5c6f2a	-0.013454238
20	0x3d144259	0.036196087
21	0x3c9e270c	0.019305728
22	0xbba40b14	-0.0050062034
23	0xbd19e459	-0.037571285
24	0x3c8c5a27	0.017132832
25	0x3d2572f0	0.040392816
26	0xbcb7d38e	-0.022439744
27	0xbc8d5820	-0.017253935
28	0x3ad242af	0.0016041602
29	0xbc931e44	-0.017958768
30	0xbd064826	-0.03278365
31	0x3b586de4	0.0033024484
32	0xbc84aea0	-0.016196549
33	0x3cfe4dd8	0.031042978
34	0x3ca7bc62	0.02047557
35	0x3bb4c42b	0.005516549
36	0x3ca85fbb	0.02055346
37	0x3a6737ac	0.00088202464
38	0xbd0ba1db	-0.034089904
39	0xbb1f35c5	-0.0024293524
40	0x3d193dd4	0.03741248
41	0x3cfb5aeb	0.030683002
42	0xbc0dcaad	-0.008654279
43	0x3ac598c4	0.0015075435
44	0xbd0881e2	-0.03332699
45	0xbbc7a9e2	-0.0060932497
46	0x3cfaff09	0.030639188
47	0x3cc3d90a	0.023907203
48	0xb91f612f	-0.00015199625
49	0x3ca1669c	0.019702248
50	0xbcd58b45	-0.026067385
51	0xbcae8919	-0.021305608
52	0x3c4b3f8a	0.012405286
53	0xbd1f66e9	-0.038916502
54	0xbd1999f1	-0.037500326
55	0xbc88b7ec	-0.016689263
56	0xbae8b67f	-0.0017754583
57	0xbcc5859d	-0.024111563
58	0xbcd3a54e	-0.02583566
59	0x3d0f7838	0.03502676
60	0x3cd9256b	0.0265071
61	0xbc8ff3ac	-0.017572246
62	0xbd064c80	-0.0327878
63	0x3c4deb80	0.012568355

body.block1.norm.weight f4 [64]
0	0x3fd3b72b	1.6540273
1	0x3fa51dd4	1.2899728
2	0x3fc6437c	1.5489345
3	0x3fc829a4	1.5637708
4	0x3fb8f4ce	1.4449708
5	0x3fafa899	1.3723327
6	0x3fc5025e	1.5391347
7	0x3fc90976	1.5706012
8	0x3fc942f3	1.5723556
9	0x3fc10051	1.5078222
10	0x3fc6285b	1.5481066
11	0x3fd99c37	1.7000798
12	0x3fad69f1	1.3547956
13	0x3fadc64d	1.3576142
14	0x3fb3f351	1.4058629
15	0x3fa6e80e	1.3039567
16	0x3fa1948c	1.2623458
17	0x3f948673	1.1603531
18	0x3fcdc290	1.6075001
19	0x3fbac1e5	1.4590422
20	0x3fd03e38	1.6268988
21	0x3fb0add6	1.380305
22	0x3f9fb302	1.2476504
23	0x3fc8f592	1.5699942
24	0x3fd14907	1.6350411
25	0x3fc6f372	1.5543044
26	0x3fc53d57	1.5409344
27	0x3fb0d162	1.3813899
28	0x3fba1f56	1.4540813
29	0x3fad05ff	1.3517455
30	0x3fcd8cd7	1.6058606
31	0x3fb3b1ea	1.403867
32	0x3fcbd45c	1.5924182
33	0x3fb7fd7d	1.4374233
34	0x3fd6b80c	1.6774917
35	0x3fa9641f	1.323368
36	0x3fd044bb	1.6270975
37	0x3fb4c75f	1.4123343
38	0x3fd8b686	1.6930702
39	0x3fc4808c	1.5351729
40	0x3fc1a4c0	1.5128403
41	0x3fc8c7ea	1.5686009
42	0x3fbddb55	1.483256
43	0x3faa28ba	1.3293679
44	0x3fd21eb3	1.6415619
45	0x3fbc5218	1.4712553
46	0x3fcf191f	1.6179541
47	0x3fc30d9a	1.5238526
48	0x3fcffaaa	1.6248372
49	0x3fc1113c	1.5083385
50	0x3fb9d39f	1.4517707
51	0x3fb7a8ae	1.4348352
52	0x3fb6e325	1.4288069
53	0x3fc617e5	1.5476042
54	0x3fbf6a46	1.4954307
55	0x3fbd3868	1.4782839
56	0x3fac0be1	1.3441125
57	0x3fcbd429	1.5924121
58	0x3fd1e557	1.6398114
59	0x3fd23576	1.6422565
60	0x3fbeb752	1.4899695
61	0x3fb0d88b	1.3816084
62	0x3fcb441c	1.588016
63	0x3fcbb977	1.5915974

body.block1.norm.bias f4 [64]
0	0x3ceeaa9a	0.029134084
1	0xbf2d46b1	-0.6768599
2	0xbe9fa7b1	-0.31182626
3	0xbef4c0bb	-0.47803292
4	0xbf2602ff	-0.6484832
5	0xbf35a5a3	-0.70955867
6	0xbc444fa3	-0.0119818775
7	0xbe3c6934	-0.18399507
8	0xbe328c82	-0.17436412
9	0xbf0140d9	-0.50489575
10	0xbe48f3b9	-0.19624223
11	0xbdc8d163	-0.09805562
12	0xbeabaab4	-0.33528674
13	0xbf98dba2	-1.1942027
14	0xbd4e0401	-0.050296787
15	0xbe74e951	-0.23917128
16	0xbf2ae695	-0.6675809
17	0xbf3bb95b	-0.73329705
18	0xbd4c71ef	-0.049913343
19	0xbd1c419a	-0.0381485
20	0xbebd1b8b	-0.36935076
21	0xbf12a37f	-0.57280725
22	0xbf2d72a7	-0.6775307
23	0xbea69812	-0.32537895
24	0xbe9e8a23	-0.30964765
25	0xbe3385bd	-0.17531486
26	0x3ea0e4b6	0.31424493
27	0xbf04012c	-0.5156429
28	0xbf090fef	-0.5353994
29	0xbf2f67e0	-0.68517876
30	0xbed9bd6f	-0.4252734
31	0xbf351d7d	-0.7074812
32	0xbe972ca3	-0.29526243
33	0xbf1aea2f	-0.60513586
34	0xbec306b8	-0.38091063
35	0xbed7caad	-0.42146817
36	0xbe53c686	-0.206812
37	0xbed62fae	-0.41833252
38	0x3dce1a4f	0.10063612
39	0xbebbf120	-0.367074
40	0xbeb889c2	-0.360426
41	0xbd652a8d	-0.055948783
42	0xbe9eb541	-0.3099766
43	0xbed31a39	-0.41230944
44	0xbd8e325f	-0.06943201
45	0xbf125a5b	-0.5716912
46	0xbde9bd32	-0.11413039
47	0xbeec73fd	-0.46182242
48	0xbe6d0563	-0.23146586
49	0x3e76c7c8	0.24099648
50	0xbefbd191	-0.49183324
51	0xbf2bd835	-0.6712678
52	0xbe99ff3b	-0.30077538
53	0x3d1b58a3	0.037926327
54	0x3e5d6720	0.2162137
55	0xbee9f4a8	-0.4569447
56	0x3e808423	0.25100812
57	0xbf1cf2a9	-0.6130777
58	0xbec2b295	-0.38026872
59	0xbc83aad3	-0.016072666
60	0xbe20d630	-0.15706706
61	0xbf0d7282	-0.5525285
62	0xbe3f802c	-0.18701237
63	0xbf559413	-0.8342907

body.block1.norm.running_mean f4 [64]
0	0xbf490d44	-0.78535867
1	0x3f1fd1e6	0.62429655
2	0xbfdf9761	-1.7468072
3	0xbec6c095	-0.38818803
4	0x4082c27a	4.08624
5	0xbfdc34c6	-1.7203605
6	0xc009deae	-2.1542163
7	0xc06e4983	-3.7232368
8	0xc09f56c4	-4.9793415
9	0x4053856c	3.3050184
10	0xc06880da	-3.6328645
11	0xc0854726	-4.164935
12	0x3e9bf231	0.30458215
13	0x4008708e	2.1318698
14	0x40421a98	3.0328732
15	0xbf6ab747	-0.9168591
16	0xbd11bed2	-0.03558237
17	0x409bc6b1	4.8680043
18	0xc02ab3d1	-2.6672251
19	0xc06a498e	-3.6607394
20	0x3eb265aa	0.3484319
21	0x40c1f51d	6.061171
22	0x4061b603	3.526734
23	0xbfba3ab5	-1.4549166
24	0xbe0a5816	-0.13510165
25	0xc0a4fca1	-5.1558385
26	0xbfa3cf44	-1.2797627
27	0xbf57989d	-0.84217244
28	0x4024e953	2.576741
29	0xbf9746bb	-1.181846
30	0xc04e3dae	-3.2225146
31	0x40277994	2.6167955
32	0x3f6628a0	0.8990574
33	0x3f987523	1.1910747
34	0xc01a1bf4	-2.4079561
35	0x40ccbea6	6.3982725
36	0xbff5d826	-1.9206588
37	0x3f8874ab	1.0660604
38	0x3ed32b0b	0.41243777
39	0xc0e0df6a	-7.027272
40	0xbe6febc5	-0.23429783
41	0xbfad1af5	-1.3523852
42	0x3bac9ade	0.005267485
43	0x4082d1bc	4.0881023
44	0xc002aea5	-2.0419095
45	0xbfa4bb92	-1.2869742
46	0x4048d003	3.137696
47	0x3f5720df	0.8403453
48	0xc0c2cf15	-6.0877786
49	0xc08f6192	-4.4806604
50	0xc0b8dd3c	-5.777006
51	0x3fdeeec8	1.741662
52	0x401ae431	2.4201777
53	0xbf9c9abd	-1.2234722
54	0xc0be14e8	-5.940052
55	0xbe9b3e5c	-0.30321014
56	0xc0908099	-4.515698
57	0xc01222e1	-2.2833788
58	0xbead951b	-0.3390282
59	0xc03132da	-2.7687287
60	0xbf078cfc	-0.529495
61	0xc0180da5	-2.3758328
62	0xbfcbcd9e	-1.5922124
63	0xbfaf32da	-1.3687394

body.block1.norm.running_var f4 [64]
0	0x413d3b0e	11.826918
1	0x41b3fb49	22.497698
2	0x40f8d363	7.775804
3	0x40a3afba	5.115201
4	0x413bf201	11.746583
5	0x40c551fe	6.166259
6	0x41182a96	9.510397
7	0x40e37b0a	7.1087694
8	0x412223d6	10.133749
9	0x4100bd0c	8.046154
10	0x4132f470	11.184677
11	0x411bfa1a	9.74856
12	0x4119235c	9.571133
13	0x408ca219	4.3947873
14	0x415d43a8	13.829018
15	0x4145837d	12.344602
16	0x4098fb32	4.7806635
17	0x41901643	18.01087
18	0x4128f6ad	10.560224
19	0x4183d307	16.47804
20	0x409c3a27	4.8820987
21	0x4174c60c	15.298351
22	0x412ca98f	10.791396
23	0x4100411d	8.015897
24	0x40ea30d4	7.3184605
25	0x4112372a	9.138468
26	0x419737a7	18.902174
27	0x411773de	9.465788
28	0x4118abbc	9.541927
29	0x409a6819	4.825207
30	0x40f1181d	7.5341935
31	0x412dc992	10.8617115
32	0x40bd0fa7	5.9081607
33	0x40e98a03	7.298097
34	0x40fb73bf	7.857879
35	0x416d54c6	14.833197
36	0x410a235a	8.633631
37	0x410f91aa	8.9730625
38	0x41346a18	11.275902
39	0x418c86bb	17.565786
40	0x40f682ac	7.703451
41	0x40b98292	5.7971888
42	0x410829cd	8.510205
43	0x40e033b3	7.006311
44	0x4117fa20	9.498566
45	0x408285ee	4.078849
46	0x40d2b6e0	6.5848236
47	0x410c6dbc	8.776791
48	0x41168177	9.406608
49	0x415b976d	13.724469
50	0x4146a5c4	12.41547
51	0x40ef5f20	7.480362
52	0x40e62d96	7.1930647
53	0x40c468da	6.1377993
54	0x419f2310	19.89212
55	0x40afb997	5.491405
56	0x420b6ef5	34.858356
57	0x40f4f2f8	7.6546593
58	0x40a45c12	5.136239
59	0x41326501	11.149659
60	0x4116c1f3	9.422351
61	0x40e223fe	7.0668936
62	0x4134dfbe	11.304625
63	0x40b38235	5.6096444

body.block2.conv.weight f4 [64, 64, 3, 3]
0	0xbe7469b3	-0.23868446
1	0xbd987041	-0.07443286
2	0xbd7923cb	-0.06082515
3	0xbcfe7201	-0.03106022
4	0x3d15db87	0.03658631
5	0xbe0eb7c3	-0.13937287
6	0xbcbf45e2	-0.023348752
7	0x3dba982e	0.09111057
8	0xbdaaa7ab	-0.083327614
9	0xbe612e94	-0.21990424
10	0xbe418e9a	-0.18902054
11	0xbe5626d6	-0.20913252
12	0xbdf602fe	-0.120122895
13	0xbe498577	-0.19679819
14	0xbe5c2c76	-0.21501336
15	0xbe8ce983	-0.27521905
16	0xbeb4a86c	-0.35284746
17	0xbe6b55ed	-0.22981997
18	0x3dd1c866	0.10243301
19	0x3e30b5ee	0.172569
20	0x3e7db756	0.24776968
21	0xbd46a737	-0.048499312
22	0xbd789e27	-0.0606977
23	0x3e1498d8	0.1451143
24	0xbcb8ab2e	-0.022542562
25	0xbdecfc9b	-0.11571618
26	0xbd4f2714	-0.050574377
27	0xbc2ba5b4	-0.010476518
28	0xbb5d7fd2	-0.003379811
29	0x3e03b951	0.12863661
30	0xbddd5cef	-0.10808741
31	0xbdef088c	-0.11671552
32	0xbbec3890	-0.007208891
33	0xbe523486	-0.20527849
34	0xbdd36cd4	-0.10323492
35	0xbc183686	-0.009290343
36	0x3e57e245	0.21082409
37	0x3e560393	0.20899801
38	0x3cb1af42	0.021690015
39	0x3d8174d3	0.063211106
40	0x3d95c4f6	0.07312958
41	0xbe1a4ae8	-0.15067637
42	0x3d882ad4	0.06648794
43	0xbc0d0bb8	-0.008608751
44	0xbdd67d39	-0.10473103
45	0xbe2117a0	-0.15731668
46	0xbd9841da	-0.07434435
47	0x3d1eee94	0.038801745
48	0x3d6d0ee1	0.057875518
49	0x3ddb3149	0.1070276
50	0x3e1234df	0.14277981
51	0x3de855f9	0.11344523
52	0x3bf79aed	0.0075563104
53	0x3ce165c9	0.027514355
54	0xbd3fb811	-0.0468064
55	0xbc50d6b2	-0.0127465
56	0x3cd55196	0.02603988
57	0xbd6be595	-0.057591993
58	0x3bba7624	0.005690353
59	0xbd830a11	-0.063984044
60	0x3da8f8bc	0.08250567
61	0x3e038956	0.12845358
62	0xbda08011	-0.07836927
63	0x3c216e0a	0.0098528955
64	0x3e2513c3	0.1612082
65	0x3dafcaab	0.08583578
66	0xbda4095d	-0.080095984
67	0xbbba1f6f	-0.0056800167
68	0x3d061500	0.03273487
69	0xbd87d32f	-0.06632077
70	0x3cde075b	0.027103117
71	0x3c94bb61	0.018155755
72	0x3db256a8	0.087079346
73	0xbd9f7413	-0.07785811
74	0x3da76e2b	0.0817531
75	0x3e10df0a	0.14147583
76	0xbd4736ac	-0.048636124
77	0xbdbe57dc	-0.092941016
78	0x3e3cbba3	0.18430953
79	0x3ddca479	0.10773558
80	0x3cd6c522	0.026217047
81	0xbe3a93f6	-0.18220505
82	0xbc45c620	-0.012071162
83	0x3daaa19e	0.08331607
84	0xbdcbbfcb	-0.09948691
85	0xbd43dff0	-0.047820985
86	0xbcbf581e	-0.023357447
87	0xbc5532e4	-0.013012622
88	0xbbe94956	-0.007119338
89	0x3e2fa5e2	0.17153123
90	0xbc6098f4	-0.013708342
91	0x3dc025b0	0.09382188
92	0xbd6aa4a8	-0.057285935
93	0xbe228dc6	-0.15874395
94	0xbd51eac0	-0.051249266
95	0x3d1b86a5	0.037970204
96	0xbd92b971	-0.071642764
97	0x3dc5ab70	0.0965184
98	0xbd3330ae	-0.043747596
99	0xbdc4c832	-0.09608497
100	0xbd6023f8	-0.054721802
101	0x3d075cfa	0.033047654
102	0xbdb128d9	-0.08650369
103	0x3d295522	0.041340955
104	0xbccad394	-0.024759091
105	0xbe0ce5b6	-0.13759503
106	0xbd90b471	-0.070656665
107	0x3e0ba121	0.13635685
108	0x3d9f3595	0.07773892
109	0xbdc37842	-0.09544422
110	0xbe0033c6	-0.1251975
111	0xbce050c2	-0.027382258
112	0xbda59c13	-0.080864094
113	0xbd7294f8	-0.0592241
114	0xbde347bd	-0.11097667
115	0xbd5d59ac	-0.054040596
116	0x3dd43c09	0.10363013
117	0x3eb3fc66	0.35153502
118	0x3e4f6aa8	0.2025553
119	0x3ce1651e	0.027514037
120	0x3e7ac2ee	0.24488422
121	0x3e7b6104	0.24548727
122	0x3e45de9c	0.193232
123	0x3e201194	0.15631706
124	0x3e4ddd54	0.20103961
125	0x3ec4db08	0.38448358
126	0x3d672b50	0.05643779
127	0xbddc4a28	-0.10756332
128	0xbe85dd75	-0.2614552
129	0xbd86d370	-0.06583297
130	0xbdd30eac	-0.10305533
131	0x3dbb1806	0.091354415
132	0x3d2a2832	0.04154224
133	0xbbb87e9c	-0.0056303274
134	0x3e650a2e	0.22367164
135	0x3d9a4ce3	0.07534196
136	0xbdda84df	-0.106698744
137	0xbda36e9b	-0.07980081
138	0x3e025c18	0.12730443
139	0x3ba8fd89	0.005157177
140	0x3d7649ec	0.06012909
141	0xbbb2664b	-0.005444323
142	0xbda7afbe	-0.08187817
143	0xbd9f3737	-0.07774203
144	0x3d70e76d	0.058814455
145	0xbe67a1aa	-0.22620264
146	0xbd3d07fd	-0.046150196
147	0x3c04bbda	0.008101428
148	0xbd332ee2	-0.043745883
149	0x3d15245a	0.03641162
150	0xbc59c86e	-0.013292415
151	0xbcdac727	-0.026706291
152	0x3c45463e	0.012040673
153	0xbd8a99dd	-0.06767628
154	0xbd48f1f2	-0.049058862
155	0xbdc23704	-0.0948315
156	0xbe7eaf57	-0.24871574
157	0xbdeaeb52	-0.11470665
158	0xbd1584cb	-0.036503594
159	0xbe42bfc2	-0.19018462
160	0xbd597249	-0.053087506
161	0xbdb830b4	-0.089936644
162	0xbdb9b653	-0.09067979
163	0xbe5707f7	-0.20999132
164	0xbdea7307	-0.11447721
165	0xbe25a3d5	-0.16175778
166	0xbd2b712e	-0.041855983
167	0x3d74b1a8	0.05973974
168	0x3df1c3bf	0.11804914
169	0x3d4d22b4	0.050081924
170	0xbe07334f	-0.13203166
171	0xbe26d3e0	-0.16291761
172	0xbe5333a1	-0.20625164
173	0xbdf7acfe	-0.120935425
174	0xbd71e306	-0.059054397
175	0x3bf4ea70	0.007474236
176	0xbdec20b6	-0.115296766
177	0x3c2c50c6	0.010517305
178	0x3deb3169	0.114840336
179	0x3c392d10	0.011302248
180	0xbddecff6	-0.10879509
181	0x3e21886d	0.15774699
182	0x3e020218	0.12696111
183	0xbe5f8036	-0.21826252
184	0xbc181111	-0.009281413
185	0x3d75d960	0.060021758
186	0xbcf6ef18	-0.030143306
187	0x3c71c573	0.014756548
188	0xbc02a867	-0.007974721
189	0xbe32ac69	-0.17448582
190	0xbe0d65d3	-0.13808374
191	0xbe76f8b5	-0.24118312
192	0xbe37373c	-0.17892164
193	0xbdcf6a33	-0.10127678
194	0x3d6f305e	0.058395736
195	0xbc94ea3d	-0.0181781
196	0xbd0f8485	-0.03503849
197	0x3db9c20e	0.09070216
198	0xbe185b1a	-0.14878502
199	0x3e223d83	0.15843777
200	0x3d985f2d	0.07440028
201	0xbdf1bfe0	-0.118041754
202	0x3da3da2e	0.08000599
203	0xbdc0f805	-0.09422306
204	0xbd979e0f	-0.07403194
205	0x3d6b28ed	0.057412077
206	0xbd5b15d9	-0.053487632
207	0xbd659387	-0.056048896
208	0x3d5aefaa	0.053451218
209	0xbb40a820	-0.0029397085
210	0xbe17ecf4	-0.14836484
211	0x3d8a4efa	0.06753345
212	0xbe413068	-0.18866122
213	0xbdb42e82	-0.08797933
214	0x3dcd9a52	0.100392
215	0x3c4b9898	0.012426518
216	0xbcadb5c2	-0.021204833
217	0xbdc23e49	-0.09484536
218	0x3d0d0f99	0.034438703
219	0x3bb1a6dc	0.0054215025
220	0xbdab66c8	-0.08369213
221	0x3b1d6fa7	0.0024022849
222	0x3ce0546a	0.027384002
223	0x3e42f918	0.19040334
224	0x3e2f6e2b	0.1713187
225	0xbe4aaa4b	-0.19791524
226	0xbc9d36c6	-0.019191157
227	0x3da6c6fd	0.08143423
228	0xbe1ac3d3	-0.15113764
229	0x3e7230ec	0.23651475
230	0x3e1b5841	0.15170385
231	0x3e37302c	0.1788947
232	0x3e1428b0	0.14468646
233	0x3e526476	0.20546135
234	0xbe627796	-0.22115931
235	0xbe9a8108	-0.30176568
236	0xbe4abd4c	-0.19798774
237	0x3b3d4248	0.0028878618
238	0xbd9629e5	-0.073322095
239	0xbb65e851	-0.0035081098
240	0xbdb81c33	-0.089897536
241	0xbdffa987	-0.12483507
242	0x3a2c9bf8	0.00065845205
243	0x3d805620	0.06266427
244	0xbd1c5ed6	-0.03817638
245	0xbe05c545	-0.13063534
246	0xbc5e0480	-0.013550878
247	0xbe1c694a	-0.1527454
248	0x3d23e259	0.040010784
249	0x3e54f03c	0.20794767
250	0x3d5dcb26	0.054148816
251	0xbb305ffc	-0.002691268
252	0x3dc75d82	0.09734632
253	0x3d39ef72	0.04539437
254	0x3bcd10b6	0.0062580956
255	0xbdf96e2b	-0.12179216

body.block2.conv.bias f4 [64]
0	0xbcfa1827	-0.030529095
1	0xbb80ff0a	-0.003936653
2	0x3d11acc6	0.03556516
3	0x3c0f586c	0.008749109
4	0xbceb006c	-0.028686725
5	0xbbd8e050	-0.006618537
6	0xbd07c7ff	-0.033149716
7	0xbceeae8c	-0.029135965
8	0x3bfc26eb	0.007695069
9	0x3cdabea6	0.026702236
10	0x3cf3a7e4	0.029743142
11	0xbd0d8160	-0.03454721
12	0xbd1a626f	-0.03769153
13	0xbcaf26ce	-0.021380808
14	0xbd2aec67	-0.041729357
15	0xbc94f260	-0.01818198
16	0x3ca1fc4b	0.019773623
17	0xbd03384a	-0.032036103
18	0xba830a61	-0.00099976
19	0xbcbcf757	-0.02306716
20	0xbce61767	-0.028087331
21	0xbbefe2db	-0.0073207445
22	0xbc4799b9	-0.012182646
23	0x3cb474b7	0.02202831
24	0xbd10b31a	-0.035327055
25	0xbcaae417	-0.020860715
26	0x3c8b2929	0.0169874
27	0x3d040e47	0.03224018
28	0xbccf6f7f	-0.02532172
29	0xbb880134	-0.004150534
30	0xbc9005d7	-0.01758091
31	0x3c9b3876	0.018947821
32	0x3c4d531d	0.012532023
33	0x3b9e9778	0.004839834
34	0xbd192815	-0.03739174
35	0xbc5aa01d	-0.013343838
36	0xbc517cb1	-0.012786076
37	0xbc8e4b7d	-0.01736998
38	0xbcae1c3a	-0.021253694
39	0xbd136946	-0.03598907
40	0xbce65312	-0.028115783
41	0x3b6321f5	0.003465769
42	0xbd1a29c3	-0.037637483
43	0x39d8b2b3	0.00041331872
44	0xbd0467e5	-0.032325644
45	0xbd1e85bb	-0.038701754
46	0x3d19d2dd	0.03755461
47	0xbc8f443e	-0.017488595
48	0xbcadeeec	-0.02123209
49	0x3c030d2e	0.007998748
50	0xbac194bf	-0.0014769061
51	0x3c4251f0	0.011860356
52	0x3baf9165	0.0053579086
53	0xbb6a8fdf	-0.003579132
54	0xbb8ce519	-0.0042997715
55	0x3d146501	0.036229137
56	0xbbbe61e1	-0.005810008
57	0xbc886043	-0.016647464
58	0x3d29542f	0.04134005
59	0xbbc4dec3	-0.0060080006
60	0x3d29c311	0.041445795
61	0x3beb8bd8	0.0071883015
62	0x3c1960df	0.009361475
63	0x3aa75147	0.0012765311

body.block2.norm.weight f4 [64]
0	0x3fc04eb4	1.5024018
1	0x3fcd2a59	1.6028548
2	0x3fb495ce	1.4108217
3	0x3fce24ee	1.610502
4	0x3fcf8df9	1.6215202
5	0x3fbce5d9	1.4757644
6	0x3fd9e188	1.7021952
7	0x3fcee9dd	1.616512
8	0x3f9f275e	1.2433889
9	0x3fb25641	1.3932573
10	0x3fcc26ed	1.5949379
11	0x3fbec1dd	1.4902912
12	0x3fd1e69e	1.6398504
13	0x3fcff1e3	1.6245693
14	0x3fc04ad8	1.502284
15	0x3fc7b28c	1.5601363
16	0x3fc0285a	1.5012314
17	0x3fdafbfe	1.7108152
18	0x3fccdab1	1.6004239
19	0x3fae6b14	1.3626428
20	0x3fd698a1	1.6765329
21	0x3feb631e	1.8389623
22	0x3fb520da	1.415065
23	0x3fb7780e	1.4333513
24	0x3fe25b57	1.7684125
25	0x3fcaccf5	1.5843798
26	0x3fba00eb	1.453153
27	0x3fc89c79	1.5672752
28	0x3fe9b4b5	1.8258272
29	0x3fca9ac8	1.5828485
30	0x3fbca9f2	1.4739363
31	0x3fcbd243	1.5923542
32	0x3fd96488	1.6983805
33	0x3fd05e39	1.6278754
34	0x3fba4e3b	1.4555124
35	0x3fc6c80c	1.55298
36	0x3fb398f6	1.4031055
37	0x3fbbe8fb	1.4680475
38	0x3faf95a1	1.3717538
39	0x3fd3b769	1.6540347
40	0x3faf0479	1.367324
41	0x3fcbc4b2	1.5919402
42	0x3fb57954	1.4177651
43	0x3fc7fb1d	1.5623509
44	0x3fd8e91c	1.6946139
45	0x3fc38371	1.5274488
46	0x3fb69631	1.4264585
47	0x3ff11a92	1.8836234
48	0x3fc51132	1.5395873
49	0x3fc21b31	1.5164548
50	0x3fab64b0	1.3390102
51	0x3fd0ba51	1.6306859
52	0x3fb36398	1.4014769
53	0x3fa6feab	1.3046468
54	0x3fa6e658	1.3039045
55	0x3fd82d94	1.6888909
56	0x3fbb664b	1.4640592
57	0x3fcfaa43	1.6223835
58	0x3faef28c	1.366777
59	0x3fc1d988	1.514451
60	0x3fc2f592	1.5231192
61	0x3fdceee5	1.7260405
62	0x3fc88d12	1.5668051
63	0x3fb89e37	1.4423283

body.block2.norm.bias f4 [64]
0	0xbe76b3e1	-0.24092056
1	0xbf1379b1	-0.5760756
2	0xbf6e4424	-0.93072724
3	0xbe68cded	-0.22734804
4	0xbf3fb968	-0.7489228
5	0xbefbaf90	-0.4915738
6	0xbdb97444	-0.09055379
7	0xbdabfafc	-0.08397481
8	0xbf7ad7f6	-0.9798578
9	0xbf150053	-0.5820362
10	0xbe3e48bf	-0.18582438
11	0x39454520	0.00018813135
12	0xbeaa1301	-0.33217624
13	0xbe28f1bf	-0.16498469
14	0xbf09feda	-0.539045
15	0xbec49fc6	-0.38403147
16	0xbebc23c0	-0.36746025
17	0xbde74062	-0.11291577
18	0xbe966f7c	-0.2938193
19	0xbf250e6c	-0.6447513
20	0xbef7e561	-0.4841719
21	0xbf0d6f86	-0.55248296
22	0xbf00078a	-0.50011504
23	0xbf3ab6f5	-0.7293542
24	0xbf321e1f	-0.6957721
25	0xbec27a43	-0.37983903
26	0xbeb794b9	-0.35855654
27	0xbed97f4f	-0.4247994
28	0xbf07b2cd	-0.53007203
29	0xbee78b68	-0.45223546
30	0xbf0e4424	-0.55572724
31	0xbd5e6682	-0.054296978
32	0xbcfece9d	-0.03110438
33	0xbebb6777	-0.36602375
34	0xbedf9459	-0.43667868
35	0xbe6a24f4	-0.22865659
36	0xbf3b9803	-0.73278826
37	0xbeef593a	-0.46747762
38	0xbf3cf7bf	-0.7381553
39	0x3a75637c	0.00093608326
40	0xbf274753	-0.6534321
41	0xbdddad20	-0.108240366
42	0xbe16a721	-0.14712192
43	0xbf191893	-0.5980312
44	0xbf114a26	-0.56753767
45	0xbe4a01ed	-0.19727297
46	0xbed45a96	-0.41475362
47	0xbf48d0b3	-0.7844345
48	0xbe8b937c	-0.2726096
49	0xbec8cffe	-0.39221185
50	0xbf4039a4	-0.7508795
51	0xbe6aa112	-0.22913006
52	0xbf2433c3	-0.6414148
53	0xbf060e20	-0.52365303
54	0xbf44b310	-0.7683573
55	0xbf19e653	-0.6011707
56	0x3e4b18da	0.19833699
57	0xbee977fa	-0.45599347
58	0xbed199e3	-0.4093772
59	0xbe2fa678	-0.17153347
60	0xbf1a5c8c	-0.60297465
61	0xbeb52a6f	-0.35383937
62	0xbf15e47e	-0.58551776
63	0xbec32aea	-0.38118678

body.block2.norm.running_mean f4 [64]
0	0xc0237726	-2.5541472
1	0xc009d03b	-2.1533344
2	0xc089891d	-4.2979875
3	0x3fa80080	1.3125153
4	0x3ea98d0b	0.3311542
5	0xbf66104b	-0.8986861
6	0xbf743ac1	-0.9540215
7	0x3e0b39cd	0.13596268
8	0xc03307e8	-2.7973576
9	0x3ed81153	0.42200717
10	0xbf4d6a70	-0.80240536
11	0xbfea89f4	-1.832335
12	0xbc6b7734	-0.014371682
13	0xbf0f11cd	-0.55886537
14	0xc00007f4	-2.0004854
15	0x3f11b032	0.5690948
16	0x3f2ba644	0.67050576
17	0xbe7aa4dd	-0.24476953
18	0xbf48e1da	-0.7846962
19	0x3e827fe6	0.25488204
20	0xbfd83fc6	-1.6894462
21	0x3f8a2bc6	1.0794609
22	0x3d86b4d8	0.06577462
23	0xc05e0158	-3.468832
24	0xbe9e346c	-0.3089937
25	0x3f2fd816	0.68689096
26	0x3e3ee7dd	0.18643136
27	0x400ac655	2.1683552
28	0xbf48fd6a	-0.7851168
29	0xc016884f	-2.3520696
30	0x3fc1e8f4	1.5149217
31	0xbfed3e24	-1.8534589
32	0x3f1c8197	0.6113524
33	0xbe083935	-0.13303073
34	0x403f2731	2.986767
35	0xc050ac77	-3.2605264
36	0xc00ddcb5	-2.216596
37	0xbeeed673	-0.46647987
38	0xbe77619d	-0.2415833
39	0x3ed05cd5	0.40695825
40	0xbf5fe41b	-0.87457436
41	0x3a510dd9	0.0007974781
42	0x3eb04cb5	0.34433523
43	0xbfac0877	-1.3440083
44	0x3ff0adab	1.8802999
45	0x3f9e707b	1.2378076
46	0x3f7bbd31	0.9833556
47	0x3e135662	0.14388421
48	0xbec90876	-0.39264268
49	0xbf383209	-0.7195135
50	0xbed15428	-0.4088452
51	0x3f8f4ace	1.1194704
52	0x402c782c	2.6948347
53	0xbfe19aba	-1.7625344
54	0x401fef11	2.4989665
55	0xbf724fac	-0.9465282
56	0x3fb52955	1.4153239
57	0x3f76a7d2	0.96349823
58	0x3fc58797	1.5432004
59	0x3de61008	0.112335265
60	0xc00713e5	-2.1105893
61	0x3d99f2c1	0.07517005
62	0xbf88f940	-1.0701065
63	0x3fdbea8b	1.7180952

body.block2.norm.running_var f4 [64]
0	0x40da5ce5	6.8238397
1	0x409c2faf	4.8808208
2	0x40b845ad	5.7585053
3	0x40b15ca5	5.542559
4	0x40c7ca27	6.243427
5	0x40aa08bb	5.3135657
6	0x40bb5060	5.8535614
7	0x40d350ba	6.6036043
8	0x412d3677	10.825797
9	0x40fdeca1	7.9351354
10	0x40c204e6	6.063098
11	0x410aa7b9	8.665948
12	0x40ad214a	5.4103136
13	0x41017a30	8.092331
14	0x40cd63b0	6.418419
15	0x40a25b01	5.073609
16	0x40fc30b5	7.8809457
17	0x40a38d83	5.1110244
18	0x4087485a	4.227582
19	0x410696ae	8.411787
20	0x40c865e5	6.2624383
21	0x40a112a4	5.0335255
22	0x40dc2d0b	6.8804984
23	0x4092a909	4.583134
24	0x4104eb5f	8.307464
25	0x40af0fff	5.4707026
26	0x40cb5151	6.3536763
27	0x40d586d2	6.6727076
28	0x40da8637	6.8288836
29	0x40e7b936	7.2413588
30	0x40ea9dd2	7.331765
31	0x40c5f4a1	6.186112
32	0x410a6529	8.649697
33	0x40bd267a	5.910947
34	0x410f48be	8.955259
35	0x409def16	4.9354353
36	0x40dbfe7c	6.874815
37	0x40e327f1	7.0986257
38	0x4111b171	9.105821
39	0x40d2984c	6.581091
40	0x40c9945f	6.2993617
41	0x40e0ac15	7.021006
42	0x40c2a7b2	6.0829706
43	0x4097807c	4.734434
44	0x41099be8	8.600563
45	0x40b2ee97	5.5916247
46	0x40c7d877	6.245174
47	0x408742e0	4.2269135
48	0x40ede625	7.434344
49	0x41036d08	8.214119
50	0x410d87b6	8.845633
51	0x40d1f092	6.5606165
52	0x41313311	11.074967
53	0x41075b34	8.459766
54	0x4132297d	11.135129
55	0x40b5415e	5.6642294
56	0x411435fb	9.263179
57	0x40b3c7fe	5.618163
58	0x40c3984b	6.1123405
59	0x411903f5	9.563466
60	0x40ab4804	5.352541
61	0x40a7e90a	5.247197
62	0x40a53680	5.162903
63	0x40d10e52	6.532998
