trained_models/sinGan/mountains/scale_factor=0.750000,alpha=10/2/netD.pth (torch_old, 122821 bytes, 25 tensors)

head.conv.weight f4 [32, 3, 3, 3]
000000 3a 22 2c 3d 4a 7d 33 3c 99 86 b0 3d 53 da 0b bd
       0.04202483 0.010955164 0.086194225 -0.034143757
000010 23 92 f6 3c 65 9a 0e bb b7 04 ea bd 4a d0 38 bd
       0.03009898 -0.0021759507 -0.114266805 -0.045120515
000020 ac fd e1 bd e2 32 57 3d e7 74 f9 3c 0b 27 af 3d
       -0.11034712 0.05253876 0.030451251 0.08552369
000030 f8 ba 93 bb a3 d9 fe 3c a7 9a 0a 3c fa 35 87 bd
       -0.0045083724 0.031109637 0.008459724 -0.06602092
000040 21 81 bf bc 5f da 8c bd 7a 53 c6 3d 53 f6 3d 3d
       -0.023377003 -0.068775885 0.09683891 0.04637749
000050 08 8f b7 3d 58 9d 12 3d 6f a4 22 3d b3 5e e0 3c
       0.08962828 0.035794586 0.039707597 0.027388906
000060 99 76 92 bd 73 79 0f bd 0e d0 34 bd 1d 3f a8 bd
       -0.07151527 -0.035027932 -0.04414373 -0.08215163
000070 2a 0b 7d 3c 38 b9 be bd fd 05 99 bc 13 65 48 3d
       0.015444556 -0.093126714 -0.018679613 0.048924517
000080 9b 83 1f 3d d2 27 42 3d 2b ad 69 3d b1 ea 1e 3b
       0.038943868 0.047401257 0.05704991 0.0024248774
000090 12 99 c5 bd 2b f7 90 3c 3e 31 48 be 92 c1 5e bd
       -0.096483365 0.017695984 -0.19550034 -0.05438382
0000a0 ee 03 ba 3c bb 09 e9 bc 76 98 32 bd 0d 10 0f b8
       0.022706952 -0.028447023 -0.04360243 -3.4108805e-05
0000b0 df fe c7 bd 81 dc ea ba fc 34 38 3d 8c a1 71 bd
       -0.0976541 -0.0017918498 0.044972405 -0.058991954
0000c0 51 e2 1c bc 9b 31 ed b8 c6 de 54 3c c9 b6 ab bc
       -0.009575442 -0.000113102804 0.012992566 -0.020961182
0000d0 50 e3 09 3d 63 25 9f bd 34 bc 5a 3b 7a 7c 3a bc
       0.033664048 -0.07770803 0.0033376338 -0.011382217
0000e0 bc f7 2e 3d 68 c9 23 3c 51 02 f1 3a 74 00 be 3b
       0.042716727 0.009996749 0.0018387531 0.005798394
0000f0 ad 4e 81 bc b4 36 0e bd e1 42 81 3b 99 b8 19 3d
       -0.015784586 -0.034720138 0.00394474 0.03752956
000100 f9 52 25 bc fa ae 61 3d b7 b0 dc 3a e0 dc 9a bc
       -0.010090583 0.05509851 0.0016837333 -0.01890415
000110 d9 17 92 3c 08 18 29 3c 65 be 69 39 d9 2c e1 3d
       0.017833637 0.010320671 0.00022291539 0.10994882
000120 57 17 c9 3d 31 4f 21 3d 39 f7 1e 3d de fa 86 3c
       0.09818905 0.039382163 0.03880999 0.016477045
000130 c3 1d 9e bc a3 e4 97 bb 4f a5 1c 3d e8 e9 ed 3c
       -0.0193013 -0.00463541 0.038243588 0.0290422
000140 d0 ad 6e 3e 6d 73 39 bd 1f f0 bd 3c e9 71 23 3e
       0.23308492 -0.045276094 0.023185788 0.15961422
000150 03 23 8d bd 4c d9 f6 bc 2f 46 87 3d 13 2a e3 bd
       -0.068914436 -0.030132912 0.06605183 -0.110920094
000160 89 54 4f bc a7 b8 83 3d ad 98 c7 bc c3 49 a2 3c
       -0.012654432 0.06431704 -0.024364794 0.019810563
000170 d5 d5 93 3d 4c cb 82 bd 47 dd a8 bc 6f 50 8c 3d
       0.072185196 -0.06386432 -0.020613326 0.06851279
000180 6a 09 4d bd aa b8 15 3c 4a f4 c0 3d 7b c9 fd bc
       -0.050057806 0.009138266 0.094215944 -0.030979862
000190 e2 82 1c bc 7e 7f 96 3a 7d 91 7f bd 75 59 fc 3a
       -0.009552689 0.0011482087 -0.062394608 0.0019252734
0001a0 9c 96 6f 3d c7 65 7b bc f7 b5 0f 3d 55 3a b5 3d
       0.05849324 -0.01534409 0.035085645 0.088490166
0001b0 34 b8 22 be 7a 55 9e bc d0 d4 9e bd d6 96 81 bd
       -0.1589058 -0.019327868 -0.077554345 -0.06327598
0001c0 28 cc 39 3b 13 24 e1 39 6d 3b 4d bd 1f 4a 2f ba
       0.0028350446 0.00042942222 -0.0501055 -0.0006686765
0001d0 ea 8a 81 bd 40 ac 39 bd 84 d2 b1 3c 3a 1e db bd
       -0.06325324 -0.045330286 0.021706827 -0.10699125
0001e0 15 1b b0 bc 31 78 25 bc 1a 33 9f bc 31 23 84 bd
       -0.021497289 -0.010099457 -0.019433547 -0.06452025
0001f0 d2 4e 1b 3a 80 9a 02 3c d0 74 a9 3d d0 f1 f8 3c
       0.0005924526 0.007971406 0.08274233 0.030388743
000200 5a 24 1f be 0c de b5 3d 4b 5f 44 3c e1 b3 4c bd
       -0.15541211 0.08880243 0.01198561 -0.049976233
000210 df cd 98 bd ab 72 51 3b a6 59 ba 3b a3 56 ca bd
       -0.07461142 0.0031959217 0.0056869565 -0.09879806
000220 1f 12 2f bd f2 f5 43 bc 4b 48 5b bc c5 43 6c 3c
       -0.04274189 -0.011960493 -0.013383935 0.014420454
000230 76 46 c3 3d 35 93 29 3c b6 c4 61 3d 55 60 53 3e
       0.09534924 0.010350038 0.05511924 0.20642217
000240 72 eb ad bd 71 7d 05 bd 02 34 a9 bc d6 1d 0b bd
       -0.08492173 -0.032590333 -0.020654682 -0.033964
000250 ee c6 a2 bb 7b 9c 6f 3d c3 74 06 bd f0 9a 17 3c
       -0.004967562 0.05849884 -0.032826196 0.009253249
000260 61 fc bd 3d 17 63 a7 bd ad bf dc bc 87 c3 e1 bc
       0.09276653 -0.08173197 -0.026946867 -0.027559055
000270 9c 85 9c bc ca 6e 0a 3c e3 e4 5d 3c d7 75 54 bd
       -0.019106679 0.008449266 0.01354334 -0.051870193
000280 95 22 77 bc 0f 61 0b bc cf 8c 07 bd 01 46 0f 3b
       -0.015083929 -0.008507027 -0.03309327 0.0021861794
000290 5a d9 ea 3c f5 e3 ec 3b 5a 24 06 bc 3e df 1e 3d
       0.028668094 0.007229323 -0.008187378 0.03878712
0002a0 d7 94 93 bc cc 28 16 3c 80 4b 4c 3d f1 6f 52 3d
       -0.018015308 0.009165 0.04987669 0.051376287
0002b0 ca c3 1f 3d 91 3d fb 3c 8c 94 a2 3b 45 d9 df bb
       0.03900508 0.030669006 0.004961556 -0.0068313205
0002c0 75 24 29 bc 9d 04 5e bd ff f1 ae ba 28 71 73 bd
       -0.010323633 -0.05420362 -0.0013347267 -0.059434086
0002d0 e0 3c e6 3d fa 2d ab 3d 58 c5 46 3d 9c fa 34 3c
       0.1124208 0.08358379 0.048528045 0.011046078
0002e0 52 44 07 ba ba 64 a2 bd 56 42 aa bd ff 3f 46 bd
       -0.0005160022 -0.07929368 -0.08313434 -0.048400875
0002f0 65 d7 0d be 82 8e 78 3e 14 f8 13 3d d1 d9 2c 3e
       -0.13851698 0.24273112 0.036125258 0.16879965
000300 1d 82 04 3e 0d 52 8e bd f4 d9 ae 3b 31 da 03 3e
       0.1294026 -0.06949244 0.0053360406 0.12876202
000310 61 8d b4 3c 3a 31 a5 3d b2 01 a9 3c bf 26 b7 bc
       0.022040071 0.0806603 0.020630691 -0.022357343
000320 c3 cf b9 3d 79 25 1a 3c d5 e3 82 bc 7f 3a 92 3c
       0.090728305 0.009408348 -0.01597778 0.017850159
000330 47 1b 2a 3d 84 b0 90 3b 7a 31 92 3c 56 de 16 bd
       0.04152992 0.0044155736 0.017845858 -0.03683313
000340 af 07 4e bd 01 47 8b 3d f3 94 07 bd 90 40 6b bc
       -0.050300296 0.06800652 -0.033101033 -0.014358655
000350 6f cb 9d 3c 49 cc 29 3d 04 e1 0f 3c 67 05 1a 3c
       0.019262044 0.041454587 0.008781675 0.009400702
000360 ef f5 27 bd 22 21 9e 3b e2 a4 9d 3b 6e ff f3 bc
       -0.041006025 0.004825727 0.0048109153 -0.029784884
000370 69 3a 40 3c 6c 80 3b bc af 08 60 3d 06 7a 70 bc
       0.011732676 -0.011444192 0.05469578 -0.01467753
000380 46 7c 88 bd 2c 07 80 3c 2f 82 94 3c 6a 79 d9 3c
       -0.06664328 0.01562842 0.018128483 0.026547153
000390 7f 7b 6d 3d 12 1b 99 3a a8 3e 27 bd f0 4f 07 3e
       0.057979103 0.0011681041 -0.040831238 0.13214087
0003a0 0d c7 00 bd c3 bd 97 bd 95 90 ae 3d 49 39 3a 3c
       -0.03143983 -0.07409241 0.085236706 0.011366197
0003b0 46 d9 26 3d bc 30 fb 3d 07 42 c6 bc 7a ae 89 bd
       0.04073455 0.12265155 -0.024201406 -0.06722732
0003c0 fc ee 19 3e da 7a 38 bd 74 63 d6 bd 34 fe 3f bd
       0.15032572 -0.045039035 -0.10468188 -0.046873286
0003d0 50 25 59 bc 77 b2 b1 3b 43 7b a0 bd 36 78 11 bc
       -0.013253525 0.005422886 -0.0783601 -0.008878758
0003e0 41 a5 ab 3d 3c 96 04 bd 2e 5e 06 bb 73 00 45 3d
       0.08381129 -0.032369837 -0.0020502913 0.04809613
0003f0 f2 02 dd ba 33 64 2e 3d de fd 81 bb 5a 62 ba bb
       -0.001686184 0.042576026 -0.003967031 -0.005687994

head.conv.bias f4 [32]
000000 06 45 90 3e 2c f8 43 be 4b 70 dd bd 31 7f 17 bf
       0.2817766 -0.19137639 -0.10812434 -0.59178454
000010 df e0 8f 3c f7 2f a0 3e 0a 94 fb be 9b b7 15 3e
       0.017563282 0.31286594 -0.49136382 0.14620821
000020 29 4c c1 3e 0c ce e3 bd 94 c3 92 3e d2 58 b0 3e
       0.37753418 -0.11123285 0.2866484 0.34442765
000030 69 7b 88 bb b2 c0 3b 3d dc 83 c0 3e e5 e0 96 bd
       -0.0041651023 0.045838065 0.376006 -0.07367114
000040 60 ad 15 be 84 c0 52 3f 0a 1c ea 3c d5 8c d7 3e
       -0.14616919 0.82325006 0.028577823 0.42099634
000050 2f 5f 77 bd 5a 91 18 3f 8f f0 5f bd b7 51 25 3f
       -0.06039351 0.5959679 -0.054672774 0.6457781
000060 10 4f a4 3e 0f 3b f8 ba 01 b5 bf bd b7 af f8 3c
       0.3209157 -0.0018938499 -0.09360696 0.030357225
000070 3a 4f 57 be 3e b9 32 be 84 17 0b bf c3 33 41 3f
       -0.21026316 -0.17453477 -0.54332757 0.7546961

head.norm.weight f4 [32]
000000 02 07 5e 3f b4 d4 75 3f 75 55 8f 3f 5a ba 61 3f
       0.86729443 0.96027684 1.1197954 0.88174975
000010 bf 66 7c 3f 56 e8 61 3f 55 c7 59 3f a7 28 81 3f
       0.9859428 0.8824514 0.8506978 1.0090531
000020 32 b3 5e 3f c1 c7 6f 3f 99 c3 7d 3f f5 15 75 3f
       0.8699218 0.93664175 0.99126583 0.9573663
000030 fd 16 89 3f a6 05 4d 3f 24 e6 73 3f d4 45 71 3f
       1.071014 0.80086744 0.9527304 0.94247174
000040 5e c5 33 3f 83 7d 1b 3f d5 62 69 3f a7 97 90 3f
       0.70223033 0.6073839 0.9116643 1.1296281
000050 ee b1 2a 3f 58 3f 66 3f 0a cb 50 3f 33 76 5e 3f
       0.6667775 0.89940405 0.81559813 0.8689911
000060 8f bc 5d 3f 69 64 79 3f dd fa 33 3f 20 44 5a 3f
       0.8661584 0.9741884 0.7030466 0.852602
000070 0f 79 70 3f 78 33 8d 3f c1 31 84 3f 9d 6e 40 3f
       0.9393472 1.1031332 1.0327684 0.7516878

head.norm.bias f4 [32]
000000 75 d4 56 3f 70 39 b4 3d 40 1b 6a 3e 5c 0d c9 3e
       0.83917934 0.08800018 0.22861958 0.39268005
000010 33 18 d9 3d d9 de 1c 3f b1 4b bc 3e 2c 19 04 3f
       0.10600319 0.6127754 0.36776498 0.5160091
000020 b7 2a ca 3e 96 6d 8a 3e 8a fc ae 3d e8 84 01 3c
       0.39485714 0.27036732 0.08544262 0.0079052225
000030 19 a9 2c 3f 47 7e 91 3e 36 bb 7a 3e 59 83 c2 3e
       0.6744552 0.28416654 0.24485478 0.37990835
000040 79 e5 aa 3e bf d8 86 3f bf 96 59 3d c3 4a 2b 3e
       0.333782 1.0534896 0.05312228 0.16727738
000050 69 2a 70 3f 20 49 c1 3e 33 95 ef 3d 11 57 21 3f
       0.9381471 0.37751102 0.11698379 0.6302348
000060 15 c8 ee 3e 46 21 c0 3e 32 3f 55 3f b1 5b 3f 3f
       0.46637025 0.37525386 0.83299553 0.74749285
000070 f8 96 49 3e 89 bf 85 3e 21 50 70 be 79 5a e9 3d
       0.19686496 0.26122692 -0.23468067 0.113942094

head.norm.running_mean f4 [32]
000000 76 3f 96 3e 27 13 13 be 18 a7 52 be 6d 5d 20 bf
       0.29345292 -0.14362775 -0.20571554 -0.62642556
000010 15 51 d5 3d 84 94 9c 3e a7 5c eb be 89 5f ea 3c
       0.10415856 0.30582058 -0.45969126 0.028610008
000020 2b 6f bb 3e d7 a4 13 bd 86 a0 c7 3e 5c 21 cb 3e
       0.36608252 -0.036045875 0.38989657 0.3967389
000030 f4 6e a9 bd 33 8c 04 3d b1 24 dc 3e 81 14 60 bc
       -0.08273116 0.032360267 0.42996743 -0.0136767635
000040 42 f8 1e be db 91 57 3f 81 01 a5 3d 64 17 c6 3e
       -0.1552439 0.8420693 0.080569275 0.3868972
000050 e5 dc 7c bd 11 f2 1e 3f f5 2a da 3b d0 2c 2f 3f
       -0.0617341 0.62088114 0.006657953 0.68427753
000060 21 5e c0 3e 01 27 9d bd 7c 8b 98 bd b9 0b 25 3b
       0.37571815 -0.07673455 -0.074484795 0.002518399
000070 f1 86 09 be f2 f5 83 be 29 e1 11 bf d5 a6 43 3f
       -0.13430382 -0.2577358 -0.5698419 0.7642644

head.norm.running_var f4 [32]
000000 6c 34 f6 3c 0f 70 60 3d f1 50 e3 3d c2 47 5e 3c
       0.030054294 0.054794367 0.11099423 0.013566913
000010 25 fc 85 3d ba a2 9d 3c a9 b1 32 3c 0c f1 b9 3d
       0.065422334 0.019242633 0.010906615 0.09079179
000020 af cd 88 3c 9e e4 81 3d 9d 09 aa 3d 10 95 72 3d
       0.01669964 0.063424334 0.08302615 0.05922419
000030 8a 73 48 3d 16 34 0d 3c 68 81 d6 3c c2 51 46 3d
       0.04893831 0.008618375 0.026184753 0.048417814
000040 e8 38 a1 3b c3 0c 56 3c 2b 04 30 3d 8f a1 41 3d
       0.004920114 0.013064566 0.042972725 0.047273215
000050 ed 2e 45 3c 2d 39 ad 3c 75 42 f8 3c 05 ce 32 3d
       0.012035114 0.021145428 0.030305127 0.043653507
000060 54 a1 1d 3d 90 68 9e 3d b8 b0 11 3c af 86 44 3c
       0.038483933 0.077347875 0.008892231 0.011995002
000070 6b 9d 9d 3d 37 92 b6 3d 17 a6 a8 3c 0a b2 90 3b
       0.07696041 0.08914607 0.02058701 0.004415755

body.block1.conv.weight f4 [32, 32, 3, 3]
000000 c7 30 2c bd 4c af 79 bd d6 9f f4 bd 76 95 55 bd
       -0.042038705 -0.06095819 -0.11944549 -0.05214449
000010 18 a0 5c bc aa 95 d9 bd 84 25 84 bc 54 cf 35 3d
       -0.013465904 -0.10624249 -0.01613117 0.044387177
000020 2a 29 a2 3c 3e d8 0b 3c 43 80 d4 3c e6 b4 d6 3c
       0.01979502 0.008535443 0.025940066 0.026209306
000030 e7 66 de bd 14 62 88 bb b0 32 33 bc 26 e1 dc bd
       -0.10859471 -0.0041620824 -0.010937378 -0.10785131
000040 52 cc 25 bb 34 3b dd 3b 2e e4 0b 3d f2 bd 81 3d
       -0.0025298786 0.0067514423 0.034153156 0.06335057
000050 15 aa b7 3d c8 1c cf bd 49 4b ce bd 4d 7a f1 bd
       0.089679874 -0.101129115 -0.10072953 -0.11790905
000060 44 78 0a be 93 23 1c be 9d 3a 99 be ca 72 3a 3c
       -0.1352244 -0.15247945 -0.2992753 0.011379907
000070 ed 44 38 3c 28 83 05 bc b0 4d 88 bd 8f a8 b7 3c
       0.011246902 -0.008148946 -0.06655443 0.022419242
000080 c5 ff a6 3d af d4 43 be ad 3c 2e bd e9 76 15 bd
       0.08154253 -0.19124101 -0.042538334 -0.036490355
000090 14 38 ec bd c2 37 b1 bd 0a 54 81 bd a8 d3 e6 bd
       -0.115341336 -0.08653213 -0.06314857 -0.11270839
0000a0 ae d1 5f bd 50 7d 5b bd 05 91 46 bd ec e1 cc bb
       -0.054643326 -0.053586304 -0.048478145 -0.006252518
0000b0 fe 1e 95 3c b5 79 30 3d 54 54 81 39 2d 3e fe 3b
       0.018203255 0.04308482 0.00024667627 0.007758877
0000c0 b1 57 65 bd 9b 09 4c bd 7c 7f 20 3c 9e c0 20 3d
       -0.055991832 -0.049813848 0.00979602 0.039246194
0000d0 fc 4f 88 bd f0 5b 16 be db f6 44 3b f5 bd e1 3c
       -0.06655881 -0.14683509 0.0030054364 0.027556399
0000e0 47 3f 03 3c 96 b5 81 bd e9 26 7b bb f6 b8 8b bd
       0.008010692 -0.06333463 -0.0038322753 -0.06822388
0000f0 50 a9 88 bc 0f 83 71 3c 36 e8 45 3d fb e8 0c 3d
       -0.016682297 0.014740719 0.048317157 0.034401875
000100 6c bc 1f bb cd 13 e9 bc c8 9d 39 3d 08 e9 13 3b
       -0.0024373783 -0.028451825 0.045316488 0.0022569317
000110 17 32 94 bc 3b b0 81 3d 30 a1 16 3c 63 f4 ad 3c
       -0.018090291 0.063324414 0.0091937035 0.021234697
000120 11 30 a5 3a 1a 7d 90 bc ff b5 80 bd 1a bc 88 3c
       0.0012602826 -0.017637778 -0.06284713 0.016691256
000130 c5 b1 00 bd b8 52 3f 3d fa 01 23 3d ce 26 34 bc
       -0.031419534 0.046709746 0.039796807 -0.01099558
000140 76 81 02 3d 42 fd b7 bc 07 a3 84 bd 96 45 d2 3b
       0.031861745 -0.02245963 -0.064764075 0.0064169867
000150 07 01 6a bd 9e 2c 01 bd f1 a8 71 bd 27 5f 6f bd
       -0.057129886 -0.03153669 -0.058999006 -0.058440354
000160 7d 76 a1 bd 37 e3 bd 3c a4 0a 97 3b 42 ca 05 3c
       -0.07883928 0.023179634 0.0046094228 0.008165898
000170 8d dc bf 3c d3 86 9d 3d 40 05 10 3d e5 67 2c 3d
       0.023420596 0.07691731 0.035161257 0.04209127
000180 c1 df 8b bd 72 2b 55 bb 59 a7 b7 3d d3 b8 33 be
       -0.06829787 -0.0032527116 0.08967466 -0.17550974
000190 09 01 f4 bc c7 c1 a2 bc 81 f3 9c bd 6c 37 29 3d
       -0.02978565 -0.01986779 -0.07663632 0.04131262
0001a0 7b b3 67 3d 23 ac d3 bb bf 1c 50 3d 68 6d 24 3c
       0.05656765 -0.0064597293 0.050808664 0.01003585
0001b0 89 0d 5a 3c 44 16 b6 bb e5 8b 13 3d b5 9e 3f bc
       0.013308891 -0.0055568535 0.036022086 -0.011695554
0001c0 08 62 c5 bb 56 00 05 3d a8 7c 72 3d dc 6e ae 3c
       -0.006023649 0.032471023 0.059200913 0.021293096
0001d0 3a 55 5e bd 97 78 0a bd ae 82 ec 3c ea 38 53 bd
       -0.054280497 -0.03380641 0.028870907 -0.05156795
0001e0 77 fb 8f bd e1 f0 0f bd a3 86 a1 3d 39 dc 97 3c
       -0.07030385 -0.03514183 0.07887008 0.018537628
0001f0 28 21 31 bc 9a 7c 13 3d b6 4c f6 bd e1 0f e9 bc
       -0.010811128 0.0360075 -0.1202635 -0.028449954
000200 2c d0 ac 3d cb 45 59 bd 5e 22 63 3d 7d 30 63 3d
       0.08438143 -0.053045075 0.055452697 0.055466164
000210 8b 5d 32 bd 0b 59 b1 3c e6 3a 9c 3d a2 a1 8c bd
       -0.04354624 0.021648904 0.076284215 -0.068667665
000220 8c 88 86 bc 9c 54 ca bc d6 a5 f9 39 f4 c1 df 3c
       -0.016422532 -0.024698548 0.00047616538 0.027314164
000230 0b a2 c6 bb a4 4f 9c bd 6f e2 46 bd 63 cb fa bc
       -0.0060617975 -0.07632378 -0.048555788 -0.03061456
000240 0b 39 76 bd 77 98 29 3c 43 54 08 3d a7 db ae bd
       -0.060112994 0.010351292 0.033283483 -0.08537989
000250 2c 0e b6 b9 5f 37 28 bd a6 07 48 bd 1a 7f 14 3d
       -0.00034724304 -0.04106843 -0.04883542 0.036254026
000260 72 59 44 3c a9 b9 98 3d 47 b7 19 3e 21 68 5e 3d
       0.011984216 0.07457287 0.15011321 0.054298524
000270 74 88 59 3d 89 c1 41 3d 71 cf 89 b9 68 f4 bb bc
       0.053108647 0.04730371 -0.00026285232 -0.02294369
000280 72 5d c6 3c 02 bf 9f 3d ba 1c 8a 3d c5 22 0e 3d
       0.02421448 0.07800104 0.067437604 0.034701128
000290 06 7c 27 3d f4 0f 4b bc d5 6b 84 3d 34 5c 33 3d
       0.040889762 -0.01239394 0.0646588 0.043789104
0002a0 8d 64 89 bd 96 6a a8 bc 51 d5 a7 3d 9c 44 16 3d
       -0.06708632 -0.020558637 0.08194984 0.036686525
0002b0 6e 36 2e 3d 74 50 b8 bc e2 a1 08 be 0a 33 11 bd
       0.042532377 -0.0224993 -0.13343003 -0.035449065
0002c0 f7 a8 36 bd 65 04 16 be d7 b1 52 bd ab ea 20 be
       -0.04459473 -0.14650114 -0.051439133 -0.15714519
0002d0 9a e6 0b bd 91 e8 40 bc f3 1b 1f 3c 7c 58 22 be
       -0.034155466 -0.011774198 0.009711253 -0.15854067
0002e0 3c 92 d6 bd 74 44 4a bd 7e 10 37 bd 11 2b b0 3a
       -0.10477111 -0.04938169 -0.044693463 0.0013440569
0002f0 fd f0 1b 3e e8 a7 61 bb 9a 3b a1 bb 0d 16 02 be
       0.15228648 -0.0034432355 -0.004920435 -0.12703724
000300 5f d0 84 3c 80 e2 11 bb 60 68 69 bd 4a 35 b6 3d
       0.01621264 -0.0022260249 -0.056984305 0.08896883
000310 4f d5 97 3d 8a c2 08 3d 51 3e 41 bd 9d 6d 73 bd
       0.07413732 0.033388652 -0.04717857 -0.059430707
000320 20 db bd bc 35 c1 df bd d7 f5 0b 3c 3c 1e 81 3c
       -0.023175776 -0.10925523 0.0085424995 0.015761487
000330 f7 75 10 be d3 1f 19 bd 78 d2 87 3d ca b8 86 bc
       -0.141075 -0.037383866 0.066319406 -0.016445536
000340 97 0b 10 bd ed 9d 62 3c 44 20 9e 3d 50 8b e0 3c
       -0.035167303 0.013831598 0.07720998 0.02741018
000350 e7 00 5d 3d d6 38 0d bd ba ed 05 3d 16 ac 5c 3d
       0.05395594 -0.03447803 0.032697417 0.05387505
000360 2d cd 2f be 99 a3 a0 bd ff 22 9e bd 6b 2d 22 3b
       -0.17168112 -0.07843704 -0.07721519 0.002474631
000370 b0 7f 98 3d 52 5d 0d 3d b8 31 14 be 41 b3 a2 bc
       0.074462295 0.034512825 -0.14472091 -0.019860866
000380 75 3e b0 3d 85 1b 30 bc ec 2f 36 bd b0 ae d6 bd
       0.08605663 -0.010748749 -0.044479296 -0.10482538
000390 11 8f 0f bd 20 bc b7 bc f4 8d 8c bd 17 3a f7 3d
       -0.035048548 -0.022428572 -0.06863013 0.12071627
0003a0 df ec eb 3d 3f d9 af 3d 39 3b 99 3b a6 5b af bc
       0.11519789 0.08586358 0.0046762493 -0.021406006
0003b0 b9 de 4a bd d0 c9 62 3d 4e cc 63 bd bc 51 3d 3c
       -0.04952881 0.055368245 -0.055614762 0.0115551315
0003c0 c9 8e 71 bd 32 a3 cc bc 34 f2 d0 3d cc 53 50 3c
       -0.05897406 -0.024980161 0.102024466 0.012715291
0003d0 25 a3 98 bc 4b f0 1d bd fc 27 21 ba 10 9e 67 3c
       -0.01863248 -0.03855924 -0.0006147621 0.014136806
0003e0 0a c8 1c 3b 54 c6 26 bc 76 e1 2c 3d 86 f2 b5 3c
       0.0023922944 -0.010179121 0.042207204 0.02221037
0003f0 5c 99 63 39 4c 4d 3a 3c 27 9e 18 bd 4e 10 e9 3c
       0.00021705538 0.011370968 -0.0372602 0.028450157

body.block1.conv.bias f4 [32]
000000 b8 03 5c 3d 1d aa 10 3c 17 3e 57 3d 02 28 d9 3d
       0.053714484 0.008829621 0.052549448 0.10603334
000010 ac 7d cb 3c 65 3f 42 bc da 03 f4 3d f0 d2 94 3b
       0.024840198 -0.011855935 0.11914797 0.0045417473
000020 fc 3a ff 3c b5 8e 9e 3d 47 f6 36 3e 38 6e 18 bc
       0.031156056 0.07742063 0.17867385 -0.009303622
000030 aa b8 1c 3d f5 0a 7e ba cf 43 2a bd 0b ca 56 3d
       0.038262047 -0.0009690964 -0.041568574 0.052438777
000040 58 ca aa 3d da 62 3b 3d f8 e8 07 bd 6e 43 59 bd
       0.08339375 0.04574857 -0.03318116 -0.05304282
000050 9e 08 0d 3e b6 52 10 bd 6b 69 d2 bc f9 85 81 bd
       0.13772818 -0.03523513 -0.025685033 -0.063243814
000060 77 53 54 bc 7d f4 ce bc ef c1 95 3d f0 e9 24 3c
       -0.012959353 -0.025263065 0.073123805 0.010065541
000070 2d b0 da 3d 55 00 3e 3c 0d c0 91 3c bc 6e 05 3d
       0.10678134 0.011596759 0.017791772 0.032576308

body.block1.norm.weight f4 [32]
000000 66 7f 42 3f a2 46 75 3f 55 d9 6a 3f e7 b9 28 3f
       0.75975645 0.958109 0.9173787 0.65908664
000010 d5 1c 57 3f a9 ff 4c 3f 2c f8 4b 3f b9 cb 8c 3f
       0.8402837 0.80077606 0.79675555 1.0999671
000020 ad bc 40 3f 71 7b 73 3f ff 9b 53 3f f3 ee 7f 3f
       0.75287896 0.9511023 0.82659906 0.9997398
000030 49 b7 5d 3f 41 9f 7a 3f 04 09 f5 3e 7a e4 3b 3f
       0.86607796 0.9789925 0.4785844 0.733955
000040 2b 6b 47 3f 56 9b 3e 3f 88 88 7b 3f 6c 56 26 3f
       0.778979 0.74455774 0.98255205 0.6497562
000050 ff 29 8f 3f 1a f6 68 3f 91 2a 2d 3f d3 f0 6f 3f
       1.1184691 0.9100052 0.67643076 0.93726844
000060 df d2 46 3f d6 09 63 3f 72 62 89 3f e1 14 89 3f
       0.77665514 0.88686883 1.0733168 1.0709497
000070 79 d1 71 3f ee 17 61 3f 2f 23 30 3f bc 4a 79 3f
       0.94460255 0.8792714 0.68803686 0.9737966

body.block1.norm.bias f4 [32]
000000 cf b6 e0 3e 80 fb 80 3e 36 7c 97 3e c8 fc 23 3f
       0.43889472 0.2519188 0.29586953 0.6405759
000010 df ab 03 3f 91 6a 40 3f 6d 22 2f 3f 9c 56 c9 bd
       0.5143413 0.7516261 0.68411905 -0.098309726
000020 27 7b 41 3f 90 41 cc 3e 3c 9b 38 3f eb 64 1f 3e
       0.7557854 0.3989377 0.7211187 0.15565841
000030 96 9e 11 3f bf ce 65 bd 7b 35 bb 3f 6a eb 3a 3f
       0.5688261 -0.05610537 1.4625696 0.73015463
000040 a7 46 5d 3f 65 4f 60 3f 31 22 a9 3c 7b 0a 55 3f
       0.8643593 0.87621146 0.020646187 0.83219117
000050 73 ae d1 3d ee e9 57 3f ce 74 8f 3e 77 ad ac 3e
       0.10238352 0.84341323 0.28018802 0.33726093
000060 0e b0 44 3f 28 b0 26 3f 65 72 d1 3e 97 51 c6 3e
       0.7683114 0.65112543 0.4090759 0.38734123
000070 9e 23 25 3f 22 2e 11 3f 43 52 0e 3f 40 70 e6 3e
       0.6450747 0.5671102 0.5559427 0.45007515

body.block1.norm.running_mean f4 [32]
000000 16 17 8f bf 51 71 b8 3e 86 db ed 3f 2d 70 f6 3f
       -1.117892 0.36023954 1.8582618 1.9252983
000010 a6 af 3f 40 ea f6 1e c0 95 49 9e 3f 34 4b f4 bf
       2.9950957 -2.4838204 1.2366205 -1.908545
000020 04 01 3a bf ab 7b f3 3f 62 08 7d bf e7 3a b1 bf
       -0.726578 1.9022115 -0.98840916 -1.38461
000030 e6 ae f4 3f f5 03 7b c0 d2 0f 75 bf 94 70 8a 3f
       1.9115875 -3.9221165 -0.95727265 1.0815606
000040 e6 ab c3 bf 9b 1c e6 3c e4 e1 57 bf 18 12 f5 3e
       -1.5286834 0.028089812 -0.84329057 0.47865367
000050 6d 4b de 3f b9 2b 37 c0 61 3f c3 bf 91 89 18 3f
       1.7366768 -2.8620436 -1.5253717 0.5958491
000060 06 48 f6 be 53 46 9a be 18 42 0d c0 53 02 42 c0
       -0.48101825 -0.30131778 -2.207159 -3.0313919
000070 29 4d 28 c0 04 ee 43 3f 84 8a aa 3f e3 19 61 3b
       -2.6297095 0.7653506 1.3323522 0.0034347705

body.block1.norm.running_var f4 [32]
000000 cf 64 a3 3e a8 c8 29 3f b8 99 b0 3f e1 a0 01 3f
       0.31912848 0.663218 1.3796911 0.50636107
000010 2a 82 0a 3f 87 b6 c5 3f 5f 93 a8 3f b3 c8 47 3f
       0.54104865 1.5446328 1.3169974 0.7804062
000020 88 50 29 3f 22 77 2f 3f 74 cd 92 3f 12 ab 5f 3f
       0.66138506 0.6854116 1.1468949 0.8737041
000030 0f 40 17 40 26 84 cc 3f 47 78 1a 3f 13 59 b3 3e
       2.3632848 1.5977829 0.6033978 0.35028896
000040 8f 11 14 3f be 9b 93 3e ce 50 04 3f 2b f3 ba 3e
       0.5783929 0.2882976 0.516858 0.36513647
000050 7e b8 ea 3f fc 97 82 3f c9 8a 6d 3e cb 49 76 3f
       1.8337553 1.0202632 0.23197474 0.9620635
000060 c2 ac 4c 3f a2 46 01 3f 6d 1c 0c 40 ef 4f 03 40
       0.7995111 0.504984 2.189235 2.0517538
000070 f3 15 91 3f a0 45 83 3f 47 3f f7 3e 50 91 3f 3f
       1.1334823 1.0255623 0.48290464 0.74831104

body.block2.conv.weight f4 [32, 32, 3, 3]
000000 42 9e f7 3d a8 c6 86 3d ef 6c 23 3d 8a 6f e1 3d
       0.12090732 0.065808594 0.03989881 0.110076025
000010 5a be 93 3d c1 f0 9b 3d 8b 68 e5 bc 97 db 64 bd
       0.07214041 0.076142795 -0.028003952 -0.05587348
000020 09 a3 07 bd ba 94 8f bd 13 bc 36 bd ee d7 24 bd
       -0.033114467 -0.07010789 -0.044612955 -0.04024499
000030 df da b0 3d 9d f6 7c bc 6d 47 75 bc cf 9b a7 3d
       0.08635496 -0.015439657 -0.0149706425 0.08184015
000040 0e a2 1a bc ef 7a 65 bd 4e 7c 39 3c 09 be 3b 3d
       -0.009438051 -0.05602544 0.01132114 0.04583553
000050 dd ed e1 bb 1b d5 94 3c 27 35 74 3c b3 41 f7 3c
       -0.0068948106 0.018168023 0.014905251 0.030182695
000060 c3 37 48 3d 13 29 ef bb 1e e2 52 3c 9d 70 cd bd
       0.048881304 -0.0072985976 0.012871293 -0.10031245
000070 4f 49 08 bd 84 32 65 bc 51 14 64 be a8 5f 24 bc
       -0.033273038 -0.013989095 -0.22273375 -0.010032572
000080 0b 16 63 3d ca c3 19 bd b7 dd 75 bd 85 14 64 bd
       0.055440944 -0.037540235 -0.060025897 -0.05568363
000090 97 ed 3d bc fc 2a bc bb 45 fd 33 bc 51 6b 5c 3d
       -0.01159229 -0.005742429 -0.010985677 0.053813282
0000a0 a2 e9 33 3c 09 a4 45 3d af 3d 2d bd 86 4c 44 bd
       0.010980995 0.04825214 -0.042295154 -0.04792454
0000b0 28 4b 31 3e 78 b7 e2 3d 5d 7e 73 3d ef 8b 2a bd
       0.17313826 0.1107015 0.05944668 -0.041637357
0000c0 bb be df 3c e9 1a ae bc 55 95 c6 bd 05 5a 0f be
       0.027312627 -0.021253066 -0.096964516 -0.13999183
0000d0 ac fa c1 bd a4 b5 f6 bc 2b 32 21 3d 0e c8 ac 3d
       -0.0947164 -0.03011591 0.039354485 0.08436595
0000e0 67 45 5b 3d 9b 60 14 3d 2e 8d f2 3b 25 76 ab 3d
       0.053532984 0.036224943 0.007402084 0.08372144
0000f0 46 2b 93 3c 26 c0 6d ba b3 08 b9 3d df 90 cb 3a
       0.01796497 -0.0009069465 0.09034862 0.0015530846
000100 3c 05 98 3d 35 bb fd 3d 67 49 50 3d 07 8c 1a 3b
       0.074228734 0.123892225 0.050851252 0.0023581998
000110 6d 55 7a 3c d3 6a 1a bd 35 bb 11 bd ff 1f ac 3c
       0.015279156 -0.03769953 -0.035578925 0.02101135
000120 e8 f7 b9 bd 2d c8 8f ba 91 71 a3 bc fb 39 77 be
       -0.090804875 -0.0010969691 -0.019951614 -0.24143212
000130 6f 45 65 3c 53 6a be bc f9 17 23 bc 66 4d bb 3a
       0.013993605 -0.023244059 -0.009954446 0.0014290034
000140 67 d2 29 bd 2a c5 7e bd 82 96 f8 bc e5 a8 89 3c
       -0.04146042 -0.06219975 -0.030345205 0.016804168
000150 a5 21 85 3d c7 ff 90 3c 6e 97 4c bd ea 81 c2 3d
       0.06500558 0.01770009 -0.049949102 0.094974354
000160 ba 1b 21 3d 36 53 c3 3b e2 70 38 bd 75 3a 54 bd
       0.039333083 0.0059608473 -0.04502953 -0.05181356
000170 3d b4 3a bd f5 5c 33 bd 7c 1f 6b 3a 43 f5 c6 3c
       -0.045582045 -0.043789823 0.000896923 0.024286872
000180 12 f2 0c bd 5b 09 a6 3c 3e 53 b3 3a 62 99 73 bd
       -0.034410544 0.020268133 0.0013681424 -0.05947245
000190 9d d9 28 bd 46 dc 95 bc 62 30 9d 3d de 06 13 3d
       -0.041223157 -0.018293511 0.07675244 0.03589522
0001a0 a0 02 5a bc c1 95 ef 3d cd f2 7e 3d ca 63 6b 3d
       -0.01330629 0.11698485 0.06224327 0.057468213
0001b0 1c 46 c7 3d b9 d0 9f 3d 1c 0a 02 3d 69 26 cb 3d
       0.09730169 0.078034826 0.031747922 0.099194355
0001c0 1b e5 98 3b 85 e4 d4 3c 3e d4 85 3d 1f 64 f0 3c
       0.0046659834 0.025987873 0.065346226 0.029344616
0001d0 5c 98 dc 3c 92 5c fa 3d 4d 93 52 3d a7 fe 9b 3d
       0.02692812 0.12224688 0.05141001 0.076169305
0001e0 65 fa 57 3d 3c f6 0a bd 59 22 03 3c fc b5 78 bd
       0.05272903 -0.033926234 0.008003795 -0.06072043
0001f0 2f 3d ad bd f4 20 be 3c 2e 3d 14 3e 9d 8f f3 3c
       -0.084589355 0.023209073 0.14476463 0.029731566
000200 c6 51 eb 3c b1 81 cd bd 56 38 0e 3d 46 f6 5e bc
       0.028725516 -0.10034502 0.034721695 -0.013608521
000210 19 31 d5 bd 03 95 88 bd a1 4c 4c be 93 e2 ff bc
       -0.10409755 -0.06669047 -0.19951107 -0.031235969
000220 f7 a2 cc 3c 31 57 90 bd 0e 4a 93 3c b3 0c df 3c
       0.024980051 -0.070478804 0.017979648 0.027227735
000230 ca b5 2b 3a 32 7f c6 3d 8b e3 12 3d 03 74 e7 3d
       0.0006550221 0.09692229 0.035861533 0.11301424
000240 d4 36 09 bb f8 df ee 3c af ff 84 bd 86 34 c4 3d
       -0.002093722 0.029159531 -0.0649408 0.095803306
000250 bc 11 09 3d 56 fa 9b bc 84 d0 b5 3d 0b ff 07 3d
       0.03346418 -0.019040268 0.08877662 0.033202212
000260 c0 37 25 bc 4b a9 43 3d 86 f8 a5 3c 52 bd 2f bd
       -0.010084093 0.047768872 0.020260107 -0.04290516
000270 ed 8d 23 3d 39 9a 69 3d 9e 5f 89 3c 97 cc ba 3c
       0.039930273 0.057031844 0.016769227 0.022802634
000280 97 c8 8b bb 14 5e 3d 3d 0c 9c dc bd d2 64 2d bb
       -0.0042658555 0.046232298 -0.10771951 -0.0026457799
000290 3f 9b 90 bc d1 96 81 3d 26 77 f9 bc 27 41 25 bc
       -0.017652152 0.06327594 -0.030452322 -0.010086334
0002a0 09 7e d9 bc 00 78 9d bd 50 81 a0 3d 59 76 91 3d
       -0.026549356 -0.07688904 0.078371644 0.07102651
0002b0 57 de 01 3d 1e f9 51 bc 79 df 57 3c a8 52 71 bd
       0.03170618 -0.012815742 0.013175839 -0.058916718
0002c0 97 2a 46 bd 5c 06 49 3d a4 21 be 3c 17 2a 1e 3d
       -0.04838046 0.04907833 0.0232094 0.03861436
0002d0 34 c1 59 3d 51 b8 dd 3c 1e 79 5d bd f8 3b 45 3d
       0.05316277 0.027065428 -0.054070584 0.048152894
0002e0 51 bf 22 3d ea 3b e1 bc e1 88 ee 3c 3e 4a 81 3d
       0.039733235 -0.02749439 0.029118003 0.06312989
0002f0 92 a9 14 bd 87 35 d5 bd d1 1b 87 bd 1b 31 cb bd
       -0.036294527 -0.104106 -0.065971024 -0.099214755
000300 21 4f 30 3c 77 0e 4e 3c 34 91 88 3b e9 5d a2 bd
       0.010761053 0.012576691 0.0041677 -0.07928068
000310 be fe 82 3d f9 b3 49 3e 65 9c de 3c 8f c1 09 bd
       0.063962445 0.1969756 0.027174184 -0.033631857
000320 05 9e 06 bd 11 bf 1c 38 ea c6 02 bd f5 f8 d0 bc
       -0.032865543 3.7371243e-05 -0.03192798 -0.025509337
000330 28 7a f5 3b ff df 6b ba ad 53 4e 3d 92 c0 58 bd
       0.007491369 -0.00089979166 0.05037277 -0.052918024
000340 a4 07 80 bc a8 aa 74 bd e9 5b 98 bd 47 8c 6e bc
       -0.015628643 -0.059733063 -0.074394055 -0.014559812
000350 ba dd 83 bc 47 50 f0 bc 9f 29 2a 3d 55 e6 f0 3c
       -0.016096938 -0.029335154 0.0415436 0.029406706
000360 64 e0 ce bc 64 52 34 3d 3b ea 7a 3c 47 38 8f 3c
       -0.025253482 0.044023886 0.015314634 0.01748289
000370 2e 86 b8 3d eb 8b d7 3d 03 27 30 3d 9f 4a 36 3d
       0.09009968 0.10524734 0.043005954 0.044504758
000380 bd 0a 02 3e 97 4a f2 3d eb a0 89 3d a8 e1 64 3d
       0.12699409 0.11830633 0.06720146 0.055879265
000390 81 3c d3 3d fa 9d 6d 3d c1 df 62 3c 46 81 33 bd
       0.103142746 0.058011986 0.013847292 -0.043824457
0003a0 ad c6 f5 bc c1 b9 4c bd cb ba ab 3d 79 b8 af 3d
       -0.030001963 -0.049981836 0.08385237 0.08580107
0003b0 b7 0e 99 3d 5d 7e cb bb a4 d5 03 bc 8a 32 61 bd
       0.0747351 -0.006210132 -0.008046541 -0.05497984
0003c0 da 78 7f 3c 3e 92 20 3c 42 4e 49 bd fa 48 c2 3c
       0.015592778 0.009800492 -0.049146898 0.023716439
0003d0 a1 fb a4 bd 1c 65 00 be 63 64 cb 3d 62 40 82 3d
       -0.08055807 -0.1253857 0.099312566 0.06359936
0003e0 f8 7f 4f 3d c8 73 97 bd 6e 4f 5a bd 6b ed e0 3c
       0.05065915 -0.073951304 -0.053298406 0.02745696
0003f0 de 7e 27 3b fe a2 e4 bc 5f b9 8b bd c8 c3 9b 3c
       0.0025557796 -0.027909752 -0.06822466 0.019014254

body.block2.conv.bias f4 [32]
000000 b7 59 6f 3d fa 08 a9 bc 96 d5 f6 bb f0 2e 14 3d
       0.058435168 -0.020634163 -0.0075327856 0.036177576
000010 9c 60 85 3b c3 8f ee bd c1 ab 26 3d 5d 89 8a 3b
       0.0040703546 -0.11648514 0.04069114 0.0042278008
000020 03 7b a7 3d fa 69 f7 3d dd 43 e7 bc 19 c5 ab 3c
       0.081777595 0.1208076 -0.028230602 0.020968007
000030 ac f3 10 bd 9f c7 73 3d 2b 3f 46 3c f5 83 ee bc
       -0.035388634 0.059516545 0.012100021 -0.029115656
000040 f4 83 03 3d a5 1c a5 3d f2 58 6e 3d 8d f8 45 bd
       0.032108262 0.08062104 0.058190294 -0.04833274
000050 84 47 89 3d de c9 2c 3d 4e 1b 52 bd cc 14 35 3d
       0.06703094 0.042184703 -0.05129557 0.044209287
000060 36 56 5a 3d 7f 24 28 3d ee 7b c8 3d 86 47 4e 3d
       0.053304873 0.04105043 0.09789263 0.05036118
000070 fe d3 8b bc 3b 0c 63 3d 22 0a 7f 39 de 28 b5 3d
       -0.01706886 0.055431586 0.0002432247 0.088456854

body.block2.norm.weight f4 [32]
000000 cc 1c 4b 3f bc fc 63 3f 8b 5b 73 3f f6 4e 5b 3f
       0.79340816 0.8905752 0.9506156 0.8566736
000010 f0 54 3c 3f 33 53 83 3f 94 72 60 3f 70 d4 7d 3f
       0.73567104 1.0259765 0.8767483 0.9915228
000020 ee d7 57 3f 5d 57 76 3f a9 48 70 3f 80 4f 27 3f
       0.8431386 0.96227056 0.9386087 0.6535568
000030 49 a7 74 3f 55 4b 75 3f cd d1 3c 3f 8a fa 76 3f
       0.95567757 0.9581807 0.7375763 0.9647604
000040 cd 68 74 3f cb 02 83 3f f6 70 42 3f de 99 58 3f
       0.95472413 1.0235227 0.75953615 0.8460978
000050 3a 31 81 3f 34 52 84 3f ea f4 55 3f 99 59 43 3f
       1.0093148 1.0337586 0.83576834 0.7630859
000060 cd 5f 55 3f 6b 96 7b 3f 4a d8 85 3f e6 51 74 3f
       0.83349305 0.98276395 1.0456631 0.9543747
000070 36 eb 5e 3f 7b 53 8f 3f 30 a9 76 3f 68 c3 8d 3f
       0.87077653 1.1197351 0.9635191 1.1075258

body.block2.norm.bias f4 [32]
000000 7c aa 77 3f d7 ba c1 3e a6 b2 c2 3e 9e 5d 17 3f
       0.96744514 0.3783786 0.38026923 0.59127223
000010 aa 97 24 3f 32 0d bb 3e 1b 8d 6b 3e b2 81 8e 3e
       0.6429392 0.36533505 0.23003046 0.27833325
000020 a5 1a 72 3f a5 02 bf 3e ea f5 1d 3f 86 82 91 3f
       0.94571906 0.37306705 0.6170336 1.1367958
000030 6f 66 92 3e 66 33 8a 3e 93 6e 2d 3f c3 e0 13 3f
       0.28593776 0.2699234 0.6774685 0.57764834
000040 da fa 86 bd 11 25 6b 3d 36 2d 4c 3f d5 11 bd 3e
       -0.06590815 0.057408396 0.79756486 0.36927667
000050 a2 ec cd 3e b2 f0 ca 3d 89 04 13 3f 77 0f 4c 3f
       0.402196 0.0990919 0.57428795 0.797111
000060 ed b5 a3 3e 3d 0a c2 3d 6e 01 ba 3e 0a ea f7 3e
       0.31974736 0.09474609 0.36329216 0.48420745
000070 97 6c c9 3e 2d 19 0e be a2 ef c3 3e cb 37 3c 3e
       0.3934066 -0.13876791 0.38268763 0.18380658

body.block2.norm.running_mean f4 [32]
000000 97 63 85 3f ec d7 9f bf 9e 0e 54 3f 24 24 56 be
       1.0421017 -1.2487769 0.82834804 -0.20912224
000010 dd 16 87 3f b1 97 d1 be 82 f2 00 40 e5 ae 88 3f
       1.0553852 -0.40936044 2.0148015 1.0678374
000020 c1 e4 4b bf 23 57 f3 3d 6c ba a8 be 85 b7 e5 3e
       -0.79645926 0.118818544 -0.3295473 0.44866577
000030 e4 35 96 be d0 19 6a bf b9 69 5e 3f 7c 59 17 3f
       -0.2933799 -0.91445637 0.8688007 0.5912092
000040 90 ac bc be f4 ab 3e bf 13 a4 d4 be ec 0c 25 bf
       -0.36850405 -0.7448113 -0.4153143 -0.6447284
000050 79 d7 02 3f 7c 5c 05 c0 c6 79 a1 bf bc 98 3f 3f
       0.51110035 -2.0837698 -1.2615287 0.7484243
000060 fb b2 c3 bf 7d 15 eb 3e 1c 9d 06 40 2b be 4e bf
       -1.5288996 0.45914832 2.1033392 -0.80758923
000070 fd 6a 00 40 e8 fc 9d 3f cd c1 12 c0 4b 92 e9 bf
       2.00653 1.2342806 -2.2930787 -1.824777

body.block2.norm.running_var f4 [32]
000000 8e 57 19 3f a7 2a 08 3f b3 85 d4 3e 11 b8 0b 3f
       0.5989922 0.5319008 0.41508254 0.5457774
000010 0a dc 90 3e cf 2c 8e 3f 9a f0 b9 3e 61 6c 20 3f
       0.28292876 1.1107424 0.36316377 0.62665373
000020 4d a1 54 3f 90 fe 01 3f 1a 6d 36 3f 42 aa 4c 3f
       0.83058625 0.50779057 0.71260226 0.7994729
000030 89 d7 de 3e ab 8b da 3e 08 da 2b 3f ec 2c c1 3f
       0.43523815 0.42684683 0.67129564 1.5091834
000040 6d db ed 3e 4c 98 24 3f da d3 2c 3f 65 29 ba 3e
       0.4645647 0.64294887 0.6751076 0.36359707
000050 22 95 0c 3f 1e a3 21 3f 9f 45 9b 3e 85 65 0a 3f
       0.5491506 0.6313952 0.30326554 0.54061157
000060 66 99 15 3f e2 66 ba 3e 42 f6 c4 3e ef 4e 89 3f
       0.5843719 0.36406618 0.3846913 1.0727214
000070 e4 60 bb 3e 8d 07 b5 3f a2 63 0c 3f 43 e0 e5 3e
       0.3659736 1.4142929 0.5483953 0.4489766

body.block3.conv.weight f4 [32, 32, 3, 3]
000000 59 dc c8 3d 17 2c f8 3c 14 82 a3 bd 00 ce 00 bc
       0.09807653 0.030294461 -0.07983795 -0.007861614
000010 6b 4a 6f 3a ad 32 89 bd cc 5f da 3c fa 0a 6c 3d
       0.00091282156 -0.06699119 0.026657008 0.057627656
000020 fe c7 99 3d 18 85 fb 3d 53 a7 74 3d bd a8 3b bb
       0.075088486 0.12281245 0.059729885 -0.0028634511
000030 cf c7 ea 3c 91 ff 1f 3d 96 92 5e 3d 50 af d2 bc
       0.02865973 0.039062086 0.054339014 -0.025718361
000040 a2 c6 92 3d da 0c 02 bc af d1 2a 3d a6 83 b1 bc
       0.071667925 -0.007937634 0.041703876 -0.02166922
000050 e4 10 b8 3c 2a 73 0b 3d 23 5e 1a bc d9 d2 63 bc
       0.022468992 0.034045376 -0.009421858 -0.0139052505
000060 2b bf 92 3d 65 92 8f 3d 58 4a b2 bb 25 ec 9b 3c
       0.07165369 0.070103444 -0.0054409914 0.0190335
000070 f8 26 2b 3d 80 03 24 3d 56 9c 48 3b 24 1c a1 3c
       0.04178521 0.0400424 0.0030610762 0.019666739
000080 41 e7 3d bc ba b8 f1 3d 5a 70 0e 3d 61 53 04 be
       -0.01159078 0.11802812 0.034775116 -0.12922432
000090 64 26 31 3d 94 34 af 3c 69 bd 9b bd c5 3e 89 3c
       0.043249503 0.021387376 -0.076044865 0.016753564
0000a0 2a 15 1e bc bb 10 6e bd 3a 40 b3 bd 58 cc a5 bd
       -0.009648601 -0.058121424 -0.087524846 -0.08095616
0000b0 df fb fe bb 6a 86 4d ba bd 58 38 bc 3e df 23 bd
       -0.00778149 -0.00078401587 -0.011251626 -0.040007822
0000c0 df 96 63 3d 81 b9 75 3d 76 1e 0f 3c f8 b0 34 3c
       0.055563804 0.059991363 0.00873529 0.011028521
0000d0 fc 86 55 bb 50 87 93 bb cf b8 a2 3c 1a 7c f1 3a
       -0.0032581678 -0.0045022145 0.019863514 0.0018423826
0000e0 05 54 bc 3c b7 70 33 3d 2b 62 73 3d cc 5f de 3d
       0.022989282 0.043808665 0.059419792 0.108581156
0000f0 99 7e 5a bd 1c 14 cf bd 28 71 6f bd 30 79 b9 3b
       -0.05334339 -0.101112574 -0.058457524 0.0056601986
000100 50 35 2b 3d 5d 77 86 3d 53 d9 96 3d f9 5f 80 3b
       0.04179889 0.065657355 0.0736567 0.003917691
000110 54 5f b3 bc 40 1a 3a 3e fa 72 d3 3d 28 a6 14 3d
       -0.021896042 0.18174076 0.103246644 0.03629127
000120 fc 44 af bd 5a f8 c0 bd 54 18 d4 bd 6f 45 11 bd
       -0.085580796 -0.09422369 -0.10356203 -0.035466608
000130 14 8e 23 bd 25 48 24 3d 3b 25 07 3c 28 84 2f 3d
       -0.039930418 0.040107865 0.0082486225 0.042850643
000140 ba e1 2c 3d 6a c0 83 bc 32 98 bf bc 31 91 a7 3b
       0.042207457 -0.016082961 -0.023388002 0.0051137437
000150 e8 a6 58 bc cb d9 93 3c 33 6f 02 bd 85 04 52 3c
       -0.013223387 0.018048188 -0.03184433 0.01281846
000160 4a 56 b7 3c c8 66 49 3c dc 07 19 bd ff 30 1f bd
       0.022380013 0.012292571 -0.03736101 -0.038865086
000170 cc ba 8a 3d 63 f6 aa 3d 48 8c 7b 3d e8 77 0a 3e
       0.0677391 0.08347776 0.06141308 0.13522303
000180 1a 4f 0a 3d 57 cb 10 3d 90 b4 11 3e ad 08 b8 bd
       0.033766843 0.03535017 0.14229035 -0.0898603
000190 10 59 39 bd cd 35 30 3d 69 3f 3b bd b6 b1 99 bc
       -0.045250952 0.04302006 -0.04571477 -0.018761497
0001a0 51 3a ae 3d cb 6d a9 bd 85 a7 b9 bd 95 f2 40 bd
       0.08507217 -0.082728945 -0.09065155 -0.047106344
0001b0 45 c5 02 bd aa 0b 50 3d 84 c3 0d 3d d4 96 d5 bb
       -0.031926412 0.050792374 0.034610286 -0.0065182243
0001c0 bf 3f 6c 3d 72 44 50 3d d5 f6 48 bd dd eb e6 3c
       0.05767798 0.050846525 -0.049063522 0.02818864
0001d0 66 e4 f5 bc 57 f9 de 3d ec b4 84 3d 47 a1 49 3d
       -0.030016135 0.108874016 0.064798206 0.04922607
0001e0 61 ed b5 3d 4e 6b 81 3d d9 ba 88 3c 17 c6 57 3c
       0.08883167 0.06319295 0.016690658 0.013169787
0001f0 f5 0d 4e 3d 79 79 4c 3d 00 ff 0b be 8a 7b cd bd
       0.05030628 0.049920533 -0.13671494 -0.10033329
000200 2c 4e 07 be d1 80 08 bd d3 08 ac 3c 09 a3 37 bd
       -0.13213414 -0.033325974 0.021000301 -0.044833217
000210 c2 a9 82 bd 77 2c 69 bd d2 4f 16 be f7 54 81 bd
       -0.06380035 -0.05692717 -0.14678887 -0.06315034
000220 a1 f2 bb bc 07 68 1f 3d 6a 18 e2 3b 54 9d ca bc
       -0.022942843 0.038917568 0.006899883 -0.024733223
000230 a4 f6 29 3c 3d 8b 81 3d 23 f5 36 bd ad fb fa bd
       0.010373745 0.06325386 -0.044667374 -0.122550346
000240 8e 4e 18 3c ae 6e 8b 3d eb 7d 34 3c 41 67 7f bd
       0.009296073 0.0680822 0.011016349 -0.06235433
000250 73 b4 2a 3d b3 bb 6c bb bd 0c 16 bd d2 00 8c bd
       0.041675996 -0.003612262 -0.036633242 -0.06836094
000260 6c 37 8d bc 62 f7 cf 3d 83 c7 f7 3d ad 26 10 3e
       -0.017238341 0.101546064 0.12098601 0.14077254
000270 3f 38 1c bd 3c 0b 31 3d 99 d3 47 3d f0 58 6b bd
       -0.038139578 0.043223605 0.04878578 -0.057457864
000280 a4 e3 b6 39 cd 5e e8 bd c4 e1 55 bb c5 dd 6b bd
       0.0003488335 -0.11346207 -0.0032635788 -0.057584543
000290 9b df c3 bd 16 fc 69 3b 0b 07 0c bd a1 92 c6 bd
       -0.09564134 0.0035703233 -0.034186404 -0.09695936
0002a0 17 63 34 3d 1a df 26 3d 57 eb c2 bc 76 8a 5a bd
       0.044039812 0.04074011 -0.02379386 -0.053354703
0002b0 50 5b 98 3c 27 dd 9f 3d a5 02 1e be 0e 2a 8d bd
       0.018598229 0.07805853 -0.15430696 -0.06892787
0002c0 4e 8a 60 bc 83 93 b9 3d b6 ac 4d bc 82 59 ce 3c
       -0.013704849 0.09061339 -0.0125533845 0.025189165
0002d0 1b 53 ae 3d 4e d9 4a 3d 02 2e 02 3e 36 2a b0 3d
       0.08511945 0.049523644 0.12712863 0.08601801
0002e0 c6 b4 8e 3c 5c 69 2b 3d 2b ff ff 3c 17 8d 03 39
       0.017420184 0.041848525 0.031249603 0.00012545694
0002f0 7d 16 dc 3d 1d b2 85 3d 42 84 c4 3c 72 ed 4d 3b
       0.10746477 0.06528113 0.023988847 0.0031422046
000300 ef 81 e0 3d 88 50 f5 3c 43 40 d3 bd 26 a4 17 3e
       0.10962283 0.029945627 -0.10314991 0.14808711
000310 ac 05 ad 3c d4 68 11 be b8 9e 4d bd af a0 81 bc
       0.021120869 -0.14200145 -0.050200194 -0.01582369
000320 6b 16 9d 3d 8f db ac bd 83 bf dc bc 67 fa 8b bd
       0.076702915 -0.08440315 -0.026946789 -0.0683487
000330 dd 1a 08 be 08 7c 34 3a 98 ef 8f bd 07 12 00 be
       -0.13291498 0.0006884937 -0.07028121 -0.12506877
000340 50 5c 39 bd 7f c9 1b bc 85 d9 1c bd bd f9 45 bd
       -0.04525405 -0.00950849 -0.03829338 -0.048333872
000350 a1 a8 83 3c 7c 07 8f bc aa bc 31 3d 58 bf 96 3d
       0.01607162 -0.017459624 0.043392815 0.07360715
000360 47 c5 cf 3c db 4f 18 3d 11 89 31 3d 3c 28 1d bc
       0.025362624 0.03718553 0.043343607 -0.009592112
000370 f3 ee d6 bc fe 4c de bd b2 9a aa 3c 39 85 41 3c
       -0.026236987 -0.10854529 0.020825718 0.011811548
000380 64 8f ae bc 69 ad 1a 3d 31 34 02 3d 0f f6 5c bc
       -0.021308608 0.037763033 0.031788055 -0.013486399
000390 49 cd 13 3e fd 82 bd 3c 22 76 f9 bd f2 f8 ff 3c
       0.14433779 0.02313375 -0.12180735 0.031246636
0003a0 f9 fd 92 bc 6e 22 3e bd e4 a7 e4 3c 8c be 83 3d
       -0.01794337 -0.046419553 0.027912088 0.06432828
0003b0 48 a8 f4 3c fc a8 c0 bd 8a 91 e2 bc b2 df db 3b
       0.029865399 -0.09407231 -0.027657289 0.006710016
0003c0 5f 69 8c bd f0 d4 d1 bc 11 63 a0 3c 9c 83 f1 bc
       -0.068560354 -0.025614232 0.019578489 -0.029481702
0003d0 99 dc f5 bc 69 7c ae bc 8d 3c 75 bd 32 c8 e4 bb
       -0.030012416 -0.021299558 -0.0598722 -0.006981873
0003e0 5b 14 5e bc 8b 43 30 bd 4a d9 31 3d da f2 59 3d
       -0.013554658 -0.043033164 0.043420114 0.053210117
0003f0 d0 03 09 3e 6a 05 5c 3d 65 58 05 3e 19 1b 8e 3c
       0.1338036 0.0537161 0.13022001 0.017346906

body.block3.conv.bias f4 [32]
000000 4b 9d 9e 3d 03 62 93 bd da 84 c9 bc 80 bb 74 ba
       0.07744845 -0.071964286 -0.024599481 -0.0009335801
000010 8e e5 fd 3b 6c bb 09 3e b5 0e 62 3d 6c 1d 82 bd
       0.0077483123 0.13450402 0.055189807 -0.06353268
000020 0c c8 0f be c0 d7 c1 bb 67 6b ac 3d 0e 21 69 bc
       -0.14041156 -0.005915612 0.08418923 -0.014229072
000030 36 06 2a bc 76 03 0f 3c 5b 2b ac 3c 07 f3 17 bd
       -0.010377457 0.0087288525 0.021016767 -0.037097003
000040 07 78 a1 bd d6 bb 74 bd 7b 31 77 bc c4 a0 87 3d
       -0.078842215 -0.059749447 -0.015087481 0.066224605
000050 5e c9 81 3c 1b 3e 8e bd 70 14 c3 bc b3 73 e5 bc
       0.01584309 -0.069454394 -0.023813456 -0.028009271
000060 20 7c a8 3a a5 d7 6b 3c ec 29 8a bd a7 e0 96 3d
       0.0012854375 0.014394675 -0.06746277 0.07367068
000070 fe 9d fe 3c cb a6 9c bc 3b 00 5b 3d 15 7f 60 3d
       0.031081196 -0.019122502 0.053467017 0.054808695

body.block3.norm.weight f4 [32]
000000 d3 68 b2 3f de 20 85 3f 78 ba 86 3f 73 40 98 3f
       1.393824 1.0400655 1.0525656 1.1894668
000010 e3 c4 a6 3f d1 99 9a 3f ac 42 65 3f cf 02 b0 3f
       1.3028835 1.2078191 0.8955486 1.3750857
000020 b5 67 bf 3f 5a d5 9f 3f 01 9c 83 3f b2 d4 81 3f
       1.4953524 1.2486985 1.0281984 1.0143034
000030 c8 9d 61 3f 67 bd a4 3f aa 24 99 3f f3 59 ba 3f
       0.8813138 1.2870301 1.1964314 1.45587
000040 4d f9 b0 3f 8b ed ad 3f 3e 05 70 3f a5 49 a2 3f
       1.382608 1.3588117 0.93758 1.2678725
000050 b5 d3 87 3f e6 65 b6 3f 42 46 be 3f ab 3f 93 3f
       1.0611483 1.4249847 1.4865191 1.1503805
000060 b5 56 8d 3f 54 f8 ad 3f 4a 9a 8c 3f 88 1e c9 3f
       1.1042086 1.3591409 1.0984585 1.5712442
000070 96 fe b4 3f a5 0e d2 3f 6f 4b 82 3f 8b d9 86 3f
       1.4140193 1.6410719 1.017927 1.0535139

body.block3.norm.bias f4 [32]
000000 8a b3 12 3f f7 05 a3 be 21 9d b1 be e2 78 b8 3e
       0.57305205 -0.31840488 -0.34690192 0.36029726
000010 77 5d 81 3e 8e f7 59 3f 9c c9 48 bf 7f e1 83 3f
       0.2526662 0.85143363 -0.7843263 1.0303191
000020 54 ab 32 3f a6 0c 68 3f c2 96 35 bf b8 70 43 3f
       0.69792676 0.906443 -0.70933163 0.7634387
000030 7c 3e 34 3f 64 50 3a 3f 64 ba e7 be b4 33 18 bf
       0.70407844 0.72778916 -0.45259392 -0.5945389
000040 eb 8e 34 3f b0 85 76 3f 74 48 7e 3f ff 9c 83 3f
       0.70530576 0.9629774 0.99329305 1.0282286
000050 05 a7 39 3f 3f 9a af 3f ec bc 2b 3f 65 e2 95 3e
       0.72520477 1.3718947 0.67085147 0.29274288
000060 0c f5 c8 3e 53 ab 47 3f f6 7b e0 3e 11 11 90 3f
       0.39249456 0.77995795 0.43844575 1.1255208
000070 b9 92 64 3f 2a ae 06 3e 64 94 16 bf f4 ff d8 3e
       0.8928638 0.13152376 -0.58820176 0.42382777

body.block3.norm.running_mean f4 [32]
000000 74 a0 32 3e 9b 3c 13 3f 6d 17 57 3f 69 72 e6 3d
       0.1744402 0.5751435 0.8402012 0.11252291
000010 a2 86 a0 bf a7 87 5b 3e 20 0c 1d bf b3 50 91 be
       -1.2541087 0.21438466 -0.61346626 -0.2838188
000020 c2 11 57 3e 2e 92 de be d5 82 97 bf 94 ce e0 3e
       0.21002868 -0.434709 -1.1836802 0.43907607
000030 0a 83 85 3f a7 3c 44 bf c3 1a 6d 3f ad 48 65 bf
       1.0430615 -0.7665505 0.9261896 -0.8956402
000040 ab f3 63 be 59 45 e1 3e 8c 0b fe 3e 0b a6 95 be
       -0.2226092 0.4399822 0.49618185 -0.29228243
000050 a4 c3 0b bf 11 1f 95 bf b3 55 af be 74 af 66 bf
       -0.545954 -1.1650106 -0.3424507 -0.9011147
000060 12 e4 d9 bd 98 99 d6 bd 93 59 8b 3e 17 76 11 3f
       -0.10639204 -0.104785144 0.27216777 0.56820816
000070 ed 31 ad bf ca a9 5e bf c1 c0 f7 3e 61 90 b5 3e
       -1.3530861 -0.8697783 0.48389247 0.35461715

body.block3.norm.running_var f4 [32]
000000 8c eb b9 3e eb d7 0c 3f dc 7b 29 3f 19 30 48 3f
       0.3631252 0.55016965 0.6620462 0.7819839
000010 29 79 ce 3e e5 a0 01 3f 1f 65 a7 3e ac 1c 71 3f
       0.40326813 0.5063613 0.32694337 0.94184375
000020 cd cd 48 3f 78 2c d7 3e 36 fc 0a 3f e6 2b a9 3e
       0.7843903 0.42026114 0.54291093 0.33041304
000030 d7 3d e6 3e bd 59 de 3e a7 a9 8b 3e 12 f6 f6 3e
       0.44969055 0.4342784 0.27277872 0.48234612
000040 16 1f 7e 3f 7f 83 0e 3f 28 3d 9a 3e 72 ff 02 3f
       0.99266183 0.556694 0.30124784 0.5117103
000050 72 39 73 3f c2 c6 d9 3e 83 9c 0a 3f f5 ec 45 3f
       0.9500953 0.42534453 0.5414507 0.7731469
000060 04 e5 0a 3f 33 1a ca 3e e6 89 32 3f 30 3b 94 3e
       0.542557 0.39473113 0.69741666 0.28951406
000070 be 8e ed 3e 91 7e 6f 3e c3 76 da 3e aa b9 29 3f
       0.46397966 0.23388125 0.42668733 0.66298926
