trained_models/sinGan/mountains/scale_factor=0.750000,alpha=10/2/netG.pth (torch_old, 125197 bytes, 26 tensors)

head.conv.weight f4 [32, 3, 3, 3]
00000000: 0da7 0fbd 5eaf 4dbd d2f0 81bd ee92 083d
00000010: d217 c63c 1f86 a0bc b811 443d 5b30 de3d
00000020: a493 70be 6c94 f53c 2189 d6ba 9ce3 933b
00000030: c957 a93d e0dd de3d edb7 c63c 2ee9 ed3c
00000040: 1ce9 413e bda6 cbbe 53d4 763d d70a 113d
00000050: 7805 7ebd 4ef1 b83d b3cb e73d 2e6e bcbc
00000060: 5198 813c bdf7 4f3d 6586 06bf 665e 40bc
00000070: 06b0 0dbe c039 11be 3ed9 33be 1edb 08be
00000080: 955d 62be 4119 a43b e521 873d e03e ddbd
00000090: e84d bb3d c312 2b3b 9727 0e3e 38d5 38bd
000000a0: bf5b e5ba 3a4a 223d 58ec 393d 47e4 e93d
000000b0: 7562 a23d 8b96 a53c 0c23 47bc 7bf4 d73d
000000c0: 02a7 81bd 9cac 19bd d3ba 2bbc 5bd4 983d
000000d0: bdf6 ca3d b8fd c73c 1b00 ffbd acbb 06bd
000000e0: 42fc a0bc e187 d1bd d983 9ebc 9251 b8bc
000000f0: fd70 263c c83c ae3a 817a a13e 0290 8c3d
00000100: ed9e b03d f0e9 cc3d 9b95 e13c 0181 8e3d
00000110: 3a11 203d 67d8 1abe 5370 2bbe c6bd 093d
00000120: d7b4 b33c 5f59 863d 43a1 2f3a be02 9a3d
00000130: 2a39 4d3d 6b8d 923c 133c 09be 962f 6bbe
00000140: 0b5f fb3b 8df4 74be 8c40 9c3d 9516 be3c
00000150: 5f1c 33bc 1584 73bc 6d61 e7bc ae05 d8bd
00000160: 2d85 5bbd 205f 99bd a6ba b8be dec5 d2bd
00000170: aff8 4abd 2a14 4f3d 8c28 053d 3d7f 0ebb
00000180: 33af e03c 3a42 ccbc e5bd 4f3c dd5c 7abe
00000190: e888 8a3c 53a5 903d 46eb 963d 5531 b23d
000001a0: 1c83 c93d 034f d73d 57b2 463d c7e4 723d
000001b0: 937e aa3c f750 dbbd 28d2 eebd d315 073e
000001c0: f19b 2c3d ed6c 24be 7b0b a93e 38a3 563e
000001d0: 6bc5 023e f2b9 9d3c 839d 8bbd e37a 9d3c
000001e0: 55e4 8abb 41b3 2d3d 72aa 92bd 2ef1 9ebd
000001f0: fa52 05bd 96b4 17bd 43a0 873c 2eb1 f5bc
00000200: 6be1 a13d 5f1a dfbc 5b43 e83c f807 e0bc
00000210: 325f e6bd d346 48bd 01c9 e8bb 65ce 993d
00000220: b047 06bd e58a 8ebd d5b9 a63d 6953 5c3d
00000230: 749e c03c 3906 163e 812b 3f3e 84bc 06bd
00000240: b995 4b3d b1ab a73d e99d 4e3d 7994 7f3d
00000250: ba52 8d3d 5689 133d 30a0 c7bd c989 22bd
00000260: 32df 99be b69d f8bb 6253 4f3d d6bc 083d
00000270: 206a 4dbc be5c 8a3d 1718 473d 1825 00be
00000280: 7256 32bd 7d9b dbbe 9979 b3bd bdb1 a0bd
00000290: 5bd6 32be 2cc2 1c3d 8aec 05be 6fa4 4ebd
000002a0: c55d 1c3e 4310 733d 0dc2 8c3d 0ed6 37bd
000002b0: 1bf7 0f3d a975 7fbd f684 0ebd a568 cdbd
000002c0: 04b6 c93d eebc 18be 677e 3abe ae37 bcbd
000002d0: 024e 4abd da2e 693d 459f 50bd bba4 db3d
000002e0: 8667 b43d 44b8 aa3e 108c 07bd 4c26 45bd
000002f0: e3ad 843c db42 d1bc c3f9 983c 04cf 483d
00000300: b84c 1b3d a406 26be 4f9a 84bc ea29 4a3e
00000310: 8c6a d73c a380 b63c 4521 70bd 0451 833d
00000320: 95f3 e93c dba8 743c 57f7 0dbe 6bef 843c
00000330: 616e 533e f45d 073e fae2 cb3d 05c9 0d3c
00000340: 78a5 233e cae9 a73c 0ea3 903d be82 7e3a
00000350: 6dbb d13d 02a6 493e f32e f33d b0c3 ec3d
00000360: 0c8a 98bd 6e91 97bd 1a7c a93d 2861 dd3c
00000370: db12 e43c 4c58 3fbe 81bf 443e 663b 6b3d
00000380: 2a12 fabc 3ab3 0cbe 496f 0fbd c0f0 2d3e
00000390: cd1e 15bd f582 a13c 56ad bdbd d10b a83d
000003a0: b7d6 c8bc f69f 08be 5f48 bdbd f692 2c3d
000003b0: 3f9c 373e 5e6b 6d3c 0403 963d a69c ebbc
000003c0: 0a0c 4c3d e6b6 43bd c927 abbd 7d84 ddbd
000003d0: 9a04 2c3c c073 93be 1f61 c4bc 1c8f db3c
000003e0: c7b2 183d 7b92 8abd 54b8 51bd 5d1d 183d
000003f0: b7e0 9a3d 2a2e cc3d fa67 abbe 9035 763d
-0.03507142 -0.05021607 -0.06344761 0.033343248 0.02418128 -0.019595204 0.04786846 0.10849067
-0.2349382 0.029978 -0.0016367772 0.004513217 0.08268697 0.10882163 0.024257625 0.029041853
0.1893658 -0.3977565 0.060261082 0.03541073 -0.062016934 0.090304 0.113181494 -0.023001757
0.0158197 0.05077337 -0.5254882 -0.011741256 -0.13836679 -0.14182186 -0.1756334 -0.13364837
-0.22106011 0.0050078933 0.06598262 -0.10803008 0.09145719 0.0026103712 0.1388229 -0.045125216
-0.0017498656 0.03962157 0.04539141 0.114204936 0.079289354 0.020213386 -0.012154352 0.10544678
-0.06330682 -0.03751813 -0.010481554 0.074623786 0.09910343 0.024412975 -0.12451192 -0.03289382
-0.019651536 -0.10230995 -0.01934998 -0.022499833 0.010158774 0.0013293261 0.31538776 0.06863405
0.08624063 0.100055575 0.027537158 0.06958199 0.03907893 -0.15121613 -0.16742067 0.033628248
0.021936817 0.06560015 0.000669975 0.07520054 0.050103344 0.017889699 -0.13401823 -0.22967371
0.007671242 -0.23921414 0.07629499 0.023204127 -0.010932057 -0.014863034 -0.028244698 -0.10547958
-0.053593803 -0.07488847 -0.360799 -0.102916464 -0.04955357 0.05055634 0.03250937 -0.002174332
0.027427291 -0.024933923 0.012679552 -0.24449487 0.016910985 0.07062783 0.073690936 0.087008156
0.0983946 0.10513117 0.048509922 0.05930021 0.020812308 -0.10708802 -0.11661178 0.13191919
0.042140905 -0.16057177 0.3301657 0.209607 0.12770621 0.019253705 -0.06817152 0.019223636
-0.004238645 0.042407278 -0.07161416 -0.07760845 -0.032549836 -0.037037455 0.01655591 -0.029991712
0.07904323 -0.027234254 0.02835243 -0.02734755 -0.11248626 -0.04889567 -0.0071040397 0.0751007
-0.03278321 -0.06960086 0.081409134 0.053790484 0.023513056 0.14650811 0.18668939 -0.032894626
0.049703334 0.081870444 0.050443564 0.062397454 0.069005445 0.036019646 -0.0974735 -0.039682183
-0.30053097 -0.00758716 0.05061663 0.033383213 -0.012537509 0.067559704 0.04860696 -0.1251415
-0.043539472 -0.42892066 -0.08763427 -0.07846401 -0.17464583 0.038271114 -0.13078514 -0.050449785
0.15270145 0.05934168 0.0687295 -0.044881873 0.035147768 -0.06236807 -0.03479477 -0.10029725
0.0984917 -0.14915821 -0.18212281 -0.091903076 -0.0493908 0.056929447 -0.05093314 0.10724779
0.08808808 0.3334371 -0.03309256 -0.048132226 0.016196197 -0.025544574 0.018673783 0.04902555
0.03791496 -0.1621347 -0.016186861 0.19742551 0.026295923 0.022278136 -0.05862548 0.06411937
0.028558532 0.014932836 -0.13863884 0.016227445 0.20647575 0.13219434 0.09955402 0.008653884
0.1598109 0.020497221 0.0706235 0.0009708813 0.10240827 0.19692233 0.11874189 0.11560762
-0.07448205 -0.074007854 0.082756236 0.027023867 0.027841022 -0.18686026 0.19213678 0.057429694
-0.03052624 -0.13740245 -0.03501824 0.1698637 -0.036406327 0.019715765 -0.09261577 0.08205379
-0.024516447 -0.1334227 -0.09242319 0.04213234 0.17930697 0.01449093 0.07324794 -0.02876122
0.04981617 -0.047781847 -0.08357198 -0.10816286 0.010499144 -0.28799248 -0.023972092 0.026801638
0.03727987 -0.0676622 -0.05120118 0.037137378 0.07562392 0.099697426 -0.33477765 0.060109675

head.conv.bias f4 [32]
00000000: 4a66 603c 0939 843d 708a 4abe f78e cfbd
00000010: 7472 903c 5591 d8bd 367d 64be da3c 3a3e
00000020: ebd7 9fbd 4b9c ea3d 8a3a 9a3d 83b5 9c3d
00000030: 0d54 30be 46e0 e33d 2628 dbbd 8d95 a2bd
00000040: c326 bb3d 34c4 10be df61 e23c d725 0bbd
00000050: 5607 1f3e 7ddc 253d e978 84bc d41d 8e3b
00000060: 0999 d6bd 70d4 1abd 9647 b0bd 7378 a53d
00000070: cd56 3e3d a9a3 153c 5740 41be db3d f13c
0.013696263 0.06456191 -0.19779372 -0.1013469 0.0176327 -0.10574595 -0.22313389 0.18187276
-0.07804855 0.11455592 0.07530697 0.07651808 -0.17219563 0.11126761 -0.10701017 -0.07938681
0.091382526 -0.14137346 0.02763456 -0.033971634 0.15530142 0.040493477 -0.016170936 0.004337052
-0.10478408 -0.037800252 -0.08607404 0.080796145 0.0464695 0.009133258 -0.188722 0.02944844

head.norm.weight f4 [32]
00000000: 655e 9e3f 1be2 893f 96ff a43f 2ec9 993f
00000010: ee21 973f efa6 983f 39f5 8e3f 31a1 693f
00000020: 7836 9a3f 3a14 aa3f bcc1 8a3f 63dd 8b3f
00000030: d9ab b03f 51e7 a33f ff4c 8f3f 6eb3 8d3f
00000040: bc5e a63f 37dd 783f 2335 8b3f 83c5 9b3f
00000050: 10a7 b33f e637 a93f ca79 8f3f 91d5 793f
00000060: a478 a43f 725a 973f f35f 9c3f 6310 b13f
00000070: 1d03 a83f f6cb 933f 872a 963f 4a6e 943f
1.2372557 1.0772127 1.2890499 1.201452 1.180723 1.1925944 1.1168586 0.91261584
1.2047873 1.3287423 1.0840373 1.0926937 1.3802444 1.2804967 1.1195372 1.1070383
1.2997661 0.9721255 1.0875591 1.2169651 1.4035358 1.3220184 1.1209042 0.975915
1.2849317 1.1824477 1.2216781 1.3833126 1.312595 1.1546619 1.1731728 1.1596158

head.norm.bias f4 [32]
00000000: 3f97 54bd 859b 72bb f86a 71bd e15f 42bc
00000010: a2d4 a43d e40d 093b 0231 3abe 26fa 78bd
00000020: e236 2c3a e638 a6bd 9ec5 d33c e49f c83c
00000030: b0e1 193c 00bb 67be bb78 763e eee2 11be
00000040: 5906 10bd 18b8 78bd da7e 36be b92c e7be
00000050: 12fa fbbd df4a 12be abc4 183e c658 71be
00000060: 06f4 0d3e 7751 25be e3b7 cdbe f8e7 623d
00000070: 3d0b a13e 3fc1 97bd 8d81 383c 8aec ad3d
-0.051902052 -0.0037018966 -0.058939904 -0.01186368 0.08048369 0.002091282 -0.18182757 -0.060785435
0.00065694575 -0.08116321 0.025851067 0.024490304 0.009392187 -0.22629929 0.24069493 -0.14246723
-0.035162304 -0.06072244 -0.17821828 -0.45151308 -0.123035565 -0.14286374 0.14918773 -0.2356902
0.13862619 -0.16144358 -0.40179357 0.055397004 0.31453887 -0.07409906 0.011261356 0.08492382

head.norm.running_mean f4 [32]
00000000: f5c4 683d f54c cb3d ca82 43be 2af9 86bd
00000010: 0cb8 31bb aab2 c4bd 2ec5 5cbe a24f 4e3d
00000020: bf3f a5bd afb2 3a3e 1d7d 503d a284 0c3e
00000030: f2c0 d1bd 5c2b bb3d a6e1 44bd 7ceb 01be
00000040: c77d 203e ba1a 46be c65d 2b3d db69 043d
00000050: 2519 953d df38 b5bb 366b 8bbd 97b7 50bd
00000060: 2895 2abd 482f 16bd 22b1 3fbe 116a 153e
00000070: a67c cc3c 36a5 a7bd 1b2d 00be a671 e43c
0.056828458 0.09926788 -0.19092861 -0.06590493 -0.0027117757 -0.0960439 -0.21559593 0.050368913
-0.08068799 0.18232225 0.050900567 0.1372247 -0.102418795 0.091391295 -0.048066758 -0.12687486
0.1567298 -0.19346133 0.041837476 0.032327514 0.072801866 -0.005530461 -0.06807558 -0.050956335
-0.041646153 -0.036666185 -0.18719915 0.14591242 0.02496178 -0.08185808 -0.12517206 0.027886223

head.norm.running_var f4 [32]
00000000: 65a3 363d cec8 b53c 9611 5c3c 887d ff3c
00000010: 869a 503c 2e78 403d c4b4 213c 2aa1 913e
00000020: 42c9 7e3b 1747 683d 8add 163d aab4 da3d
00000030: 2955 013d 2bcd b63c 23f0 7a3d 4a09 623c
00000040: ccfd 893d 1e24 cc3d 8e0b 1d3d bf56 063d
00000050: 799f 5f3d 8cae 903c 19be fe3c fd1d dc3c
00000060: 059b e63c 9d9f 0e3c c748 ff3d 154b 3f3d
00000070: d04a 4d3c d409 2e3e 2b55 f03d 7c52 4d3c
0.04458942 0.022190478 0.013431927 0.031187788 0.012732154 0.046989612 0.009869758 0.2844327
0.0038877283 0.05670842 0.03683237 0.1067899 0.031575356 0.022314629 0.06126417 0.01379616
0.06737861 0.09967826 0.038341098 0.03279757 0.054595444 0.017661355 0.031096505 0.026869768
0.028150091 0.008705047 0.12465053 0.046702463 0.012530044 0.16995937 0.117349945 0.012531873

body.block1.conv.weight f4 [32, 32, 3, 3]
00000000: e999 f3bc a487 9fbd 06ab 2a3c d6bd c7bc
00000010: cf86 49bd 2092 1cbe 5eb6 b7bc f039 8f3c
00000020: 5486 dcbd 45d5 a93d 73e9 b73d a537 443e
00000030: 83ad fd3a 7f62 ac3d 91dd 9e3c ade2 093d
00000040: a518 e6bc 1e8d 23be e2fe 06be ffc5 07bc
00000050: f10e babb ea39 11be 1b5d 0c3d b849 3e3e
00000060: 5ee2 123d 9db1 b73d 06ab c33e 450d aa3a
00000070: 73c7 87bd 13dc adbd 86a6 9b3d 7ab9 753c
00000080: de06 8ebd ac0d 2cbe e2a8 e4bd 83cf 89bd
00000090: ecd6 963b 972d 5d3d 27b6 993e b435 6b3d
000000a0: 241d 893d 27ef 8f3d c74e 68bc 76de 1ebe
000000b0: ccde 4abd 3b59 b5bc 6c53 153b b486 0b3d
000000c0: aa61 1fbd f626 dcbc ee46 32bd fe65 cc3d
000000d0: bd67 f13d 4829 fe3d ea97 a73d 3a3f 0b3e
000000e0: ecff 9b3c e3c0 033d 2b09 69bd 5d83 603d
000000f0: 64f8 613e 029b 323e 72ad 6b3d c0b3 c33d
00000100: 560c a03d d1ae fdbc f0da a8bd 5224 35be
00000110: e1cf d6bd 38a3 10be aa19 8fbd 3c58 23be
00000120: d6c2 b63c 8ffd 6e3c dca2 cf3d 4c1f 80bd
00000130: 9139 54bc 127e b4bd a334 c1bb 1e5f 393d
00000140: 741c f03d 5088 dbbc 9972 abbb e82f a13d
00000150: 1429 f13b bf6a 633d 9b06 473e 7a82 c7bd
00000160: e20f 0ebe d259 f7bc e3e7 1bbd 809c c5bd
00000170: 3103 1fbd 5797 11bc af10 393d 1cb3 553d
00000180: 6ff6 17bd f19b cebd df59 a83c 9205 fa3a
00000190: 15b5 beba 129a 273d b01c 8abd 3c17 87bd
000001a0: f9b7 16bd 85cf 2c3d dfb1 5e3d 2ab4 f43a
000001b0: 07bb 14bd a04c 3f3c aceb a23d 5f3f d7bb
000001c0: 55cb 753c 0bef 3c3e e623 c9bd 0ea3 d3bd
000001d0: 080a ac3c 045a 053e 4071 b23d 75ae db3d
000001e0: 98c3 36bd f62a e63c 773b 91bd 966c be3d
000001f0: e052 ae3c 88b4 f13d 0f82 e53c 6283 4a3d
00000200: 7632 b73c 3ff9 08bc 1b1e 80bd 55f0 95bd
00000210: 3551 b43d 8667 943d ad24 603b 1e92 4e3c
00000220: 369c 463d 15bc 0bbd c6c8 b1bd 744f 17be
00000230: 251b c5bd 67af 45bd 80de 393d e24c 4b3c
00000240: e0b3 98bd 4950 103d eb7c 8fbc 0bd4 51bd
00000250: 666b 8dbd 19c8 963c 329a 423c a0ae 05bd
00000260: d97e 1bbc 01be 113e 33e7 cc3d 207a 513e
00000270: 8c8a 73bd 58cb 2a3d c81f 31bd 2560 72bd
00000280: 9f80 b5bd 019e 96bd 4a3d 763d 9df5 1a3e
00000290: 0010 843d 50f9 5c3d f9f2 643d 4620 713c
000002a0: d1e5 3dbe 61f4 e4bd 0aa7 17be 012a da3c
000002b0: 8627 5f3d c9bf 033e b872 66bd fbd6 b7bc
000002c0: b48c bebd 3d84 36be eafe 40be 5702 b5be
000002d0: 524e 243e 9f78 8d3d df8f 7b3d 7f5a a3bd
000002e0: 77cf 18bc 607e e9bd 004b cabd 7923 bbbd
000002f0: 5b7b 22bd c577 eb3c 113c 8dbc ebf9 5d3d
00000300: b938 bebc 7546 5bbd 7166 45be dea6 ca3d
00000310: 8bd2 103b c4f8 0f3d 92b2 fbba 55be 76bd
00000320: 6c49 ce3d d6c4 f8bd 0a3e 91bd 46ed 413c
00000330: 04f9 dbbd 8b0c e0bd fe47 173e 5e8b 14bd
00000340: ff83 27bd bc2e 73bc ce34 1abd 22fe 8f3c
00000350: d4dc d0bc 1e49 173d e8cf 9fbc 7882 d2bc
00000360: e693 3f3d fdbf b9bb 44c5 96bc bbf0 f73c
00000370: 0623 e9bd 2314 cbbd df1b 4ebe 86f7 31be
00000380: c5df 7cbe 60f9 d83c e38b 233e 9176 883d
00000390: dc8c ce3d fc37 cd3c 10f7 513d 6f4e 62bd
000003a0: 9959 863d cc64 56bd 84fa 7f3d 16aa 933d
000003b0: b91e 813e 0274 84bd bba3 d33c 98f2 86bc
000003c0: 1445 4fbd 759d 26bd 8eda e13c cdb3 b23d
000003d0: eae9 dd3d 8659 113e ff07 adbd 21f1 b3bd
000003e0: 5624 a43d f011 9cbd f4d4 0cbe f600 5fbe
000003f0: 3a01 87bc a686 4d3b 9411 7d39 7f04 1fbe
-0.029736476 -0.07789543 0.010416752 -0.024382513 -0.04920083 -0.15290117 -0.022425827 0.017483681
-0.107678086 0.08292631 0.08980074 0.19161852 0.0019354079 0.08417224 0.01939276 0.03366344
-0.028087923 -0.159718 -0.13183168 -0.008286952 -0.0056780507 -0.14182249 0.03426848 0.18582809
0.03586041 0.08969424 0.38216418 0.0012973925 -0.06629839 -0.084892415 0.07600121 0.014997834
-0.069349036 -0.1680209 -0.11165024 -0.06729033 0.0046032574 0.053998556 0.30021784 0.057424262
0.06695011 0.070280366 -0.014178938 -0.1551455 -0.049528882 -0.022137275 0.002278532 0.03406401
-0.0389115 -0.026874047 -0.043524675 0.09980391 0.11787365 0.124102175 0.08183272 0.13598338
0.019042931 0.032166373 -0.05689351 0.054812778 0.2206741 0.17441943 0.057538457 0.09555769
0.07814853 -0.030967148 -0.08244884 -0.17689636 -0.104888685 -0.14124763 -0.06987317 -0.15951627
0.022309702 0.01458682 0.10138485 -0.062559694 -0.012953178 -0.088131085 -0.0058961674 0.045256726
0.11724177 -0.026798397 -0.005232167 0.078704655 0.007359633 0.055521723 0.19436114 -0.09741683
-0.13873246 -0.030194197 -0.03806294 -0.09648991 -0.038821403 -0.00888618 0.045181926 0.052172765
-0.03710025 -0.10088337 0.020550666 0.0019075146 -0.0014549816 0.040918417 -0.06743753 -0.065962285
-0.036796544 0.042190094 0.05436885 0.0018669416 -0.036311176 0.011675984 0.07955107 -0.0065688337
0.015002091 0.18450563 -0.098213 -0.103338346 0.021000877 0.1302262 0.08713007 0.107266344
-0.044620126 0.028096657 -0.0709142 0.09298055 0.021279752 0.11802012 0.028016118 0.049441703
0.022362929 -0.008360206 -0.06255742 -0.0732123 0.088045515 0.07246308 0.0034201548 0.012608079
0.048488818 -0.034114916 -0.086808726 -0.14776403 -0.09624318 -0.04826298 0.04537821 0.012408467
-0.074561834 0.035232816 -0.01751562 -0.05122761 -0.0690525 0.01840596 0.011877583 -0.03263724
-0.009490692 0.14232637 0.10005035 0.20456743 -0.0594583 0.04169783 -0.0432432 -0.05917372
-0.08862423 -0.073543556 0.060117044 0.15132757 0.06448364 0.0539487 0.05589578 0.014717167
-0.18544699 -0.11179424 -0.14809814 0.026631357 0.05448105 0.12866129 -0.056261748 -0.022441378
-0.09304181 -0.17823882 -0.18847242 -0.35353348 0.16045502 0.06907772 0.061416503 -0.07976245
-0.009326807 -0.11401057 -0.09877586 -0.09137625 -0.039668422 0.028743634 -0.017240556 0.05419342
-0.023220407 -0.05353399 -0.1927736 0.09895109 0.002209815 0.03514935 -0.0019202998 -0.06024011
0.10072598 -0.121469185 -0.07091911 0.011836356 -0.10740855 -0.109398924 0.14773557 -0.036265723
-0.040897366 -0.014842685 -0.037648015 0.017577235 -0.025495924 0.036934964 -0.019508317 -0.025696978
0.046771906 -0.0056686387 -0.01840461 0.030266156 -0.11383633 -0.0991595 -0.2012782 -0.17379579
-0.24694736 0.026486099 0.15971331 0.0666324 0.100854605 0.02505111 0.051261008 -0.05525058
0.06560058 -0.05234222 0.06249477 0.07210176 0.25218752 -0.06467439 0.025834909 -0.0164731
-0.050602987 -0.040677506 0.027570035 0.087257005 0.10835631 0.14194307 -0.08448791 -0.08786226
0.08014743 -0.07620609 -0.1375311 -0.2177771 -0.016480077 0.0031360774 0.00024134509 -0.15529059

body.block1.conv.bias f4 [32]
00000000: 110b 45bd 7ef7 5f3c 9ee8 1ebd 31df 893d
00000010: 49be 7e3d d825 283d 9842 38bd d3f3 c13c
00000020: b21f a53c f25b 14bc e7ed 0b3d 1109 2bbd
00000030: 2d8b 953c 5b88 1f3d 65c4 1dbc 1e70 053d
00000040: fd17 9d3a a4c7 3a3d 7e2b debc f5be 4d3d
00000050: e4f8 8d3c d834 a8bb 9961 01bd b312 d8bc
00000060: 6041 2a3d f3bc fdbc 52ea b6bc fb7c 9bbc
00000070: f3ab 4dbd 9d1f 46bc 879c 34bd ac4c 7abc
-0.048106257 0.013669847 -0.03879606 0.067320235 0.06219319 0.041051716 -0.044985384 0.023675835
0.020156715 -0.009055125 0.03416243 -0.041756693 0.01825484 0.038948398 -0.009629344 0.032577626
0.0011985298 0.04560055 -0.027120348 0.05023094 0.017330594 -0.0051332526 -0.031587217 -0.026376104
0.041566253 -0.030973887 -0.02232853 -0.018980494 -0.05021281 -0.012092498 -0.04409459 -0.015277069

body.block1.norm.weight f4 [32]
00000000: 69b8 9a3f 2ebb 943f 7fd5 8b3f cfbb a13f
00000010: 7b7c 9f3f 1707 9d3f e30d 963f e5b2 933f
00000020: 9e91 803f fb86 9c3f 4832 953f 2d37 9c3f
00000030: 5b5b 913f b78b 893f 88d7 a03f c30f 9e3f
00000040: 8e56 913f 574a 843f 5955 8d3f dfd3 9c3f
00000050: 2c0c 8b3f 1b0a a43f 6c21 a03f 296d ab3f
00000060: 43a7 9e3f 858b ae3f 7e1f 903f 542a 8d3f
00000070: 0df0 913f ee1e 8e3f 3806 bc3f 7ea6 8e3f
1.2087528 1.1619623 1.0924529 1.263544 1.2459863 1.2267789 1.1722988 1.1538969
1.0044439 1.2228693 1.165597 1.2204338 1.1356004 1.0745763 1.2565775 1.234856
1.1354539 1.0335187 1.1041671 1.2252158 1.086309 1.2815584 1.25102 1.3392688
1.2394794 1.3636328 1.1259611 1.1028543 1.1401383 1.1103189 1.4689398 1.1144559

body.block1.norm.bias f4 [32]
00000000: 319b a2be 259b babe 7c23 33be 3b78 34be
00000010: b927 f2be 1745 28bd c869 8ebe be98 05be
00000020: 42f0 8abe d9aa edbe ed01 97bd 05ea aebe
00000030: 1cb3 5ebe b237 a0be a9e9 41be 0cda cabe
00000040: b102 03be e8c0 bfbd e566 aebe d853 f93d
00000050: 3131 4ebe db6d c1bd 0385 93be 827b eb3c
00000060: 7a2d e6bd 01b5 81be 119a 9cbe 58f9 4cbe
00000070: 321d 15bc 0fbe acbe 5023 c5be 4ff1 1cbe
-0.31759027 -0.3644649 -0.17494005 -0.1762399 -0.4729593 -0.041081514 -0.2781508 -0.13046548
-0.27136427 -0.4641941 -0.07373414 -0.34162918 -0.21748012 -0.31292492 -0.1893679 -0.39619482
-0.12793995 -0.09362966 -0.34062877 0.12174195 -0.20135953 -0.094447814 -0.28812417 0.028745417
-0.11239143 -0.25333408 -0.30586293 -0.20016992 -0.009101199 -0.33738753 -0.38503504 -0.15326427

body.block1.norm.running_mean f4 [32]
00000000: 9154 80bf 257c cbbe 97a2 f6be fca9 97c0
00000010: 785b e4bf de1a 423f cdd9 f9be 4d6f d0bf
00000020: ad58 a93e 275a 51c0 d631 36bf 7b6c 8ac0
00000030: 869c 9fbe e35b 5f40 9883 8fbe 32a9 2dbf
00000040: 6880 bf3f dcb9 a340 937b 0240 8f41 d13f
00000050: 0cbb 2e3f dc9b 2bc0 6352 e13e 1585 50c0
00000060: 0764 3cc0 e8a8 25c0 1a4b 02be 8a4a 86bf
00000070: 5219 5ac0 b2a4 cb3f bc55 47c0 54ab 3dbe
-1.0025808 -0.39743152 -0.4817092 -4.7395 -1.7840414 0.75822246 -0.4879898 -1.6283966
0.33075467 -3.2711275 -0.71169794 -4.3257422 -0.31174105 3.4899833 -0.28030086 -0.67836297
1.4961061 5.116438 2.0387924 1.6348132 0.6825416 -2.681388 0.4400817 -3.2581227
-2.9436052 -2.5884342 -0.12723961 -1.0491498 -3.4077954 1.5909636 -3.1146078 -0.18522388

body.block1.norm.running_var f4 [32]
00000000: ee96 1840 2b72 dd40 b4f6 b140 aa11 1042
00000010: e3a9 f840 1f83 b140 3cfc 0641 2c60 4240
00000020: 77eb d040 ae82 1e41 ae40 a140 50b9 e340
00000030: 6617 3b41 ef0f 3341 af85 3b40 a6a4 2840
00000040: 59fe 6241 8f1f 3c41 2964 9340 c9b3 3741
00000050: 9c6e 9a40 d975 d140 870c a140 e697 2741
00000060: ea6b 8540 044e 7f41 957a b340 3dbd 3c40
00000070: 4e22 e441 6d5c 1b41 8fad c940 eb54 1e40
2.384212 6.9201865 5.561365 36.01725 7.770738 5.547256 8.436581 3.0371199
6.5287433 9.906904 5.0391455 7.116371 11.6932125 11.19139 2.9300344 2.6350493
14.187097 11.757705 4.6059766 11.481393 4.826002 6.5456357 5.032779 10.474585
4.169423 15.956547 5.6087136 2.9490502 28.51675 9.710065 6.3024364 2.473933

body.block2.conv.weight f4 [32, 32, 3, 3]
00000000: 7820 e3bd 417b a2bd 8c38 fe3d 12db d5bd
00000010: 4e04 afbd 7665 453d cdc9 efbc d366 85bd
00000020: ff2f 1a3c c795 d83c f25c 4b3d 0f22 ba3c
00000030: b75b 1c3d 74c1 c7bd a1f9 59bd 2680 bf3d
00000040: 63c2 d0bc 28c4 d4bd ccd6 42be a1e3 81bd
00000050: 8e9d 283d 6ca7 44bd 686f cc3c 0fdc 193e
00000060: 254c 3cbd 4ca2 043d f9eb f43d e3e3 80bc
00000070: 661f a4bd 0d2f d5bd 2a69 4f3d 7fe9 87bc
00000080: 15d8 103d 9db5 843d 0e4e b83d b988 5a3d
00000090: 6449 2f3e 743e 873d 8634 c23d 63f5 663d
000000a0: 424c 5abd 9d96 c7bc 22ef 4fbd 22fc ecbd
000000b0: 3024 2dbe 7cd8 0abe e24a 7ebd bec1 ec3d
000000c0: aa15 73bd d17c 8fbd 36bc 6d3d 2c95 26bc
000000d0: 7b44 f03b d8fd 613d 3565 bebd ddb9 37bd
000000e0: 5e0f 75bd b293 4dbd f052 91bd f0fc 8f3c
000000f0: 852c 1b3d 054f 083b c41c 5e3c 62a5 b2bd
00000100: a948 b13d 6e73 3e3d 3f35 9bbd 9a90 06bd
00000110: c3f9 1bbd 3f85 41bd caad 37bd 5286 21bd
00000120: 6832 133d 7f9c 963d 54d7 5c3e ecbb 743d
00000130: 93e4 ff3c 571d 9c3d 0efa 3f3e 6900 983d
00000140: 9042 6c3d a29d 0fbe ccdc 04be 0b38 afbd
00000150: 6ee8 85bd 37b9 8ebc b098 79bd e8a8 5cbe
00000160: 3c8e 01be c050 55bc d30e 343a 4e22 653d
00000170: c72c 263d 6771 c6bc 3dcf 223e 6be8 613d
00000180: ed5e 64be e288 573c 908d 39be e4a0 2dbd
00000190: 4a02 92bd d2b5 00be 80d9 823d 2946 45bb
000001a0: 14de a8bd 3636 55be 7f17 eebd 835c f0bd
000001b0: f6e3 b6bd 761e bb3c 8cc0 303e c1fc debd
000001c0: 6498 0ebe 2dd5 09bc 487c 933c 9ab8 61bd
000001d0: f263 3d3d 13e6 7bbd 3813 d2bd 9391 44bd
000001e0: 38d3 8d3d 0740 4fbc 4b5f 46bd 9ce2 ec3d
000001f0: 8775 ef3d a05a 0f3d 16df 5cbe cb81 1fbe
00000200: fc09 3bbd 3827 743a e325 2a3d 6928 d43d
00000210: 6667 9f3c c3e2 603d e5ab dcbc b232 2f3d
00000220: 9586 abbc ddee 4fbd 0153 013e 2924 d33d
00000230: 4385 a33d 3e52 52bd d540 6bbe b621 3bbe
00000240: 7d42 db3b 50e7 993c a9af ed3d 3129 3d3a
00000250: 72bd 98bc 69bb 913d 8502 263d 55ad 26bd
00000260: 7aa7 af3c cac3 ffbd 79a7 aebc 6346 033e
00000270: f0a1 8abc d67f 1d3d f8fd 283e 7f4b ce3d
00000280: 9e62 e33d 9ffc 733e 23f9 a53d 002d e0bd
00000290: 291a cfbc d3e7 5c3e 5fe0 05bd 93d3 5bbd
000002a0: d739 b13c 3a03 693d f83a e83d a25b 49bc
000002b0: 1e35 21be 5c02 7a3d 19f4 33bd ff70 3dbe
000002c0: 00c3 03bd 5a39 0dbc 7118 2b3c 5331 a6bd
000002d0: 3a44 a8bc a2ec 0c3e 7cbe f03d e63e 6fbe
000002e0: 930d aebd 2a33 8f3c 7c54 70bd db5e 81bd
000002f0: 1676 56bc 5ed9 143e 1405 f5bd 2c19 08be
00000300: ae96 773d 4f10 adbc a778 cabc ba85 bcbd
00000310: 8301 1abd 2f34 66bd 5a9c 2a3e ca6a d83d
00000320: 642a 333e 8657 003d ecbc f4ba c326 9c3d
00000330: 82fe 1fbd 7e92 7bbd ede2 023b 25b1 0e3d
00000340: a216 493e 319f 083e 6d2c cf3c 1c05 703d
00000350: cb28 6d3d 4e9e f1bd 605b 9ebd 5aab 44bd
00000360: 8b90 4e3e 758d 073e 39be f73d e143 f93d
00000370: 7c80 b03c c75a 1a3d 61dc 163c 398f 40bd
00000380: 6827 44bd 0c54 1abe 0b59 dabd d433 18be
00000390: 7765 bebc adea c3bd 1df0 10be a424 3cbd
000003a0: 3678 1e3c adc3 d3bd 5010 163d a982 8f3a
000003b0: c711 503d fb55 78bb 24d8 c43b cb05 f03c
000003c0: fb68 c8bc 7def 323d 93cd 143e bb2e f0bd
000003d0: bfb2 1bbd 2868 203e 0d6f b4bc 2680 a13c
000003e0: 6a3c 7b3d 23d5 e73c cba4 afbd ea85 07be
000003f0: f264 08be d9e1 c5bd 3392 023d c92e 92bd
-0.11090177 -0.07933665 0.12413129 -0.10442175 -0.08545743 0.048192464 -0.02927103 -0.06513753
0.009410857 0.026438607 0.049649186 0.022721319 0.038173404 -0.09753695 -0.05321658 0.09350614
-0.025483316 -0.10388976 -0.19027251 -0.06342245 0.04116588 -0.04801123 0.024955466 0.15025352
-0.045971055 0.03238134 0.11959071 -0.015733665 -0.08013801 -0.10409365 0.0506374 -0.016590832
0.035362322 0.064799525 0.08999263 0.053353045 0.1711784 0.06603709 0.09482674 0.056386363
-0.05329538 -0.02436381 -0.050765164 -0.11571528 -0.16908336 -0.13559145 -0.062083133 0.11560391
-0.059346832 -0.07006229 0.05804082 -0.010167401 0.0073323823 0.055173725 -0.092966475 -0.044854987
-0.05982911 -0.05018968 -0.07095897 0.017576665 0.037884254 0.0020799052 0.013556663 -0.087229505
0.08656437 0.0464968 -0.07578515 -0.032852747 -0.03807999 -0.047246214 -0.044843473 -0.03943474
0.035936743 0.07354068 0.21566516 0.05974953 0.031236922 0.07622784 0.18747732 0.07421953
0.057680666 -0.14024976 -0.12974852 -0.08555611 -0.06538473 -0.017422302 -0.06093663 -0.21548808
-0.12651914 -0.013019741 0.0006868664 0.05594092 0.040570047 -0.024223996 0.15899368 0.05515329
-0.22301836 0.013155194 -0.18120408 -0.042389765 -0.07129343 -0.12569359 0.06389141 -0.0030101633
-0.08245483 -0.20821461 -0.11625575 -0.11736395 -0.08930199 0.022841673 0.17260951 -0.10888053
-0.1392532 -0.0084126415 0.018003598 -0.05510769 0.046237893 -0.061498713 -0.10257572 -0.047990393
0.069250524 -0.012649543 -0.048430722 0.1156666 0.116923384 0.034998536 -0.21569476 -0.15576856
-0.04566382 0.00093137054 0.041540038 0.1035927 0.019458484 0.054903757 -0.026937434 0.042772956
-0.020938197 -0.050764907 0.1262932 0.103096314 0.07984402 -0.051347964 -0.2297395 -0.18274578
0.0066912756 0.018787056 0.1160577 0.0007215916 -0.018645022 0.07115824 0.040529747 -0.040692646
0.021442164 -0.12488516 -0.021320092 0.12819819 -0.016922921 0.038451992 0.16503131 0.100729935
0.11102794 0.23826836 0.0810416 -0.10946083 -0.025281029 0.21572809 -0.03268468 -0.05366857
0.021634025 0.056887843 0.113393724 -0.012289913 -0.15742919 0.061037406 -0.04393396 -0.18500136
-0.03216839 -0.008619631 0.010442839 -0.081148766 -0.020540345 0.13762143 0.11755082 -0.23363838
-0.08498683 0.017480452 -0.05867432 -0.0631692 -0.013089677 0.14536044 -0.11963859 -0.13290852
0.060446434 -0.02112594 -0.024715735 -0.09205194 -0.037599098 -0.05620211 0.16661206 0.105672434
0.1749664 0.03133347 -0.0018672026 0.07624581 -0.039061077 -0.061419003 0.0019971684 0.034836907
0.1963754 0.13341977 0.025289739 0.058598623 0.05790023 -0.11797772 -0.07732272 -0.048014976
0.20172326 0.13237555 0.12096829 0.1217115 0.021545641 0.03768423 0.009207816 -0.047011588
-0.047889143 -0.15071124 -0.10661515 -0.14863521 -0.023241742 -0.09566245 -0.14154096 -0.04593338
0.009672215 -0.103400566 0.03663665 0.0010948974 0.050798204 -0.0037893045 0.0060072113 0.029299637
-0.024464121 0.043685425 0.14531545 -0.11727663 -0.038012262 0.15664732 -0.02202561 0.019714426
0.061336912 0.028299874 -0.08576354 -0.13234678 -0.13319758 -0.09662218 0.031877708 -0.0713783

body.block2.conv.bias f4 [32]
00000000: e1cc 39ba b06f f6bb de2a 893b 37b8 c2bc
00000010: d8ea 10bd f1be 2ebd b9ac 6c3d 7256 993d
00000020: ed0d 303d d07f e53c e008 66bd 2ff8 b43c
00000030: ba8b 4bbd 299f f03c 9dc8 25bd 0522 00bd
00000040: af51 9abc 46f1 67bc faaf b53c 5f0d 1cbc
00000050: 5fca ffbc a2a3 6bbc 7047 95bc df29 7abd
00000060: e709 84bd 1ade 0cbd 40dc 353d c46b 853c
00000070: b622 1ebd ab40 61bc aa76 efbc dad1 603d
-0.0007087719 -0.0075206384 0.0041860184 -0.023769481 -0.035380214 -0.042662565 0.05778191 0.07487191
0.04298203 0.028015047 -0.056160808 0.022091 -0.0496938 0.029372768 -0.040474523 -0.031282444
-0.018837778 -0.014156645 0.022178639 -0.009524672 -0.031224428 -0.014382275 -0.01822254 -0.061075088
-0.06447201 -0.0343915 0.0443995 0.016286738 -0.03860732 -0.013748328 -0.029231388 0.05488763

body.block2.norm.weight f4 [32]
00000000: c8cf 8d3f 0a57 b23f 1119 933f b19c 983f
00000010: 504c 8f3f 6c6c 9f3f ec12 7d3f 59e4 8a3f
00000020: eee9 973f 02f8 8d3f 68cb a33f 782b 973f
00000030: 52e5 8e3f 570b 983f 0306 bd3f 0135 993f
00000040: 4080 a83f d238 a03f 1ff6 9e3f 0974 a83f
00000050: 4506 b83f a70c 963f 7eae aa3f 203b a23f
00000060: 172b b93f 77e5 873f 817f 873f 148b a13f
00000070: de95 8f3f f509 953f 3b03 9b3f ac20 a03f
1.1079035 1.3932812 1.1492025 1.1922818 1.1195164 1.2454963 0.98857 1.0850936
1.1868265 1.1091311 1.279645 1.1810141 1.1163733 1.1878461 1.476746 1.19693
1.3164139 1.251734 1.241886 1.3160411 1.4376913 1.1722611 1.3334501 1.2674294
1.4466275 1.0616902 1.0585786 1.2620568 1.1217611 1.1643664 1.2110361 1.2509971

body.block2.norm.bias f4 [32]
00000000: 06e9 553d bcde 98be 150b aabe fae4 9ebe
00000010: e64c 84be d9e8 06be 9a57 94be c5ac 00bf
00000020: bf48 d63c f8f2 c9be 4c77 9fbe a4a4 d9bc
00000030: e994 84be 78ae 56be ff13 81bd 382d 6fbc
00000040: 5657 00be 260e 9abe cf93 8dbe 095e 92be
00000050: 03bb 5cbe 85cc 39be d730 c4be cc73 5cbe
00000060: 0f34 3abd 7c4b 4ebe 0390 91bd 806d d3be
00000070: 4ffd 67be 8bd8 12bd 1527 84be ba79 18be
0.05222418 -0.29857433 -0.3321158 -0.3103407 -0.2583992 -0.13174762 -0.28973085 -0.50263625
0.026157735 -0.39443183 -0.31145704 -0.026567765 -0.2589486 -0.20964992 -0.06302642 -0.014598183
-0.12533316 -0.3008892 -0.27651832 -0.28587368 -0.21555714 -0.18144424 -0.38318512 -0.21528548
-0.045459803 -0.20145983 -0.07107546 -0.4129448 -0.22655223 -0.035851043 -0.25811067 -0.14890185

body.block2.norm.running_mean f4 [32]
00000000: bcdf 2dbf aced dbbf b3bd ab3f bc09 abbf
00000010: af87 703f 697e 843f edf8 d03e e75b 70be
00000020: 97ce 8b3d f0b7 973f 0716 e3bf 506d 64bf
00000030: a420 a63e d8c5 35bf 9655 88bf 2f9e adbf
00000040: 6a6a 9d3f b95b d0be 2807 58bd 0a44 a43e
00000050: d1df 9b3e 2c75 cd3f 4119 d3be c871 2f3e
00000060: fc37 d5be e391 b1be b00d 69be 517b 243f
00000070: d6eb 93be 6e9a 27be 2570 29bf 5108 d33f
-0.67919517 -1.7181907 1.3417267 -1.3362346 0.93957037 1.0351077 0.40814915 -0.23472558
0.06826513 1.1853008 -1.7741097 -0.892293 0.32446778 -0.7100501 -1.0651119 -1.3563899
1.22981 -0.4069498 -0.0527412 0.3208316 0.30444196 1.6051383 -0.41230205 0.17133248
-0.41644275 -0.34681615 -0.22759128 0.64250666 -0.28890866 -0.16367504 -0.66186744 1.6486913

body.block2.norm.running_var f4 [32]
00000000: 986a 0f40 d675 4f41 22f3 6e40 e928 2540
00000010: dccf 2a40 44c9 8b40 4c59 af40 5939 ea40
00000020: fdea f93f 919f 8140 9ab9 9a40 d58d 4141
00000030: a799 8d40 c8be d840 fa61 5740 9649 d340
00000040: 6b1e 9640 ed60 d93f 4958 8840 8f91 0340
00000050: 0b57 7b40 4aa5 a440 c4b1 fb40 3fdf 903f
00000060: d38c 6440 e4dc 9340 d58c 0340 fc4a 7340
00000070: 9328 2a40 fc73 3140 c369 2f40 84b9 cb40
2.240881 12.966269 3.7335896 2.580622 2.6689367 4.3683186 5.4796505 7.3195004
1.9524838 4.0507283 4.8351564 12.097127 4.4250064 6.7732887 3.365355 6.6027327
4.691213 1.6982704 4.260777 2.0557592 3.9271877 5.145177 7.86545 1.1318129
3.5710952 4.620714 2.0554707 3.8014517 2.6587265 2.7727041 2.7408302 6.366396

body.block3.conv.weight f4 [32, 32, 3, 3]
00000000: 5128 64bd 8d17 7dbd 8e8f 1ebd 7053 a3bd
00000010: af5c c3bd 4bad 6bbd 3056 38bd 464b 00be
00000020: a66f 81bd 93a6 303d 7e6c 1ebb 83e1 22be
00000030: 5820 32bd 115b 02bd a09d 1abe cf19 37bd
00000040: ad18 38bd cbff a5bd 5777 3fbd 64d2 db3c
00000050: cb58 13bc 5881 15bd 4ef6 873d 2a39 8ebc
00000060: 7802 71bd db21 29bc 3b7a 5abd 248b fb3d
00000070: 04f4 c13d ad70 123d abd6 9c3c 3c22 1ebd
00000080: cc5f 1abd 77c6 0dbe 5c7a d2bd c00c 1d3d
00000090: d2eb cc3c ffc6 493d 39f6 263d 4369 38bd
000000a0: 1b77 42bc 3c34 663a 682c e3bd c65c e93c
000000b0: 5512 483e c639 e7bb 3847 fbbb 3343 5ebd
000000c0: 0e15 4fbc db1f 78bd d4b0 ddbd 539e 1abe
000000d0: c5b8 edbd 769a 2dbe c7ed 4abc 2ed6 abbc
000000e0: b6d0 df3c 104a 8cbc c218 0bbd 45ca 9fbc
000000f0: b575 20be 68b0 1fbe b25b c1bd f4e7 f73c
00000100: 23d9 463d a64c ce3d 4ad6 93bd 6444 93bc
00000110: cf52 b23d 18b9 74be 597e 8fbe 880b 50be
00000120: 97d2 dabd 54af a7bd 7487 e2bc 2198 92bd
00000130: 8e4b 79bd 0a65 52bd 7337 20be 9b0d bebd
00000140: 9782 39bd adc0 1b3d c2d5 453d 338e 15bb
00000150: 97f6 d03d e399 a13d 4327 1a3c faa1 3d3d
00000160: c085 c7bd 5605 04be 43d3 a53d 4490 8a3d
00000170: d6fa 98bc 8af7 3ebd cb52 d4bc d9c9 88bd
00000180: b0d1 153d e939 463d 5dca 92bc 26f2 79bd
00000190: da99 1dbd c1ec 23bc a2fb 07bd 3cdd 24bb
000001a0: c7ea 133d c48b febb 1925 bd3b e44a 2cbb
000001b0: 992d 17bb d477 bd3b 68b2 8bbc d2c2 04be
000001c0: d860 f5bd d6e8 0cbe 3413 63be 0cb9 f0bd
000001d0: 79e5 0fbe 13a7 03be 8f91 11be 62bb 40be
000001e0: 02e4 a8bd b05b b8bd 9a5e 14be 2271 6d3c
000001f0: 74f8 ca3c 148c 153c a291 afbd 2d23 5ebc
00000200: e0a4 04be bd5b eabd a0cf 47ba 9994 90bd
00000210: 8f17 0abe 35ad 14bd 4abf d9bd 1a09 65bc
00000220: f273 e3bc bbf1 91bd a713 34bd 3b1f 04bc
00000230: 40b8 82bd 86bd 4c3d 50ca df3d 29a9 ac3d
00000240: 9b33 50bd 06f9 a7bd 18e4 01be 3464 01be
00000250: 7d97 febd 584b 36be f983 69bb d494 93bd
00000260: 6885 59be 73bf e33c 0a42 a03b 66a2 c7bb
00000270: d817 523d f9d2 9f3b ddbb b23c 8761 093e
00000280: 5340 b03d f77b 243d 3e10 28be f3dc 69be
00000290: 7381 19be 9d4d 2fbe 955d 3abe 374f 99bd
000002a0: 84c0 54bc 9e21 df3c e125 053d fadd 65bd
000002b0: ffca a4bd 86cd aebc a6b0 2a3d bf36 7fbd
000002c0: b869 c8bd 949f ebbc 0be3 04be 8b9d 4ebe
000002d0: 4e8c ae3c 3d8a 6e3d 7524 6abd 5bb7 dbbd
000002e0: f56c 4cbd 0821 82bd 36ed c4be a21c 74be
000002f0: fe96 2bbe 7742 2fbe 3719 44be 1a36 87be
00000300: 5415 afbd 1cb9 fabd 828e 04be eb2b b93d
00000310: d15b df3c dbd7 6a3b 480e 473d 60f4 a83d
00000320: 99f2 92bc b330 69bd 1f28 563d c53b 0fbd
00000330: 8903 523c 17a8 723d df76 b5bd afe8 1a3d
00000340: e64e 983d c6ed 243d ad03 efbc a508 d03b
00000350: f752 0cbd abe4 d5bc a92d 60bd 4c13 28be
00000360: fb06 01bd 7f97 a6bd ba37 09be 5eac e3bc
00000370: d747 873d fd6b d3bd 56e6 533d 95f6 ac3d
00000380: f07d 9dbd a4dd 39bd 1d33 31bd 11cf 783d
00000390: a2d2 84bc 1b1d 76bc cbed a43d bd07 acba
000003a0: 29f1 3fbd bc15 0fbc fb5d 45bd bc03 79bd
000003b0: 4d11 8fbc 5b37 a6bc ee0b 0cbd 3473 e9bc
000003c0: 248a 303e bdf3 803c ed92 12bd 2eb3 9f3c
000003d0: 43fe 043d 8d30 8dbd 6bb2 34bd 8d59 40bd
000003e0: d75b a6bd 3de7 11be 47c5 dabd 56dc 0bbe
000003f0: 4d4d a8bb 153a 9abd ed9c 46be 959a 693d
-0.05570251 -0.061790038 -0.038711123 -0.07974899 -0.09539162 -0.057538312 -0.04500407 -0.12528715
-0.063201234 0.043127608 -0.0024173553 -0.15906338 -0.043487877 -0.03182513 -0.15099192 -0.044702347
-0.044945408 -0.08105429 -0.04674467 0.02683372 -0.008993338 -0.036500305 0.06638776 -0.017361242
-0.058840245 -0.010323013 -0.053339224 0.12282398 0.094703704 0.035751987 0.01914533 -0.038606867
-0.037689015 -0.1384524 -0.102772444 0.038342237 0.025014792 0.049262043 0.04076216 -0.04502226
-0.011869217 0.0008781587 -0.11092454 0.02848662 0.19538243 -0.0070564477 -0.007668402 -0.054263305
-0.012639297 -0.060577255 -0.10824743 -0.15099458 -0.116075076 -0.16953453 -0.012385792 -0.020976152
0.0273212 -0.01712516 -0.033959158 -0.01950563 -0.15669902 -0.15594637 -0.094413176 0.030261971
0.04854692 0.10073213 -0.07218607 -0.017976947 0.08707201 -0.23898733 -0.28026083 -0.20316899
-0.10684698 -0.08187738 -0.02765248 -0.071579225 -0.06086307 -0.05136589 -0.15646152 -0.09279939
-0.045290556 0.038025547 0.04829956 -0.0022820353 0.10203283 0.0789068 0.009408775 0.04629705
-0.09742308 -0.1289266 0.080969356 0.06765798 -0.018674295 -0.04662279 -0.025918385 -0.066791244
0.036576927 0.04839507 -0.01791876 -0.061021946 -0.038476802 -0.010005177 -0.03319896 -0.002515628
0.036112573 -0.007768126 0.0057722447 -0.0026289755 -0.002306795 0.005782107 -0.017052844 -0.12964943
-0.11981362 -0.13760695 -0.22175294 -0.11754045 -0.1405238 -0.12856703 -0.14215682 -0.18821481
-0.08246614 -0.09001863 -0.14489213 0.014492305 0.024776675 0.0091276355 -0.08572699 -0.013558191
-0.1295352 -0.11443279 -0.0007622186 -0.07059593 -0.1348555 -0.036297996 -0.106321886 -0.013979221
-0.027765248 -0.071261846 -0.043964054 -0.008064087 -0.06382799 0.04998543 0.1092726 0.08430702
-0.050830465 -0.08201794 -0.12684667 -0.1263588 -0.12431238 -0.17802179 -0.003563164 -0.07206121
-0.21242297 0.027801251 0.004890685 -0.0060923574 0.05129227 0.004877445 0.021818096 0.1341611
0.08606019 0.040157285 -0.16412446 -0.22838192 -0.14990787 -0.17119451 -0.18199761 -0.07485812
-0.012985352 0.02723771 0.032506827 -0.056119896 -0.08046531 -0.021338236 0.04167237 -0.06230807
-0.09785789 -0.028762616 -0.12977235 -0.20177285 0.021307137 0.058237303 -0.057163674 -0.10728332
-0.049908597 -0.063539565 -0.38462228 -0.23839048 -0.16756818 -0.17115198 -0.19150244 -0.26408464
-0.0854899 -0.12242338 -0.12944987 0.0904158 0.027265461 0.0035834226 0.048597604 0.08249736
-0.017937945 -0.05693121 0.052284356 -0.03496911 0.012818226 0.059242334 -0.088605635 0.03781956
0.07436924 0.04026582 -0.029176557 0.0063486868 -0.03425881 -0.026110014 -0.054731045 -0.16413611
-0.031500798 -0.08134364 -0.13400164 -0.027792152 0.06605499 -0.103233315 0.051733337 0.08445469
-0.07690036 -0.04537739 -0.043261636 0.06074435 -0.016213719 -0.015021588 0.08053168 -0.0013124865
-0.046860848 -0.008733209 -0.04818533 -0.060794577 -0.017464304 -0.020290067 -0.034191065 -0.028497316
0.17240196 0.015741223 -0.03578465 0.01949462 0.032469045 -0.06894026 -0.044115465 -0.046960402
-0.08122986 -0.14248367 -0.10682159 -0.1365827 -0.005136168 -0.075306095 -0.193958 0.057032187

body.block3.conv.bias f4 [32]
00000000: caab 9fbc 5f60 ec3c a8b0 26bd b987 64bc
00000010: f972 663c 7f2c 143c 6797 dfba 30fc 85bc
00000020: ae7b 35bd c296 6bbb c2e9 04bc f328 25bd
00000030: 9f20 7ebc efac 2c3d 77d8 9e3b b8f2 833c
00000040: c29b 1dbd a4f4 613c 5828 eabc 48bb 113d
00000050: 70b8 bd3b 186e 1b3d 244e 0cbd e800 3e3d
00000060: b55d cabc a0f3 7fbd 8cbb 6b3b 613a ff3c
00000070: b760 11bd e196 133d 01f7 c03c 438e 943d
-0.019491095 0.028854547 -0.040695816 -0.013948374 0.014065498 0.009043812 -0.0017058671 -0.016355604
-0.044307403 -0.0035948013 -0.008112373 -0.040322255 -0.015510707 0.04215711 0.004847582 0.016106948
-0.03847862 0.013791237 -0.02858369 0.035578996 0.005789809 0.03794679 -0.03425421 0.046387583
-0.024702886 -0.0624882 0.003596994 0.031155767 -0.035492625 0.03603256 0.02355528 0.07253697

body.block3.norm.weight f4 [32]
00000000: 4ac6 4b3f 9ca9 5d3f f3d7 433f d956 313f
00000010: 4f41 463f 9a58 3d3f 691c 243f 36fa 363f
00000020: f7f4 273f 945f 3b3f b889 5c3f 2dbb 0f3f
00000030: d5b9 233f 4240 4f3f 1bde 383f ac41 4f3f
00000040: 6009 453f 066e 2f3f 4512 663f 20d1 363f
00000050: a7b4 5a3f 0c8b 163f 268a 1d3f 6f7b 243f
00000060: 9ecb 3e3f a0ff 373f 42f9 1e3f e038 363f
00000070: 5fe3 433f 8995 423f ffd3 063f 94e5 5e3f
0.7959944 0.8658693 0.7650139 0.69273144 0.77443403 0.7396332 0.6410585 0.7147554
0.6560816 0.73192716 0.8614764 0.5614498 0.6395543 0.80957425 0.72213906 0.8095958
0.7696743 0.6852726 0.8987163 0.7141285 0.85431904 0.5880592 0.6153892 0.64250845
0.74529445 0.7187443 0.6209909 0.71180534 0.76518816 0.7600942 0.5266723 0.8706906

body.block3.norm.bias f4 [32]
00000000: 6477 07be 1071 f7be 325b bdbe 92da 81be
00000010: eba1 16be 5e59 94be 9f5c 04bf a276 6cbe
00000020: b5a1 48be e862 03bf 6c2b fcbe a9ed 19bf
00000030: 536a a9be 0c6b e6be 0827 5fbe dd4d 96be
00000040: e4a2 00bf 956e 98be 4949 7dbe 85dc 7ebe
00000050: dd76 d7be 0119 01bf 2e43 35be a1bb d3be
00000060: cabe 61be ff40 e3bd 3af2 c0be 05cf 04be
00000070: 97c3 f0be 6de2 f5bd f9ab b8be ca9c b2be
-0.13229138 -0.48328447 -0.3698364 -0.25362068 -0.14710204 -0.28974432 -0.5170383 -0.2309213
-0.19592936 -0.51322794 -0.49251878 -0.60128266 -0.3308893 -0.45003545 -0.21792233 -0.2935628
-0.5024855 -0.29771867 -0.24734987 -0.24888809 -0.42082873 -0.5042878 -0.17701408 -0.41354087
-0.22045437 -0.110963814 -0.37684804 -0.12969597 -0.47024223 -0.12006078 -0.36068705 -0.34885246

body.block3.norm.running_mean f4 [32]
00000000: da7d 88c0 9a46 0bc0 45e9 4ebf 45ce 9bbf
00000010: 91af 3bc0 7bd7 243f 9a3e d7bf 4f9e 04c0
00000020: 388e c1bf affd 58bf 4b31 83bf 6b88 3bc0
00000030: 6b81 31c0 4383 08c0 b345 0fc0 fa35 87bf
00000040: 7f82 b8bf 8c07 3bbf 3161 7bbf de4a b9bf
00000050: 7c03 0abf 5234 9abf 5d39 e9be f398 f1be
00000060: 29ec 9f3e fc92 b2bf 3248 c6be 9025 ccbd
00000070: 1c13 01bf 13ab 153e dd5a ddbf 7637 c0bf
-4.2653627 -2.1761842 -0.8082469 -1.2172323 -2.9325907 0.643913 -1.681598 -2.0721624
-1.5121527 -0.8476209 -1.0249418 -2.9302013 -2.773524 -2.1330116 -2.238629 -1.0563347
-1.4414824 -0.7305839 -0.9819518 -1.4475973 -0.53911567 -1.2047217 -0.45551577 -0.47187003
0.31234863 -1.3951106 -0.38726956 -0.09968102 -0.50419784 0.14616041 -1.7293354 -1.5016925

body.block3.norm.running_var f4 [32]
00000000: 25fa 5841 51fc b240 9c4a a840 6374 1540
00000010: a16a 1b41 b92a ef40 1254 d940 7ff3 d540
00000020: a05a 8541 6543 b340 9a1a e040 36ad 5540
00000030: 9143 2c41 8571 ae40 d1e1 2441 bb46 0140
00000040: 208a 433f 6ae9 4140 d063 2f3f 0599 df40
00000050: d1db 0c41 9b6f b63f a427 6741 df61 6541
00000060: 9d98 2241 1307 ef40 a54e e840 d077 0b41
00000070: f94a a540 7c3b 2441 d7fa d140 e795 b540
13.56107 5.5933003 5.2591076 2.3352287 9.713532 7.473965 6.7915125 6.6859736
16.66925 5.601977 7.0032473 3.338697 10.766496 5.4513574 10.305131 2.019942
0.7638264 3.0298715 0.68511677 6.987429 8.803666 1.4252809 14.447178 14.336394
10.162259 7.4696136 7.2596 8.716751 5.165402 10.264523 6.56187 5.6745486

tail.0.weight f4 [3, 32, 3, 3]
00000000: beb9 893c 9c1a edbb 4042 05bc 92fa a2bc
00000010: 76c5 d13b 6616 783d 9c6c 9b3c bf6c 883c
00000020: 671d 423d b3d1 fa3c b309 663c 6bb6 f8bb
00000030: e6a4 5ebc a961 c0bb d9fa 013c 1a69 80bd
00000040: ae56 97bd 88b8 c0bd 2611 083d 4d4f a0bb
00000050: 370b 543b 86d0 433b 053a 74bc 21c5 02bd
00000060: b64d 183b c376 0339 6527 7abd 7069 2dbc
00000070: 82e7 d83c 3b6f b7bd e677 7bbd 7a6f 79bd
00000080: 3626 99bc 271b a73d 3e60 af3d 3086 703d
00000090: 529d f43c 4ef4 f63c 78bf fcbc 7112 3b3c
000000a0: aec0 d93c 3768 3bbc 71cd 84bc 686b 81bc
000000b0: bbb0 7dbd 24fc 1b3d ff37 483d 04f6 863d
000000c0: b904 aebb e531 cb3c fa14 9cbb 4080 51bd
000000d0: 99b0 60bd 5435 88bd 8c91 373d 96e8 913c
000000e0: e958 213d b0e6 2dbb 45cb 85bb 6cce b8bc
000000f0: b4ab 9d3d 58c7 b23d aedf 3d3d c64f 85bd
00000100: 321a 11bd 015c ed3c c52a 96bd 8c71 6d3b
00000110: 5543 4f3d dadd cfbc 1721 9cbc 9bea e1bc
00000120: b247 71bd c01b 9f3c 2481 633d b3d3 b2bc
00000130: ddf0 323c 5e03 2a3d e742 b83d 27c4 093d
00000140: dfde ae3c 4806 89bd 4d1b b3bd 9827 2fbd
00000150: 2f9d bc3d f6e1 233d 2e50 1bbd 383a bd3d
00000160: 4ee9 ea3d dd31 c93d 463d c13a 9e72 8d3c
00000170: f4b9 b23d d2c8 b43c d2f7 97bc 6753 653c
00000180: 0175 b8bc 0683 2dbd 1b8a 973c 6fb5 2b3c
00000190: 5ee6 febc 1114 a1bd af56 f63c 2dce 723d
000001a0: 5eb5 f03c 20d3 193d 9368 0cbd b3a3 6bbd
000001b0: 2665 3abd 7742 01bb 552b 353d 1554 e23b
000001c0: 1ae3 20bc 65ce eebc 580c 033d c744 bfbc
000001d0: 7a6d 90bd e5c8 c8bb e863 533c 25ca 993d
000001e0: 1e5d 1abc 2e14 9dbd f04b 14bd 2d71 ed3d
000001f0: dd56 503d 13ca 10bd 9d6d d23c d097 033d
00000200: d652 87bd dc3f 0d3d 2499 183c 8096 a2bd
00000210: f762 873c 8fb2 a7bc 1dba 8abb 9c29 833d
00000220: d2c7 383d f3bb c93d e776 dc3c 1f0f 55bd
00000230: 4e6d 9fbd c19a a73c c24d 0bbd fb82 afbd
00000240: 2638 3cbc d444 043d 1890 bcbc 9326 0cbe
00000250: cacb acbd 5017 223e 6e02 ba3d f46f c13d
00000260: 8850 37bd 3261 b43c 3ab5 223d ad71 ca3d
00000270: 751c d9bc 4fbe e1bc 6588 db3c 6458 c9bd
00000280: b2cc 92bd 19d2 213d be18 83bd d0d6 993a
00000290: ddd4 d43c f0eb a33d a37e 9e3d 748b 0abe
000002a0: 77eb d63d f7f8 cfbc a2ee f2bd 8348 1f3d
000002b0: 7102 0f3d fa6b 203b f08e 74bc 46d4 d83c
000002c0: ca22 a53c 6bdf 38bd 12be 243c 7f85 1c3c
000002d0: b87c c2bb 4484 f33c a975 183e 4338 a3bb
000002e0: f25d 9fbc 201d 2f3c f7a0 80bb e735 f2bc
000002f0: 51fb b3bc c490 b1bc 6eec a13d ddb0 a53d
00000300: 25c5 74bd 8d09 7fbc 3bbd 873d 3ebf edbc
00000310: 01bb 833a fdfe 633c fdc4 6b3d 272a 9e3d
00000320: bba6 413d 510d 5b3b 310d a7bc 3809 25bc
00000330: f7d6 113c 6446 1cbd 0404 bfbc a03e ad3b
00000340: 67ad d7bc e7e1 81bc bea9 9e3d da55 83bc
00000350: 2be8 193d 8ed5 253d d571 fa3c 5bb1 a93d
00000360: 765e 4ebd 2457 b1bd 7c6c 77bb 0d0f 433d
00000370: 7c14 893d 6514 173d 8a04 e63c 96a6 d93b
00000380: 74bb 34bd 8132 e73c 14c5 cb3c a5e2 203d
00000390: 90ec 75bd d018 42bc 9dee c93c 0527 56bd
000003a0: bab2 98bb d0ef 653d 1a7d b53c 051b 633b
000003b0: 4b21 ccbc da47 493d fb36 c63c 7504 07bd
000003c0: da1d c83d d35b 9d3c a3b6 ebbc d1b9 b7bd
000003d0: 5cb9 24bd 0406 20bc f222 90b8 10eb 21bc
000003e0: 71a3 f6ba 7cc1 813d f699 b93d b49f 453d
000003f0: cc44 d0bb abd3 e6bc aa0c f7bb cd74 b63c
0.016812202 -0.007235838 -0.008133471 -0.019894872 0.006401713 0.060568236 0.018972687 0.016653417
0.04739132 0.03061757 0.014040398 -0.0075901053 -0.01358912 -0.005871017 0.007933342 -0.062700465
-0.0738958 -0.094101965 0.03321948 -0.004892266 0.0032355317 0.0029878928 -0.014906411 -0.031926278
0.0023239679 0.00012537376 -0.061072726 -0.01058422 0.026477579 -0.089567624 -0.06139364 -0.060897328
-0.018694978 0.08159476 0.085632786 0.05872172 0.029860172 0.03014579 -0.030853018 0.011417971
0.026581135 -0.011438421 -0.016211243 -0.015798286 -0.06193612 0.038082257 0.048881527 0.065898925
-0.0053106216 0.024804065 -0.004763243 -0.0511477 -0.054855917 -0.066507965 0.04481654 0.0178111
0.039391432 -0.0026535206 -0.0040830695 -0.022559367 0.076987654 0.08729428 0.046355896 -0.06509356
-0.035425372 0.028974535 -0.073323764 0.003623101 0.050601322 -0.025374342 -0.019058747 -0.027577689
-0.058906265 0.019422412 0.05554308 -0.021829462 0.010921684 0.041507117 0.089971356 0.03363433
0.021346508 -0.06690651 -0.087454416 -0.04276237 0.09209668 0.040010415 -0.037918262 0.0923962
0.114702806 0.09823964 0.0014742992 0.017266568 0.08726874 0.022068415 -0.018550787 0.013996935
-0.02251673 -0.04236128 0.018498471 0.010480269 -0.031115707 -0.078651555 0.03007063 0.059278656
0.029383358 0.03755486 -0.034279417 -0.057529163 -0.04550662 -0.0019723454 0.044230778 0.006906996
-0.00981977 -0.029151151 0.031994194 -0.023348225 -0.07052131 -0.006127464 0.0129022375 0.07509259
-0.009421615 -0.076698646 -0.036205232 0.11593852 0.05086409 -0.035348963 0.025687033 0.0321272
-0.066075966 0.03448473 0.009313855 -0.07938862 0.016526682 -0.020470886 -0.004233612 0.06404421
0.04511244 0.098503016 0.026912166 -0.052016374 -0.0778452 0.020459535 -0.034009703 -0.085699044
-0.011487996 0.032292202 -0.023017928 -0.1368659 -0.08437307 0.15829206 0.09082495 0.094451815
-0.044754535 0.022019003 0.039723612 0.09884963 -0.026502827 -0.027556567 0.026798436 -0.09831312
-0.07167949 0.039507005 -0.064012036 0.0011736993 0.025980407 0.08003986 0.07738998 -0.1352976
0.1049413 -0.02538727 -0.11861922 0.038887512 0.034914438 0.0024478422 -0.014926657 0.026468407
0.02015819 -0.045134943 0.010055082 0.009553312 -0.005935278 0.029726155 0.14888634 -0.004981072
-0.019453976 0.010688096 -0.0039254385 -0.029566718 -0.021970423 -0.021675475 0.079064235 0.080903746
-0.059758324 -0.015566242 0.0662789 -0.029021855 0.0010050238 0.013915774 0.05756091 0.07722884
0.047278147 0.0033424685 -0.020392032 -0.010072999 0.008901349 -0.038153067 -0.023317344 0.0052870065
-0.026327802 -0.015854789 0.077472195 -0.016032148 0.03757493 0.040486865 0.030571857 0.08285781
-0.050383054 -0.08659199 -0.003775387 0.047621775 0.0669336 0.036884684 0.028078336 0.006642173
-0.04412408 0.028222324 0.024874248 0.039278645 -0.060040057 -0.011846736 0.024649912 -0.052283306
-0.0046599777 0.056136906 0.02215438 0.0034653556 -0.02491822 0.04914079 0.024196139 -0.032963235
0.09771319 0.019208824 -0.028773611 -0.089709885 -0.040215835 -0.009767059 -6.872964e-05 -0.009882703
-0.001881702 0.06335732 0.09062569 0.048248008 -0.0063558575 -0.028177103 -0.0075393515 0.022272492

tail.0.bias f4 [3]
00000000: 8ecc 21bd e701 913c ce61 243d
-0.03950172 0.017701102 0.040132336
