trained_models/sinGan/mountains/scale_factor=0.750000,alpha=10/3/netD.pth (torch_old, 122821 bytes, 25 tensors)

head.conv.weight f4 [32, 3, 3, 3]
000000 90 fc c0 3d d4 d0 49 3d 62 ab f9 3d b4 8e 7e ba
       0.094231725 0.04927142 0.12190892 -0.00097105955
000010 a1 d6 37 3d b2 14 ea bb 9d b0 f1 bd 81 1e 34 bd
       0.04488242 -0.0071435804 -0.118012644 -0.043974403
000020 b4 e2 ea bd a5 f0 94 3d e7 46 21 3d 1b dc e3 3d
       -0.114690214 0.07272462 0.03937426 0.11125966
000030 75 29 3f 38 69 13 02 3d 86 6c b4 3c 46 55 c6 bd
       4.557656e-05 0.031756792 0.022024404 -0.09684233
000040 d9 17 2c bd 20 55 8c bd 4f 12 a8 3d a6 3f ee 3c
       -0.04201493 -0.06852174 0.08206617 0.029083084
000050 80 eb b5 3d 17 22 24 3d 86 22 33 3d ba 04 28 3d
       0.08882809 0.040071573 0.043734096 0.041020133
000060 43 5c ad bd 06 b2 14 bd db 62 3a bd 16 23 b2 bd
       -0.08464863 -0.03630259 -0.045504432 -0.08698098
000070 50 5e 62 bc 22 9f 01 be c7 2b 9a bc 5c c8 83 3c
       -0.013816431 -0.1265836 -0.018819703 0.01608675
000080 76 95 35 3c 8d 65 c5 3d af c4 58 3d 52 80 6c 3c
       0.011082998 0.0963851 0.052921947 0.014434891
000090 05 13 f3 bd 49 41 09 3c f8 12 72 be e9 ef 7d bd
       -0.11868862 0.008377382 -0.23640049 -0.061996374
0000a0 b5 2c 04 3c 47 55 cc bd 07 41 c6 bc d8 0d 0f bd
       0.0080673 -0.09977203 -0.02420093 -0.03492531
0000b0 d5 36 da bd 3e 74 b0 bc f0 ec 1f bb 9a b5 a6 bd
       -0.1065499 -0.021539804 -0.00244027 -0.081401065
0000c0 69 e8 0c bc 34 9b 75 3c 04 c7 03 3d b6 6e 43 ba
       -0.008600333 0.014990617 0.032172218 -0.0007455157
0000d0 32 47 1f 3d 78 60 04 bd d4 e0 95 3c 27 f0 ed bc
       0.038886257 -0.032318562 0.018295683 -0.029045178
0000e0 98 90 0c 3d 14 42 15 ba 6a 22 50 ba 8f 7f ec 3b
       0.034317583 -0.00056937453 -0.00079396984 0.0072173546
0000f0 5f 01 cf bc 39 ca 21 bd 9f 1d ac 3c 23 0b 38 3d
       -0.025269208 -0.039499495 0.021010218 0.044932496
000100 0e 4f 86 bc 1c 39 5e 3d a2 cc b2 bc 30 bf d8 bc
       -0.016395118 0.054253682 -0.021826092 -0.026458353
000110 e1 54 73 bb c2 73 cd 3c 7e f9 db 3b 08 3b 11 3e
       -0.003712945 0.025079612 0.0067130914 0.14182675
000120 0c f3 b4 3d c1 11 04 3d 04 c6 21 3d ae 96 2a bc
       0.0883542 0.032243494 0.039495483 -0.010411901
000130 1e c8 45 bd 62 fe 14 bd c5 e0 a4 3d 32 07 07 3d
       -0.04828655 -0.03637541 0.08050684 0.032965846
000140 2a 30 94 3e 8e af 8d 3b 74 2d 47 3d 52 62 40 3e
       0.28942996 0.0043239063 0.04862733 0.18787506
000150 69 66 c6 bd b2 4d 88 bd b8 3b 25 3d 9b 84 02 be
       -0.09687502 -0.06655444 0.040340155 -0.12745897
000160 05 50 37 bc bb 7e c1 3d b8 21 0c bc b0 ef 0d 3d
       -0.011188512 0.09448 -0.008552961 0.034652412
000170 2e ea b4 3d 3a f1 99 bd 01 0d 3a bd 8d b7 45 3d
       0.08833729 -0.075167134 -0.045422558 0.04827075
000180 f4 20 8d bd e4 65 ce 3b 0c 4a f5 3d c3 9d 32 bd
       -0.06891051 0.0062987674 0.11977014 -0.043607485
000190 e8 61 32 bb 82 fb dd 3c 73 8f 5e bd da 2d 51 bc
       -0.0027219001 0.027097467 -0.054336023 -0.0127672795
0001a0 82 0c ec 3c e0 fe 76 bc 61 39 2f 3d e5 07 c4 3d
       0.028814558 -0.015075415 0.04277933 0.09571818
0001b0 48 64 39 be 33 af 05 bd 64 c3 ac bd 16 44 c6 bd
       -0.1810466 -0.032637786 -0.08435705 -0.09680955
0001c0 43 55 4c bc 4b f6 05 3c 90 58 2a 3b 71 a4 c8 bc
       -0.0124715 0.008176397 0.0025992729 -0.024492474
0001d0 7d b9 dc bd a2 54 b8 bd 8c 68 58 ba f4 5a f2 bd
       -0.107775666 -0.090005174 -0.0008255325 -0.11833754
0001e0 01 56 bb bc 4b 4a 27 bc a7 a0 97 bb 85 77 7e bd
       -0.022868158 -0.010210584 -0.0046273055 -0.0621257
0001f0 d7 f2 29 bd 30 ec 97 bc 2c 3d f6 3d 5c c4 37 3d
       -0.041491356 -0.01854524 0.12023386 0.044864997
000200 a3 6f 15 be 9c 23 b8 3d 12 2b 0a 3c f6 9a 49 bd
       -0.14593367 0.08991167 0.00843312 -0.049220048
000210 35 36 aa bd e9 45 62 bc 89 0a 78 bb 69 5a db bd
       -0.083111204 -0.013810613 -0.0037848076 -0.10710604
000220 98 d2 41 bd 9c f4 70 bc 89 40 13 3d 7e 4c be 3c
       -0.04731998 -0.014706757 0.035950217 0.023229834
000230 84 c2 ac 3d 9c e6 3b 3d 2c a1 7d 3d d4 a2 7b 3e
       0.084355384 0.045874223 0.061921284 0.24573833
000240 e8 fd b5 bd 39 a4 1c bd ea 82 16 bd 79 7a d1 39
       -0.088863194 -0.038242552 -0.036745943 0.00039954836
000250 75 bb e1 3b 0f 7a 43 3d 9a b3 86 bc 2f 31 6d 3c
       0.0068888017 0.047723826 -0.016443063 0.014477058
000260 dd 6e d2 3d 51 43 ba bd 85 8d 1f bd e7 bf 11 bd
       0.10275052 -0.09094871 -0.038953323 -0.035583403
000270 8a 2e f6 bc 36 c0 44 ba 93 03 4c 3b 7d f9 80 bd
       -0.030051488 -0.00075054483 0.003113006 -0.06297586
000280 4d 7f c3 bc 79 37 d3 bc 42 1d 80 bc 55 e1 f4 bb
       -0.023864413 -0.025783287 -0.015638951 -0.0074731507
000290 be fc 9e 3c 29 36 cf 3c e9 c7 c7 bb 33 ac 48 bc
       0.019407626 0.02529438 -0.006096829 -0.012248087
0002a0 50 c8 87 3c d0 c0 cf bb 60 0d 33 3c 4b 20 72 3d
       0.016575009 -0.0063401237 0.010928482 0.05911283
0002b0 81 54 0e 3d b5 a1 66 3d 81 d0 91 3c bc ab bf bb
       0.034748558 0.05630656 0.017799618 -0.0058493298
0002c0 58 60 8e bc 1e bd 3e bd fc 6b 19 bc 4d a4 8f bd
       -0.017379925 -0.046567075 -0.009364124 -0.0701376
0002d0 b2 7e fd 3d 60 35 b8 3d 7d 7a b4 3d c1 4a ba 3c
       0.12377681 0.089945555 0.08812425 0.022740724
0002e0 10 03 13 3c c2 1c 85 bd 63 b2 c2 bd 8f ad 47 bd
       0.008972898 -0.06499626 -0.09506681 -0.048749503
0002f0 47 50 22 be 12 4c 20 3e 34 a0 3a 3d 24 89 5c 3e
       -0.15850936 0.15654019 0.045562938 0.2153669
000300 a7 0f 98 3d c5 2b 0c bb ee a5 d7 3c ad f3 5b 3e
       0.074248604 -0.0021388393 0.026324239 0.21479674
000310 06 3d b2 3d 8b c9 f0 3d 96 ed 86 3c 93 eb 87 bb
       0.087030455 0.11757191 0.016470712 -0.0041479557
000320 4b c6 ba 3d 9a 17 a7 bc 2c e3 91 bc 0e 6f 00 3c
       0.09119853 -0.020396996 -0.01780852 0.0078389775
000330 4d b5 d2 3d 06 1b 82 3d 3c 66 4c 3d 08 61 2c bd
       0.10288487 0.063528106 0.049902186 -0.042084724
000340 c1 9f 1e bd b8 46 a9 3d 2e 69 76 bd 67 a8 14 bd
       -0.038726572 0.08265442 -0.0601589 -0.036293413
000350 db dc d1 39 d0 8b f0 3c 40 83 8f 3c 48 f0 c5 3a
       0.00040028137 0.029363543 0.01751864 0.0015101517
000360 85 10 c4 ba 12 0c 8d 3b 5f 15 8a bc 5f de d6 bb
       -0.0014958536 0.0043044174 -0.016855894 -0.0065572704
000370 c5 2a 88 b8 de 68 d6 bb e0 66 e0 3d 74 f2 dc bc
       -6.492952e-05 -0.006543263 0.10957122 -0.02697108
000380 30 fe d9 bd da f4 6d 3d ed 94 00 3c a9 9b ae 3a
       -0.106441855 0.058094837 0.007848007 0.0013321537
000390 2b 88 4b 3d d8 02 f8 bb 54 fb d7 bc 7e e9 32 3e
       0.049690407 -0.0075686984 -0.02636496 0.17471883
0003a0 c7 d4 35 bd dd 28 cd bd 6d 25 e6 3d 9a c7 2d bc
       -0.044392373 -0.1001756 0.11237607 -0.010606671
0003b0 21 ce 1b 3d 6d a7 da 3d a6 a2 97 bc 38 1a 89 bd
       0.038038377 0.10676465 -0.018510174 -0.06694454
0003c0 c5 5f 09 3e 2d ff 3a bd 5c cc e2 bd 31 05 d0 bd
       0.1341544 -0.04565351 -0.11074135 -0.1015724
0003d0 35 8f a8 bc 26 79 09 3d d8 44 d2 bd e9 51 eb bb
       -0.020576099 0.0335628 -0.10267037 -0.0071813953
0003e0 4a c7 c2 3d c6 94 d0 bd 51 90 7d 3b 8b 6c b0 3d
       0.095106676 -0.10184626 0.0038690756 0.08614453
0003f0 e9 7c 06 bd 4a a2 3b 3d 91 62 a8 3c d6 d5 7e bb
       -0.032833967 0.045809068 0.020554813 -0.003888478

head.conv.bias f4 [32]
000000 90 58 bf 3e 13 06 49 be 3a 10 29 be a8 2e 46 bf
       0.37372255 -0.19631223 -0.16510096 -0.7741494
000010 c7 40 35 3d 9f 22 48 3e 3f b6 06 bf ee c7 c5 3d
       0.04425123 0.19544457 -0.52621835 0.09657274
000020 55 3f fd 3e 77 66 b7 bd b5 bc 4a 3e b8 57 a1 3e
       0.4946238 -0.089550905 0.19798549 0.31512237
000030 83 57 29 bd db 94 0f 3d 79 ac d6 3e e5 70 d2 bd
       -0.041343223 0.03505407 0.4192846 -0.10275439
000040 ba df eb bd 5e af 39 3f f4 89 4f 3d a3 62 02 3f
       -0.11517282 0.72533214 0.05066867 0.5093176
000050 2d ad 8e bd 41 49 16 3f 60 16 6d b9 4a 3a 20 3f
       -0.069666244 0.58705527 -0.00022610417 0.6258894
000060 40 a5 99 3e 68 f3 23 bd 66 36 66 be 2a 21 f6 3d
       0.30008888 -0.040027052 -0.22481689 0.12018044
000070 0c d9 24 be ef 16 68 be 1f 0a f0 be 05 15 5c 3f
       -0.16098422 -0.22664998 -0.46882722 0.85969573

head.norm.weight f4 [32]
000000 48 d8 60 3f 78 a3 78 3f cb 2f 8e 3f f0 52 5d 3f
       0.8783002 0.97124434 1.1108335 0.8645468
000010 e7 59 80 3f 2c bf 53 3f e0 61 50 3f f1 6f 84 3f
       1.0027436 0.8271358 0.81399345 1.0346662
000020 1a 95 4d 3f 53 0f 71 3f 76 7b 79 3f 65 93 7a 3f
       0.80305636 0.9416401 0.9745401 0.97881156
000030 1f 7b 8c 3f da b7 37 3f f6 ab 78 3f 70 49 69 3f
       1.0975074 0.7176491 0.9713739 0.9112768
000040 d7 a3 29 3f e9 34 22 3f 7c c1 61 3f 3d 7d 92 3f
       0.66265625 0.63361984 0.8818586 1.144447
000050 03 c5 2c 3f e4 1e 53 3f b5 94 5b 3f 7e 15 5e 3f
       0.67488116 0.8246901 0.85773784 0.86751544
000060 d5 61 6a 3f e9 41 74 3f 9f 29 37 3f 6c ce 66 3f
       0.9155553 0.9541307 0.71547884 0.90158725
000070 72 10 6a 3f 73 54 8d 3f 50 65 87 3f e9 f3 39 3f
       0.91431344 1.1041397 1.0577793 0.726378

head.norm.bias f4 [32]
000000 2e 2b 2b 3f 2b 15 a7 3d f5 06 93 3e 3b 54 b2 3e
       0.6686276 0.08158334 0.28716245 0.34829888
000010 34 a0 07 bc 36 d9 5c 3f 15 ac 50 3e 5b 6e 08 3f
       -0.0082779415 0.8626894 0.20378144 0.5329339
000020 8d 5b 04 3f ee bc 82 3e 62 db 61 3d 4b a1 1c bd
       0.51702195 0.25534767 0.05514086 -0.03823976
000030 96 ae 20 3f 99 51 73 3e 44 99 ad 3e d8 b5 f0 3e
       0.62766397 0.23761596 0.33905995 0.47013736
000040 60 53 b8 3e a7 2b 81 3f 90 66 c1 3d 04 8e 3a 3e
       0.3600111 1.0091447 0.0944339 0.18218237
000050 e5 b8 6b 3f d6 ad 93 3e de a6 03 3d 24 7e 1a 3f
       0.92079 0.28843564 0.03214156 0.60348725
000060 fc 2a f1 3e b6 4e ac 3e fb dd 64 3f 6f f5 f2 3e
       0.47103107 0.33653802 0.89401215 0.47452876
000070 b0 64 06 3e 6b fa bf 3e f2 16 89 be 1e 33 30 3d
       0.13124347 0.3749574 -0.26775318 0.0430175

head.norm.running_mean f4 [32]
000000 d6 cc ba 3e 3d de 14 be 51 79 80 be 98 c1 4d bf
       0.36484402 -0.14537902 -0.25092557 -0.80373526
000010 67 8d 09 3e 08 f9 42 3e f1 97 00 bf 6c 33 cb bc
       0.13432847 0.1904031 -0.50231844 -0.024804793
000020 2a e2 f7 3e 13 52 e9 bc e2 31 92 3e 24 1c bb 3e
       0.48414737 -0.028481519 0.28553683 0.36544907
000030 e8 20 08 be 25 59 8c 3c be e7 f3 3e dd 36 f5 bc
       -0.13293803 0.017132351 0.47637743 -0.029933387
000040 91 1a 0a be bd 62 3e 3f d1 d0 c9 3d 39 ab ed 3e
       -0.13486697 0.7436941 0.09854282 0.46419695
000050 e7 d7 82 bd 2d a9 19 3f e4 69 86 3d 17 44 2b 3f
       -0.06388836 0.60023767 0.06563166 0.6690077
000060 f9 11 b7 3e 33 bb d5 bd 26 e3 54 be 17 12 c2 3d
       0.357559 -0.10436096 -0.20789775 0.094761066
000070 d5 5c c3 bd 3e 7f a5 be 59 7c fd be 4e 5b 5d 3f
       -0.09539191 -0.3232364 -0.49508932 0.86467445

head.norm.running_var f4 [32]
000000 03 ff 24 3d 5f 9b c8 3d c7 81 c6 3d 7f 1b 7c 3c
       0.04028226 0.0979526 0.09692722 0.015387415
000010 6f b4 c1 3d 2d 6b cc 3c 3f 49 31 3c 90 cf 06 3e
       0.09458243 0.02495345 0.010820686 0.13165116
000020 45 ea 83 3c 48 15 3d 3d 46 44 8c 3d e9 4f bc 3d
       0.01610292 0.046162874 0.068489596 0.09194929
000030 52 d3 af 3d f6 57 20 3c d9 34 29 3d ad 81 85 3d
       0.08585228 0.0097865965 0.041310165 0.06518874
000040 6c 6c 20 3c e1 75 a8 3c d1 c3 47 3d 91 4a 89 3d
       0.009791475 0.020564022 0.04877073 0.067036755
000050 2c c0 82 3c 87 77 82 3c e0 45 2e 3d e9 8a 9a 3d
       0.015960775 0.015926136 0.042547107 0.07546026
000060 1b 10 5e 3d 4f 60 82 3d 19 14 38 3c 9d 61 58 3c
       0.054214578 0.06366026 0.01123526 0.013206867
000070 12 a2 ef 3d 96 6c 2f 3e 5f 96 03 3d 34 5a c2 3b
       0.11700834 0.17131266 0.032125827 0.005931163

body.block1.conv.weight f4 [32, 32, 3, 3]
000000 4d 6a 6b bc e2 40 2a bd b9 8d d0 bd 74 c6 fd bc
       -0.014368606 -0.041565783 -0.101832815 -0.030978419
000010 98 6d a0 3b 1f a5 b0 bd eb 77 ac bd 83 b5 66 3c
       0.004895877 -0.08625244 -0.0842131 0.014081362
000020 b2 e2 3d 3c 92 65 99 3c 71 5f 61 3c b3 ea 9f 3c
       0.011589693 0.01872519 0.013755665 0.019521093
000030 b3 3e d5 bd b5 cf 0f bc 5a 61 4d bc 6c 5c 01 be
       -0.104123496 -0.008777549 -0.012535417 -0.12632912
000040 17 1b f5 bc 33 b2 b5 bc 30 cd 24 3d 99 cc 89 3d
       -0.029920144 -0.022179699 0.040234745 0.06728477
000050 61 cb c1 3d a7 1d bb bd fc 60 de bd c0 4b 05 be
       0.094626196 -0.09136515 -0.10858342 -0.13017178
000060 9b 5f c1 bd e2 08 20 be af 3b af be ed 31 4d 3d
       -0.094420634 -0.15628389 -0.34225222 0.05009644
000070 d1 c9 07 3d d1 ec 37 3d 89 a8 75 bd 9f 19 74 39
       0.03315145 0.04490358 -0.05997518 0.00023279198
000080 a1 cd 42 3d 34 2e e7 bd 5e 8b 2b b9 9c 91 8c bd
       0.047559384 -0.112881094 -0.00016359749 -0.0686371
000090 ac 7c 88 bd 02 4f c1 bd 9e 49 27 bd 35 1b bc bd
       -0.06664404 -0.09438898 -0.04084169 -0.09184877
0000a0 6e ee 3f bd f7 78 3e bd c2 7e 4d bd cd fe bf bc
       -0.046858244 -0.04650208 -0.050169714 -0.023436928
0000b0 59 89 8f bc 54 ce 81 3d 2f 90 21 3d f7 01 be 3b
       -0.017521547 0.06338182 0.039444145 0.005798574
0000c0 9a 8f 53 bd ad 0f 5a bd 6c b2 39 3d 89 4d 5c 3c
       -0.05165062 -0.053237606 0.045336172 0.01344622
0000d0 5c 66 9c bd 49 2a e5 bd af 4b 3b bc 51 9f 1d 3d
       -0.07636711 -0.11189706 -0.011431619 0.038482014
0000e0 70 8b 48 3d d0 9d 46 bd 03 ce 98 3c c4 82 4b bd
       0.048961103 -0.048490345 0.018652922 -0.049685255
0000f0 5a cd 0e bc 0a 83 ae 3c e5 ac 82 3d 31 94 e5 3c
       -0.008715952 0.021302719 0.06380633 0.028024765
000100 7e ae ee 3c 5f 77 38 bb 9f 16 71 3d cc 62 11 3d
       0.029135939 -0.0028147323 0.058859464 0.03549461
000110 ba 4e 05 3c 77 cd 16 3e 4d 7f 8b 3d 02 e5 19 3d
       0.008136446 0.14726816 0.0681139 0.037571914
000120 52 57 02 bd 21 be 11 bd a4 fa 9a bd 4b 00 3f bc
       -0.031821556 -0.03558171 -0.07567337 -0.011657785
000130 73 5d 17 bd e2 bd 67 3d 30 63 55 3c cb 52 6c bc
       -0.036954354 0.05657757 0.013024136 -0.014424036
000140 f0 70 d7 3d 84 c1 1e bd 8c 78 c9 bd a6 e6 81 bc
       0.10519588 -0.03875877 -0.098374456 -0.015857052
000150 98 7a 9f bd a8 76 15 bd 3b 65 07 bd 17 f5 a3 bd
       -0.07787055 -0.036490113 -0.033055525 -0.080057316
000160 85 be 90 bd 13 91 55 3d 5a 75 6b bc 55 91 8a 3b
       -0.07067589 0.052140307 -0.0143712405 0.0042287507
000170 3a a9 03 3d f9 25 8e 3d 90 aa c2 3c 65 af 17 3d
       0.03214381 0.069408365 0.023762971 0.037032504
000180 ed 9b 9b bc 7c 2b e6 3c 2e 8a f3 3d fb ff 70 be
       -0.01899525 0.028096907 0.1189159 -0.23535149
000190 7b c4 15 bd 24 48 55 3c 55 4f e1 bd 9b 18 07 3d
       -0.03656433 0.013017688 -0.110014595 0.03298245
0001a0 24 07 a5 3d c0 2c 3c bd d6 0e f0 3c 06 a8 14 3d
       0.080580026 -0.045941114 0.02930395 0.036293052
0001b0 53 71 be bb 18 11 02 bc 01 dd 9e 3c b6 40 dd bb
       -0.005811849 -0.007938646 0.019392492 -0.006752099
0001c0 9f 8f 00 bb 1f 15 5a 3d c1 0b ef 3d 25 96 36 3d
       -0.0019616855 0.0532428 0.11672164 0.044576783
0001d0 e5 98 c8 bd ad db 8f bc a7 fd b7 3d e9 a2 35 bc
       -0.09794787 -0.017560804 0.08983927 -0.011086204
0001e0 0f a9 dd bd e8 a3 45 bd f4 7d a5 3c b8 67 a8 3b
       -0.10823261 -0.048252016 0.02020166 0.0051393174
0001f0 da 76 1d bb 61 cd b4 b8 70 36 ac bd 60 c0 cd bc
       -0.002402714 -8.621324e-05 -0.08408821 -0.025116146
000200 68 58 01 3e f5 bd 8c bd 27 5d f0 3a 5c 82 96 3c
       0.1263138 -0.06872169 0.0018338308 0.018372707
000210 ba 5e 6a bd d1 1c f1 bc aa 03 64 3c 94 63 c6 bd
       -0.057219245 -0.029432686 0.013916889 -0.09686962
000220 c5 4d d1 bc 00 85 f8 bc 6a 67 86 3c 39 37 b4 3c
       -0.025549779 -0.030336857 0.016406734 0.021998988
000230 0b aa 24 bc 53 f7 33 bd 2e 9c 7f bc 56 8e cb 3b
       -0.010050307 -0.04393704 -0.015601201 0.006212036
000240 94 95 66 bd 52 51 70 3c ff 3d 68 3c ab fa f0 bd
       -0.056294993 0.014667826 0.014174937 -0.11766561
000250 18 55 4a bc 39 ab 12 bd 8d 75 b5 bd fb b8 7e 3d
       -0.0123493895 -0.035807822 -0.08860312 0.06218813
000260 30 1c 24 3d f0 f6 26 3e d6 d3 1b 3e d2 f8 86 3d
       0.040065944 0.16305137 0.15217528 0.065904275
000270 2e ed 9e 3d 3c 95 38 3d 06 6a 37 3c 40 10 2c bd
       0.07760082 0.045064196 0.011194712 -0.042007685
000280 e5 51 58 3c 04 8e c6 3d fd 66 88 3c 77 63 cf bc
       0.013203119 0.09695056 0.016650671 -0.025315983
000290 be 56 36 3c fe 63 9c 3b a3 dd 27 3d 62 aa 51 3c
       0.011129079 0.004772662 0.040982854 0.01279697
0002a0 ed 73 29 ba 59 d6 fa bc 19 85 8b 3d bc 27 e8 3c
       -0.00064641127 -0.030619787 0.06812496 0.02833926
0002b0 d9 c7 a8 3c 0d e2 1f bd 78 01 10 be 12 25 0f bd
       0.020603107 -0.03903394 -0.1406306 -0.034947462
0002c0 ae cd 56 bd 2d 35 3c be 04 20 ae bd 1e 22 5b be
       -0.052442245 -0.1837966 -0.085022 -0.21399733
0002d0 c4 5e c5 bd 31 f5 bd 3b c2 99 a5 bb 31 38 2c be
       -0.09637216 0.0057970514 -0.0050537298 -0.1681831
0002e0 46 b5 73 bd b1 e4 0e bd aa 3e 52 bd b1 ce 8c 3c
       -0.059499048 -0.034886066 -0.051329292 0.017188402
0002f0 98 b0 22 3e 1f ce 4f bc 3b f9 fb bc 0d f6 da bd
       0.15887678 -0.01268342 -0.03075849 -0.10691462
000300 55 5e 11 bd 99 1e 1e bc ff 94 eb bc 81 73 47 3d
       -0.035490353 -0.00965085 -0.02875757 0.048694137
000310 90 94 0c 3d 06 ca 62 3c 40 1e a9 bd 9b 0f ca bd
       0.034321368 0.013842111 -0.08257723 -0.09866258
000320 b0 f5 ba bc 4e 54 2a be b2 eb a2 bc 5d 51 90 bc
       -0.022822231 -0.16633722 -0.019887779 -0.017616922
000330 29 01 29 be f1 cd 8a bc 76 08 41 3d 1b 11 08 bd
       -0.16504349 -0.016943904 0.04712721 -0.033219438
000340 b4 d7 3b bd 22 02 63 3c 9f c0 7b 3d ab b8 9f 3b
       -0.045860007 0.013855489 0.061462995 0.004874309
000350 28 dd 3d 3d b2 8e 8b bd ba 68 b2 3c 6e 4d 0d 3d
       0.04635349 -0.06814326 0.021778453 0.03449767
000360 dc e5 44 be 3b f1 82 bd 20 5f a1 bd 72 75 58 3c
       -0.1922831 -0.06393667 -0.07879472 0.013211595
000370 fa 54 b3 3d 6b c5 7e 3d ca 56 8f bd 72 70 43 3d
       0.08756442 0.06219999 -0.069989756 0.047714658
000380 e7 a0 2f 3e fe 2e 84 bd 63 05 9f bd 67 80 09 be
       0.17151223 -0.064542755 -0.07764699 -0.13427888
000390 54 51 3f bd 50 3f c3 bc 6e f6 b4 bd b4 83 02 3e
       -0.04670842 -0.0238339 -0.08836065 0.12745553
0003a0 ee 41 bf 3d b1 f4 33 3d a8 2e ee 3c 81 36 b5 3c
       0.09338747 0.043934528 0.029074982 0.022120716
0003b0 65 59 fd bc 80 52 90 bc d3 fc 65 bd 10 e9 5f 3d
       -0.030926416 -0.017617464 -0.056149315 0.054665625
0003c0 29 7e af bd 2c 7b 37 bd 03 71 1e 3e 60 71 d2 bc
       -0.08568985 -0.0447952 0.15472798 -0.025688827
0003d0 6c ef 74 bc 33 50 a3 bd cc 0c 65 bd ce 3a fd bb
       -0.014949661 -0.07974281 -0.055920407 -0.0077279573
0003e0 74 cf fb bc 5a 8e 85 bd d5 be 51 3d d7 1d 0a bd
       -0.03073857 -0.06521292 0.051207382 -0.033719864
0003f0 1d 15 66 3c f5 46 4e 3c 25 5e cc bc c0 ba 22 3d
       0.01404312 0.01259016 -0.024947235 0.03972888

body.block1.conv.bias f4 [32]
000000 fc dd fd 3c 37 5b 07 3c 4b c7 76 3d 84 ba b0 3d
       0.03098964 0.008261493 0.060248654 0.08629325
000010 ca 1a 25 3d 98 23 3d bb 3c 4b fb 3d 89 a4 65 bb
       0.04030875 -0.0028860327 0.12270209 -0.0035040698
000020 5e ef f7 3c ef c6 b8 3d b8 3e 34 3e ee b4 a9 bc
       0.030265506 0.090223186 0.1760205 -0.020716157
000030 8a 91 68 3c 1a 6d 50 3c 08 0c 4b bc a4 06 0c 3d
       0.0141948555 0.012721324 -0.012393005 0.03418602
000040 71 b3 bf 3d 21 94 38 3d d9 37 3c bd 8b f5 69 bd
       0.093603976 0.04506314 -0.045951698 -0.057118934
000050 fe ac 15 3e f1 da f9 bc 99 82 35 bd 45 1f 39 bd
       0.14616773 -0.030499907 -0.044314 -0.045195837
000060 64 64 c7 bc c2 de 91 bc 43 e4 c7 3d 3a e2 ee 3b
       -0.024339862 -0.017806415 0.09760334 0.007290152
000070 dc 47 06 3e 59 9d 57 3c d3 6d f0 3c 56 4c 7d 3c
       0.1311335 0.013160073 0.029349243 0.015460094

body.block1.norm.weight f4 [32]
000000 f9 0c 43 3f 9c 99 79 3f 15 4c 72 3f d2 b0 14 3f
       0.7619167 0.97500014 0.9464734 0.58082306
000010 66 b2 3d 3f 45 d2 52 3f 56 7f 58 3f 23 11 93 3f
       0.7410034 0.82352096 0.845693 1.1489605
000020 ba a9 45 3f e1 58 6a 3f ab 36 56 3f 88 27 84 3f
       0.7721211 0.9154187 0.83677167 1.0324564
000030 00 19 5d 3f 28 3e 80 3f 48 a7 02 3f f2 d7 43 3f
       0.8636627 1.0018969 0.510365 0.7650138
000040 8f 74 3f 3f 8a d9 3a 3f f5 94 6d 3f 67 c2 27 3f
       0.7478723 0.7298819 0.92805415 0.6553101
000050 0a e7 91 3f 0c d9 72 3f 2d 2f 32 3f d6 2d 6d 3f
       1.1398633 0.9486244 0.69603235 0.92648065
000060 b8 54 43 3f d0 36 7a 3f 2b 17 8a 3f 79 a4 83 3f
       0.76301146 0.9773989 1.078832 1.0284568
000070 26 7d 80 3f fd 43 52 3f c3 48 22 3f 6b b4 72 3f
       1.0038192 0.8213499 0.63392276 0.94806546

body.block1.norm.bias f4 [32]
000000 70 92 0c 3f 05 fe 9f 3e d6 81 9c 3e d0 1b 24 3f
       0.54910946 0.3124849 0.30567807 0.6410494
000010 7b 54 2c 3f 2a f2 2d 3f f7 7f 0b 3f bf 0e ab be
       0.67316407 0.6794764 0.54492134 -0.33409688
000020 96 d6 17 3f 76 fa c9 3e a4 83 2e 3f 96 0c a3 3d
       0.5931181 0.394489 0.6816962 0.07961385
000030 e9 d1 1d 3f d6 bd fa 3d 6a c5 98 3f 7f ab 27 3f
       0.6164842 0.122432396 1.1935246 0.6549606
000040 64 38 61 3f 4d ee 62 3f 4b d1 24 3e 0a c2 1c 3f
       0.8797667 0.8864487 0.16095464 0.6123358
000050 1b 22 02 3e 9c 10 4d 3f 10 c2 95 3e 9e 24 cf 3e
       0.12708323 0.8010347 0.2924962 0.40457624
000060 3b 8a 28 3f c9 3c 05 3f 92 e1 b7 3e 88 5a f5 3e
       0.6583592 0.52045876 0.35914284 0.47920632
000070 b5 09 11 3f 5f 99 2c 3f 88 9f ea 3e 8e ab b9 3e
       0.56655437 0.67421526 0.45824838 0.36263698

body.block1.norm.running_mean f4 [32]
000000 c0 ba 86 bf 19 c6 44 3f ce 4b 31 40 ea b6 a8 3f
       -1.0525742 0.76864773 2.7702518 1.3180821
000010 1a 11 6b 40 e8 36 35 c0 bf 80 cf 3e 66 ea 27 c0
       3.6729188 -2.8314762 0.40527913 -2.6236815
000020 42 d0 0c bf 11 19 db 3f 84 f9 88 bf dc 29 9c bf
       -0.55005276 1.7117025 -1.0701146 -1.2200274
000030 fc 44 dc 3f 7e 44 85 c0 9d 2f a3 bf 84 2c a0 3f
       1.7208552 -4.164611 -1.2748905 1.2513585
000040 08 06 0f c0 85 4e 91 be 70 54 6d be 44 8e ca 3e
       -2.234743 -0.28380218 -0.23176742 0.39561665
000050 09 34 0a 40 54 4f 7d c0 0a f2 b2 bf 70 18 73 3d
       2.159426 -3.9579668 -1.3980114 0.059349477
000060 19 49 16 bf 0c 96 4e bf e4 5a 42 c0 fb 63 2f c0
       -0.5870529 -0.80697703 -3.0367975 -2.7404773
000070 86 f4 5a c0 f2 90 bd 3f 23 34 bd 3f 0b f7 6d be
       -3.4211745 1.4809859 1.4781536 -0.2323877

body.block1.norm.running_var f4 [32]
000000 b5 b0 0d 3f 93 cc 31 3f db de f4 3f 72 4a c0 3e
       0.5534776 0.6945278 1.913051 0.37556797
000010 4c da 50 3f cf 71 07 40 86 77 97 3f ef 18 9c 3f
       0.81583095 2.1163213 1.1833351 1.2195109
000020 66 03 37 3f 1d 14 55 3f ce eb 84 3f 4c 93 21 3f
       0.7148956 0.83233815 1.0384462 0.6311538
000030 0b c5 f5 3f 1e ea 14 40 c0 7d 20 3f e9 bb cd 3e
       1.9200758 2.3267894 0.6269188 0.40182427
000040 80 b6 35 3f 14 ad e0 3e f2 e3 f0 3e c2 ca aa 3e
       0.709816 0.43882048 0.47048908 0.33357817
000050 84 32 03 40 0e 1b e2 3f 71 30 d8 3e 24 b0 bb 3f
       2.0499582 1.7664506 0.42224458 1.4663129
000060 a7 56 85 3f 47 d5 35 3f fe c2 2c 40 bf d8 10 40
       1.0417069 0.7102856 2.6994014 2.2632291
000070 4a ba c4 3f b5 a8 8a 3f 9f 85 f3 3e 6c e7 7c 3f
       1.5369351 1.0832735 0.47562882 0.9879062

body.block2.conv.weight f4 [32, 32, 3, 3]
000000 ed 24 2b 3e 1d 20 dd 3d 68 c8 a2 3d 12 5d c5 3d
       0.16713305 0.10797141 0.07948381 0.096368924
000010 b5 7e 22 3d c0 0b f2 3d 5d 72 b8 bd ad 75 9c bd
       0.03967162 0.118186474 -0.09006188 -0.076396324
000020 cd dc 62 3a a3 65 42 bd 95 93 49 bc 27 5f 2f bc
       0.00086541177 -0.04746021 -0.012303253 -0.010703838
000030 65 5c eb 3d e0 39 a5 bb 52 fe d6 bc 1b 11 c4 3d
       0.11492232 -0.0050422996 -0.026244316 0.09573575
000040 64 27 1a bc da 81 98 bd 81 8a b1 3c 96 12 8d 3d
       -0.0094088055 -0.07446642 0.02167249 0.068883106
000050 1d 6a 55 3c 24 2b e5 3c 99 04 26 3d ce 71 64 3d
       0.013025788 0.027974673 0.04053173 0.055772595
000060 cc a7 50 3d 5f c1 17 3c e3 a9 98 3c a8 87 02 bd
       0.050941274 0.009262412 0.018635696 -0.031867653
000070 95 6d 71 3b f0 c7 49 bd 3a 37 1c be 88 e3 10 3d
       0.0036838998 -0.04926294 -0.15255442 0.03537324
000080 10 bb 4f 3d 4e bb c9 38 cc c5 fd bb d9 39 06 bd
       0.050715506 9.619315e-05 -0.0077445265 -0.03277001
000090 50 48 9b bc 04 ce 29 bd ca aa af bd 5d 5c 38 3d
       -0.01895538 -0.041456237 -0.08577497 0.04500996
0000a0 d9 b2 ce 3b 25 79 a8 3c 6b 1f be bc ed 9d 58 bd
       0.0063079414 0.020565579 -0.02320834 -0.052884985
0000b0 2d 70 02 3e c6 3f c5 3d 67 25 27 3d 88 9c 75 bd
       0.12738104 0.096313044 0.040807154 -0.059963733
0000c0 58 70 9b bc 03 e7 75 bc d2 05 a5 bd 04 7c 2e be
       -0.018974468 -0.015008691 -0.08057751 -0.17039496
0000d0 6d f6 f2 bd 8f e9 a1 bd a5 2e ea 3d b3 01 1e 3e
       -0.11863408 -0.07905876 0.11434678 0.15430336
0000e0 39 1e e0 3d e1 39 bf 3d f0 60 84 3d 76 77 02 3e
       0.109432645 0.093372114 0.06463802 0.12740883
0000f0 41 97 35 3d c9 9f f4 3c f8 af ee 3d cd 4e 54 bd
       0.0443337 0.029861348 0.11654657 -0.051832963
000100 b3 ca 8e 3d a5 00 1d 3e 37 d2 f5 3b 53 27 2b 3c
       0.069722556 0.15332277 0.007501866 0.010446387
000110 48 b7 09 3d c9 c6 ac bc d1 8b c2 bc 7f ab e4 3c
       0.033622056 -0.021090882 -0.02374831 0.027913807
000120 25 38 e6 bd 6b 4c f0 bc 46 71 25 bd b9 b9 85 be
       -0.112411775 -0.029333314 -0.04039123 -0.26118258
000130 df 4a 3a bc 5e e2 42 bd e3 43 dd bc 36 b8 1d bd
       -0.01137039 -0.04757916 -0.02700991 -0.038505755
000140 12 d9 02 bd 55 62 2f bd 44 82 22 bd 2d bc 9b bc
       -0.031945296 -0.042818386 -0.039675012 -0.019010628
000150 d5 0b ce 3d a1 5d e4 39 97 97 c2 bd c5 07 0e 3e
       0.100608505 0.00043557308 -0.0950157 0.13870151
000160 8a 1f 44 3c de 7d 4c bc c9 b1 4b bd fa 09 25 bd
       0.01197041 -0.012481181 -0.049730096 -0.040292718
000170 9b 42 a2 bd 17 01 ff bc 80 66 91 3c ae fb 77 bc
       -0.0792286 -0.03112845 0.017749071 -0.015135689
000180 39 c5 8f 3a db fb 97 3d b2 42 77 bb cd 19 f8 bb
       0.0010968811 0.074210845 -0.0037728962 -0.007571435
000190 4b 02 dd 3c 73 c6 c9 3d f0 2d 81 3d a8 69 43 3b
       0.026978632 0.09852304 0.0630759 0.0029817615
0001a0 57 bd 41 bc a9 23 2b 3d 0a a9 09 bc 21 4b 6a 3d
       -0.011824927 0.041782055 -0.008402118 0.057200555
0001b0 55 8f 14 3e 6d 89 f9 3d 9a 51 9a 3d 2e d4 0a 3e
       0.14507802 0.12184415 0.075350955 0.13557503
0001c0 09 98 4d 3d 77 27 95 3d 76 7c df 3d 09 84 8d 3d
       0.05019382 0.07282918 0.10912411 0.06909949
0001d0 23 0d 3b 3d 0f 7b b8 3d 57 60 f4 3c f5 a0 7b 3d
       0.045666825 0.090078466 0.029831095 0.061432797
0001e0 d0 34 37 3d ff 58 cf bc 17 45 87 3c d6 4e 16 bd
       0.0447281 -0.025310991 0.016512437 -0.036696278
0001f0 ce f0 7f bd 22 db df 3c f6 3f fc 3d 76 4e c3 3c
       -0.06248551 0.02732617 0.12316887 0.023841124
000200 c4 b7 fc 3c fb c1 97 bd 74 14 1f 3d 92 c1 25 bc
       0.030849345 -0.07410046 0.038837865 -0.010116952
000210 a3 fc f5 bd 1c 08 95 3a e9 7d 19 be 2b 0c 0a bd
       -0.12011077 0.0011370215 -0.14989437 -0.03370301
000220 ee 0b 7a 3d 0b c8 38 bd e3 77 ae 3c 6d 8c 85 3c
       0.061046533 -0.04511265 0.0212974 0.016302312
000230 72 a1 b8 3b fb 2f 09 3d 9e 95 6f 3c 18 4b af 3d
       0.00563448 0.033493023 0.014623074 0.08559245
000240 7f 77 01 bd 44 6f 87 3c ea ef af bd 5f e3 cd 3d
       -0.0316081 0.016532548 -0.08590682 0.10053133
000250 f9 ec e7 3c 6a 1e a4 bd 2d 96 d2 3d bd fa fc 3b
       0.02831124 -0.080136135 0.1028255 0.00772032
000260 9e e1 01 bd c9 a8 a0 3d 9a f7 26 3d fb 2b 02 3b
       -0.031709306 0.07844693 0.040763475 0.001986264
000270 d7 70 02 3d 51 0b 20 3d d5 c5 06 3d ba 7e 84 3d
       0.031845894 0.039073292 0.03290351 0.06469484
000280 04 f6 d7 3c 95 08 d1 3d e8 b7 1a be 8b b2 4c bd
       0.026362427 0.10206715 -0.15109217 -0.04997496
000290 20 9c a9 bd 91 dd 2a 3d 83 d9 e6 bc d1 f9 5d bd
       -0.082817316 0.04171521 -0.02817989 -0.05419332
0002a0 e1 c5 f3 bc 48 ae 58 bd ab 52 ca 3d a6 86 45 3d
       -0.029757442 -0.052900583 0.09879049 0.048224114
0002b0 ba d0 ec bb 15 89 3c bd cb 7a 54 bd d4 d2 b8 bd
       -0.0072270306 -0.04602917 -0.051874917 -0.09024587
0002c0 4b b6 61 bd 7a 0b b4 3b 67 53 a1 bc 87 bb 3d 3d
       -0.05510549 0.005494532 -0.01969309 0.046321418
0002d0 75 75 d9 3d 05 a8 8b 3d 7e b6 d9 bc 97 ae 8f 3d
       0.10618106 0.068191566 -0.026576277 0.07015722
0002e0 d7 d1 36 3d d2 f5 c3 bc 62 b2 b4 3c 5c ad 36 3d
       0.044633713 -0.023920927 0.022057716 0.044598922
0002f0 e7 4b d1 bc 05 da ef bd 45 38 48 bd 94 79 b5 bd
       -0.025548888 -0.11711506 -0.048881788 -0.0886108
000300 35 81 b2 bb 8e 2a b3 3c d4 8a 4e 3c b9 0d c5 bd
       -0.0054475316 0.021870878 0.012606341 -0.09621758
000310 ee 0f 6b 3d 43 1c 21 3e 2b ee ee 3d e0 14 38 3d
       0.05738824 0.15733437 0.11666521 0.044941783
000320 76 1f 74 bc 5c 3b 27 3b 54 15 ed bc 6a 64 a8 bd
       -0.014900079 0.0025517559 -0.028940834 -0.082222775
000330 24 cc b1 bc 23 77 b5 bb e4 50 17 3d 06 dd 9e bd
       -0.021703787 -0.005537884 0.036942378 -0.077570006
000340 b9 d2 5b bd 61 ed ad bd 3f 6b 70 bd 52 08 a6 b9
       -0.053667758 -0.08492542 -0.058696028 -0.00031668186
000350 60 94 3f bb 24 62 9a bd f3 41 82 3c 6a 66 5e 3c
       -0.0029232726 -0.0753825 0.015900588 0.013574222
000360 d5 7f 63 bc fe 95 b2 3d b6 72 85 3d 9d 62 bd 3c
       -0.013885458 0.08720015 0.0651602 0.023118312
000370 85 7d f0 3d 8d fb 20 3e ef cb 59 3c 25 4f 0a 3d
       0.11742691 0.15720959 0.01329325 0.033766884
000380 4f ae 07 3e 6b c0 28 3e 9e 1d ec 3d 1f 9e a2 3d
       0.13250087 0.16479652 0.115290865 0.079403155
000390 26 f6 f9 3d b3 97 be 3d bd 5c 33 3d 9a d5 25 bd
       0.12205152 0.09306278 0.043789614 -0.04048691
0003a0 d7 8d 49 bc 58 a2 88 bd 63 94 81 3d f0 7b 63 3d
       -0.012301884 -0.066715896 0.06327131 0.055538118
0003b0 a2 fa 71 3d 89 4d 1a b9 f4 76 2d bc 45 1f 81 bd
       0.059076913 -0.00014715469 -0.010587443 -0.06304792
0003c0 a6 48 f3 3c 33 34 d8 3c 25 c0 76 bd 1c 25 0f 3c
       0.029697727 0.026392078 -0.060241837 0.008736875
0003d0 30 bd b8 bd ef c7 14 be 42 6e ee 3d f2 0f 92 3d
       -0.0902046 -0.14529394 0.11642124 0.071319476
0003e0 fe e3 12 3d d8 ab b3 bc 45 81 1d bd 5f f0 35 bb
       0.03586196 -0.021932527 -0.03845336 -0.002776168
0003f0 b2 80 2a bc 35 10 64 bd 61 9b dd bd 3f 5e 15 3d
       -0.01040666 -0.05567952 -0.10820652 0.036466833

body.block2.conv.bias f4 [32]
000000 6b 94 32 3d 0e f2 b2 bc b3 51 fd 3a 8f ab b6 3c
       0.043598574 -0.021843936 0.0019326716 0.022298602
000010 84 38 13 bc 1e b8 f1 bd 5e a6 70 3d ab 5b f8 3c
       -0.008985642 -0.11802696 0.05875241 0.030317148
000020 27 fb 90 3d 92 48 fc 3d a5 b5 0a bd 7e 39 ef 3c
       0.070791535 0.12318529 -0.033864636 0.02920222
000030 98 de 1d bd 86 e9 a9 3d fc ee 41 3b bc 2f 82 bd
       -0.03854236 0.08296494 0.0029591909 -0.06356761
000040 29 3b 11 3d 8c b6 b4 3d fd 41 7d 3d cd 18 52 bd
       0.03545681 0.088238806 0.06183051 -0.051293183
000050 66 a7 89 3d b7 28 b6 3d 39 d5 5f bd c9 ff 9e 3d
       0.06721382 0.088944845 -0.054646704 0.07763631
000060 9c d1 2e 3d 13 3f f7 3c d3 ed b3 3d 73 0c 64 3d
       0.042680368 0.030181443 0.08785596 0.055675935
000070 d5 40 79 bd 3c d6 80 3d 2d 4a 09 bd 1b 98 46 3d
       -0.060852844 0.06290862 -0.033518005 0.048484903

body.block2.norm.weight f4 [32]
000000 ef 0a 47 3f 65 ae 73 3f da 33 70 3f a6 93 50 3f
       0.7775106 0.9518798 0.9382912 0.81475294
000010 d0 6f 31 3f 0f 7e 89 3f 5f 53 65 3f 92 a3 7b 3f
       0.6931124 1.0741595 0.8958034 0.98296463
000020 bc 55 4a 3f 0f 15 7e 3f bf d0 79 3f 30 ff 2a 3f
       0.7903707 0.9925088 0.97584146 0.66795635
000030 b1 51 69 3f 3b c5 7a 3f 4b 29 3b 3f a9 3a 7a 3f
       0.91140276 0.979572 0.73109883 0.9774576
000040 49 03 75 3f 96 76 7a 3f 78 2a 3e 3f 94 aa 56 3f
       0.9570814 0.978372 0.7428355 0.8385403
000050 c8 32 89 3f fe 6f 7c 3f 86 17 50 3f 7d a7 41 3f
       1.0718622 0.98608387 0.81285894 0.7564619
000060 e4 ae 5c 3f 52 62 83 3f 17 28 83 3f 0b 0c 70 3f
       0.8620436 1.026438 1.024661 0.93768376
000070 16 5a 5f 3f 85 ff 8f 3f d5 59 7c 3f fd 71 88 3f
       0.87246835 1.1249853 0.9857457 1.0659786

body.block2.norm.bias f4 [32]
000000 fd 0c 82 3f fe eb 8c 3e fd 40 e8 3e 95 d2 14 3f
       1.0160214 0.27523798 0.45362082 0.5813382
000010 19 8f 45 3f 65 1b 6d 3e e9 c2 62 3e 03 dc af 3e
       0.77171475 0.23154981 0.22144665 0.34347543
000020 9b 71 32 3f bc 6c 28 3e 02 14 02 3f 0e 9e 8d 3f
       0.697046 0.16447729 0.5081178 1.106386
000030 d1 db d4 3e 41 dc b0 3e 8a cb 2a 3f 54 4c f3 3e
       0.41573957 0.3454304 0.66716826 0.4751917
000040 0f c6 81 bd 31 ee 2a 3e b2 b6 60 3f fc dd af 3e
       -0.06336605 0.16692425 0.8777877 0.34349048
000050 e5 a1 d5 3e 76 37 9c 3e 91 10 06 3f 47 81 65 3f
       0.41725078 0.30511063 0.5236903 0.89650387
000060 fa dd 89 3e 31 99 3f 3e d8 db 04 3f 86 5a 0c 3f
       0.26927167 0.18710782 0.51897955 0.5482563
000070 08 89 d1 3e df 0f d9 bd 4a 81 e6 3e 22 ef 4e 3e
       0.4092486 -0.1059873 0.45020515 0.2020841

body.block2.norm.running_mean f4 [32]
000000 53 24 e3 3f 3c 9c e8 bf f5 15 f2 3f 34 7d c0 3e
       1.774546 -1.8172679 1.8912951 0.37595522
000010 8d da 9b 3e cc aa ac bf ab 3b c8 3f eb 5d 30 3e
       0.3044018 -1.3489623 1.5643209 0.17223327
000020 e2 92 0b bf af 5e 9b be 9c 98 be bd 0c f7 f0 be
       -0.54521 -0.30345675 -0.09306452 -0.47063482
000030 a9 d7 d4 3e 98 a5 35 bf 5f da b2 3e 0b 7c 8f 3f
       0.41570786 -0.709558 0.3493223 1.120973
000040 aa 5f 1b bf d4 e3 17 3e 5c 14 b4 3c 7f ec 0f bf
       -0.60692847 0.14833003 0.021982364 -0.5622024
000050 9d 11 df be 1f c3 1a c0 a8 d8 de bf 1e d9 9e 3f
       -0.43568125 -2.4181592 -1.7409868 1.2410009
000060 06 bc 89 bf 08 66 d6 3d f8 1b bd 3f 22 2b 81 be
       -1.0760505 0.1046868 1.477416 -0.2522822
000070 6f ac cc 3f 5b 89 32 3e 37 81 f2 bf 2b 6a 2c c0
       1.5990123 0.1743521 -1.8945683 -2.69398

body.block2.norm.running_var f4 [32]
000000 1c 7a 72 3f 41 93 71 3f 4d 1f 1b 3f 3f 07 3e 3f
       0.94717574 0.94365317 0.60594636 0.74229807
000010 8e 25 a8 3e 99 96 ba 3f 09 f3 ad 3e 19 79 42 3f
       0.32841152 1.4577209 0.33974484 0.7596603
000020 e2 f1 25 3f c6 ca ff 3e cd ac 31 3f 2d d3 52 3f
       0.6482221 0.4995939 0.694043 0.8235348
000030 fe af e0 3e c1 c7 14 3f fb 70 39 3f cf 47 95 3f
       0.4388427 0.581173 0.7243802 1.1662539
000040 16 8d d1 3e 70 53 61 3f ed da 38 3f 6c a5 d4 3e
       0.40927953 0.8801794 0.72209054 0.41532457
000050 b9 98 74 3f c6 9a 29 3f a9 0c 9f 3e a7 2e 80 3f
       0.95545536 0.6625179 0.31064346 1.0014237
000060 4f 93 1a 3f 19 bc 02 3f 1e 13 cb 3e 32 65 7c 3f
       0.60381025 0.51068264 0.39663023 0.9859191
000070 cd 6f ec 3e 43 82 98 3f 0f db 1b 3f 2d be 19 3f
       0.46179047 1.1914753 0.6088113 0.6005581

body.block3.conv.weight f4 [32, 32, 3, 3]
000000 36 b8 e4 3d 24 f7 ef 3c 24 28 96 bd b6 8c 3f bc
       0.11167948 0.02929265 -0.07331875 -0.011691263
000010 9d 8d 9e bc 00 06 de bd e7 95 1f 3d f1 22 76 3d
       -0.019354636 -0.10840988 0.038961317 0.060091916
000020 94 bb 84 3d f0 b2 84 3e aa 1f 88 3d 4d ab 23 3c
       0.0648109 0.25917768 0.066466644 0.009989572
000030 85 3e a0 3d 81 1c d1 bc 49 9c af 3c a7 6f 43 3d
       0.07824425 -0.025526287 0.021436827 0.0477139
000040 84 cc e2 3d 69 f1 9f 3c ae 36 05 3e 0e 0a 75 3a
       0.110741645 0.019524293 0.1300914 0.00093475066
000050 ca 16 83 bd a8 43 5b 3d 40 0a 81 bc b3 2d 29 bd
       -0.06400831 0.05353132 -0.015751958 -0.041303348
000060 da 27 c3 3d 48 af c1 3d 98 4c 91 bc 40 b6 6d bc
       0.095290855 0.0945726 -0.017736718 -0.014508784
000070 60 3a 5a 3d ea 01 3a 3d 70 07 80 3d f7 7c 31 3d
       0.053278327 0.04541198 0.062514186 0.043332066
000080 3b a8 ce 3c 62 36 e7 3d a7 18 1b 3d ff cc f7 bd
       0.025226703 0.112896696 0.037865307 -0.12099647
000090 22 f0 2d 3e 3f 3f b5 3d 3e cc e5 bd a3 2c 02 3d
       0.16986135 0.08849954 -0.11220597 0.03178085
0000a0 98 a3 b3 3c 9e a2 5c bd 80 a0 ba bd a5 f3 75 bd
       0.021928594 -0.05386602 -0.09112644 -0.06004681
0000b0 2c 1c 44 3d 4b 97 1f 3d d9 18 57 bc 34 70 2f bd
       0.04787843 0.038962644 -0.013128483 -0.042831615
0000c0 0e 8e be 3d db 34 1f 3d 4d 50 8e bd 98 06 10 3c
       0.093044385 0.038868766 -0.0694891 0.008790635
0000d0 82 e6 5a bd ef 88 3d bd 1c 2b 82 3d fa c8 03 3d
       -0.053442486 -0.04627317 0.06355879 0.032174088
0000e0 e6 36 28 3d 48 9d 3a 3d 65 c8 96 3d 10 46 e9 3d
       0.04106798 0.04556015 0.07362441 0.113903165
0000f0 8b d5 2b bd 5a 87 8a bd 85 4a 2b bd b4 b5 80 bc
       -0.041951697 -0.067640975 -0.041819114 -0.015711643
000100 75 02 2d 3d 0e b9 91 3d 6e b9 e2 3d 26 dd b3 3c
       0.04223867 0.071153745 0.11070524 0.021956038
000110 b2 cb 11 3b 34 e0 84 3e 47 ed e8 3d 3c 19 37 3d
       0.0022246656 0.25952303 0.11373382 0.0447018
000120 6c be 03 bd b8 1b 6b bd e0 47 b7 bd 71 49 8d bd
       -0.032164022 -0.05739948 -0.08949256 -0.068987735
000130 87 a2 44 bd b3 9b 2a 3d c3 3f 58 bd 60 6c c1 3c
       -0.04800656 0.041652393 -0.052795183 0.023611248
000140 98 1c f8 3c 35 33 70 bc f5 4d 5a bd 43 e5 dc bb
       0.030287072 -0.014660646 -0.053297002 -0.0067411973
000150 37 56 c1 bc 0d 86 0b 3d f9 fc 71 bb d3 3b 6b bd
       -0.02360068 0.034063388 -0.0036924465 -0.0574301
000160 23 7e 63 3d 24 37 8e 3d 9b 05 d2 bd 6b ef 19 bd
       0.055540215 0.06944111 -0.102549754 -0.037581842
000170 be 31 c4 3d 92 68 c9 bc b9 bb dc 3c 59 ed 16 3e
       0.095798 -0.024585996 0.026944982 0.14738978
000180 35 02 3e bd 3c 07 5f 3c 2d 2d 28 3e aa 8e b6 bd
       -0.046388824 0.013612565 0.16423483 -0.0891393
000190 74 57 74 bd d3 31 49 3d ba b4 6e bc 6e db 07 bd
       -0.059653714 0.04911978 -0.014569456 -0.03316825
0001a0 93 c4 37 3d bd 88 e6 bd 1c 96 c4 bd b9 9e 63 bd
       0.044865202 -0.112565495 -0.095989436 -0.05557129
0001b0 0d c6 0a bd 27 84 01 3d b4 a4 5d 3d e6 f2 32 bd
       -0.033880282 0.03162017 0.05411215 -0.043688677
0001c0 ae fa e8 3c 67 58 d8 3b 00 74 be 3c 56 ee 46 3d
       0.028439846 0.0066023353 0.023248672 0.04856714
0001d0 9e fe a2 bd 82 17 c7 3d 73 3e 0e 3d e0 d9 78 3d
       -0.079587206 0.09721281 0.034727525 0.060754657
0001e0 63 34 7c 3d 8b 7d 32 3d d1 c1 08 3b 76 7f 86 bc
       0.061573397 0.04357676 0.0020867477 -0.0164182
0001f0 fd 42 e2 3c c7 ca 0c 3d 9f 73 0e be bf 92 01 be
       0.027619833 0.03437307 -0.13911293 -0.12653635
000200 3f a2 11 be a4 b0 f7 bd bf 57 70 bd 10 a2 bc bd
       -0.14222048 -0.120942384 -0.05867743 -0.092105985
000210 d1 f8 80 bd 18 c1 23 bd c3 9f 14 be c6 34 ec bd
       -0.06297458 -0.03997907 -0.1451407 -0.11533503
000220 92 19 1c bd 60 7c e0 3c 7b 0a b3 bc 5c 40 8a bc
       -0.038110323 0.027403057 -0.021855583 -0.016876392
000230 e1 a0 26 3d e6 1a 99 3d 20 4a 42 bd 2f fc e6 bd
       0.04068077 0.074758336 -0.047433972 -0.11278569
000240 13 7e b8 bc 5d b9 69 3d 07 7d 53 3d a0 28 83 bd
       -0.022521054 0.05706154 0.051632907 -0.06404233
000250 34 a9 c0 3d ae cd 92 3d 2c bd 58 bd a4 ae 34 bd
       0.09407273 0.071681365 -0.052914783 -0.044111863
000260 34 8c 4f 3b 07 1c 6e 3d 17 0c 07 3d 77 d3 8d 3d
       0.003166926 0.058132198 0.032970514 0.06925099
000270 8c c6 1e bd 24 9c 29 3d 1d 6b 69 3d 9a d4 18 bd
       -0.038763568 0.041408673 0.056986917 -0.037312128
000280 3d 9a b3 3c 89 5f 99 bd 91 ee 00 3d 2d e4 b3 bc
       0.021924132 -0.07488925 0.031477515 -0.021959389
000290 7a a6 18 be b7 fd 3f ba 98 b0 25 bd 46 a0 13 be
       -0.14907256 -0.0007323878 -0.040451616 -0.14416608
0002a0 da 26 85 3d be be 07 3d d1 69 86 bd 92 18 9f bc
       0.06501551 0.03314089 -0.06563152 -0.019420896
0002b0 9d 31 28 3c b9 fa 54 3b 4e 2f b2 bd 15 92 03 3c
       0.010265735 0.0032498075 -0.08700429 0.008030434
0002c0 92 79 e3 3b c0 51 c3 3d 80 d9 f9 3a 2e a4 3d bc
       0.0069419825 0.09537077 0.0019062012 -0.011574788
0002d0 93 fb c4 3d 7c d0 59 3d 64 80 39 3d af f9 cb 3d
       0.096182965 0.05317734 0.04528846 0.09959733
0002e0 f9 27 f7 3c ff 1b 81 bb 76 c9 a0 bc 88 10 93 39
       0.030170428 -0.003940105 -0.019627314 0.00028050342
0002f0 fb aa f1 3d 99 01 d4 3c f2 fe 53 3d c0 bc c5 3d
       0.1180019 0.025879668 0.051756807 0.09655142
000300 b6 f9 bd 3d 21 c6 12 bc fa 91 12 be 5b b1 5c 3e
       0.09276144 -0.00895837 -0.14313498 0.2155203
000310 5f e4 b2 3d b6 9d 17 be a1 df 87 bd 0f 48 85 bd
       0.087349646 -0.14806256 -0.06634451 -0.06507885
000320 1f f7 82 bb 25 b5 4c bc a8 74 6b bb 60 1c d8 bc
       -0.0039967443 -0.01249436 -0.0035927687 -0.026380718
000330 48 9f 36 be bd b0 09 3d 30 09 69 bd 39 d2 a0 bd
       -0.17834198 0.033615816 -0.056893528 -0.07852597
000340 be bc 6a bc 39 b6 4c 3b 65 73 1b bd 18 d8 12 bc
       -0.014327226 0.0031236543 -0.037951846 -0.008962654
000350 55 2b 8e 3d 71 5c be bc d5 20 16 3d 3b 9e 94 3d
       0.06941859 -0.023237439 0.036652405 0.072567426
000360 e6 1f 47 bd 88 d4 87 bb f3 6a 0f 3d 30 da 5b 3b
       -0.048614405 -0.0041452087 0.035014104 0.0033546798
000370 34 5a 07 bd b2 75 ab bd 73 e1 7b 3c 5c 6e df bc
       -0.03304501 -0.08372058 0.0153735755 -0.027274303
000380 c9 17 51 bc 1c 60 a9 3d b8 4c 13 3d 02 ee 2c 3c
       -0.0127620185 0.082702845 0.035961837 0.010554792
000390 13 e4 ef 3d 13 30 7a 3c ac e8 b7 bd 49 95 ac 3c
       0.117134236 0.015270251 -0.089799255 0.021067278
0003a0 8b ed 88 bc 79 2d 22 3d de e4 42 3d 83 d7 30 3d
       -0.016714832 0.039594147 0.047581546 0.043174278
0003b0 1a c0 e5 3c 25 0a da bd 7a 2b 25 bd 90 dd dd 3c
       0.028045703 -0.10646466 -0.040324666 0.027083188
0003c0 d4 fa 92 bd 64 bf 0b bd e1 fd 4f 3d 02 9a 87 bc
       -0.07176748 -0.03411807 0.050779227 -0.016552929
0003d0 78 26 49 3c 05 58 d4 3c 24 67 8d bd 38 55 50 3c
       0.012277238 0.025920877 -0.06904438 0.01271563
0003e0 3e d4 61 3c c4 37 af bd 01 8a a0 bc d7 4c 87 3c
       0.013783513 -0.08555558 -0.019597055 0.016516132
0003f0 62 6f f5 3d c9 f3 50 3c 97 47 42 3d f1 f4 34 3c
       0.11984135 0.012753435 0.047431555 0.011044727

body.block3.conv.bias f4 [32]
000000 88 39 5b 3d b0 de ac bd f2 eb b9 bc 35 21 c0 3c
       0.053521663 -0.08440912 -0.022695515 0.023453334
000010 57 18 28 3d 42 37 1b 3e c7 5c 14 3d d4 c5 5d bd
       0.041038837 0.15157798 0.036221292 -0.05414374
000020 57 fb 10 be 28 85 ff bc 9e df 6f 3d 87 0f 1e bc
       -0.14158379 -0.031191424 0.058562867 -0.009647257
000030 63 f8 8f bc 66 36 45 3c 13 31 c1 3c 65 d4 56 bd
       -0.017574495 0.012036895 0.02358297 -0.05244865
000040 77 f4 7e bd cc 9b 0b be be 58 30 bd 36 12 aa 3d
       -0.06224486 -0.1363365 -0.04305338 0.08304255
000050 c8 87 31 3d c0 5d b2 bd 6d 81 43 bd e8 2c 00 bd
       0.04334238 -0.08709288 -0.047730852 -0.031292826
000060 b4 7d 12 bc a5 41 a5 3d 3d de b7 bd f3 5a 15 bd
       -0.008941103 0.08069161 -0.089779355 -0.03646369
000070 d1 35 19 3e 20 9f d8 3d 5e a1 e3 3c 10 d2 57 3d
       0.14961936 0.10577226 0.027786907 0.052690566

body.block3.norm.weight f4 [32]
000000 9e 05 bf 3f 0b 20 79 3f ba 02 81 3f 75 8d 93 3f
       1.4923589 0.9731452 1.0078957 1.1527544
000010 8b 64 aa 3f fe 7d 9a 3f 29 93 4f 3f 6d be aa 3f
       1.3311933 1.20697 0.81083924 1.3339363
000020 80 67 bb 3f 00 75 a2 3f 26 45 89 3f 80 03 80 3f
       1.4640961 1.2691956 1.0724227 1.0001068
000030 d1 c2 5d 3f 70 a1 a4 3f e9 34 96 3f 7f a5 b7 3f
       0.8662539 1.2861767 1.1734897 1.434738
000040 11 40 b4 3f 9e ac b5 3f 60 7d 7b 3f 25 74 a2 3f
       1.4082052 1.4193304 0.9823818 1.2691694
000050 84 c4 a2 3f dd 5f a8 3f b5 c5 aa 3f a0 2c 9e 3f
       1.2716222 1.3154255 1.3341585 1.2357368
000060 93 25 b8 3f 64 e7 ad 3f 63 ca 82 3f 47 c5 ce 3f
       1.4386467 1.358624 1.0218014 1.6153954
000070 13 90 b0 3f 39 06 e4 3f f5 6a 8c 3f 88 fd 7b 3f
       1.3793968 1.7814399 1.0970141 0.98433733

body.block3.norm.bias f4 [32]
000000 fb 0b 00 3f ea 42 e9 be 34 38 e8 be 43 d0 80 3e
       0.5001828 -0.45558864 -0.4535538 0.2515889
000010 a2 ab 0d 3e 4f 48 86 3f 59 d3 5e bf 4b 4a 62 3f
       0.13835004 1.0490817 -0.8704124 0.8839461
000020 f3 28 1a 3f 9d 2c 4e 3f 4b d3 1b bf a7 ce 39 3f
       0.60218734 0.80536824 -0.6086928 0.7258095
000030 97 18 28 3f e5 05 71 3f 6d 4c 36 be 5b 9d 3f bf
       0.6566252 0.9414962 -0.17802592 -0.7484948
000040 f2 69 2f 3f 0f 59 8b 3f 89 00 65 3f 91 46 b0 3f
       0.68521035 1.0886554 0.8945394 1.3771535
000050 37 13 1e 3f 9a a7 5d 3f 18 78 45 3f f3 a2 21 3e
       0.6174807 0.86583865 0.77136374 0.15784816
000060 88 e3 a1 3e 87 b7 ef 3e ee 78 bd 3e f6 27 93 3f
       0.31618905 0.46819708 0.37006325 1.149657
000070 17 cc c5 3f 8d c5 12 3f 9e 63 fa be 4a 13 b7 3e
       1.5452908 0.5733269 -0.48904127 0.35756904

body.block3.norm.running_mean f4 [32]
000000 55 32 0d bc ee 84 16 3f 20 73 35 3f ac 18 a0 3e
       -0.008617957 0.58796585 0.7087879 0.31268823
000010 60 77 b1 bf 3a 15 05 40 c1 14 1b c0 00 58 25 be
       -1.3864555 2.0794206 -2.4231417 -0.1614685
000020 1c 9d 0f 3f 2a f5 ec 37 34 30 b1 bf f7 11 7e bd
       0.56099105 2.8247556e-05 -1.3842835 -0.06202885
000030 ff 20 b4 3e b2 c7 c7 bf ae f9 fb 3e 6c 04 a3 be
       0.35181424 -1.5607817 0.49213928 -0.3183931
000040 06 30 0a 3f f4 d7 61 3f a9 eb df be a0 42 97 3b
       0.5397953 0.88220143 -0.43734482 0.0046160966
000050 bc 0a fc be 6d e1 0f c0 82 6a 6d 3f 9f bf b3 bd
       -0.4922694 -2.248134 0.92740643 -0.08776783
000060 5d 42 69 3e 70 c3 79 3f 7b 1f 85 3f e5 7e 86 3e
       0.22779222 0.9756384 1.0400232 0.26268688
000070 f6 72 fe bf a5 0c 24 bf 09 f9 95 3d d6 cf 84 3f
       -1.9878833 -0.64081794 0.0732289 1.0375926

body.block3.norm.running_var f4 [32]
000000 d6 7a c4 3e 07 20 f7 3e 5d e3 ee 3e 82 57 53 3f
       0.38374966 0.48266622 0.4665784 0.825554
000010 d0 e6 4a 3f ca 2e 16 3f fb 28 c5 3e 45 0e 24 3f
       0.7925844 0.58665144 0.38507828 0.64084274
000020 6b 34 72 3f fd 19 5c 3f 78 c2 20 3f b4 13 ab 3e
       0.94611233 0.85977155 0.62796736 0.3341347
000030 3f 3c ef 3e b0 f1 a2 3e 55 1f ef 3e 84 4e bc 3e
       0.46725652 0.31825018 0.46703592 0.36778653
000040 40 bd b6 3f e4 8f dc 3e 0b c7 97 3e a3 65 4a 3f
       1.4276505 0.4307853 0.29644045 0.79061335
000050 4b 7e 5b 3f 28 4b 44 3f ef 00 ec 3e d2 8b 17 3f
       0.8573958 0.7667718 0.46094462 0.59197724
000060 2a b5 f6 3e 92 02 13 3f 7c 3c 0a 3f 42 5b 8f 3e
       0.48185092 0.57425797 0.5399854 0.27999312
000070 91 66 8e 3e ff 39 96 3e ff 66 e7 3e b6 72 0a 3f
       0.27812627 0.29341123 0.45195767 0.54081285
