trained_models/sinGan/mountains/scale_factor=0.750000,alpha=10/3/netG.pth (torch_old, 125197 bytes, 26 tensors)

head.conv.weight f4 [32, 3, 3, 3]
0.017086493 -0.0145415515 -0.04584054 0.06887163 0.05566979 -0.013348299 0.09469965 0.16427639
-0.2783373 0.024248084 -0.010788527 -0.0057805553 0.08577559 0.120932326 0.04091484 0.032836482
0.22042526 -0.42386842 0.052571744 0.04256977 -0.05582983 0.0780335 0.12559165 -0.017461753
0.015781507 0.08662027 -0.5500293 0.0033596526 -0.16190529 -0.22269183 -0.19412294 -0.15129536
-0.2624532 0.052708134 0.11340931 -0.08406449 0.12791373 0.002468833 0.11386213 -0.038306806
-0.0006425091 0.03398118 0.072180346 0.13889319 0.10363524 0.052133393 -0.00560239 0.10509747
-0.06373873 -0.05690358 -0.029225115 0.084065355 0.088690124 0.014029006 -0.18123539 -0.07486458
-0.024331126 -0.12183357 -0.025301088 -0.005014637 0.040124007 0.023364043 0.31621537 0.086696014
0.08523132 0.11912592 0.036090236 0.056226484 0.039873205 -0.15676527 -0.19869432 -0.018860087
0.03024876 0.076459914 0.04622209 0.075708285 0.05149711 0.05617753 -0.16572024 -0.27061915
-0.0076549347 -0.2598805 0.074484 -0.0891792 -0.04954031 -0.026758594 -0.07049109 -0.13908923
-0.053236075 -0.09756903 -0.3971043 -0.09947197 -0.048727226 0.030727271 0.04347604 0.030274402
-0.02277777 -0.044198897 0.017631173 -0.27985573 0.0067558736 0.0859313 0.06331142 0.08784939
0.122696504 0.09333162 0.04122192 0.064331986 0.029455068 -0.11699293 -0.14873266 0.16372569
0.021291545 -0.18959996 0.37366617 0.23753715 0.21250948 -0.038013075 -0.10695553 0.016875198
-0.019776812 0.018138772 -0.07593472 -0.06804158 -0.016525764 0.012930662 -0.0074852942 -0.03083755
0.11391532 -0.052141346 -0.00014716084 -0.043648526 -0.11176389 -0.04782691 0.012471374 0.15822756
0.0108452225 -0.07486904 0.14006528 0.04818609 -0.0033684731 0.199339 0.21452089 -0.02250174
0.043145403 0.06466872 0.023857392 0.043460354 0.037409548 0.018023452 -0.13248946 -0.041968167
-0.30122772 -0.026733011 0.05317163 0.04873807 -0.051078685 0.059568483 0.06037762 -0.19602592
-0.042282537 -0.44412807 -0.10178877 -0.09285304 -0.2563774 0.025650823 -0.111315615 -0.055016913
0.14215316 0.05758155 0.022853449 -0.045335237 0.0066987798 -0.11019713 -0.026167477 -0.09741209
0.10508123 -0.16794258 -0.19850913 -0.11849913 0.0038770149 0.07429717 -0.05174952 0.14458844
0.105364844 0.35336637 -0.031140221 -0.049261473 0.01574402 0.03329641 0.028655475 0.052552067
0.010720833 -0.23380713 -0.07012059 0.1813966 -0.029966792 -0.019947397 -0.036567498 0.06417566
0.05154769 0.03680503 -0.14420523 0.03368699 0.29609847 0.19172361 0.16385081 0.027984649
0.13112025 0.0021549463 0.07056986 -0.062305503 0.040644277 0.26560497 0.14635228 0.12728478
-0.037764974 -0.06156595 0.10795521 0.06769965 0.007084377 -0.222064 0.24842303 0.07787529
-0.08187845 -0.13708162 -0.051654357 0.18496192 -0.0072093247 0.035209768 -0.07110065 0.07036637
-0.022000879 -0.16412926 -0.12633948 0.029006435 0.22202082 0.007131159 0.082562394 0.0037821275
0.033509463 -0.032859676 -0.08601085 -0.12758994 0.05545065 -0.23640288 -0.059357975 0.037212566
0.050143506 -0.019167056 -0.0032702626 0.04499273 0.04441847 0.12480556 -0.35519087 0.030595649
00000000: f9f8 8b3c b03f 6ebc 4ac3 3bbd 920c 8d3d
00000010: 0106 643d d3b2 5abc e4f1 c13d 1238 283e
00000020: 3a82 8ebe eba3 c63c 5dc2 30bc d06a bdbb
00000030: 1dab af3d 5eab f73d 5296 273d 8c7f 063d
00000040: 29b7 613e 4805 d9be 7855 573d a45d 2e3d
00000050: d2ad 64bd 07d0 9f3d 199b 003e f30b 8fbc
00000060: 3848 813c f865 b13d b8ce 0cbf 9e2d 5c3b
00000070: 80ca 25be 5409 64be 2ac8 46be 2ced 1abe
00000080: 4460 86be 7ce4 573d 2443 e83d 012a acbd
00000090: d1fb 023e 25cc 213b 8c30 e93d 99e7 1cbd
000000a0: 0e6e 28ba da2f 0b3d 4ad3 933d 043a 0e3e
000000b0: b63e d43d d389 553d 4194 b7bb 583d d73d
000000c0: 7489 82bd ba13 69bd 8269 efbc 752a ac3d
000000d0: 2ba3 b53d ead9 653c c595 39be 9a52 99bd
000000e0: 1252 c7bc e183 f9bd 3a44 cfbc d351 a4bb
000000f0: 1259 243d f365 bf3c fbe6 a13e ae8d b13d
00000100: c28d ae3d 4af8 f33d 5bd3 133d be4d 663d
00000110: 1652 233d 1387 20be 8676 4bbe 7880 9abc
00000120: 3fcc f73c 0497 9c3d 6053 3d3d f20c 9b3d
00000130: a2ee 523d 691a 663d 91b2 29be 988e 8abe
00000140: 3fd6 fabb 0f0f 85be 118b 983d 96a3 b6bd
00000150: c8ea 4abd d734 dbbc a25d 90bd 686d 0ebe
00000160: 120e 5abd 46d2 c7bd 4151 cbbe f6b7 cbbd
00000170: 3396 47bd c2b7 fb3c ef13 323d 0602 f83c
00000180: 7298 babc e709 35bd 406f 903c 4049 8fbe
00000190: 6060 dd3b c0fc af3d 6ba9 813d 62ea b33d
000001a0: 4e48 fb3d a624 bf3d 51d8 283d 7dc0 833d
000001b0: c14b f13c fd99 efbd 604d 18be b5a7 273e
000001c0: 9b6b ae3c 7e26 42be 2c51 bf3e f03c 733e
000001d0: 169c 593e 99b3 1bbd 800b dbbd db3d 8a3c
000001e0: fb02 a2bc c397 943c aa83 9bbd 6259 8bbd
000001f0: 0a61 87bc 21db 533c 3347 f5bb 089f fcbc
00000200: 6f4c e93d 2a92 55bd 304f 1ab9 ccc8 32bd
00000210: 77e4 e4bd 26e6 43bd bc54 4c3c 6806 223e
00000220: 29b0 313c f054 99bd 466d 0f3e c75e 453d
00000230: 9ac1 5cbb 861f 4c3e 5dab 5b3e 9255 b8bc
00000240: 3cb9 303d 0971 843d 9470 c33c 7c03 323d
00000250: c13a 193d eba5 933c 51ab 07be d0e6 2bbd
00000260: 853a 9abe 30ff dabc 7fca 593d 92a1 473d
00000270: e237 51bd 15fe 733d 864e 773d 05bb 48be
00000280: 7430 2dbd c164 e3be a176 d0bd bc29 bebd
00000290: e643 83be ad21 d23c 71f9 e3bd 6a59 61bd
000002a0: 9990 113e a2da 6b3d 2837 bb3c 71b1 39bd
000002b0: 7081 db3b 08af e1bd 2d5d d6bc fd7f c7bd
000002c0: d434 d73d 24f9 2bbe fa45 4bbe acaf f2bd
000002d0: 8415 7e3b 1d29 983d 4ef7 53bd fe0e 143e
000002e0: 86c9 d73d 70ec b43e c719 ffbc 66c6 49bd
000002f0: 9af9 803c d161 083d e3be ea3c d640 573d
00000300: 6fa6 2f3c 236b 6fbe 629b 8fbd 08c0 393e
00000310: eb7c f5bc b968 a3bc cdc7 15bd 876e 833d
00000320: ac23 533d dfc0 163d 89aa 13be 5ffb 093d
00000330: 389a 973e 3253 443e 82c8 273e 1040 e53c
00000340: 6344 063e 003a 0d3b ee86 903d 0e34 7fbd
00000350: 9d7a 263d 60fd 873e 5fdd 153e f156 023e
00000360: 72af 1abd 942c 7cbd 9f17 dd3d 1da6 8a3d
00000370: 1024 e83b bf64 63be 9b62 7e3e 147d 9f3d
00000380: e4af a7bd 205f 0cbe 8593 53bd a866 3d3e
00000390: 333c ecbb 1e38 103d 389d 91bd 3e1c 903d
000003a0: 303b b4bc 8011 28be 235f 01be e79e ed3c
000003b0: 6d59 633e 7fac e93b 7916 a93d 92dd 773b
000003c0: 3841 093d de97 06bd 7526 b0bd f0a6 02be
000003d0: 3920 633d 9913 72be 5921 73bd 346c 183d
000003e0: 4763 4d3d 3b04 9dbc e751 56bb 4c4a 383d
000003f0: 24f0 353d 0f9a ff3d 94db b5be baa3 fa3c

head.conv.bias f4 [32]
0.016966699 0.06540211 -0.17981741 -0.09215642 -0.006859154 -0.10525738 -0.24895486 0.18797243
-0.05299159 0.10512319 0.07027063 0.07177206 -0.18316591 0.11613115 -0.09081617 -0.07644656
0.09488228 -0.13326162 0.03314726 -0.021671666 0.15683615 0.04474688 -0.020917518 0.003956039
-0.11059522 -0.024876557 -0.08205044 0.08330398 0.061621025 0.006523702 -0.1858959 0.06259027
00000000: bffd 8a3c 8bf1 853d 0e22 38be 81bc bcbd
00000010: c1c2 e0bb 2e91 d7bd 06ee 7ebe d87b 403e
00000020: b60d 59bd d44a d73d 0cea 8f3d 3bfd 923d
00000030: d88f 3bbe 2bd6 ed3d d4fd b9bd 0490 9cbd
00000040: a451 c23d bc75 08be 6cc5 073d c788 b1bc
00000050: a899 203e 8148 373d 375b abbc a9a1 813b
00000060: bf7f e2bd ecc9 cbbc 100a a8bd 479b aa3d
00000070: 5466 7c3d c7c4 d53b 7f5b 3ebe 542f 803d

head.norm.weight f4 [32]
1.293902 1.0744611 1.3226805 1.2268481 1.2728815 1.2557104 1.1659437 0.94673103
1.37963 1.4252485 1.1511449 1.1116915 1.4632474 1.2984598 1.1402366 1.0769371
1.3047615 1.0185617 1.1459181 1.2658156 1.5101898 1.3991501 1.1613498 1.0893062
1.3052987 1.259665 1.3031908 1.4446683 1.4078717 1.1902459 1.1795055 1.268134
00000000: 959e a53f f187 893f 984d a93f 5c09 9d3f
00000010: c8ed a23f 1ebb a03f a53d 953f f75c 723f
00000020: b797 b03f 8b6e b63f b758 933f e84b 8e3f
00000030: b14b bb3f ee33 a63f 46f3 913f 13d9 893f
00000040: 6d02 a73f 3b60 823f 72ad 923f 3f06 a23f
00000050: e64d c13f 5a17 b33f 1ca7 943f 636e 8b3f
00000060: 0714 a73f b43c a13f f5ce a63f e4ea b83f
00000070: 2435 b43f fa59 983f 09fa 963f 3752 a23f

head.norm.bias f4 [32]
-0.36725807 0.029378096 0.041173544 -0.014736307 -0.11095782 -0.050684337 -0.11062563 -0.15436952
-0.21868333 -0.107056946 -0.08520035 0.15335612 0.06393055 -0.16757374 0.42101216 -0.23154669
-0.073590845 -0.15103589 -0.26567048 -0.4425918 -0.22067864 -0.2676823 0.06429236 -0.24764527
0.1447302 -0.034523264 -0.5490395 0.14925613 0.4374009 -0.21543942 0.04891145 0.14967127
00000000: 4009 bcbe 55aa f03c 97a5 283d 8d70 71bc
00000010: db3d e3bd 619a 4fbd b18f e2bd 0b13 1ebe
00000020: 86ee 5fbe ac40 dbbd 857d aebd 6309 1d3e
00000030: 05ee 823d 7398 2bbe e88e d73e 931a 6dbe
00000040: ccb6 96bd 27a9 1abe f605 88be 649b e2be
00000050: 95f9 61be a80d 89be b6ab 833d b996 7dbe
00000060: 2734 143e 4468 0dbd da8d 0cbf 99d6 183e
00000070: 03f3 df3e 279c 5cbe 5f57 483d 6d43 193e

head.norm.running_mean f4 [32]
0.032273628 0.1024272 -0.16523108 -0.020792749 -0.03037428 -0.09726907 -0.23454149 0.065753676
-0.06866273 0.16918156 0.031604927 0.10875662 -0.11538498 0.080607586 -0.023551684 -0.16982895
0.18347366 -0.18811782 0.054926496 0.07329796 0.06539356 0.0071059954 -0.084005855 -0.056707524
-0.03744037 -0.0141179925 -0.2090537 0.13345292 0.04900905 -0.0643604 -0.08875593 0.01686433
00000000: 5a31 043d 5ac5 d13d 5632 29be 8e55 aabc
00000010: 7bd3 f8bc 0235 c7bd a52b 70be dda9 863d
00000020: 0c9f 8cbd ee3d 2d3e 2b74 013d cabb de3d
00000030: f64e ecbd 9715 a53d 76ef c0bc a4e7 2dbe
00000040: 85e0 3b3e f5a1 40be 9bfa 603d 3e1d 963d
00000050: 0fed 853d 69d9 e83b 430b acbd 2646 68bd
00000060: 135b 19bd 274f 67bc 2c12 56be e2a7 083e
00000070: b7bd 483d 63cf 83bd abc5 b5bd 1027 8a3c

head.norm.running_var f4 [32]
0.032444984 0.03203599 0.020160394 0.07410256 0.026022697 0.07330572 0.020070465 0.33382422
0.0060939523 0.06767645 0.06263776 0.08813265 0.030318966 0.038118962 0.076600574 0.07592823
0.10374454 0.16265807 0.06343855 0.06796275 0.05492337 0.019482028 0.05314912 0.032487497
0.033151343 0.018283041 0.1853152 0.029579718 0.01443544 0.16926739 0.27921617 0.0153376665
00000000: 08e5 043d 2c38 033d 6927 a53c 15c3 973d
00000010: 8d2d d53c 4f21 963d d16a a43c 02eb aa3e
00000020: c7af c73b f399 8a3d 3a48 803d e47e b43d
00000030: 7b5f f83c a122 1c3d c3e0 9c3d 4380 9b3d
00000040: 0478 d43d d68f 263e 12ec 813d 0e30 8b3d
00000050: 54f7 603d c698 9f3c e4b2 593d 9c11 053d
00000060: b4c9 073d 51c6 953c 45c3 3d3e 2a51 f23c
00000070: a082 6c3c 6e54 2d3e 6cf5 8e3e d64a 7b3c

body.block1.conv.weight f4 [32, 32, 3, 3]
-0.15747914 -0.15240732 -0.060457684 -0.0097111715 -0.0026804723 -0.2150458 -0.03337297 0.08749662
-0.13018703 0.096998975 0.07390336 0.1598448 0.00042718527 0.06285254 -0.0062294733 0.0162156
-0.081494056 -0.2294221 -0.0059762984 0.042760313 0.0664827 0.04275871 0.03899163 0.1264377
0.15730342 0.06990681 0.35074905 -0.068565734 -0.030008877 -0.042405855 -0.06740523 -0.04883055
-0.03173086 -0.19790445 -0.14293341 0.0031776102 0.04401048 0.06399432 0.2645279 0.09187438
0.08464115 0.009343446 0.005711699 -0.04573971 0.027238294 0.011542178 0.022330172 0.032638777
-0.015906634 -0.029487856 -0.11337838 0.14189447 0.14710572 0.091687135 0.101823635 0.20188385
0.07767761 0.03463987 -0.062279876 0.051915757 0.22125304 0.15943821 0.059879772 0.12200216
0.09836842 -0.033094678 -0.09666697 -0.17979082 -0.101425886 -0.20815343 -0.13633136 -0.23003554
-0.086137176 -0.12746021 0.20723459 -0.07245565 0.013583379 -0.009081859 -0.03302506 0.13897014
0.12836581 -0.04884579 -0.105563946 -0.097404145 -0.07062061 -0.09391791 -0.004643558 -0.16362354
-0.18026572 -0.122328565 -0.15820637 -0.22147062 -0.117251135 -0.0065192757 0.08444879 0.021655712
-0.14184962 -0.14520207 -0.17091104 -0.01952361 -0.06473087 -0.06342027 -0.092932574 -0.07985154
-0.06771662 0.01989982 0.057659116 -0.01985154 -0.056202482 -0.051294718 0.05191988 0.0017920135
-0.09782844 0.11502191 -0.08351569 -0.19456443 -0.038091183 0.21668328 0.16072977 0.10348987
-0.06510807 -0.005191659 -0.12714344 0.14976096 0.010769809 0.10522561 0.044151187 0.06367237
0.0014168785 0.011065966 -0.08391451 -0.13286655 0.05953666 0.08064584 0.032200165 0.033863645
0.10164146 -0.020445392 -0.08214259 -0.119343564 -0.05755338 -0.067883745 0.053357847 0.057257723
-0.038227312 0.005557979 -0.03663613 0.0022128457 -0.09980347 0.02444686 0.040351532 -0.10088929
-0.06656567 0.1800159 0.11939594 0.19059727 -0.051986583 0.04149873 -0.045980915 -0.0835369
-0.116792865 -0.09835174 0.10271207 0.18609048 0.083519764 0.10337625 0.10151111 0.04366205
-0.1909139 -0.09839266 -0.14926864 -0.017554693 0.05475871 0.16237426 -0.08900821 0.005712306
-0.043208122 -0.233721 -0.17532112 -0.34267166 0.11725534 0.07924813 0.10755975 -0.079854295
-0.026439952 -0.033939 -0.078807406 -0.11922667 -0.04782933 -0.035643116 -0.12098272 0.057743676
-0.033659663 -0.02076415 -0.18393706 0.12538716 0.008465151 0.00018691592 0.0495618 -0.11668025
0.019300336 -0.06783163 -0.11439737 -0.14115764 -0.08613985 -0.02963138 0.064071536 -0.10374287
-0.05773114 0.016516473 -0.018139534 0.11827141 0.072894156 0.20643947 0.10448147 0.049806707
-0.02601216 -0.04688537 -0.018684013 -0.021339819 -0.19084471 -0.078045435 -0.12301935 -0.22334334
-0.1993801 0.013942763 0.16337301 0.101924144 0.026152514 -0.005911225 0.084601454 -0.17415245
0.023639586 0.024716027 0.08128461 0.08923083 0.22655594 -0.015249732 0.05956471 -0.017904803
-0.032314353 -0.030097846 0.04178941 0.21923837 0.12066415 0.109517686 -0.14913218 -0.23421909
0.02818756 0.080102295 -0.047396887 -0.2122464 -0.019389959 0.0009892938 0.044595074 -0.1861871
00000000: 3642 21be aa10 1cbe 7aa2 77bd 9b1b 1fbc
00000010: ddaa 2fbb f734 5cbe 18b2 08bd 6e31 b33d
00000020: c04f 05be 66a7 c63d a55a 973d 5bae 233e
00000030: d6f7 df39 d5b8 803d 9c20 ccbb 94d6 843c
00000040: 5be6 a6bd a1ed 6abe d3d4 c3bb 7025 2f3d
00000050: 1528 883d c223 2f3d b0b5 1f3d e278 013e
00000060: 2614 213e 4d2b 8f3d 6195 b33e 316c 8cbd
00000070: 2dd5 f5bc c3b1 2dbd c10b 8abd 8b02 48bd
00000080: 38f8 01bd 77a7 4abe 235d 12be 743f 503b
00000090: 5544 343d 740f 833d 3370 873e a328 bc3d
000000a0: 5758 ad3d 4115 193c 3429 bb3b 9059 3bbd
000000b0: d822 df3c 671b 3d3c c4ed b63c 3db0 053d
000000c0: a14e 82bc 8490 f1bc ed32 e8bd c94c 113e
000000d0: e2a2 163e 77c6 bb3d e988 d03d a4ba 4e3e
000000e0: 7015 9f3d 89e2 0d3d 2f19 7fbd 9ea5 543d
000000f0: 2890 623e c543 233e 7e44 753d 45dc f93d
00000100: 6275 c93d 498e 07bd 55f9 c5bd 161b 38be
00000110: 60b8 cfbd 2c26 55be 739a 0bbe 708e 6bbe
00000120: b068 b0bd ee84 02be 4e35 543e a163 94bd
00000130: d28c 5e3c 14cc 14bc 4945 07bd 304e 0e3e
00000140: 5472 033e 8612 48bd e931 d8bd d37b c7bd
00000150: 8aa1 90bd 0858 c0bd fd28 98bb ee8c 27be
00000160: 9497 38be 6687 fabd da00 22be 32c9 62be
00000170: 5d21 f0bd a69f d5bb 7df3 ac3d 5267 b13c
00000180: 0741 11be daaf 14be 4e03 2fbe faef 9fbc
00000190: 9e91 84bd 7de2 81bd 6f53 bebd 3489 a3bd
000001a0: 03af 8abd f304 a33c f72b 6c3d b29f a2bc
000001b0: 9334 66bd 691a 52bd f1a9 543d ffe1 ea3a
000001c0: 475a c8bd 9b90 eb3d 460a abbd e63b 47be
000001d0: 8005 1cbd 39e2 5d3e 5896 243e 7ff2 d33d
000001e0: 6157 85bd cb1e aabb e431 02be f05a 193e
000001f0: da73 303c 8680 d73d e0d7 343d a966 823d
00000200: 8eb6 b93a 074e 353c 5fdb abbd 2b0e 08be
00000210: b6dc 733d a529 a53d 52e4 033d 9bb4 0a3d
00000220: 6629 d03d 187d a7bc 603a a8bd 666a f4bd
00000230: 18bd 6bbd a206 8bbd c28d 5a3d 1387 6a3d
00000240: 3e94 1cbd b51f b63b c40f 16bd 6405 113b
00000250: c365 ccbd c844 c83c a647 253d 0b9f cebd
00000260: 9553 88bd 1756 383e dc85 f43d ee2b 433e
00000270: e2ef 54bd 93fa 293d 7c56 3cbd 6515 abbd
00000280: 1931 efbd a36c c9bd b55a d23d 818e 3e3e
00000290: 690c ab3d edb6 d33d 0fe5 cf3d fad6 323d
000002a0: ef7e 43be 1782 c9bd e1d9 18be dcce 8fbc
000002b0: ab4a 603d 7045 263e f049 b6bd 4c2e bb3b
000002c0: 00fb 30bd 8f54 6fbe 6187 33be a972 afbe
000002d0: 9123 f03d d84c a23d 4948 dc3d a68a a3bd
000002e0: 9998 d8bc 9f03 0bbd c765 a1bd 1d2d f4bd
000002f0: b0e8 43bd 84fe 11bd cac5 f7bd a284 6c3d
00000300: b7de 09bd 9419 aabc ff59 3cbe 7e65 003e
00000310: 6bb1 0a3c dcfe 4339 5001 4b3d 0ef6 eebd
00000320: bd1b 9e3c 4feb 8abd 2b49 eabd a18b 10be
00000330: 176a b0bd 82bd f2bc f037 833d 2477 d4bd
00000340: 7d77 6cbd 8e4d 873c 5c99 94bc 4838 f23d
00000350: 8849 953d de64 533e 62fa d53d 1e02 4c3d
00000360: 7417 d5bc e00a 40bd 370f 99bc d8d0 aebc
00000370: cc6c 43be 49d6 9fbd 92f1 fbbd 1eb4 64be
00000380: 4c2a 4cbe 3070 643c 414b 273e 9bbd d03d
00000390: cc3d d63c f3b2 c1bb 8743 ad3d 0555 32be
000003a0: cea7 c13c 4479 ca3c 8c78 a63d a7be b63d
000003b0: 48fe 673e 03da 79bc 20fa 733d 18ad 92bc
000003c0: 0e5c 04bd c28f f6bc 5f2b 2b3d 0680 603e
000003d0: c41e f73d cf4a e03d 1bb6 18be 21d7 6fbe
000003e0: 99e9 e63c ac0c a43d 3d23 42bd 1f57 59be
000003f0: b1d7 9ebc 31ab 813a 53a9 363d d5a7 3ebe

body.block1.conv.bias f4 [32]
-0.045450717 0.015537461 -0.040110953 0.067084916 0.063412555 0.04063164 -0.043865897 0.023611132
0.020538058 -0.008638981 0.03364862 -0.04132858 0.019177381 0.03905318 -0.011372796 0.038041968
0.0020418484 0.045764223 -0.026931608 0.049506404 0.016534194 -0.002179865 -0.03154959 -0.027317645
0.044809446 -0.03404524 -0.023986196 -0.020717679 -0.05033946 -0.011628201 -0.042769156 -0.013042436
00000000: 882a 3abd d690 7e3c 624b 24bd d163 893d
00000010: 71de 813d 5d6d 263d baac 33bd 226c c13c
00000020: 6e3f a83c 838a 0dbc 23d3 093d 2848 29bd
00000030: e219 9d3c 3af6 1f3d f754 3abc e5d1 1b3d
00000040: 88d0 053b 4473 3b3d ad9f dcbc 3ac7 4a3d
00000050: b872 873c 11dc 0ebb 253a 01bd 41c9 dfbc
00000060: 1c8a 373d 0673 0bbd b37e c4bc 1fb8 a9bc
00000070: c030 4ebd 3684 3ebc b62e 2fbd f1af 55bc

body.block1.norm.weight f4 [32]
1.3341094 1.2236987 1.1925218 1.3329551 1.2823918 1.250976 1.2549312 1.1461488
1.0671935 1.2545706 1.3039625 1.2424362 1.1730213 1.1453128 1.3509452 1.4480022
1.1507887 1.0781837 1.1825365 1.2789772 1.0945472 1.4409734 1.2889599 1.3878919
1.2916132 1.3763608 1.1975813 1.1639142 1.2047899 1.2019432 1.4821457 1.2276404
00000000: 19c4 aa3f 29a2 9c3f 8ea4 983f 469e aa3f
00000010: 6a25 a43f fb1f a03f 96a1 a03f 01b5 923f
00000020: cc99 883f c595 a03f 3ee8 a63f 2608 9f3f
00000030: 9025 963f 9c99 923f c6eb ac3f 2358 b93f
00000040: 0b4d 933f ec01 8a3f 5b5d 973f 86b5 a33f
00000050: 1f1a 8c3f d171 b83f a3fc a43f 71a6 b13f
00000060: 9553 a53f 972c b03f 584a 993f 24fb 943f
00000070: 8e36 9a3f 46d9 993f f3b6 bd3f 5223 9d3f

body.block1.norm.bias f4 [32]
-0.24483588 -0.3623099 -0.21318682 -0.15974236 -0.3578332 -0.078335494 -0.24943921 -0.060554046
-0.24810213 -0.40570363 0.052752692 -0.4291185 -0.28477225 -0.22691907 -0.21115163 -0.3425379
-0.15352255 -0.19985057 -0.30771193 0.18487976 -0.21514805 -0.018709714 -0.25710472 -0.022393914
0.033712737 -0.31368124 -0.32105857 -0.15363476 -0.08471215 -0.3309679 -0.39105466 -0.24814214
00000000: 42b6 7abe af80 b9be a54d 5abe 8093 23be
00000010: ea35 b7be 5c6e a0bd fe6c 7fbe 8507 78bd
00000020: 7c0e 7ebe 63b8 cfbe 3513 583d 6cb5 dbbe
00000030: abcd 91be 795d 68be 2238 58be 2161 afbe
00000040: 0435 1dbe a1a5 4cbe 6b8c 9dbe 1f51 3d3e
00000050: c54f 5cbe 1d45 99bc 3ba3 83be 7173 b7bc
00000060: 5e16 0a3d d49a a0be ca61 a4be 6e52 1dbe
00000070: 907d adbd a074 a9be 5138 c8be f918 7ebe

body.block1.norm.running_mean f4 [32]
-1.5989379 -0.58292264 0.2123883 -5.1229277 -2.795083 0.23863094 -0.51028484 -1.8097217
-0.054962073 -4.324868 -1.1006573 -3.8425856 -1.4702 3.112785 0.38106087 -0.55076224
1.6990137 5.1811132 1.5783199 0.96275175 0.51415294 -3.9631324 0.8228726 -4.384455
-3.3904958 -2.4392629 -0.5520228 -1.401619 -3.3504443 1.5417575 -3.8534198 -1.7601987
00000000: ffa9 ccbf 6b3a 15bf 527c 593e 06ef a3c0
00000010: a4e2 32c0 ab5b 743e 07a2 02bf f6a4 e7bf
00000020: e91f 61bd 5265 8ac0 57e2 8cbf ecec 75c0
00000030: 832f bcbf df37 4740 691a c33e c1fe 0cbf
00000040: 4879 d93f aecb a540 6306 ca3f e676 763f
00000050: 879f 033f f6a3 7dc0 c7a7 523f 754d 8cc0
00000060: e2fd 58c0 e21c 1cc0 5e51 0dbf 4068 b3bf
00000070: ae6d 56c0 4f58 c53f 6e9e 76c0 314e e1bf

body.block1.norm.running_var f4 [32]
6.891237 7.5788774 8.323511 29.442003 16.243519 6.2948265 8.115498 6.1696916
8.65005 10.276827 6.1445737 6.8605633 11.270371 10.543273 4.257998 2.632185
20.492485 16.456028 6.4065127 21.556314 7.3435216 13.06923 6.4386177 15.701744
6.613932 12.098218 9.300376 2.8546195 22.736233 13.620752 6.9988856 3.4214506
00000000: 0385 dc40 2a86 f240 1a2d 0541 3989 eb41
00000010: baf2 8141 386f c940 14d9 0141 1d6e c540
00000020: 9b66 0a41 e26d 2441 59a0 c440 bc89 db40
00000030: 7153 3441 3fb1 2841 8541 8840 b875 2840
00000040: 9cf0 a341 f2a5 8341 2702 cd40 5573 ac41
00000050: 21fe ea40 911b 5141 2809 ce40 583a 7b41
00000060: 55a5 d340 4d92 4141 57ce 1441 16b2 3640
00000070: cee3 b541 9aee 5941 dff6 df40 0cf9 5a40

body.block2.conv.weight f4 [32, 32, 3, 3]
-0.20144227 -0.100290425 0.16389814 -0.12899466 -0.10246526 0.104341604 0.052817773 -0.02622721
0.10164449 0.1110272 0.08876959 0.08440069 0.07995972 -0.14198282 -0.082604915 0.07556743
-0.10264396 -0.19920444 -0.24507666 -0.14886507 -0.07302733 -0.03579958 0.02660497 0.19299762
0.021880914 0.08410133 0.17076236 -0.020429272 -0.12290401 -0.15441103 0.025809208 -0.014384316
0.05681818 0.09200824 0.11820231 0.053152103 -0.0016279077 -0.0015281871 0.07901033 0.008190467
-0.084495686 -0.048476435 -0.041387595 -0.15287873 -0.16960175 -0.11742851 -0.057142384 0.11730735
-0.10071537 -0.088462934 0.024429677 -0.12713203 -0.03185965 0.051133186 -0.09058215 -0.04447818
-0.09517171 -0.0902706 -0.12109854 -0.033107247 0.0010284301 -0.04850694 -0.07455446 -0.003835456
0.19227159 0.07328449 -0.022724332 0.041753978 -0.046726972 -0.02703901 -0.057772893 -0.08865073
0.09739626 0.14457528 0.23475073 0.012885213 0.009732031 0.027641915 0.1812006 0.0337887
0.0058253556 -0.16527355 -0.14259797 -0.120072626 -0.06198521 -0.015489995 -0.08440065 -0.2057384
-0.109890476 0.020013757 0.03592683 0.10137509 0.19169472 0.035746388 0.1664312 0.043220807
-0.20658581 0.019836176 -0.25428933 0.059832044 -0.006491005 -0.0025619348 0.03210588 -0.0707376
-0.15024209 -0.20710382 -0.12358142 -0.08119958 -0.019161548 0.030986432 0.23115326 -0.025866317
-0.09198773 0.06802025 0.06754319 -0.0060861614 0.042117175 -0.04519961 -0.06448514 -0.024588224
0.122997425 0.06752739 0.042295586 0.09864576 0.07646574 -0.0011235485 -0.33484402 -0.1935485
-0.049893796 -0.06938293 0.029709598 0.16963916 0.014868509 0.04976309 -0.0026736418 -0.015444323
-0.14728081 -0.12160378 0.113557026 0.08409837 0.01342028 0.05780816 -0.24178818 -0.34057444
-0.0047776583 0.036895897 0.113142855 0.048983812 0.03441166 0.09761157 0.10241219 0.006615661
0.05678771 -0.1560492 -0.007510682 0.10052724 -0.03702117 0.054779086 0.15359257 0.061031923
0.09754876 0.19911897 0.03346539 -0.12797588 -0.029396364 0.14661679 -0.06247059 -0.037905514
-0.123191975 0.053891245 0.06505985 -0.08192323 -0.16761643 0.10673836 -0.06303742 -0.17041954
-0.042212397 -0.018986695 0.096773006 0.016294558 -0.13977222 0.060983267 0.016514666 -0.18803525
-0.026434543 0.11009659 -0.09676427 -0.09186641 0.0111389635 0.1365943 -0.12813742 -0.19107015
0.035875287 -0.052712973 -0.11426996 -0.16395436 -0.042882245 -0.1604439 0.19347356 0.10533015
0.1789513 0.005512814 -0.06663858 -0.06374688 -0.014908789 -0.08848416 -0.12386758 0.025627062
0.19310671 0.1140589 0.027516045 0.087331474 0.08419741 -0.15413268 -0.08427324 -0.039257918
0.21118052 0.120629765 0.086571306 0.15942058 0.08617364 0.10959508 0.02195292 -0.021032104
0.0050833644 -0.11607372 -0.09830597 -0.0931665 -0.11961779 -0.17516266 -0.20716085 -0.034090377
0.018234836 -0.1662775 -0.034349967 -0.044523668 -0.012025968 -0.027852546 0.034200218 0.103587694
-0.037290886 0.04255837 0.18577154 -0.09963266 -0.03973924 0.08142664 -0.042106453 0.07922065
0.052575875 -0.008768546 -0.10906377 -0.0050036274 -0.12429514 -0.0979039 0.036095645 -0.078724265
00000000: e246 4ebe 1165 cdbd ead4 273e 2d17 04be
00000010: 4ed9 d1bd 0db1 d53d 7357 583d 72da d6bc
00000020: fd2a d03d 3b62 e33d d5cc b53d 45da ac3d
00000030: ecc1 a33d f263 11be c42c a9bd 19c3 9a3d
00000040: ff36 d2bd 40fc 4bbe 60f5 7abe 1670 18be
00000050: 5a8f 95bd 95a2 12bd abf2 d93c 2ba1 453e
00000060: 9a3f b33c 513d ac3d 54dc 2e3e 4a5b a7bc
00000070: 19b5 fbbd ed1d 1ebe d56d d33c 32ac 6bbc
00000080: 2eba 683d d16e bc3d 0d14 f23d 05b6 593d
00000090: 855f d5ba 734d c8ba 2bd0 a13d 4f31 063c
000000a0: 130c adbd 3a8f 46bd 0a86 29bd 3e8c 1cbe
000000b0: 15ac 2dbe 5c7e f0bd 220e 6abd d63e f03d
000000c0: dc43 cebd 0e2c b5bd bf20 c83c e62e 02be
000000d0: 447f 02bd 0871 513d 2283 b9bd c12e 36bd
000000e0: 63e9 c2bd cbdf b8bd 8302 f8bd 779b 07bd
000000f0: 63cc 863a 37af 46bd 02b0 98bd 465c 7bbb
00000100: d8e2 443e 2e16 963d 6128 babc 3806 2b3d
00000110: c864 3fbd ea80 ddbc 45a3 6cbd 848e b5bd
00000120: b177 c73d 8b0b 143e 7f62 703e 801c 533c
00000130: 1973 1f3c 4c71 e23c a68c 393e 0566 0a3d
00000140: a0e2 be3b 783d 29be 3405 12be a3e8 f5bd
00000150: 34e4 7dbd bfc9 7dbc 3fda acbd 16ad 52be
00000160: 420e e1bd e4f3 a33c 0328 133d be9d cf3d
00000170: 9f4b 443e ce6a 123d f16c 2a3e 4d08 313d
00000180: 3b8b 53be 7a7f a23c 3632 82be 7212 753d
00000190: 7fb2 d4bb 22e6 27bb 7581 033d e0de 90bd
000001a0: 10d9 19be 0613 54be 4118 fdbd f74b a6bd
000001b0: aef8 9cbc 42d7 fd3c 71b3 6c3e 99e5 d3bc
000001c0: 1064 bcbd 334e 8b3d 1654 8a3d 6c6e c7bb
000001d0: 0f83 2c3d 3a23 39bd c910 84bd 3e6d c9bc
000001e0: 13e6 fb3d cd4b 8a3d 233e 2d3d ca06 ca3d
000001f0: 129a 9c3d 0844 93ba ad70 abbe 9431 46be
00000200: 705d 4cbd a318 8ebd 8b61 f33c e3b5 2d3e
00000210: 0c9b 733c 62d4 4b3d 4438 2fbb 300a 7dbc
00000220: c8d0 16be 670b f9bd 9690 e83d c43b ac3d
00000230: bce0 5b3c 40c8 6c3d 5297 77be c65f aebe
00000240: e78d 9cbb 2720 173d 71b7 e73d 40a3 483d
00000250: 3ef3 0c3d 93e8 c73d 7bbd d13d 30c8 d83b
00000260: 3b9a 683d 5dcb 1fbe 2b1c f6bb 3ae1 cd3d
00000270: 83a3 17bd 0960 603d 5f47 1d3e 9cfc 793d
00000280: a5c7 c73d d8e5 4b3e 0113 093d 1c0c 03be
00000290: a5d0 f0bc b622 163e 29e1 7fbd d042 1bbd
000002a0: 134c fcbd 11bd 5c3d 193e 853d 5ec7 a7bd
000002b0: a4a3 2bbe a499 da3d c319 81bd 7682 2ebe
000002c0: e8e6 2cbd fc89 9bbc ed30 c63d 2a7c 853c
000002d0: 7320 0fbe 97c9 793d c449 873c 508c 40be
000002e0: 418d d8bc 527a e13d 582c c6bd 7524 bcbd
000002f0: 3380 363c 60df 0b3e 7536 03be e5a7 43be
00000300: f7f1 123d 8fe9 57bd 5e06 eabd a7e3 27be
00000310: 4ba5 2fbd 684b 24be ef1d 463e 55b7 d73d
00000320: 023f 373e d6a4 b43b cf79 88bd b98d 82bd
00000330: fe43 74bc 2f37 b5bd 49ae fdbd d8ef d13c
00000340: c4bd 453e b697 e93d 5469 e13c d8da b23d
00000350: b16f ac3d f5d4 1dbe 7397 acbd e9cc 20bd
00000360: b53f 583e bd0c f73d 4c4c b13d 263f 233e
00000370: ce7b b03d 6373 e03d 9cd6 b33c 854b acbc
00000380: 5a92 a63b 0fb8 edbd a454 c9bd 14ce bebd
00000390: 2cfa f4bd d75d 33be f921 54be 5aa2 0bbd
000003a0: 3961 953c a644 2abe 8db2 0cbd 735e 36bd
000003b0: 9108 45bc 062b e4bc 8715 0c3d c925 d43d
000003c0: 54be 18bd af51 2e3d e53a 3e3e 350c ccbd
000003d0: 9dc5 22bd 03c3 a63d d177 2cbd 703e a23d
000003e0: cd59 573d f3a9 0fbc d35c dfbd 78f5 a3bb
000003f0: 738e febd d781 c8bd 07d9 133d 303a a1bd

body.block2.conv.bias f4 [32]
-0.00114792 -0.0069066337 0.0050660367 -0.020293532 -0.03463774 -0.040268287 0.057852488 0.075419866
0.03988291 0.028712625 -0.05373196 0.021666208 -0.049658045 0.028556556 -0.03995363 -0.03253462
-0.019879496 -0.010677609 0.022986764 -0.008727091 -0.032449882 -0.0123077305 -0.018064808 -0.060205862
-0.06616215 -0.03405833 0.044769738 0.015283943 -0.033282157 -0.011626244 -0.029041467 0.057109214
00000000: ce75 96ba 0b51 e2bb ff00 a63b 9f3e a6bc
00000010: 4ee0 0dbd 5cf0 24bd bbf6 6c3d bb75 9a3d
00000020: 435c 233d bd36 eb3c 0b16 5cbd 557d b13c
00000030: 3c66 4bbd 70ef e93c 6ba6 23bd 0643 05bd
00000040: 53da a2bc 23f1 2ebc bd4e bc3c 13fc 0ebc
00000050: 2bea 04bd 5da6 49bc a6fc 93bc 6c9a 76bd
00000060: 0580 87bd bf80 0bbd 7960 373d 8169 7a3c
00000070: df52 08bd 007c 3ebc 5fe8 edbc 5aeb 693d

body.block2.norm.weight f4 [32]
1.1593035 1.4342859 1.15327 1.2462939 1.2046368 1.2930547 1.0214552 1.1548672
1.2784369 1.134188 1.2754644 1.196911 1.1416152 1.2395223 1.5148841 1.2388017
1.2975966 1.3809302 1.2913826 1.3833014 1.4369739 1.1922157 1.3935531 1.3944141
1.5203587 1.1720306 1.0651544 1.2972256 1.1709806 1.3281001 1.2923114 1.2571244
00000000: 0f64 943f ae96 b73f 5a9e 933f 8f86 9f3f
00000010: 8a31 9a3f d182 a53f 0bbf 823f b0d2 933f
00000020: d2a3 a33f 132d 913f 6b42 a33f 6134 993f
00000030: 7220 923f aba8 9e3f b9e7 c13f 0e91 9e3f
00000040: a517 a63f 52c2 b03f 064c a53f 0510 b13f
00000050: c3ee b73f 869a 983f f35f b23f 297c b23f
00000060: 1d9b c23f 1905 963f fb56 883f 7d0b a63f
00000070: b1e2 953f 2fff a93f 766a a53f 74e9 a03f

body.block2.norm.bias f4 [32]
0.0127293905 -0.28779218 -0.30810618 -0.35826898 -0.39896345 -0.24727787 -0.22142828 -0.6257391
-0.008394019 -0.48775366 -0.4540548 0.011069842 -0.3776726 -0.24571773 -0.054081198 0.019159026
-0.26202396 -0.20133762 -0.27615207 -0.225598 -0.2532347 -0.25379708 -0.44617033 -0.20916443
-0.15595135 0.0060836016 -0.11425339 -0.5482114 -0.18253203 -0.12685525 -0.25002325 -0.06150452
00000000: ef8e 503c 7f59 93be 18c0 9dbe 086f b7be
00000010: f044 ccbe 6936 7dbe 18be 62be 7030 20bf
00000020: 1187 09bc d9ba f9be df79 e8be 485e 353c
00000030: 4e5e c1be 6e9d 7bbe 3f84 5dbd 64f3 9c3c
00000040: 0128 86be 732b 4ebe ce63 8dbe 2a03 67be
00000050: fba7 81be b1f1 81be 7070 e4be 332f 56be
00000060: b6b1 1fbe f358 c73b aefd e9bd 9557 0cbf
00000070: ade9 3abe 58e6 01be 0c03 80be 2aec 7bbd

body.block2.norm.running_mean f4 [32]
-0.9156287 -2.4738853 1.8015081 -2.2467964 1.4701779 0.92395115 0.12979186 -1.1092647
0.36633173 1.4373085 -1.4494319 -1.0469792 0.7026119 -0.17663892 -0.9637967 -1.2570744
0.9946638 -0.05157319 0.19701236 0.47856903 0.0703487 2.7078044 -0.8620972 -0.25584438
-0.743224 -0.66208524 -0.31495246 -0.16512264 -1.377314 0.080951564 -0.5504237 2.813014
00000000: a466 6abf 2354 1ec0 d197 e63f 83cb 0fc0
00000010: ca2e bc3f 1088 6c3f 28e8 043e 63fc 8dbf
00000020: d58f bb3e baf9 b73f fc86 b9bf 6a03 86bf
00000030: 60de 333f d5e0 34be 61bb 76bf d0e7 a0bf
00000040: 49a2 7e3f 693e 53bd 9cbd 493e 0007 f53e
00000050: fb12 903d ab4c 2d40 67b2 5cbf 09fe 82be
00000060: ee43 3ebf 6b7e 29bf 7341 a1be e915 29be
00000070: d34b b0bf efc9 a53d 91e8 0cbf 6c08 3440

body.block2.norm.running_var f4 [32]
3.365722 20.83289 4.530999 3.514173 3.4677432 3.9635992 8.036964 10.123852
1.9499934 4.184321 2.9187663 18.873182 5.890337 5.079904 6.053507 8.458343
8.952584 2.7093716 3.6959293 3.2374609 5.4783974 5.8789644 10.303175 1.576863
4.179487 4.508034 3.1018054 4.5853324 3.0497363 4.0496187 4.064039 10.548657
00000000: fd67 5740 c2a9 a641 f2fd 9040 36e8 6040
00000010: 81ef 5d40 9cab 7d40 6897 0041 4cfb 2141
00000020: 6299 f93f f5e5 8540 11cd 3a40 47fc 9641
00000030: a47d bc40 938e a240 54b6 c140 5f55 0741
00000040: c93d 0f41 5866 2d40 1b8a 6c40 8f32 4f40
00000050: 084f af40 7a20 bc40 ced9 2441 a6d6 c93f
00000060: 5cbe 8540 d141 9040 fb83 4640 0bbb 9240
00000070: e12e 4340 7a96 8140 9c0c 8240 4dc7 2841

body.block3.conv.weight f4 [32, 32, 3, 3]
-0.034130212 -0.05064032 -0.028668707 -0.090529524 -0.09628225 -0.044637475 -0.080536865 -0.16104232
-0.113245785 0.07105667 0.010718959 -0.16828237 -0.07165442 -0.06156486 -0.18104878 -0.024742672
-0.014839625 -0.044813182 0.03225087 0.104254775 0.07530834 -0.012201649 0.106734715 0.05764813
-0.07283797 -0.002303741 -0.013050618 0.17082465 0.15802349 0.08703522 0.07567384 -0.0041460325
-0.051968582 -0.15336515 -0.12195564 0.02577046 0.0304382 0.05966564 0.055874944 -0.07615617
-0.036713794 -0.00056668214 -0.15960631 0.020212011 0.26984933 0.007919499 -0.030499544 -0.10049269
0.003824826 -0.039497104 -0.10305771 -0.1393352 -0.07700865 -0.1150288 -0.06582602 -0.07487033
-0.043637417 -0.028089756 -0.07887042 -0.108399674 -0.19747773 -0.2002238 -0.16790494 0.055071365
0.10832778 0.18767053 -0.08881763 0.002312602 0.13879386 -0.27878523 -0.2957392 -0.21726438
-0.035867702 -0.08775758 -0.09041523 -0.08159434 -0.131167 -0.1311304 -0.20342363 -0.12291868
-0.0017425913 0.021006044 0.042318292 0.03206121 0.030433184 0.052780267 0.031094156 -0.053268667
-0.14795445 -0.09398373 0.046850953 0.05578558 -0.020279502 -0.018841384 0.031934474 -0.01969841
0.04232474 0.08807019 0.018616006 -0.04384112 -0.011550236 0.036017563 0.00095602986 0.0013530623
0.024452567 -0.081908815 -0.103149235 -0.14750652 0.0449905 0.0021031525 0.0008026157 -0.0956283
-0.09964346 -0.104486845 -0.19838694 -0.13119274 -0.14843781 -0.057344727 -0.05987965 -0.1151092
-0.03042146 -0.027771944 -0.09528044 0.004711165 0.02692979 0.033563934 -0.02020885 0.050286658
-0.062036593 -0.07571179 0.047645804 -0.005078485 -0.14049695 -0.07504611 -0.13876675 0.009986796
-0.020547496 -0.07571144 -0.051757365 -0.0028514685 -0.038092222 0.10429653 0.15899163 0.14429697
-0.117736384 -0.13636912 -0.17661883 -0.20359358 -0.2157724 -0.2601857 -0.10477396 -0.16905592
-0.30432343 0.013884141 -0.0075142775 -0.026196 0.045662984 0.02314782 0.022096867 0.1448112
0.12324445 0.058127638 -0.14931251 -0.24182647 -0.19077726 -0.12780192 -0.16140358 -0.058118686
0.01107101 0.01308034 0.05990029 -0.036744356 -0.06404351 0.01308169 0.058228478 -0.024158495
-0.03293167 -0.0041606613 -0.10678836 -0.1920607 -0.044655293 0.011820432 -0.11044962 -0.14978753
-0.10939682 -0.15754732 -0.4061198 -0.26052657 -0.22898813 -0.1833383 -0.20922191 -0.2939892
-0.12028223 -0.11890859 -0.10004047 0.101988904 0.09702522 0.107965656 0.032043297 0.09847149
0.03630756 -0.05662494 0.07396884 0.009197917 0.031288277 0.085500166 -0.07255439 0.038167853
0.06922282 0.086636 -0.026576564 -0.018648751 -0.042861216 0.006034242 -0.013024594 -0.11300105
-0.04169136 -0.074026175 -0.14344388 -0.025054509 0.03146299 -0.16623257 0.073898375 0.07292129
-0.11438502 -0.050442666 -0.042965554 0.06797561 -0.086917736 -0.062969945 0.06681931 -0.051851783
-0.09929409 -0.0073969644 -0.08862813 -0.11309445 -0.070532344 -0.056479197 -0.054688554 -0.0452365
0.19346002 -0.0077078817 -0.1173656 -0.04065435 -0.029775864 -0.13964288 -0.058255646 -0.0719946
-0.15323527 -0.12029207 -0.12542453 -0.2245501 -0.04770718 -0.11813748 -0.2553926 0.030437963
00000000: 1fcc 0bbd 396c 4fbd a3da eabc 8b67 b9bd
00000010: a12f c5bd c9d5 36bd 83f0 a4bd 47e8 24be
00000020: 68ed e7bd 2986 913d 939e 2f3c 3752 2cbe
00000030: 8dbf 92bd 6f2b 7cbd da64 39be 25b1 cabc
00000040: e621 73bc 078e 37bd 7d19 043d 8783 d53d
00000050: 423b 9a3d 6de9 47bc bb97 da3d 7220 6c3d
00000060: 132c 95bd 5cfa 16bb 42d2 55bc a8ec 2e3e
00000070: e9d0 213e 853f b23d e3fa 9a3d 71db 87bb
00000080: 02dd 54bd c10b 1dbe e1c3 f9bd 921c d33c
00000090: 8859 f93c f563 743d 20dd 643d c4f7 9bbd
000000a0: 3461 16bd 658d 14ba d66f 23be a993 a53c
000000b0: b129 8a3e c9c0 013c 2eda f9bc 1dcf cdbd
000000c0: efa9 7a3b b7c7 21bd ec0f d3bd e3ad 0ebe
000000d0: b6b6 9dbd 3894 ebbd cbcf 86bd 9e55 99bd
000000e0: 26bd 32bd 7d1c e6bc d186 a1bd a600 debd
000000f0: 9a37 4abe 7807 4dbe 46ef 2bbe 8392 613d
00000100: f5da dd3d b42c 403e 05e6 b5bd 068f 173b
00000110: fa1f 0e3e f0bc 8ebe 216b 97be 8e7a 5ebe
00000120: 03ea 12bd 3fba b3bd 9f2b b9bd ef1a a7bd
00000130: a450 06be 0c47 06be 494e 50be cabc fbbd
00000140: a967 e4ba de14 ac3c f255 2d3d 9e52 033d
00000150: 034f f93c 1f30 583d 2cb9 fe3c 3f30 5abd
00000160: 5f81 17be 8b7a c0bd c9e6 3f3d 6c7f 643d
00000170: 3321 a6bc 3f59 9abc b9cd 023d 8f5e a1bc
00000180: b55c 2d3d 255e b43d 9880 983c bf92 33bd
00000190: 333d 3dbc 2787 133d 149e 7a3a 3d59 b13a
000001a0: c050 c83c cfbf a7bd e83f d3bd f30b 17be
000001b0: f547 383d 0bd5 093b a166 523a c5d8 c3bd
000001c0: df11 ccbd 33fd d5bd f225 4bbe 6457 06be
000001d0: 1500 18be 4ee2 6abd 5d44 75bd 5fbe ebbd
000001e0: 6d36 f9bc fd81 e3bc 6422 c3bd 1e60 9a3b
000001f0: dd9b dc3c 567a 093d 088d a5bc 62f9 4d3d
00000200: 151a 7ebd c80e 9bbd 3f28 433d 6b69 a6bb
00000210: 6fde 0fbe c6b1 99bd df18 0ebe a99f 233c
00000220: 3953 a8bc 990e 9bbd 88ff 53bd b4df 3abb
00000230: 9706 1cbd 6b99 d53d b4ce 223e 96c2 133e
00000240: c61f f1bd 59a4 0bbe 91db 34be d67a 50be
00000250: 71f3 5cbe 0f37 85be bb93 d6bd ff1c 2dbe
00000260: 48d0 9bbe 4f7a 633c 543a f6bb fe98 d6bc
00000270: 1c09 3b3d 7fa0 bd3c 7d04 b53c 6349 143e
00000280: 9667 fc3d 3f17 6e3d 61e5 18be 5ca1 77be
00000290: 1d5b 43be 82de 02be fb46 25be dc0d 6ebd
000002a0: 2e63 353c ec4e 563c 025a 753d 4081 16bd
000002b0: 3e29 83bd 9654 563c fc80 6e3d 09e8 c5bc
000002c0: 5ce3 06bd 2856 88bb dbb3 dabd 8fab 44be
000002d0: 78e8 36bd 7caa 413c 6933 e2bd e761 19be
000002e0: 710b e0bd 1654 21be efee cfbe bd63 85be
000002f0: dd7b 6abe 09bd 3bbe 453e 56be c185 96be
00000300: 8856 f6bd 5986 f3bd 05e2 ccbd 8fdf d03d
00000310: 29b5 c63d 191d dd3d d53f 033d 6cab c93d
00000320: 3cb7 143d 8eef 67bd fa7c 973d dcb2 163c
00000330: 2328 003d b61a af3d 6597 94bd e555 1c3d
00000340: b2c4 8d3d 376e b13d 18b7 d9bc 44c5 98bc
00000350: 3e8f 2fbd e4ba c53b 1b65 55bc 186d e7bd
00000360: 8fc4 2abd 099b 97bd f4e2 12be 1d3f cdbc
00000370: 56df 003d df38 2abe 0858 973d c257 953d
00000380: b242 eabd f89c 4ebd a6fc 2fbd cc36 8b3d
00000390: ed01 b2bd 63f6 80bd 90d8 883d 8962 54bd
000003a0: b35a cbbd 3c62 f2bb aa82 b5bd 109e e7bd
000003b0: 4373 90bd bb56 67bd 1b01 60bd e949 39bd
000003c0: 621a 463e 6692 fcbb 605d f0bd 2d85 26bd
000003d0: 83ec f3bc 8bfe 0ebe 799d 6ebd e871 93bd
000003e0: b5e9 1cbe b05b f6bd 4a6f 00be 76f0 65be
000003f0: 9b68 43bd 10f2 f1bd d2c2 82be 0959 f93c

body.block3.conv.bias f4 [32]
-0.013867921 0.032005724 -0.040503297 -0.013573649 0.015707813 0.008055005 -0.0017912617 -0.017857445
-0.043760188 -0.00294625 -0.008759087 -0.041770205 -0.014228341 0.043426696 0.0042931363 0.015929004
-0.030456569 0.010911836 -0.034036838 0.034773603 0.0050121504 0.037818532 -0.034233656 0.04549997
-0.024710722 -0.0603425 0.0024130777 0.028019246 -0.03455528 0.035970636 0.02445631 0.07442578
00000000: 4736 63bc 6f18 033d c9e6 25bd 0364 5ebc
00000010: acad 803c 24f9 033c c5c8 eaba c749 92bc
00000020: e23d 33bd df15 41bb 4682 0fbc 3c17 2bbd
00000030: fd1d 69bc 31e0 313d 70ad 8c3b 8b7d 823c
00000040: 0e80 f9bc 8fc7 323c 366a 0bbd c46e 0e3d
00000050: f73c a43b 9be7 1a3d 9738 0cbd 2d5e 3a3d
00000060: 246e cabc b329 77bd ba24 1e3b 9e88 e53c
00000070: d689 0dbd f255 133d 9958 c83c 8b6c 983d

body.block3.norm.weight f4 [32]
0.7307384 0.77328646 0.676322 0.6153101 0.6325197 0.5999459 0.5948929 0.67429423
0.5875401 0.65738153 0.7635978 0.5209 0.6158313 0.75139934 0.67014647 0.71287495
0.8027659 0.66287595 0.8799545 0.6473405 0.7862204 0.5673263 0.5963083 0.633231
0.70192087 0.6367409 0.5901335 0.5703689 0.7235153 0.6635026 0.50622636 0.78248113
00000000: ac11 3b3f 1af6 453f 7023 2d3f f684 1d3f
00000010: d0ec 213f 0e96 193f e74a 183f 8c9e 2c3f
00000020: 0769 163f 284a 283f 257b 433f b459 053f
00000030: 1fa7 1d3f b55b 403f b88e 2b3f f97e 363f
00000040: 1182 4d3f 3db2 293f b344 613f 1bb8 253f
00000050: bd45 493f 4c3c 113f a9a7 183f 6d1b 223f
00000060: 16b1 333f 7401 233f fd12 173f b203 123f
00000070: 4c38 393f 4edb 293f 0d98 013f af50 483f

body.block3.norm.bias f4 [32]
-0.16195798 -0.5957762 -0.42718217 -0.32092524 -0.1741912 -0.32418573 -0.5459871 -0.31838277
-0.2286806 -0.5626598 -0.540763 -0.64784825 -0.3068064 -0.5381833 -0.22824995 -0.33396035
-0.57211214 -0.3053375 -0.36476564 -0.3062427 -0.4280925 -0.50601643 -0.21968338 -0.40134153
-0.26393664 -0.24178599 -0.41111422 -0.18207502 -0.5368153 -0.18728589 -0.39214453 -0.46696335
00000000: 50d8 25be ca84 18bf 9fb7 dabe 5050 a4be
00000010: 2e5f 32be acfb a5be d0c5 0bbf 1103 a3be
00000020: 3f2b 6abe 790a 10bf 726f 0abf 62d9 25bf
00000030: ba15 9dbe 61c6 09bf 5bba 69be dafc aabe
00000040: f175 12bf 3255 9cbe 90c2 babe d8cb 9cbe
00000050: f12e dbbe 4b8a 01bf aef4 60be a37c cdbe
00000060: b422 87be bf96 77be 907d d2be e071 3abe
00000070: ba6c 09bf dfc7 3fbe 2bc7 c8be d215 efbe

body.block3.norm.running_mean f4 [32]
-4.2348304 -2.8976622 -1.6363392 -1.6203371 -2.8303244 0.57453007 -2.5069773 -2.3328981
-1.2278346 -0.3191558 -2.294702 -3.2039921 -2.5379384 -2.6839259 -2.659607 -1.8912045
-1.3985909 -0.7450335 -1.1495817 -1.5574396 -1.8764212 -1.9883035 -0.18010366 -0.638999
1.1606693 -1.3145732 -0.22147612 -0.16640702 -0.39318562 -0.6044205 -2.0631564 -2.1982942
00000000: bb83 87c0 4c73 39c0 9073 d1bf 3567 cfbf
00000010: 0924 35c0 6714 133f 5172 20c0 344e 15c0
00000020: af29 9dbf 6468 a3be 66dc 12c0 350e 4dc0
00000030: 956d 22c0 71c5 2bc0 0037 2ac0 fd12 f2bf
00000040: 0705 b3bf 84ba 3ebf 7e25 93bf 2e5a c7bf
00000050: 922e f0bf bb80 febf 186d 38be 7095 23bf
00000060: d090 943f ef43 a8bf a3ca 62be 9a66 2abe
00000070: a04f c9be 4dbb 1abf c10a 04c0 dab0 0cc0

body.block3.norm.running_var f4 [32]
17.963049 8.153381 7.626408 2.7171204 12.659642 12.943394 6.8931785 8.122935
13.72839 8.368245 12.453591 6.7694464 12.791005 7.9391675 18.33994 3.2872126
0.8237047 4.1478868 1.0938991 9.160589 9.773933 3.0272207 11.1234255 31.747223
11.5197735 5.378345 7.1426473 8.311311 4.006116 15.729048 8.359752 5.486939
00000000: 53b4 8f41 4074 0241 890b f440 4de5 2d40
00000010: e58d 4a41 2418 4f41 eb94 dc40 8bf7 0141
00000020: 7ca7 5b41 55e4 0541 e941 4741 4e9f d840
00000030: f5a7 4c41 a90d fe40 32b8 9241 b161 5240
00000040: 50de 523f 7dbb 8440 e304 8c3f c691 1241
00000050: 0862 1c41 fcbd 4140 8df9 3141 50fa fd41
00000060: fe50 3841 671b ac40 9190 e440 21fb 0441
00000070: 1a32 8040 2eaa 7b41 8bc1 0541 0195 af40

tail.0.weight f4 [3, 32, 3, 3]
-0.010437957 -0.016469551 0.0014828546 -0.03362382 -0.0017056197 0.06835338 0.012066778 0.016219191
0.05046413 -0.009591605 0.013834079 -0.005616161 0.0017479507 0.016872825 0.004340391 -0.032395247
-0.05435557 -0.0968751 0.051188845 0.01883451 0.037125584 0.0011275092 -0.014906547 -0.033668216
-0.00041837705 0.00496891 -0.030021707 -0.03234213 0.043224618 -0.073594324 -0.08187282 -0.08722831
-0.01848412 0.11131293 0.10775361 0.039444078 0.029498266 0.036848772 -0.027277382 0.02202135
0.036044374 -0.01314112 -0.0055267187 -0.016356543 -0.075800955 0.019292036 0.013786065 0.07821618
-0.0066745332 0.020179855 0.0061757206 -0.022800202 -0.049377102 -0.073758595 0.04594207 0.020865105
0.04947573 -0.020774601 -0.006858074 -0.012007489 0.057119578 0.07669539 0.042746518 -0.06612837
-0.023388961 0.055352684 -0.078674875 0.011845162 0.05347328 -0.03186334 -0.013822622 -0.039421447
-0.0825535 0.0022430758 0.062598914 -0.04380839 -0.015564097 0.010642784 0.10249018 0.031253763
0.026224677 -0.07622782 -0.07209894 -0.03141772 0.079044335 0.0466719 -0.045077655 0.07256625
0.10962317 0.079602726 0.01788341 0.01784544 0.084994696 0.025385788 -0.024559656 0.013418858
-0.028064279 -0.04705373 0.023976848 0.002932458 -0.027297327 -0.052160814 0.020050848 0.04509829
0.024811167 0.029649409 -0.028527874 -0.032815278 -0.049374413 -0.004376797 0.02863716 0.018945603
0.0045851767 -0.03111598 0.043143187 -0.019691305 -0.08034116 -0.014847117 0.016137721 0.09322693
-0.009830292 -0.08765171 -0.03784641 0.12938309 0.043262493 -0.05718142 0.020671833 0.034032505
-0.07217601 0.023217468 0.007710858 -0.089788236 0.00657742 -0.017250199 -0.011807068 0.07541006
0.020460453 0.103007086 0.03554657 -0.06626795 -0.08283585 0.014708435 -0.03307201 -0.0811054
0.0020984504 0.016770279 0.0054976367 -0.1631093 -0.107648805 0.1798301 0.13795693 0.088691875
-0.11917263 -0.010884854 0.03352336 0.14611642 -0.061851665 -0.016486796 0.046782404 -0.109493785
-0.048606735 0.059612073 -0.037958913 0.037146278 0.0077671865 0.06516641 0.14106101 -0.17175508
0.085786775 -0.021513406 -0.114001 0.004639416 0.026034836 -0.00829945 -0.037078448 0.02297108
-0.0015759763 -0.020841975 0.035475537 0.013903354 -0.027743703 0.022887575 0.16560976 -0.03226787
-0.04428298 0.00046164927 0.008135952 -0.011524594 -0.010479966 -0.07636519 0.06421742 0.113446295
-0.048842408 0.03663012 0.07420402 -0.021773875 0.0054410174 -0.009251838 0.06163079 0.10041691
0.08883532 -0.015747262 -0.030884283 -0.019896887 -0.008216326 -0.058237962 -0.07772744 -0.011399415
-0.043331232 -0.017272511 0.08618656 -0.016211709 0.039840158 0.06284233 0.042470057 0.099702425
-0.060185723 -0.10152235 0.003449603 0.06632901 0.07454696 0.06024634 0.03983212 0.00017783507
-0.043028545 0.021303955 0.034437425 0.047452547 -0.060534608 -0.014095645 0.013936731 -0.06712826
0.0015761233 0.079610094 0.051711977 0.0135257095 -0.02351975 0.062427193 0.03708935 -0.044310685
0.099100806 -0.002633204 -0.048711296 -0.08179766 -0.017755998 0.01112243 -0.024358882 -0.020382322
-0.010026507 0.04692492 0.08752671 0.04773672 -0.020567045 -0.034313824 0.004807557 -0.0155310705
00000000: f703 2bbc 27eb 86bc 585c c23a 21b9 09bd
00000010: 1a8f dfba dbfc 8b3d bcb3 453c 1cde 843c
00000020: 7ab3 4e3d 1b26 1dbc 55a8 623c c607 b8bb
00000030: 7e1b e53a e138 8a3c d739 8e3b e1b0 04bd
00000040: f2a3 5ebd 7466 c6bd 65ab 513d d54a 9a3c
00000050: ff10 183d eec8 933a 973a 74bc afe7 09bd
00000060: 9e59 dbb9 3dd2 a23b 15f0 f5bc 2e79 04bd
00000070: 4c0c 313d 9fb8 96bd f0ac a7bd c2a4 b2bd
00000080: 026c 97bc 09f8 e33d edad dc3d 1d90 213d
00000090: 59a6 f13c bdee 163d d174 dfbc 1e66 b43c
000000a0: 44a3 133d da4d 57bc 7a19 b5bb 28fe 85bc
000000b0: 883d 9bbd 550a 9e3c f3de 613c ce2f a03d
000000c0: 0bb6 dabb 3950 a53c b35d ca3b 7dc7 babc
000000d0: a53f 4abd bf0e 97bd c12d 3c3d 4ced aa3c
000000e0: 10a7 4a3d 7f2f aabc b2b9 e0bb 0fbb 44bc
000000f0: 38f6 693d 7912 9d3d f916 2f3d 506e 87bd
00000100: 359a bfbc 7fb9 623d 4b20 a1bd 3612 423c
00000110: cc06 5b3d 2283 02bd 4778 62bc 6278 21bd
00000120: cf11 a9bd 9100 133b dc33 803d 6d70 33bd
00000130: 8e00 7fbc 125f 2e3c 5fe6 d13d f203 003d
00000140: 22d5 d63c 551d 9cbd 9ca8 93bd deaf 00bd
00000150: ffe1 a13d 092b 3f3d 59a3 38bd 9d9d 943d
00000160: 1d82 e03d c106 a33d 3b80 923c 9a30 923c
00000170: b311 ae3d dbf5 cf3c 5531 c9bc c5da 5b3c
00000180: 0fe7 e5bc 69bb 40bd 186b c43c 7b2e 403b
00000190: a59e dfbc 94a6 55bd ad41 a43c fcb8 383d
000001a0: ca40 cb3c 51e3 f23c 4ab3 e9bc 5069 06bd
000001b0: d33c 4abd 3c6b 8fbb 7a98 ea3c cf33 9b3c
000001c0: 403f 963b f1e6 febc e9b6 303d a94f a1bc
000001d0: e889 a4bd 5241 73bc 4133 843c c3ed be3d
000001e0: 3c0f 21bc bd82 b3bd d604 1bbd 007d 043e
000001f0: 0334 313d 1137 6abd fa57 a93c ab65 0b3d
00000200: 04d1 93bd 8f32 be3c 5dab fc3b e5e2 b7bd
00000210: 6687 d73b 4a50 8dbc 6f72 41bc 9770 9a3d
00000220: ae9c a73c 61f5 d23d 4899 113d 7eb7 87bd
00000230: d8a5 a9bd a6fb 703c 8476 07bd 971a a6bd
00000240: 2886 093b d361 893c 8525 b43b 2006 27be
00000250: fa76 dcbd 6225 383e 9544 0d3e 16a4 b53d
00000260: c810 f4bd 6356 32bc ca4f 093d 8b9f 153e
00000270: 2c58 7dbd 510f 87bc e89e 3f3d 473e e0bd
00000280: db17 47bd ca2b 743d ce7a 1bbd b226 183d
00000290: e283 fe3b f775 853d 4c72 103e 90e0 2fbe
000002a0: fab0 af3d e23c b0bc 5b79 e9bd 3e06 983b
000002b0: 0247 d53c 6bfa 07bc 92df 17bd d92d bc3c
000002c0: fd90 ceba cabc aabc cc4e 113d e5ca 633c
000002d0: c346 e3bc b97e bb3c 9b95 293e 502b 04bd
000002e0: 1262 35bd 8409 f239 a84c 053c a7d1 3cbc
000002f0: 2ab4 2bbc 5a65 9cbd 6c84 833d 8856 e83d
00000300: fa0e 48bd 7709 163d 47f8 973d 205f b2bc
00000310: 904a b23b 0595 17bc 9170 7c3d 62a7 cd3d
00000320: 4bef b53d 6700 81bc 0901 fdbc ccfe a2bc
00000330: c59d 06bc ee8a 6ebd 902f 9fbd 9dc4 3abc
00000340: 177c 31bd 157f 8dbc 9482 b03d 6bce 84bc
00000350: 6f2f 233d 7bb3 803d 15f5 2d3d c930 cc3d
00000360: 4e85 76bd f3ea cfbd bc12 623b 81d7 873d
00000370: 14ac 983d dec4 763d 0127 233d 3d79 3a39
00000380: b33e 30bd a285 ae3c 420e 0d3d 9a5d 423d
00000390: 23f3 77bd 6cf1 66bc e356 643c 8b7a 89bd
000003a0: ec95 ce3a 9e0a a33d f0cf 533d f09a 5d3c
000003b0: 7eac c0bc a8b3 7f3d 01eb 173d 1f7f 35bd
000003c0: 5df5 ca3d d591 2cbb 7f85 47bd 8885 a7bd
000003d0: 0775 91bc da3a 363c 478c c7bc d4f8 a6bc
000003e0: 3846 24bc 5834 403d 3441 b33d 9487 433d
000003f0: 387c a8bc a78c 0cbd b688 9d3b 0876 7ebc

tail.0.bias f4 [3]
0.024597337 0.044143867 0.052514654
00000000: 5b80 c93c 33d0 343d 9b19 573d
