trained_models/sinGan/mountains/scale_factor=0.750000,alpha=10/4/netD.pth (torch_old, 461765 bytes, 25 tensors)

head.conv.weight f4 [64, 3, 3, 3]
000000 d3 69 55 bb 4b be 69 bd b2 f4 77 bd 11 0a 04 3d
       -0.0032564297 -0.057066243 -0.060536094 0.032236163
000010 ce 2b 80 bb 22 20 31 bc c7 64 c2 3d de 27 de 3c
       -0.003911472 -0.010810884 0.09491878 0.02711862
000020 90 b4 d9 3c 45 7e 08 ba 10 30 65 bd 21 6a 54 bd
       0.026575357 -0.0005206804 -0.05595404 -0.051859025
000030 a2 14 7f 3c 6a 0b 5a 3c e8 5a 79 bc b3 78 b3 3d
       0.015568884 0.013308385 -0.015219428 0.08763256
000040 6e 42 66 3c 93 93 81 3c 2f 46 14 bd 38 fd 3f bd
       0.014053924 0.01581744 -0.036199745 -0.046872348
000050 1d 19 96 bd 40 56 ba 3c e8 09 fd 3a 6d 9d e8 bc
       -0.07329009 0.022746205 0.001930532 -0.028395379
000060 e4 05 19 3d ad ab 0a 3c 45 67 82 3b 19 bd 4d 3d
       0.037359133 0.008463782 0.003979596 0.050229166
000070 9b 26 4f 3c 59 c3 4d 3c e2 61 26 3d 3f 6d 61 3c
       0.012643482 0.012558782 0.040620692 0.013758956
000080 ef f8 03 3c 63 5a 02 3d 06 c9 d4 bb fa 61 80 3c
       0.008054956 0.03182448 -0.0064936904 0.015671719
000090 de 9f cd bc bc f6 cf bc 76 1d 98 bc 9b 60 30 bc
       -0.025100645 -0.025386207 -0.018568736 -0.01076522
0000a0 2e bd cf bb f9 a5 0c 3c e6 fe 97 bc 48 19 74 bc
       -0.0063396906 0.008584493 -0.018554162 -0.014898606
0000b0 32 eb b8 3a 13 8f 8a bd 83 1c 1b bc 73 72 b3 bd
       0.001410818 -0.067655705 -0.009467247 -0.08762064
0000c0 33 44 4e bd d1 c3 a4 3b 6a 58 42 bd 8f b9 78 bd
       -0.05035801 0.005028226 -0.0474476 -0.060723837
0000d0 70 ee 3a bd 8c 71 94 bd 59 a9 6c bd 2a 46 bd bc
       -0.045637548 -0.0724822 -0.05777869 -0.023104746
0000e0 cd ec a2 bd 52 10 c2 bc 5c e4 a4 bc 90 1d 0a bc
       -0.079553224 -0.023689423 -0.020128421 -0.0084299
0000f0 2f 83 a5 3d b4 2c 83 3d 8b d2 87 3d 25 1e 40 bd
       0.08081662 0.06405011 0.06631955 -0.046903748
000100 3a 00 dd 3b ac ac 4b bd da c8 a2 bc 85 de 1e bc
       0.006744412 -0.04972522 -0.019871164 -0.0096966075
000110 f9 01 b5 bb 36 91 80 3d 30 c2 f9 3c 06 e7 d7 3c
       -0.005523917 0.06277697 0.030488104 0.026355278
000120 23 67 db 3a 08 2a b8 3c 2d 93 5c bc 02 eb 91 3c
       0.0016739111 0.02248098 -0.013462824 0.017812256
000130 55 43 a2 3b 16 4d fb 3b aa 68 5a 3d 72 91 c9 3c
       0.0049518743 0.0076691015 0.05332247 0.024605487
000140 f0 7f 76 3b 61 63 d7 3c 7a 38 6f bc c3 14 23 bd
       0.0037612878 0.026292505 -0.014600867 -0.03981472
000150 56 12 33 bc 15 51 20 bc 4c d4 69 bb 51 92 84 bc
       -0.010929665 -0.009784956 -0.0035679517 -0.01618305
000160 01 19 35 bc 08 e8 b6 bc 32 7a 85 3d 62 49 6c bc
       -0.011053325 -0.022327438 0.065174475 -0.014421793
000170 1d bc 92 bc fd 84 05 bd fa 71 b5 bc e1 e5 8d bb
       -0.017911965 -0.03259753 -0.022149075 -0.004330382
000180 67 ad 96 bc 2e f7 a3 bc cf 2d a0 bc 75 f8 42 3d
       -0.018393232 -0.020015325 -0.019553093 0.04760023
000190 fa 82 58 3b 38 50 3a bd 3c d1 99 bd d6 c8 9a bd
       0.0033037052 -0.04548666 -0.075106114 -0.07557838
0001a0 f4 6c 05 bd 73 4b ab bd 17 c1 98 bd 55 cf 9f bd
       -0.03257461 -0.08364 -0.07458704 -0.07803217
0001b0 f9 0a 8a 3d db ea 5a 3c de f1 c0 3c f5 f6 fe 3c
       0.06740374 0.013361658 0.023552831 0.031123618
0001c0 3b b8 ec bb 96 f9 0a 3b 03 e6 8a bc da b3 64 3c
       -0.0072241104 0.0021205894 -0.016955381 0.013958896
0001d0 8a e5 1d 3c c0 33 d4 3c 27 5b bc ba a9 9b 67 bb
       0.009637246 0.025903583 -0.0014370427 -0.0035340583
0001e0 36 70 61 3b 75 74 87 bc 67 e0 01 bd 9b 00 da bd
       0.0034399158 -0.016535023 -0.031708147 -0.10644647
0001f0 0e c9 22 3c f1 c9 8f bd d3 55 07 3d 59 d0 c4 bc
       0.0099356305 -0.07020939 0.033040833 -0.02402513
000200 6e cc 01 3c c2 8c 68 3d d3 d3 58 bc 5d d3 f2 bc
       0.007922275 0.056774862 -0.013234097 -0.029641801
000210 fb 48 95 bd fc 20 be bc 46 47 9b bd f8 72 78 3d
       -0.072893105 -0.023209088 -0.07581954 0.060656518
000220 45 8e 21 3c dd 98 6e bd cf a0 16 bb 93 81 d3 bc
       0.00986058 -0.05825125 -0.0022984033 -0.025818622
000230 4a 70 d8 3c 07 3c 20 bc 7b 50 56 bc 79 b0 cf 3c
       0.026420731 -0.009779937 -0.0130807115 0.025352703
000240 d3 1b 47 3c cd 5d a3 bb 04 2b f4 bd f0 84 e1 bc
       0.01215263 -0.004985547 -0.11922267 -0.02752921
000250 95 95 88 bd 25 5a 3c bc 87 30 6d 3c ad 66 d4 3c
       -0.066691555 -0.0114961015 0.014476902 0.025927866
000260 06 b3 0d 3b fd e1 89 bc 40 fa d0 3c f0 c0 2c bd
       0.00216216 -0.016831392 0.025509953 -0.042176187
000270 69 43 6d bd e8 1f 3e bd de 60 0b bc 09 4f 54 3c
       -0.057925615 -0.046417147 -0.008506982 0.012958297
000280 1e bc 6c 3d a1 36 88 3d 72 61 73 3d f3 fc ff 3c
       0.05779659 0.06651045 0.059419103 0.031248545
000290 74 71 b7 3d 1c a8 1a 3d cc 7b 03 3c f7 30 97 3d
       0.08957186 0.037757978 0.008025121 0.07382386
0002a0 c6 89 8b 3d 36 6d 7b 3d b4 be b5 3d 19 09 ad bc
       0.068133876 0.06138345 0.08874264 -0.021122502
0002b0 c4 1b 1b b9 cf b1 68 bc d5 e1 4f bc c5 ed cd 3c
       -0.00014792295 -0.014202549 -0.01268812 0.025137791
0002c0 57 d1 27 bc a7 1a ac bc b7 cd 99 3b 84 03 ff ba
       -0.010242782 -0.021008803 0.0046937126 -0.0019456004
0002d0 ec 8d 06 bd df ee 07 bd 1b ac 6f bd d2 99 13 bd
       -0.03285019 -0.03318679 -0.058513742 -0.036035366
0002e0 16 e6 94 bc a4 04 86 bc 38 b0 0d bd b2 b8 ac bc
       -0.01817612 -0.016359635 -0.034591883 -0.021084163
0002f0 80 3f 21 3c 7a d3 c5 bc 54 a3 8c 3c ae da d2 bb
       0.0098418 -0.024148691 0.017167725 -0.00643476
000300 bf 36 a6 3c 4b 2c 98 bb 70 2c af 3c b3 0f 6b bc
       0.020289777 -0.004643952 0.021383494 -0.014347005
000310 a5 ff 3b bc 40 86 9e bb 46 26 b5 bd ea de 00 bd
       -0.011474525 -0.004837781 -0.08845191 -0.031462587
000320 1a 53 b0 bc 5b 31 11 3d d5 5e 69 3d 95 b7 af 3c
       -0.021524 0.03544746 0.056975204 0.021449843
000330 b2 9a 9c bd 12 47 fc bb 67 2f 98 bc c8 d9 43 bd
       -0.07646693 -0.007698902 -0.01857729 -0.047815114
000340 d9 01 d3 bb 2d e0 eb 3c d2 72 ee 3c 95 55 50 3d
       -0.0064394292 0.028793419 0.029107485 0.050862867
000350 9b 2f b7 3d 7e ea a3 bd f8 40 1d bd 11 11 e4 bc
       0.08944627 -0.0800371 -0.038392037 -0.02784017
000360 6e 02 a9 ba 1a 06 51 bc 85 16 73 bd f8 f8 3c 3d
       -0.0012894401 -0.012757802 -0.05934765 0.046135873
000370 61 2b 2d 3d c5 a1 84 bc 02 fc c8 bc 8a f3 85 bc
       0.042277697 -0.016190419 -0.02453423 -0.01635148
000380 d8 94 07 bd e0 4c 7b bd 7d ca ba 3c 3b bc 2e 3d
       -0.033100933 -0.06135261 0.022801632 0.04265998
000390 a1 e9 d8 3c b3 ea fb 3b b3 a8 51 3d 70 fb dc bc
       0.02647859 0.0076878904 0.051186275 -0.026975363
0003a0 e1 24 c7 bc 4c b6 6e bc d3 92 0f be cc 44 fe bb
       -0.024309577 -0.01456983 -0.14020853 -0.007759666
0003b0 f6 2e 70 3d 57 93 b5 bc 34 77 aa 3c 10 fc 3c 3d
       0.058638535 -0.022164984 0.020808794 0.046138823
0003c0 22 7a 92 bb 08 27 30 bc b5 71 ca bb c5 ff 8e bc
       -0.004470126 -0.010751493 -0.0061781057 -0.017455945
0003d0 79 a3 0a bd 2e dd d6 bc 5b 51 a4 3d 1f 28 82 3c
       -0.033847306 -0.026228514 0.0802333 0.015888272
0003e0 c8 7b 86 3d 9d 56 06 3c 03 5c a0 bb f2 60 de 3b
       0.06566578 0.008199361 -0.004893781 0.006786459
0003f0 0c ac ff bc e0 9e 92 bc a3 e7 df bc 6a 51 0c 3d
       -0.031209968 -0.017898023 -0.027332133 0.03425733

head.conv.bias f4 [64]
000000 cb 2c cc bd e1 71 3e 3e 4a a0 4a be 17 c2 3b be
       -0.09969481 0.18598129 -0.19787708 -0.18335758
000010 2b 81 10 be bb cd 3f be 74 46 ba 3d 30 bf b8 bc
       -0.14111774 -0.18730824 0.09095469 -0.022552103
000020 b7 70 db bd 78 72 b9 bd 6b 23 20 be 9e a8 99 3d
       -0.10714858 -0.09055036 -0.15638511 0.07502864
000030 05 50 21 ba 1a 4f 9a 3d ae f5 84 3d ad 6b 76 bd
       -0.00061535864 0.07534619 0.06492172 -0.06016128
000040 b9 98 07 be ba b5 1a 3e 97 4d 29 3e f3 9a 5f bd
       -0.13241853 0.15108386 0.16533504 -0.05459113
000050 49 bb e9 3d 73 ef 1d be 09 02 b0 3d 1d 4d 6a bd
       0.11412675 -0.15423374 0.08594138 -0.057202447
000060 09 8d 32 be 71 44 39 3e 9d 50 33 3e 50 93 f4 bd
       -0.17436613 0.18092515 0.1751122 -0.1194216
000070 74 89 fe 3d 53 f8 08 bc 9f 5e 4f bb 2e f6 92 bd
       0.12428561 -0.008359986 -0.0031642092 -0.07175861
000080 6d dc 7c be 2f 2b 0a 3e f6 23 da 3d d1 f1 b6 bd
       -0.24693461 0.13493036 0.1065139 -0.089328416
000090 a1 6c 83 bd 5b 94 39 be 40 92 1e 3e c0 9f d7 bd
       -0.06417204 -0.18123 0.15485477 -0.10528517
0000a0 b4 53 8a bd 7f c4 13 bd c9 b3 dd bc f7 33 74 bd
       -0.06754246 -0.036076065 -0.027063267 -0.05961987
0000b0 57 f5 22 be 95 40 fe bc 27 bd 3c bd 46 6a a2 3d
       -0.15913902 -0.031036654 -0.046078827 0.07930426
0000c0 3e a9 f2 3d 2e 77 8b 3d d8 38 d9 3d 43 38 7c bd
       0.11848687 0.06809841 0.10606545 -0.061577093
0000d0 57 d1 0d 3e 70 e2 bd 3c c5 e8 4e bd e8 2e ef bd
       0.13849388 0.023179263 -0.050514955 -0.116788685
0000e0 91 67 06 3e 7b 66 a6 bd 9c 47 f2 bb 7f c3 35 3e
       0.13125445 -0.08125015 -0.0073937904 0.17750357
0000f0 94 4a 90 3d 67 38 d2 3d 83 f7 39 bd de 01 5c bd
       0.07045475 0.10264664 -0.04540206 -0.05371272

head.norm.weight f4 [64]
000000 a4 5c 8e 3f 20 31 6a 3f 1b 9f 98 3f ff fb 50 3f
       1.1122022 0.9148121 1.1923555 0.81634516
000010 39 5b 65 3f 76 ba 55 3f 7a ea 73 3f 55 90 55 3f
       0.8959232 0.8348764 0.9527966 0.8342336
000020 f6 b2 66 3f ae 5a 72 3f 50 e5 6a 3f 0b ea 85 3f
       0.9011682 0.94669616 0.91756153 1.0462049
000030 5a 4f 86 3f 66 90 6f 3f f6 53 8b 3f e2 15 6d 3f
       1.0492966 0.9357971 1.0884998 0.92611516
000040 07 b2 75 3f a0 be 6b 3f 8f d1 6f 3f 31 e3 85 3f
       0.95974773 0.92087746 0.93679136 1.0459958
000050 46 1a 7c 3f 4c ad 89 3f b3 4a 58 3f 5d 6a 8c 3f
       0.9847759 1.0756011 0.8448898 1.096996
000060 ca a2 8e 3f c3 d4 6d 3f 6f 29 6d 3f 12 e3 59 3f
       1.1143429 0.92902774 0.9264135 0.85112107
000070 dd 75 68 3f cb 2e 72 3f ce e3 7d 3f 4f 53 5d 3f
       0.90804845 0.9460265 0.9917573 0.86455244
000080 f7 2b 60 3f 58 a9 67 3f 0c f4 69 3f 4f 93 91 3f
       0.87567085 0.90492773 0.9138801 1.137308
000090 12 85 5c 3f 2f 06 64 3f 92 70 8d 3f fe f1 75 3f
       0.8614055 0.89071935 1.1049979 0.96072376
0000a0 11 bd 6e 3f 2f e1 6b 3f 9c 1e 75 3f 58 dc 63 3f
       0.9325724 0.9214048 0.9574983 0.8900809
0000b0 df 3d 70 3f cb 11 90 3f be cc 5c 3f 0c c5 98 3f
       0.9384441 1.125543 0.8624991 1.1935134
0000c0 83 a5 79 3f 3f 10 43 3f 2e 05 73 3f d6 1a 68 3f
       0.97518176 0.76196665 0.9492978 0.9066595
0000d0 19 33 64 3f a6 d6 5b 3f 7e e8 76 3f 91 3b 68 3f
       0.8914047 0.858744 0.96448505 0.9071589
0000e0 89 d0 85 3f 9a 50 88 3f e8 61 64 3f bc f2 70 3f
       1.0454265 1.0649598 0.89211893 0.94120383
0000f0 c4 ff 5a 3f 44 f1 4d 3f 21 82 4f 3f 56 f2 6a 3f
       0.8554652 0.8044627 0.81057936 0.91776025

head.norm.bias f4 [64]
000000 ca 7c 84 3e 9c 2e c7 3d 13 91 09 3f bb 29 8a 3d
       0.25876456 0.09725687 0.5373699 0.06746241
000010 25 81 91 bb 91 e2 a7 3d df 1c 0e 3f 3c ad ef 3e
       -0.004440444 0.08197511 0.55512804 0.46811855
000020 01 b4 e1 3c 62 5d 8b 3e 5a de d1 3e 9c c9 c4 3e
       0.027551653 0.27219683 0.40989953 0.38435066
000030 eb fe 3b 3f 2b c3 f3 3b 88 d4 85 3e d4 03 b0 3e
       0.7343585 0.0074390373 0.2613871 0.3437792
000040 c8 f8 27 3f ec 2a 55 3e e5 a8 bb bd 41 75 86 3e
       0.65613985 0.20817155 -0.091630735 0.26261333
000050 19 39 4a 3e fc 9c fc 3e b0 40 7b bc dc 74 50 3f
       0.19748344 0.4933852 -0.015335247 0.81428313
000060 f1 68 ac 3d 81 9f 1e 3d 0f dc f1 3b 71 ef b4 3e
       0.084184535 0.038726334 0.0073809694 0.3533893
000070 ef 3d 2f 3e 2d 09 a5 3e 22 2e 89 3e 2a 03 88 3e
       0.1711347 0.32233563 0.2679301 0.26564914
000080 d7 cb 9d 3e cb c6 a9 3d f7 fc f8 3d 7c a2 13 3f
       0.3081958 0.0828987 0.12157624 0.57669806
000090 53 4f 15 3e a0 dd 9f 3b 5a d7 52 3e c9 b2 10 3d
       0.14581041 0.0048787147 0.20589963 0.035326753
0000a0 30 ed 1d 3f a4 6f 89 3e 0f c1 31 3e 33 4a 45 3e
       0.61690044 0.26842988 0.17358802 0.19266586
0000b0 58 0c 29 3e 6a b9 c7 3e 00 ae 47 3d 0a f5 3e 3e
       0.16508615 0.39008647 0.048749924 0.18648162
0000c0 4e 9a bb 3e fe df ec bd 3e d3 c6 3e d7 38 28 3e
       0.36641163 -0.115661606 0.3883304 0.16427933
0000d0 ba 97 4c 3e 7f ac b7 be 92 50 81 3e 38 b4 2c 3d
       0.19979754 -0.35873792 0.25256783 0.042164057
0000e0 52 54 c1 3e b0 11 0b 3e fe 2a a4 bc 1b 14 86 3e
       0.37759644 0.13580966 -0.020040032 0.26187214
0000f0 71 01 6f 3e 07 d8 18 3e 49 f5 a3 3e 24 b3 0e 3e
       0.23340394 0.14926158 0.32023075 0.13935524

head.norm.running_mean f4 [64]
000000 7a 08 cf bd 8c c5 62 3e be 22 5e be 49 0a ee bd
       -0.10109039 0.2214567 -0.2169294 -0.116230555
000010 14 07 f9 bd 47 ae 3d be 8e 66 86 3d 6c 24 6a bc
       -0.12159553 -0.18523513 0.065625295 -0.01429091
000020 ab 48 c4 bd ed 2d c1 bd 58 aa e8 bd c8 8a bf 3d
       -0.09584173 -0.09432588 -0.113606155 0.09352642
000030 9f f0 46 bc a1 d1 92 3d 28 ff 43 3d 49 43 59 bd
       -0.0121423295 0.0716889 0.047850758 -0.053042684
000040 74 b1 0e be be fb 2a 3e ca 69 33 3e 31 13 71 bd
       -0.1393488 0.16697595 0.17520824 -0.058856193
000050 9a b6 09 3e bd 9a 20 be 31 e5 ac 3d 72 5e 7b bd
       0.13448563 -0.15684028 0.08442152 -0.061369367
000060 ae ad 47 be 39 da 67 3e 64 c6 51 3e af e5 e2 bd
       -0.19499847 0.22641839 0.20485836 -0.11078965
000070 4c 16 02 3e c9 00 5a bb 20 f7 88 bb 7a ba 58 bd
       0.12703818 -0.0033264628 -0.00417985 -0.052912213
000080 e3 47 6c be e8 b4 15 3e 8d 92 1d 3e 46 6d f0 bd
       -0.23074298 0.14619792 0.15387936 -0.11739592
000090 ca 53 39 bd 42 f8 0e be 84 cf 2b 3e 0c ad 20 bd
       -0.045245923 -0.1396189 0.1677838 -0.03922753
0000a0 b8 17 8e bd 7d 83 e8 bc 3e 91 8d bc ed 3b 42 bc
       -0.06938118 -0.028383011 -0.017281171 -0.011855108
0000b0 8c 41 1c be 80 13 6e bd 8a 3f 06 bd 39 84 47 3c
       -0.15259379 -0.058124065 -0.03277544 0.01217752
0000c0 e1 54 fc 3d a9 4e cc 3d f0 39 e0 3d 3e eb a6 bc
       0.12320877 0.09975941 0.10948551 -0.020375844
0000d0 e1 e0 20 3e aa ad 1b 3d 83 12 5a bd cf cf bf bd
       0.15710784 0.038007416 -0.05324031 -0.09365808
0000e0 44 5b 0b 3e b6 4a f2 bd fe 75 3d 3d e4 ae 3a 3e
       0.13609034 -0.11830656 0.046255104 0.18230778
0000f0 d3 de ce 3d b3 e0 e1 3d 39 ca cb bc 72 54 75 bd
       0.10101094 0.11029186 -0.0248767 -0.059894986

head.norm.running_var f4 [64]
000000 b3 53 0e 3c 26 dc 69 3d ca db 21 3c 90 10 b1 3d
       0.008686948 0.057094716 0.009879062 0.08645737
000010 e1 a5 88 3c f3 77 fe 3b 2a 73 26 3c 09 00 86 3b
       0.01668066 0.007765764 0.010159293 0.0040893597
000020 19 89 45 3b f4 93 44 3b 99 2b b0 3c 1f dd 72 3b
       0.003014153 0.0029995413 0.021505164 0.0037058068
000030 dc 23 db 3b 21 3b 7f 3c fe ae b2 3c 5f 05 9b 3b
       0.0066876244 0.015578062 0.021811958 0.004730865
000040 e5 e7 c0 3b 3b ee 38 3c 66 0d 2e 3c 47 20 cf 3c
       0.005887019 0.011287267 0.010623312 0.025283946
000050 cb 79 89 3c c1 95 c1 3c 49 5f b5 3b 93 07 92 3b
       0.016781708 0.023630979 0.0055350405 0.0044564693
000060 5b 9d c4 3c 3d 4a 39 3d 6a a5 0a 3d a8 86 92 3a
       0.024000814 0.045236815 0.033849157 0.0011179047
000070 b2 05 48 3b 7e ae e9 3a d2 e2 b0 3b fa 20 2d 3c
       0.0030520973 0.0017828492 0.005398133 0.010566944
000080 06 8e 5d 3b 35 2b 27 3c e1 78 5b 3d 58 c2 79 3c
       0.0033806576 0.010203172 0.053582076 0.015244089
000090 08 ee b4 3c a1 b3 a8 3c 0e 1c ad 3b c3 f3 89 3d
       0.022086158 0.020593466 0.0052828854 0.06735947
0000a0 39 fa 3b 3b ad 6a b2 3a fa 87 89 3b 00 31 1a 3d
       0.002868308 0.0013612114 0.004197118 0.037644386
0000b0 2c 43 4c 3b 8b 01 a3 3c 8b e4 e9 3b e5 cf 85 3d
       0.0031167967 0.019898197 0.00713784 0.06533793
0000c0 93 32 07 3b 98 1e b7 3c 5d 47 9f 3b c5 1a 27 3c
       0.002062951 0.022353455 0.004860802 0.010199253
0000d0 2b 2e 95 3c 50 ea b3 3c 78 0d e4 3a e1 e9 cd 3c
       0.018210491 0.021962315 0.0017399034 0.025135936
0000e0 05 52 e1 3a af 24 48 3d 61 ed 23 3d 30 3d 8c 3b
       0.0017190581 0.04886311 0.040021304 0.004279755
0000f0 85 70 c5 3c 1b 10 09 3c ee 3a f3 3b 78 d9 ae 3a
       0.024101505 0.008365656 0.0074227965 0.0013339957

body.block1.conv.weight f4 [64, 64, 3, 3]
000000 09 49 36 bd b0 95 00 bd 0e 1e ca 3d 62 68 4f 3c
       -0.044503246 -0.031392753 0.09869014 0.012659164
000010 06 9a b7 bc d3 cd 69 3d e8 0f 61 3d ad db 8b 3d
       -0.022412311 0.057081055 0.05494681 0.06829009
000020 48 f7 bd 3c 82 14 c6 3b 99 79 9f 3a 00 f2 27 3d
       0.023189202 0.006044925 0.0012166976 0.041002274
000030 19 69 64 bc e3 02 b4 3d 1f 25 cd 3d 9b dd c4 3c
       -0.013941073 0.08789613 0.10016846 0.024031451
000040 7f 21 92 3d a5 c1 5e 3d 3f 5f b1 3c dd ad b5 3c
       0.07135295 0.054383893 0.021651862 0.022177631
000050 67 e2 26 3d 2f 8e 62 3c 95 07 e2 3c c1 56 82 3c
       0.040743258 0.0138278445 0.027591506 0.015910508
000060 d0 90 83 3d 35 2a ab 3c 57 eb 63 3d 94 59 37 3b
       0.06424105 0.02089415 0.05564436 0.0027976977
000070 92 8b 9d 3c b3 13 32 3c 63 a1 be ba 17 74 fd 3c
       0.019231591 0.0108689545 -0.0014543947 0.030939145
000080 2d 90 76 3b 13 be 70 bc 57 92 cc 3c 6c a1 89 bc
       0.0037622557 -0.014693755 0.024972124 -0.016800605
000090 ec 9d 3d bd 4c b7 a9 3b 88 30 7b 3c b0 a6 85 bc
       -0.046293184 0.0051793214 0.015331395 -0.016314834
0000a0 df 6a fb 3c 91 2f a3 3a 56 67 80 bd a7 d4 75 bd
       0.030690609 0.0012450089 -0.0626971 -0.060017254
0000b0 ea 35 e3 bc b7 b9 bc 3b 85 17 0a 3d d5 8a b9 3c
       -0.02773567 0.0057594436 0.033713836 0.022649208
0000c0 d2 d7 eb 3b c0 4b 40 bb 34 38 30 bb 18 6c 31 bd
       0.0071973586 -0.0029342026 -0.0026888968 -0.043315977
0000d0 01 e8 ae bc 67 d0 94 bc aa 9b a6 bc 49 92 a5 bb
       -0.021350862 -0.01816578 -0.020337898 -0.005052839
0000e0 05 a3 82 bd 22 6a 32 bc 6d 69 01 3d 4b dd ae 3a
       -0.0637875 -0.010889562 0.031594682 0.0013341097
0000f0 28 ef 53 bd 38 3a 15 bd 3d e5 a2 bd 46 83 82 bd
       -0.05174175 -0.036432475 -0.0795388 -0.06372695
000100 82 c2 fb bc 15 ab 94 ba 5e 42 2c bc 92 19 92 bc
       -0.030732397 -0.001134249 -0.01051387 -0.017834459
000110 21 da 05 bc 10 d4 b4 bd f8 8b 65 bd 60 a8 cb bc
       -0.008169682 -0.0882951 -0.056041688 -0.02486056
000120 1e 79 35 3c 41 22 24 bb 32 a8 69 3d cb 26 d8 bb
       0.01107624 -0.002504483 0.05704517 -0.0065964214
000130 c1 67 7c bd 83 89 c9 3c 08 1a 90 bc bf 17 b1 bc
       -0.061622385 0.024601704 -0.017590538 -0.021617768
000140 44 1c 69 3c 19 b6 12 3d 82 02 c6 3c 59 de a8 3d
       0.01422793 0.035818193 0.024171118 0.082455344
000150 62 b6 c9 3c 7d 11 72 bc 0a 43 97 3c c6 b9 9d bd
       0.0246231 -0.014774677 0.018464584 -0.07701449
000160 e7 46 4a bd 79 93 b1 3c 80 7c 09 3d d0 ee 17 3d
       -0.049384024 0.021676766 0.033565998 0.037092984
000170 d6 d3 7b 3c 28 35 5c bd 89 02 4b bd 1c 1f 8d bd
       0.01537033 -0.05376163 -0.049562965 -0.06890699
000180 bc d3 e5 bd c3 58 97 bd 3c 0c f6 bc b0 49 3f bd
       -0.11222026 -0.07389977 -0.03003513 -0.046701133
000190 d0 56 83 bc e0 ed 0e 3c 2e 35 99 bb 5d b3 56 bd
       -0.016032606 0.008723706 -0.004675529 -0.052417148
0001a0 83 d4 37 bd 0b ff 0d bd 2b 0c 1e bd a5 a1 2f 3d
       -0.0448804 -0.034667056 -0.038585823 0.042878766
0001b0 b7 b9 66 bc 6e dc 77 3c b4 21 08 bd eb 3e e1 3c
       -0.014082364 0.015128238 -0.033235267 0.027495822
0001c0 12 03 4f 3d dc ab 13 3d 40 91 0a 3c aa 24 bd 3c
       0.050540037 0.03605257 0.008457482 0.023088772
0001d0 71 31 36 3c e6 b4 c3 bb b4 c8 48 3c f7 f3 27 3d
       0.011120186 -0.0059724925 0.012254883 0.041004147
0001e0 48 fe fa bc fd a3 b9 bb 6d 65 98 3b 81 8f 82 bd
       -0.030638829 -0.005665301 0.004650763 -0.063750274
0001f0 d1 8e 35 3d 2b 3f 91 bc ce c6 11 bc 80 5f 50 bc
       0.044325653 -0.017730316 -0.008897496 -0.0127180815
000200 da 9a 3e bd 8d 55 9c bd 8c 2e 0b bd de 85 9a bc
       -0.046534397 -0.07633505 -0.033979937 -0.018862661
000210 55 6b 91 bd 9b 96 92 bd d0 01 9b bd c1 ba 00 3d
       -0.0710055 -0.07157632 -0.07568705 0.031428102
000220 66 22 ca bc 2b 39 23 bd 4a 7d bd 3b 2a aa b0 3b
       -0.024674606 -0.03984944 0.005782758 0.005391379
000230 ba 44 2b 3d 64 b0 4b 3b bc 01 09 3c b6 ee 8a 3d
       0.04181359 0.0031080479 0.00836223 0.06783812
000240 a2 2d be 3c 43 80 50 3d 1c 69 8b 3d 1a 1e 36 3d
       0.023215119 0.05090357 0.068071574 0.0444623
000250 30 0b a2 3d 5c b2 4c 3d 56 97 6a bd fe 0b 2f 3d
       0.0791229 0.049974784 -0.05727323 0.042736046
000260 5b cf 2a bc 09 a0 88 3c a4 76 1a bc 0d f6 45 bd
       -0.010425414 0.016677873 -0.0094277 -0.048330355
000270 8c e8 d1 bc 76 2a d5 bc 59 f4 78 bc f0 a5 43 bc
       -0.025623582 -0.026021224 -0.015194976 -0.011941418
000280 db c4 99 bc 64 8b 08 bd 08 ba ba bc 11 8e 08 3c
       -0.018770626 -0.03333606 -0.022793785 0.0083346525
000290 eb ee f1 3c 0c 5d 87 bb 98 c2 f0 3c 0b 24 9d 3c
       0.02953287 -0.004130965 0.029389665 0.019182226
0002a0 90 0e a1 3d 23 1e 50 3c 27 0b 2e 3d 50 57 39 3d
       0.07864106 0.012702498 0.042491104 0.045249283
0002b0 a4 91 b7 3c 10 47 1b 3d 91 6a 2c 3b 2f c7 3e bd
       0.022408314 0.037909567 0.0026308636 -0.046576675
0002c0 26 0f 68 bc 30 9b 80 bd a5 91 92 bd 7b a9 fe bc
       -0.014163768 -0.062796 -0.07156686 -0.031086674
0002d0 37 4c d6 3c 2a ba 11 bc b8 1f 9e bb c6 b1 83 3c
       0.026159389 -0.008894483 -0.0048255585 0.01607598
0002e0 ae 91 45 3c 33 7f 74 bd 83 e4 75 bb 9e e8 85 3b
       0.0120586585 -0.05969162 -0.0037520237 0.004086568
0002f0 c3 f7 00 bc 4a 59 1c bb e4 a6 79 3c 20 a9 93 3c
       -0.007871571 -0.0023856931 0.015237544 0.018024981
000300 ea dd 8e bc a3 51 44 3c 3b e4 cf bc 6a 87 56 bd
       -0.017439801 0.011982354 -0.025377383 -0.052375235
000310 ed 4f 43 bd 49 85 88 bc 1c 88 d2 bc dc 66 a8 3c
       -0.047683645 -0.016665118 -0.025699668 0.02055686
000320 b3 b8 c3 3c 92 e3 02 bc 51 1a 06 3d 15 2d 65 3c
       0.023891782 -0.007988827 0.03273994 0.013987799
000330 b6 e3 1a bd 63 ed 00 3c 5c a7 54 bd 9f 6e db bd
       -0.03781482 0.007869097 -0.05191742 -0.10714459
000340 2f 40 0d bd 47 09 36 3c 08 32 d0 bd 55 3b 30 bd
       -0.03448504 0.01111061 -0.10165793 -0.043025333
000350 df 5d a3 bc 7d c3 ee 3d 8e 7d 47 3d 7a bc 22 bd
       -0.019942222 0.1165838 0.048703723 -0.039730527
000360 9c f0 4a 3d 32 ef 68 3d 95 67 92 3d 8f 9c 16 3d
       0.04954587 0.05686874 0.07148663 0.0367704
000370 2c 87 39 bc 05 ab e8 3c 2c 01 ed bc 8f 89 aa bc
       -0.011323731 0.028401861 -0.028931223 -0.020817546
000380 70 c6 0c bc ab fc 4f bc e4 16 b2 3b ba cb 18 3d
       -0.008592233 -0.012694518 0.0054348577 0.037303664
000390 9d 95 4c bd f8 a3 61 ba 3f 24 7f 3b a4 ab 72 bd
       -0.04994737 -0.0008607502 0.0038931516 -0.05924572
0003a0 e1 01 19 bd 28 7d 6c bb 9f 38 8f bd d4 55 a7 bd
       -0.037355307 -0.003608534 -0.069932215 -0.08170667
0003b0 d7 2d c1 bd 05 14 bf bd 4f 20 00 bd ee d1 d6 bb
       -0.094325714 -0.0932999 -0.031280812 -0.0065557873
0003c0 6e 4d b4 bd 30 8f 78 3c 95 a6 c2 bc fc 30 18 3c
       -0.08803831 0.015170857 -0.023761073 0.009289023
0003d0 b0 9f 04 3d 7e b2 94 3c 39 52 07 bd df 13 2f 3c
       0.032378852 0.018151518 -0.033037398 0.01068589
0003e0 2b 72 ea 3b c8 ba 23 3d 57 1f 86 bc 47 a4 73 3b
       0.007154723 0.03997305 -0.016372366 0.0037176774
0003f0 bf a6 4c bd 4a 4e 4c bd 55 d7 0a bd a4 7e c6 3c
       -0.04996371 -0.04987935 -0.033896763 0.024230309

body.block1.conv.bias f4 [64]
000000 e1 d9 aa bc 11 b5 36 3d 56 b4 86 bc ad d4 1e 3d
       -0.020855846 0.044606272 -0.016443413 0.038777042
000010 6b 8f 2e bd 68 cb 2d bd ba 01 00 3b e1 e7 c2 3c
       -0.042617243 -0.04243031 0.001953228 0.02379221
000020 51 44 f1 bc 88 0f 25 3d 3d 8a bc bc 44 cd 31 bc
       -0.029451521 0.040298015 -0.023015136 -0.010852162
000030 35 9c 87 3c a1 26 90 bc 81 83 17 3d 55 59 9b bc
       0.016553978 -0.017596545 0.036990646 -0.018963495
000040 61 38 c8 bc af 3c 0d bd e3 7a fa 3c a2 5e e0 bb
       -0.024440946 -0.0344817 0.030576175 -0.0068472186
000050 ab 55 2d 3d 89 6a 31 3d be 04 6d 3c ef ad f3 3c
       0.042318027 0.04331449 0.014466463 0.029746024
000060 76 33 33 3c 5b bf 6b bc 9b a8 d2 bc dd cb c1 bb
       0.010937562 -0.014388884 -0.025715163 -0.005914195
000070 e9 72 23 3d c1 60 e2 3c 26 3c 40 bb 11 8f 2e bc
       0.03990451 0.027634026 -0.0029332726 -0.010654227
000080 4e 53 db bc 9f c3 77 bc 1f 6b 47 bc 7d c6 ce 3c
       -0.026773121 -0.015122323 -0.012171536 0.025241131
000090 b7 ba d4 bb ce 99 be bc 6c 57 2f 3c 7e bb d1 3a
       -0.0064919847 -0.0232667 0.010701995 0.0016001312
0000a0 42 f6 fe ba 00 12 d5 bc 2c b2 e0 bb a1 03 dc bc
       -0.0019452053 -0.02600956 -0.0068571772 -0.0268572
0000b0 08 56 cc bc 3a 4f dd bb f2 93 75 bc 1b 2e c0 3c
       -0.024943367 -0.0067538293 -0.014988886 0.023459485
0000c0 08 a6 f4 bc 96 54 ef 3c e7 33 2b bd b3 d5 0a 3d
       -0.029864326 0.029215138 -0.041797545 0.033895206
0000d0 de b8 cb 3b 4e ae 98 3c 77 7b 0a 3d 64 4f d9 bc
       0.0062171062 0.018637802 0.03380915 -0.026527114
0000e0 31 4a 79 bd 95 08 84 bc bb 96 31 3c c1 b6 b2 b9
       -0.06086177 -0.016117373 0.01083916 -0.00034086968
0000f0 50 8f d9 b8 63 12 44 3c 31 35 1f 3d 84 64 44 3b
       -0.000103740604 0.011967274 0.038869087 0.0029967139

body.block1.norm.weight f4 [64]
000000 37 42 70 3f 91 59 63 3f 14 e5 6d 3f 77 09 7b 3f
       0.93851036 0.8880854 0.9292767 0.9806132
000010 a7 bf 74 3f d4 b1 64 3f ab b6 7d 3f 4e 46 7c 3f
       0.9560494 0.89333844 0.99106854 0.98544776
000020 c8 97 7c 3f c7 6e 65 3f e2 56 6e 3f e1 57 7e 3f
       0.986691 0.8962216 0.9310132 0.9935284
000030 f1 19 80 3f 4b 32 71 3f f1 42 72 3f 6e c1 6a 3f
       1.0007917 0.94217366 0.94633394 0.917014
000040 b4 46 6d 3f 89 53 7f 3f f6 01 80 3f 34 36 80 3f
       0.9268601 0.9973684 1.0000598 1.0016541
000050 63 ef 7b 3f e9 b1 6b 3f 6f 7b 6d 3f 0d 39 80 3f
       0.9841215 0.92068344 0.9276647 1.001741
000060 9d 2a 84 3f 81 36 79 3f f3 04 73 3f 77 9d 7f 3f
       1.0325505 0.9734879 0.94929427 0.9984965
000070 4e 9d 75 3f 3d 68 86 3f e3 ca 80 3f 77 4a 76 3f
       0.9594315 1.0500561 1.0061916 0.96207374
000080 80 6f 75 3f 9e d5 86 3f b6 29 85 3f 74 e1 77 3f
       0.9587326 1.0533941 1.0403354 0.9682839
000090 b1 a8 76 3f aa af 74 3f 7f 5b 7e 3f 61 0c 76 3f
       0.9635115 0.9558054 0.9935836 0.9611264
0000a0 5c 24 75 3f 7d 25 70 3f 65 45 57 3f a2 6a 88 3f
       0.95758605 0.938072 0.8409026 1.0657542
0000b0 04 5f 7e 3f f5 95 79 3f 13 1e 7e 3f 86 2a 70 3f
       0.9936373 0.9749444 0.9926464 0.93814886
0000c0 fb f6 6b 3f 43 fb 7b 3f 70 d0 7c 3f 4e 23 83 3f
       0.9217374 0.9843027 0.9875555 1.0245149
0000d0 23 a6 78 3f 57 c8 86 3f 64 92 6e 3f 36 1b 68 3f
       0.97128505 1.0529889 0.93192124 0.9066652
0000e0 2d 3e 85 3f a7 87 72 3f 5f 45 73 3f 6a ce 80 3f
       1.04096 0.9473824 0.95027727 1.0062993
0000f0 35 45 74 3f 25 2f 84 3f 31 2c 81 3f d4 c2 71 3f
       0.954181 1.0326887 1.0091611 0.9443791

body.block1.norm.bias f4 [64]
000000 b1 38 9c 3e 8b 69 bf 3e 7b 62 0d 3f 0c c2 2c 3e
       0.30512002 0.3738521 0.55228394 0.16870898
000010 68 76 f3 3d 04 21 35 3e 25 9e e9 3e 9e b0 51 3e
       0.118878186 0.17688376 0.45628467 0.2047753
000020 5e 3f 90 3e 89 01 f5 3e 97 14 24 3e 53 30 10 3e
       0.28173345 0.47852734 0.1602348 0.14080934
000030 71 f0 9f 3e 92 b7 07 3f 8e 15 bc 3d f4 66 43 3e
       0.3123813 0.5301448 0.09183799 0.19082242
000040 7a 92 e3 3e 35 26 18 3f 98 52 17 3d c2 46 d9 3e
       0.4444769 0.594333 0.036944002 0.42436796
000050 96 79 01 3e 47 b7 a9 3e c3 ed c5 3e 13 ba de 3b
       0.12644038 0.33147642 0.3865796 0.006797084
000060 90 b0 c3 3d 8f 0e c2 3e 40 be 07 3f 37 f2 19 3e
       0.09555161 0.37901732 0.53024673 0.15033804
000070 ce 46 ea 3e b6 77 03 3e e6 d4 8d 3e 50 ca de 3e
       0.45757145 0.12838635 0.2770149 0.43513727
000080 81 1a 01 be f4 6b 82 3e c6 68 97 3e ae a9 a1 3e
       -0.12607767 0.25472987 0.29572123 0.31574768
000090 8f 07 7e 3d aa 37 c2 3d 7d 0f 99 3e 3a 95 ad 3e
       0.062018927 0.09483273 0.2989463 0.33902913
0000a0 62 e0 ae 3e 6e 3a 2f 3e 14 da 60 3e 10 00 c4 3e
       0.34155566 0.17112133 0.2195819 0.38281298
0000b0 a7 29 02 3e 60 80 93 3d a4 d6 48 bd 35 0b 90 3e
       0.12711202 0.0720222 -0.049032822 0.2813355
0000c0 46 5a 53 3e 66 ae a1 3e 9d 26 e7 3e ea 4a e3 3d
       0.20639905 0.31578368 0.45146647 0.11098273
0000d0 bf 7b a7 3e f8 78 85 3e 59 81 34 3e b6 0b 82 3d
       0.32711598 0.26068854 0.17627467 0.0634989
0000e0 b7 38 a8 3d 44 2d 36 3e 64 11 4e 3e 1e 83 13 3e
       0.082139425 0.17790705 0.20123821 0.14405486
0000f0 a4 f3 19 3e 4c f1 ba 3e 7e 46 2f 3d 08 ca 98 3c
       0.15034348 0.3651222 0.042791836 0.018651024

body.block1.norm.running_mean f4 [64]
000000 f9 c2 79 bf 26 b7 9e bf 14 94 28 c0 ea a2 44 bf
       -0.9756313 -1.2399642 -2.634038 -0.7681109
000010 b2 00 82 bf f9 8d 3a c0 3b 8c 13 c0 36 dd 99 bf
       -1.0156462 -2.9149153 -2.305434 -1.2020633
000020 ba cf bc 3f 96 f8 18 c0 62 64 ff be af 32 d3 bf
       1.4750893 -2.3901725 -0.49881274 -1.6499842
000030 62 74 0b c0 3a f7 8f bf 8e d1 8e be a7 40 0b 40
       -2.1789784 -1.1247323 -0.27894253 2.175821
000040 c2 de 94 bf f5 79 8d c0 0f e8 a9 bf fc dc f8 bf
       -1.163048 -4.4211373 -1.3273944 -1.9442439
000050 a2 39 da bf 39 eb 56 bf 7a 32 f4 be 59 34 f0 be
       -1.7048838 -0.8395267 -0.4769476 -0.46914938
000060 28 41 a8 3e 9e 60 4a 3f 24 12 a5 bf 96 67 a6 be
       0.3286221 0.79053676 -1.2896161 -0.32500905
000070 b0 7a 59 bf 22 3b ff 3f df c2 13 bf 00 6f 06 40
       -0.8495283 1.9939921 -0.57719225 2.100525
000080 38 ca 1b 3f f0 21 d0 bf cf e3 2c 3f 8e 25 31 3f
       0.60855436 -1.6260357 0.6753511 0.6919793
000090 98 74 68 bf ab b6 f6 bf 71 a6 56 3d 4f 19 65 3e
       -0.9080291 -1.9274496 0.052404825 0.22372936
0000a0 d7 14 87 bf c0 c0 8f bf 89 0e 02 c0 0e 74 95 40
       -1.0553235 -1.1230698 -2.0321372 4.670417
0000b0 92 a7 7a c0 8e 3b 8f bf cc 39 76 3f ba 9e 71 c0
       -3.9164777 -1.119005 0.9618194 -3.775313
0000c0 3f 06 68 bf 66 a7 5b 3f fe b8 1c be 9a ad 5e 3e
       -0.9063453 0.85802305 -0.15304944 0.21745911
0000d0 6a ba a1 be 4d 29 22 c0 12 e6 6e bf ce 5c 23 bf
       -0.31587535 -2.5337708 -0.9331981 -0.63813484
0000e0 c0 0d a7 40 be 27 51 be e0 56 ba bf 9d e9 1e c0
       5.2204285 -0.20425317 -1.4557762 -2.4830086
0000f0 cc e7 1f c0 c4 eb 35 c0 2a 74 d3 bf ea 15 fe bf
       -2.4985228 -2.842515 -1.6519825 -1.9850438

body.block1.norm.running_var f4 [64]
000000 a4 c7 ed 3e 77 af 0c 3f 59 b3 8f 3f 7c 9a 3e 40
       0.46441376 0.5495524 1.1226608 2.978179
000010 bc 24 af 3f b5 d6 af 3f 24 a5 67 3f 74 06 83 3f
       1.3683085 1.3737398 0.9048636 1.0236344
000020 51 d3 72 3f 9a 80 98 3f d4 b0 ac 3f d3 e0 69 3f
       0.94853693 1.1914246 1.3491464 0.9135868
000030 5c 82 2a 3f bf d4 6d 3f f9 10 29 3f b4 e2 36 3f
       0.6660516 0.9290275 0.66041523 0.7143967
000040 6e 92 2e 3f b6 4d f9 3f 3f 54 2b 40 f3 c8 8b 3f
       0.68192184 1.947684 2.677017 1.09207
000050 11 e3 9a 3f 88 0c 72 3f 35 4f 7c 3f d2 bb b7 3f
       1.2100545 0.9455037 0.9855836 1.4354193
000060 94 50 ee 3f 62 64 4f 3f 21 60 83 3f 68 14 4f 3f
       1.861834 0.81012547 1.0263711 0.8089051
000070 7b 5d 55 3f 2a 47 8e 3f d9 f9 ff 3e a9 54 8d 3f
       0.83345765 1.1115468 0.49995306 1.1041461
000080 4f e9 ad 40 ec f3 68 3f 25 cf 83 3f b6 8b 21 3f
       5.43473 0.90997195 1.029759 0.63103807
000090 d5 50 7b 3f d9 b3 18 40 05 8c 1e 3f 07 05 ea 3e
       0.98170215 2.385977 0.619324 0.4570696
0000a0 11 3a 8b 3f d4 4a 52 3f 45 8a e9 3e 40 65 fe 3f
       1.0877095 0.8214543 0.45613304 1.9874649
0000b0 98 65 12 40 20 fb f2 3e 6a ea 50 3f cc 18 93 3f
       2.2874508 0.47457218 0.8160769 1.1491942
0000c0 b1 3b 03 3f 89 1f 0a 3f 4d 15 27 3f 29 c0 5e 3f
       0.51262957 0.5395437 0.6526688 0.87011963
0000d0 c8 3b e7 3f 2e eb 35 3f 96 6e aa 3f 06 87 a9 3e
       1.8065119 0.7106198 1.3314998 0.33110827
0000e0 0c 26 15 40 55 d9 66 3f 9e bd 60 3f a1 6d 3e 40
       2.3304472 0.9017537 0.8778933 2.9754412
0000f0 9c 3c 47 3f 85 f0 06 40 a5 26 3d 3f 74 2c 85 40
       0.7782686 2.1084301 0.7388709 4.1616764

body.block2.conv.weight f4 [64, 64, 3, 3]
000000 78 11 18 bc 93 54 e6 3b 27 64 8f 3c bc 6f c1 3b
       -0.009281509 0.007029125 0.017503811 0.0059032124
000010 62 a7 23 3d 30 44 90 3d 93 ae 90 bd 6c 34 23 bd
       0.03995455 0.07044256 -0.070645474 -0.039844915
000020 e7 79 00 bd 1b a2 08 bd c2 0f 85 3c 17 07 3c bd
       -0.031366255 -0.03335772 0.016242865 -0.0459052
000030 fb 87 2c bc 42 83 65 bc 01 be cd 3b 3f dd a7 3b
       -0.010530467 -0.014008345 0.0062787537 0.00512281
000040 bd 2a 44 bc fa 0e b3 bb 08 d9 98 bd 70 ea f6 3b
       -0.01197308 -0.005464432 -0.074632704 0.0075352713
000050 1c 0c 02 bd 7f c6 ac 38 0a 12 08 3d 93 36 32 3b
       -0.03174983 8.238572e-05 0.03322033 0.0027193173
000060 b5 75 91 3b 23 0f af bc 65 07 9c bd 55 68 ff 3b
       0.0044390806 -0.021369522 -0.07618598 0.00779442
000070 7e d1 01 3d 8f b4 6a 3d 15 e6 30 ba 96 f9 83 3c
       0.031693928 0.0573011 -0.0006748152 0.016110223
000080 f5 8e e6 bc 85 8f df bc a4 9f 33 bd f9 16 74 bd
       -0.02814434 -0.027290115 -0.043853417 -0.05959222
000090 66 2e bc 3b bf 8b 49 3c 8d 34 90 bc 7f be 60 bc
       0.005742836 0.0123013845 -0.017603183 -0.013717293
0000a0 e2 87 e1 3c 43 ff b4 bc ec cb 89 bb 1d 51 27 3c
       0.027530614 -0.022094375 -0.0042052176 0.01021221
0000b0 00 d0 83 3c 32 e5 b3 bc 04 14 8c 3c a0 02 33 3b
       0.016090393 -0.021959875 0.017099388 0.0027314797
0000c0 7a e9 d5 3c aa 20 cd bc d3 bf e6 bb f3 aa 58 bb
       0.026112307 -0.02503999 -0.00704191 -0.0033060878
0000d0 05 c5 9b 3d 04 44 b1 3d d9 95 98 bd 98 9f 0d bc
       0.07605938 0.08655551 -0.07450456 -0.008644007
0000e0 97 9a 0f bd 08 01 f0 bc 13 53 18 3d 8a 22 5c 3d
       -0.035059538 -0.029297367 0.0371886 0.053743877
0000f0 8e 19 8b bc fc dd 61 3c ed 01 73 3d 70 6e a5 bc
       -0.016979959 0.013785835 0.05932801 -0.020194262
000100 2a da 25 3d 91 57 54 bc 1c 5e 27 3c 2d f0 20 3b
       0.04049126 -0.012960331 0.0102153085 0.0024557218
000110 74 b5 ae bb 61 18 75 3d dd a0 ba 3c 29 35 0c 3c
       -0.0053316895 0.059837703 0.022781784 0.008557596
000120 2b 3b 29 3d 5b ba 51 bc dc 99 d6 bd 84 e1 7b 3c
       0.041316193 -0.012800778 -0.10478565 0.015373591
000130 b3 47 05 3d a3 85 4a bc ef f6 3e 3d 8d b3 85 3d
       0.03253908 -0.012360963 0.046622213 0.06528387
000140 df b6 e1 bc e3 39 8d bd 42 5e ab 3a bb 4c 26 bc
       -0.02755302 -0.06895807 0.0013074356 -0.01015013
000150 ea 9a ec bc 55 dd 09 bd 38 e5 a1 bd b6 93 82 3d
       -0.028882463 -0.033658344 -0.07905048 0.0637583
000160 b7 fb bd 3b cd b5 71 3b b0 ce 1e bd 05 62 a2 3c
       0.005797829 0.0036882043 -0.03877133 0.01982213
000170 6b c0 85 bc 02 8e 14 3d 98 2d 05 bd 1d ed a4 3b
       -0.016327104 0.03626824 -0.032514185 0.005033149
000180 47 0e 52 3c e7 db 94 3d 0b 19 bc 3d 6d cf 18 3c
       0.012820787 0.072685055 0.09184464 0.009326798
000190 35 5d 4d 3d 64 44 26 3d a7 09 6c 3c dd b3 2b 3c
       0.050137717 0.040592566 0.014406598 0.0104798945
0001a0 d5 1c 1a bb eb b2 d4 bb 77 f0 04 bd 36 fa e9 3c
       -0.002351572 -0.0064910552 -0.032455888 0.028561693
0001b0 ef ff 81 bd 3c 2f 18 bd ab ed 3b bd f8 61 40 bd
       -0.063476436 -0.03715442 -0.045880955 -0.04696843
0001c0 72 48 16 bd 8f 46 39 bd 89 cf 2e 3d 54 7c 70 3d
       -0.036690183 -0.045233306 0.04267839 0.05871232
0001d0 47 76 d8 3d c8 41 3e bd e1 98 06 3d 35 68 15 3d
       0.105694346 -0.046449453 0.03286064 0.036476333
0001e0 e6 77 3a 3d 91 c7 4a 3d 95 bc 6b 3c 11 d3 33 3d
       0.0455245 0.049506728 0.014388223 0.04390246
0001f0 ae 45 14 bd 2a b8 d1 bd e6 60 7e 3d ce e3 80 3d
       -0.036199264 -0.10240205 0.06210413 0.0629345
000200 7f 79 9c bb af 75 2a 3d 00 fe a2 3c c9 9d d8 39
       -0.0047752257 0.041616138 0.019896507 0.0004131629
000210 f9 b1 3c 3c d8 87 47 3d 79 c2 82 3c a0 12 8a bc
       0.011517041 0.048713535 0.015961872 -0.016854584
000220 df 19 3a bb 3b 4d ce bb 36 5a e6 3c 93 3a 1a 3c
       -0.0028396768 -0.0062958277 0.028119188 0.009413379
000230 1e 82 81 bd 66 14 b9 3c 8e 80 04 bd 6d 8d a2 bd
       -0.06323646 0.022592735 -0.03234916 -0.07937131
000240 80 4f a0 bc 10 90 2c 3c 48 38 03 3d 1b fa 9b 3c
       -0.019569159 0.010532394 0.032036096 0.019040158
000250 7d b4 d3 bb e9 a0 1d 3d 6f bc 12 3d d4 3a ef 3b
       -0.006460725 0.038483534 0.035824236 0.007300714
000260 34 85 9d 3d 9e 9e 33 bd 40 53 2f bd 77 cd 50 bc
       0.07691422 -0.04385244 -0.042804003 -0.012744299
000270 9a f7 7d bd 3c 9c 2b bc 60 94 d6 3c d9 d9 e6 3b
       -0.06200371 -0.010474261 0.026193798 0.0070450124
000280 ca db 87 3d 60 54 dd 3d 38 e0 d3 3c 87 ce 25 3d
       0.06633718 0.10807109 0.025863752 0.040480163
000290 cc d5 99 3d 67 02 b9 bc c0 7b 4e 3d bf bb 04 3d
       0.07511482 -0.022584153 0.050410986 0.03240561
0002a0 a9 d2 9d 3c bc 63 3b 3d d7 23 75 3d 10 bf 9a 3c
       0.01926549 0.04574941 0.059848633 0.018889934
0002b0 10 6a 62 3c e6 c1 53 bd 39 19 65 3d f0 cc 9e 3d
       0.013819233 -0.051698588 0.055932257 0.077539325
0002c0 ea bd b5 3d 6f b7 a6 3d 28 52 78 3d 92 2a 08 3e
       0.08874114 0.08140456 0.060625225 0.1329749
0002d0 e6 b7 91 bd d2 db 15 bb 44 b6 d9 bc d4 f9 ee 3b
       -0.07115154 -0.0022866619 -0.026576169 0.0072929654
0002e0 98 87 0d bb 1d bc cd 3c 67 e1 12 3d fa 06 f1 3c
       -0.0021595713 0.025114113 0.03585949 0.029422272
0002f0 81 63 a9 3b 4c ff cc 3a 08 0f ee 3c 4d 73 8c 3a
       0.0051693325 0.0015640049 0.029059902 0.0010715515
000300 25 9f b7 3b 9d 68 f9 3b ae a2 5d bd ef 60 bc bc
       0.0056036883 0.007611348 -0.05411022 -0.02299544
000310 a0 a5 d3 3c f5 8b 8d bd 87 2b 21 3d 04 cb 9b 3d
       0.025835812 -0.0691146 0.03934815 0.076070815
000320 e6 2f f5 3c da 82 4a 3d ee 6a 87 3c 63 a6 80 3c
       0.029930066 0.049441196 0.01653048 0.01570434
000330 0b e6 b6 bb 6d cc 06 3d 64 23 c2 bc 68 bd 52 3d
       -0.0055816225 0.0329098 -0.023698516 0.051450163
000340 1b 5a 15 bb 0f 70 f8 bc bc 83 c8 3b ef 6a 06 3d
       -0.0022789303 -0.030326871 0.0061192196 0.032816824
000350 97 85 8c 3d ca d1 80 bc b9 81 c5 bc c6 13 38 bd
       0.06861418 -0.015725035 -0.024109708 -0.044940732
000360 44 28 7c bd 61 6c e6 bb b2 31 9b bb c9 0e 94 3c
       -0.061561838 -0.0070319627 -0.0047361488 0.018073456
000370 6f e6 02 3d c5 75 03 bd 2b b4 70 3d ed f5 9a 3c
       0.03195804 -0.032094736 0.05876557 0.018916095
000380 c0 91 09 3d d9 65 8f 3c b4 c1 fd 3c d7 ed a8 3c
       0.033586264 0.01750462 0.030976154 0.020621223
000390 4f 4e 1e 3c f5 40 10 bc 50 3f f7 3c 8b f5 4d 3d
       0.009662225 -0.008804549 0.030181557 0.050282996
0003a0 5a a9 e7 3c 19 88 f2 3c 35 5a cb 3b 14 f5 ba bb
       0.028278995 0.029605912 0.006205822 -0.005705485
0003b0 07 88 34 3d cd 72 1e bc 4e 61 47 3d 00 50 8d 3c
       0.04407504 -0.009670925 0.04867678 0.017250061
0003c0 0d 82 6b 3c 86 99 47 3c 8e ba e8 3b da cf 0a bd
       0.014374268 0.012182599 0.007102317 -0.03388963
0003d0 80 85 18 3d ea b5 af 3d dc 26 d8 3c 1f 89 4a 3c
       0.03723669 0.08579619 0.026385717 0.012361794
0003e0 09 93 a4 bd bb 8c 8e 3c b8 b5 9b bc 89 db d5 bc
       -0.08035857 0.01740109 -0.019007549 -0.02610566
0003f0 05 eb 12 bb 66 7f 4d bd 3e 85 07 be 01 e1 05 bd
       -0.0022417915 -0.050170325 -0.13234422 -0.032685284

body.block2.conv.bias f4 [64]
000000 71 ed 3a bd d8 0e fc 3c 04 02 24 bc 69 69 08 3c
       -0.045636598 0.030768797 -0.010010246 0.008325913
000010 1b 69 f5 3b 71 95 da 3b 5f 3d b4 bb 28 50 f9 bc
       0.007489336 0.006670647 -0.00550048 -0.03043373
000020 02 67 8b 3c 2f 4f 9f bb a2 82 9a 3c 3d 4c d8 bc
       0.017016891 -0.0048617343 0.018861119 -0.02640354
000030 af f3 84 3b b7 ac d7 3c a3 35 20 bb 4d dd 8d bc
       0.0040573697 0.026327474 -0.0024446032 -0.017317438
000040 80 21 9f 3c 67 63 20 3d e0 1b b5 bc 6e f6 1b bd
       0.019425154 0.039157297 -0.022108018 -0.03807681
000050 8d be 57 3b 3c 1e 04 bd 3a 74 13 3c e1 22 f7 bc
       0.0032919974 -0.032255396 0.008999879 -0.030167999
000060 16 d2 87 ba 37 78 f9 b9 8f 22 01 bd 71 3d ad 3c
       -0.0010362293 -0.00047582548 -0.0315271 0.021147462
000070 85 cc 99 bc 2c a5 70 bc 14 10 84 3c de 64 0d bb
       -0.01877428 -0.014687818 0.016120948 -0.0021575014
000080 91 01 f8 3c 09 96 28 3d 48 51 64 bc 45 47 1b bd
       0.030274184 0.04115871 -0.013935395 -0.037909765
000090 62 86 49 bc ee 0f de bb 1e 86 2f 3b da 9e d0 bc
       -0.012300106 -0.0067768013 0.002678282 -0.025466371
0000a0 5f 1f 2a 3d cd 26 56 3c 94 83 9c 3c ba 00 c4 bc
       0.041533824 0.013070774 0.01910571 -0.023926128
0000b0 cf 47 15 3d 92 fb 30 bd 25 6b 1c 3d 5e 2e f0 3c
       0.036445435 -0.043208666 0.03818812 0.029318985
0000c0 6d b3 69 bc ce 18 81 3c cf d4 9e 3c 10 8c c7 3c
       -0.01426397 0.015758898 0.019388584 0.02435878
0000d0 fa eb 0f 3d 9d b7 38 bd d2 31 cb bc 3d d9 3a bc
       0.035137154 -0.045096982 -0.02480403 -0.011404333
0000e0 dc b0 a8 3c c0 b9 0f 3d 19 cc 16 bd ac cc f9 bb
       0.020592146 0.035089254 -0.036815736 -0.0076232757
0000f0 bf 02 d2 bc 44 12 a8 3c 5d 76 45 bc 42 38 08 3b
       -0.025636075 0.020516522 -0.012052146 0.0020785485

body.block2.norm.weight f4 [64]
000000 c1 30 84 3f 2d 06 69 3f b1 0f 64 3f 99 cc 77 3f
       1.0327379 0.9102505 0.89086443 0.96796566
000010 96 93 7b 3f 17 8a 82 3f 80 6a 81 3f 5c b4 77 3f
       0.98272073 1.0198392 1.0110626 0.9675958
000020 c8 94 6a 3f 29 57 72 3f 95 2b 89 3f fd 03 7d 3f
       0.9163327 0.94664246 1.0716425 0.9883421
000030 8f a3 7f 3f 91 07 81 3f 1e 9d 84 3f 31 b8 7e 3f
       0.99858946 1.0080434 1.0360448 0.99499804
000040 b2 be 7d 3f 2c de 87 3f 46 4f 7d 3f 26 10 78 3f
       0.991191 1.0614676 0.98949087 0.9689964
000050 73 13 67 3f cf 23 72 3f 73 0a 6e 3f e8 25 76 3f
       0.9026405 0.9458589 0.92984694 0.9615159
000060 4f ff 78 3f cb 0d 6f 3f 45 90 81 3f 30 09 6f 3f
       0.9726457 0.9338042 1.0122153 0.93373394
000070 57 f1 80 3f e5 9c 76 3f dd 17 79 3f a9 fe 7a 3f
       1.0073651 0.9633315 0.9730204 0.9804483
000080 79 8a 85 3f 21 19 6b 3f ac fe 84 3f a8 90 7b 3f
       1.0432884 0.9183522 1.039022 0.982676
000090 c3 13 81 3f 7e 2b 73 3f 14 59 78 3f 5f 16 80 3f
       1.0084156 0.9498824 0.9701092 1.0006827
0000a0 c5 93 77 3f 4f 2f 8c 3f f1 e3 79 3f a6 1e 72 3f
       0.96709853 1.0951937 0.97613436 0.94578016
0000b0 11 39 6e 3f 6b 74 79 3f 82 c8 88 3f 14 4e 8a 3f
       0.93055826 0.97443265 1.068619 1.0805078
0000c0 bc 5e 81 3f 85 de 7a 3f 27 4c 70 3f bb db 73 3f
       1.0107036 0.9799579 0.938662 0.9525716
0000d0 9c 3b 86 3f 05 06 89 3f 9e b1 7a 3f 69 ec 7e 3f
       1.0486941 1.0704962 0.9792727 0.99579483
0000e0 19 0b 79 3f 3a 54 7e 3f 93 8f 74 3f d1 d0 61 3f
       0.9728256 0.9934727 0.95531577 0.88209254
0000f0 e0 b4 80 3f b5 2a 7a 3f c3 27 7c 3f 90 f0 7d 3f
       1.0055199 0.97721416 0.9849817 0.99195194

body.block2.norm.bias f4 [64]
000000 06 6f 58 3e ba 54 5c 3e 8b 1e 9f 3e 20 ad 0b bc
       0.21136102 0.21516696 0.3107799 -0.008525163
000010 c3 5e c9 3d ca b9 9a 3e 5e 74 f8 b9 60 6f 5b 3e
       0.098325275 0.3021987 -0.00047388946 0.21429205
000020 59 81 3f 3e 94 34 af 3c a4 5d 77 3d 47 f7 65 be
       0.18701686 0.021387376 0.060392037 -0.2245761
000030 9f 76 09 3e da 0e 43 bc a8 fa 50 3c e1 71 e9 3d
       0.13424157 -0.011905396 0.012755074 0.11398674
000040 5a d7 80 3e 21 26 0a 3e 2b fe 04 3e 3b 71 4c 3e
       0.251643 0.13491108 0.12987582 0.19965069
000050 49 e5 d8 3e 59 d3 33 3d 1d 48 3c 3e 3e 64 59 3d
       0.4236243 0.04390273 0.18386884 0.053074114
000060 ef 30 f7 3d 4c 11 7e 3e 9d f5 cd 3d dd 05 b5 3e
       0.1206988 0.24811286 0.10056613 0.35356036
000070 d4 0b 21 3e 91 13 01 3f ee 7e ec bc 81 e2 12 3e
       0.15727168 0.5042048 -0.028869119 0.14344217
000080 2f 41 61 3e 86 03 57 3e a1 f3 0f 3e 19 36 71 3e
       0.21997522 0.20997438 0.14057781 0.23555793
000090 b6 46 93 bd bc a0 b2 3d b4 8f 11 be e4 e7 61 3e
       -0.071912214 0.08722064 -0.14214975 0.22061116
0000a0 4d 5a 1d bd a0 1e 43 3d e6 84 86 3e e9 97 3f 3e
       -0.038416196 0.04763663 0.26273268 0.18710293
0000b0 ee 22 e6 3d f8 60 bf 3e 45 aa 55 3e 3a b3 25 3d
       0.11237131 0.3737867 0.20865734 0.040454127
0000c0 63 d3 4b 3e 30 bb b9 3d 40 20 a8 3e fa 71 99 3e
       0.19904856 0.09068906 0.32837105 0.2996977
0000d0 3c 10 04 3e ee 4e 17 3e f1 e5 ba bd a0 d8 ac ba
       0.12896818 0.14776203 -0.09125889 -0.0013187118
0000e0 44 1b 9e 3e 68 a6 90 3d d2 5e 85 3d 29 07 b9 3e
       0.30880177 0.070629895 0.06512226 0.36138275
0000f0 a8 f7 95 3d f6 b4 60 3d 6c 00 13 3e 46 ea bd 3e
       0.07322627 0.054860078 0.1435563 0.370928

body.block2.norm.running_mean f4 [64]
000000 dc 03 f0 3e af a2 18 be c6 dc 9b 3f 08 6f aa bd
       0.46877944 -0.14905809 1.217675 -0.08321959
000010 4e 9f f5 3f cd 7b f8 3f fa e0 c4 3f e1 e8 3c 3e
       1.9189241 1.9412781 1.5381157 0.18448211
000020 ea 39 57 3f 09 77 9f 3f fc 75 c6 3e a0 33 37 c0
       0.84072745 1.2458202 0.3876189 -2.862526
000030 d1 98 47 bf 86 9b 91 be 70 1e 60 bf 62 d4 05 bf
       -0.77967554 -0.28438967 -0.87546444 -0.52277195
000040 3e be 8f be 83 2a 14 bf 04 a4 05 3e e0 9f 01 be
       -0.2807483 -0.5787737 0.13050848 -0.12658644
000050 47 ab 52 bf 88 c2 d1 3f d2 8f 71 bf 5e a6 82 3e
       -0.822926 1.6387491 -0.9436008 0.25517553
000060 3a 9c 5e bf 6c 3d 62 bf ca db be 3f 13 6e ea 3f
       -0.8695713 -0.8837497 1.4910824 1.8314842
000070 a6 b8 07 3f 10 98 bc 3f 92 d7 3a be e3 4b 9b 3e
       0.53016126 1.4733906 -0.18246296 0.30331334
000080 1e d4 7a 3f 78 c6 21 3e e6 6e a3 bf 44 3f de 3f
       0.97979915 0.15798366 -1.2768219 1.7363057
000090 a1 52 89 3f ed b0 f5 3e 88 61 cc 3d c1 ee b7 3e
       1.0728341 0.47986546 0.0997954 0.35924342
0000a0 71 25 15 3d 2a b1 8f 3f 1e 54 c0 3f 0e 9c 2a bf
       0.03641266 1.1225941 1.502567 -0.6664437
0000b0 c3 1f f1 3e 56 f9 da be b4 24 d4 3e 2b 5e 6b bf
       0.47094545 -0.42768353 0.41434252 -0.91940564
0000c0 f8 31 59 bf 96 91 75 3f a5 62 56 3e 58 68 b7 3f
       -0.8484187 0.9592527 0.20936067 1.4328718
0000d0 af a4 3b 3f 7d d3 15 bf fc 31 ff 3e c9 d8 2e be
       0.7329816 -0.5852583 0.49842823 -0.17074884
0000e0 47 a5 98 3f 7a c7 96 be 88 e6 7c 3f 86 22 b1 3f
       1.1925439 -0.29449064 0.9878926 1.3838661
0000f0 0f 25 70 be 7c 70 cb 3e 09 c2 37 3f df 97 7d 3f
       -0.23451637 0.39734256 0.7178045 0.9905986

body.block2.norm.running_var f4 [64]
000000 67 39 1b 3f dc 4a 68 3f 6a e3 21 3f 5d 75 48 3f
       0.60634464 0.90739226 0.6323763 0.7830408
000010 d5 9b 92 3f 32 dc b5 3f 61 d0 ba 3f f6 88 16 3f
       1.1453806 1.4207823 1.4594842 0.58802736
000020 75 35 a1 3f ac 0a 2f 3f 6e 1d 2c 3f 44 4b b3 3f
       1.2594439 0.6837566 0.67232406 1.4007344
000030 ef 11 48 3f f0 2c eb 3e d2 4b 8f 3f 55 6d 0c 3f
       0.78152364 0.45932722 1.1195014 0.5485433
000040 5e 56 c9 3f 69 68 c2 3f 26 72 42 3f e4 10 20 3f
       1.5729482 1.5188113 0.75955427 0.62525773
000050 b3 b5 42 3f 24 53 36 3f 01 33 a9 3f 05 17 35 3f
       0.760585 0.7122061 1.321869 0.7073825
000060 2b f2 1c 3f 2e 86 b1 3f f2 bb 36 3f 98 d1 20 40
       0.6130702 1.3869073 0.7138053 2.5127926
000070 e1 de 7f 3f 99 56 81 3f f0 8d 95 3e 3c 46 4e 3f
       0.9994946 1.0104553 0.29209852 0.8057592
000080 13 a9 50 3f 4c dc f1 3e 1b f7 d0 3f 60 be 98 3f
       0.81507987 0.47238386 1.6325411 1.1933098
000090 a8 14 93 3f bf 6f c9 3e 7d 42 2d 3f e2 e8 90 3f
       1.1490679 0.39343068 0.6767958 1.132107
0000a0 f6 7e 44 3f ad a5 a1 3f cc 93 90 3f e7 ea 34 3f
       0.76756227 1.2628685 1.1295104 0.7067093
0000b0 7f c7 22 3f b6 d1 9e 3f 19 c0 92 3f 25 b2 ca 3f
       0.63585657 1.2407749 1.1464874 1.5835615
0000c0 41 e5 56 3f 22 a0 2f 3f 18 34 15 3f e1 72 89 3f
       0.83943564 0.6860372 0.58282614 1.0738183
0000d0 a1 c9 6b 3f ec ac 6f 3f 28 08 19 3f c1 07 4b 3f
       0.92104536 0.9362323 0.5977807 0.79308707
0000e0 19 62 4f 3f 7a a4 97 3f f9 1f 4a 3f 47 2d 15 3f
       0.8100906 1.1847069 0.78955036 0.5827221
0000f0 96 4a 68 3f 7e e4 d0 3f 02 b4 97 3f 74 ed 48 3f
       0.9073881 1.631973 1.1851809 0.78487325
