trained_models/sinGan/mountains/scale_factor=0.750000,alpha=10/4/netG.pth (torch_old, 466445 bytes, 26 tensors)

head.conv.weight f4 [64, 3, 3, 3]
0.13492665 0.1426812 0.101491995 0.011557059 0.023494022 0.022457415 0.021589905 0.06475453
0.07492101 0.01740053 0.030704973 -0.015887385 -0.0027395587 0.008323533 0.037329607 0.004506518
-0.019384868 -0.055578865 -0.009696658 0.018295683 -0.032821678 -0.0035564594 0.04209907 0.004420063
-0.049630657 -0.041263152 -0.08186051 0.0227565 0.021483483 0.008568008 0.035744283 0.019314278
-0.031316105 0.030264163 -0.002315933 -0.009891335 0.04464449 -0.004623689 -0.009676704 0.079047956
-0.025323495 -0.068501055 0.0802784 -0.026227243 -0.008645984 0.07267526 0.026436755 0.001995465
0.09653837 0.018451475 -0.038079392 0.08913917 -0.006034368 -0.04780313 -0.070742734 -0.084667005
-0.08698633 -0.014737684 -0.047937665 0.018330857 0.013169887 0.021632893 0.008640265 0.007971578
-0.03308279 -0.013874984 0.013620523 -0.023213873 0.05068074 0.013650977 0.07974158 0.09484334
-0.037900195 0.0019207654 -0.014610114 -0.025894545 0.029981392 0.011905901 -0.0027541982 0.04304562
0.034887537 0.11320439 0.009596047 -0.025565894 0.043862563 0.07043392 -0.067297794 -0.05200312
-0.021569574 -0.14877148 0.015839392 0.023293216 0.049523562 0.011606499 0.01986073 0.030396217
-0.04647169 0.0029927553 -0.073320985 0.0045957565 -0.019158425 0.09580472 0.025113018 -0.043019168
0.041714635 -0.06910888 -0.024137007 -0.044342354 0.017294949 0.048442196 0.07033326 -0.036090527
-0.016499225 -0.07123263 0.00062340585 0.08744314 -0.048369523 0.051822457 0.025579363 0.011176829
-0.028132245 -0.046862327 -0.087782525 0.05633797 0.07166128 0.026191784 0.09402878 -0.03175887
-0.0136548495 -0.034116372 -0.050145887 -0.11251005 0.031351294 0.024070766 -0.0061791455 0.029574724
-0.012543048 -0.010801502 -0.05436953 -0.045776736 -0.022133023 0.0045135724 -0.05071672 -0.032045625
0.08172076 -0.03538631 -0.06330144 -0.038303386 -0.013886156 -0.023185335 0.01983117 -0.0449689
0.053528436 -0.026094165 -0.06787773 -0.12296675 -0.023036994 -0.093525186 -0.054857858 -0.008627807
-0.005466612 0.029535621 -0.014451609 -0.054733526 -0.06090457 0.07184392 0.024717757 -0.029628549
0.019746978 0.0013141274 0.103125915 -0.057365183 -0.05446043 -0.08280725 0.0639274 0.023437744
-0.023916855 0.03170005 0.047955416 0.03732927 -0.027727006 -0.030006496 -0.0024133907 0.008249616
0.010497433 0.04333138 -0.01660347 0.023883963 0.024170699 0.0038570897 0.065734275 -0.060691252
0.02953572 0.07167133 -0.031661283 -0.05296758 -0.052674614 -0.0370068 -0.13340823 0.0088892095
-0.09355957 0.009991171 0.012206239 -0.06065382 -0.06974697 -0.0047170604 -0.025043685 -0.03702139
0.025951639 0.0012711135 0.005745995 0.009980788 -0.009545876 -0.016999036 0.022638872 0.059210382
-0.014526248 0.0027634953 0.0028002898 -0.042804938 -0.005487436 0.05445912 -0.01922738 0.015091673
0.05776968 0.05191738 0.011828044 0.02923958 -0.028960388 -0.016685035 0.07133623 -0.017722597
-0.012205342 0.053652413 0.07622545 0.05749949 0.12942085 0.0016715099 -0.010212809 0.054648094
-0.068735406 -0.04757783 -0.067384765 0.014264829 0.05751214 0.07246421 -0.12694092 -0.07447073
0.014280524 -0.024176572 -0.0022720005 0.015920117 0.032776684 0.031573433 -0.0120944185 0.031106263
00000000: 362a 0a3e 051b 123e 09db cf3d d259 3d3c
00000010: 8976 c03c 9df8 b73c 50dd b03c 069e 843d
00000020: 3070 993d 8e8b 8e3c ff88 fb3c 4326 82bc
00000030: 2b8a 33bb 6e5f 083c eee6 183d 6aab 933b
00000040: 04cd 9ebc aaa6 63bd bbde 1ebc d4e0 953c
00000050: 0670 06bd 7d13 69bb 1370 2c3d 2dd6 903b
00000060: 8449 4bbd 8d03 29bd 7ca6 a7bd d76b ba3c
00000070: 21fe af3c d560 0c3c 9968 123d fa38 9e3c
00000080: 5145 00bd 8dec f73c e8c6 17bb 440f 22bc
00000090: 24dd 363d 5182 97bb 0a8b 1ebc e5e3 a13d
000000a0: 3873 cfbc 484a 8cbd 0069 a43d 84da d6bc
000000b0: e3a7 0dbc c4d6 943d e591 d83c 59c6 023b
000000c0: e9b5 c53d 8c27 973c 23f9 1bbd 998e b63d
000000d0: f3bb c5bb 37cd 43bd 91e1 90bd e565 adbd
000000e0: e425 b2bd 5476 71bc 495a 44bd 982a 963c
000000f0: 82c6 573c 7737 b13c e68f 0d3c 399b 023c
00000100: d281 07bd e753 63bc 9d28 5f3c 052b bebc
00000110: 9c96 4f3d 59a8 5f3c 8e4f a33d 3a3d c23d
00000120: 3c3d 1bbd 31c2 fb3a 425f 6fbc cc20 d4bc
00000130: 899b f53c f810 433c c77f 34bb 9b50 303d
00000140: 3ce6 0e3d b4d7 e73d bd38 1d3c 916f d1bc
00000150: 3ba9 333d a93f 903d 6dd3 89bd 3901 55bd
00000160: adb2 b0bc 8d57 18be 9dc1 813c 6ad1 be3c
00000170: 38d9 4a3d 2f29 3e3c f8b2 a23c 7d01 f93c
00000180: 1959 3ebd 1a22 443b 5029 96bd 0098 963b
00000190: 21f2 9cbc 4435 c43d d1b9 cd3c de34 30bd
000001a0: f7dc 2a3d f588 8dbd f9ba c5bc 54a0 35bd
000001b0: 23ae 8d3c 536b 463d e20a 903d a9d3 13bd
000001c0: 6229 87bc 6ae2 91bd 0f6c 233a 6415 b33d
000001d0: 1f1f 46bd c943 543d d08b d13c 051f 373c
000001e0: 9875 e6bc b6f2 3fbd 53c7 b3bd a5c2 663d
000001f0: 26c3 923d 2790 d63c 2992 c03d 9715 02bd
00000200: 97b8 5fbc 9cbd 0bbd c665 4dbd ab6b e6bd
00000210: 376a 003d 0e30 c53c 6e7a cabb b146 f23c
00000220: 5b81 4dbc c8f8 30bc 96b2 5ebd 6380 3bbd
00000230: 5050 b5bc 97e6 933b 56bc 4fbd 4642 03bd
00000240: 375d a73d 3cf1 10bd 2fa4 81bd 03e4 1cbd
00000250: c282 63bc 2cef bdbc fa74 a23c 4f31 38bd
00000260: a240 5b3d 6ec3 d5bc 7b03 8bbd fed5 fbbd
00000270: 14b8 bcbc 228a bfbd a2b2 60bd a55b 0dbc
00000280: 4421 b3bb b0f4 f13c 71c6 6cbc 4330 60bd
00000290: 1277 79bd e822 933d e57c ca3c 92b7 f2bc
000002a0: 6ac4 a13c cc3e ac3a ae33 d33d c1f7 6abd
000002b0: e611 5fbd d996 a9bd 5eec 823d 8300 c03c
000002c0: 48ed c3bc e9d7 013d e66c 443d 94e6 183d
000002d0: bf23 e3bc 2fd0 f5bc fa29 1ebb 6629 073c
000002e0: 6dfd 2b3c 3f7c 313d 0004 88bc 4da8 c33c
000002f0: a101 c63c 3ac7 7c3b b19f 863d 6497 78bd
00000300: e5f4 f13c 6bc8 923d 43af 01bd 88f4 58bd
00000310: 56c1 57bd 7194 17bd 2b9c 08be 0ca4 113c
00000320: 299c bfbd 02b2 233c adfc 473c 2470 78bd
00000330: 80d7 8ebd 9291 9abb 6a28 cdbc bea3 17bd
00000340: 8898 d43c 7e9b a63a e648 bc3b 7686 233c
00000350: 4e66 1cbc 9041 8bbc 2875 b93c 9686 723d
00000360: 80ff 6dbc c21b 353b 1185 373b 3b54 2fbd
00000370: f3cf b3bb 8710 5f3d bd82 9dbc 1043 773c
00000380: e69f 6c3d 52a7 543d 6aca 413c d887 ef3c
00000390: 563e edbc 0eaf 88bc bb18 923d fb2e 91bc
000003a0: eaf8 47bc a2c2 5b3d 171c 9c3d 9684 6b3d
000003b0: e686 043e 9116 db3a a053 27bc aed6 5f3d
000003c0: 26c5 8cbd f8e0 42bd 0601 8abd 08b7 693c
000003d0: da91 6b3d 1e68 943d cdfc 01be 1c84 98bd
000003e0: dcf8 693c f20d c6bc d8e5 14bb e86a 823c
000003f0: d840 063d 2553 013d ab27 46bc 90d2 fe3c

head.conv.bias f4 [64]
0.057986338 0.12227245 0.103446566 -0.057890564 -0.04677671 -0.052183542 -0.014117699 -0.02244472
0.10914103 0.08737234 0.03544571 -0.14420989 -0.00037187326 0.1501457 -0.048696026 -0.18530737
0.15399058 -0.0797122 0.05163472 0.03673744 0.07534454 -0.058629807 -0.14290425 -0.08195069
-0.0035826839 0.10140467 -0.02109782 0.038554523 -0.047438033 -0.095738605 -0.0046796007 -0.07611773
0.18808433 -0.03122135 0.053633675 -0.026284238 0.008903261 -0.17389247 0.028373383 -0.03272719
-0.018333238 0.03823717 -0.13085485 0.1776634 -0.14205831 -0.17353822 0.09146499 -0.031210823
-0.03440675 -0.04720757 0.009925443 -0.049829468 0.006899884 0.06751252 -0.028703278 -0.06451422
-0.1526805 -0.06140909 0.025778 -0.06863743 0.07610316 -0.11818976 0.037343837 -0.009943501
00000000: 1583 6d3d fa69 fa3d cbdb d33d a81e 6dbd
00000010: ef98 3fbd 69be 55bd ec4d 67bc fddd b7bc
00000020: 5585 df3d 45f0 b23d 852f 113d c2ab 13be
00000030: fcf7 c2b9 cbbf 193e 7c75 47bd 37c1 3dbe
00000040: b5af 1d3e 2640 a3bd ee7e 533d ff79 163d
00000050: 3d4e 9a3d cf25 70bd 7e55 12be c3d5 a7bd
00000060: 76cb 6abb 40ad cf3d 56d5 acbc 59eb 1d3d
00000070: 624e 42bd 9a12 c4bd 5657 99bb 9de3 9bbd
00000080: 2e99 403e ebc3 ffbc fcae 5b3d 0b52 d7bc
00000090: fcde 113c de10 32be 4c6f e83c f20c 06bd
000000a0: 962f 96bc 949e 1c3d d0fe 05be 65ed 353e
000000b0: bc77 11be 01b4 31be ff51 bb3d d7ad ffbc
000000c0: 18ee 0cbd ba5c 41bd 539e 223c fc19 4cbd
000000d0: 6c18 e23b 0144 8a3d 2323 ebbc 0820 84bd
000000e0: 4758 1cbe 1988 7bbd 622c d33c c891 8cbd
000000f0: f9db 9b3d 790d f2bd daf5 183d 11ea 22bc

head.norm.weight f4 [64]
1.0967495 0.9748746 1.1646988 1.3129667 1.3311638 1.0473574 1.1509311 1.0482744
0.9683258 1.0492165 1.2461952 1.0777856 1.1587206 1.1456845 1.3376573 0.91733474
1.0329306 1.0481057 1.2024156 1.1505187 1.1314572 1.2378129 1.1693549 1.2579917
1.488175 1.1352878 0.98736906 1.2695941 1.0490447 1.1832651 1.2228361 1.08318
1.1223379 1.125456 1.210565 1.2561798 1.0800784 1.0277296 1.1792065 0.9619682
1.049797 1.3964031 1.0445601 1.0441405 1.0109651 1.0244067 1.1778923 1.0383748
1.0532705 1.4769361 1.2721506 0.9597078 1.0813005 1.0167693 1.3931245 1.109355
0.9238042 0.962513 1.304829 0.9447689 1.0889889 1.1859746 1.1620066 1.0685188
00000000: 4a62 8c3f 6291 793f da14 953f 4b0f a83f
00000010: 9363 aa3f cf0f 863f b651 933f db2d 863f
00000020: 33e4 773f ba4c 863f 5383 9f3f e1f4 893f
00000030: f550 943f caa5 923f 5b38 ab3f 73d6 6a3f
00000040: 1237 843f 5428 863f c1e8 993f 3244 933f
00000050: 97d3 903f a770 9e3f 6cad 953f df05 a13f
00000060: 857c be3f 1c51 913f 38c4 7c3f 0f82 a23f
00000070: 1947 863f 3b75 973f e585 9c3f a4a5 8a3f
00000080: c5a8 8f3f f10e 903f cbf3 9a3f 80ca a03f
00000090: 0240 8a3f a58c 833f 3df0 963f 8c43 763f
000000a0: c05f 863f 56bd b23f 25b4 853f 65a6 853f
000000b0: 4e67 813f c21f 833f 2dc5 963f 77e9 843f
000000c0: 91d1 863f 3e0c bd3f d5d5 a23f 69af 753f
000000d0: 0e68 8a3f 7f25 823f e751 b23f 58ff 8d3f
000000e0: 6f7e 6c3f 4167 763f a304 a73f 60dc 713f
000000f0: fd63 8b3f 04ce 973f a2bc 943f 39c5 883f

head.norm.bias f4 [64]
-0.05224581 0.026487952 -0.09113163 -0.20231816 -0.14371811 -0.11876824 -0.10355401 -0.097225286
-0.21372904 -0.09653339 -0.102246776 -0.1612191 -0.17045574 -0.087555714 -0.1718698 -0.21049346
-0.14950086 -0.12548384 -0.0073293736 -0.13683517 0.031638768 -0.15560246 -0.091291934 -0.033206385
0.06615447 -0.15368535 -0.12244177 -0.08498834 -0.093242675 -0.20845172 -0.12527572 -0.24581797
-0.2073806 -0.15477982 -0.02301062 -0.08341525 -0.17720607 -0.021115799 -0.19526789 -0.18020174
0.044397112 -0.036897082 -0.082987025 0.014254327 -0.09798403 -0.062459975 -0.04763633 -0.07117305
-0.10606592 0.07282867 -0.05743266 -0.05187127 -0.046069477 -0.056539033 -0.091382235 -0.10167999
-0.110838644 -0.14347221 -0.09766942 -0.07607826 -0.059014425 -0.046347734 -0.09009042 -0.19521052
00000000: b4ff 55bd 43fd d83c 38a3 babd 7e2c 4fbe
00000010: d72a 13be c33c f3bd 2014 d4bd 0d1e c7bd
00000020: c9db 5abe 4cb3 c5bd c266 d1bd 9f16 25be
00000030: f38b 2ebe 6950 b3bd a3fe 2fbe 998b 57be
00000040: c116 19be d67e 00be 3e2b f0bb 851e 0cbe
00000050: a797 013d 4056 1fbe 44f7 babd 6b03 08bd
00000060: ff7b 873d b15f 1dbe c0c2 fabd 5e0e aebd
00000070: 04f6 bebd 5e74 55be 4748 00be b5b7 7bbe
00000080: 945b 54be 9a7e 1ebe c580 bcbc 9dd5 aabd
00000090: 8275 35be 0afb acbc 4ef4 47be ce86 38be
000000a0: bfd9 353d 6521 17bd 1af5 a9bd fb8a 693c
000000b0: daab c8bd 08d6 7fbd 501e 43bd 2dc3 91bd
000000c0: 1739 d9bd 3327 953d 823e 6bbd f876 54bd
000000d0: 59b3 3cbd 7995 67bd 9c26 bbbd 993d d0bd
000000e0: 5fff e2bd 61ea 12be e806 c8bd ebce 9bbd
000000f0: 1cb9 71bd 1fd7 3dbd 5381 b8bd 44e5 47be

head.norm.running_mean f4 [64]
0.0129354745 0.08449015 0.11345623 -0.047921438 -0.04567655 0.01419674 -0.022867456 -0.0011872282
0.08097974 0.08928321 0.038981207 -0.14981031 -0.004922389 0.1450073 -0.048211478 -0.22402188
0.13677838 -0.067428134 0.029484311 0.037288807 0.042159576 -0.058050327 -0.11919204 -0.09589726
-0.016778132 0.090840384 -0.03359791 0.056049705 -0.06149446 -0.066171154 -0.00081132195 -0.0810104
0.21142657 -0.021598062 0.04107111 -0.033795923 -0.02669815 -0.14310718 0.04215121 -0.05746845
0.031652372 0.035036076 -0.15368453 0.20861301 -0.14932938 -0.16966502 0.09753286 -0.036398504
-0.023611527 -0.053263556 0.016724112 -0.07661749 0.014545274 0.059486657 -0.025100006 -0.09650775
-0.18357274 -0.056946635 0.031025076 -0.07864855 0.07469634 -0.099622965 0.07242971 -0.020113705
00000000: 50ef 533c 2c09 ad3d bd5b e83d 4549 44bd
00000010: 5617 3bbd 7299 683c 8854 bbbc c59c 9bba
00000020: b5d8 a53d 1eda b63d c2aa 1f3d e067 19be
00000030: fe4b a1bb cb7c 143e 6679 45bd fe65 65be
00000040: a20f 0c3e c317 8abd 1589 f13c 26bc 183d
00000050: 85af 2c3d 2ec6 6dbd f51a f4bd c865 c4bd
00000060: 4b72 89bc 860a ba3d f69d 09bd 6094 653d
00000070: 9de1 7bbd be84 87bd e5ae 54ba c8e8 a5bd
00000080: 3580 583e 6bee b0bc 2e3a 283d 986d 0abd
00000090: 14b6 dabc b08a 12be bfa6 2c3d 0a64 6bbd
000000a0: eba5 013d fd81 0f3d 7a5f 1dbe a69e 553e
000000b0: cde9 18be abbc 2dbe 4fbf c73d 9916 15bd
000000c0: f66c c1bc e32a 5abd 0101 893c a1e9 9cbd
000000d0: 4d4f 6e3c 48a8 733d 879e cdbc dba5 c5bd
000000e0: 7efa 3bbe e040 69bd 4d28 fe3c 7e12 a1bd
000000f0: 65fa 983d 2007 ccbd 0756 943d 7fc5 a4bc

head.norm.running_var f4 [64]
0.020267567 0.02504347 0.0068505136 0.0075945607 0.002593546 0.06764877 0.006299802 0.013470398
0.019984307 0.005229816 0.0052543674 0.0068316143 0.0040864204 0.0020044427 0.002516323 0.012823911
0.0037682625 0.0009092091 0.0064887945 0.004398877 0.0060952944 0.0021254143 0.004594911 0.0034260363
0.0015267004 0.0019156485 0.007693616 0.007692512 0.0151052615 0.007859199 0.0019647796 0.002326317
0.0037651658 0.003204311 0.0023845928 0.0033462392 0.011913049 0.019982219 0.0028766217 0.024433993
0.03392196 0.0027215607 0.0027599528 0.014566555 0.016862584 0.0068286504 0.0012985222 0.015277959
0.0035646202 0.0017763473 0.0016502513 0.029164344 0.0024178443 0.0037232235 0.0011874404 0.017657826
0.02208027 0.0066994424 0.005268772 0.02410391 0.00433124 0.0029349446 0.007756049 0.0033387626
00000000: 2b08 a63c f727 cd3c 467a e03b cbdb f83b
00000010: 7bf8 293b 708b 8a3d 926e ce3b f2b2 5c3c
00000020: 21b6 a33c e05e ab3b d42c ac3b bcdb df3b
00000030: 61e7 853b f85c 033b e5e8 243b 621b 523c
00000040: f4f4 763b fd57 6e3a f49f d43b 7424 903b
00000050: 09bb c73b 894a 0b3b e890 963b 5a87 603b
00000060: 911b c83a 7f16 fb3a bb1a fc3b 7811 fc3b
00000070: 0f7c 773c dfc3 003c 88c3 003b 1f75 183b
00000080: 00c1 763b 6bff 513b d446 1c3b 944c 5b3b
00000090: f32e 433c c0b1 a33c b485 3c3b cc29 c83c
000000a0: c1f1 0a3d 365c 323b 53e0 343b 8fa8 6e3c
000000b0: 6723 8a3c dfc2 df3b 2d33 aa3a 6850 7a3c
000000c0: 679c 693b 53d4 e83a 3f4d d83a 10ea ee3c
000000d0: b274 1e3b 5301 743b e3a3 9b3a 25a7 903c
000000e0: afe1 b43c ff86 db3b aaa5 ac3b 9075 c53c
000000f0: 13ed 8d3b 3358 403b 7426 fe3b 24cf 5a3b

body.block1.conv.weight f4 [64, 64, 3, 3]
0.05753979 -0.009791113 0.016670771 -0.026654169 0.029880553 -0.043519266 0.06056394 0.007952072
0.02268977 -0.09015043 -0.019667497 -0.06741807 -0.04609813 -0.06916056 -0.08415134 -0.06342986
-0.06931159 -0.066024624 -0.011317635 -0.026176238 0.053481665 0.03739934 0.039022215 0.034149673
0.03393544 0.056445483 0.02768235 0.060548674 -0.0013286984 0.046723586 0.09170878 -0.008746837
0.056753073 0.111755036 0.1399772 0.12538195 -0.017523248 0.012468066 0.0964302 0.022128254
-0.04381834 -0.07304819 0.036675636 0.010881608 0.018503608 -0.07239175 -0.07220836 -0.024729542
-0.070262454 -0.059583623 -0.061350472 -0.035935033 -0.011456436 -0.0127531495 0.024182707 0.023869568
0.039496098 0.014822708 0.065422066 0.030967116 0.081375025 0.072764456 0.079386614 -0.05492185
-0.082611725 -0.05067433 -0.008365933 -0.040899478 -0.047095142 -0.031441662 0.025919747 0.04520263
-0.023386719 -0.05508059 0.06934488 -0.023646925 -0.05048573 -0.0041849683 -0.0006286507 -0.005792288
-0.039865293 -0.036274042 0.012292515 0.045219623 -0.007271245 0.033815432 -0.002762425 0.0013669794
-0.018708773 0.021339616 -0.0031876485 0.04426975 0.042006563 0.05490498 0.027233453 0.01851414
0.08374823 0.011171579 -0.031886086 -0.026434174 0.059507757 0.03437494 0.015184347 0.01978441
0.022177042 0.022237549 0.044961195 0.039723527 -0.016774047 0.0062628123 0.04078557 -0.0011413967
0.013750025 0.038066857 0.013753985 -0.006414195 -0.011520263 -0.03858545 -0.04539102 0.024011755
0.023979165 -0.062583126 -0.026072359 0.046838015 0.045140266 0.0556998 0.12874018 -0.021346109
-0.05375759 0.031282026 -0.0024630073 0.021989023 -0.0076703234 -0.05890228 -0.03848119 -0.04316599
-0.059784662 -0.02040092 -0.024774574 -0.05411505 -0.01634754 -0.0055739107 0.02818905 0.015182396
-0.03080803 0.03536419 0.05392153 -0.0006461035 -0.064922936 -0.030522373 0.036931373 0.036417466
0.047656283 0.014040332 0.02192038 0.038472213 0.03358549 -0.028523788 -0.0006358429 0.048790053
0.037918493 0.026047325 -0.01460456 0.030400421 -0.0021613277 -0.012551521 0.008112988 -0.06757106
-0.05983652 0.020603256 0.08338634 0.08161315 0.037208818 0.030617695 -0.028296787 -0.006476514
-0.021725602 0.0579813 -0.0079232715 -0.024710933 0.0057844296 -0.06416736 -0.04207571 -0.013469226
-0.026427807 -0.0143709555 -0.0031703396 -0.029555228 -0.015332246 -0.03351902 -0.069108166 -0.093352884
0.055893686 0.016060049 -0.050697237 0.055023197 0.0708937 0.112245135 -0.0054242252 -0.0024023564
-0.037089597 -0.026999228 -0.039827835 0.0063481703 -0.03679373 -0.0104133515 -0.030447766 0.045926537
0.022041224 0.0904242 0.04931843 -0.06389458 -0.038535565 0.00019827722 -0.027603371 0.07419577
-0.087828234 -0.05115691 -0.08911074 0.013935025 0.020375902 -0.06850263 0.039702788 0.05816762
0.1814102 -0.018919365 0.059440687 0.0384244 0.072519995 0.023051742 0.043978363 -0.050395537
-0.0289777 0.054329395 -0.02820562 -0.013474249 -0.03462676 -0.08506397 -0.07448533 -0.062436834
-0.05788216 0.0074206647 -0.055002764 -0.052406028 -0.022457344 5.151224e-05 0.024484389 -0.001116976
0.047140695 0.03520918 0.021782402 -0.030860534 -0.083371446 -0.076374106 -0.041279517 -0.026791686
00000000: d8ae 6b3d e86a 20bc 2491 883c d859 dabc
00000010: 10c8 f43c 4241 32bd e511 783d 6849 023c
00000020: e6df b93c caa0 b8bd bb1d a1bc 7c12 8abd
00000030: 65d1 3cbd 0da4 8dbd 8a57 acbd 84e7 81bd
00000040: 3cf3 8dbd eb37 87bd 9a6d 39bc 8d6f d6bc
00000050: 970f 5b3d 0d30 193d c2d5 1f3d 87e0 0b3d
00000060: e3ff 0a3d 6133 673d 18c6 e23c e301 783d
00000070: b827 aeba 3b61 3f3d d0d1 bb3d e54e 0fbc
00000080: e975 683d d3df e43d 2f56 0f3e 2064 003e
00000090: ea8c 8fbc dc46 4c3c 327d c53d 5046 b53c
000000a0: dc7a 33bd 4a9a 95bd 3139 163d c648 323c
000000b0: e194 973c 2042 94bd fae1 93bd 9c95 cabc
000000c0: c3e5 8fbd f50d 74bd a24a 7bbd 9d30 13bd
000000d0: c6b3 3bbc 96f2 50bc d01a c63c 1d8a c33c
000000e0: a9c6 213d f2da 723c 01fc 853d c0ae fd3c
000000f0: f3a7 a63d 8805 953d 7395 a23d bcf5 60bd
00000100: 5630 a9bd e38f 4fbd 4411 09bc 3686 27bd
00000110: d6e6 40bd f9c8 00bd a655 d43c 6526 393d
00000120: 8195 bfbc 2f9c 61bd b004 8e3d 32b7 c1bc
00000130: 20ca 4ebd 0f22 89bb 09cc 24ba 3ccd bdbb
00000140: ca49 23bd 1794 14bd 8b66 493c 3638 393d
00000150: a043 eebb 0d82 0a3d cd09 35bb 382c b33a
00000160: 2443 99bc 6bd0 ae3c dee7 50bb 3354 353d
00000170: 130f 2c3d 0be4 603d b118 df3c f7aa 973c
00000180: 3184 ab3d 0009 373c fc9a 02bd 7b8c d8bc
00000190: 68be 733d bdcc 0c3d c4c7 783c ea12 a23c
000001a0: a1ac b53c 852b b63c 3b29 383d 23b5 223d
000001b0: ba69 89bc 4738 cd3b c50e 273d eb9a 95ba
000001c0: c947 613c feeb 1b3d 6558 613c 2b2e d2bb
000001d0: 7cbf 3cbc c70b 1ebd efeb 39bd 4db4 c43c
000001e0: f46f c43c 952b 80bd b395 d5bc 38d9 3f3d
000001f0: 00e5 383d 7925 643d 77d4 033e 09de aebc
00000200: eb30 5cbd 9521 003d 686a 21bb 5322 b43c
00000210: 5657 fbbb 8443 71bd 749e 1dbd d2ce 30bd
00000220: c3e0 74bd d51f a7bc 0cf4 cabc bea7 5dbd
00000230: 47eb 85bc 5aa5 b6bb b9ec e63c 96bf 783c
00000240: 1f61 fcbc 0ada 103d d2dc 5c3d 465f 29ba
00000250: 51f6 84bd 0e0a fabc 5a45 173d 7b2a 153d
00000260: 3c33 433d 6c09 663c 5e92 b33c 0a95 1d3d
00000270: f090 093d b8aa e9bc b2ae 26ba 14d8 473d
00000280: 6c50 1b3d 3361 d53c f747 6fbc 4e0a f93c
00000290: 10a5 0dbb e5a4 4dbc 57ec 043c b262 8abd
000002a0: 2417 75bd 29c8 a83c 75c6 aa3d cc24 a73d
000002b0: 4668 183d f6d1 fa3c aace e7bc f038 d4bb
000002c0: e4f9 b1bc cd7d 6d3d 9cd0 01bc 956e cabc
000002d0: 508b bd3b 2d6a 83bd 9457 2cbd 07ae 5cbc
000002e0: 217f d8bc 2874 6bbc 79c5 4fbb ce1d f2bc
000002f0: 1a34 7bbc 3d4b 09bd 9588 8dbd cc2f bfbd
00000300: c7f0 643d 5d90 833c e8a7 4fbd 0160 613d
00000310: b730 913d c7e0 e53d b3bd b1bb da70 1dbb
00000320: 43eb 17bd 7c2d ddbc 8322 23bd 5004 d03b
00000330: 06b5 16bd c39c 2abc 986d f9bc 771d 3c3d
00000340: cc8f b43c 5330 b93d 1f02 4a3d 29db 82bd
00000350: 78d7 1dbd a3e8 4f39 7720 e2bc f4f3 973d
00000360: 4adf b3bd e889 51bd b17f b6bd bb4f 643c
00000370: 5deb a63c 1b4b 8cbd 649f 223d 2c41 6e3d
00000380: 98c3 393e c9fc 9abc 1478 733d e762 1d3d
00000390: 5d85 943d 02d7 bc3c a822 343d 8d6b 4ebd
000003a0: a462 edbc 8088 5e3d 790f e7bc 19c3 5cbc
000003b0: cad4 0dbd 0536 aebd c48b 98bd c4bd 7fbd
000003c0: d815 6dbd 0c29 f33b 944a 61bd b4a7 56bd
000003d0: 77f8 b7bc d90e 5838 7c93 c83c 7f67 92ba
000003e0: 9a16 413d 8037 103d 0271 b23c 3bcf fcbc
000003f0: a6be aabd 076a 9cbd b614 29bd 3d7a dbbc

body.block1.conv.bias f4 [64]
-0.0038905018 0.018434228 -0.03480974 0.012211387 -0.007056904 -0.021067886 -0.034204923 -0.0004124928
-0.031793807 -0.005521777 -0.015930131 -0.00045091493 -0.018201727 0.008463135 -0.014556333 -0.0032589028
0.018128613 0.004744091 -0.020020796 -0.0039546327 -0.028718766 -0.04055325 -0.02888283 0.0027012909
-0.033296715 -0.025738738 -0.02356181 0.006489225 0.028810257 0.013869627 0.035158273 0.013474091
-0.029832516 -0.010689753 0.013320496 -0.007294537 0.03603478 -0.02412012 0.026567891 -0.02393233
0.039443057 0.03309145 -0.014680945 0.011273596 0.03071342 0.030040208 -0.014221175 -0.017097218
0.012063779 -0.026901923 -0.030188918 0.012180473 -0.019817395 -0.0029668743 -0.02001205 -0.008525865
-0.035010364 0.03318831 0.010012404 0.02787487 0.03722968 -0.029623924 0.03342141 -0.0035079224
00000000: caf7 7ebb 6103 973c a894 0ebd 4512 483c
00000010: 9a3d e7bb 8f96 acbc 761a 0cbd d943 d8b9
00000020: 393a 02bd 06f0 b4bb e87f 82bc c768 ecb9
00000030: ca1b 95bc f6a8 0a3c b07d 6ebc 5193 55bb
00000040: 7582 943c 5274 9b3b a702 a4bc dd95 81bb
00000050: 9e43 ebbc 2a1b 26bd af9b ecbc 2408 313b
00000060: 2362 08bd 0cda d2bc b204 c1bc 91a3 d43b
00000070: 7d03 ec3c 6f3d 633c 1f02 103d 6fc2 5c3c
00000080: 5263 f4bc 1324 2fbc 363e 5a3c 0307 efbb
00000090: 3599 133d 8f97 c5bc e8a4 d93c bc0d c4bc
000000a0: 0b8f 213d e68a 073d 5988 70bc e4b4 383c
000000b0: b69a fb3c e216 f63c eeff 68bc 770f 8cbc
000000c0: 28a7 453c 6c61 dcbc c04e f7bc 9b90 473c
000000d0: 1758 a2bc e46f 42bb 50f0 a3bc 12b0 0bbc
000000e0: 0767 0fbd 77f0 073d 110b 243c d759 e43c
000000f0: 267e 183d dfad f2bc e3e4 083d 2ce5 65bb

body.block1.norm.weight f4 [64]
1.312679 1.2109216 1.1542118 1.1635009 1.0986437 1.1869715 1.0339196 1.1783338
1.2192398 1.058821 1.2959406 1.1070452 1.1316582 1.1894472 1.1600262 1.2101079
1.1737348 1.1420516 1.1024073 1.2013375 1.156734 1.0820992 1.1942837 1.0562704
1.1870722 1.1064692 1.1306144 1.2204951 1.0780836 1.0619601 1.1131359 1.1495268
1.1794019 1.1496509 1.1875596 1.2479118 1.2709603 1.2131166 1.1845983 1.1636844
1.1646779 1.2155912 1.203885 1.0069677 1.0658469 1.0508971 1.2091761 1.1830541
1.2499788 1.1353416 1.1520774 1.2201879 1.0424602 1.2382454 1.2298815 1.1922995
1.1526417 1.1113393 1.1807692 1.0385481 1.1876582 1.2214468 1.1668735 1.2168126
00000000: de05 a83f 7bff 9a3f 36bd 933f 99ed 943f
00000010: 5ba0 8c3f afee 973f 7a57 843f a4d3 963f
00000020: 0d10 9c3f 7287 873f 62e1 a53f a8b3 8d3f
00000030: 2dda 903f ce3f 983f bd7b 943f d1e4 9a3f
00000040: f13c 963f bf2e 923f af1b 8d3f 6dc5 993f
00000050: dc0f 943f 3a82 8a3f 4ade 983f de33 873f
00000060: fbf1 973f c8a0 8d3f f9b7 903f 2f39 9c3f
00000070: a5fe 893f 4fee 873f 3d7b 8e3f b223 933f
00000080: a4f6 963f c327 933f f401 983f 93bb 9f3f
00000090: d4ae a23f 6847 9b3f eba0 973f 9cf3 943f
000000a0: 2a14 953f 7e98 9b3f e718 9a3f 51e4 803f
000000b0: ac6d 883f cc83 863f 48c6 9a3f 516e 973f
000000c0: 4eff 9f3f e052 913f 4677 933f 1e2f 9c3f
000000d0: 566f 853f d37e 9e3f c26c 9d3f 459d 983f
000000e0: c389 933f 5e40 8e3f 7223 973f 25ef 843f
000000f0: 2f05 983f 5e58 9c3f 1c5c 953f 84c0 9b3f

body.block1.norm.bias f4 [64]
-0.09069427 -0.2658856 -0.08786882 -0.081011884 -0.028553005 -0.08896939 -0.13798982 -0.16297887
-0.08413336 -0.14656536 -0.022335235 0.041687522 -0.20682652 -0.18627484 -0.24027075 -0.17532718
-0.074334405 -0.26096445 -0.29931092 0.045351975 -0.1718608 -0.25759846 0.019604199 -0.25580937
-0.16142413 -0.07626919 -0.15326793 -0.15130743 -0.124969766 -0.2416371 -0.22083317 -0.08643347
-0.117884986 -0.20525399 0.036894318 0.05677186 -0.1632636 -0.28535014 -0.040176254 0.0052938717
-0.08284817 -0.023184376 -0.08320794 -0.06506861 -0.2257541 -0.25504503 -0.28688928 -0.1377688
-0.07554808 -0.12202599 -0.17986268 -0.04795022 -0.30040845 -0.07997415 -0.13043164 -0.24005063
-0.13192484 -0.19487812 -0.047605023 -0.27504748 -0.004011361 -0.16431877 -0.13933644 -0.029839082
00000000: ebbd b9bd 2822 88be 91f4 b3bd 8fe9 a5bd
00000010: fee7 e9bc 9535 b6bd 344d 0dbe efe3 26be
00000020: 1c4e acbd 3b15 16be 62f8 b6bc 89c0 2a3d
00000030: 55ca 53be d5be 3ebe 8909 76be f888 33be
00000040: a33c 98bd 229d 85be 483f 99be fec2 393d
00000050: 47fc 2fbe f2e3 83be fc98 a03c 72f9 82be
00000060: 5e4c 25be 0533 9cbd 45f2 1cbe 56f0 1abe
00000070: 26f0 ffbd b76f 77be 1722 62be 0804 b1bd
00000080: af6d f1bd 1a2e 52be 7f1e 173d 9c89 683d
00000090: 932e 27be 6a19 92be db8f 24bd 3778 ad3b
000000a0: 4dac a9bd 29ed bdbc ed68 aabd b142 85bd
000000b0: 152c 67be 4395 82be 27e3 92be 4413 0dbe
000000c0: f4b8 9abd c3e8 f9bd ec2d 38be 7367 44bd
000000d0: 23cf 99be 7dc9 a3bd df8f 05be d5cf 75be
000000e0: 4e17 07be 218e 47be 7cfd 42bd 06d3 8cbe
000000f0: bc71 83bb 2e43 28be 36ae 0ebe 1771 f4bc

body.block1.norm.running_mean f4 [64]
-0.33524916 -0.0021184583 -1.241882 -0.6721763 0.24739258 -1.3698882 -0.18580988 2.1010416
-0.082316734 -0.6114408 -0.9445888 -1.9822186 -0.38230842 -0.17230722 0.39478394 -0.0160816
1.0202413 1.9857048 0.48317817 -0.17348672 0.8762289 1.1269639 -1.5125128 0.9704686
-0.037174154 -0.87489367 -0.18351147 0.16212566 0.023704585 0.98280007 0.9498048 -3.2965884
-1.1133558 -0.019393947 -0.16668075 -1.3240823 0.77853817 0.48285457 0.84555817 -0.6973245
-1.4120486 -0.5507459 -1.2319467 -0.779983 1.7874681 0.3741004 0.80530864 -0.5936429
-1.3060896 -0.94176644 -0.47095013 -0.4237753 2.7325933 -0.8135358 -1.885414 -1.0504544
-0.6716901 1.2666821 -0.6775056 2.1403644 -0.8072383 -0.28923687 0.16328508 0.39120358
00000000: c7a5 abbe d5d5 0abb fdf5 9ebf bf13 2cbf
00000010: 7b54 7d3e 7f58 afbf f244 3ebe 7777 0640
00000020: ad95 a8bd 6287 1cbf 92d0 71bf 57b9 fdbf
00000030: eebd c3be 4e71 30be 1f21 ca3e 8fbd 83bc
00000040: 4497 823f 932b fe3f 2163 f73e 81a6 31be
00000050: 8a50 603f 5a40 903f 059a c1bf a170 783f
00000060: ed43 18bd 08f9 5fbf 6eea 3bbe 4504 263e
00000070: 1e30 c23c c998 7b3f 6826 733f 4efb 52c0
00000080: 7182 8ebf 0ee0 9ebc 5cae 2abe 877b a9bf
00000090: 474e 473f b738 f73e 8076 583f dc83 32bf
000000a0: 02be b4bf affd 0cbf 6eb0 9dbf f7ac 47bf
000000b0: c1cb e43f 168a bf3e b528 4e3f fbf8 17bf
000000c0: f22d a7bf 9b17 71bf 6020 f1be 13f9 d8be
000000d0: cfe2 2e40 e243 50bf 3f55 f1bf 4a75 86bf
000000e0: e2f3 2bbf a422 a23f 0271 2dbf bbfb 0840
000000f0: 2ba7 4ebf db16 94be 3434 273e d64b c83e

body.block1.norm.running_var f4 [64]
1.7502058 0.88687915 1.8616797 1.548945 1.4026127 2.088936 1.00193 3.176098
1.3547629 0.76836497 2.4667833 3.8665516 2.0890164 1.1773602 0.9729978 0.8532421
1.0014473 1.8767713 1.5011301 1.0331839 2.3247151 2.1820316 1.720214 2.359791
2.616994 2.6476657 0.5637576 1.2997837 1.5309541 3.0238693 2.3282657 3.1544852
2.5034146 0.89486074 1.2229909 2.4133043 1.5051677 1.1433064 1.0422028 0.9287507
1.6573298 1.7264205 2.497142 2.6331112 3.302222 1.0025082 1.3110068 0.9854682
1.2977114 1.473296 1.1578001 1.3244016 3.588316 0.8844196 1.901396 1.7633982
1.5950341 1.6961288 0.91573936 4.983431 2.539334 1.2404084 0.810301 1.1489987
00000000: be06 e03f 830a 633f 854b ee3f d443 c63f
00000010: d088 b33f 21b1 0540 3e3f 803f 3145 4b40
00000020: df68 ad3f 91b3 443f c7df 1d40 9575 7740
00000030: 72b2 0540 bdb3 963f 6216 793f 136e 5a3f
00000040: 6d2f 803f 0b3a f03f 0825 c03f 5f3f 843f
00000050: 22c8 1440 68a6 0b40 f92f dc3f d106 1740
00000060: d47c 2740 5b73 2940 6b52 103f 505f a63f
00000070: 4ef6 c33f 1387 4140 4e02 1540 16e3 4940
00000080: f237 2040 9815 653f f78a 9c3f 9473 1a40
00000090: 56a9 c03f dd57 923f e766 853f 9bc2 6d3f
000000a0: 6223 d43f 59fb dc3f 2dd1 1f40 e584 2840
000000b0: 9b57 5340 3052 803f 12cf a73f a547 7c3f
000000c0: 681b a63f f794 bc3f cb32 943f fe85 a93f
000000d0: f8a6 6540 5369 623f f260 f33f 08b7 e13f
000000e0: 142a cc3f c01a d93f e56d 6a3f 4478 9f40
000000f0: 7384 2240 b4c5 9e3f e36f 4f3f 6412 933f

body.block2.conv.weight f4 [64, 64, 3, 3]
-0.028205661 -0.0025926274 0.033138342 -0.09901145 -0.05703864 0.010598319 -0.09456387 -0.0545134
-0.041459274 0.017015008 0.02362997 -0.037400387 0.008638585 -0.006387726 0.03834847 0.047459178
0.016248984 0.05739231 0.03688618 0.04317407 0.022362398 -0.012838186 0.012740429 -0.029434485
-0.040292535 -0.07095772 -0.08994179 0.0248408 0.033578876 0.0035411918 0.05358011 0.052762344
0.029089706 -0.004456043 0.016020577 -0.045642156 0.019903691 0.030560166 0.009867145 0.06795732
0.021933204 -0.004054909 -0.0040785503 -0.015374272 -0.055382203 -0.02351584 0.022564009 0.029820675
0.055266205 -0.02767652 0.017791452 0.00019105377 -0.0015888728 0.06370666 -0.07383896 0.014845115
-0.01234468 -7.00608e-05 -0.036654763 -0.013686117 0.04785295 0.049350295 -0.009510746 0.0036126382
0.0018586947 -0.011370836 0.029060291 0.006660528 0.02434909 0.022390863 0.016617488 0.03169669
0.0073887357 0.012080103 0.028904786 -0.029551612 -0.018556802 -0.004658087 0.052277155 -0.025038315
-0.003682488 0.013078997 0.013618084 -0.011689657 0.01341878 -0.04016877 0.04477649 -0.04475
-0.07171541 -0.0051884716 -0.019158592 0.049307648 0.026044408 0.04696303 0.06307927 0.024049263
0.047657274 0.07494026 0.082135186 -0.025808344 -0.02899873 -0.038905106 -0.009958364 -0.008080039
-0.0599233 -0.033378173 -0.03366249 -0.07007033 0.0009262415 -0.0057212757 -0.044413727 -0.0012469126
0.048750024 0.05081658 0.018845981 0.028042972 0.0019551334 -0.013957623 0.029763116 0.06320106
0.00575106 0.052891176 -0.015933331 -0.053328108 -0.0011500473 -0.0125951385 -0.043959837 0.014833049
-0.067326285 -0.036238544 0.040669214 0.04795514 -0.0735851 -0.010661687 -0.0010879064 -0.047737326
-0.00015722503 -0.0019985284 0.038744792 0.042266827 -0.0035657766 0.09230633 0.11718358 -0.067646295
-0.000880323 -0.055098843 -0.02333871 0.020740982 0.07605059 0.0010925186 0.023355555 0.02333475
0.017692128 0.011172318 -0.0049058963 0.008570542 -0.011810767 0.002964267 0.05519552 -0.06637577
0.0057379613 -0.008485512 0.024972176 -0.0036900698 0.009615603 -0.042147405 -0.0568867 -0.00058767095
-0.024872527 -0.046566248 0.007393042 0.029437603 -0.010062134 -0.019429808 0.022297032 0.047637694
-0.0095405225 -0.03414071 -0.030009868 0.031177863 -0.0006580235 -0.047442768 -0.019174298 0.0064369207
-0.00095076085 0.0043537486 0.025572157 0.06758889 0.045040153 0.07985592 0.037574194 0.10519572
0.020627761 -0.02559334 0.034566164 0.021397164 -0.08122028 -0.053507973 0.038090743 -0.00015277283
0.066105545 0.066463605 0.04983666 0.025558356 -0.026011664 0.008979696 -0.01502954 0.01751593
-0.021360697 0.017985336 -0.016394995 -0.0053163883 0.0019538007 -0.009045795 -0.052389525 0.033114024
-0.08263797 -0.09231657 -0.085747354 -0.06460625 -0.07748853 -0.060911287 -0.046179444 0.012051406
-0.012032845 0.049758386 0.05475711 0.037472274 0.04343162 0.013429484 0.05018562 -0.0053231413
0.0030832128 0.0152833015 -0.047118284 -0.06717751 -0.091987565 -0.031071853 -0.017195672 -0.012385819
-0.033267546 -0.04095217 -0.062314257 -0.050444853 -0.008110665 -0.022423554 -0.03050821 0.019261824
0.02690091 0.03920469 0.071468785 0.03532308 -0.02717901 -0.001572704 0.02673497 0.0027670867
00000000: 8f0f e7bc 12e9 29bb 12bc 073d 84c6 cabd
00000010: 59a1 69bd 92a4 2d3c b4aa c1bd 7149 5fbd
00000020: 33d1 29bd 0f63 8b3c a493 c13c 2631 19bd
00000030: da88 0d3c 2150 d1bb 4913 1d3d 8e64 423d
00000040: 971c 853c 3314 6b3d f715 173d 4bd7 303d
00000050: 5931 b73c 4157 52bc 3bbd 503c 9720 f1bc
00000060: c909 25bd 4852 91bd 6733 b8bd ef7e cb3c
00000070: 018a 093d 5713 683b d176 5b3d 541d 583d
00000080: 894d ee3c ff03 92bb 963d 833c 45f3 3abd
00000090: 110d a33c 5059 fa3c cea9 213c 352d 8b3d
000000a0: 43ad b33c 0bdf 84bb 5ca5 85bb 5fe4 7bbc
000000b0: 73d8 62bd 4aa4 c0bc 28d8 b83c 7d4a f43c
000000c0: d15e 623d dfb9 e2bc 61bf 913c 9b55 4839
000000d0: b941 d0ba a378 823d e138 97bd ed38 733c
000000e0: 5741 4abc 9bed 92b8 4e23 16bd bc3b 60bc
000000f0: 7401 443d 8923 4a3d f6d2 1bbc 03c2 6c3b
00000100: 729f f33a be4c 3abc d90f ee3c 8f40 da3b
00000110: be77 c73c 0b6d b73c 6621 883c 63d4 013d
00000120: 351d f23b a0eb 453c bbc9 ec3c 3916 f2bc
00000130: 6f04 98bc dea2 98bb 9220 563d 271d cdbc
00000140: e655 71bb 4a49 563c 621e 5f3c fa85 3fbc
00000150: 71da 5b3c 0288 24bd 8e67 373d c74b 37bd
00000160: 87df 92bd 0e04 aabb 7bf2 9cbc d1f6 493d
00000170: 155b d53c 4e5c 403d b42f 813d f602 c53c
00000180: 4634 433d 477a 993d 7e36 a83d 056c d3bc
00000190: bf8e edbc f65a 1fbd 6828 23bc 2462 04bc
000001a0: 2272 75bd 8db7 08bd aee1 09bd 0881 8fbd
000001b0: 04cf 723a 8a79 bbbb 2beb 35bd 726f a3ba
000001c0: 1bae 473d 0c25 503d e362 9a3c 60ba e53c
000001d0: b221 003b 84ae 64bc c7d1 f33c 8f6f 813d
000001e0: 6373 bc3b 6ba4 583d 9e86 82bc 936e 5abd
000001f0: 2fbd 96ba d75b 4ebc 3b0f 34bd 5106 733c
00000200: 5de2 89bd de6e 14bd c394 263d 9c6c 443d
00000210: c9b3 96bd 5bae 2ebc 1598 8eba 3788 43bd
00000220: c6dc 24b9 bef9 02bb dcb2 1e3d fb1f 2d3d
00000230: ceaf 69bb 1a0b bd3d f2fd ef3d 248a 8abd
00000240: 7ac5 66ba 53af 61bd d330 bfbc fee8 a93c
00000250: 69c0 9b3d d732 8f3a 2654 bf3c 8528 bf3c
00000260: 15ef 903c 190c 373c a4c1 a0bb 756b 0c3c
00000270: f381 41bc 2644 423b b314 623d 05f0 87bd
00000280: 8205 bc3b d106 0bbc 7392 cc3c 19d5 71bb
00000290: c38a 1d3c c2a2 2cbd 0702 69bd ee0d 1aba
000002a0: 78c1 cbbc 40bc 3ebd 5541 f23b 2127 f13c
000002b0: a6db 24bc 432b 9fbc 44a8 b63c be1f 433d
000002c0: da4f 1cbc 21d7 0bbd 41d7 f5bc b868 ff3c
000002d0: 367f 2cba 5953 42bd 6b13 9dbc ceec d23b
000002e0: 7b3c 79ba e4a9 8e3b b37c d13c 0b6c 8a3d
000002f0: 067c 383d 808b a33d 66e7 193d db70 d73d
00000300: 8dfb a83c 20a9 d1bc 4095 0d3d 1b49 af3c
00000310: d156 a6bd 2d2b 5bbd 0a05 1c3d a531 20b9
00000320: 5862 873d 121e 883d 8721 4c3d c25f d13c
00000330: 6a16 d5bc 931f 133c 763e 76bc 917d 8f3c
00000340: a1fc aebc fc55 933c cc4e 86bc 1935 aebb
00000350: 560b 003b d034 14bc 6696 56bd 92a2 073d
00000360: 193e a9bd 7810 bdbd 4f9c afbd 4850 84bd
00000370: 4eb2 9ebd 1d7e 79bd a826 3dbd 4373 453c
00000380: 6925 45bc 73cf 4b3d fe48 603d 877c 193d
00000390: 5be5 313d 5707 5c3c 708f 4d3d bf6d aebb
000003a0: ba0f 4a3b d066 7a3c 1aff 40bd 5d94 89bd
000003b0: fa63 bcbd 668a febc f0dd 8cbc e4ed 4abc
000003c0: 8d43 08bd 76bd 27bd 3c3d 7fbd 439f 4ebd
000003d0: 98e2 04bc 9ab1 b7bc 5bec f9bc f9ca 9d3c
000003e0: 4c5f dc3c 1995 203d 3a5e 923d efae 103d
000003f0: 84a6 debc 3023 ceba 4c03 db3c 0358 353b

body.block2.conv.bias f4 [64]
-0.020405624 -0.018316366 0.026484314 -0.029300401 -0.008687433 -0.032547943 -0.016693167 0.024021456
0.022127997 -0.02052865 -0.02189365 0.032484073 0.02511441 -0.015702218 -0.0011297949 0.038121067
-0.021925787 0.011295235 0.0361785 -0.0014401138 0.011418613 -0.006450837 0.029711196 -0.021053221
-0.016828392 0.003909076 0.007863355 -0.011277598 0.011006898 -0.017056441 -0.009306386 -0.0062497724
0.03028581 0.018023113 -0.0432802 -0.0075597684 -0.0077337683 -0.025293006 0.004733017 0.042268164
-0.006527838 0.023585713 0.03481892 -0.013804024 0.011805088 0.039766695 -0.00014574487 0.03326505
-0.014925172 0.029808076 0.017036859 -0.04188175 0.020374786 -0.030727364 -0.019925807 -0.038796943
-0.014044428 -0.012518963 0.0309548 0.033978205 0.026228296 0.040188402 -0.028431427 -0.024814097
00000000: b229 a7bc 340c 96bc a2f5 d83c 6507 f0bc
00000010: bc55 0ebc fe50 05bd 1cc0 88bc a5c8 c43c
00000020: c645 b53c b32b a8bc 505a b3bc 050e 053d
00000030: bcbc cd3c f0a1 80bc a015 94ba d624 1c3d
00000040: b59d b3bc a60f 393c e82f 143d 33c2 bcba
00000050: 2215 3b3c 8b61 d3bb e564 f33c ce77 acbc
00000060: b2db 89bc b517 803b 4dd5 003c adc5 38bc
00000070: 4756 343c f3b9 8bbc d079 18bc e4ca ccbb
00000080: f219 f83c 35a5 933c 9446 31bd efb7 f7bb
00000090: 8d6b fdbb 4733 cfbc 6d17 9b3b 6221 2d3d
000000a0: 79e7 d5bb d336 c13c 499e 0e3d 462a 62bc
000000b0: 216a 413c 67e2 223d 17d3 18b9 ef40 083d
000000c0: b588 74bc 1130 f43c e290 8b3c 338c 2bbd
000000d0: 06e9 a63c f4b7 fbbc 723b a3bc 8be9 1ebd
000000e0: 9a1a 66bc 561c 4dbc ec94 fd3c bb2c 0b3d
000000f0: b9dc d63c 989c 243d 06e9 e8bc ef46 cbbc

body.block2.norm.weight f4 [64]
1.0658962 1.1302195 1.0139365 1.1040615 1.080325 1.1664634 1.1545023 1.1597255
1.1817232 1.2124375 1.0822593 1.215946 1.3349352 1.1215163 1.2109379 1.1224986
1.185148 1.1080163 1.1825966 1.2547934 1.1213139 1.1834583 1.0564495 1.101899
1.1830927 1.1283293 1.2617148 1.14884 1.0940858 1.1792198 1.1085709 1.1301283
1.2534254 1.1236748 1.1711177 1.0924637 1.0967854 1.1629634 1.1656959 1.1635567
1.1545123 1.0860643 1.0953431 1.1048725 1.1586906 1.0594771 1.2618376 1.1390814
1.1154941 1.0874487 1.1354026 1.1407692 1.0970035 1.1122063 1.1759946 1.1819791
1.1707299 1.0637512 1.0570151 1.0926529 1.1313666 1.141626 1.1733463 1.1213723
00000000: 496f 883f 08ab 903f acc8 813f e351 8d3f
00000010: 1748 8a3f ac4e 953f bbc6 933f e371 943f
00000020: b542 973f 2731 9b3f 7987 8a3f 1ea4 9b3f
00000030: 28df aa3f d98d 8f3f 0300 9b3f 09ae 8f3f
00000040: eeb2 973f 7ad3 8d3f 535f 973f 129d a03f
00000050: 3787 8f3f 907b 973f bd39 873f 070b 8d3f
00000060: 956f 973f 186d 903f df7f a13f 300d 933f
00000070: 010b 8c3f adf0 963f a7e5 8d3f 0ba8 903f
00000080: 3e70 a03f 93d4 8f3f 2fe7 953f dad5 8b3f
00000090: 7763 8c3f fcdb 943f 8635 953f 6def 943f
000000a0: 0fc7 933f 2804 8b3f 3434 8c3f 766c 8d3f
000000b0: f94f 943f f29c 873f e583 a13f 6bcd 913f
000000c0: 83c8 8e3f 8531 8b3f df54 913f ba04 923f
000000d0: 9c6a 8c3f c75c 8e3f fe86 963f 174b 973f
000000e0: 7ada 953f 0029 883f 454c 873f 0ddc 8b3f
000000f0: 9fd0 903f cd20 923f 3630 963f 2189 8f3f

body.block2.norm.bias f4 [64]
-0.08800248 -0.1723667 -0.14468852 -0.07291509 -0.116075665 -0.17311019 -0.104412 0.0074610314
-0.19321048 -0.08338146 -0.21406901 -0.020937173 -0.10325398 -0.2958179 -0.087103255 -0.15503249
-0.21569076 -0.15036131 -0.1416485 -0.12423022 -0.02782683 -0.07673087 -0.2308491 -0.12430624
-0.0935238 -0.03592226 -0.058709104 -0.15920165 -0.08945892 -0.18355548 -0.19461007 -0.26152682
-0.15785512 -0.18364207 -0.17124486 -0.062513575 -0.14558066 -0.14055678 -0.2103359 -0.1085162
-0.0898222 -0.23188692 -0.18875425 -0.1133096 -0.16978985 -0.19829334 -0.034816775 -0.09650197
-0.059852347 -0.22114341 -0.15438028 -0.048899014 -0.29358923 -0.118861146 -0.0710166 -0.12690522
-0.07378317 -0.21126743 -0.23480345 -0.16358182 -0.10470348 -0.053715304 -0.07196524 -0.19368067
00000000: a53a b4bd e580 30be 3a29 14be 8254 95bd
00000010: 14b9 edbd cc43 31be f5d5 d5bd ab7b f43b
00000020: f8d8 45be e6c3 aabd e834 5bbe 6f84 abbc
00000030: d376 d3bd 7275 97be 3163 b2bd d6c0 1ebe
00000040: 0ade 5cbe 51f8 19be 4e0c 11be 6a6c febd
00000050: 18f5 e3bc 1325 9dbd b563 6cbe 4594 febd
00000060: 6889 bfbd 3823 13bd f578 70bd c205 23be
00000070: 3d36 b7bd f8f5 3bbe dd47 47be d8e6 85be
00000080: c6a4 21be ab0c 3cbe d05a 2fbe 1e07 80bd
00000090: 1913 15be 1eee 0fbe 4b62 57be be3d debd
000000a0: b4f4 b7bd c473 6dbe cb48 41be dd0e e8bd
000000b0: 64dd 2dbe 690d 4bbe 099c 0ebd d3a2 c5bd
000000c0: bc27 75bd 6b73 62be dd15 1ebe 554a 48bd
000000d0: 5451 96be 796d f3bd 2771 91bd 71f3 01be
000000e0: a11b 97bd 7d56 58be 5170 70be fe81 27be
000000f0: c76e d6bd 9404 5cbd 8362 93bd 3a54 46be

body.block2.norm.running_mean f4 [64]
0.24143025 0.7085488 0.8053132 -0.19024742 -0.3248354 -0.49912784 0.7095305 -0.4442181
0.8345826 -0.14256789 0.12047722 0.1239967 -0.3673905 1.3673414 -0.46584377 1.087234
-0.687754 0.21464907 -0.49742857 -0.14211789 -0.9663074 0.37786946 0.43309644 -0.17224239
0.6433932 0.014901215 -0.16760199 -0.8114912 -0.72152203 0.42401358 1.4083943 1.665563
0.018414723 0.70705986 0.08019204 0.5286077 0.15686132 -0.1556226 -0.0933441 -0.5573981
0.64983636 0.64758146 0.67916197 -0.6202294 -0.42975864 -0.32820165 -0.277843 -1.397097
-0.7080971 0.7335041 0.7758961 -0.4159007 0.04006916 -0.1367497 0.68796045 0.5526097
0.32863772 1.301456 0.41126153 1.2897886 0.09911985 0.47922575 -0.49162367 1.5793319
00000000: 7e39 773e 7463 353f 0229 4e3f 38d0 42be
00000010: d350 a6be af8d ffbe caa3 353f 8e70 e3be
00000020: 35a7 553f 51fd 11be c3bc f63d fbf1 fd3d
00000030: 9c1a bcbe 0b05 af3f 1383 eebe 7c2a 8b3f
00000040: a510 30bf f7cc 5b3e f5ae febe 5a87 11be
00000050: ec5f 77bf 1b78 c13e d1be dd3e 4f60 30be
00000060: 6bb5 243f 3a24 743c db9f 2bbe e3bd 4fbf
00000070: abb5 38bf 4f18 d93e 4446 b43f 2b31 d53f
00000080: 79da 963c e001 353f b93b a43d d652 073f
00000090: 41a0 203e 885b 1fbe 312b bfbd a4b1 0ebf
000000a0: ad5b 263f e6c7 253f 8fdd 2d3f 5bc7 1ebf
000000b0: 5309 dcbe 0c0a a8be 7041 8ebe 13d4 b2bf
000000c0: da45 35bf edc6 3b3f 20a1 463f f0f0 d4be
000000d0: 8f1f 243d 1d08 0cbe 2d1e 303f d477 0d3f
000000e0: 3443 a83e 1c96 a63f df90 d23e cb17 a53f
000000f0: 59ff ca3d 145d f53e 19b6 fbbe 8c27 ca3f

body.block2.norm.running_var f4 [64]
1.3777384 1.6815678 2.1906781 2.9807212 1.037667 0.9230645 1.3192166 1.1430951
0.93052244 1.6577321 1.5064732 1.0319132 0.94261515 0.7968943 1.2877485 2.5369298
1.7315358 1.0566131 0.89208406 0.77080363 2.304644 1.1918359 1.0822201 1.4641644
1.3321098 0.8188704 0.5375912 0.87329286 1.943846 1.0513562 1.4249374 1.748605
0.43543005 0.8109055 0.8341417 1.4187927 2.1031494 0.3976775 0.98118645 0.88430065
0.9580196 1.6675485 0.8665375 1.1253105 1.3771803 1.2753073 0.54882 1.5377511
1.8191483 1.4400526 1.9384807 1.2472442 1.3161496 1.4288061 0.89360976 0.74259555
1.7935097 1.6255528 1.0428569 1.3844686 1.2937286 0.852653 0.7164833 2.7844346
00000000: bb59 b03f 9d3d d73f 1234 0c40 23c4 3e40
00000010: 46d2 843f f44d 6c3f 17dc a83f f150 923f
00000020: b836 6e3f 9130 d43f 1dd4 c03f bb15 843f
00000030: 3a4f 713f 4401 4c3f f1d4 a43f 0f5d 2240
00000040: f7a2 dd3f 193f 873f 9f5f 643f 6353 453f
00000050: 4a7f 1340 148e 983f 3086 8a3f bd69 bb3f
00000060: 9382 aa3f 7ea1 513f 949f 093f 1f90 5f3f
00000070: f2cf f83f d792 863f 5964 b63f 4ad2 df3f
00000080: b0f0 de3e 8197 4f3f 4f8a 553f 009b b53f
00000090: 009a 0640 639c cb3e 092f 7b3f 8761 623f
000000a0: c640 753f 3b72 d53f 67d5 5d3f 2d0a 903f
000000b0: 7247 b03f 453d a33f 787f 0c3f 07d5 c43f
000000c0: dad9 e83f a553 b83f 2320 f83f b3a5 9f3f
000000d0: 9777 a83f 1ee3 b63f 9cc3 643f be1a 3e3f
000000e0: ba91 e53f 1d12 d03f 567c 853f 4436 b13f
000000f0: e698 a53f 7847 5a3f 736b 373f 2d34 3240

body.block3.conv.weight f4 [64, 64, 3, 3]
0.0014712429 -0.08020297 0.0012868152 -0.008113845 0.019091796 0.01957495 0.029506788 0.03545115
-0.023573527 0.023947963 0.010471826 -0.014619126 0.011591304 -0.014780721 0.0140935015 -0.044923786
-0.0475891 -0.02520268 0.0007798718 -0.022611396 0.013293851 -0.012314347 -0.023876596 -0.011182991
0.018066438 -0.015139135 -0.0058517037 -0.006535243 -0.032579534 -0.007496151 0.015551984 -0.015936363
0.045506116 0.04349189 0.054443628 0.0452048 -0.025638381 -0.02734881 -0.049146272 -0.04079662
-0.00031921137 0.016869737 -0.040156994 0.022891404 -0.028742151 -0.019702302 0.038691513 0.031895246
0.0026206945 0.026090953 -0.020823438 0.0072621205 -0.002437478 0.021008847 0.01385933 -0.021277424
-0.04768712 -0.0018148533 -0.021175565 -0.010735492 -0.030376352 -0.020959055 0.006795719 -0.062247694
-0.02038942 -0.07168822 0.021717904 0.0046953587 -0.007398521 0.0475621 0.057472482 -0.010568497
-0.027202994 -0.049575556 -0.023847636 -0.01818665 -0.0036950174 -0.056502786 -0.02302498 0.0014056737
-0.025770271 -0.07516261 -0.034171797 0.0056186086 -0.021780537 0.009082528 0.025681883 -0.028651195
-0.017757094 -0.016556745 -0.00059710915 -0.013989487 -0.015849715 0.009882832 0.0073024123 0.0038246138
0.06686199 0.02999642 0.039596274 0.0049678013 -0.045498375 0.004666382 0.0124000525 -0.0015027097
-0.0003374374 -0.021872811 0.017280702 -0.00091994077 -0.0018479085 0.015338429 0.019061267 0.07664835
0.016441632 -0.0120852385 0.022611607 0.03386923 -0.0499652 -0.0035162836 -0.008898622 -0.04862049
-0.02953474 -0.029936474 -0.040421333 -0.031660054 -0.04219529 -0.021731049 -0.023132008 -0.0015948379
0.004896664 -0.01928948 -0.0011756581 0.028073782 0.0027267805 -0.013728077 0.039619368 -0.014447793
-0.009323279 -0.00801022 0.05275454 -0.01029652 0.038131494 0.014238181 -0.013054393 0.010576054
-0.094211794 -0.059127524 -0.02045787 -0.046736717 -0.04811873 -0.009203097 0.036058486 0.037463643
0.022831794 -0.05503227 -0.06136861 -0.055765353 -0.022439083 -0.026229944 -0.010338842 -0.0057649636
-0.033037823 -0.014515767 0.051057342 0.010768849 0.010889469 -0.016155964 -0.012674917 3.9746996e-05
-0.052400745 -0.014955315 0.014858597 0.02181249 -0.003891093 0.033219013 -0.037679907 0.023393553
0.025729677 -0.010257074 0.022913346 -0.009540097 -0.022191215 -0.045854628 -0.020626726 -0.004835763
0.011135246 -0.040175788 0.010180221 -0.008749464 -0.03608833 -0.039870698 -0.04349714 -0.03769877
0.0029110673 -0.06314294 -0.04088209 0.008875257 -0.059077658 -0.026901534 -0.008010628 0.00395658
0.03193134 -0.023258567 0.012661852 0.010189507 0.031302385 0.02031024 0.017151622 -0.0017069416
0.020428136 -0.0039910288 -0.008998392 -0.05250336 -0.047219474 -0.04844231 -0.041768957 -0.016916005
-0.07641876 -0.009101361 -0.0035598055 0.004224622 0.0031496293 -0.03974986 0.016824674 0.05006798
-0.008423988 -0.0038797923 -0.053707913 0.002818233 -0.043854397 -0.018843483 0.058084797 0.021520916
-0.033156186 0.027456509 -0.00088188157 -0.018622411 0.00522442 0.009426689 -0.035137605 -0.038273457
-0.0015743548 0.009703582 -0.0020387545 -0.056699272 -0.07101113 -0.0482233 -0.00020694647 -0.005295129
-0.011127334 0.0055289534 0.01958912 0.0059733135 -0.018950416 0.01147659 -0.056501143 0.0066523594
00000000: b8d6 c03a 7441 a4bd 5aaa a83a efef 04bc
00000010: 6666 9c3c a55b a03c 38b8 f13c 3a35 113d
00000020: 451d c1bc 852e c43c 0692 2b3c 0f85 6fbc
00000030: 74e9 3d3c d62a 72bc 6ee8 663c 0102 38bd
00000040: caec 42bd da75 cebc 5070 4c3a 893b b9bc
00000050: 74ce 593c 1dc2 49bc da98 c3bc dd38 37bc
00000060: 1100 943c 220a 78bc a6bf bfbb 9725 d6bb
00000070: 1e72 05bd 46a2 f5bb c0cd 7e3c fa8c 82bc
00000080: 9f64 3a3d 8d24 323d 4800 5f3d ab28 393d
00000090: 9507 d2bc 9d0a e0bc 9a4d 49bd 5b1a 27bd
000000a0: d35b a7b9 6732 8a3c a97b 24bd c186 bb3c
000000b0: a974 ebbc b966 a1bc fe7a 1e3d 97a4 023d
000000c0: f5bf 2b3b b2bc d53c ea95 aabc 15f7 ed3b
000000d0: 18be 1fbb bf1a ac3c 3e12 633c fe4d aebc
000000e0: 9253 43bd 5fe0 edba 6178 adbc ebe3 2fbc
000000f0: d4d7 f8bc 53b2 abbc 9fae de3b 70f7 7ebd
00000100: b707 a7bc 46d1 92bd bfe9 b13c 86db 993b
00000110: 4b6f f2bb 7ad0 423d 4468 6b3d 7d27 2dbc
00000120: d0d8 debc bd0f 4bbd 1e5c c3bc 2bfc 94bc
00000130: 1b28 72bb 776f 67bd e29e bcbc 953e b83a
00000140: 2d1c d3bc dbee 99bd baf7 0bbd 4e1c b83b
00000150: 196d b2bc e2ce 143c d062 d23c e9b5 eabc
00000160: 5377 91bc 03a2 87bc 5187 1cba 2934 65bc
00000170: 43d7 81bc 9aeb 213c 1349 ef3b 5fa6 7a3b
00000180: f0ee 883d 0dbb f53c b42f 223d f0c8 a23b
00000190: 815c 3abd 73e8 983b 9729 4b3c 92f6 c4ba
000001a0: 15ea b0b9 9c2e b3bc 4290 8d3c 2e28 71ba
000001b0: 8535 f2ba 094e 7b3c 6026 9c3c cff9 9c3d
000001c0: 9ab0 863c 2a01 46bc fa3b b93c 76ba 0a3d
000001d0: 4fa8 4cbd 7371 66bb 87cb 11bc 4726 47bd
000001e0: d7f2 f1bc 563d f5bc d790 25bd f9ad 01bd
000001f0: f8d4 2cbd 5005 b2bc 567f bdbc e109 d1ba
00000200: 3274 a03b f904 9ebc 8a18 9aba fdfa e53c
00000210: c9b3 323b baeb 60bc eb47 223d 70b6 6cbc
00000220: abc0 18bc 4c3d 03bc 2515 583d bcb2 28bc
00000230: c52f 1c3d 4247 693c 18e2 55bc 3047 2d3c
00000240: 1df2 c0bd b42f 72bd 4397 a7bc 006f 3fbd
00000250: 2518 45bd 96c8 16bc 10b2 133d 7a73 193d
00000260: be09 bb3c 8469 61bd a75d 7bbd 366a 64bd
00000270: 2bd2 b7bc 2ee0 d6bc 3f64 29bc 05e8 bcbb
00000280: ab52 07bd 8ad3 6dbc 8121 513d d46f 303c
00000290: be69 323c 8359 84bc 74aa 4fbc 03b6 2638
000002a0: 2aa2 56bd 2307 75bc 7971 733c 1bb0 b23c
000002b0: b501 7fbb a910 083d 3f56 1abd d6a3 bf3c
000002c0: 0bc7 d23c 490d 28bc c5b4 bb3c 114e 1cbc
000002d0: 5aca b5bc 10d2 3bbd 61f9 a8bc 5275 9ebb
000002e0: 9b70 363c 5e8f 24bd f1ca 263c e959 0fbc
000002f0: 5bd1 13bd 754f 23bd 0f2a 32bd 076a 1abd
00000300: 9bc7 3e3b 1651 81bd fa73 27bd 8769 113c
00000310: 6afb 71bd 9b60 dcbc 023f 03bc 33a6 813b
00000320: 70ca 023d c088 bebc a873 4f3c e4f1 263c
00000330: ee36 003d a961 a63c 8f81 8c3c 75bb dfba
00000340: e858 a73c 2dc7 82bb fe6d 13bc c30d 57bd
00000350: 3569 41bd 726b 46bd ed15 2bbd 6f93 8abc
00000360: 7081 9cbd e01d 15bc a04b 69bb b36e 8a3b
00000370: 036a 4e3b c0d0 22bd e6d3 893c 1514 4d3d
00000380: c404 0abc 1d44 7ebb d4fc 5bbd 1bb2 383b
00000390: aba0 33bd a65d 9abc 53ea 6d3d a24c b03c
000003a0: c8ce 07bd 79ec e03c 122e 67ba 078e 98bc
000003b0: 9d31 ab3b 6672 1a3c 73ec 0fbd a1c4 1cbd
000003c0: 955a ceba c6fb 1e3c a09c 05bb 7f3d 68bd
000003d0: 496e 91bd cc85 45bd c5ff 58b9 c382 adbb
000003e0: 6c4f 36bc 392c b53b 5d79 a03c c9bb c33b
000003f0: e73d 9bbc 4f08 3c3c be6d 67bd 09fc d93b

body.block3.conv.bias f4 [64]
0.014944183 -0.009218733 0.009971306 -0.023012256 0.012854737 0.00130611 0.029967142 -0.026971009
-0.027293101 0.031405635 0.030416232 0.020691175 -0.027379798 0.041273493 0.022364365 -0.009670235
-0.017758297 -0.030488824 -0.018796422 0.004888066 -0.020839376 -0.034187824 0.04283743 0.03081523
-0.026842551 0.042431306 -0.003905409 0.026397178 -0.002114145 0.023419188 0.014290318 -0.017321791
-0.02847237 0.045390066 0.018067155 -0.01576933 -0.022303697 -0.019560998 0.017975502 0.013189941
0.00075757434 0.042912785 0.037370488 0.010131295 -0.026229328 0.04405635 -0.035951123 0.030709947
-0.020653058 0.026710719 -0.014351899 0.022234507 -0.020314284 0.025304908 -0.007309516 -0.003142313
0.0070297723 0.04032438 -0.03312077 -0.011750146 0.022368973 0.025062218 0.027810272 -0.019799989
00000000: 72d8 743c 2b0a 17bc b05e 233c 3384 bcbc
00000010: ad9c 523c c731 ab3a a77d f53c 4ef2 dcbc
00000020: c895 dfbc 32a3 003d 762b f93c 8a80 a93c
00000030: 994b e0bc 650e 293d 7935 b73c e86f 1ebc
00000040: d979 91bc b3c3 f9bc f4fa 99bc 122c a03b
00000050: 57b7 aabc 8808 0cbd 4d76 2f3d 3970 fc3c
00000060: e9e4 dbbc 73cc 2d3d e4f1 7fbb e53e d83c
00000070: 788d 0abb 99d9 bf3c f021 6a3c 6ee6 8dbc
00000080: e33e e9bc efea 393d 9201 943c af2e 81bc
00000090: 3eb6 b6bc 633e a0bc 5c41 933c 9f1a 583c
000000a0: f497 463a 51c5 2f3d cc11 193d bbfd 253c
000000b0: e3de d6bc 6e74 343d 7c41 13bd 6d93 fb3c
000000c0: 9a30 a9bc 70d0 da3c 3a24 6bbc 2425 b63c
000000d0: 246a a6bc 3d4c cf3c aa84 efbb 44ef 4dbb
000000e0: 015a e63b 2d2b 253d a5a9 07bd af83 40bc
000000f0: 233f b73c 484f cd3c 5ed2 e33c 9633 a2bc
