trained_models/sinGan/mountains/scale_factor=0.750000,alpha=10/1/netD.pth (torch_old, 122821 bytes, 25 tensors)

head.conv.weight f4 [32, 3, 3, 3]
0	0x3d8a9848	0.067673266
1	0x3ca6f034	0.02037821
2	0x3d1cff9a	0.0383297
3	0xbd298cb0	-0.041393936
4	0xbb943136	-0.004522468
5	0xbcab6fb1	-0.020927282
6	0xbdc41874	-0.095749766
7	0xbd81f366	-0.06345253
8	0xbdd160f5	-0.10223571
9	0x3da152b2	0.07877101
10	0x3d3a44ed	0.04547589
11	0x3d8dbc4a	0.06920679
12	0x391d15b5	0.00014980773
13	0x3c8e210e	0.017349746
14	0x3b70f1ad	0.0036765144
15	0xbd307253	-0.043077778
16	0xbcb9ad0f	-0.022665529
17	0xbd81ad9a	-0.0633194
18	0x3db5fb56	0.08885829
19	0x3d295b74	0.041346982
20	0x3d87de1d	0.066341616
21	0x3c8f5700	0.01749754
22	0x3cb6fc0a	0.022336978
23	0x3c96473e	0.018344518
24	0xbd1249db	-0.035714965
25	0xbcb39048	-0.021919385
26	0xbd1ffcaf	-0.039059337
27	0xbdd1dc3f	-0.10247087
28	0x3ca3bd67	0.019987775
29	0xbd580d49	-0.052747045
30	0xbcebf935	-0.028805355
31	0x3d3b64eb	0.04575054
32	0x3d105006	0.035232566
33	0x3cff6e88	0.031180635
34	0x3d64accc	0.055828854
35	0x3b1133e9	0.0022156185
36	0xbe1332bf	-0.14374827
37	0xb9085be6	-0.00013004206
38	0xbde05c7c	-0.1095514
39	0xbcf84599	-0.030306624
40	0x3c392ce2	0.011302205
41	0xbc839ee2	-0.016066972
42	0xbcada516	-0.021196883
43	0x3c249e76	0.010047546
44	0xbd5975d3	-0.05309088
45	0xbcd776df	-0.0263018
46	0x3d693fd0	0.056945622
47	0xbd5858c2	-0.05281902
48	0x3c9a2ad9	0.01881926
49	0x3b9f1112	0.00485433
50	0xbd31171a	-0.043234922
51	0xbd07d128	-0.03315845
52	0x3beb2bf6	0.0071768714
53	0xbd9734bd	-0.07383106
54	0xbce02bf5	-0.02736471
55	0x3a5e8fb3	0.0008490041
56	0xbbd28efd	-0.006425737
57	0xbd17e82d	-0.037086654
58	0xbc4a3cdf	-0.012343614
59	0xbb7b72e2	-0.0038368036
60	0xbb319d9b	-0.0027101997
61	0xbd154f46	-0.036452554
62	0x38e3082b	0.00010825725
63	0x3c42574f	0.011861636
64	0x3d17c8f3	0.037056874
65	0x3d2e95d8	0.04262337
66	0xbd33f1ea	-0.04393188
67	0xbd1dd4fe	-0.038533203
68	0x3c08b37f	0.008343576
69	0x3c669c9a	0.014075423
70	0xbbfec63d	-0.0077750967
71	0x3d81c472	0.06336297
72	0x3db607c5	0.08888201
73	0x3d981955	0.07426707
74	0x3d3456e3	0.044028174
75	0xbd343b87	-0.044002082
76	0xbceef263	-0.029168313
77	0x3cb8b61e	0.022547778
78	0x3d27465f	0.040838595
79	0x3c3a8eaa	0.011386553
80	0x3e3c041b	0.18360941
81	0xbd53f4b2	-0.05174703
82	0x3d128663	0.035772692
83	0x3db9a7e4	0.09065226
84	0xbd9401f0	-0.07226932
85	0xbca957d1	-0.020671757
86	0x3d93851b	0.07203122
87	0xbda2d8a2	-0.07951476
88	0xbc583dcf	-0.01319833
89	0x3d62ebda	0.055400707
90	0xbcdac077	-0.026703103
91	0x3cccd8a6	0.02500565
92	0x3cf40808	0.029788986
93	0xbd4efb9d	-0.050532926
94	0xbc7889e4	-0.015169594
95	0x3d6c1699	0.05763874
96	0xbd4c7eb8	-0.049925536
97	0xbc3dfe66	-0.011596298
98	0x3daa7fdc	0.083251685
99	0xbc8490a9	-0.01618226
100	0x3b5792a5	0.0032893803
101	0xbc5839f0	-0.013197407
102	0xbd333c89	-0.043758903
103	0xbbd30f8d	-0.006441063
104	0x3d2607ab	0.040534656
105	0xbcf5195c	-0.029919319
106	0x3c983832	0.018581484
107	0x3de60131	0.11230696
108	0xbe029da8	-0.12755454
109	0x3ca337ae	0.019924011
110	0xbd903ca1	-0.07042814
111	0xbd78219f	-0.06057894
112	0x3bcaa7c0	0.006184548
113	0xbd7033fa	-0.05864332
114	0xbd41ce07	-0.047315624
115	0x396366f0	0.00021686754
116	0xbd7f9c8c	-0.062405154
117	0xbb36275f	-0.0027794463
118	0x3cb9cc2b	0.022680363
119	0xbd94828e	-0.07251464
120	0x3c1ad3da	0.009449923
121	0xbc896fdd	-0.016776973
122	0xbd259151	-0.040421788
123	0xbd0b1810	-0.033958495
124	0xbc3bbe96	-0.011459013
125	0x3c6b7582	0.014371278
126	0x3d372d1c	0.044720754
127	0x3c907a43	0.017636424
128	0xbe0228dc	-0.12710899
129	0x3d2a6473	0.041599702
130	0x3a568ab2	0.00081841194
131	0xbda75eba	-0.081723645
132	0xbda65d80	-0.081233025
133	0xbc469475	-0.012120356
134	0xbcb5e2f4	-0.022202946
135	0xbd995cea	-0.07488425
136	0xbc9eba52	-0.019375954
137	0x3abfd303	0.001463503
138	0xbd8c256b	-0.068430744
139	0xbc21a548	-0.009866066
140	0x3db916ff	0.09037589
141	0xbcaadf12	-0.020858321
142	0x3d6d0b62	0.057872184
143	0x3e2dee3e	0.16985413
144	0xbd79dfd4	-0.061004475
145	0xbb23016f	-0.002487268
146	0x3b1ae8e9	0.002363736
147	0xbd202505	-0.039097805
148	0x3bc970e7	0.006147492
149	0x3d56a80d	0.05240636
150	0xbcb0cdff	-0.021582602
151	0x3cffc829	0.031223373
152	0x3d7c3121	0.06157029
153	0xbd98f96c	-0.074694484
154	0xbc8b9264	-0.017037578
155	0x3c75920d	0.0149884345
156	0xbd2703da	-0.040775158
157	0x3ba326d6	0.004978995
158	0x3cd1e3c1	0.025621297
159	0xbd3ae6a3	-0.04563011
160	0xb9b36e84	-0.0003422388
161	0xbc16bdf0	-0.009200558
162	0x3c2e1b25	0.010626589
163	0x3c8faa46	0.017537247
164	0x3d0ea204	0.03482248
165	0x3c2cb3a7	0.010540879
166	0xbbd1de47	-0.0064046714
167	0x3d14f871	0.036369745
168	0xbba13257	-0.004919331
169	0x3cd07da0	0.025450528
170	0x3d83d963	0.064379476
171	0x3d492b24	0.049113408
172	0x3cb7c287	0.022431625
173	0xbbbad8c6	-0.005702111
174	0xbb7aeca0	-0.0038288012
175	0xbc8ebe71	-0.017424794
176	0xbcb40200	-0.02197361
177	0xbd85f4bf	-0.06540822
178	0xbc196c01	-0.009364129
179	0xbd5caee9	-0.053877745
180	0x3de5fe01	0.11230088
181	0x3d8e18b3	0.06938305
182	0x3c7cafb5	0.015422751
183	0x3cbd9b7b	0.023145428
184	0xba47724f	-0.0007608281
185	0xbd97d4c7	-0.07413631
186	0xbd9a77eb	-0.07542404
187	0xbcec1d62	-0.028822605
188	0xbdb4a55e	-0.08820604
189	0x3e180e96	0.14849314
190	0xbcb3c48d	-0.021944309
191	0x3e0dc4f2	0.1384466
192	0x3d8e1ea2	0.069394365
193	0x3a0db0a2	0.00054050435
194	0x3d8d4e78	0.06899732
195	0x3d6d2561	0.057896975
196	0xbd63c357	-0.055606212
197	0x3d97afb9	0.07406563
198	0x3d171dad	0.036893535
199	0xbd358c93	-0.044323515
200	0x3dd922f5	0.10602371
201	0xbb9ba625	-0.0047500306
202	0xbcb39ffb	-0.02192687
203	0x3ca48487	0.020082725
204	0x3c98530e	0.018594291
205	0xbd24ec20	-0.04026425
206	0x3d3ea2f9	0.04654214
207	0xbc155bc9	-0.009116122
208	0xbd1b7c57	-0.037960377
209	0x3df189e9	0.117938824
210	0xbd19d204	-0.037553802
211	0xbcc221ff	-0.023697851
212	0x3c6f2287	0.014595634
213	0x3c97af62	0.018516246
214	0x3b6e9ffc	0.0036411276
215	0x3ccd3514	0.025049724
216	0xbcb72161	-0.022354783
217	0xbc186353	-0.0093010245
218	0xbc8badb0	-0.017050594
219	0xbd18861e	-0.03723728
220	0x3c18b494	0.009320397
221	0xbbd38c15	-0.006455908
222	0x3ce5194d	0.027966166
223	0x3c0f912b	0.008762638
224	0xbd28c547	-0.041203763
225	0x3c954371	0.018220635
226	0x3bbf45e4	0.005837189
227	0x3bb831f9	0.0056211916
228	0x3d8318dc	0.06401226
229	0x3ca9da16	0.020733874
230	0xbd04deff	-0.03243923
231	0x3daabb10	0.083364606
232	0xbca1c30c	-0.019746326
233	0xbd5ef443	-0.054432165
234	0x3dc921c0	0.098208904
235	0x3c141779	0.009038799
236	0x3ccc32aa	0.024926502
237	0x3e0f5900	0.13998795
238	0xbc308b8d	-0.010775459
239	0xbd802b1e	-0.06258224
240	0x3dd1de2e	0.102474555
241	0xbd570350	-0.052493393
242	0xbdd37161	-0.1032436
243	0xbd5ed175	-0.054398973
244	0xbc724831	-0.01478772
245	0xbc052cb4	-0.008128334
246	0xbd598295	-0.05310305
247	0x3b8fa80e	0.0043840474
248	0x3d266a6a	0.040628828
249	0xbcb165af	-0.021654932
250	0x3c6a8b7d	0.014315483
251	0x3d3b55eb	0.045736235
252	0xbcbfcf3b	-0.023414245
253	0x3d1c6351	0.038180653
254	0xbd25e69d	-0.040503133
255	0xbce41de4	-0.027846284

head.conv.bias f4 [32]
0	0x3e6ebf15	0.2331508
1	0xbe755928	-0.23959792
2	0xbde16122	-0.11004855
3	0xbf0eed1b	-0.55830544
4	0x3c299f1d	0.010352877
5	0x3eaf14e0	0.34195614
6	0xbedfa32d	-0.4367918
7	0x3e03fa50	0.12888455
8	0x3ebd4e30	0.36973715
9	0xbdf4307f	-0.119233124
10	0x3e9883e1	0.29788116
11	0x3eab17eb	0.33416685
12	0x3cdde41d	0.027086312
13	0x3d9ad5ef	0.07560336
14	0x3eb36ff7	0.3504636
15	0xbdd206c4	-0.10255197
16	0xbe327055	-0.17425664
17	0x3f5f2261	0.87161833
18	0x3d32f6c4	0.043692365
19	0x3eb5c083	0.35498437
20	0xbb83ee2b	-0.0040261946
21	0x3f12c1a3	0.57326716
22	0xbd2b8e10	-0.04188353
23	0x3f3544b5	0.70807964
24	0x3ea52116	0.32251805
25	0x3d12c057	0.03582796
26	0xbd8cf5dd	-0.06882832
27	0x3cee604b	0.02909865
28	0xbe62cd36	-0.22148594
29	0xbe359165	-0.17731245
30	0xbf127b12	-0.5721904
31	0x3f376224	0.71634126

head.norm.weight f4 [32]
0	0x3f696797	0.9117369
1	0x3f6e62a8	0.9311929
2	0x3f892543	1.0714496
3	0x3f5f8741	0.87315756
4	0x3f73f718	0.9529891
5	0x3f6a5537	0.9153628
6	0x3f51a76b	0.81896085
7	0x3f83157c	1.0240932
8	0x3f5c2214	0.859895
9	0x3f739210	0.9514475
10	0x3f805130	1.0024776
11	0x3f7947b3	0.9737503
12	0x3f8bca41	1.0921098
13	0x3f484cd1	0.7824221
14	0x3f796662	0.9742185
15	0x3f6b371b	0.9188096
16	0x3f466229	0.7749353
17	0x3f177bad	0.5917309
18	0x3f6d3322	0.9265615
19	0x3f8caf0e	1.0990922
20	0x3f281566	0.6565765
21	0x3f5f62f8	0.8726039
22	0x3f58cd5a	0.8468834
23	0x3f538736	0.8262819
24	0x3f49d760	0.7884426
25	0x3f811f21	1.0087625
26	0x3f396c94	0.724313
27	0x3f584e84	0.84494805
28	0x3f7d8382	0.9902879
29	0x3f89b48f	1.0758227
30	0x3f82acd2	1.020899
31	0x3f55be69	0.8349367

head.norm.bias f4 [32]
0	0x3f405261	0.751257
1	0x3e5af96c	0.2138421
2	0x3ec08877	0.37604114
3	0x3ef367b6	0.47540063
4	0x3e852cef	0.26010844
5	0x3f046632	0.5171844
6	0x3f02b72a	0.51060736
7	0x3ec73e7a	0.38914853
8	0x3f01311f	0.5046558
9	0x3e7ef309	0.24897398
10	0x3e1ba30d	0.15198918
11	0xbc02d2d1	-0.007984833
12	0x3ef95524	0.4869777
13	0x3ee240a6	0.44189948
14	0x3e366360	0.17811346
15	0x3edd99bf	0.4328136
16	0x3e579c79	0.21055783
17	0x3f81db8f	1.0145129
18	0x3e17f6de	0.14840266
19	0x3d6e6e4e	0.058210663
20	0x3f7b9d79	0.9828716
21	0x3f279192	0.654565
22	0x3e1c06de	0.15236995
23	0x3f369294	0.7131741
24	0x3f02e06b	0.51123685
25	0x3e5e8830	0.21731639
26	0x3f3cc7c4	0.7374232
27	0x3f59257c	0.8482282
28	0x3d4828c8	0.048867017
29	0x3e8dafcc	0.27673185
30	0xbe21b0eb	-0.15790145
31	0x3e2ce807	0.16885386

head.norm.running_mean f4 [32]
0	0x3e8442c3	0.25832185
1	0xbe43f439	-0.19136132
2	0xbe2a9db8	-0.16661727
3	0xbf15d38b	-0.58525914
4	0x3dec70a9	0.11544926
5	0x3ea9a0e2	0.33130556
6	0xbed607dc	-0.4180287
7	0x3d36bf07	0.04461577
8	0x3ebc106e	0.36731285
9	0xbd340d25	-0.043957848
10	0x3ec7b428	0.39004636
11	0x3eb86e9f	0.36021897
12	0xbd52f58a	-0.051503696
13	0x3d785864	0.06063117
14	0x3ec91e10	0.39280748
15	0xbd14219a	-0.036164857
16	0xbe3a3b07	-0.1818658
17	0x3f634c17	0.8878798
18	0x3dd26a23	0.1027415
19	0x3eaa10bd	0.33215895
20	0xbb8cfce9	-0.00430261
21	0x3f19b429	0.6004053
22	0x3ce412f3	0.027841067
23	0x3f3a0367	0.7266144
24	0x3ec0ef37	0.37682506
25	0xbb884555	-0.0041586556
26	0xbd5f16fe	-0.054465286
27	0x3c75681a	0.014978433
28	0xbe0ed751	-0.13949324
29	0xbe82e553	-0.25565585
30	0xbf17ed7e	-0.5934676
31	0x3f397dcb	0.7245757

head.norm.running_var f4 [32]
0	0x3cd6a279	0.02620052
1	0x3d431e01	0.047636036
2	0x3d37bbaa	0.044856705
3	0x3be7ecd7	0.007077794
4	0x3da3cc93	0.07998004
5	0x3c1873b3	0.009304929
6	0x3c16a974	0.009195674
7	0x3d59cd4a	0.053174295
8	0x3c52688c	0.012842309
9	0x3d8c9965	0.06865195
10	0x3d8a6e72	0.06759347
11	0x3cdf3097	0.02724485
12	0x3d5ccd97	0.053907003
13	0x3ba774e7	0.0051103714
14	0x3c82b5a7	0.01595576
15	0x3d3944a9	0.045231495
16	0x3b671043	0.0035257495
17	0x3bcb5504	0.006205203
18	0x3d2e61cc	0.042573735
19	0x3cae0b8f	0.021245746
20	0x3c07f451	0.008297996
21	0x3c96d275	0.0184109
22	0x3d03d092	0.03218133
23	0x3c8bf88b	0.017086288
24	0x3cd1cf16	0.025611442
25	0x3d7ad833	0.06124134
26	0x3ba8366c	0.0051334407
27	0x3becd0b4	0.007227028
28	0x3d9c2ca0	0.07625699
29	0x3d7e52d7	0.06209072
30	0x3c89608c	0.01676967
31	0x3b5d8219	0.0033799468

body.block1.conv.weight f4 [32, 32, 3, 3]
0	0xbd43d95c	-0.047814712
1	0xbd95cb6f	-0.073141925
2	0xbe15e43e	-0.14637849
3	0xbdb8ce2f	-0.090237014
4	0xbd847f49	-0.0646959
5	0xbe02bc3c	-0.12767118
6	0xbc2217b3	-0.009893346
7	0x3cec7c8d	0.028867984
8	0x3cfb9917	0.030712647
9	0xbc89eb4c	-0.016835831
10	0xbc66ce62	-0.014087291
11	0x3d1e9c34	0.038723186
12	0xbdb4b405	-0.088233985
13	0xbd0e78f9	-0.034783337
14	0xbc0ebc05	-0.00871182
15	0xbdd41c95	-0.10357014
16	0xbca7af0e	-0.020469215
17	0x3ce3159c	0.027720265
18	0x3c8279df	0.015927253
19	0x3cd8c552	0.026461277
20	0x3d4216f5	0.047385175
21	0xbc9e1c24	-0.019300528
22	0xbcf80353	-0.030275023
23	0xbd6e918e	-0.05824428
24	0xbdea7a0b	-0.11449059
25	0xbdfeb5f8	-0.124370515
26	0xbe787290	-0.24262452
27	0xbd36f2f3	-0.04466529
28	0xbb898551	-0.0041968008
29	0xbca8e5b6	-0.020617347
30	0xbc73af33	-0.014873314
31	0x3d79e786	0.061011814
32	0x3dd5fe56	0.10448901
33	0xbd9299b4	-0.07158223
34	0xbd46b88f	-0.048515853
35	0xbdee40b6	-0.116334364
36	0xbd6856ec	-0.05672352
37	0xbd9b7c5f	-0.07592081
38	0xbda2f241	-0.079563625
39	0xbd2087c8	-0.03919199
40	0xbca3e068	-0.020004466
41	0xbce5f84e	-0.028072502
42	0xbcab629e	-0.020921048
43	0x3cbea932	0.023274038
44	0x3d2d5e82	0.042326458
45	0x3d883b05	0.06651882
46	0x3d3fbb84	0.04680969
47	0x3bd1de52	0.0064046765
48	0xbd6f255b	-0.058385234
49	0xbcf14406	-0.029451381
50	0x3a276f08	0.00063870894
51	0xbd72da7c	-0.059290394
52	0xbd93d4e3	-0.07218339
53	0xbdb3bf3b	-0.08776709
54	0xbc28bc19	-0.010298752
55	0x3d52d907	0.051476505
56	0x3da77c52	0.08178009
57	0xbd8d9817	-0.069137745
58	0x3d04cb6d	0.032420564
59	0x3c23294c	0.009958576
60	0xbe10101b	-0.14068644
61	0xbd89bda9	-0.06725628
62	0x3d088d27	0.03333774
63	0x3bb7cbbf	0.005609005
64	0xbd432f29	-0.047652397
65	0xbdd0a0b2	-0.101869
66	0x3b2739a5	0.0025516537
67	0xb98ecddb	-0.00027237725
68	0xbc980737	-0.018558128
69	0x3d42d31e	0.04756462
70	0x3c3023f2	0.0107507575
71	0x3cd9803a	0.026550401
72	0xbcd6e0df	-0.026230274
73	0xbc82875f	-0.01593369
74	0xbb6bbe87	-0.0035971717
75	0xbd4a0e43	-0.049330007
76	0xbd120400	-0.035648346
77	0x3d208e8d	0.039198447
78	0xbd002d8f	-0.031293448
79	0xbcd118e0	-0.025524557
80	0xbd5f8f76	-0.054580174
81	0xbcaa7461	-0.020807447
82	0xbd6b2b0f	-0.05741411
83	0x3c50907e	0.012729762
84	0xbd58d530	-0.052937686
85	0xbd0593d0	-0.032611668
86	0xbd1d8d70	-0.038464963
87	0xbd578d73	-0.05262513
88	0xbdad8735	-0.08473054
89	0x3cdc035b	0.026857069
90	0xbbd6182f	-0.0065336446
91	0x3c128483	0.008942726
92	0x3d25a14d	0.04043703
93	0x3d1d4860	0.0383991
94	0xbc4ce24e	-0.012505127
95	0x3d17a31d	0.03702079
96	0xbdc75509	-0.09733016
97	0xbd34ca5e	-0.044138305
98	0x3d366dcc	0.044538304
99	0xbe1d1e65	-0.15343626
100	0xbda0c3df	-0.078498594
101	0xbd9dc940	-0.07704401
102	0xbd622f97	-0.055221166
103	0xbc17d093	-0.009266037
104	0x3aa50711	0.0012590607
105	0xbd333067	-0.043747332
106	0xbc05f309	-0.00817562
107	0xbcb9674c	-0.022632264
108	0x3d66b08b	0.05632071
109	0xbca7d27f	-0.020486115
110	0x3ca885ea	0.020571668
111	0xbd4c28e5	-0.049843688
112	0x3bd0ceb7	0.0063722986
113	0x3d6b2770	0.057410657
114	0xbc706d91	-0.01467456
115	0xbd1ab22f	-0.037767585
116	0xbd8441cb	-0.064578615
117	0xbd5f4f24	-0.054518834
118	0xbcb7e55a	-0.02244823
119	0xbd4563cf	-0.048190888
120	0xbcbd5bb4	-0.023115017
121	0x3b965094	0.0045872424
122	0x3d929736	0.071577474
123	0x3c1528c1	0.009103955
124	0xbc9e8129	-0.019348698
125	0x3c978acd	0.018498803
126	0xbdd1ecbe	-0.10250233
127	0xbd038f2f	-0.032118972
128	0x3dbe3844	0.092880756
129	0xbc161c0c	-0.00916196
130	0x3cf8e808	0.030384079
131	0x3c356ebc	0.011073764
132	0xbbda960c	-0.006670719
133	0x3c1d3c70	0.009596929
134	0x3cddcafc	0.02707433
135	0xbd856e0c	-0.065151304
136	0xbca1e3d8	-0.019761965
137	0x3b702337	0.0036642083
138	0xbc1d04f0	-0.009583697
139	0xbc8fa305	-0.017533788
140	0x3ba5ad13	0.0050560324
141	0xbd943f74	-0.07238665
142	0xbd261d22	-0.040555127
143	0xbc4d5af4	-0.012533892
144	0xbc967b63	-0.018369382
145	0x3c02b68a	0.007978091
146	0x3cd099f7	0.025464041
147	0x3bab0c72	0.0052199895
148	0xbb0299a5	-0.0019928005
149	0xbd0a1202	-0.03370858
150	0xbd7e0811	-0.06201941
151	0xbc89cbaa	-0.016820747
152	0xbdbe5e08	-0.09295279
153	0x3c7ebbff	0.015547751
154	0x3dcf37cb	0.101180635
155	0x3d35a872	0.044350095
156	0x3d4887b8	0.048957556
157	0x3d1f3788	0.038871318
158	0xbbe0355e	-0.0068422994
159	0xbd427591	-0.0474754
160	0x3c758cc3	0.0149871735
161	0x3d4d3963	0.050103556
162	0x3cb2d0b3	0.021828031
163	0xbb930a4c	-0.0044873115
164	0xba5c48bf	-0.0008403174
165	0xbd3fad24	-0.04679598
166	0x3d448227	0.047975685
167	0x3d824b2b	0.063619934
168	0xbd84665a	-0.064648345
169	0xbcb78473	-0.022402024
170	0x3d5cb9de	0.053888194
171	0x3cf0d69c	0.029399209
172	0x3d5033eb	0.050830763
173	0xbd1fcd9b	-0.03901444
174	0xbd48469f	-0.048895475
175	0x3c08583b	0.008321817
176	0xbc590fbf	-0.013248383
177	0xbd3a7ca3	-0.04552902
178	0x3876b478	5.8819045e-05
179	0xbd959aa8	-0.07304889
180	0xbc7fb59d	-0.015607265
181	0xbccef7dd	-0.025264675
182	0xbd8a0507	-0.0673924
183	0xbd9fa3cf	-0.07794916
184	0xbd552a27	-0.052042153
185	0xbd663d84	-0.05621101
186	0xbcbcf20e	-0.02306464
187	0xbc891688	-0.016734377
188	0x3dd8d5d0	0.105876565
189	0xbd50b304	-0.050951973
190	0xbd244831	-0.04010791
191	0xbde381e8	-0.11108762
192	0x3c43ec70	0.011958227
193	0x3cc46f13	0.023978746
194	0xbc499535	-0.01230364
195	0x3dc57deb	0.096431576
196	0x3da3f8b2	0.08006419
197	0x3d57807d	0.05261277
198	0xbd2115d4	-0.039327458
199	0xbd6abf56	-0.05731138
200	0x3cf47ab3	0.029843664
201	0xbd7ba003	-0.061431896
202	0x3d4fdc28	0.050747067
203	0x3d917a10	0.0710336
204	0xbe1cdc46	-0.15318403
205	0xbd8b2686	-0.06794457
206	0x3d28aff8	0.041183442
207	0x3c2c9a4e	0.010534836
208	0xbcda8e7d	-0.026679272
209	0xbc85a798	-0.016315266
210	0x3c27c90f	0.010240807
211	0xbcb549cf	-0.022129921
212	0x3c51eec6	0.012813276
213	0xbd19a6d7	-0.037512626
214	0x3c8afeb0	0.016967148
215	0x3d827876	0.06370632
216	0xbdb2df10	-0.08733952
217	0xbd315ca4	-0.04330124
218	0xbd47fed3	-0.048827004
219	0x3c85ca06	0.016331684
220	0x3d836168	0.06415063
221	0x3d3d540a	0.046222724
222	0xbe07306f	-0.1320207
223	0xbcafb965	-0.021450708
224	0x3d830cfe	0.063989624
225	0xb9d8e980	-0.00041372702
226	0xbd247129	-0.04014698
227	0xbdf4b902	-0.1194935
228	0xbd746f1a	-0.059676267
229	0xbcc28976	-0.023747187
230	0xbd32cc65	-0.043651957
231	0x3de46467	0.11151963
232	0x3dd00a2f	0.10158192
233	0x3dad15de	0.084514365
234	0xbcd55c65	-0.026045034
235	0xbc212f63	-0.009837958
236	0xbcae9afe	-0.02131414
237	0x3d8744f7	0.06604951
238	0x3c9c742f	0.01909837
239	0x3d6f0d7f	0.05836248
240	0xbd97c5e2	-0.0741079
241	0xbcb521ae	-0.022110786
242	0x3e039073	0.12848072
243	0x3be878a5	0.00709446
244	0xbb542864	-0.0032372708
245	0xbceefd67	-0.029173566
246	0xbca0cde6	-0.01962943
247	0x3bef17a2	0.0072965184
248	0x3c8bfc57	0.017088098
249	0xbc854847	-0.016269816
250	0xbc1b5da8	-0.009482779
251	0xbd2427d4	-0.040077046
252	0xbcc94cec	-0.024572812
253	0xba3a5950	-0.00071086455
254	0xbab65149	-0.0013909723
255	0x3d2611c1	0.040544275

body.block1.conv.bias f4 [32]
0	0x3d60408e	0.054749064
1	0x3c731ea3	0.014838847
2	0x3d59b09f	0.053146955
3	0x3de74762	0.11292912
4	0x3d33c6ed	0.043890882
5	0xbcf1bf67	-0.029510213
6	0x3dda88c9	0.10670621
7	0xbca17084	-0.019706972
8	0x3d129339	0.035784934
9	0x3db864f1	0.09003628
10	0x3e28cd16	0.16484484
11	0x3c5bd881	0.013418318
12	0x3d245d1f	0.04012787
13	0xbc8ab209	-0.016930597
14	0xbd40f3b1	-0.047107402
15	0x3dadf7c7	0.084945254
16	0x3d653ca2	0.055966027
17	0x3d2560a3	0.040375363
18	0xbd0f4bb5	-0.03498431
19	0xbd5111d5	-0.051042397
20	0x3e01c1c6	0.12671575
21	0xbcddbbda	-0.027067114
22	0xbc9b7eb2	-0.018981311
23	0xbd9adc0e	-0.07561503
24	0x3b4aca33	0.0030943274
25	0xbd1a2ee1	-0.037642363
26	0x3d8b83e6	0.06812267
27	0x3cfe0556	0.031008404
28	0x3d973e11	0.07384885
29	0x3c99130b	0.018685838
30	0x3d28fcd0	0.041256726
31	0x3d092f1d	0.033492196

body.block1.norm.weight f4 [32]
0	0x3f41e740	0.75743484
1	0x3f78b1e2	0.9714643
2	0x3f5e87fb	0.8692624
3	0x3f30bb00	0.6903534
4	0x3f69c4b1	0.9131575
5	0x3f3f909c	0.7483003
6	0x3f46a0a6	0.7758888
7	0x3f88d93f	1.0691298
8	0x3f3cbdfa	0.7372738
9	0x3f6f2fdf	0.9343242
10	0x3f52f93d	0.8241156
11	0x3f73754c	0.95100856
12	0x3f664bb2	0.8995925
13	0x3f6f6789	0.9351736
14	0x3efabe1c	0.48973167
15	0x3f3fe424	0.7495749
16	0x3f481b76	0.781669
17	0x3f4d2151	0.8012896
18	0x3f828009	1.0195323
19	0x3f324489	0.69635826
20	0x3f8e0224	1.1094403
21	0x3f64c958	0.89369726
22	0x3f3c462f	0.7354459
23	0x3f744713	0.9542095
24	0x3f3f81d3	0.7480747
25	0x3f63fdae	0.8905896
26	0x3f7780c8	0.9668088
27	0x3f8b4f34	1.0883546
28	0x3f61f015	0.8825696
29	0x3f55d24e	0.83524024
30	0x3f4029d7	0.7506384
31	0x3f8288b4	1.0197968

body.block1.norm.bias f4 [32]
0	0x3eb9205b	0.36157498
1	0x3e40c31c	0.18824428
2	0x3f08a5fb	0.53378266
3	0x3f5b5da8	0.85689783
4	0x3ec724e0	0.3889532
5	0x3f4c4cd9	0.7980476
6	0x3f659dd1	0.89693934
7	0x3e60ec2b	0.21965091
8	0x3f53ad88	0.8268666
9	0x3f182ce9	0.5944353
10	0x3f3d769a	0.74009097
11	0x3e6f2527	0.23354016
12	0x3f00a2ce	0.5024842
13	0xbe4a652f	-0.19765161
14	0x3fb542bc	1.4160991
15	0x3f03aa84	0.5143206
16	0x3f506649	0.81406075
17	0x3f450490	0.76960087
18	0xbd231c6b	-0.039822023
19	0x3f597df3	0.8495781
20	0x3d9d6292	0.076848164
21	0x3f40ef43	0.75365084
22	0x3ebf2a9d	0.373372
23	0x3e6df8ff	0.23239516
24	0x3f658028	0.89648676
25	0x3f0dd54b	0.55403584
26	0x3f113c5c	0.56732726
27	0x3efbac8e	0.49155086
28	0x3f2dbbe0	0.678648
29	0x3f32b733	0.6981079
30	0x3f1097fb	0.56481904
31	0x3ecfcd4d	0.4058632

body.block1.norm.running_mean f4 [32]
0	0xbfdecc2c	-1.7406058
1	0xbf1b8090	-0.60743046
2	0xbd68a635	-0.056799132
3	0x3fb9387a	1.447036
4	0x40131c5d	2.2986062
5	0xbfe049f5	-1.752257
6	0x3f668663	0.9004881
7	0xc002f590	-2.046238
8	0xbe7fd2ec	-0.24982804
9	0x3fbb4927	1.4631699
10	0xbfba56eb	-1.4557775
11	0xbf82d996	-1.0222652
12	0x3f5f325a	0.87186205
13	0xc046987e	-3.1030574
14	0xbfd8b057	-1.6928815
15	0x3faff9a0	1.3748055
16	0xbfe82851	-1.8137304
17	0x3f122ab7	0.5709643
18	0xbe94ea5f	-0.2908506
19	0x3f1ca8b6	0.6119493
20	0x3f3410b2	0.70337975
21	0xc0225866	-2.5366454
22	0xbfa595c9	-1.2936336
23	0xbe0a4f93	-0.13506918
24	0xbee9820c	-0.4560703
25	0x3daba0eb	0.08380302
26	0xbf8cbd7a	-1.0995324
27	0xc009eb9f	-2.1550062
28	0xc0110483	-2.2659004
29	0x3f827dcd	1.0194641
30	0x3fa1a4d1	1.2628423
31	0x3bce42a1	0.006294564

body.block1.norm.running_var f4 [32]
0	0x3e8c59f5	0.27412382
1	0x3ef44644	0.47709858
2	0x3f472b44	0.77800393
3	0x3f19fe75	0.60153896
4	0x3f00fedb	0.5038888
5	0x3f3e5b95	0.74358493
6	0x3f29cf85	0.66332275
7	0x3f7d41b9	0.9892841
8	0x3ee098dc	0.43866622
9	0x3f4fd16e	0.8117894
10	0x3f9e6968	1.2375917
11	0x3f1ceef8	0.6130214
12	0x3fe2eae6	1.7727935
13	0x3f375784	0.71617913
14	0x3f09b5ff	0.5379333
15	0x3ea4f80d	0.32220498
16	0x3f3fc399	0.74907833
17	0x3e8ab818	0.27093577
18	0x3eda5b99	0.42648008
19	0x3e95cad9	0.29256323
20	0x40071efe	2.1112666
21	0x3f056121	0.5210133
22	0x3e2af749	0.16695894
23	0x3f7233ae	0.94610107
24	0x3ef8e81b	0.48614582
25	0x3eecc6d7	0.46245453
26	0x3f9ea0c8	1.2392817
27	0x3febfe05	1.8436896
28	0x3f55c50b	0.8350379
29	0x3f6f4a9e	0.9347323
30	0x3f0014b3	0.50031585
31	0x3fa73e00	1.3065796

body.block2.conv.weight f4 [32, 32, 3, 3]
0	0x3d575907	0.052575137
1	0x3da37602	0.079814926
2	0x3da5717b	0.08078285
3	0x3d92dbe8	0.0717085
4	0x3d13a3ae	0.03604477
5	0x3d60456f	0.054753717
6	0xbc0c08d2	-0.008547025
7	0xbd956f3f	-0.07296609
8	0xbd90f346	-0.07077651
9	0xbdae7d44	-0.08519986
10	0xbd89337c	-0.06699273
11	0xbd622dbf	-0.055219408
12	0x3d2891d0	0.041154683
13	0xbd129e88	-0.03579572
14	0xbcedd4d3	-0.029032147
15	0xbc277f58	-0.010223232
16	0xbca11bff	-0.01966667
17	0xbd67e075	-0.056610543
18	0x3bada7ba	0.0052995356
19	0x3d199089	0.037491355
20	0xbca49326	-0.020089697
21	0x3c4da98a	0.012552628
22	0xbb7fcfb8	-0.0039033722
23	0x3b559622	0.0032590707
24	0x3c1d63d6	0.009606322
25	0x38a33995	7.783171e-05
26	0x3d10bd70	0.03533691
27	0xbd4ba5cc	-0.049718663
28	0x3c0f5746	0.008748835
29	0xbcbbe138	-0.022934541
30	0xbe1d75ab	-0.15376918
31	0xbca12af8	-0.01967381
32	0xbd3645d2	-0.04450018
33	0xbda726c0	-0.08161688
34	0xbd488844	-0.048958078
35	0xbb2831b3	-0.0025664389
36	0x3a858ffa	0.0010190003
37	0xbac58754	-0.0015070238
38	0xbc88f45e	-0.016718086
39	0x3ce031c0	0.027367473
40	0xbd1545a2	-0.03644336
41	0xbc41be86	-0.0118252095
42	0x3ccf01bb	0.02526938
43	0xbc2defbd	-0.01061624
44	0x3e20d6a4	0.15706879
45	0x3d5d69bd	0.054055918
46	0x3d6abb87	0.057307746
47	0xbd061962	-0.03273905
48	0x3d2f733f	0.042834517
49	0x3c66874b	0.014070342
50	0xbd2b1c81	-0.04177523
51	0xbe084f19	-0.13311423
52	0xbdd768b6	-0.10518019
53	0xbd3e6668	-0.04648438
54	0x3cb64f6d	0.02225467
55	0x3d85092e	0.064958915
56	0x3c9c402d	0.01907357
57	0x3ccede05	0.025252352
58	0x3b8636a7	0.0040958705
59	0x3d7f7cb4	0.062374786
60	0x3c4faabf	0.012674986
61	0x3c9f5c31	0.01945314
62	0x3dc9d881	0.09855748
63	0x3d2c5092	0.042069025
64	0x3d8629ff	0.06550979
65	0x3dff0244	0.12451604
66	0x3de12d0e	0.109949216
67	0x3d2083fa	0.039188363
68	0x3d93ee32	0.072231665
69	0xbba51110	-0.0050374344
70	0xbcd05467	-0.025430871
71	0x3d856d9c	0.06515047
72	0xbdb0fad4	-0.08641592
73	0xbc26423e	-0.010147629
74	0x3c1b1b51	0.009466962
75	0xbe491182	-0.19635585
76	0xbca3a839	-0.019977676
77	0xbda93e46	-0.08263831
78	0xbc66d93c	-0.014089879
79	0x3c9ca703	0.019122606
80	0x3c63fbc5	0.013915007
81	0xbbf6772e	-0.0075215315
82	0xbb9207bd	-0.004456489
83	0xbc32353f	-0.010876953
84	0x3d3f16c2	0.046652563
85	0x3d204f94	0.03913839
86	0xbba96767	-0.005169797
87	0x3d80b59a	0.06284638
88	0x3cffe5c4	0.03123749
89	0xbc1db13c	-0.0096247755
90	0xbd258918	-0.040413946
91	0xbd369bf2	-0.044582315
92	0xbca3faef	-0.020017115
93	0xbcb01d3d	-0.021498317
94	0xbbacc82c	-0.005272886
95	0x3ca44c45	0.0200559
96	0xbd61f629	-0.055166397
97	0xbd0dcc5a	-0.034618713
98	0xbd332402	-0.04373551
99	0xbcb97e5f	-0.022643266
100	0xbd2577f4	-0.0403976
101	0xbcb0d00b	-0.021583578
102	0x3ccb1054	0.02478806
103	0x3d0f5f29	0.03500286
104	0x3c816505	0.01579524
105	0x3dc80998	0.09767455
106	0x3d358ac8	0.044321805
107	0x3cdf22dc	0.027238302
108	0x3dc6a6c4	0.09699777
109	0x3d885a4a	0.06657846
110	0x3c446e77	0.0119892275
111	0x3dd9928d	0.106236555
112	0x3bb59442	0.0055413553
113	0x3d165f57	0.036712017
114	0x3d3a2ec9	0.045454774
115	0x3ccc6c20	0.024953902
116	0x3d031158	0.031998962
117	0x3dc16da4	0.094447404
118	0x3cea146a	0.028574187
119	0x3d2b7d20	0.041867375
120	0x3d1e37f4	0.03862758
121	0xbca5a622	-0.02022082
122	0x3c126659	0.008935534
123	0xbd8e54ff	-0.069498055
124	0xbd1da472	-0.038486905
125	0x3d801182	0.06253339
126	0x3c94bb77	0.018155796
127	0xbd258a64	-0.040415183
128	0xbce9ab77	-0.028524144
129	0xbd9d9709	-0.07694823
130	0xbca37128	-0.019951418
131	0xbd29f84f	-0.04149657
132	0xbdf105ac	-0.1176866
133	0xbd9940de	-0.074830756
134	0xbe114eb5	-0.1419018
135	0x3d20256d	0.039098192
136	0x3da05d7b	0.0783033
137	0xbd31846a	-0.04333917
138	0x3d807a0b	0.06273278
139	0x3d5e7e00	0.05431938
140	0x3c13ffe3	0.009033176
141	0x3d392649	0.045202527
142	0x3c2d1e19	0.010566258
143	0x3d8bd5cd	0.06827889
144	0x3ced69c5	0.028981099
145	0x3d1204ce	0.035649113
146	0xbda17278	-0.07883161
147	0x3cbd2a77	0.023091538
148	0x3abcd2ab	0.0014406046
149	0xbced1162	-0.028938953
150	0x3d3a5a77	0.04549643
151	0x3d421ee5	0.047392745
152	0x3cd4f106	0.025993835
153	0x3d03c83a	0.032173373
154	0x3c943076	0.018089514
155	0xbdbb5536	-0.09147112
156	0x3c294c76	0.010333171
157	0x3d509bd1	0.050929848
158	0xbbb4d4de	-0.00551854
159	0xbb014411	-0.0019724409
160	0x3c727e5f	0.014800637
161	0x3dad27e9	0.08454878
162	0xbdb9d42f	-0.09073674
163	0xbcdd452e	-0.027010527
164	0xbcd3ba9f	-0.025845824
165	0x3d1b3208	0.03788951
166	0xbd22e27b	-0.03976677
167	0xbca9c5c2	-0.020724181
168	0x3cf53b05	0.02993537
169	0x3ca358cb	0.0199398
170	0x3e0eee2d	0.13958044
171	0x3dceb283	0.10092642
172	0x3d31bcef	0.04339307
173	0x3c850259	0.016236471
174	0x3d38dfb9	0.045135234
175	0xbcc577a3	-0.024104899
176	0xbc358542	-0.011079134
177	0x3d29c9b0	0.04145211
178	0xbbd22061	-0.0064125513
179	0xbcc3064e	-0.023806717
180	0x3d83441b	0.064094745
181	0x3cf8f78c	0.030391477
182	0xbd787502	-0.060658462
183	0x3d89f480	0.06736088
184	0x3d30e8a9	0.043190632
185	0xbd621342	-0.055194147
186	0x3ba4fd77	0.005035098
187	0x3cda7c08	0.02667047
188	0xbda5fa9c	-0.081044406
189	0xbd08bff6	-0.033386193
190	0xb7bf59a6	-2.281072e-05
191	0xbd427124	-0.04747118
192	0xbb45cab2	-0.003018063
193	0x3c790f54	0.015201408
194	0x3ccbbfed	0.02487179
195	0xbc877b25	-0.016538212
196	0x3d5826c9	0.052771363
197	0x3dbd7b80	0.092520714
198	0xbd5d6300	-0.054049492
199	0xbd6f0cc5	-0.058361787
200	0xbcd3325b	-0.025780847
201	0xbcb49132	-0.02204189
202	0xbd081fef	-0.03323358
203	0xbd539749	-0.05165795
204	0x3db4dd88	0.08831316
205	0xbb5aab81	-0.0033366384
206	0x3d5880fb	0.05285738
207	0xbd42e410	-0.04758078
208	0xbc9e4490	-0.019319803
209	0xbd8dfa81	-0.069325455
210	0xbd8213fc	-0.06351468
211	0xbb6ad36c	-0.0035831584
212	0xbc006031	-0.007835434
213	0xbca774df	-0.02044147
214	0x3cce7b43	0.02520526
215	0x3ace5eb5	0.0015744778
216	0xbcb31352	-0.021859799
217	0x3caf322f	0.021386234
218	0xbcf24df7	-0.029578192
219	0x3c9b465f	0.018954454
220	0x3d9f1a72	0.07768716
221	0x3db0d619	0.08634586
222	0x3d5350e0	0.0515908
223	0x3d30b859	0.043144558
224	0x3dbbf1e0	0.09176993
225	0x3d4bfffd	0.049804676
226	0x3c89e24b	0.016831538
227	0x3c5a1cdf	0.0133125475
228	0x3d1d1ed3	0.038359474
229	0x3d25a8a6	0.04044404
230	0x3d19b760	0.037528396
231	0x3c471ac9	0.012152382
232	0xbb8406ae	-0.0040291166
233	0xbd0df9e9	-0.03466216
234	0x3d6865ed	0.05673783
235	0x3d454abd	0.04816698
236	0x3d4d787e	0.05016374
237	0xbb8d2863	-0.004307793
238	0xbc6e0c99	-0.014529371
239	0xbd5e924a	-0.05433873
240	0x3d7b9595	0.06142195
241	0x3d4271ae	0.047471695
242	0x3a9e0d48	0.0012058401
243	0x3b2b29d9	0.0026117472
244	0xbd927e48	-0.071529925
245	0xbdb8b6f2	-0.09019269
246	0x3d8f4861	0.06996227
247	0x3d30ef65	0.043197054
248	0x3cfc5b73	0.030805325
249	0xbd748b3a	-0.05970309
250	0xbcbc1418	-0.0229588
251	0x3d5ad757	0.05342802
252	0xbcc2bb9c	-0.0237711
253	0xbd02ed1b	-0.031964403
254	0xbce9baac	-0.028531395
255	0x3be7e118	0.007076394

body.block2.conv.bias f4 [32]
0	0x3d929f58	0.07159299
1	0xbc8c8895	-0.017154971
2	0xbc5906b3	-0.013246226
3	0x3d8de1ff	0.06927871
4	0xbb03666a	-0.0020050057
5	0xbd96a284	-0.07355216
6	0x3d3b8f3b	0.045790892
7	0x3ce4dac4	0.027936347
8	0x3d94c959	0.072649665
9	0x3e0c77b6	0.13717541
10	0xbcf9691b	-0.030445626
11	0x3cd56e25	0.026053498
12	0xbd2fd50c	-0.042927787
13	0x3d921090	0.07132065
14	0x3c4f0fe5	0.012638067
15	0xbd055d52	-0.0325597
16	0x3d15065b	0.036383014
17	0x3dc6fad6	0.09715812
18	0x3d371070	0.04469341
19	0xbcfebaad	-0.031094873
20	0x3d6879b7	0.0567567
21	0xbc8b6101	-0.017014029
22	0xbd4079a8	-0.04699102
23	0x3d0ef097	0.034897413
24	0x3d687562	0.05675257
25	0x3cd9cf38	0.026588067
26	0x3d92d726	0.071699426
27	0x3d7746da	0.060370304
28	0xbc43fb8e	-0.011961831
29	0x3d466007	0.048431423
30	0xbcab5fac	-0.020919643
31	0x3d9e4c4f	0.077293985

body.block2.norm.weight f4 [32]
0	0x3f483ca6	0.7821754
1	0x3f691f0c	0.91063
2	0x3f7c58e2	0.98573124
3	0x3f5b7b44	0.85734963
4	0x3f45b36e	0.7722691
5	0x3f7c2278	0.98490095
6	0x3f4b3aee	0.79386795
7	0x3f7a63bd	0.9780844
8	0x3f6e62f3	0.93119735
9	0x3f6b5213	0.9192211
10	0x3f680d8c	0.9064567
11	0x3f46ab1a	0.7760483
12	0x3f6d9ced	0.92817575
13	0x3f7b422c	0.98147845
14	0x3f5f4442	0.8721353
15	0x3f73409d	0.9502047
16	0x3f6350ea	0.8879534
17	0x3f81a09d	1.012714
18	0x3f52ba3b	0.82315415
19	0x3f61e9d8	0.8824744
20	0x3f768e84	0.9631121
21	0x3f8189d6	1.0120189
22	0x3f73733e	0.9509772
23	0x3f57d582	0.8431016
24	0x3f4e8722	0.80674946
25	0x3f77f382	0.9685594
26	0x3f765d22	0.9623586
27	0x3f7a4c1c	0.97772384
28	0x3f68f3ab	0.9099681
29	0x3f8d7673	1.1051773
30	0x3f759cb7	0.9594225
31	0x3f7e825c	0.9941766

body.block2.norm.bias f4 [32]
0	0x3f71c52f	0.94441503
1	0x3ec0c3b4	0.3764931
2	0x3e8ea974	0.27863657
3	0x3f217f98	0.6308532
4	0x3efa777d	0.48919287
5	0x3ed4832c	0.41506326
6	0x3f0c080f	0.54699796
7	0x3f17a97a	0.59242976
8	0x3f25f74d	0.64830476
9	0x3f0cb7ab	0.54967755
10	0x3f39fe13	0.7265331
11	0x3f81347a	1.009414
12	0x3eed8650	0.46391535
13	0x3e83f21f	0.2577066
14	0x3f0698a0	0.5257664
15	0x3f1459e5	0.5794967
16	0x3eaccd1d	0.3375024
17	0x3bca6d73	0.006177598
18	0x3f21ef73	0.63255996
19	0x3eeb1662	0.45915514
20	0x3ea8b0fb	0.32947525
21	0xbca4bf8c	-0.020110868
22	0x3ecfbf8b	0.40575823
23	0x3f29542a	0.6614405
24	0x3ec90cb3	0.392675
25	0xbdaeafe5	-0.08529643
26	0x3da82d66	0.08211784
27	0x3eea5b98	0.45773005
28	0x3eea1ca6	0.45724982
29	0x3cf591db	0.029976776
30	0x3ecc22a4	0.3987018
31	0x3df5ed62	0.12008168

body.block2.norm.running_mean f4 [32]
0	0x3f0afa6d	0.5428837
1	0xbee7ae30	-0.45250082
2	0x3f07aa17	0.5299391
3	0xbed78364	-0.4209243
4	0x3d9f6a82	0.07783987
5	0x3e9f83bf	0.31155202
6	0x3f61268d	0.8794945
7	0x3fb0e176	1.3818805
8	0xbfde9073	-1.7387832
9	0xbe9df1cf	-0.30848548
10	0xbed31f22	-0.4123469
11	0x3dcf886c	0.10133442
12	0xbf8f8840	-1.1213455
13	0xbf5726ed	-0.8404377
14	0x3d024e88	0.031813174
15	0x3f3c23db	0.7349221
16	0x3e162fd3	0.14666681
17	0xbf534322	-0.8252431
18	0xbdab7302	-0.083715454
19	0x3e18bfec	0.14916962
20	0x3f3497d5	0.7054418
21	0xc00a31f9	-2.1593
22	0xbfb2aa9d	-1.3958317
23	0xbd7a7269	-0.061144266
24	0xbfa1698d	-1.2610337
25	0xbe85fdc4	-0.2617017
26	0x3ffcfdd9	1.9764968
27	0xbcda5a51	-0.026654394
28	0x3fae3097	1.3608578
29	0xbea22547	-0.31669065
30	0xbff8e54e	-1.9444978
31	0xbfd9aa1d	-1.700504

body.block2.norm.running_var f4 [32]
0	0x3f00e277	0.5034556
1	0x3eefebcd	0.4685959
2	0x3e828bf4	0.254974
3	0x3ebf99f9	0.3742216
4	0x3e1bd79a	0.15218964
5	0x3f261ad0	0.6488466
6	0x3eecd82c	0.46258676
7	0x3f3b9f72	0.7329017
8	0x3f61eae6	0.8824905
9	0x3e9d9077	0.3077428
10	0x3f03a49f	0.51423067
11	0x3f1e1140	0.6174507
12	0x3f0241c0	0.50881577
13	0x3ee3e137	0.44507763
14	0x3f324d34	0.6964905
15	0x3fac4612	1.3458884
16	0x3e831c58	0.25607562
17	0x3ecb950c	0.3976215
18	0x3f05099f	0.51967806
19	0x3f158a2d	0.58413965
20	0x3ec781e6	0.38966292
21	0x3f0073a7	0.5017647
22	0x3e9a432f	0.30129382
23	0x3f074f2c	0.5285518
24	0x3e95690d	0.2918171
25	0x3ea00afa	0.31258374
26	0x3ed8e1f5	0.42359892
27	0x3f2d9555	0.6780599
28	0x3ec32c9d	0.38119975
29	0x3fbaae7f	1.4584502
30	0x3f07ab91	0.52996165
31	0x3eb9ea6b	0.3631166

body.block3.conv.weight f4 [32, 32, 3, 3]
0	0x3ca451b1	0.020058485
1	0x3d25e278	0.04049918
2	0xbd2d31cd	-0.04228382
3	0x3c4302d8	0.0119025335
4	0x3c7b9c57	0.015357099
5	0xbd252ce9	-0.040326033
6	0xbcd3c1ea	-0.025849301
7	0xbb948c13	-0.0045332997
8	0x3d1ec178	0.038758725
9	0x3d740a78	0.059580296
10	0x3d82c370	0.06384933
11	0x3cf67b9b	0.030088237
12	0x3d3a0fa0	0.045425057
13	0x3d2ce344	0.042208925
14	0x3d415e83	0.047209274
15	0xbb9ebb3b	-0.004844097
16	0x3cb7005d	0.02233904
17	0xbd719ca2	-0.058987267
18	0x3d5a92bf	0.053362604
19	0x3c423ddb	0.011855568
20	0x3d66c8fe	0.056344025
21	0x3cf603c7	0.030031098
22	0x3c25ec4a	0.0101271365
23	0x3c0c2338	0.008553319
24	0x3ce1f652	0.027583275
25	0x3cc5a7f1	0.024127932
26	0xbd505704	-0.050864235
27	0x3b5b027f	0.0033418236
28	0x3b26b6fc	0.0025438657
29	0xbba30e8f	-0.0049761008
30	0x3c5796ad	0.0131584825
31	0x3bae624c	0.0053217765
32	0xbc17764a	-0.009244511
33	0x3d3d04e3	0.04614724
34	0x3c64c595	0.013963123
35	0xbda91ba1	-0.08257223
36	0xbd120c4d	-0.035656262
37	0xbd0376a0	-0.03209555
38	0xbd8057c7	-0.06266742
39	0x3d37bba3	0.04485668
40	0x3caa214d	0.020767832
41	0xbcb1a7eb	-0.021686515
42	0xbd21678e	-0.039405398
43	0xbd5a3c80	-0.053280354
44	0xbca8b317	-0.02059321
45	0x3bc4bcb2	0.0060039395
46	0xbd6ae1a5	-0.057344098
47	0xbd4f5c16	-0.05062493
48	0x3d236857	0.039894428
49	0x3d2ef816	0.042717062
50	0x3d326e6a	0.04356233
51	0x3d0b84cd	0.034062196
52	0x3c5c51f8	0.013447277
53	0x3d31d3c4	0.043414846
54	0xbb4b3c2b	-0.0031011205
55	0xbbc51b53	-0.00601522
56	0x3c56247a	0.01307022
57	0xbcb06978	-0.021534666
58	0xbc28662b	-0.010278265
59	0x3d3198cf	0.04335862
60	0xbd6f44ae	-0.058415107
61	0xbdf12f36	-0.11776583
62	0xbd4b526e	-0.049639158
63	0x3d6245da	0.055242397
64	0x3d29a79d	0.041419614
65	0x3d296448	0.0413554
66	0x3cee8770	0.029117316
67	0x3a4a0578	0.00077065034
68	0x3b2db6ac	0.0026506586
69	0x3db0bb91	0.086295255
70	0x3dc14824	0.09437588
71	0x3d9c03d8	0.07617921
72	0xbd48e7ca	-0.049049176
73	0xbd6d06ef	-0.05786794
74	0xbd83a0da	-0.064271644
75	0xbd0583c9	-0.032596383
76	0xbd198750	-0.03748256
77	0x3c577b77	0.013151995
78	0x3dad6a3c	0.08467528
79	0x3dcb8461	0.09937359
80	0x3d8f5e67	0.07000428
81	0x3c9ca33a	0.019120801
82	0x3d5cedba	0.05393765
83	0x3d9ae07d	0.07562349
84	0xbba6a5da	-0.005085689
85	0xbc819ac7	-0.015820874
86	0xbd8d184f	-0.06889402
87	0x3db0d980	0.08635235
88	0x3c1103f5	0.008851041
89	0x3c280b10	0.010256544
90	0xbc235d24	-0.009970937
91	0xbd2179f2	-0.039422937
92	0x3cf9cafb	0.030492296
93	0x3de0896b	0.109637104
94	0x3d6d7a72	0.0579781
95	0x3dab6408	0.08368689
96	0x3d89652a	0.06708749
97	0x3d30f849	0.043205533
98	0x3db58474	0.08863154
99	0xbd932278	-0.07184309
100	0x3c6695ec	0.01407383
101	0x3db4bec3	0.088254474
102	0xbd73f531	-0.059560005
103	0x3c7b6da3	0.015345964
104	0x3dbfcd2e	0.09365307
105	0xbd935a09	-0.07194907
106	0xbd51632b	-0.051119965
107	0xbd188af6	-0.0372419
108	0xbd4085a6	-0.047002457
109	0x3dab854f	0.08375036
110	0x3dd6ed45	0.10494474
111	0xbcd17939	-0.025570499
112	0x3bd8a95b	0.0066119856
113	0x3cacb3c0	0.021081805
114	0xbda12721	-0.07868791
115	0xbc635089	-0.013874182
116	0xbced6745	-0.028979907
117	0x3cecc8cf	0.028904347
118	0xbd8df56b	-0.069315754
119	0xbde72f0c	-0.1128827
120	0x3d8e2fa7	0.06942683
121	0x3d32db7d	0.04366635
122	0xbcfa3408	-0.030542389
123	0x3cf49874	0.029857852
124	0x3ce1245b	0.027483156
125	0x3c9dd681	0.019267322
126	0xbdd59336	-0.10428469
127	0xbdf58836	-0.11988871
128	0xbe0aa899	-0.13540877
129	0xbb1ea24c	-0.0024205623
130	0xbcb18f19	-0.02167468
131	0xbdbc3792	-0.09190287
132	0xbdc3ef71	-0.09567154
133	0xbdf3095a	-0.11867018
134	0xbe29f4d6	-0.16597304
135	0xbd753f1d	-0.059874643
136	0xbd6c7219	-0.057726
137	0xbd2df3ac	-0.04246871
138	0x3d126187	0.03573754
139	0xbc35702d	-0.011074108
140	0xbc323f63	-0.01087937
141	0x3d2b43ad	0.041812588
142	0xbd132557	-0.035924282
143	0xbdf60086	-0.120118186
144	0x3c55b5a0	0.013043791
145	0x3d836ed8	0.06417626
146	0x3c2c0185	0.010498409
147	0xbd9f883e	-0.07789658
148	0x3b1d830e	0.0024034414
149	0xbbc03cec	-0.0058666375
150	0x3bc724ae	0.0060773706
151	0xbd1889b7	-0.03724071
152	0xba5d45f9	-0.00084409077
153	0x3d3049ef	0.04303926
154	0x3cdd8021	0.027038636
155	0x3cdbb4a7	0.02681954
156	0xbadee27c	-0.0017004753
157	0x3ca26b21	0.019826474
158	0xbc8668a8	-0.016407326
159	0xbc8b5aca	-0.017011065
160	0xbbce1be7	-0.0062899473
161	0xbdca96d0	-0.098920465
162	0x3c4ed1d1	0.012623266
163	0xbd1d28ec	-0.038369104
164	0xbda957e3	-0.08268716
165	0x3d2ace70	0.04170078
166	0x3caffaf0	0.021481961
167	0xbd1e0904	-0.038582817
168	0x3d11c62d	0.035589386
169	0x3c996fe4	0.018730111
170	0xbd581b88	-0.05276063
171	0xbd1486df	-0.036261436
172	0xbcb50bdd	-0.022100383
173	0x3d1d527e	0.03840875
174	0xbdcbc843	-0.09950306
175	0xbd5110b4	-0.05104132
176	0xbcf6e640	-0.030139089
177	0x3dba8780	0.09107876
178	0x3c157e71	0.009124384
179	0x3cb19df9	0.021681773
180	0xbca00f7d	-0.019538635
181	0x3cb916cc	0.022593878
182	0x3dba4b8a	0.09096439
183	0x3ce98608	0.028506294
184	0x3cf74540	0.030184388
185	0x3d9c0567	0.07618218
186	0x3d878d83	0.06618788
187	0x3d3542f6	0.044253312
188	0x3dabf1aa	0.08395703
189	0x3d58853c	0.052861437
190	0x3b77d564	0.00378164
191	0xbdba849c	-0.091073245
192	0x3cf5e042	0.030014161
193	0x3ca9cf1d	0.020728642
194	0xbdc0c742	-0.094130054
195	0x3da795fb	0.081829034
196	0x3c5ae549	0.01336033
197	0xbd8d594d	-0.069017984
198	0xbcab5c9e	-0.020918187
199	0x3b8b7eb5	0.004257048
200	0x3dd656b1	0.10465754
201	0xbdaead30	-0.08529127
202	0xbd0eae01	-0.03483391
203	0xbcb37268	-0.02190514
204	0xbc99d121	-0.018776478
205	0xbcd380d3	-0.025818264
206	0xbdd68968	-0.10475427
207	0xbda3e27a	-0.08002181
208	0xbd120ae9	-0.035654936
209	0x3c0ae98a	0.008478532
210	0xbd3fe289	-0.0468469
211	0xbd8a3800	-0.067489624
212	0x3be79ca7	0.007068235
213	0xbc916df5	-0.017752627
214	0x3cd2dd5a	0.025740314
215	0x3d848747	0.064711146
216	0xbb97dda7	-0.0046345773
217	0x3d6202b0	0.055178344
218	0x3d3c5181	0.045976166
219	0xbcbf55f2	-0.023356412
220	0xbc91102e	-0.01770791
221	0xbd36830b	-0.044558566
222	0xbd067db6	-0.03283473
223	0xbc8ee484	-0.01744295
224	0xbcf79acf	-0.030225186
225	0x3c06bce7	0.008223749
226	0x3d8aa508	0.067697585
227	0x3d4ad7ce	0.049522214
228	0x3d0e11dd	0.034685005
229	0x3ce63a87	0.02810408
230	0xbca0667e	-0.019580122
231	0xbd223be1	-0.039607886
232	0x3cd16656	0.025561493
233	0x3d04ef31	0.032454673
234	0x3ce6de1d	0.028182084
235	0x3d3c7b8c	0.04601626
236	0x3d2935c0	0.041311026
237	0xbd00f885	-0.031487007
238	0x3c2eaaa6	0.010660803
239	0x3d0067bc	0.03134893
240	0xbd809396	-0.0627815
241	0xbd7cb53e	-0.061696284
242	0xbd10a4ab	-0.03531329
243	0xbd15be25	-0.03655829
244	0xbd504db7	-0.050855365
245	0xbcf974ff	-0.030451296
246	0xbce44b29	-0.02786787
247	0xbca23ea5	-0.019805262
248	0xbd77a353	-0.060458492
249	0xbc132ae1	-0.008982391
250	0x3cdc3d30	0.026884645
251	0x3beab4a0	0.0071626455
252	0x3d80bd62	0.06286122
253	0xbc56ec12	-0.013117807
254	0xbb2aa775	-0.0026039754
255	0x3d19b6d1	0.037527863

body.block3.conv.bias f4 [32]
0	0x3d213a51	0.039362255
1	0xbd408a42	-0.047006853
2	0x3ccd7341	0.025079371
3	0x3cd3cf0e	0.025855567
4	0x3d4951b3	0.04915018
5	0x3d94454e	0.07239781
6	0x3d2e647e	0.042576306
7	0xbd2d6055	-0.042328198
8	0xbe022198	-0.12708127
9	0x3ca4b1ae	0.020104256
10	0x3d3d3b87	0.046199348
11	0x3cbca314	0.02302698
12	0xbc7c13bd	-0.015385565
13	0x3c94299b	0.018086245
14	0xbc29a46c	-0.010354143
15	0xbcd59851	-0.026073607
16	0xbd808f20	-0.06277299
17	0xbd4bdd9f	-0.0497719
18	0xbd56b560	-0.052419066
19	0x3dd4004a	0.10351618
20	0x3ce051b0	0.027382702
21	0xbb7e72e3	-0.0038825802
22	0xbc8e243b	-0.01735126
23	0xbc85cd15	-0.016333142
24	0xbc887dce	-0.01666155
25	0x3c8f25d8	0.0174741
26	0xbde67d40	-0.11254358
27	0x3d02a619	0.031896684
28	0x3d89fde2	0.067378774
29	0x3d2209fc	0.039560303
30	0x3d1d231f	0.038363572
31	0x3d9daf8b	0.07699498

body.block3.norm.weight f4 [32]
0	0x3f95f9d2	1.1716864
1	0x3f87864d	1.058786
2	0x3f8db359	1.1070358
3	0x3f932c95	1.149798
4	0x3f9f6d1d	1.2455174
5	0x3f90e7e0	1.1320763
6	0x3f6e64ba	0.93122447
7	0x3fa79aba	1.3094094
8	0x3fc225bf	1.5167769
9	0x3fa91122	1.3208354
10	0x3f8a53f0	1.0806866
11	0x3f9a26ee	1.204313
12	0x3f76030f	0.9609842
13	0x3fb80a35	1.4378115
14	0x3fa091db	1.2544512
15	0x3fb5bb14	1.4197717
16	0x3f90a715	1.1300989
17	0x3fb2655b	1.3937181
18	0x3f812753	1.0090126
19	0x3fa844bd	1.3145977
20	0x3f89b803	1.0759281
21	0x3fad885e	1.3557241
22	0x3faa480d	1.3303238
23	0x3f8b7692	1.089556
24	0x3f955b9c	1.1668582
25	0x3f9c53f2	1.2213118
26	0x3f977b4e	1.1834505
27	0x3fbad902	1.4597476
28	0x3fb36ab2	1.4016936
29	0x3f826b1c	1.0188937
30	0x3f81a49e	1.0128362
31	0x3f913b8b	1.1346296

body.block3.norm.bias f4 [32]
0	0x3e8edec3	0.2790433
1	0xbe877708	-0.26458
2	0xbe9d1983	-0.30683526
3	0x3f664e31	0.8996306
4	0x3ebc9234	0.36830294
5	0x3f5ec707	0.8702244
6	0xbf2a5ecd	-0.66550905
7	0x3f7b3e05	0.9814151
8	0x3f3881b4	0.7207291
9	0x3f3d89e5	0.74038535
10	0xbf0d7fc7	-0.552731
11	0x3eee2ad9	0.46517065
12	0x3f097d78	0.53707075
13	0x3ef1f86e	0.4725985
14	0xbcd6035d	-0.02612465
15	0xbec24c83	-0.37949
16	0x3f36728f	0.7126855
17	0x3f612c81	0.8795853
18	0x3f4eab08	0.8072972
19	0x3f783c50	0.9696703
20	0x3f3d70b2	0.74000084
21	0x3fa5219c	1.2900882
22	0x3f1eda5f	0.6205196
23	0x3eb62e5f	0.35582253
24	0x3ee8ed30	0.4549346
25	0x3fa2ac8e	1.270891
26	0x3eef7fab	0.4677709
27	0x3f5a3a40	0.8524513
28	0x3f2db2a7	0.67850727
29	0xbe76c6f9	-0.2409934
30	0xbf23e2d9	-0.6401802
31	0x3ee6feb0	0.45116186

body.block3.norm.running_mean f4 [32]
0	0x3e80d82d	0.2516493
1	0xbeafa2a7	-0.3430378
2	0xbf99b994	-1.2009759
3	0x3e96c750	0.29448938
4	0xbf8926da	-1.0714982
5	0x3fa76ca2	1.3080027
6	0xbf0eef3b	-0.55833787
7	0xbd8dce97	-0.069241695
8	0x3f48ae67	0.78391117
9	0xbf4526c9	-0.77012306
10	0xbfbec29b	-1.4903139
11	0x3ebd31d9	0.36952093
12	0x3f77e350	0.96831226
13	0xbe257f19	-0.16161765
14	0xbf3dd8dd	-0.7415903
15	0xbfb35158	-1.4009199
16	0x3ec5b92b	0.38617834
17	0x3f5d86d4	0.86533856
18	0x3f00710c	0.50172496
19	0x3efbacc8	0.4915526
20	0x3f0899ce	0.5335969
21	0x3e9908d4	0.29889548
22	0x3ee6b41d	0.4505929
23	0x3f928241	1.1446
24	0xbe869dfa	-0.26292402
25	0x3f01d0e2	0.50709355
26	0xbeaa6913	-0.3328329
27	0xbebf7564	-0.3739425
28	0xbefc6300	-0.4929428
29	0xbfb91762	-1.4460261
30	0x3e148af3	0.1450613
31	0xbe3d404d	-0.1848156

body.block3.norm.running_var f4 [32]
0	0x3eea638c	0.45779073
1	0x3f08f26e	0.5349492
2	0x3f6e22dc	0.9302194
3	0x3f36998e	0.71328056
4	0x3ee8f344	0.45498097
5	0x3ea7b25c	0.32753265
6	0x3ebabe0e	0.36473125
7	0x3e8941af	0.26807925
8	0x3f42fe64	0.7616942
9	0x3ea95b9f	0.33077714
10	0x3e9ec962	0.31013018
11	0x3ec240c4	0.37940037
12	0x3f861229	1.0474292
13	0x3f553b4f	0.8329362
14	0x3ee40b2c	0.44539773
15	0x3ee27bfd	0.4423522
16	0x3f42137f	0.75811
17	0x3f949dfc	1.1610713
18	0x3eb63349	0.35586002
19	0x3f28a962	0.6588346
20	0x3f2ee6b0	0.6832075
21	0x3e776211	0.24158503
22	0x3ed692a4	0.41908753
23	0x3eed5ca3	0.4635974
24	0x3f38a6b9	0.721294
25	0x3e7f3e4a	0.24926105
26	0x3f3d5fbc	0.73974204
27	0x3ecf11a7	0.40443155
28	0x3f2a4192	0.665063
29	0x3f46db8a	0.7767874
30	0x3ebaf6d9	0.36516455
31	0x3f53a41b	0.8267228

tail.weight f4 [1, 32, 3, 3]
0	0x3d30c8b9	0.043160174
1	0x3e180cd7	0.14848648
2	0x3e54744e	0.20747492
3	0xbd99c1aa	-0.075076416
4	0xbc3c23de	-0.011483161
5	0xbce1a5d7	-0.027544899
6	0xbe4a1302	-0.19733813
7	0xbe1d2c08	-0.15348828
8	0xbdd10bfc	-0.10207364
9	0xbda77378	-0.08176321
10	0xbcb152af	-0.021645872
11	0x3cc7fc81	0.024412395
12	0xbda371c3	-0.07980683
13	0xbbe74db4	-0.0070588235
14	0x3d5e06f9	0.05420587
15	0xbdc2c3d7	-0.0951001
16	0x3a847691	0.0010106136
17	0x3de2798d	0.1105834
18	0x3d2d663c	0.042333826
19	0xbc9924ec	-0.018694364
20	0xbdb65cc5	-0.08904413
21	0x3d0026c1	0.03128696
22	0xbd0339a2	-0.032037385
23	0xbdeb30c3	-0.1148391
24	0x3d76e6e8	0.060278803
25	0xbd26109b	-0.04054318
26	0xbdc92792	-0.098220006
27	0xbe209ee8	-0.15685618
28	0xbd6e4887	-0.058174636
29	0x3db37df9	0.08764262
30	0xbe7ecfef	-0.24884008
31	0xbe20071f	-0.15627716
32	0xbd8db6f6	-0.06919663
33	0xbe9999fc	-0.30000293
34	0xbe6b47d8	-0.22976625
35	0xbe0cf266	-0.13764343
36	0xbe037275	-0.1283663
37	0xbda5bd22	-0.08092715
38	0x3e04b802	0.12960818
39	0xbd8c4773	-0.06849565
40	0xbd686a52	-0.05674202
41	0x3d73ab06	0.059489273
42	0xbdd81ad4	-0.10551992
43	0xbd19105d	-0.03736912
44	0x3d951c0d	0.07280741
45	0x3e60be9c	0.21947712
46	0x3e503cd5	0.20335706
47	0x3e5e8204	0.21729285
48	0x3dc5d008	0.096588194
49	0x3dff579c	0.12467882
50	0x3dbe67fe	0.09297179
51	0xbe3c2bb8	-0.18376052
52	0xbe2a3fed	-0.16625948
53	0xbe8628df	-0.26203057
54	0x3d578c76	0.05262419
55	0x3dea1023	0.11428859
56	0xbc97c2ef	-0.018525569
57	0x3d8d374c	0.06895313
58	0x3d383dce	0.044980817
59	0xba2364a1	-0.00062329514
60	0x3dcc9853	0.09989991
61	0x3df55316	0.11978738
62	0x3d2272b8	0.039660186
63	0x3e91fc54	0.28512824
64	0x3d29efe1	0.041488532
65	0xbe554372	-0.2082651
66	0x3e37231e	0.1788449
67	0xbd540ed2	-0.051771946
68	0xbe84f90b	-0.25971255
69	0x3dfaad0f	0.122400396
70	0xbd40582d	-0.04695909
71	0xbe878a7a	-0.26472837
72	0xbeb0ed1d	-0.34555903
73	0xbe334ac4	-0.1750899
74	0x3d934973	0.07191744
75	0xbe9852b9	-0.29750612
76	0xbde4acb8	-0.11165756
77	0x3e4200ae	0.18945572
78	0xbdba0240	-0.090824604
79	0x3de5c435	0.11219064
80	0x3ee23e46	0.44188136
81	0xbd7f01ff	-0.062257763
82	0xbe64233f	-0.2227907
83	0xbeb80a2d	-0.35945264
84	0x3ddffbd2	0.10936703
85	0xbc63b8c0	-0.013899028
86	0xbe0dbe6b	-0.1384217
87	0x3ed45d7f	0.41477582
88	0x3e87e939	0.26545122
89	0x3e61dd86	0.2205716
90	0x3e0fbbce	0.14036486
91	0x3c1f3999	0.009718322
92	0xbd0747e2	-0.033027537
93	0x3e5deb5d	0.21671815
94	0x3d9f9a6e	0.07793127
95	0x3bff1b42	0.007785232
96	0x3e6649f0	0.22489142
97	0x3c11dd51	0.008902864
98	0xbc8b999e	-0.017041024
99	0x3ba19175	0.00493067
100	0x3e149222	0.1450887
101	0x3e4f9992	0.20273426
102	0xbd8763c6	-0.06610827
103	0x3d93d376	0.07218067
104	0x3e2c3d53	0.16820268
105	0xbddc771c	-0.10764906
106	0xbd013f65	-0.0315546
107	0x3ddf59c4	0.10905793
108	0xbd46f920	-0.048577428
109	0xbc92f8ba	-0.017940868
110	0x3e099b6f	0.134382
111	0xbd403062	-0.04692114
112	0xbd1eba17	-0.038751688
113	0xbbb07459	-0.0053849635
114	0xbd74f611	-0.05980498
115	0xbd4252d0	-0.047442257
116	0xbcec1c43	-0.02882207
117	0xbe820fc7	-0.25402662
118	0x3d5e5bca	0.054286756
119	0x3ec5ca38	0.38630843
120	0xbe7c0261	-0.24610282
121	0xbd5bdb41	-0.053675894
122	0x3e21ac24	0.15788323
123	0xbe84183d	-0.25799742
124	0xbe3679ff	-0.17819975
125	0xba09d9c0	-0.00052585825
126	0x3aeeed4d	0.001822868
127	0x3e2590de	0.16168544
128	0x3e94ff1a	0.29100877
129	0xbd82d709	-0.06388671
130	0x3c11e878	0.0089055225
131	0x3d71d745	0.059043188
132	0xbe46dbce	-0.19419786
133	0xbe2d3564	-0.16914898
134	0xbe17d747	-0.14828216
135	0x3e8aa626	0.27079886
136	0x3d038991	0.032113615
137	0xbe6a7fdc	-0.22900337
138	0x3e8d2694	0.27568495
139	0x3df713d4	0.12064329
140	0xbe3354fa	-0.17512885
141	0x3e97967e	0.29607004
142	0x3d83ce9e	0.064358935
143	0xbe85a31a	-0.26101
144	0x3e4f0e4f	0.20220302
145	0x3e53a99e	0.20670173
146	0x3e61e30c	0.22059268
147	0xbce9008b	-0.028442642
148	0x3b4f00f0	0.0031586252
149	0xbd30a5a3	-0.043126713
150	0xbe2faeb6	-0.1715649
151	0xbe632335	-0.22181399
152	0xbe8cc7d1	-0.27496198
153	0xbeb354d5	-0.3502566
154	0xbe990b6c	-0.29891527
155	0xbeab6033	-0.33471832
156	0xbe082d86	-0.13298616
157	0xbe160d1b	-0.14653437
158	0xbdae640a	-0.08515175
159	0x3eb0e612	0.3455053
160	0x3eab46dd	0.33452502
161	0x3eedf6e0	0.46477413
162	0x3ddaa547	0.106760554
163	0x3cb85b88	0.022504583
164	0xbdf85a61	-0.121266134
165	0x3db67738	0.08909458
166	0x3c29ffbe	0.010375915
167	0xbd8c565b	-0.068524085
168	0x3e7a8e19	0.24468268
169	0x3e1a5db0	0.15074801
170	0x3c823179	0.015892731
171	0xbe332de9	-0.17497982
172	0xbe96d744	-0.2946111
173	0xbebcf0a7	-0.36902353
174	0x3c8bc182	0.017060045
175	0xbe4c8b6b	-0.19975059
176	0xbe8ca7db	-0.27471814
177	0x3efa41c3	0.48878297
178	0x3ea47be8	0.32125783
179	0x3e1fe67e	0.1561527
180	0xbd8893f9	-0.066688485
181	0xbdbaaba3	-0.09114768
182	0xbe7811fe	-0.24225613
183	0x3d960656	0.07325427
184	0xbe086e59	-0.13323344
185	0xbe86b985	-0.26313415
186	0x3eca588c	0.3952068
187	0x3e1bb24b	0.15204732
188	0xba3bcaf8	-0.00071637286
189	0xbe55a272	-0.20862749
190	0x3c05cd3b	0.008166607
191	0x3ee9fa46	0.45698756
192	0xbe56a796	-0.20962366
193	0xbd262cc0	-0.04057002
194	0x3ea52087	0.3225138
195	0xbe5c6866	-0.215242
196	0xbd9ee196	-0.07757871
197	0x3e305aa0	0.1722207
198	0x3e80fb12	0.2519155
199	0x3e8c38ac	0.27386987
200	0x3e7bc6ef	0.24587606
201	0x3ca0a780	0.01961112
202	0x3c430e29	0.0119052315
203	0xbdce8f6a	-0.10085948
204	0xbe940559	-0.2891033
205	0xbe8ed86a	-0.27899486
206	0xbe8479c9	-0.25874165
207	0x3c5dd4f6	0.013539543
208	0x3de1000a	0.109863356
209	0x3e82935c	0.2550305
210	0xba4c77f6	-0.0007799858
211	0xbd02b2fa	-0.031908967
212	0xbb1412c8	-0.0022594202
213	0xbdaacec4	-0.08340219
214	0xbe0ad7cd	-0.13558884
215	0xbe203000	-0.1564331
216	0xbe480b60	-0.19535589
217	0xbd03248c	-0.032017276
218	0x3e0671cd	0.13129349
219	0xbcd4a116	-0.025955718
220	0x3dea172a	0.114301994
221	0x3e678ef9	0.22613133
222	0x3bef7f0b	0.007308846
223	0x3e081908	0.13290799
224	0x3e775382	0.2415295
225	0xbe6edcc1	-0.23326398
226	0xbc41fe55	-0.011840423
227	0x3eac83ad	0.3369421
228	0xbdc7f2b2	-0.09763087
229	0x3d20311c	0.039109334
230	0x3e9f89d7	0.3115985
231	0xbdfe1942	-0.12407161
232	0xbc9b7c9b	-0.018980315
233	0x3e42cc40	0.19023228
234	0xbe808a9b	-0.25105748
235	0xbdc32c9d	-0.09529994
236	0x3e102ee6	0.1408039
237	0xbcd2fb0c	-0.025754474
238	0x3df58673	0.11988535
239	0x3e94ce19	0.2906349
240	0x3daac07e	0.08337496
241	0x3e254ad4	0.16141826
242	0x3e988fa1	0.2979708
243	0x3eab03c5	0.33401313
244	0x3ea2ba6e	0.3178286
245	0x3e8fd67a	0.2809332
246	0x3cf2d52b	0.029642662
247	0xbcab8480	-0.020937204
248	0xbdd2d38a	-0.10294254
249	0xbe789ad6	-0.24277815
250	0xbe8e1e79	-0.27757624
251	0xbec5ac90	-0.38608217
252	0x3e9e0047	0.30859587
253	0x3e93ac63	0.28842458
254	0x3e4689d1	0.1938851
255	0xbdfe7b8c	-0.124259084
