trained_models/sinGan/mountains/scale_factor=0.750000,alpha=10/1/netG.pth (torch_old, 125197 bytes, 26 tensors)

head.conv.weight f4 [32, 3, 3, 3]
000000 01 8c 4a bd a4 ab ac bc f2 0f 68 bd 3d 00 1a 3c
       -0.049449924 -0.021077938 -0.05665583 0.009399471
000010 84 72 33 3c a2 f2 63 bd e8 4d d2 3c a7 e5 b5 3d
       0.010952596 -0.055651315 0.025671914 0.08881693
000020 23 2c 87 be 85 de 66 3b 16 2c 9b 3b cf cc 03 3d
       -0.2640086 0.0035227847 0.00473548 0.032177743
000030 3a c0 27 3d 47 eb 5f 3d 1c 7c 1b 3c 1a 64 56 3d
       0.040954806 0.054667737 0.009490039 0.052341558
000040 76 7c 1c 3e d8 32 b7 be 48 4c 72 3c 2f ca 0d 3d
       0.15281853 -0.35780978 0.014788695 0.034616645
000050 94 a1 cd 3a 8d c5 c7 3c 95 2a 6f 3d 53 7a dd 3c
       0.0015688413 0.024386192 0.05839022 0.027035868
000060 9c 84 bf ba 96 57 3a bd fe 37 f7 be c5 a3 52 3c
       -0.0014611664 -0.045493685 -0.48284906 0.0128564285
000070 1e 02 02 be 19 bd d3 bd 74 b2 11 be 81 14 0f be
       -0.1269612 -0.10338802 -0.1422823 -0.13972665
000080 cd f2 45 be b6 40 67 3c fe fe 97 3d 8b 24 78 bd
       -0.19330902 0.014114549 0.07421683 -0.060581725
000090 7b 54 8b 3d 6d ed de bc d1 94 df 3d 05 e9 b7 bc
       0.06803223 -0.027212823 0.10917056 -0.02244998
0000a0 30 e1 d2 bb 6e 6d e7 3c 43 f9 14 3b 7e 3d 6d 3d
       -0.006435536 0.028250422 0.002273158 0.05791997
0000b0 df f2 32 3c ed 71 e3 3c e4 08 73 3b 10 24 d6 3d
       0.010922163 0.027764285 0.0037084157 0.10456097
0000c0 03 0e 2d bd 7c 30 de bb 81 2c 85 3c 1d 8e 80 3c
       -0.04224969 -0.006780682 0.016256573 0.015692765
0000d0 66 65 84 3d 51 fb 3c bc 13 12 bb bd 3e e7 7f bc
       0.06464653 -0.011534528 -0.09134307 -0.015619097
0000e0 20 05 2e bc a1 2b c3 bd e5 cd 04 3c 80 30 d5 bb
       -0.010621339 -0.09529806 0.00810573 -0.006506026
0000f0 c2 c4 e7 bd 0c f8 91 bd eb 2b 7b 3e 7f 24 e9 3c
       -0.113168254 -0.07127389 0.24528472 0.028459786
000100 33 07 eb 3c bd 8c 15 3d 91 21 99 3c 73 71 27 3d
       0.028689956 0.03651117 0.018692764 0.040879678
000110 c0 bc fd bb ed b0 ed bd 59 09 21 be 80 5f 08 3d
       -0.007743448 -0.116060115 -0.15726222 0.0332942
000120 9c 53 0a 3c cb 0a 5b 3d e4 e0 79 bb 1e 0a b5 3d
       0.008442786 0.05347709 -0.003812843 0.0883982
000130 bc 48 65 3d f5 7e cc 3c 52 f4 bb bd 84 3d 4f be
       0.055977568 0.024962882 -0.0917746 -0.2023831
000140 38 16 50 3d 2c 95 84 be 46 f8 9b 3d 5d 4c 1f 3d
       0.05080244 -0.2589506 0.07615714 0.038891185
000150 b7 af 97 3c 90 4b da 3c 6b e1 8d 3c b6 10 22 bd
       0.018516405 0.02664736 0.017319402 -0.039566718
000160 c7 1c f9 3a 9d bb 45 bd 79 7d a5 be 0c 7c ad bd
       0.0019005769 -0.048274625 -0.3232229 -0.08470926
000170 4d 9e e5 bc 3e bd 20 3d 6d 21 e6 3c c1 d4 fa 3a
       -0.028029585 0.039242975 0.02809211 0.0019136892
000180 24 2e 81 3c e5 37 02 bd 47 db 6a bc 76 14 7a be
       0.015769072 -0.031791586 -0.014334506 -0.24421868
000190 02 34 ef bc 60 1a c5 3b c0 3e 04 3d 30 06 22 3d
       -0.029199604 0.006015107 0.032286406 0.039556682
0001a0 40 d6 31 3d dc 64 a6 3d d3 29 bc 3c 41 fe 2e 3c
       0.043417215 0.08124706 0.022969162 0.010680736
0001b0 bf 1b 91 3c 4f a3 b5 bd 0b a1 4e bd 01 9a cc 3d
       0.017713426 -0.08869039 -0.05044655 0.099903114
0001c0 8c 60 29 3d 7a ed 0e be c5 a4 85 3e c3 da 45 3e
       0.04135184 -0.13957778 0.26102272 0.19321732
0001d0 e3 a7 c1 3d 91 d4 3f 3d cf 19 13 bd 16 8e 78 3d
       0.0945585 0.04683358 -0.035913285 0.06068238
0001e0 ce d1 05 bc 09 8f 3f 3d 6f 2f 72 bd 8b ee 97 bd
       -0.008167697 0.04676727 -0.059127267 -0.07418545
0001f0 91 61 95 bc 86 f3 04 bd 54 b9 d5 3b 05 2e 30 bd
       -0.018235 -0.032458805 0.006522337 -0.043012638
000200 4b 9a 83 3d ed ba 22 bd 8e 11 5b 3c 2f 44 0d bd
       0.064259134 -0.039729048 0.013370885 -0.034488853
000210 e5 2c cb bd 3f f8 09 bd 38 25 8e 3c d7 be 5e 3d
       -0.09920672 -0.03368401 0.017351732 0.054381218
000220 c9 04 11 bc 01 f6 ef bc d3 2a 1b 3d c8 6f dc 3c
       -0.0088512385 -0.029292108 0.037882637 0.02690877
000230 58 04 f4 bc 1c ab bc 3d ee 1b 1d 3e 3a dd f7 bd
       -0.029787228 0.09212324 0.15342686 -0.121027425
000240 52 57 96 3c eb 5b 43 3d 78 59 a6 3c 58 7a 4c 3c
       0.018352184 0.04769508 0.020306334 0.012480341
000250 bc de 02 3c 10 e0 19 bc 31 b1 8b bd 10 48 c5 bc
       0.007987674 -0.0093918 -0.06820906 -0.024082214
000260 a8 71 87 be fe 61 17 3b 81 14 57 3d bf d7 0c 3d
       -0.264539 0.002309918 0.05250979 0.03438544
000270 1f 81 57 bc a8 a3 5f 3d 0c 89 87 3d 23 f4 d9 bd
       -0.013153343 0.054599434 0.066179365 -0.106422685
000280 b5 07 7f bd f9 c2 c8 be fa e1 25 bd 3f 9c 06 bd
       -0.06226321 -0.39211252 -0.04049871 -0.03286385
000290 de ab 16 be cd 4c 8c 3d a5 e1 f3 bd b2 6a 63 bd
       -0.14714 0.06850586 -0.11908273 -0.055521674
0002a0 e9 f6 aa 3d 8f 9e 80 bc 9c c2 7e bc 25 1a 2c bc
       0.083478756 -0.015700607 -0.015549328 -0.01050428
0002b0 59 e6 2d 3d 35 e4 91 bd 1a 6b b6 3c 0a d9 b2 bd
       0.042456005 -0.07123605 0.022267867 -0.08732803
0002c0 ee f7 bd 3d 9d 55 9a bd da 81 12 be 63 bb 81 bd
       0.092758045 -0.07535861 -0.14307347 -0.06334569
0002d0 02 08 26 bd 44 d5 36 3d 10 29 b0 bd 2a c1 e2 3d
       -0.04053498 0.04463698 -0.08601582 0.11071999
0002e0 62 da 8f 3d 67 01 9d 3e 15 5d 26 bd d0 c1 8c bd
       0.07024075 0.30665132 -0.040616114 -0.06872904
0002f0 5c 35 85 3c b2 1f 3b 3d 28 0a af 3d 88 67 cf 3d
       0.016260795 0.045684524 0.08546859 0.10127169
000300 a1 22 c2 3d 9f 41 e5 bd 7c a6 b0 3c fb af 3f 3e
       0.09479261 -0.11194157 0.021563761 0.18719475
000310 f4 b0 15 bc 36 6c 89 bb 4c 10 fb bc 84 34 9c 3d
       -0.009136427 -0.004193808 -0.03064742 0.07627204
000320 67 18 1e 3d e2 1a 0a bd b7 81 3f be fc b2 98 bc
       0.03859749 -0.033717044 -0.18701826 -0.018640034
000330 3f 90 ad 3d 2a ff 45 3b 42 32 de 38 20 bd 69 bc
       0.084747784 0.0030211904 0.00010595146 -0.014266282
000340 29 92 0a 3e 88 3f 9c 3c 6c 89 2c 3c 80 f8 4f bd
       0.13532318 0.019073263 0.010530811 -0.050774097
000350 3e 51 ad 3d 0c 12 f0 3d 12 33 57 3d 9a a2 75 3d
       0.08462761 0.11722192 0.05253894 0.059969522
000360 6c f2 90 bd eb e4 97 bd 47 a9 cc 3d 1c 13 85 3c
       -0.07077488 -0.074167095 0.099932246 0.016244464
000370 7f bf 9c 3c b8 70 03 be d1 aa 0e 3e ff e5 09 3d
       0.019134281 -0.12835968 0.13932349 0.033666607
000380 e5 3c 71 bd 81 85 ff bd 53 0c 38 bd b4 dd 0e 3e
       -0.058895964 -0.12476636 -0.04493363 0.1395176
000390 61 5f bf bc 37 c0 12 3d e3 37 e5 bc 94 db 9f 3d
       -0.02336091 0.03582784 -0.02798075 0.07805553
0003a0 af 1d 78 3c 93 83 91 bd 56 c5 d9 bd e4 77 83 bb
       0.015143796 -0.07105174 -0.10633342 -0.004012095
0003b0 1e 61 b9 3d 64 5e 2e 3d 3d f5 ae 3d 1a e9 43 bc
       0.09051727 0.042570487 0.08542869 -0.011957431
0003c0 42 b6 c7 3c 02 86 6d bd 00 33 8a bd f0 86 5d bd
       0.0243789 -0.057989128 -0.06748009 -0.054083765
0003d0 93 3e a9 3b 3c b5 92 be e7 33 21 3c 20 4c 06 3d
       0.00516493 -0.28653896 0.009839035 0.032787442
0003e0 a5 14 47 3d c6 e0 97 bd 51 ca 87 bd fd d9 4c 3d
       0.048603673 -0.07415919 -0.06630386 0.050012577
0003f0 31 90 d2 3d bf d7 c6 3d 2f c6 8f be 1a df 65 3d
       0.102814086 0.09709119 -0.2808089 0.05612097

head.conv.bias f4 [32]
000000 82 e8 5e 3c 3f da 90 3d f2 52 47 be 12 84 c5 bd
       0.013605239 0.07072877 -0.19465235 -0.09644331
000010 5d 6f b8 3b 04 b9 b0 bd b9 01 3c be 81 46 3d 3e
       0.00562851 -0.08629039 -0.18360032 0.18483926
000020 f6 62 c6 bd 40 8a e1 3d ad 64 9c 3d 12 a4 a1 3d
       -0.09686844 0.11012697 0.0763639 0.07892622
000030 75 f9 1d be 4a 69 d4 3d 93 44 c1 bd 6f f8 a0 bd
       -0.15427192 0.10371645 -0.094369076 -0.07859885
000040 a9 2c 0e 3e 19 99 f9 bd f8 ab bb 3c 76 b3 cc bc
       0.13884224 -0.12187404 0.02290915 -0.024987917
000050 42 79 ff 3d be e5 a0 3d 30 b7 df bc 1e ef 2d 3c
       0.124743 0.0785632 -0.02730903 0.010616092
000060 7b cf a5 bd 8c 3e 89 bd 05 5b bd bd 66 97 90 3d
       -0.080962144 -0.06701383 -0.09245876 0.07060127
000070 27 b0 df 3c d9 0d b1 3c 86 32 3b be a4 ad b6 3c
       0.027305676 0.021613048 -0.18280992 0.022299595

head.norm.weight f4 [32]
000000 d9 92 8f 3f 9f 91 84 3f 58 f1 9c 3f 56 c3 90 3f
       1.1216689 1.035694 1.2261152 1.1309612
000010 32 80 91 3f 06 4b 85 3f 8f 10 79 3f 2e 79 60 3f
       1.1367247 1.041352 0.9729089 0.87684906
000020 aa 76 86 3f f0 ea 9e 3f 46 89 84 3f f7 d5 81 3f
       1.0504963 1.2415447 1.0354393 1.0143422
000030 2d 94 aa 3f 0d 5a 90 3f 6e 4d 85 3f 9e 69 83 3f
       1.332647 1.1277481 1.0414255 1.0266607
000040 b0 14 a5 3f f9 3e 78 3f 34 c8 89 3f f4 d8 96 3f
       1.2896938 0.9697109 1.0764222 1.1784959
000050 b8 86 ac 3f 31 29 a2 3f 70 d1 8d 3f 2d fe 70 3f
       1.3478613 1.2668821 1.107954 0.9413784
000060 7f 95 9c 3f 92 91 87 3f 9b 84 9b 3f 0b d7 a0 3f
       1.2233123 1.05913 1.2149843 1.2565626
000070 3d ff a1 3f 97 8d 93 3f 72 fc 8c 3f 9e 01 81 3f
       1.2656018 1.1527585 1.101454 1.0078619

head.norm.bias f4 [32]
000000 33 8a 82 bd d1 55 c3 bb d2 87 38 be f5 1f d4 bd
       -0.06374016 -0.005961158 -0.18020561 -0.10357658
000010 47 87 61 3d 5b 86 13 be f6 1b 9d be d2 a5 ee bd
       0.05506065 -0.14406721 -0.30685395 -0.116527215
000020 e5 ec 52 bd 22 22 79 3b bc 85 8f 3d 1a b0 09 be
       -0.05149545 0.003801473 0.0700793 -0.13446084
000030 fd 8f 2c 3d 68 6e 5a be e1 34 6b bd ac bd 8c bd
       0.042129505 -0.21331179 -0.057423476 -0.068721145
000040 ee 12 49 be 6b 9e 01 bd 79 10 02 be 2c d2 87 be
       -0.19636127 -0.03164522 -0.12701596 -0.26527536
000050 d8 a3 08 bc 52 da a5 3c e1 24 34 3e 6d eb 9b bc
       -0.008339845 0.020245705 0.17592193 -0.019033158
000060 0e 5d 8a 3d 2b d1 52 be b8 50 1e be 14 95 16 3e
       0.0675603 -0.20587604 -0.1546048 0.14705306
000070 2b d5 0f 3e 77 53 d0 3d 8a fc 36 bd 8a 9c a6 3d
       0.14046161 0.1017217 -0.044674434 0.08135326

head.norm.running_mean f4 [32]
000000 40 bd af 3d 2e a8 d5 3d e4 c1 2f be cb 56 48 bd
       0.085810184 0.10432468 -0.17163807 -0.048910897
000010 d5 9a 85 bc 69 5f 41 bd 7c fe 2e be 4c a0 d1 3d
       -0.016309181 -0.04721013 -0.17089266 0.10235652
000020 ac ad bc bd 7b 1c 18 3e 50 fc 53 3d f3 19 21 3e
       -0.09212813 0.14854614 0.051754296 0.15732555
000030 49 ff d7 bd 08 4c c1 3d 65 43 c6 bc 52 08 f9 bd
       -0.10546739 0.0943833 -0.024202058 -0.1215979
000040 a9 31 32 3e a4 cc 03 be 14 fc a8 3c dc 3f 00 3d
       0.17401756 -0.12871033 0.020628013 0.0313109
000050 ba 0a 1b 3c 98 3b 71 3d 3c bd a6 bd 60 10 83 bd
       0.009463007 0.058894724 -0.08141562 -0.06399608
000060 8b c2 b9 bc 2e 87 85 bd 54 e0 3f be 87 f1 1f 3e
       -0.022675773 -0.06519924 -0.18737918 0.15619479
000070 02 76 96 bb b6 d8 74 bd 51 ed b5 bd 0a a2 81 3c
       -0.0045917043 -0.059776984 -0.08883155 0.015824337

head.norm.running_var f4 [32]
000000 90 78 32 3d 1c ac a2 3b 4c a8 09 3c 47 e5 d4 3c
       0.04357201 0.0049643647 0.0084019415 0.025988234
000010 9d 94 3f 3b f0 04 1c 3d a3 26 7c 3b 2b 43 07 3d
       0.0029232868 0.038090646 0.0038475178 0.03302304
000020 b7 89 61 3a 3e da 4e 3c 89 67 4f 3c 20 66 9e 3d
       0.000860359 0.012625275 0.012658962 0.077343225
000030 d3 fd 3f 3c 45 3b 01 3c 09 56 46 3d 43 fd f6 3b
       0.011718231 0.007887666 0.048421893 0.0075375154
000040 83 35 26 3c 90 d2 1a 3c 6d 03 6c 3c 10 2e 19 3c
       0.010144594 0.009449616 0.014405114 0.009349361
000050 23 fb 78 3d 64 d8 c0 3b 0c ec 23 3c 3c 75 3f 3d
       0.060786378 0.005885171 0.010005008 0.046742663
000060 fb 0d 8b 3c e1 a4 18 3b 0e 66 7d 3d 9e 87 06 3d
       0.01697444 0.0023291635 0.061864905 0.03284418
000070 ad 08 f7 3b 07 93 30 3d 0f 9c be 3d 27 98 7b 3b
       0.007538876 0.043108966 0.093071096 0.003839025

body.block1.conv.weight f4 [32, 32, 3, 3]
000000 6e c9 9e bd a2 17 a1 bd b3 f9 83 bc dc 74 a3 bd
       -0.077532634 -0.07865836 -0.016110277 -0.079812735
000010 03 6a fc bd 5a 10 f6 bd 73 ff 79 bc fe 0f e7 3c
       -0.12324908 -0.120148376 -0.015258658 0.028205868
000020 ea 74 9c bc c9 f3 60 3d b0 9c ac 3d bb 6c 68 3e
       -0.019098718 0.05491999 0.08428323 0.22697727
000030 c1 7c 44 bd 34 fa 68 3d 9d bf 42 3d fe cb c1 bc
       -0.047970537 0.056879237 0.047546018 -0.023656841
000040 e4 92 19 bd 24 5d 54 bd fe 06 ab bd d6 cd 29 bd
       -0.0374936 -0.05184664 -0.08350943 -0.041456066
000050 fa 20 bb bd 45 b3 c8 bd 34 e5 84 3d 04 60 27 3d
       -0.09137149 -0.09799818 0.064890295 0.040863052
000060 6a 36 60 3d 9a 44 ce 3d 0b a9 40 3e cf 32 2a bc
       0.054739393 0.100716785 0.18814485 -0.01038809
000070 52 d1 81 bd 21 d0 44 bd 1c e9 94 3d ef a2 6c 3d
       -0.06338753 -0.04805005 0.072710246 0.057772573
000080 02 87 51 3c ca ae 0e be c1 a7 f0 bd 1d 1b c4 bd
       0.012788536 -0.13933864 -0.117507465 -0.09575484
000090 0e 1f 1b 3d e7 d3 59 3d 68 72 8b 3e d6 66 07 3d
       0.037871413 0.0531806 0.27235723 0.033057056
0000a0 19 32 72 3d f8 10 a0 3d 19 1e 63 3d 8f b7 38 bd
       0.059129808 0.078157365 0.055448625 -0.04509693
0000b0 f3 9a 85 3d 48 90 57 3b 55 71 48 ba 7d 0f 8e bc
       0.06523695 0.0032892395 -0.00076462823 -0.01734137
0000c0 9a a8 59 bd 28 50 bb bd 17 0c b4 bd f2 a5 9f 3d
       -0.053139307 -0.09146148 -0.087913685 0.077953234
0000d0 55 44 9f 3d 8a 7d 99 3d 82 7f 13 bc da 34 33 3d
       0.07776705 0.07494648 -0.009002568 0.043751575
0000e0 5e 47 5b bd fd ca 51 3c fb 76 56 bc 28 b4 01 3e
       -0.053534858 0.012804744 -0.013089891 0.1266638
0000f0 ad cb 85 3d e4 59 c3 3d d8 0b e8 3c b2 df b1 3d
       0.06532989 0.0953863 0.02832596 0.086852446
000100 7f 74 8b 3d e1 c8 ff bc ac 14 2d bd 1d 80 0b be
       0.06809329 -0.031223716 -0.042256042 -0.1362309
000110 0f f2 70 bd 9c f3 f0 bd 09 d8 df bc 57 37 bb bd
       -0.058824595 -0.11765215 -0.027324693 -0.091414146
000120 15 4a 49 3c 93 bf 1a bc 61 45 e2 3d c7 a7 d9 bd
       0.012285729 -0.009445089 0.11048389 -0.10627704
000130 8f c9 a9 bd d0 41 f2 bc 8d 94 fb bc 20 54 11 bc
       -0.082903974 -0.029572397 -0.030710483 -0.008870155
000140 96 43 79 3c 13 bf 27 bd 03 b1 bb bc c3 8d 33 3d
       0.015213868 -0.040953707 -0.022911554 0.043836366
000150 6a 8f 5b 3d 6d a3 6b 3d 5c 9e 0d 3e 0a 98 d1 bd
       0.053603567 0.0575289 0.1382994 -0.10234077
000160 5d 24 d6 bd ca 24 e2 bc 70 c3 1e bc 18 e7 1b bd
       -0.104561545 -0.027605433 -0.009690151 -0.038062185
000170 9f 34 db 3c e1 63 aa 3c fa c8 f3 3c 66 fe f8 bb
       0.02675849 0.02079958 0.029758919 -0.007598686
000180 66 77 c7 3a 14 6b 9e bc d8 0b b9 3d fd a3 b5 bb
       0.0015218079 -0.019338168 0.09035462 -0.0055432306
000190 03 6c ae bc ad 0d c8 ba 78 2f 62 bd 53 60 b1 bd
       -0.021291738 -0.0015262865 -0.05522105 -0.086609505
0001a0 00 5a 22 bd 00 10 55 3d 96 e8 4a 3d c7 b4 ef 3c
       -0.039636612 0.052017212 0.049538217 0.029261006
0001b0 89 b1 81 bd 83 92 da b5 20 7c 67 3d 08 82 76 3c
       -0.0633269 -1.6284906e-06 0.05651486 0.01504565
0001c0 66 a6 96 3c c1 f0 17 3e 29 32 ae bd f9 e3 9a bd
       0.018389892 0.14837934 -0.08505661 -0.075630136
0001d0 05 39 31 3d 27 01 db 3d 31 04 b6 3d 81 f2 10 3e
       0.04326727 0.10693579 0.08887518 0.14155008
0001e0 c1 a6 d1 bb ef 95 31 3d 89 33 a1 bd bd 9f 7d 3c
       -0.0063980524 0.04335588 -0.07871158 0.015479979
0001f0 e2 b0 7d bd c7 d5 c6 3c 38 4f f5 bc 7d 74 93 bb
       -0.061936267 0.024271859 -0.029945001 -0.0044999705
000200 90 64 22 bd af a4 20 bd f7 4e d8 bd 26 1c b7 bd
       -0.039646685 -0.039219555 -0.10561936 -0.08940916
000210 e3 e5 93 3d 98 28 f1 3c d8 af 1f bd b4 c5 d5 3c
       0.07221582 0.029438302 -0.038986057 0.026095249
000220 1c 97 10 3d 08 9c d2 bc d4 1f 3b bd db 95 0c be
       0.03530036 -0.025709167 -0.04568465 -0.1372904
000230 46 e9 8c bd 1c 12 bc bd be e7 ed 3b 52 75 2b bd
       -0.06880431 -0.091831416 0.007260292 -0.041859932
000240 82 7f 00 be f5 dd 34 bd dd 87 d9 bd 77 55 45 bd
       -0.1254864 -0.044156987 -0.10621617 -0.04817721
000250 ac 99 24 bd d9 17 00 3b cd 48 58 3d f7 38 bd 3c
       -0.040185615 0.0019545464 0.052803803 0.023098452
000260 2e e9 87 3c cb 16 09 3e 17 42 a6 3d 14 b2 4a 3e
       0.01659068 0.13387601 0.081180744 0.19794494
000270 23 1e 80 bd e3 94 0f 3d 2e b0 43 bc 17 11 2c bd
       -0.06255748 0.0350541 -0.01194386 -0.042008486
000280 ef c0 80 bd bf 30 34 3c 20 b1 70 3d 59 1c 03 3e
       -0.06286799 0.01099795 0.05876267 0.12803783
000290 a3 b0 84 3d b9 c4 c3 3c 9a 10 43 3c 29 1a ae 3b
       0.06479003 0.023897516 0.011905814 0.005313177
0002a0 a8 31 10 be 43 ae 89 bd 70 b6 95 bd 40 94 b9 bd
       -0.14081442 -0.06722691 -0.07310188 -0.090614796
0002b0 9e 35 51 bd d4 cb 9b 3d 59 82 0e be a9 54 9f bd
       -0.051076524 0.076072365 -0.13916911 -0.077798195
0002c0 d7 26 8b bd 5f a1 90 bd 8e 01 00 bd 21 a8 bb bd
       -0.067945175 -0.07062029 -0.031251483 -0.091629274
0002d0 61 1d 05 3e 79 3c 87 3d 35 57 25 3d cf 65 0e bd
       0.12999488 0.06603331 0.04036637 -0.03476506
0002e0 a0 04 28 3d a2 c5 97 bd 59 21 a1 bd db c4 a2 bd
       0.041020036 -0.07410742 -0.07867689 -0.079477035
0002f0 9b b4 e7 bb a9 cd ad 3d ce f7 95 3c 5e 73 33 3e
       -0.0070710904 0.08486492 0.018306639 0.17524478
000300 13 84 2f 3d 46 dc 2d 3d 6e 86 4e bd 46 55 0a 3e
       0.042850565 0.042446397 -0.05042117 0.13509092
000310 f1 6a ab 3d 47 d5 0f 3e db fd a1 3a a1 4d d9 bc
       0.08370007 0.14046203 0.001235898 -0.026526274
000320 30 0f 06 3e 53 48 93 bd 01 32 d0 ba f4 a4 df 3b
       0.13091731 -0.07191529 -0.0015884043 0.006825084
000330 b3 ba a1 bd 57 8e cb bc 06 a1 09 3e 1b 68 ab bd
       -0.07896938 -0.024848146 0.13440332 -0.08369466
000340 67 4c 4c bd ed 43 3d bc 85 9e 3d bd 7f 11 cd bb
       -0.04987755 -0.011551839 -0.046293754 -0.006258189
000350 fc 38 45 bd f7 6a 11 3d a7 28 b2 ba a9 fb e5 bb
       -0.048150048 0.0355024 -0.0013592438 -0.0070185256
000360 20 0f 8d bc ed 65 36 bd 6f 82 dc bc af 3d 52 bc
       -0.017219126 -0.044530798 -0.026917664 -0.012832089
000370 db a6 f6 bd 21 6f 64 bd 80 d7 2a be 8c 34 de bd
       -0.12043544 -0.055770043 -0.16683769 -0.10849866
000380 b8 9f 12 be 11 c1 d1 bc 43 88 0a 3e b0 0f 6d 3d
       -0.1431874 -0.025604757 0.13528542 0.05787629
000390 f0 3e c4 3b ef 77 4a bd c9 dc 50 3d c1 3f dc bc
       0.005988948 -0.049430784 0.050991807 -0.026885869
0003a0 c8 b1 f8 3c a2 e1 b5 bd 40 3f 65 3d d9 aa 21 3d
       0.03035821 -0.08880927 0.055968523 0.039469574
0003b0 d9 54 61 3e 96 64 5c bd 60 ad e7 3c e2 ad 01 bc
       0.22005023 -0.053806864 0.028280914 -0.007914992
0003c0 70 5f 4d bd 86 b9 04 bd d3 f2 2b 3d 61 02 8e 3d
       -0.050139844 -0.03240349 0.041979622 0.069340475
0003d0 89 4c a1 3d ff 5f a1 3d 9c ed 1d bd 6b 8f 95 bd
       0.07875926 0.07879638 -0.03855668 -0.073027454
0003e0 f7 51 76 3d da 67 9a bd 73 1d df bd 79 f2 0a be
       0.06013676 -0.07539339 -0.10894289 -0.13569058
0003f0 f5 da 13 3d e8 bf 5a bc bd c8 6d bd 7e ac 48 bd
       0.036097486 -0.013351418 -0.058052767 -0.048992626

body.block1.conv.bias f4 [32]
000000 72 da 46 bd b7 f3 48 3c 7f be 2b bd c0 40 89 3d
       -0.04854817 0.012265137 -0.041929718 0.06701803
000010 59 23 81 3d 25 d3 1e 3d a6 12 30 bd c2 57 ed 3c
       0.0630557 0.038775582 -0.042986535 0.02897251
000020 e8 cc a4 3c e2 4b 9f bb d9 f9 f0 3c 49 f2 20 bd
       0.020117238 -0.004861341 0.029416012 -0.03929356
000030 7c 58 a8 3c f1 95 1c 3d 11 3b 59 bc 2c 97 0d 3d
       0.020550005 0.038228933 -0.013258711 0.034567997
000040 65 3b 78 3a 44 f5 3e 3d 7f 01 e0 bc 67 59 40 3d
       0.00094692997 0.046620622 -0.027344463 0.04696026
000050 4c 95 5e 3c 9a ef ea bb 36 63 ea bc 31 e2 d7 bc
       0.0135854 -0.007169676 -0.02861176 -0.026352974
000060 f0 b1 28 3d 3e 16 e5 bc ab 17 ac bc 83 10 b1 bc
       0.04118532 -0.027964707 -0.02100738 -0.021614319
000070 70 55 48 bd 65 d4 4f bc b4 ed 3d bd cd 50 7e bc
       -0.048909605 -0.012684916 -0.04636927 -0.015522194

body.block1.norm.weight f4 [32]
000000 aa 21 90 3f 94 81 88 3f e9 4f 8c 3f df 59 a2 3f
       1.1260273 1.0664544 1.0961887 1.2683676
000010 94 19 99 3f 59 50 94 3f fd 6f 88 3f a0 32 8e 3f
       1.1960931 1.158702 1.0659176 1.11092
000020 ad f5 6a 3f 88 3d a9 3f f3 c5 86 3f 9b 82 9f 3f
       0.9178112 1.3221903 1.0529159 1.2461733
000030 09 b1 87 3f 9d a1 86 3f 7e 60 8f 3f 1b 8e 96 3f
       1.0600902 1.051807 1.1201322 1.1762117
000040 d7 b4 89 3f 9c 5d 74 3f 8b 27 75 3f 48 8e 86 3f
       1.0758313 0.95455337 0.9576346 1.0512171
000050 a0 b2 8a 3f 41 40 96 3f 59 ca 91 3f f8 1d 9d 3f
       1.0835762 1.1738359 1.1389877 1.2274771
000060 bb 5e 8d 3f fa 7d af 3f 42 66 84 3f 88 5a 8a 3f
       1.1044534 1.371032 1.0343707 1.0808878
000070 91 2c 87 3f e3 9a 82 3f f2 95 ad 3f c5 9c 85 3f
       1.0560476 1.0203518 1.3561385 1.0438467

body.block1.norm.bias f4 [32]
000000 9d f1 52 be fe 0d a4 be 9e 15 b1 bd 61 bf 2b be
       -0.2059998 -0.32041925 -0.08646701 -0.16772224
000010 56 e3 f2 be 89 75 ec bd f6 5a 85 be 1a ad 8d bd
       -0.4743907 -0.115458556 -0.2604596 -0.06917782
000020 97 95 7e be 2d d8 98 be 6c 41 14 be e6 0a 46 be
       -0.24861751 -0.2985243 -0.14478081 -0.19340095
000030 38 bf 64 be 25 87 58 be 4b 9e 25 be 05 63 97 be
       -0.22338569 -0.21145304 -0.16173665 -0.29567733
000040 88 0b 24 be d9 d8 7d bd 7a d2 88 be 38 09 80 3c
       -0.16020024 -0.06197438 -0.2672308 0.015629396
000050 7b 98 35 be ce 7a 40 be 21 78 29 be 68 f4 5e 3d
       -0.17733948 -0.18796846 -0.16549732 0.054432303
000060 2b 63 5c be a8 86 74 be d6 8b 81 be 4f fe 1e be
       -0.21522205 -0.23879492 -0.25302 -0.15526699
000070 6f 29 d7 3c 7d ab 91 be 32 14 dc be d8 38 23 be
       0.026264874 -0.28451148 -0.42984158 -0.15939653

body.block1.norm.running_mean f4 [32]
000000 b2 30 d9 be 3a 26 b0 bd 16 75 1c 3f 9b 0a 73 c0
       -0.42419964 -0.08601041 0.6111616 -3.7975223
000010 d8 c9 24 c0 ed 57 cc 3e c2 16 74 3f 28 62 92 bf
       -2.5748196 0.39910832 0.95347226 -1.1436205
000020 98 d9 b1 3f 61 8c fb bf 83 fc da bf 27 0d 81 c0
       1.3894529 -1.9652215 -1.710831 -4.0328555
000030 73 4e 8e 3f 1b d6 19 40 c6 23 88 bf dd 62 05 be
       1.1117691 2.403693 -1.0635917 -0.13025995
000040 16 01 07 bf 47 3a 6a 40 85 f4 1f 40 78 86 a9 3f
       -0.5273603 3.659807 2.4992993 1.3244162
000050 31 d3 8e 3f 12 ae 0c c0 6f 73 7e 3f 20 10 0e c0
       1.11582 -2.1981244 0.9939489 -2.2197342
000060 23 6e 3a c0 ad c6 3e c0 66 8c 88 be df 60 b9 bc
       -2.9129722 -2.9808762 -0.26669616 -0.0226292
000070 fa 08 ac bf 11 f0 d6 3f b4 82 46 c0 c0 5f 7a 3d
       -1.344024 1.6792012 -3.1017275 0.06112647

body.block1.norm.running_var f4 [32]
000000 fe 08 19 40 2f 54 3a 40 3b 0d fc 3f e9 cc 81 41
       2.3911738 2.9113882 1.9691538 16.225054
000010 3c 10 4c 40 49 5e 30 40 61 05 ac 40 d3 31 09 40
       3.1884909 2.7557547 5.3756566 2.143666
000020 5e 99 82 40 c0 67 87 40 84 73 6b 40 05 b2 0a 41
       4.0812216 4.231415 3.6789255 8.668462
000030 f1 ab 09 40 dc 78 20 41 fa e6 32 40 b6 45 bc 3f
       2.1511195 10.029507 2.7953477 1.4708774
000040 fb b2 b4 40 8c 7f de 40 df f7 62 40 c0 ca 3e 40
       5.646848 6.9530697 3.5463789 2.9811249
000050 83 db dd 3f 7f f3 44 40 2e 0f 0f 40 bc 68 63 40
       1.7332615 3.0773618 2.2353015 3.5532675
000060 38 c5 7a 40 89 41 68 41 77 11 59 40 70 d5 ba 3f
       3.9182873 14.516 3.391691 1.4596386
000070 77 78 ee 40 12 c3 66 40 b8 42 7b 40 74 bd 21 40
       7.452205 3.6056561 3.9259472 2.5271883

body.block2.conv.weight f4 [32, 32, 3, 3]
000000 fe 14 71 bd aa 5d 8a bd 9f 23 7a bc b2 d3 33 bd
       -0.05885791 -0.06756146 -0.015267282 -0.04390306
000010 9a f6 64 bd d9 86 79 bc 20 5f c0 bc 83 af 71 bd
       -0.05589924 -0.015229904 -0.02348286 -0.05900527
000020 39 e1 ef bc d0 2f 66 bd 33 c9 4d bd d1 10 ad 3c
       -0.0292822 -0.05619794 -0.050240707 0.021126183
000030 99 17 61 3d df bf 5e bd 36 7f e0 bb 61 70 d3 3d
       0.054954145 -0.0543822 -0.006851102 0.10324169
000040 a6 d1 a1 bc 33 2a 19 bd 05 2c 19 be cd cc 6c bc
       -0.019753288 -0.03739376 -0.14958198 -0.014453125
000050 32 df e8 3d 8d 47 93 bd 93 9a cb bc 0c 8b ed 3d
       0.11370696 -0.071913816 -0.02485398 0.11598787
000060 e0 4c 05 bd be a2 5e b9 41 2d 9b 3d 1d 72 e6 bc
       -0.032544017 -0.00021232196 0.07576991 -0.028130585
000070 ac df 5c bd f7 c8 cf bc 5d be 80 3d eb be a5 3c
       -0.053924248 -0.025364382 0.06286309 0.020232638
000080 b3 d0 b2 3d 9e 8e a1 3d 18 07 e9 3d aa 8f f8 3d
       0.087312125 0.0788853 0.11378306 0.12136777
000090 68 dd 0a 3e f8 8e c3 bc 94 b2 86 bd 9b ce 38 3d
       0.13561022 -0.023871884 -0.0657703 0.04511891
0000a0 60 1b 47 bd b8 cd 83 bc 66 a9 64 3d 42 14 8c bd
       -0.04861009 -0.016089305 0.055825613 -0.06839801
0000b0 e1 b9 06 be c2 b3 ad 3b 3a de 6b 3c d4 11 34 3e
       -0.13156845 0.00530097 0.014396245 0.17584926
0000c0 4b dc b7 3c b9 43 1f bd b6 90 d4 3d 57 46 4d 3d
       0.022443911 -0.038882945 0.10379164 0.05011591
0000d0 6a 38 36 3d f1 c2 3e 3d 2d 0c 99 bd 65 cf 04 bd
       0.044487394 0.04657263 -0.074730255 -0.03242435
0000e0 24 f1 2e bc b4 40 b8 bc c8 41 8c bd ad 32 6d 3c
       -0.01067761 -0.02249179 -0.06848484 0.014477414
0000f0 e7 41 67 3d 00 0b cf 3c 17 6d 7c 3d 78 6a 30 bd
       0.056459334 0.0252738 0.061627474 -0.043070287
000100 9a 5d 05 3c c5 12 b7 bb c9 9a ad bd 8e 9f b6 bc
       0.008139992 -0.0055869543 -0.084767886 -0.022292878
000110 bd e3 0c 3c 41 9a 69 bd 73 d9 2b bd 0c 3b 24 bd
       0.008599219 -0.057031874 -0.041955423 -0.040095374
000120 e0 b0 ae 3c cd 86 65 bd 94 f5 81 3d f3 f2 a0 3c
       0.021324575 -0.05603676 0.063456684 0.019647097
000130 db 22 0d 3c 17 2c 8c 3d d0 7a df 3d c4 d6 e7 3d
       0.008614267 0.06844347 0.109120965 0.1132026
000140 a4 6f bb 3d fd d8 e9 bd e1 ba d7 bd 67 55 90 bd
       0.09152153 -0.1141834 -0.10533691 -0.07047539
000150 6e a1 c2 bd 63 65 a3 bc e0 51 93 bd 22 8d 50 be
       -0.095034465 -0.019945806 -0.07193351 -0.20366338
000160 4b ed 04 be cc 70 c2 bc f3 fa bb bd 57 02 a8 bd
       -0.12981145 -0.023735426 -0.09178724 -0.08203571
000170 30 a5 35 3d 7e 10 bd bd cc 27 37 bd 5b 04 37 bd
       0.04434699 -0.09231661 -0.044715688 -0.044681888
000180 6c 1d f4 bd d3 d0 56 bd 38 0c 18 be 9d c9 37 bd
       -0.11919674 -0.052445244 -0.14848411 -0.044870008
000190 4d 7f 1e bd 08 aa 09 bd ad c4 c8 bd f5 af b6 bd
       -0.038695622 -0.03360942 -0.09803138 -0.0892028
0001a0 45 73 87 bd aa 09 35 be 54 64 e7 bd ae 5e c7 bd
       -0.06613783 -0.17679468 -0.11298433 -0.097348556
0001b0 6e 6d a4 bd e6 41 a5 bc df 0a db 3d 28 75 a7 bd
       -0.080286846 -0.020173024 0.10695433 -0.08176643
0001c0 ec 11 0b be d1 16 5b bd 64 26 bc 3c b8 26 cf bc
       -0.13581055 -0.053488556 0.022967525 -0.025287017
0001d0 3f 20 d7 3d 56 4c c8 bd c6 f4 b8 bd 29 71 0b 3d
       0.10504197 -0.09780185 -0.09031062 0.034043465
0001e0 d5 ab b0 bc 58 09 07 bd e3 bb 53 3d d1 46 10 3d
       -0.02156631 -0.032967895 0.051692855 0.035223786
0001f0 d9 e9 52 3d 5e 4e 42 bc 55 03 31 bd e4 59 b2 bd
       0.051492546 -0.0118595045 -0.04321607 -0.087085515
000200 da 76 9e bd 59 97 76 bd 4a dc b6 bc d1 90 ac 3c
       -0.07737513 -0.06020293 -0.022321839 0.021065148
000210 9e 64 c8 bd 85 0e 8e bc f1 0b 62 bd 39 dc 97 bc
       -0.09784816 -0.017340908 -0.05518717 -0.018537628
000220 2f 7b a5 bd 35 13 11 3d 83 98 7a 3d 84 3e bc 3d
       -0.08080136 0.035418708 0.061180603 0.091916114
000230 62 10 0a 3e 38 d0 97 bd 57 4c 0b be 6a 80 be bd
       0.13482812 -0.074127614 -0.1360334 -0.09301837
000240 54 8f fe bb cf ab 26 bc f8 86 79 3d 17 04 88 bb
       -0.007768551 -0.010172798 0.06091973 -0.004150878
000250 83 99 bd bc bb b5 2c 3d 48 49 a3 3c c3 c2 e1 bc
       -0.02314449 0.0421655 0.019932404 -0.02755869
000260 d4 11 bb ba ac 1c e9 ba ae 81 b8 3c 69 eb 0a 3e
       -0.0014272281 -0.0017785034 0.022522774 0.13566364
000270 99 14 a2 3d e0 e2 99 3d 11 ee 11 3e 94 c1 bc 3d
       0.07914085 0.07513976 0.14250971 0.092166096
000280 ac ed 9f 3d 6f b2 02 3e 38 32 a8 3d f7 42 16 bb
       0.07809004 0.1276338 0.082127035 -0.0022928098
000290 b9 f5 f7 3d 1f a6 02 3e fb 99 ce bc 6d e4 46 3d
       0.12107415 0.12758683 -0.025219908 0.048557688
0002a0 b2 7b c8 3d 09 10 ca 3d 7e 6a f1 3d a9 51 c5 bc
       0.09789218 0.0986634 0.1178789 -0.02408679
0002b0 11 49 17 be 85 2f f5 bb 15 75 a3 3d b6 ae 18 bd
       -0.14773966 -0.0074824714 0.07981316 -0.037275992
0002c0 0d ac f6 3c ca 06 3e 3d 18 33 83 3d d8 0d 30 3c
       0.030111337 0.046393193 0.0640623 0.010745488
0002d0 f7 8f 91 bd 87 34 13 3d 16 29 6b 3d 16 95 43 be
       -0.07107537 0.035938766 0.05741223 -0.1909984
0002e0 db f4 a6 bd 6b 85 ba 3c d2 cf 23 bd 9d 51 a5 bd
       -0.08152171 0.022768697 -0.039993115 -0.08072207
0002f0 82 f3 a0 bc bc 51 ab 3c a7 ca 47 3d bb f1 30 3d
       -0.019647364 0.020912997 0.04877725 0.043199282
000300 a1 6b 63 3d 32 b6 bd 3c d7 d7 62 3d f1 1e c1 bd
       0.055522565 0.023158167 0.055381622 -0.0942973
000310 a9 e1 f0 bd e2 81 c0 bd 44 bf fd 3d f0 51 88 3d
       -0.11761791 -0.09399773 0.12389997 0.06656253
000320 aa 93 0c 3e cc 11 d0 bc d1 5e 75 bb 26 0e e9 3d
       0.13728204 -0.025399111 -0.0037440548 0.11379652
000330 5f 6b 33 bd 05 4b 86 bd 93 74 25 3d 7e 19 00 bd
       -0.04380357 -0.065572776 0.040394377 -0.03127431
000340 80 5c 02 3e 94 e5 83 3d c6 18 a5 3c 13 47 89 3d
       0.12730598 0.06440273 0.020153414 0.067030095
000350 9d 82 ad 3d 04 3d b4 bd b4 9f 6c 3b 88 42 da 3c
       0.08472178 -0.088007 0.0036105933 0.026643053
000360 21 e6 dc 3d e0 2b a3 3d ee 66 b4 3d 18 df 7e 3d
       0.10786081 0.07967353 0.08808695 0.062224478
000370 8d 63 e5 3c 34 95 ad 3c ff a8 2e bd 30 a1 1c bd
       0.028001571 0.02118931 -0.042641636 -0.038239658
000380 be 48 0b 3d e1 68 b6 bd df ab 91 bd 96 ee df bd
       0.03400492 -0.08906723 -0.0711286 -0.109341785
000390 a0 22 31 bd ff 48 87 bd 94 0c 5f bd 3d 35 8c 3c
       -0.04324591 -0.0660572 -0.054455355 0.01711523
0003a0 15 8d d1 3d ee 6a 00 3d ac a3 63 3d 5d 05 f4 3c
       0.102319874 0.031351976 0.05557601 0.029787714
0003b0 6c c5 41 3d 27 90 11 bc f8 ff 86 3c ef c5 88 3c
       0.047307417 -0.008884466 0.016479477 0.016695945
0003c0 77 f7 14 3d af ec ab 3d 81 d8 da 3d 6e 2a a3 bc
       0.036368813 0.08394753 0.10685826 -0.019917693
0003d0 2a 22 3d bd 48 52 16 3d 04 56 d2 3c 27 2e 63 3c
       -0.04617516 0.036699563 0.025675781 0.013865984
0003e0 ad 5b 1b 3d d3 01 1a 3c e1 01 f7 bc 48 70 cb bd
       0.037929226 0.009399849 -0.030152263 -0.09933525
0003f0 13 0f d1 bd ff f4 94 bd c8 56 7d 3d 5d 93 9a bd
       -0.10207953 -0.07273292 0.06185034 -0.075476386

body.block2.conv.bias f4 [32]
000000 ef d7 89 3b ce 60 e9 bb 7a 20 93 3b ad 82 b1 bc
       0.0042066495 -0.0071221357 0.0044899555 -0.021668756
000010 f1 32 18 bd f3 16 23 bd a3 6c 76 3d 81 d9 9a 3d
       -0.037157957 -0.039816808 0.060162198 0.07561017
000020 16 50 34 3d 19 2d e3 3c 9d 86 6c bd 76 3a c3 3c
       0.04402169 0.027731465 -0.057745565 0.023831587
000030 0d 88 3c bd b0 0c dc 3c 1d 98 1d bd f9 1e 00 bd
       -0.046028186 0.026861519 -0.038475145 -0.031279538
000040 dc 34 9a bc 04 a5 40 bc d3 8e 9c 3c 94 db 3e bc
       -0.018824033 -0.011758093 0.019111073 -0.011649031
000050 ec 49 ef bc 24 72 69 bc 93 2f 97 bc 72 48 7b bd
       -0.029210053 -0.014248405 -0.018455302 -0.061348386
000060 b3 e6 82 bd 07 14 0d bd 73 a5 44 3d 45 c6 99 3c
       -0.06391659 -0.034442928 0.048009347 0.0187713
000070 71 ce 2c bd b3 92 9a bc 1e 33 d9 bc c3 a0 56 3d
       -0.042189065 -0.01886878 -0.026513632 0.052399408

body.block2.norm.weight f4 [32]
000000 f3 5c 8f 3f b3 a1 a8 3f e3 8b 8a 3f 94 cc 8b 3f
       1.1200241 1.3174347 1.082394 1.0921807
000010 9a c0 82 3f c7 91 a0 3f 5b a1 76 3f d9 ea 7f 3f
       1.0215027 1.2544488 0.9633996 0.99967724
000020 38 aa 86 3f c1 a3 88 3f 3e 76 a4 3f 5c 8c 91 3f
       1.0520697 1.0674974 1.2848585 1.1370959
000030 b4 29 88 3f d1 d2 9c 3f 44 65 b3 3f 71 d6 96 3f
       1.0637727 1.2251836 1.4015279 1.1784192
000040 71 0e 9d 3f 1a 3f 8a 3f 94 84 8d 3f c7 20 a5 3f
       1.2270032 1.0800507 1.1056085 1.2900628
000050 d1 e3 ab 3f e1 4f 95 3f 8e 7d a2 3f 46 77 90 3f
       1.3428899 1.1665002 1.2694566 1.1286399
000060 9e 11 ae 3f af fb 83 3f a2 40 84 3f 16 cd 99 3f
       1.3599126 1.0311183 1.0332224 1.2015712
000070 e8 b9 8e 3f 50 a4 84 3f 10 53 96 3f 84 60 94 3f
       1.1150484 1.0362644 1.1744099 1.1591954

body.block2.norm.bias f4 [32]
000000 50 52 8f 3c 42 6c a1 be d2 85 a9 be 0d c4 80 be
       0.017495304 -0.31527907 -0.3310991 -0.25149575
000010 02 9f 69 be 27 ef 97 bd 48 1b 90 be 19 3e ca be
       -0.22814563 -0.074186616 -0.28145814 -0.39500502
000020 63 5f ab bc a7 31 b5 be e9 1b ab be 54 2c 5a bc
       -0.020919507 -0.35389444 -0.3341973 -0.013316233
000030 db 28 a0 be 4a 08 ed bd 8a 7b 3f be 0f 99 92 bd
       -0.3128117 -0.11573847 -0.1869947 -0.071581
000040 d1 20 15 be d9 b0 34 be 22 6f 4d be d2 a2 87 be
       -0.145633 -0.17645587 -0.20061925 -0.2649141
000050 c3 f2 4c be 9d d3 47 be 5b 00 c5 be c6 26 3b be
       -0.20014481 -0.19514318 -0.38476834 -0.1827651
000060 49 e5 01 be 66 ab 22 be 22 ad 2d be c1 fc 61 be
       -0.12685122 -0.15885696 -0.16960576 -0.22069074
000070 1b ae 81 bd 48 9d d5 bd 50 b8 3d be 7d 17 19 be
       -0.06332036 -0.1043039 -0.18527341 -0.14950366

body.block2.norm.running_mean f4 [32]
000000 98 2b 9f be 91 03 f9 bf 84 43 aa 3e 50 d4 da bd
       -0.31087947 -1.9454213 0.33254635 -0.10685027
000010 b5 5e 2b 3f 55 00 65 3f 12 4c 94 be 3f 02 46 3f
       0.66941386 0.8945363 -0.28964287 0.7734718
000020 c7 13 1c be c4 9c aa 3e cc a1 9b bf de 8b 92 bf
       -0.1524192 0.33322728 -1.2158751 -1.1448934
000030 7a 73 d1 3e 5a c8 94 bf 52 42 97 bf 34 d1 c8 bf
       0.40908414 -1.1623642 -1.1817114 -1.5688844
000040 69 cf 4a 3f ed ad 3d be 0c 43 ad 3e a4 c7 10 3f
       0.7922273 -0.18523379 0.33840215 0.5655463
000050 42 f8 ed 3e 71 5c 85 3f f7 7e 3b 3e 47 ba 28 bd
       0.46478468 1.0418836 0.18310152 -0.041193273
000060 fa 60 90 3d e5 46 dd 3d e7 f0 b3 bb 19 64 e5 3e
       0.07049747 0.10804538 -0.0054913643 0.4480293
000070 01 98 01 be 82 a5 fd be 9b af 74 be 1a 72 de 3f
       -0.12655641 -0.49540335 -0.23895113 1.7378571

body.block2.norm.running_var f4 [32]
000000 f2 4c 62 40 2a 1b f9 40 7d 53 06 40 4d ed 3c 40
       3.5359464 7.784566 2.0988457 2.9519837
000010 59 74 16 40 97 3e 93 40 ad 19 85 40 61 25 89 40
       2.3508513 4.6013904 4.1593843 4.285813
000020 e7 dd 98 3f 55 41 ee 3f 11 1d 9a 40 be 45 c8 40
       1.1942719 1.8613688 4.816048 6.2585135
000030 08 25 9d 40 37 4c ed 40 dd 64 9a 3f 19 14 d6 40
       4.9107704 7.4155536 1.2062031 6.6899533
000040 09 71 2d 40 bb 5a 87 3f 96 be 62 40 43 3a ef 3f
       2.710024 1.0574564 3.5428824 1.8689655
000050 93 bf c0 3f 86 27 25 40 03 5e 93 40 3c bb 35 3f
       1.5058464 2.5805373 4.605226 0.7098882
000060 f1 8d a5 3f 75 dd 16 40 92 6b 36 3f f6 3d 59 40
       1.2933942 2.3572667 0.7125789 3.3944068
000070 55 72 0f 40 ca 2a 40 40 e6 05 ce 3f 75 d6 b2 40
       2.2413533 3.0026116 1.609555 5.588679

body.block3.conv.weight f4 [32, 32, 3, 3]
000000 75 05 85 bd d0 9f 83 bd 2d 3f 02 bd 0d 7f 98 bc
       -0.064951815 -0.06426966 -0.03179853 -0.01861527
000010 b4 59 0a bd 47 99 f6 bc a3 2a 2a 3c ba 28 94 bd
       -0.033776954 -0.030102385 0.010386142 -0.072343305
000020 38 37 1b bd 6d 23 92 3d 10 6a 46 3d de 85 8e bd
       -0.037894458 0.07135663 0.048440993 -0.06959127
000030 79 06 23 bd c9 3c 92 bb 45 b5 bf bd 97 2c fa 3b
       -0.039801095 -0.0044628126 -0.09360746 0.00763471
000040 bb 68 82 3c 25 0b e6 bc 5f d7 d7 bc 26 b7 34 3d
       0.01591908 -0.028081486 -0.026347814 0.044119976
000050 08 40 06 3a 3b 71 76 bd ac 77 ee 3c bb 90 83 bd
       0.0005121236 -0.06016658 0.029109798 -0.064240895
000060 7e a9 6e bc 3c e0 49 3c e4 ca 5c bd 3e f1 66 3d
       -0.014566777 0.012321528 -0.05390443 0.05638241
000070 bd 2b af 3c bb b9 a4 3b dc c5 01 bd 24 4f 3a bd
       0.02138316 0.0050270236 -0.031682834 -0.04548563
000080 ee 5b 5a 3c 35 01 ea bd ff 94 a2 bd 56 88 94 3d
       0.013327582 -0.114260115 -0.07938575 0.072525665
000090 1f e7 2c 3d 73 4f 16 3c 3f 13 61 bc eb 61 ee 3c
       0.0422126 0.009174216 -0.013737499 0.029099425
0000a0 fc ea 1b 3c 03 58 c8 bb cd d6 7d bd cc c1 43 ba
       0.009516474 -0.0061140074 -0.061972428 -0.00074675377
0000b0 b9 cd eb 3d a8 a0 88 bb eb 92 ae bb 15 df 84 bd
       0.11513848 -0.0041695423 -0.0053275726 -0.06487862
0000c0 7d 20 51 3c 3c db 38 bc 4a be 43 bd 63 cb 2c be
       0.0127640935 -0.011282738 -0.047788896 -0.16874461
0000d0 6d e4 dd bd 17 dc d4 bd b4 e0 7e bd 96 68 8d bd
       -0.108345844 -0.10393541 -0.062226012 -0.06904714
0000e0 b6 0a cd bc 1e ef fd bb 9b a4 d1 bc 93 7b 0e bc
       -0.025029521 -0.0077494523 -0.025591185 -0.008696455
0000f0 14 fa 88 bc af d0 02 bd 89 a9 6e 3c d4 24 3e 3d
       -0.016720809 -0.031937297 0.0145667875 0.04642184
000100 1e 91 d1 3c ca 0b e6 3c 95 2f 49 bd 18 89 05 bd
       0.025581893 0.028081793 -0.049117643 -0.032601446
000110 05 05 2b 3d ae 9f 37 be 4a 3b 43 be c2 59 c8 bd
       0.041752834 -0.17932007 -0.19065586 -0.09782745
000120 c4 d0 80 bd 7a 6b 38 bd 39 03 c4 bb 90 fc 69 bd
       -0.06289819 -0.045024373 -0.0059818295 -0.057125628
000130 78 1c 97 bc 9f f2 ed bc 32 c0 fc bd f6 6f 84 bd
       -0.018446192 -0.029046355 -0.12341346 -0.06466667
000140 d8 0a 95 bd 05 83 fa 3c 03 16 06 3d c1 f6 fb bc
       -0.07277459 0.030580053 0.032735836 -0.03075731
000150 3a db a0 3d ff ee c8 3d db 18 78 3d 3e 7f 98 3b
       0.07854314 0.0981121 0.06057058 0.0046538403
000160 6a ab 86 bd af ad 7d bc 5d 16 43 3d 15 68 bf bb
       -0.065756634 -0.015483304 0.04762875 -0.005841265
000170 5d 51 eb bd 1c 0d bc bc 4b a3 b8 bc ee 79 ce bd
       -0.11490128 -0.02295547 -0.022538802 -0.1008185
000180 46 16 91 3d b2 3c 89 3d 9a b8 fe bb 59 40 94 3c
       0.070843264 0.0670103 -0.007773471 0.01809709
000190 fd d8 75 3c c7 a7 be bb 09 2b d0 bc 7e be c5 3b
       0.015005347 -0.0058183405 -0.025411146 0.0060346713
0001a0 5b 22 b1 3c 8a 78 00 bb 32 43 cb 3c 3a 0a 8c 3c
       0.021622827 -0.0019603097 0.024812315 0.01709472
0001b0 8d f2 8e bc 66 04 77 bc a8 85 59 bc e0 29 00 be
       -0.017449642 -0.015076732 -0.013276495 -0.12515974
0001c0 25 bc dd bd 5d fe f9 bd 8a a2 31 be b4 b3 d9 bd
       -0.10826901 -0.12206719 -0.1734716 -0.10629979
0001d0 1a 93 2d be 2f de 36 be 6b 7f 18 be 07 29 2e be
       -0.16950646 -0.17858194 -0.14892356 -0.17007838
0001e0 82 05 30 be 62 c5 1e be 28 e7 4c be 76 93 da 3b
       -0.17189601 -0.15504983 -0.20010054 0.0066704107
0001f0 57 f4 ac bc 73 c0 73 bd 97 2e dd bc 3c cb 00 3d
       -0.021112604 -0.059509706 -0.026999755 0.03144382
000200 fa 22 3a bd 8d 5c 86 bd 5e 0f 43 3c 55 97 8b bd
       -0.045443512 -0.065606214 0.011905519 -0.06815974
000210 73 3f 29 be ab 9d 56 bd 45 1e a2 bd b3 fb 82 bd
       -0.1652811 -0.052396458 -0.0791593 -0.06395664
000220 79 24 b3 bd 14 94 f9 bd 00 7d 87 bd a1 ba a0 bd
       -0.08747191 -0.12186447 -0.06615639 -0.07848097
000230 a6 77 06 be dd a5 15 3d 0d 39 97 bb 87 ab 4c bd
       -0.1313158 0.036535133 -0.0046149553 -0.04996827
000240 21 50 c4 bb 4b 71 d0 bc a6 58 63 bd ca ac d2 bd
       -0.0059909974 -0.025444647 -0.055504464 -0.10286863
000250 a5 c0 87 bd e2 db a5 bd 44 20 a4 3d 63 ba 90 3d
       -0.06628541 -0.0809858 0.08013967 0.070668004
000260 f8 c9 84 3b 1a 7c 67 bc 94 f7 bf bb ac 31 0f 3b
       0.004052397 -0.014128709 -0.005858371 0.0021849675
000270 b1 bf 82 3d c5 13 06 3d e5 1a 88 3d cf 3a 19 3e
       0.063842185 0.032733697 0.06645755 0.1496384
000280 e7 bd 61 3d c3 8e 57 bd c9 43 ee bd e4 2c 2d be
       0.055112746 -0.052626383 -0.11634023 -0.16911656
000290 cf f8 eb bd c7 80 0f be 6b df 34 be 0f 50 07 be
       -0.11522066 -0.14013968 -0.17663352 -0.13214134
0002a0 7e 13 89 3c 7a 8a ec 3b 6f fd 1b bd 63 75 ce bd
       0.016732927 0.007218656 -0.03808349 -0.100809835
0002b0 fa 20 c9 bd 09 d9 42 bd c7 70 89 bd 1e 7e bf bd
       -0.09820743 -0.047570262 -0.06710964 -0.09350227
0002c0 51 6d 49 bd c9 ee 26 3d 4f 16 9f bd a6 56 ad bd
       -0.049176518 0.040755067 -0.07767927 -0.084637925
0002d0 0e 2a 4d bd b2 04 58 3c 77 ae ae bd cb aa 01 be
       -0.050088935 0.013184713 -0.0852937 -0.12662809
0002e0 23 f1 91 bd 1f 82 6e bd 83 d6 9a be e6 56 3a be
       -0.07126071 -0.058229562 -0.30241784 -0.18197212
0002f0 4f a3 ae bd 6c d5 29 be 61 75 2c be 7d 5d 6d be
       -0.085272424 -0.1658532 -0.16841651 -0.23180194
000300 4f 79 bf bd e1 35 03 be 97 7f 0e be 6e ef 67 3d
       -0.0934931 -0.12813522 -0.13915859 0.056624822
000310 46 04 14 bd 91 4f 98 bd 55 6b f4 3c b1 7d 4e 3d
       -0.036136888 -0.07437051 0.029836336 0.050412837
000320 28 56 7e bd c7 f2 77 bd 25 66 01 3c a8 fc a4 bd
       -0.062093884 -0.060534265 0.007897888 -0.08056003
000330 1a 3e a8 3a f5 08 42 3d bb b7 5a bd cd 3a 17 bc
       0.001283589 0.047371823 -0.053397875 -0.009230328
000340 aa 99 04 3c 8e e4 e5 3c a3 04 62 bc dc 19 90 bc
       0.008093277 0.028063085 -0.013795051 -0.017590456
000350 e8 6b 1d bd 01 d5 1c bc 11 2d 71 bd c5 9d 11 be
       -0.038432986 -0.009572268 -0.05888087 -0.1422034
000360 a7 01 85 bc cd cd 8c bd e5 cb d3 bd cc aa 46 bd
       -0.01623614 -0.06875191 -0.10341624 -0.04850273
000370 13 50 50 3d ec 87 aa bd 74 6c 47 3c ee fe a6 3d
       0.050857615 -0.08326706 0.012171853 0.08154093
000380 20 49 81 bc d7 b4 56 bc ab b5 52 bd 73 2d da bc
       -0.015781939 -0.013104639 -0.051442783 -0.026633
000390 80 e3 14 bd 71 b1 15 bd 04 b2 47 3d aa 76 59 bd
       -0.036349773 -0.036546174 0.048753753 -0.053091682
0003a0 f9 89 48 bd 0a 96 8d 3c 08 92 f5 bb b8 08 40 bd
       -0.048959706 0.017283458 -0.007494215 -0.046883315
0003b0 a8 89 7f bd 36 c1 14 3d dc 64 4d 3c e9 65 1a 3c
       -0.06238714 0.036317073 0.012536254 0.009423711
0003c0 83 ea 47 3e ea b0 81 3d 5e b8 28 3d b5 7f 89 3c
       0.19523053 0.06332572 0.04119145 0.016784528
0003d0 1c 27 f7 3c 78 57 55 bd 0e 14 a3 bc c7 43 18 bd
       0.030170016 -0.05208537 -0.019907024 -0.037174013
0003e0 35 7c 8a bd cf fe 7f bd 2b 1f 94 bc be a2 5b bc
       -0.06761972 -0.062498864 -0.018081268 -0.0134055
0003f0 c1 9b d6 3b 58 6b 7b bd 15 0e 22 be 02 cd fa 3c
       0.006549329 -0.061381668 -0.15825684 0.030615333

body.block3.conv.bias f4 [32]
000000 01 2b d8 bc 24 ae f9 3c 37 54 1a bd 24 30 82 bc
       -0.026387693 0.030478545 -0.03767797 -0.015892096
000010 35 32 41 3c 5e b6 29 3c 34 21 ad bb 9e d4 aa bc
       0.011791755 0.010358421 -0.005283499 -0.020853337
000020 a0 a2 30 bd 21 10 d9 bb 18 76 73 bc d5 df 29 bd
       -0.04312384 -0.006624237 -0.014859699 -0.04147323
000030 d3 d2 43 bc de 14 37 3d 56 79 c2 3b 51 47 3b 3c
       -0.01195212 0.044697635 0.0059348745 0.011430577
000040 16 b6 24 bd b2 de 62 3c 5a d3 19 bd 79 01 19 3d
       -0.040212713 0.01384704 -0.037555076 0.03735492
000050 81 46 bf 3b 49 bc 28 3d 3c 00 0d bd 86 18 40 3d
       0.005837262 0.041195188 -0.03442405 0.046898387
000060 fe b5 b1 bc 21 a7 82 bd cf 7c 98 3b df cc 04 3d
       -0.021693226 -0.063795336 0.00465355 0.032421943
000070 92 d4 06 bd 17 05 1a 3d 67 f3 d6 3c 59 4a 92 3d
       -0.032917567 0.03760251 0.02623911 0.07143087

body.block3.norm.weight f4 [32]
000000 ad 05 55 3f db af 66 3f 32 d7 60 3f 35 08 47 3f
       0.83211786 0.90112084 0.8782836 0.777469
000010 12 8c 66 3f 18 11 4d 3f 87 7b 32 3f ee d8 44 3f
       0.9005748 0.8010421 0.6971974 0.7689351
000020 04 e1 35 3f 5a 4f 50 3f 69 3c 6b 3f 68 46 1a 3f
       0.7104647 0.8137108 0.91889054 0.6026368
000030 c0 2f 2e 3f f4 05 5a 3f 3c 49 44 3f 6a 7e 69 3f
       0.6804161 0.85165334 0.76674247 0.9120852
000040 50 52 3d 3f 07 68 3f 3f 92 d5 66 3f 7c b3 50 3f
       0.73953724 0.7476811 0.9016963 0.8152387
000050 9c f5 66 3f 76 86 29 3f e9 a3 38 3f ce 4f 29 3f
       0.9021852 0.66220796 0.7212511 0.661374
000060 35 9e 42 3f eb 3f 52 3f ea eb 2b 3f a6 b3 51 3f
       0.76022655 0.8212878 0.6715685 0.81914747
000070 47 44 58 3f d8 f7 54 3f bc 9d 0b 3f ae 08 6e 3f
       0.8447918 0.8319068 0.5453756 0.92981994

body.block3.norm.bias f4 [32]
000000 72 6e fb bd 58 41 0d bf b7 a1 87 be ec 32 6f be
       -0.12276925 -0.5517783 -0.26490566 -0.23359269
000010 3d 02 e8 bd e4 da 5e be b0 3d d1 be a7 ef 22 be
       -0.11328552 -0.21763188 -0.40867376 -0.15911733
000020 58 51 37 be cc 62 ee be fd 7d f3 be 73 0f fa be
       -0.17902124 -0.4655975 -0.4755706 -0.48839912
000030 29 ab 8e be d6 7f cb be 97 33 20 be fe c2 d1 bd
       -0.2786496 -0.3974597 -0.1564468 -0.1024227
000040 fd e9 d2 be dc e9 83 be 1a 31 18 be 52 01 c8 bd
       -0.41194144 -0.25764358 -0.14862481 -0.09765877
000050 03 44 b9 be bc a6 b2 be 15 9d b4 bd 2e 4c cb be
       -0.361847 -0.34892833 -0.088190235 -0.39706558
000060 0c 43 53 be a9 d7 24 bc 26 28 c8 be a0 0c 99 bd
       -0.20631045 -0.010061183 -0.3909313 -0.07473111
000070 27 05 bd be 0b 5b 16 be c1 84 b5 be fe 06 65 be
       -0.36917993 -0.14683168 -0.35452846 -0.22365949

body.block3.norm.running_mean f4 [32]
000000 f3 fe 51 c0 0e c3 9f bf cc a8 29 be b6 0d 71 bf
       -3.2811859 -1.2481401 -0.16568297 -0.94161546
000010 91 0e 34 c0 5f ba 27 3f 71 2a f2 be 38 ed e4 bf
       -2.813389 0.65518755 -0.47298005 -1.7884893
000020 5d 65 f2 bf bd 3d 47 bf 23 67 37 3e 7b a3 8b bf
       -1.8937184 -0.7782858 0.17910437 -1.0909265
000030 48 36 ef bf 77 3b 99 bf 42 9b c2 bf 6d d2 1c 3d
       -1.868844 -1.1971272 -1.5203631 0.038286615
000040 3c 28 db bf c9 eb 9e bf 4e 9b 42 bf fb a5 c2 bf
       -1.7121654 -1.2415706 -0.76018226 -1.5206903
000050 a7 76 3d 3f 48 ed b9 bf 56 00 a1 bf 56 3e 34 bf
       0.74009174 -1.4525537 -1.2578228 -0.7040762
000060 f1 da 89 bc 62 50 cb bf ba 43 7a bf 27 ad 42 3d
       -0.016828032 -1.5883906 -0.9775959 0.047528412
000070 16 64 42 3e 90 cd cb 3e 11 ef 66 bf eb 6d 30 bf
       0.18983492 0.3980527 -0.90208536 -0.6891772

body.block3.norm.running_var f4 [32]
000000 8e 36 ff 40 0f 8a 9f 40 f2 19 9f 40 b1 59 a8 3f
       7.9754095 4.985603 4.971917 1.3152372
000010 22 b2 de 40 35 ab e3 40 df 8f 17 41 4a 91 0f 40
       6.9592447 7.1146493 9.472625 2.2432427
000020 c9 81 0e 41 be f8 dd 3f 79 53 69 40 3f 04 fa 3f
       8.906686 1.7341535 3.6457198 1.9532546
000030 58 9b 99 40 c8 6e d1 3f 5e 27 16 41 8e c7 2e 40
       4.800213 1.6361933 9.384611 2.7309299
000040 81 5a 1c 3f bb a1 7c 40 4a 49 1c 3f 13 e4 b7 40
       0.610756 3.9473712 0.6104933 5.746591
000050 34 be e4 40 a5 34 d7 3f 33 84 5b 41 b8 ed 59 40
       7.148218 1.6812941 13.719775 3.4051342
000060 7f 38 31 41 b4 d7 9f 40 3f 19 e2 40 59 d6 40 40
       11.076293 4.995081 7.065582 3.0130827
000070 ff 54 85 40 6a ea 59 41 07 6f a3 40 41 8e 82 40
       4.1666255 13.61973 5.107303 4.079865
