trained_models/sinGan/cows/scale_factor=0.750000,alpha=10/5/netD.pth (torch_old, 461765 bytes, 25 tensors)

head.conv.weight f4 [64, 3, 3, 3]
0	0xbdcb3a0c	-0.09923181
1	0xbd2f745b	-0.042835575
2	0x3d842895	0.06453053
3	0xbd1ee697	-0.038794126
4	0xbc714374	-0.014725555
5	0x3c993c22	0.018705431
6	0x3cc7056a	0.024294574
7	0x3c9229a3	0.01784212
8	0xbbf3c241	-0.0074389284
9	0xbdb7a7a7	-0.08967524
10	0xbb23314a	-0.0024901205
11	0x3dfb618e	0.122744665
12	0xbd0bece6	-0.03416147
13	0x3c20e93f	0.009821235
14	0x3d7ec88d	0.06220298
15	0x3bfcb548	0.00771204
16	0x3c7db0e9	0.015484073
17	0x3bf9398e	0.007605738
18	0x3d171928	0.036889225
19	0x3c6f66a5	0.014611875
20	0x3d6d36de	0.057913654
21	0x3c829932	0.01594219
22	0xbc152912	-0.00910403
23	0xbcb6a2a6	-0.022294354
24	0xba5072c5	-0.00079516723
25	0xbb4b4324	-0.003101536
26	0xbd45dd58	-0.048306793
27	0x3de06d86	0.1095839
28	0xbcab044d	-0.020876074
29	0xbcfcf6ef	-0.030879466
30	0xbcccb987	-0.02499081
31	0x3d8629e5	0.065509595
32	0x3cb24ac9	0.021764176
33	0xbd95e58b	-0.073191725
34	0xbb301282	-0.00268665
35	0x3cc8689d	0.024463946
36	0x3e02a3af	0.12757753
37	0xbceaa692	-0.02864388
38	0xbd0fe14c	-0.03512697
39	0xbb980c37	-0.004640128
40	0x3d397ff2	0.045288034
41	0x3c0b4bce	0.00850196
42	0xbd909d1c	-0.07061216
43	0xbcc244bb	-0.023714414
44	0x3bd9040a	0.006622796
45	0x3e076ea5	0.13225801
46	0xbd0a40cc	-0.0337532
47	0xbd3e0789	-0.046393905
48	0xbd4c49f2	-0.049875207
49	0x3cd75960	0.026287735
50	0x3cb824e0	0.02247852
51	0xbd443861	-0.04790533
52	0xbc30a455	-0.010781367
53	0x3d346292	0.044039316
54	0xbd2d7842	-0.042351015
55	0x3c770e9c	0.015079167
56	0x3d2a1658	0.041525215
57	0xbcb7f889	-0.022457378
58	0xbb17d62a	-0.0023168423
59	0xbbb64013	-0.0055618375
60	0x3dc9e998	0.098590076
61	0xbc541cc5	-0.012946312
62	0xbcd96354	-0.026536621
63	0xbdc26435	-0.09491769
64	0xbcb984bf	-0.022646306
65	0xbc539dcd	-0.012916041
66	0xbd522124	-0.051301137
67	0xbcae7416	-0.021295588
68	0xbcd53cab	-0.026029905
69	0x3da12b65	0.07869605
70	0xbcc9d59a	-0.024637986
71	0xbc697284	-0.014248494
72	0xbc73fba7	-0.014891542
73	0x3cff8c5d	0.03119486
74	0x3d66d747	0.05635765
75	0x3bd59367	0.006517816
76	0x3c718040	0.01474005
77	0x3c079f29	0.008277693
78	0x3dfb3103	0.122652076
79	0xbc5ea20f	-0.0135884425
80	0xbcaf61de	-0.021408971
81	0x3ddd4a0e	0.108051404
82	0x3d41968f	0.047262724
83	0x3d6ef406	0.058338188
84	0x3d73ef40	0.05955434
85	0x3cd1e1dd	0.025620395
86	0x3cca6e3b	0.024710765
87	0x3d8e3084	0.06942847
88	0x3cb06da6	0.02153666
89	0x3cbe4350	0.023225456
90	0xbd4fc043	-0.050720464
91	0xbd65463f	-0.055975195
92	0xbd309a86	-0.043116115
93	0xbd2412e3	-0.040057074
94	0xbd4a061c	-0.049322233
95	0xbd354451	-0.044254605
96	0xbcfca61f	-0.030840931
97	0xbcf00c8f	-0.029302863
98	0xbb2b7d5a	-0.0026167245
99	0xbd824b18	-0.06361979
100	0xbd2a00d7	-0.041504707
101	0xbd87ef14	-0.066373974
102	0xbd13c682	-0.036077984
103	0xbc9fbbd5	-0.019498745
104	0xbce99bae	-0.028516617
105	0xbcb14f43	-0.02164424
106	0xbca66ea2	-0.020316426
107	0xbd470632	-0.048589893
108	0x3c401538	0.011723809
109	0x3cf2d844	0.02964414
110	0x3cd32b61	0.02577752
111	0x3c472598	0.012154959
112	0x3a520124	0.0008011034
113	0x3d0494e1	0.032368544
114	0x3ca4223b	0.020035854
115	0xbc111273	-0.008854496
116	0x3cd57e79	0.026061283
117	0xbd7b2289	-0.061312232
118	0xbcbd7ad0	-0.02312985
119	0xbd7baec1	-0.061445955
120	0xbcde4185	-0.027130852
121	0xbc94deb1	-0.018172594
122	0xbc4e8d3f	-0.012606918
123	0xbd3b7632	-0.045767017
124	0xbd1c6533	-0.03818245
125	0xbd3c9998	-0.046044916
126	0xbafed701	-0.0019442738
127	0x3d1ef15e	0.038804404
128	0x3e0e2648	0.1388179
129	0x3d96057f	0.07325267
130	0xbc4c3323	-0.012463364
131	0x3da7f606	0.08201222
132	0x3dc86036	0.09783976
133	0xba800146	-0.0009766005
134	0x3de074e8	0.10959798
135	0x3d2b101b	0.041763406
136	0x3d55b677	0.052175965
137	0x3d071f99	0.03298912
138	0x3ba137bd	0.0049199746
139	0x3cde1cc0	0.027113318
140	0x3ceef069	0.02916737
141	0xbcafa6ec	-0.0214419
142	0x3c1bab9c	0.009501364
143	0x3cd90233	0.026490306
144	0xbdef4c35	-0.11684457
145	0xbd20cb99	-0.039256666
146	0xbd4966cb	-0.049170297
147	0xbdbfce7a	-0.09365554
148	0xbc8838eb	-0.016628703
149	0xba610af1	-0.0008584699
150	0xbd94ebe1	-0.07271553
151	0xbca0a794	-0.019611157
152	0x3c363cb5	0.011122872
153	0x3b466749	0.0030273965
154	0x3b09e623	0.0021041713
155	0xbca28b01	-0.019841673
156	0xba99f416	-0.0011745717
157	0x3c28b06c	0.0102959685
158	0xbd4ad83c	-0.049522623
159	0x3d1ffa69	0.03905717
160	0x3d017c7b	0.031612854
161	0xbc1b6f0d	-0.009486926
162	0xbd8ca02d	-0.068664886
163	0xbd78ca50	-0.060739815
164	0x3d8febaa	0.07027371
165	0x3d4a9f9a	0.049468614
166	0xbbe97f9c	-0.007125808
167	0x3d16026a	0.036623396
168	0xbd11a95c	-0.035561904
169	0x3bf4140f	0.0074486802
170	0xbd2c782f	-0.042106804
171	0xbcadd900	-0.021221638
172	0xbd1057d8	-0.035240024
173	0x3d34e9dd	0.044168342
174	0x3d95510a	0.072908476
175	0xbc53a5e1	-0.012917967
176	0xbc125df0	-0.008933529
177	0x3c158ebe	0.009128271
178	0x3bd17a66	0.006392765
179	0xbd7d28f9	-0.061806653
180	0xbc84206e	-0.016128745
181	0xbac778ae	-0.001521846
182	0x3dd2a8c1	0.102860935
183	0x3d3be395	0.045871336
184	0xbcc720bd	-0.024307603
185	0xbc82b320	-0.015954554
186	0xbd8c4ff8	-0.0685119
187	0xbc830b82	-0.015996698
188	0xbdad1b20	-0.08452439
189	0x3ddf3666	0.108990476
190	0x3da598ed	0.08085809
191	0x3d976d87	0.073939376
192	0xbc48c422	-0.012253793
193	0xbc728a24	-0.014803443
194	0xbd08c407	-0.03339007
195	0xbdc03a40	-0.0938611
196	0xbcd1160f	-0.025523214
197	0x3b038296	0.002006685
198	0x3cdcd78b	0.026958248
199	0x3d653fe2	0.055969127
200	0x3d2a3446	0.041553758
201	0xbcb42b8c	-0.021993421
202	0xbc12e722	-0.008966239
203	0xbd1fb0d7	-0.038987007
204	0xbd6b5896	-0.05745753
205	0x3cce1673	0.025157189
206	0x3d35bdaf	0.04437035
207	0x3dad3802	0.08457948
208	0x3d2a88e4	0.041634455
209	0x3d9b71ad	0.07590041
210	0xbc88eeab	-0.016715368
211	0xbd09be11	-0.033628527
212	0xbd48cab9	-0.049021456
213	0xbd66d9d6	-0.05636009
214	0xbc8ee38b	-0.017442485
215	0xbcc3b3e4	-0.02388949
216	0xbc492976	-0.012277951
217	0xbd5a1627	-0.053243782
218	0xbd8ef50e	-0.06980334
219	0xbd6d3778	-0.057914227
220	0x3c27b166	0.010235166
221	0x3cfa2b60	0.030538261
222	0xbd0cee12	-0.03440673
223	0x3d0c364e	0.034231476
224	0x3dcc2dd9	0.09969682
225	0x3d5b6e88	0.053572208
226	0xbc3d42a8	-0.011551537
227	0xbd8eb358	-0.06967801
228	0xbced324f	-0.028954653
229	0x3c534ff3	0.012897479
230	0x38468786	4.7333095e-05
231	0xbcf52329	-0.029923992
232	0x3c22bae3	0.009932253
233	0x3d73246b	0.059360903
234	0x3daae871	0.08345116
235	0x3d0dd4f4	0.034626916
236	0xba9c5cb7	-0.0011929487
237	0xbc756aaa	-0.014979044
238	0x3cccc029	0.024993973
239	0x3c986ec4	0.018607505
240	0xbd15ab35	-0.03654023
241	0xbcfa9862	-0.03059024
242	0xbcd8d8ff	-0.02647066
243	0x3bab700b	0.0052318624
244	0x3bd8938d	0.0066093863
245	0x3d429de6	0.047513865
246	0xbd38294b	-0.044961255
247	0xbd5a1079	-0.053238366
248	0xbd39f080	-0.045395374
249	0x3ddaef80	0.10690212
250	0x3cb885d8	0.02252476
251	0x3d4b99a3	0.049707066
252	0x3d44bd47	0.04803207
253	0x3cd9ed47	0.0266024
254	0x3cd6dd0b	0.026228448
255	0xbd522656	-0.05130609

head.conv.bias f4 [64]
0	0xbdee870f	-0.11646854
1	0x3d8963f1	0.067085154
2	0xbe472983	-0.19449429
3	0x3e0caa94	0.13736945
4	0x3e6d5561	0.231771
5	0x3e3fc917	0.18729053
6	0xbe08ae82	-0.1334782
7	0x3a6e4f01	0.0009090752
8	0x3e52a259	0.20569743
9	0x3ddf852a	0.10914071
10	0x3e66c40f	0.22535728
11	0x3e0c2976	0.13687691
12	0x3d478a44	0.048715845
13	0xbe12ee2e	-0.14348671
14	0x3e73c634	0.23806077
15	0x3d5e8592	0.0543266
16	0xbdd829b9	-0.10554833
17	0x3e223495	0.15840371
18	0xbddfb1d2	-0.109225884
19	0x3d4b6b66	0.04966297
20	0xbe0fef2d	-0.14056082
21	0x3e698df4	0.22808057
22	0xbe7c69ad	-0.24649687
23	0xbe5165e3	-0.20449023
24	0xbd8699bc	-0.06572291
25	0xbd9703bd	-0.0737376
26	0xbda37298	-0.079808414
27	0x3e3bbb56	0.18333182
28	0x3e2c3418	0.16816747
29	0x3dd2cdc6	0.102931544
30	0x3e73a29e	0.23792502
31	0x3d49e7e5	0.049293417
32	0x3e00b1f0	0.12567878
33	0xbe058214	-0.13037902
34	0xbd491a34	-0.049097255
35	0x3d0926cc	0.033484265
36	0x3e3e5973	0.1858881
37	0x3e25c481	0.16188242
38	0xbe396dfd	-0.18108363
39	0x3e2b3f5a	0.16723385
40	0x3d28d479	0.041218255
41	0x3e463a62	0.19358209
42	0x3e40e52d	0.18837424
43	0x3dbbaa16	0.09163301
44	0xbe702c67	-0.23454438
45	0xbe0ceaee	-0.13761494
46	0x3d91b6f8	0.07114977
47	0xbe07fe88	-0.1328069
48	0xbc8d94bb	-0.017282834
49	0x3e508f35	0.20367129
50	0x3def893c	0.11696097
51	0xbd61673c	-0.055030093
52	0x3e2f4b78	0.17118633
53	0x3bebd070	0.0071964785
54	0xbdd32a86	-0.10310845
55	0xbd3a92c3	-0.04555012
56	0xbedd9f7c	-0.4328574
57	0x3d18b672	0.03728337
58	0x3e454abc	0.1926679
59	0x3ceb5bd4	0.02873031
60	0x3b2423aa	0.0025045672
61	0x3dd5090b	0.104021154
62	0x3d7d8cfd	0.061902035
63	0x3e084129	0.13306107

head.norm.weight f4 [64]
0	0x3f8cf29c	1.1011539
1	0x3f7153a1	0.9426823
2	0x3f6a2ff6	0.9147943
3	0x3f7325fc	0.94979835
4	0x3f66f85a	0.90222704
5	0x3f419338	0.75615263
6	0x3f744b91	0.95427805
7	0x3f89294f	1.0715731
8	0x3f8044c7	1.0020989
9	0x3f770a1a	0.9649979
10	0x3f6e15be	0.93001926
11	0x3f8576d7	1.0426892
12	0x3f7c5f2a	0.9858271
13	0x3f93072d	1.1486565
14	0x3f57ac3d	0.8424719
15	0x3f6daff1	0.9284659
16	0x3f5e5f42	0.868641
17	0x3f4c8466	0.79889524
18	0x3f73ec23	0.9528219
19	0x3f72c186	0.94826543
20	0x3f55f068	0.83569956
21	0x3f63eb3f	0.8903083
22	0x3f52f3c4	0.82403207
23	0x3f603227	0.87576526
24	0x3f475ec3	0.7787897
25	0x3f8fccb9	1.1234351
26	0x3f5efa8a	0.8710104
27	0x3f802ccd	1.0013672
28	0x3f87a4a3	1.0597118
29	0x3f5f1c3d	0.87152463
30	0x3f751def	0.957488
31	0x3f50f647	0.8162579
32	0x3f7cb328	0.9871087
33	0x3f9f2266	1.2432373
34	0x3f80649f	1.0030707
35	0x3f448150	0.76759815
36	0x3f7caded	0.9870289
37	0x3f73fdd2	0.95309174
38	0x3f9d0080	1.2265778
39	0x3f8dc8e4	1.1076932
40	0x3f6accd1	0.91718775
41	0x3f7a97ae	0.97887695
42	0x3f5843f3	0.8447868
43	0x3f903aef	1.1267985
44	0x3f873803	1.0563968
45	0x3f657d8f	0.8964471
46	0x3f82857e	1.0196989
47	0x3f8b6510	1.0890217
48	0x3f6b6d80	0.9196396
49	0x3f528f24	0.82249665
50	0x3f5c4856	0.86047876
51	0x3f802477	1.0011128
52	0x3f8145a8	1.0099382
53	0x3f6387d4	0.8887913
54	0x3f9453b3	1.1588043
55	0x3f8a7465	1.0816771
56	0x3f67e33b	0.905811
57	0x3f47bbdf	0.78021044
58	0x3f5812f4	0.8440392
59	0x3f6b8177	0.9199442
60	0x3f85314b	1.0405668
61	0x3f95adb0	1.169363
62	0x3f7c943f	0.98663706
63	0x3f53a0fd	0.82667524

head.norm.bias f4 [64]
0	0xbd728fb6	-0.059219085
1	0x3ebc9efd	0.36840048
2	0x3eef781e	0.4677133
3	0x3e77545b	0.24153273
4	0x3eb83cbf	0.35983846
5	0x3f94ac1a	1.1615021
6	0x3bb29c76	0.0054507805
7	0x3ef84823	0.48492536
8	0x3e3a470e	0.18191168
9	0x3ec2fd5a	0.38083917
10	0x3e8eeba6	0.2791416
11	0x3eda2529	0.42606476
12	0x3b9c0545	0.0047613704
13	0x3edce015	0.4313971
14	0x3f4aa244	0.7915385
15	0x3dcaf0ad	0.099091865
16	0x3ec41c16	0.38302678
17	0x3ed24564	0.41068566
18	0x3e9a51b8	0.3014047
19	0x3ea39486	0.31949252
20	0x3f399c8a	0.72504485
21	0x3e65824a	0.22412983
22	0x3ef1f6b3	0.4725853
23	0x3eec0941	0.4610081
24	0x3ebe48cf	0.37164924
25	0x3d1b761e	0.037954442
26	0x3f032d75	0.51241237
27	0xbe322b32	-0.1739929
28	0x3e813888	0.25238442
29	0x3e718adf	0.23588131
30	0x3e21f9c8	0.1581794
31	0x3ed2daef	0.41182658
32	0x3ebc0c13	0.36727962
33	0x3dff7c00	0.12474823
34	0xbe871506	-0.26383227
35	0x3eccbeee	0.39989418
36	0x3eaadf7f	0.3337364
37	0x3e00381c	0.12521404
38	0x3cdc9647	0.026927127
39	0x3eecd782	0.4625817
40	0x3ece232a	0.40261203
41	0x3eced8a6	0.40399665
42	0x3eed4872	0.46344334
43	0x3d860e98	0.06545752
44	0x3d4daca6	0.05021348
45	0x3e940ad1	0.28914502
46	0x3e648b29	0.2231871
47	0xbe03d035	-0.12872393
48	0x3dc05696	0.09391515
49	0x3eddbbdc	0.43307388
50	0x3ea37bd1	0.31930402
51	0x3e31bc3f	0.17356966
52	0x3efed7ac	0.4977392
53	0x3e03ea38	0.12882316
54	0x3ec7a7fc	0.3899535
55	0x3e01eea3	0.12688689
56	0x3f27ea78	0.65592146
57	0x3eb99972	0.36249882
58	0x3e0eb36f	0.13935636
59	0x3c6b632f	0.014366909
60	0x3cd283a6	0.02569754
61	0xbcb323b1	-0.021867605
62	0xbe70a94c	-0.23502082
63	0x3ebb93ed	0.36636296

head.norm.running_mean f4 [64]
0	0xbe0b4984	-0.13602263
1	0x3d5f86fd	0.054572094
2	0xbe970f6a	-0.29503947
3	0x3e9f98a2	0.31171137
4	0xbd0977ef	-0.033561643
5	0x3e32d91b	0.17465632
6	0xbdc8c840	-0.0980382
7	0x3bfd7f85	0.007736149
8	0x3e352e9c	0.17693561
9	0x3daeacba	0.08529039
10	0x3e66afb4	0.22527963
11	0x3eac6376	0.33669633
12	0xbe27dccb	-0.1639282
13	0xbe6fd136	-0.23419651
14	0x3e7a2fd8	0.24432313
15	0xbe016395	-0.12635644
16	0xbde602c0	-0.11230993
17	0x3e4b1fd8	0.19836366
18	0x3cab1a03	0.020886427
19	0xbce67d0e	-0.028135803
20	0xbe796545	-0.24355038
21	0x3ce1fe41	0.027587058
22	0xbdd9d134	-0.106356055
23	0xbeb832c9	-0.35976246
24	0xbde8ccb4	-0.11367169
25	0x3d1ce8a8	0.038307816
26	0xbe0f33d2	-0.13984612
27	0x3ecb8e1e	0.39756864
28	0x3e584c8c	0.2112295
29	0x3e383841	0.17990209
30	0x3e30b44b	0.17256276
31	0x3bc83c43	0.0061106994
32	0x3e295683	0.16536908
33	0x3c3419bc	0.010992464
34	0xbe1a6e44	-0.15081125
35	0xbc73e109	-0.0148851955
36	0x3e2f7113	0.17132978
37	0x3d801601	0.06254197
38	0xbe3d7af3	-0.18503933
39	0x3dc525e7	0.0962637
40	0x3d2c6787	0.04209092
41	0x3e50aef9	0.20379247
42	0x3e0f3b03	0.13987355
43	0x3e08cb24	0.13358742
44	0xbe3d9020	-0.1851201
45	0xbd697ba4	-0.05700268
46	0x3e055d22	0.13023809
47	0xbe11872a	-0.14211717
48	0xbc9a6abe	-0.018849727
49	0x3e7c2e9a	0.24627152
50	0x3e909285	0.28236786
51	0xbd18f729	-0.037345085
52	0xbc0eb5c4	-0.0087103285
53	0x3c7212d9	0.014775001
54	0xbcd1ebef	-0.025625197
55	0x3db092bf	0.086217396
56	0xbf194c30	-0.5988188
57	0x3e20a8be	0.1568937
58	0x3e2400f7	0.16015993
59	0xbc5ae9b9	-0.013361388
60	0x3e128d19	0.14311637
61	0x3d8cfdca	0.06884344
62	0x3db079a4	0.08616951
63	0x3dd10d98	0.10207671

head.norm.running_var f4 [64]
0	0x3b55d17d	0.0032626085
1	0x3b8f7c2f	0.0043788175
2	0x3b4c8181	0.003120512
3	0x3b545f60	0.003240548
4	0x3bc3f04f	0.0059795748
5	0x3b334a46	0.0027357503
6	0x3b2deeb9	0.0026539995
7	0x3c02a1d7	0.007973156
8	0x3b0ed0dd	0.0021791973
9	0x3b46a8f7	0.0030313113
10	0x3b213b1c	0.0024601882
11	0x3baffbd6	0.0053705974
12	0x3c237cd6	0.009978494
13	0x3c2d3e1a	0.010573888
14	0x3c58a92c	0.0132239275
15	0x3b9f131d	0.0048545734
16	0x3c66819f	0.01406899
17	0x3c30300e	0.010753645
18	0x3c4f3368	0.012646534
19	0x3b3239ac	0.002719502
20	0x3c027f4e	0.007964922
21	0x3b605d96	0.003423547
22	0x3b53cf54	0.0032319622
23	0x3c13ec65	0.009028529
24	0x3cc9b22a	0.024621088
25	0x3bb0bb69	0.005393435
26	0x3b192f33	0.002337408
27	0x3b8da75c	0.0043229293
28	0x3bab3f6f	0.0052260677
29	0x3b721653	0.0036939576
30	0x3b21330f	0.0024597084
31	0x3ca88c42	0.020574693
32	0x3c6a3431	0.01429467
33	0x3c24904f	0.0100441715
34	0x3c54bd8a	0.012984643
35	0x3bf08c12	0.0073409164
36	0x3b47a06c	0.003046061
37	0x3bbe5158	0.005808037
38	0x3b8077f8	0.0039205514
39	0x3c0f4ca8	0.008746304
40	0x3b811e26	0.0039403616
41	0x3b5a34ae	0.003329556
42	0x3b3a4da0	0.0028427616
43	0x3bd6b182	0.0065519223
44	0x3bb9a242	0.0056650946
45	0x3bb1998e	0.0054199165
46	0x3c397285	0.0113188075
47	0x3d03995c	0.032128677
48	0x3b194cff	0.002339184
49	0x3c21fd8a	0.009887109
50	0x3c043b0b	0.008070718
51	0x3b3bc103	0.002864898
52	0x3bcce38a	0.0062527107
53	0x3bc5906b	0.006029179
54	0x3c534c06	0.012896543
55	0x3b99f1ff	0.0046980376
56	0x3bb92921	0.005650655
57	0x3c553080	0.013012052
58	0x3aa7cf1b	0.0012802811
59	0x3c24a968	0.010050155
60	0x3c185c3b	0.009299333
61	0x3beec4d2	0.0072866464
62	0x3b1d5152	0.002400477
63	0x3b3ae582	0.0028518145

body.block1.conv.weight f4 [64, 64, 3, 3]
0	0x3dd8c84d	0.10585079
1	0x3cc4c9d1	0.024022015
2	0x3c92a308	0.017900005
3	0x3d0d1bc7	0.03445032
4	0xbd322252	-0.04348976
5	0xbd28b67c	-0.041189656
6	0x3c980b80	0.018560171
7	0xbc4831c3	-0.012218895
8	0xbd1ecedf	-0.038771506
9	0x3db11a32	0.086475745
10	0x3d9f242a	0.077705696
11	0xbc41f765	-0.011838769
12	0x3d704cb1	0.05866689
13	0xbb108220	-0.0022050217
14	0x3b174254	0.0023080306
15	0x3d986f2b	0.074430786
16	0xba49e32f	-0.00077013945
17	0xbcffc63b	-0.031222453
18	0xbd6163da	-0.055026866
19	0xbd5b11a6	-0.053483628
20	0xbbcbb74a	-0.006216918
21	0xbcbd1317	-0.023080392
22	0xbd451cb0	-0.04812306
23	0xbc14cb5f	-0.009081691
24	0x3dac6aa3	0.08418777
25	0x3d1d5416	0.03841027
26	0xbc17f5e3	-0.009274933
27	0x3e1657a5	0.14681871
28	0x3cf0253d	0.029314632
29	0x3ddb01b0	0.10693681
30	0x3d3ff53b	0.04686473
31	0x3bc04756	0.005867879
32	0x3c14221c	0.009041335
33	0x3db7dedf	0.08978056
34	0x3d6579c6	0.056024335
35	0x3cab9f37	0.020949943
36	0xbd6fc1f5	-0.05853458
37	0xbd720967	-0.059090998
38	0xbdee8714	-0.11646858
39	0xbcfcc0f3	-0.030853724
40	0xbb79566f	-0.0038045903
41	0xbd867f60	-0.065672636
42	0x3d4ddb84	0.050258175
43	0x3c9ab87b	0.018886795
44	0x3bca0e53	0.0061662584
45	0x3db6f2f7	0.089330606
46	0xbd56ecbc	-0.05247186
47	0xbced02f8	-0.02893208
48	0x3cdaca61	0.02670783
49	0xbc11fd4b	-0.008910487
50	0xbd3aebf5	-0.045635182
51	0x3cdf7eb9	0.027282106
52	0x3c9ffc79	0.019529568
53	0x3cabfd84	0.02099491
54	0xbcff953a	-0.031199086
55	0xbbb647a0	-0.0055627376
56	0x3d062c04	0.03275682
57	0x3d73ec05	0.059551258
58	0x3c56b1b9	0.013103896
59	0xbd3ff977	-0.046868768
60	0x3dcc2695	0.099682964
61	0x3d434061	0.04766882
62	0x3c6da2c1	0.014504136
63	0x3db5bee9	0.08874304
64	0x3d1e9f82	0.038726337
65	0x3d1d713a	0.03843806
66	0x3ce39849	0.027782576
67	0x3c9cf001	0.019157412
68	0x3cf1fb26	0.029538702
69	0x3d2ad721	0.04170907
70	0x3cb91dc4	0.022597201
71	0x3d44a468	0.048008353
72	0xbdc30d36	-0.09524004
73	0x3c8a0bcd	0.01685133
74	0xbbe8ee20	-0.007108465
75	0x3c98bb5a	0.018644024
76	0x3cb1ae55	0.021689573
77	0xbc50ba7d	-0.012739775
78	0x3dd07628	0.101787865
79	0x3da918f2	0.08256711
80	0x3de307de	0.11085485
81	0xbd3ef46c	-0.046619818
82	0xbce5f6d1	-0.028071793
83	0xbc7156e8	-0.014730193
84	0xbcc78e65	-0.024359891
85	0xbd14c38e	-0.036319308
86	0x3c84e8a2	0.01622421
87	0x3d105133	0.035233688
88	0x3c9ae7d2	0.018909369
89	0x3de1c402	0.11023714
90	0x3cd4c224	0.02597148
91	0xbd8e77f7	-0.06956475
92	0x3c0dd3a6	0.008656418
93	0x3d2c4846	0.042061113
94	0xbd341eb6	-0.0439746
95	0x3d9ff237	0.07809871
96	0x3d4a28c6	0.04935529
97	0xbd1c99a6	-0.038232468
98	0x3df170ec	0.11789116
99	0xbe015269	-0.12629093
100	0xbc75ec7c	-0.015009996
101	0xbd8b39cf	-0.067981355
102	0xbdda1319	-0.10648174
103	0xbcd4c0e9	-0.025970893
104	0xbce715fe	-0.028208729
105	0xbbaf4b45	-0.005349549
106	0x3cbc24e0	0.022966802
107	0xbab4e890	-0.0013802219
108	0x3da52fb7	0.080657415
109	0x3ce185ee	0.027529683
110	0x3ca8712a	0.020561773
111	0x3c946a87	0.018117202
112	0x3d1b083d	0.037849654
113	0x3d38d925	0.04512896
114	0x3c9e416d	0.019318307
115	0x3d97ff0f	0.074216954
116	0x3d63a836	0.05558034
117	0x3db9b21b	0.09067174
118	0xbd34b923	-0.044121873
119	0xbd6ee7b7	-0.05832645
120	0x3e0c1d72	0.13683107
121	0x3c9d4eaf	0.019202558
122	0xbc16abf4	-0.00919627
123	0x3df6c8e2	0.12050034
124	0x3c044b13	0.00807454
125	0x3cce94bf	0.025217412
126	0x3bcedfb9	0.006313291
127	0x3cfb2494	0.03065709
128	0x3ccd8a2c	0.0250903
129	0x3c5eab0e	0.013590587
130	0xbb388db4	-0.0028160634
131	0xbd1f215d	-0.038850177
132	0x3a7821a8	0.00094654644
133	0x3cc676dd	0.0242266
134	0xbd44c0d2	-0.04803545
135	0xbc3d8861	-0.01156816
136	0x3d1eb8a4	0.038750306
137	0xbcc45406	-0.023965847
138	0x3d39ac63	0.045330416
139	0x3c658c51	0.014010505
140	0xbd8ef85e	-0.06980966
141	0x3dd06804	0.101760894
142	0x3c8db5bf	0.017298577
143	0x3d3b7b3f	0.045771834
144	0x3df73ac2	0.12071754
145	0x3ce2aa25	0.027669022
146	0xbbd58560	-0.0065161437
147	0x3d790a48	0.06080082
148	0xbcdba21c	-0.026810698
149	0xbc2d65ce	-0.010583354
150	0x3cb97c82	0.022642378
151	0x3cf2bfd3	0.029632485
152	0x3d04c2e6	0.032412432
153	0x3d4c8817	0.049934473
154	0x3d43da6c	0.047815725
155	0x3cc6926d	0.024239743
156	0xbc19ed01	-0.009394885
157	0xbce7499e	-0.028233346
158	0xbd99e2dd	-0.07513974
159	0xbd037809	-0.032096896
160	0xbcf474d5	-0.029840866
161	0xbd101fc9	-0.035186563
162	0xbd87d6d7	-0.06632774
163	0xbbf9ba18	-0.007621061
164	0xbd4612b5	-0.048357684
165	0xbd31a95f	-0.043374415
166	0xbbe6381d	-0.007025732
167	0xbc7933cb	-0.015210102
168	0xbd9e4ffd	-0.077301
169	0xbdaeea7b	-0.08540817
170	0xbcbdbc36	-0.023161035
171	0xbdc3d747	-0.09562545
172	0xbd8deadb	-0.06929561
173	0xbd8ca1ae	-0.068667755
174	0xbc386970	-0.011255607
175	0xbb001b0b	-0.001954737
176	0xbc962d2b	-0.018332085
177	0x3bcd5d57	0.0062672305
178	0x3ce0fceb	0.02746435
179	0x3ca6c271	0.020356389
180	0x3d1eb537	0.03874704
181	0xbc489b53	-0.012244063
182	0xbce14e57	-0.027503176
183	0xbc82f423	-0.015985554
184	0xbd27b7cb	-0.040946763
185	0x3c02998e	0.007971181
186	0x3d0a0281	0.033693794
187	0xbc1b41a7	-0.009476102
188	0x3dbcaca1	0.09212614
189	0x3d52fd50	0.05151111
190	0x3c18cf87	0.009326822
191	0x3d709a42	0.05874086
192	0x39d799df	0.00041122639
193	0xbd32d8c0	-0.04366374
194	0x3cb1d9fe	0.021710392
195	0x3cc586d7	0.024112148
196	0x3d1aba33	0.03777523
197	0x3e0eacff	0.1393318
198	0x3c18527c	0.00929701
199	0xbc9072be	-0.017632838
200	0x3d1a3d99	0.0376564
201	0x3d0fedc7	0.03513887
202	0x3d2e5b9c	0.042567834
203	0x3c2cf041	0.010555328
204	0x3d928dd5	0.071559586
205	0x3d9d481d	0.0767977
206	0x3d54fe5d	0.052000392
207	0x3d22d0b2	0.03974981
208	0xbc258bb9	-0.010104113
209	0xbbfaa6f1	-0.0076492955
210	0x3b8ce53a	0.004299787
211	0x3a917504	0.0011097495
212	0x3d9fba2d	0.07799182
213	0x3c91614e	0.017746594
214	0x3d9d187b	0.07670685
215	0x3d968d6c	0.07351193
216	0xbd4ee558	-0.050511688
217	0xbd66520d	-0.056230593
218	0x3d23d45a	0.039997436
219	0xbc1e9d0f	-0.009681
220	0x3d068055	0.03283723
221	0xbd12dd67	-0.035855677
222	0x3c256be7	0.010096527
223	0x3cd84f90	0.026405126
224	0x3d4f1d34	0.05056496
225	0x3cba9e3c	0.02278053
226	0xbc9aabf0	-0.018880814
227	0xbccb3541	-0.024805667
228	0xbda91172	-0.082552806
229	0xbd16143d	-0.036640394
230	0xbd03035c	-0.031985626
231	0x3d928b38	0.0715546
232	0x3d3b027e	0.045656674
233	0x3dfacd47	0.12246185
234	0x3c967730	0.01836738
235	0x3d0ab161	0.033860568
236	0xbd0af405	-0.03392412
237	0x3d89c05f	0.06726145
238	0x3c02e993	0.007990259
239	0xbd78800f	-0.060669
240	0x3d93e018	0.07220477
241	0x3e012447	0.12611495
242	0x3c9dba57	0.019253893
243	0xbbbe6e84	-0.0058115143
244	0x3b2ec771	0.002666917
245	0x3b95256b	0.0045515797
246	0x3d46a48c	0.048496768
247	0xbb29caaa	-0.002590815
248	0x3d9127c9	0.070876665
249	0x3d9845f3	0.07435217
250	0x3d0303e1	0.03198612
251	0x3d8c28af	0.06843697
252	0xbd8a1b97	-0.067435436
253	0x3ab58120	0.0013847686
254	0x3d55ce12	0.052198477
255	0x3cfce754	0.030872025

body.block1.conv.bias f4 [64]
0	0xbd108b65	-0.035289187
1	0xbb1962a1	-0.0023404735
2	0xbc8d6946	-0.017262112
3	0x3d1d9a5f	0.038477298
4	0xbc216eac	-0.009853046
5	0x3c6829c7	0.014170117
6	0x3cdd08a8	0.026981667
7	0x3c085efb	0.008323426
8	0x38e13fb4	0.00010740702
9	0xbd18d54e	-0.0373128
10	0x3bf80b81	0.0075697307
11	0xbc56cd14	-0.013110418
12	0xbd1ba848	-0.038002282
13	0x3d5bd3c9	0.05366877
14	0x3b0ec1e7	0.0021783055
15	0x3cb6d600	0.02231884
16	0x3c805915	0.015667478
17	0xbc6f661a	-0.014611745
18	0x3c159941	0.009130777
19	0x3c997363	0.018731778
20	0x3a13c245	0.00056365534
21	0x3b4ccc30	0.0031249635
22	0xbcafc59f	-0.021456538
23	0x3d0ce0b0	0.034393966
24	0xbd1bb874	-0.038017705
25	0x3c952116	0.018204253
26	0x3c880299	0.016602801
27	0x3d269b12	0.04067523
28	0x3cfd6f4e	0.030936863
29	0xbb84a220	-0.004047647
30	0x3ca16db6	0.019705635
31	0x3d1f91a4	0.038957253
32	0xbc3be320	-0.011467725
33	0x3d2ed340	0.042681932
34	0xbd2a2615	-0.041540224
35	0x3c2c190e	0.01050402
36	0x3c697fad	0.014251632
37	0xbc051b2a	-0.008124152
38	0x3b508b27	0.0031821223
39	0x3cd518f0	0.026012868
40	0xbc7b8d77	-0.015353552
41	0xbb07afb1	-0.0020704085
42	0x3c83390f	0.016018419
43	0x3ba72dc7	0.0051018926
44	0xbcee414b	-0.029083868
45	0xbc3b67cf	-0.011438324
46	0x3c59b533	0.01328783
47	0x3c75fbb6	0.015013626
48	0xbd205b6d	-0.03914969
49	0xbcb76470	-0.02238676
50	0xbca265cc	-0.019823931
51	0xbc3af33e	-0.0114105325
52	0x3bb902f2	0.005646103
53	0x3d018434	0.03162022
54	0x3d0ab83d	0.03386711
55	0x3c84ade3	0.016196197
56	0xbd1fa4b2	-0.038975425
57	0xbd3243a5	-0.043521542
58	0xbad7bf6f	-0.001646025
59	0x3bc5b5d7	0.00603364
60	0xbcac3be8	-0.02102466
61	0xbcb500b4	-0.022095062
62	0x3cbad82d	0.022808159
63	0xbcd87990	-0.026425153

body.block1.norm.weight f4 [64]
0	0x3f5c20e3	0.8598768
1	0x3f83fc78	1.0311422
2	0x3f6443ae	0.8916577
3	0x3f8a15c8	1.0787897
4	0x3f7ef690	0.99594975
5	0x3f766990	0.96254826
6	0x3f4f9925	0.81093055
7	0x3f7d3652	0.9891101
8	0x3f63b4ed	0.88947946
9	0x3f699c67	0.91254276
10	0x3f7c28de	0.9849986
11	0x3f5f6954	0.8727009
12	0x3f574b14	0.84098935
13	0x3f81928a	1.0122845
14	0x3f86a2ff	1.0518492
15	0x3f62c4af	0.88581365
16	0x3f86cced	1.0531288
17	0x3f7ad423	0.97979945
18	0x3f646633	0.89218444
19	0x3f6e4c49	0.9308515
20	0x3f5bfd1f	0.8593311
21	0x3f6c3052	0.9226123
22	0x3f7750b1	0.966075
23	0x3f89f9e8	1.077939
24	0x3f76dfb4	0.96435094
25	0x3f808ed1	1.0043584
26	0x3f66b09d	0.9011324
27	0x3f592de2	0.84835637
28	0x3f59868f	0.84970945
29	0x3f6c5ba5	0.9232734
30	0x3f762e3a	0.96164286
31	0x3f6e176f	0.93004507
32	0x3f88b680	1.0680695
33	0x3f8207d1	1.0158635
34	0x3f3d433a	0.73930705
35	0x3f776ea9	0.9665323
36	0x3f775166	0.9660858
37	0x3f730c6f	0.9494085
38	0x3f72def6	0.9487146
39	0x3f746084	0.9545977
40	0x3f794fc3	0.9738733
41	0x3f83e48b	1.0304121
42	0x3f79ef9c	0.9763124
43	0x3f70814a	0.9394728
44	0x3f599e37	0.8500704
45	0x3f8cc198	1.099658
46	0x3f82807c	1.019546
47	0x3f63b86e	0.8895329
48	0x3f6c5bb2	0.92327416
49	0x3f51ade8	0.81905985
50	0x3f631dc5	0.887173
51	0x3f8243ea	1.0176976
52	0x3f67878f	0.9044122
53	0x3f8052cf	1.0025271
54	0x3f5ae9a2	0.85512745
55	0x3f4bbffa	0.7958981
56	0x3f82d916	1.0222499
57	0x3f82867c	1.0197291
58	0x3f56965d	0.83823186
59	0x3f80462a	1.0021412
60	0x3f676dfd	0.90402204
61	0x3f70df30	0.9409056
62	0x3f7997e5	0.974974
63	0x3f679da6	0.9047493

body.block1.norm.bias f4 [64]
0	0x3efbb5ce	0.49162143
1	0x3cb0393d	0.021511668
2	0x3f1358b0	0.575572
3	0x3e93c2e6	0.28859633
4	0x3ef80b00	0.48445892
5	0x3f0dd825	0.55407935
6	0x3f1527b0	0.58263683
7	0x3e41925e	0.18903491
8	0x3ee080e5	0.4384834
9	0x3ef5e2ac	0.480245
10	0x3e7bfc34	0.24607927
11	0x3ed39c27	0.41330072
12	0x3ed9b3d7	0.4252002
13	0xbd4b2032	-0.04959125
14	0x3e9d893a	0.30768758
15	0x3ec47c6f	0.38376185
16	0x3f1d8d56	0.61543787
17	0x3e8f9bfb	0.2804869
18	0x3f144a7f	0.5792617
19	0x3f0d4108	0.55177355
20	0x3eb19d6f	0.34690425
21	0x3f0da61c	0.5533159
22	0x3ebb40e0	0.36572933
23	0x3d288a71	0.041147653
24	0x3e4e0757	0.20119987
25	0x3ed6bc2b	0.41940436
26	0x3edf80ae	0.43652862
27	0x3f12f885	0.5741046
28	0x3ed23681	0.41057208
29	0x3ed0afca	0.40759116
30	0x3e86fce9	0.2636483
31	0x3db0b39d	0.086280085
32	0x3d85f023	0.06539943
33	0x3f1206df	0.57041734
34	0x3f302d41	0.6881905
35	0x3f2ff34d	0.6873062
36	0x3e9d1d77	0.30686542
37	0x3f0f501c	0.5598161
38	0x3f23af92	0.63939774
39	0x3ef7f488	0.4842875
40	0x3ed5c9ae	0.41755432
41	0x3f246d02	0.6422883
42	0x3e8cc903	0.2749711
43	0x3eb41230	0.35170126
44	0x3ec17bec	0.37789857
45	0x3e917d6b	0.28416
46	0x3eccf7a3	0.40032682
47	0x3f1c01e9	0.60940415
48	0x3e4827d1	0.19546439
49	0x3f05c8d2	0.5225955
50	0x3ec5d7c2	0.38641173
51	0x3e4164ab	0.18886058
52	0x3f2a79a5	0.66591865
53	0x3eb1baa9	0.34712723
54	0x3f59a87a	0.850227
55	0x3f3bc71e	0.73350704
56	0x3e8475c6	0.25871104
57	0x3ed6c9fe	0.41950983
58	0x3f0a7f59	0.5410057
59	0x3e823bce	0.25436252
60	0x3ecc8cc5	0.3995115
61	0x3e997d85	0.29978576
62	0x3e6e5a93	0.23276739
63	0x3f02bf27	0.51072925

body.block1.norm.running_mean f4 [64]
0	0x3fced3ab	1.6158346
1	0xbfa70ae6	-1.3050201
2	0xc0344e18	-2.8172665
3	0xbfb81590	-1.438158
4	0xbf042b7e	-0.51628864
5	0x3fbc8b87	1.473008
6	0x408bf6be	4.37387
7	0x3f3143d6	0.69244134
8	0xbf64954a	-0.892903
9	0x3f53d966	0.827536
10	0x3f91b782	1.1384127
11	0x3e7786df	0.24172543
12	0x3f1c35b3	0.6101944
13	0xbeb15609	-0.34635952
14	0xbf6f8157	-0.9355673
15	0xbebfdb2f	-0.3747191
16	0xbf860b93	-1.0472282
17	0xbb3897b0	-0.0028166585
18	0xbf9726ac	-1.1808677
19	0xbf520d30	-0.8205137
20	0x4017ea2f	2.3736684
21	0x3f4bc72a	0.79600775
22	0xbfa5acff	-1.2943419
23	0xc05ed4ef	-3.4817464
24	0x3e04e3bf	0.12977503
25	0xbfad29fc	-1.3528438
26	0x3fb712ed	1.4302651
27	0xbf5cf3b2	-0.8630935
28	0xbf292fcf	-0.66088575
29	0xbfb17f96	-1.3867061
30	0x3df722ef	0.1206721
31	0x3f2e014d	0.67970735
32	0x3f0da964	0.55336595
33	0xc022f7e8	-2.546381
34	0x407f8a5b	3.9928195
35	0x3cdc5b69	0.026899057
36	0xbeb11369	-0.3458512
37	0x3e9b5ec0	0.30345726
38	0xbfc70bf7	-1.5550526
39	0xbfcb6741	-1.5890886
40	0xbe99c376	-0.30031937
41	0xbe20687f	-0.15664862
42	0x401624fe	2.3460078
43	0xbe89df31	-0.26928094
44	0x3e9afeab	0.3027242
45	0xc02703c5	-2.609605
46	0x3e837b91	0.2568021
47	0x3e032bb4	0.1280964
48	0xbfdc3bbc	-1.720573
49	0xbfe3698b	-1.7766584
50	0x3fa57c85	1.2928625
51	0xbfeec31f	-1.8653296
52	0xbfbd92ca	-1.4810421
53	0xbf734e47	-0.95041317
54	0xbf74c13e	-0.95607364
55	0x40255cc4	2.583787
56	0xbff9a563	-1.9503597
57	0x3f946cba	1.1595681
58	0xbe85f43c	-0.261629
59	0xbf9c8c55	-1.2230326
60	0x3f8a9bde	1.0828817
61	0xbfba51b6	-1.4556186
62	0xc0241f05	-2.5643933
63	0xbf69869b	-0.91221017

body.block1.norm.running_var f4 [64]
0	0x3fd6c9cb	1.6780332
1	0x3fcb4002	1.5878909
2	0x400a2589	2.158541
3	0x3fe6a5db	1.8019365
4	0x3f397429	0.7244287
5	0x3fef4df3	1.8695663
6	0x404d1049	3.204119
7	0x3f4970b8	0.7868762
8	0x3f1fdb67	0.62444156
9	0x3f992b16	1.1966274
10	0x3f90e43c	1.1319652
11	0x3f178a59	0.59195477
12	0x3ef249f6	0.47322053
13	0x4026517c	2.5987234
14	0x3f8ea0b2	1.114279
15	0x3f87646d	1.0577523
16	0x3fe67e40	1.8007278
17	0x3f62d663	0.8860838
18	0x3f22e8d1	0.636365
19	0x3f402b0b	0.7506568
20	0x3f3beff3	0.7341301
21	0x3f5dd2b0	0.8664961
22	0x3f878c7a	1.0589745
23	0x407f5d8b	3.9900844
24	0x3f174a30	0.59097576
25	0x3f9e94ed	1.2389199
26	0x3fa632c2	1.298424
27	0x3f42330b	0.75859135
28	0x3f89f271	1.0777112
29	0x3fc6dfce	1.553705
30	0x3f7b97d0	0.9827852
31	0x3f1d9997	0.61562485
32	0x3f8b2d66	1.087323
33	0x402c86bd	2.6957238
34	0x408edc63	4.4644027
35	0x3f5f0192	0.8711177
36	0x4034e0dd	2.8262246
37	0x40072956	2.111898
38	0x3f852310	1.0401325
39	0x3fd4800d	1.6601578
40	0x3f6e9cb7	0.9320788
41	0x3f6d7986	0.92763555
42	0x3f9974b9	1.1988746
43	0x3f69f4d5	0.9138921
44	0x3f47b999	0.78017575
45	0x401a40b3	2.410199
46	0x3f5a821d	0.8535479
47	0x3f3dcc8d	0.74140245
48	0x3f520e0c	0.82052684
49	0x3f4de432	0.80426323
50	0x3f8b4517	1.088046
51	0x3f918f25	1.1371809
52	0x3fbb3ae0	1.4627342
53	0x3f91f3a7	1.1402482
54	0x3f8297d6	1.0202587
55	0x40019654	2.0248003
56	0x4075bcc6	3.8396468
57	0x3f90390e	1.1267412
58	0x3f1a8359	0.6035667
59	0x3fecc9c8	1.8499079
60	0x3f6a9e71	0.9164801
61	0x40014919	2.0200865
62	0x400a3506	2.1594863
63	0x3f2c11e9	0.6721483

body.block2.conv.weight f4 [64, 64, 3, 3]
0	0xbdd5b7cc	-0.10435447
1	0xbdf61d64	-0.120173246
2	0xbd966de0	-0.07345176
3	0xbd670f76	-0.05641123
4	0xbc4b3b99	-0.012404346
5	0x3c0c32db	0.008557047
6	0x3d01145f	0.031513568
7	0xbd6afb17	-0.057368364
8	0xbc36e0fe	-0.011162041
9	0x3d220302	0.03955365
10	0x3d88ba02	0.06676103
11	0x3d979405	0.07401279
12	0xbcd56443	-0.026048785
13	0xbb17eb49	-0.0023181012
14	0x3cda9a62	0.026684944
15	0x3c6702b8	0.014099769
16	0xbc6c686a	-0.014429191
17	0x3d686ea4	0.05674614
18	0x3dcae681	0.099072464
19	0x3c987717	0.018611474
20	0xbd63e673	-0.055639695
21	0x3c9a5d3f	0.018843291
22	0xbd3a6d06	-0.04551413
23	0xbcd32355	-0.025773684
24	0xbcab3f05	-0.020904073
25	0xbd1f1366	-0.03883686
26	0xbd36d511	-0.04463679
27	0xbd7a0bbe	-0.061046354
28	0x3d694486	0.056950115
29	0x3d24d4c7	0.040241983
30	0x3d5d4111	0.05401713
31	0x3d9f0490	0.07764542
32	0x3d5ee368	0.05441609
33	0x3cb3b677	0.021937592
34	0x3c3ce673	0.011529553
35	0xbd0781fe	-0.033082955
36	0xbcc9c74f	-0.02463117
37	0xbd262239	-0.04055998
38	0x3c77d418	0.015126251
39	0x3c3db11b	0.01157787
40	0xbd1786d5	-0.03699382
41	0xbd2d3a08	-0.04229167
42	0x3d05f8a8	0.03270784
43	0xbd0ad555	-0.033894856
44	0x3cb7da58	0.022442982
45	0xbc10db53	-0.0088413535
46	0xbc479773	-0.012182104
47	0xbdb00fe3	-0.0859678
48	0x3daba086	0.08380227
49	0xbcaa97b4	-0.02082429
50	0xbc6bb0f0	-0.014385447
51	0x3d42f43d	0.047596205
52	0x3ca0f54a	0.019648213
53	0xbd3a1271	-0.045427743
54	0x3da7a662	0.08186032
55	0x3c3a037d	0.011353371
56	0xbd55ffcf	-0.05224591
57	0x3d8dcef9	0.069242425
58	0x3c82f5c9	0.01598634
59	0xbd151689	-0.036398444
60	0x3cc15037	0.02359782
61	0x3d2a0813	0.041511606
62	0x3c56e607	0.013116366
63	0x3d6687e4	0.05628194
64	0x3b564640	0.003269568
65	0x3bb7bc45	0.0056071603
66	0xbcc4102a	-0.023933489
67	0xbb36fd2a	-0.0027921894
68	0xbc962b6c	-0.018331252
69	0xbcb09c8f	-0.021559028
70	0xbd6b82e0	-0.05749786
71	0x3cdb9757	0.026805563
72	0xbcbd5f29	-0.023116665
73	0x3c4cda6b	0.012503247
74	0x3cd25f02	0.025680069
75	0xbd5c6d74	-0.05381532
76	0x3c242f8e	0.010021104
77	0xbd8fd08f	-0.07022201
78	0x3b4e4a26	0.0031477301
79	0xbc674692	-0.014115946
80	0x3bf4c6fa	0.007470009
81	0xbd9fabce	-0.07796441
82	0xbdc9ed1e	-0.0985968
83	0x3bfee925	0.007779258
84	0x3d9dde71	0.07708443
85	0x3d357477	0.044300523
86	0x3d5b3469	0.05351678
87	0x3c496e90	0.012294427
88	0x3b806303	0.003918053
89	0x3bd3cd93	0.0064637153
90	0xbd3b2c84	-0.04569675
91	0x3bea05d0	0.007141806
92	0x3d927f9a	0.07153244
93	0xbc6e46b9	-0.014543229
94	0xbd19d993	-0.03756101
95	0x3c8fc6b5	0.017550806
96	0xbd88bd07	-0.06676679
97	0xbd81162d	-0.06303058
98	0x3c86b2c6	0.016442668
99	0x3aa8ef56	0.001288871
100	0x3d34b245	0.044115324
101	0x3de7e0eb	0.113221966
102	0x3d653174	0.055955365
103	0xbd683ddd	-0.056699622
104	0xbdc34c8a	-0.09536083
105	0x3d9a9c2b	0.07549318
106	0x3cb93b91	0.022611411
107	0xbd89e38e	-0.06732856
108	0x3c1a7e18	0.009429477
109	0x3ce4f335	0.027948001
110	0x3e1556a6	0.14583835
111	0x3d2cb281	0.042162422
112	0xbd0a423f	-0.033754583
113	0xbbd52234	-0.0065043215
114	0xbc6ee37d	-0.014580605
115	0xbd3a00a7	-0.04541078
116	0xbd10998c	-0.035302684
117	0x3d13db6d	0.036097933
118	0x3d2d6664	0.042333975
119	0xbcebf90f	-0.028805284
120	0x3d3ef331	0.046618644
121	0xbcaa8b5f	-0.02081841
122	0x3c5a2840	0.01331526
123	0xbd7c4879	-0.061592553
124	0xbde1507d	-0.1100168
125	0xbd670837	-0.05640432
126	0x3d81a29e	0.06329845
127	0x3c767799	0.015043163
128	0x3d8fd6d3	0.07023396
129	0x3d63c813	0.055610728
130	0xbc11355c	-0.0088628195
131	0x3df02f46	0.11727767
132	0xbdc655f2	-0.096843615
133	0xbd694de5	-0.05695905
134	0x3b132302	0.0022451286
135	0x3dea4e18	0.114406765
136	0x3b8de83c	0.004330663
137	0xbc903069	-0.017601209
138	0xbb988a28	-0.0046551414
139	0xbc96ecc2	-0.018423442
140	0xbceda2d7	-0.029008312
141	0xbe0538ef	-0.1301
142	0xbd7491ec	-0.059709474
143	0xbd186505	-0.037205715
144	0x3d1cb54f	0.038258847
145	0x3d2c260c	0.04202847
146	0x3d61f76c	0.0551676
147	0x3d2be563	0.041966807
148	0xbcd41247	-0.025887622
149	0xbdaa2b28	-0.08309013
150	0x3d5ee1fe	0.05441474
151	0xbd2f9c09	-0.042873416
152	0xbde1bca4	-0.110223085
153	0x3cec7f72	0.028869364
154	0xbd21859d	-0.039434064
155	0xbd7288d8	-0.059212536
156	0x3cb92e2d	0.022605026
157	0xbcb3a47b	-0.021929016
158	0xbdd3225a	-0.103092864
159	0x3cfabf23	0.03060872
160	0xbd5dced4	-0.054152325
161	0xbd2edca1	-0.042690877
162	0x3d6e7450	0.058216393
163	0x3d49b188	0.049241573
164	0xbd412678	-0.047155827
165	0x3e01eddb	0.12688391
166	0x3d704064	0.058655158
167	0xbc1424ec	-0.009042006
168	0x3d8a8777	0.06764119
169	0xbd64c7cc	-0.055854604
170	0xbd4b293a	-0.049599864
171	0xbcf8c0c9	-0.030365365
172	0xbcd6d3f5	-0.026224116
173	0xbd08ec6f	-0.033428606
174	0xbd09b161	-0.033616427
175	0x3cb7d15e	0.022438701
176	0x3dc8fac3	0.09813454
177	0xbdaab84d	-0.08335934
178	0xbb5c3774	-0.0033602389
179	0x3d866ba9	0.06563503
180	0x3d40e701	0.047095302
181	0x3c9a07c3	0.01880253
182	0x3c534736	0.012895396
183	0xbb4fe515	-0.0031722237
184	0x3d80f4fe	0.062967286
185	0x3d0f21be	0.03494429
186	0xbcd962f8	-0.02653645
187	0x3bf206e8	0.007386077
188	0xbd441b5a	-0.047877647
189	0x3d6c9eb6	0.057768546
190	0x3c10be79	0.008834475
191	0xbcadd577	-0.021219952
192	0xbc8878f6	-0.016659241
193	0x3b98cdc0	0.004663199
194	0xbcb76fa4	-0.022392102
195	0xbddd012e	-0.10791241
196	0xbdca94dd	-0.09891675
197	0xbd2a8367	-0.04162922
198	0x3c372d02	0.011180164
199	0x3d7855fd	0.06062888
200	0x3d46b52b	0.04851262
201	0x399573f9	0.000285059
202	0x3c8b1c87	0.016981376
203	0x3d86113c	0.06546256
204	0xbdb849f0	-0.089984775
205	0xbdc631d5	-0.096774735
206	0x3ccc832c	0.024964891
207	0x3be545d8	0.0069968514
208	0xbc0201d0	-0.007935002
209	0xbc4b25a4	-0.012399111
210	0x3b5dc7d7	0.0033841038
211	0xbcd3f8ad	-0.025875414
212	0xbc7146d1	-0.014726357
213	0x3e0589d0	0.13040853
214	0x3da66501	0.08124734
215	0xbc757c04	-0.014983181
216	0xbdac5fa4	-0.084166795
217	0xbdf5bbb8	-0.11998695
218	0xbb2c83fc	-0.0026323786
219	0x3cef6e5e	0.029227432
220	0xbb8286cb	-0.0039833537
221	0xbcaa39ce	-0.020779517
222	0x3d865e79	0.06560988
223	0xbc2b6eda	-0.010463441
224	0xbd8e1e7b	-0.069394074
225	0x3d001914	0.031273916
226	0x3d06d545	0.032918233
227	0xbde99711	-0.11405767
228	0xbd889d9d	-0.06670687
229	0xbca7578f	-0.020427493
230	0xbd57c0fc	-0.05267428
231	0xbc13439e	-0.008988289
232	0xbd1d4305	-0.038393993
233	0xbc664cb1	-0.014056371
234	0x3db8d15a	0.09024306
235	0x3d0a8125	0.033814568
236	0x3cd8c301	0.026460173
237	0xbd39e611	-0.045385424
238	0xbcbc292c	-0.022968851
239	0xbda1df19	-0.079038806
240	0xbe209c89	-0.15684713
241	0xbdb1381a	-0.08653279
242	0x3c514ef0	0.012775168
243	0xbc9f9c55	-0.019483725
244	0xbc612673	-0.013742077
245	0xbcbf1cab	-0.0233291
246	0xbc9b95f0	-0.018992394
247	0xbc458f95	-0.012058158
248	0x3d8b4562	0.06800343
249	0x3b97cf85	0.0046328926
250	0xbd819fc8	-0.06329304
251	0xbb5c1310	-0.0033580698
252	0xbd65f482	-0.056141384
253	0xbdd6980e	-0.10478221
254	0xbe2da3df	-0.16957043
255	0xbd51a9c2	-0.051187284

body.block2.conv.bias f4 [64]
0	0xbd1727cc	-0.036903188
1	0x3cd542a2	0.02603275
2	0xbb88c06c	-0.004173329
3	0xbb83bcc4	-0.0040203054
4	0x3c7dbad0	0.015486434
5	0xbc0bdb73	-0.0085362075
6	0x3c4b8d47	0.01242382
7	0xbd217738	-0.039420336
8	0xbc17bf6d	-0.009261948
9	0xbd082cee	-0.033245973
10	0xbc3d286e	-0.011545284
11	0x3d22cb46	0.039744638
12	0x3c312d62	0.010814043
13	0x3d0e0405	0.034671802
14	0xbd0b6123	-0.034028184
15	0x3d1df2f4	0.038561776
16	0xbcb4c3a4	-0.022065945
17	0xbb8f704d	-0.004377401
18	0x3d17e56f	0.03708404
19	0xbcc5d5d7	-0.024149818
20	0xbbf75765	-0.00754826
21	0xbb69d458	-0.0035679545
22	0x3d0f68d7	0.035012092
23	0xbd05fbad	-0.03271072
24	0xbc97c81c	-0.018528037
25	0x3d2e5366	0.042560004
26	0x3c169d89	0.009192833
27	0x3c9755e0	0.018473566
28	0xbb8f9533	-0.0043817996
29	0xbc84f619	-0.01623063
30	0xbc0ecd17	-0.008715889
31	0xbcbb6959	-0.022877382
32	0x3bb4b977	0.005515273
33	0x3ce86ec2	0.028373126
34	0xbd1167a0	-0.035499215
35	0xbc93bf68	-0.018035606
36	0x3cf180f0	0.029480428
37	0x3b9d2c92	0.004796573
38	0xbd01b109	-0.031662975
39	0xbd35503a	-0.044265963
40	0xbcc0ca5f	-0.023533998
41	0x3ae2724b	0.0017276494
42	0xbc7fa488	-0.015603192
43	0xb8f86100	-0.00011843629
44	0x3c1e8f2a	0.009677688
45	0xbc7c3622	-0.015393766
46	0xbc0c0f90	-0.008548632
47	0xbc5ec2eb	-0.013596277
48	0x3d1043ad	0.03522079
49	0x3bbf66d2	0.0058411146
50	0xbd751aec	-0.059840128
51	0xbd230ccd	-0.03980713
52	0x3bdfff5d	0.0068358616
53	0xbc9289e3	-0.017888015
54	0xbcf24864	-0.029575534
55	0xbc8c702f	-0.017143337
56	0xbcd636c3	-0.02614916
57	0xbcd35195	-0.025795737
58	0xbcd4eb63	-0.025991147
59	0xbbc7380b	-0.006079679
60	0x3d0d3629	0.03447548
61	0x3ce143c0	0.027498126
62	0xbcb961e4	-0.022629686
63	0xbcfab237	-0.030602558

body.block2.norm.weight f4 [64]
0	0x3f5e1cce	0.867627
1	0x3f65884c	0.896611
2	0x3f71d3f9	0.9446407
3	0x3f87febb	1.0624613
4	0x3f5c9d42	0.86177456
5	0x3f6ed274	0.93289876
6	0x3f823f59	1.0175582
7	0x3f728adb	0.94743127
8	0x3f67859b	0.9043824
9	0x3f70613f	0.93898386
10	0x3f8cee62	1.1010249
11	0x3f764664	0.9620116
12	0x3f5ba7ba	0.85802805
13	0x3f771a8a	0.9652487
14	0x3f6a8f48	0.9162488
15	0x3f539691	0.8265162
16	0x3f77c0d7	0.96778625
17	0x3f6af7e2	0.9178449
18	0x3f6b0f81	0.9182053
19	0x3f5dc189	0.86623436
20	0x3f5bc4f6	0.85847414
21	0x3f7bea07	0.9840397
22	0x3f632f95	0.8874448
23	0x3f847990	1.0349598
24	0x3f804b33	1.0022949
25	0x3f6d00c5	0.925793
26	0x3f808b7c	1.0042567
27	0x3f67a7a3	0.9049017
28	0x3f7e98f0	0.99452114
29	0x3f6ab590	0.9168329
30	0x3f81a79b	1.0129274
31	0x3f6e7179	0.93141896
32	0x3f7f91c0	0.9983177
33	0x3f7006bf	0.93760294
34	0x3f693d14	0.9110882
35	0x3f5f4e5b	0.87228936
36	0x3f5f7a63	0.8729612
37	0x3f7a43a2	0.9775945
38	0x3f718f51	0.9435931
39	0x3f745eed	0.95457345
40	0x3f769a3b	0.96329087
41	0x3f95fffa	1.1718743
42	0x3f6c5ace	0.92326057
43	0x3f3b1997	0.7308592
44	0x3f6e4c1c	0.93084884
45	0x3f54ce99	0.83127743
46	0x3f6226ed	0.88340646
47	0x3f823472	1.0172255
48	0x3f76fb29	0.9647699
49	0x3f65cbcb	0.8976409
50	0x3f51c1d1	0.81936365
51	0x3f6097e0	0.8773174
52	0x3f6664cd	0.8999756
53	0x3f82e776	1.0226886
54	0x3f62f500	0.8865509
55	0x3f6f2863	0.93421
56	0x3f826738	1.018775
57	0x3f547e24	0.83004975
58	0x3f5a0ca8	0.8517556
59	0x3f827e18	1.0194731
60	0x3f7496db	0.9554269
61	0x3f8bcad9	1.0921279
62	0x3f6e5f1c	0.93113875
63	0x3f812ffe	1.0092771

body.block2.norm.bias f4 [64]
0	0x3ebed014	0.37268126
1	0x3e996e30	0.2996688
2	0x3ebd8d89	0.37022045
3	0x3f0aea87	0.5426411
4	0x3f1670a8	0.5876565
5	0x3eb24cd1	0.3482423
6	0x3ee0f29b	0.43935093
7	0x3eb50e94	0.35362685
8	0x3f2440b0	0.64161205
9	0x3f17c918	0.5929122
10	0x3db67626	0.08909254
11	0x3e228472	0.15870836
12	0x3f08ca22	0.5343343
13	0x3f050e83	0.5197527
14	0x3dfd7d4c	0.12377414
15	0x3f0b5bce	0.5443696
16	0x3f1955bf	0.59896463
17	0x3e43280b	0.19058244
18	0x3e786125	0.24255808
19	0x3f1eb4d2	0.6199466
20	0x3ea633d3	0.32461414
21	0x3e8f03a4	0.27932465
22	0x3f01568b	0.5052268
23	0x3eda1eae	0.42601532
24	0x3e64fc17	0.2236179
25	0x3eae8b8a	0.34090835
26	0xbc78de05	-0.015189652
27	0x3edbc6a8	0.42925
28	0xbdeff3f9	-0.11716456
29	0x3df9d1c5	0.121982135
30	0x3eb7e071	0.35913423
31	0x3ea3e21c	0.32008445
32	0x3e89f250	0.26942682
33	0x3e9ebe5d	0.3100461
34	0x3e56ef8a	0.20989814
35	0x3ede5919	0.4342735
36	0x3f07eef5	0.53098994
37	0x3e9c987f	0.30585095
38	0x3f45869a	0.7715851
39	0x3eeebee3	0.4663001
40	0x3e082945	0.13296993
41	0x3e107969	0.14108814
42	0x3e089277	0.13337122
43	0x3f47361f	0.7781696
44	0x3ec6309c	0.3870896
45	0x3f1d08ae	0.6134137
46	0x3f1c1e57	0.60983795
47	0x3e89b4fe	0.268959
48	0x3e854364	0.26027977
49	0x3efeb41c	0.49746788
50	0x3e295e1a	0.16539803
51	0x3f23b97b	0.63954896
52	0x3ebbf62b	0.3671125
53	0xbdfaea79	-0.12251753
54	0x3ef90ab0	0.48640966
55	0x3ed963dd	0.42459002
56	0x3e6dc9e7	0.23221551
57	0x3f106410	0.56402683
58	0x3eb55980	0.35419846
59	0x3eb9d3d4	0.36294425
60	0x3e8e729f	0.27821824
61	0x3e0ebb4f	0.1393864
62	0x3e8c26c2	0.2737332
63	0x3e36caff	0.17850874

body.block2.norm.running_mean f4 [64]
0	0xbf89d41d	-1.0767857
1	0xc0041903	-2.0640266
2	0xbfb65de6	-1.4247406
3	0xc08f9e7c	-4.488096
4	0xbecd3520	-0.40079594
5	0xbfa1ed9f	-1.2650641
6	0x3e9e2aba	0.30891973
7	0xbf8aa688	-1.0832071
8	0xc05fc36c	-3.4963026
9	0x3f484f63	0.78246135
10	0xc0a2f34a	-5.0921984
11	0xbf1a997a	-0.60390437
12	0xbf78e5da	-0.97225726
13	0x3e8a4c6c	0.2701143
14	0x3fbd50a2	1.4790232
15	0x3ddbca05	0.107318915
16	0xbfca4231	-1.580145
17	0xbf5fe739	-0.8746219
18	0xbe124d7c	-0.1428737
19	0x3f5380b4	0.8261826
20	0xbfa102fb	-1.2579035
21	0x3ef27622	0.47355753
22	0xbf9a3a42	-1.2049029
23	0xbfb09422	-1.3795207
24	0xc046e410	-3.1076698
25	0xbee6ec45	-0.45102134
26	0xbfc77b1b	-1.5584444
27	0xbfa41421	-1.2818643
28	0x4013e58b	2.3108852
29	0x3f1f1e73	0.62155837
30	0xc004e704	-2.0766
31	0xbf097c4d	-0.5370529
32	0xc0146b70	-2.3190575
33	0x40156317	2.334173
34	0x3e5419b2	0.20712927
35	0xc00f39d4	-2.2379045
36	0x3f99ba4b	1.2009977
37	0xbf23b3c1	-0.6394616
38	0xbf9e9e5a	-1.2392075
39	0xbf2d68d4	-0.6773808
40	0xc010ceb5	-2.2626164
41	0x402f82d1	2.7423594
42	0xbf89adee	-1.0756204
43	0xc011f36d	-2.2804825
44	0xc0394ca4	-2.8953028
45	0xbf984294	-1.1895318
46	0xbf95d73f	-1.1706313
47	0xbe9458bc	-0.2897395
48	0xc00555f3	-2.083371
49	0xc00e0d33	-2.2195556
50	0xbfe05018	-1.7524443
51	0xc01b3ea4	-2.4256983
52	0xbe2ffcdd	-0.17186303
53	0x3f5ab7e2	0.8543683
54	0x3e8f7101	0.28015903
55	0x3da47ddd	0.08031819
56	0xbf37b878	-0.7176585
57	0x3f2bc17c	0.6709211
58	0x3ee9b4ed	0.45645848
59	0xc03047b8	-2.7543774
60	0x3f0b7bde	0.5448588
61	0xbfa1cf43	-1.2641376
62	0xbeaa07f7	-0.33209202
63	0xbff76dd7	-1.9330395

body.block2.norm.running_var f4 [64]
0	0x3f17bce0	0.59272575
1	0x3f374415	0.7158826
2	0x3f18b176	0.59645784
3	0x407f482d	3.9887803
4	0x3fb3c2a7	1.4043778
5	0x3f4fefb5	0.8122514
6	0x40064bcd	2.0983765
7	0x3f621395	0.8831113
8	0x401821dc	2.3770666
9	0x3f90b75b	1.1305956
10	0x3f8843ec	1.0645728
11	0x3f079b3f	0.5297126
12	0x3f05e717	0.5230574
13	0x3f111eb5	0.5668748
14	0x3f248b62	0.6427518
15	0x3eef43b7	0.4673135
16	0x3f0f2af5	0.5592492
17	0x3eee2c19	0.4651802
18	0x3f1cd3b0	0.6126051
19	0x3f024aea	0.5089556
20	0x3efc3ff8	0.49267554
21	0x3f926640	1.1437454
22	0x3f2a8908	0.66615343
23	0x3f9d99b5	1.2312533
24	0x3fb4d469	1.4127322
25	0x3f046d75	0.5172952
26	0x3f1846fb	0.5948331
27	0x3f2b0384	0.6680224
28	0x3f52a660	0.8228512
29	0x3f2b2f9f	0.6686954
30	0x3f991a03	1.1961063
31	0x3eef8b6e	0.46786064
32	0x3f7e3ff4	0.99316335
33	0x3f80c134	1.0058961
34	0x3f2d365d	0.67661077
35	0x3f2e19a1	0.68007857
36	0x3f3b1f04	0.730942
37	0x3f71477a	0.9424969
38	0x3eeca36d	0.46218434
39	0x3f5d34e8	0.86408854
40	0x3f509b76	0.81487215
41	0x40822765	4.067309
42	0x3ed8e36e	0.42361015
43	0x3f480de8	0.7814622
44	0x3f8e19f3	1.1101669
45	0x3f242ebb	0.64133805
46	0x3f71f75a	0.94518054
47	0x3f888cb9	1.0667945
48	0x3f20a96e	0.6275853
49	0x3f4133d7	0.75469726
50	0x3ec0e282	0.37672812
51	0x3f581a67	0.84415287
52	0x3f0ff519	0.56233364
53	0x3eefd877	0.46844837
54	0x3ebde778	0.3709066
55	0x3f79d217	0.97586197
56	0x3f8bd13f	1.0923232
57	0x3f02944a	0.5100752
58	0x3ed2943d	0.41128722
59	0x3fc3c84f	1.5295504
60	0x3f830aa8	1.0237627
61	0x3f9424c8	1.1573725
62	0x3f869747	1.0514916
63	0x3f2ef7b6	0.68346727
