trained_models/sinGan/mountains/scale_factor=0.750000,alpha=10/5/netD.pth (torch_old, 461765 bytes, 25 tensors)

head.conv.weight f4 [64, 3, 3, 3]
-0.006077724 -0.048904542 -0.09895122 0.07385607 0.009278504 0.00047227048 0.105472684 0.03679069
0.054269888 -0.019635417 -0.06284313 -0.07425575 0.039042138 0.005561504 -0.025604123 0.103145614
0.029858982 0.033959508 -0.05258073 -0.049170874 -0.085910544 0.02323839 -0.0072375964 -0.02613569
0.044863 0.0061718766 0.009164859 0.06313776 0.03152355 0.03803451 0.053448837 0.020854188
0.017641002 0.059678454 0.0073843473 0.018476678 -0.06230323 -0.042901408 -0.026777484 -0.018480005
-0.008580627 0.0068647526 -0.020901188 -0.012206215 -0.011161584 -0.101697646 -0.018325461 -0.12544817
-0.036132816 0.033287432 -0.037438903 -0.07478971 -0.03439838 -0.08419636 -0.07065932 -0.029466067
-0.08620351 -0.010191972 -0.026805371 -0.027842652 0.124468274 0.06291819 0.106073245 -0.065073214
-0.011382794 -0.06371018 -0.023269445 -0.02186752 -0.017379513 0.08466113 0.030379102 0.06457051
0.0110432 0.02973982 -0.017991096 0.021532068 0.0006929969 0.0021832797 0.08660972 0.035605505
0.032627072 0.010786899 -0.031222522 -0.07716637 0.029069092 0.0042657848 -0.0044662612 0.029661644
0.012211333 0.0070842747 0.070561536 -0.008724439 -0.055727173 0.030471137 -0.013984693 0.008522875
-0.03904311 -0.07080891 -0.07951174 0.059051406 0.0031915982 -0.10098135 -0.0043334514 -0.042155243
-0.026293682 -0.12110617 -0.086182736 -0.12419894 0.08135819 0.0025930689 0.011583212 0.059020784
0.0035597929 0.027265659 -0.009774954 0.026944071 0.010257155 0.018237893 -0.0070486465 -0.012198803
0.018303594 -0.012168088 -0.017648844 -0.13539611 -0.014650074 -0.101987265 0.05228294 -0.00567794
0.013932211 0.07491403 0.004643848 -0.009103913 -0.12028272 -0.061643947 -0.1183019 0.08083492
-0.022280693 -0.09731875 -0.040931493 -0.024620894 0.06427796 -0.016660878 -0.0091121495 0.05473369
0.0032858192 -0.029603569 -0.16097875 -0.04849716 -0.064902924 0.0074699945 0.024517257 0.023565136
0.014860201 -0.013363323 0.018875064 -0.027500149 -0.08715565 -0.037297968 0.026787654 0.020477034
0.05634112 0.084719 0.08094834 0.025197411 0.11356453 0.06053154 0.0013594549 0.08782775
0.1020461 0.07232721 0.13584568 -0.0065354733 0.00065483176 -0.01262594 0.0013951036 0.016568819
-0.016976742 -0.022785755 -0.0033477833 -0.0023651698 -0.043962404 -0.04466356 -0.07581869 -0.024900515
-0.010528633 -0.01660876 -0.052176047 -0.03348463 -0.006737073 -0.032046203 0.016061923 0.018849587
0.030598173 -0.016472 0.026522636 -0.01676021 0.007933753 0.011955633 -0.098540835 -0.032109946
-0.028421672 0.03020155 0.040297247 0.014714669 -0.09646339 -0.013549884 -0.04613103 -0.04736815
-0.006892394 0.043400023 0.05145495 0.06281771 0.11321056 -0.112441726 -0.048322815 -0.04156995
-0.015310715 -0.010179755 -0.069908954 0.043299537 0.052287053 -0.01044776 -0.035378575 -0.025366137
-0.08868256 -0.075485714 0.02339342 0.06392132 0.021294227 0.033809118 0.06405083 -0.012228203
-0.015700866 -0.035707757 -0.15846281 -0.0021892511 0.08639063 -0.04643683 0.015641605 0.048450083
-0.023833131 -0.0014049204 0.0014719266 -0.04764441 -0.039697193 -0.046496734 0.08775324 0.023928925
0.07856992 -0.012432566 0.01710071 0.008571154 -0.03842339 -0.014400209 -0.053375654 0.050697893
00000000: a527 c7bb 2150 48bd f0a6 cabd da41 973d
00000010: de04 183c 129b f739 1002 d83d d6b1 163d
00000020: 1a4a 5e3d 74da a0bc e6b3 80bd 6613 98bd
00000030: a6ea 1f3d 473d b63b bdbf d1bc 023e d33d
00000040: d39a f43c 2019 0b3d e45e 57bd 6667 49bd
00000050: def1 afbd 705e be3c 5c29 edbb 841a d6bc
00000060: 44c2 373d 743d ca3b 3428 163c 5f4e 813d
00000070: d71e 013d 13ca 1b3d 2bed 5a3d 67d6 aa3c
00000080: dd83 903c 6571 743d 65f8 f13b 675c 973c
00000090: ac31 7fbd 63b9 2fbd 745c dbbc 6163 97bc
000000a0: c295 0cbc b8f1 e03b f838 abbc 94fc 47bc
000000b0: 14df 36bc db46 d0bd 471f 96bc 7c75 00be
000000c0: 0100 14bd 6758 083d 8959 19bd 592b 99bd
000000d0: 51e5 0cbd 246f acbd d5b5 90bd d262 f1bc
000000e0: 778b b0bd 3bfc 26bc f096 dbbc 4616 e4bc
000000f0: 39e9 fe3d 41db 803d ee3c d93d 1b45 85bd
00000100: e67e 3abc 7c7a 82bd 909f bebc 8323 b3bc
00000110: 7b5f 8ebc d162 ad3d 98dd f83c 8b3d 843d
00000120: 8aee 343c eca0 f33c 1062 93bc 0564 b03c
00000130: 3caa 353a 5b15 0f3b 7060 b13d 14d7 113d
00000140: f7a3 053d 89bb 303c 60c6 ffbc 6709 9ebd
00000150: 4e22 ee3c ffc7 8b3b b759 92bb fafc f23c
00000160: 0b12 483c 3423 e83b 9182 903d f3f0 0ebc
00000170: 2d42 64bd 9b9e f93c 0e20 65bc 87a3 0b3c
00000180: abeb 1fbd 4304 91bd 0dd7 a2bd e3df 713d
00000190: 222a 513b 4fcf cebd a0ff 8dbb faaa 2cbd
000001a0: d965 d7bc 8306 f8bd 9380 b0bd 045c febd
000001b0: 1f9f a63d 7af0 293b 83c7 3d3c c7bf 713d
000001c0: 6a4b 693b 3b5c df3c 2127 20bc d0b9 dc3c
000001d0: a00d 283c a267 953c 55f8 e6bb 7ddd 47bc
000001e0: 6bf1 953c a95c 47bc 4f94 90bc 47a5 0abe
000001f0: dd06 70bc b3de d0bd a326 563d 030e babb
00000200: ee43 643c 876c 993d 6c2b 983b 9428 15bc
00000210: c956 f6bd 5d7e 7cbd 4448 f2bd c78c a53d
00000220: 0086 b6bc 0e4f c7bd c8a7 27bd c2b1 c9bc
00000230: 2aa4 833d 657c 88bc 204b 15bc 6f30 603d
00000240: e656 573b 2f83 f2bc 9dd7 24be f5a4 46bd
00000250: d3eb 84bd dbc6 f43b 6ad8 c83c ac0b c13c
00000260: 3378 733c d7f1 5abc e19f 9a3c fe47 e1bc
00000270: a97e b2bd c1c5 18bd c871 db3c 74bf a73c
00000280: f2c5 663d 2881 ad3d 3ec8 a53d cd6a ce3c
00000290: 8594 e83d ecef 773d bd2f b23a 09df b33d
000002a0: 8cfd d03d 4a20 943d 211b 0b3e 8627 d6bb
000002b0: 04a9 2b3a 08dd 4ebc e9db b63a 55bb 873c
000002c0: cf12 8bbc 31a9 babc 7c66 5bbb f700 1bbb
000002d0: ec11 34bd 23f1 36bd d446 9bbd 2afc cbbc
000002e0: 4a80 2cbc 180f 88bc 8db6 55bd 2e27 09bd
000002f0: aac2 dcbb e142 03bd 4b94 833c 736a 9a3c
00000300: 05a9 fa3c 4af0 86bc 0046 d93c b54c 89bc
00000310: 92fc 013c 8fe1 433c c7cf c9bd b885 03bd
00000320: 91d4 e8bc 3e69 f73c ba0e 253d cc15 713c
00000330: 998e c5bd 5500 5ebc e4f3 3cbd 1b05 42bd
00000340: 97d9 e1bb 39c4 313d 6dc2 523d 92a6 803d
00000350: f0da e73d d947 e6bd 25ee 45bd 4045 2abd
00000360: cbd9 7abc fdc8 26bc 6d2c 8fbd db5a 313d
00000370: f32a 563d 152d 2bbc 20e9 10bd a5cc cfbc
00000380: 349f b5bd 4198 9abd 8fa3 bf3c 2ee9 823d
00000390: 3b71 ae3c 6e7b 0a3d 152d 833d cd58 48bc
000003a0: 1a9f 80bc 4c42 12bd 1344 22be 8a79 0fbb
000003b0: 92ed b03d 8c34 3ebd d322 803c 9873 463d
000003c0: b33d c3bc 4e25 b8ba a9ed c03a c926 43bd
000003d0: 8699 22bd 5c73 3ebd f8b7 b33d 9806 c43c
000003e0: 44e9 a03d f6b1 4bbc ca16 8c3c 076e 0c3c
000003f0: d861 1dbd dbee 6bbc 6ea0 5abd 98a8 4f3d

head.conv.bias f4 [64]
-0.08637117 0.16296746 -0.1711442 -0.20489621 -0.13279767 -0.20596312 0.10904218 0.0019182632
-0.10429673 -0.09369444 -0.15063764 0.07031386 0.012547496 0.06169385 0.054174505 -0.021532893
-0.13292016 0.14717144 0.17491193 -0.041267812 0.115535215 -0.14523955 0.057107095 -0.07546356
-0.20663744 0.18274099 0.16902332 -0.13418028 0.09899728 -0.018246207 0.0020735022 -0.068960264
-0.22194555 0.098513894 0.09814532 -0.09197411 -0.07966025 -0.1920213 0.17986473 -0.101114996
-0.07114254 -0.02964546 -0.0542662 -0.085493594 -0.15295899 -0.055823546 -0.068768404 0.074578725
0.089087896 0.05022915 0.1431926 -0.03675745 0.09125633 0.054109216 -0.045544438 -0.11902033
0.082194805 -0.025736786 -0.034974806 0.16674437 0.09324295 0.065456 -0.08105453 -0.04960659
00000000: 5ee3 b0bd f1e0 263e 6d40 2fbe 50d0 51be
00000010: 1dfc 07be ffe7 52be 8251 df3d 3b6e fb3a
00000020: 8699 d5bd dfe2 bfbd c140 1abe b700 903d
00000030: 0394 4d3c b1b2 7c3d 16e6 5d3d c065 b0bc
00000040: 391c 08be 1cb4 163e 1d1c 333e 7008 29bd
00000050: ba9d ec3d adb9 14be 21e9 693d a48c 9abd
00000060: c498 53be 7420 3b3e 7314 2d3e 8e66 09be
00000070: 16bf ca3d 1279 95bc 98e3 073b 0a3b 8dbd
00000080: b245 63be a7c1 c93d 6a00 c93d ec5c bcbd
00000090: ea24 a3bd 3ba1 44be 762e 383e 6115 cfbd
000000a0: 2eb3 91bd 09db f2bc 3c46 5ebd 4417 afbd
000000b0: 48a1 1cbe 3ba7 64bd 73d6 8cbd bbbc 983d
000000c0: b773 b63d 15bd 4d3d 15a1 123e fb8e 16bd
000000d0: 99e4 ba3d a0a1 5d3d ce8c 3abd eec0 f3bd
000000e0: c055 a83d f4d5 d2bc be41 0fbd 09bf 2a3e
000000f0: 29f6 be3d cc0d 863d ebff a5bd 4830 4bbd

head.norm.weight f4 [64]
1.0529301 0.9116373 1.2482063 0.75508374 0.8764841 0.8445666 1.0204138 0.7900857
0.85659313 0.8657891 0.9254904 1.0287287 1.0606673 0.94876665 1.1082498 0.9228985
0.9021159 0.92814195 0.9160493 1.02151 0.9949735 1.0804108 0.82855237 1.0114584
1.1138749 0.89711785 0.8864686 0.70972383 0.8001927 0.8668321 1.0022484 0.83369833
0.86606675 0.89163595 0.87526876 1.1691122 0.8169187 0.85779 1.1840442 0.9554064
0.86829674 0.94102216 0.90804285 0.8822426 0.910076 1.1359584 0.8165566 1.2357396
0.88939583 0.74873906 0.9329926 0.8135463 0.84801126 0.84307164 0.8886449 0.8668517
1.0089382 1.0863777 0.84682924 0.9111122 0.82056427 0.76910007 0.7661901 0.7825063
00000000: 6ac6 863f 1061 693f 39c5 9f3f 2b4d 413f
00000010: 4361 603f 8435 583f eb9c 823f 0e43 4a3f
00000020: b049 5b3f 5ba4 5d3f f0ec 6c3f 62ad 833f
00000030: f2c3 873f 5fe2 723f 21db 8d3f 1343 6c3f
00000040: 11f1 663f b69a 6d3f 3582 6a3f d7c0 823f
00000050: 95b6 7e3f e74a 8a3f 021c 543f 7877 813f
00000060: 7493 8e3f 84a9 653f 9bef 623f 76b0 353f
00000070: 6ed9 4c3f b5e8 5d3f ad49 803f 416d 553f
00000080: 8db6 5d3f 4142 643f 9d11 603f 78a5 953f
00000090: 9521 513f 2098 5b3f c38e 973f 8495 743f
000000a0: b248 5e3f d4e6 703f 7f75 683f a7da 613f
000000b0: befa 683f 1667 913f da09 513f b72c 9e3f
000000c0: 72af 633f 5dad 3f3f 9ad8 6e3f 9244 503f
000000d0: 4417 593f 8bd3 573f 3b7e 633f fee9 5d3f
000000e0: e324 813f 6d0e 8b3f cdc9 583f a63e 693f
000000f0: 8010 523f bee3 443f 0925 443f 5552 483f

head.norm.bias f4 [64]
0.41647002 0.11587996 0.61343026 0.0757763 0.020156162 -0.072865665 0.5761703 0.51199406
0.09509579 0.1266593 0.47098273 0.47014102 0.68084687 -0.061046615 0.2835539 0.3766865
0.88060737 0.07705318 -0.1679447 0.33238772 0.16338024 0.5660705 -0.15215826 1.0887083
0.16140105 -0.04222712 0.07404743 0.5320454 0.30919704 0.3081797 0.27306393 0.3002713
0.3174061 0.12520069 0.1520182 0.48683432 0.16916329 0.050921056 0.19807583 -0.081509136
0.48456123 0.045203965 0.16864066 0.22384223 0.06465487 0.41162795 0.1302604 0.22933307
0.18921849 -0.2702839 0.41931316 0.3260637 0.24213007 -0.48714587 0.1386047 0.09412668
0.12612182 0.06303489 -0.062580235 0.28129604 0.22152351 0.15929179 0.4402026 0.19977768
00000000: 8f3b d53e 7952 ed3d c409 1d3f 9b30 9b3d
00000010: 891e a53c 983a 95bd e67f 133f 0b12 033f
00000020: 95c1 c23d fab2 013e a624 f13e 53b6 f03e
00000030: fb4b 2e3f 040c 7abd fa2d 913e 0edd c03e
00000040: 7c6f 613f 0fce 9d3d b2f9 2bbe b92e aa3e
00000050: 264d 273e ffe9 103f 60cf 1bbe cb5a 8b3f
00000060: 5146 253e 58f6 2cbd 2ea6 973d 2134 083f
00000070: 134f 9e3e bbc9 9d3e 09cf 8b3e 29bd 993e
00000080: 0d83 a23e 9c34 003e a9aa 1b3e 5942 f93e
00000090: 2439 2d3e 9992 503d 64d4 4a3e 43ee a6bd
000000a0: 6918 f83e cb27 393d 23b0 2c3e e636 653e
000000b0: c669 843d e6c0 d23e fb62 053e 4ad6 6a3e
000000c0: 7ec2 413e a762 8abe 37b0 d63e d2f1 a63e
000000d0: f2f0 773e 2f6b f9be 64ee 0d3e 7dc5 c03d
000000e0: 1426 013e 7018 813d 112a 80bd 0906 903e
000000f0: 0fd7 623e 631d 233e 3c62 e13e 8592 4c3e

head.norm.running_mean f4 [64]
-0.09589811 0.20154239 -0.21199307 -0.11577091 -0.106643155 -0.19726437 0.05536583 0.014846469
-0.07655699 -0.09583801 -0.038723774 0.102378726 -0.016133856 0.07066681 0.014620159 -0.013225932
-0.12554792 0.1845333 0.19374737 -0.06516617 0.15074444 -0.1496889 0.06565225 -0.085456006
-0.24987702 0.27145505 0.2476331 -0.12226633 0.10286727 -0.013890661 -0.016010154 -0.04525205
-0.19962019 0.11947869 0.18695816 -0.145486 -0.024738349 -0.11487772 0.2094171 0.013103356
-0.07898661 -0.021664439 -0.05237465 0.024179753 -0.14544779 -0.10886031 -0.053242125 -0.059774328
0.09375057 0.11092567 0.13377406 0.017840674 0.13443667 0.06271994 -0.051909786 -0.055081706
0.086429335 -0.09561249 0.07720495 0.18205972 0.15625438 0.06694085 -0.060658544 -0.05214322
00000000: 3a66 c4bd 2161 4e3e b614 59be 4d19 edbd
00000010: ba67 dabd acff 49be 48c7 623d 9b3e 733c
00000020: e9c9 9cbd b846 c4bd d29c 1ebd f0ab d13d
00000030: 262b 84bc c3b9 903d 6489 6f3c 94b1 58bc
00000040: a28f 00be 4cf6 3c3e b665 463e d775 85bd
00000050: c05c 1a3e 0c48 19be b074 863d 8f03 afbd
00000060: c3df 7fbe 28fc 8a3e 8893 7d3e c566 fabd
00000070: 13ac d23d a895 63bc ba27 83bc 375a 39bd
00000080: 3c69 4cbe 3eb1 f43d f671 3f3e 48fa 14be
00000090: 14a8 cabc 0345 ebbd 7071 563e 75af 563c
000000a0: bbc3 a1bd 9f79 b1bc cd86 56bd 9e14 c63c
000000b0: 44f0 14be 27f2 debd 6a14 5abd edd5 74bd
000000c0: 4d00 c03d ff2c e33d 11fc 083e 9b26 923c
000000d0: c4a9 093e 5073 803d 5b9f 54bd 5b9d 61bd
000000e0: dd01 b13d 7bd0 c3bd a11d 9e3d dd6d 3a3e
000000f0: 2601 203e 4918 893d 1875 78bd 2194 55bd

head.norm.running_var f4 [64]
0.012468621 0.0674224 0.022028243 0.09508733 0.024664933 0.009746166 0.02027808 0.0063810186
0.0052678226 0.00356422 0.062409468 0.0068192626 0.014454757 0.035588596 0.038061913 0.00848721
0.009686823 0.019096565 0.013429656 0.060579795 0.02832626 0.041689683 0.007684611 0.009102121
0.04657871 0.06514592 0.0941167 0.0016989153 0.003547274 0.0030329109 0.012992 0.01597726
0.0058163865 0.014032485 0.106558934 0.030796284 0.07739982 0.048673585 0.013550704 0.09634189
0.0044666375 0.0023423869 0.0045046564 0.08089144 0.004342464 0.030073658 0.007021988 0.12246559
0.0034598252 0.044825755 0.010375337 0.009428317 0.030250758 0.045630753 0.0023875358 0.08499682
0.002907051 0.0815365 0.10487078 0.009952541 0.057568613 0.008092 0.008748473 0.0022332931
00000000: 3049 4c3c c114 8a3d 9374 b43c 25bd c23d
00000010: 1d0e ca3c 62ae 1f3c 371e a63c dd17 d13b
00000020: b39d ac3b b095 693b 12a1 7f3d 1f74 df3b
00000030: a5d3 6c3c 59c5 113d cfe6 1b3d f00d 0b3c
00000040: 7bb5 1e3c 6670 9c3c 0f08 5c3c 8522 783d
00000050: 790c e83c cdc2 2a3d 30cf fb3b 1021 153c
00000060: 51c9 3e3d 396b 853d 42c0 c03d 23ae de3a
00000070: 6279 683b cdc3 463b 66dc 543c bee2 823c
00000080: 6397 be3b 82e8 653c 923b da3d 7d48 fc3c
00000090: cc83 9e3d f45d 473d c603 5e3c e64e c53d
000000a0: df5c 923b bb82 193b cc9b 933b 69aa a53d
000000b0: 3a4b 8e3b 085d f63c b418 e63b 3dcf fa3d
000000c0: 3cbe 623b 369b 373d 51fd 293c 3a79 1a3c
000000d0: 70d0 f73c 50e7 3a3d 3478 1c3b d012 ae3d
000000e0: 3984 3e3b 9cfc a63d 7ec6 d63d fc0f 233c
000000f0: 11cd 6b3d 4f94 043c c155 0f3c 715c 123b

body.block1.conv.weight f4 [64, 64, 3, 3]
-0.055540655 -0.04155037 0.15589224 -0.009242364 -0.08876729 0.06425937 0.022074077 0.037268236
0.050148048 -0.012913923 -0.006494671 0.04643503 -0.015309447 0.09347313 0.11051061 0.032200687
0.08450687 0.068174444 0.03368642 0.019477151 0.041885734 0.019727983 0.010563136 0.025616284
0.043413162 0.013845052 0.06498686 0.019877465 0.029802477 0.0123181455 0.020652456 0.04319999
0.010906195 -0.010212236 0.024735857 -0.032160837 -0.056091573 -0.0018118358 0.008103406 -0.031502806
0.015400991 -0.031207073 -0.057161197 -0.053953838 -0.038007602 0.018778699 0.0072553866 -0.0001398052
-0.025774771 -0.074440755 -0.015551378 -0.07407167 -0.041963432 0.01703061 0.004705927 0.030713072
-0.029542288 0.0025605634 0.07713774 0.05108664 -0.068007186 -0.04698793 -0.10390479 -0.13874672
-0.06925448 -0.043095503 -0.081907034 -0.047129568 -0.012623457 -0.16211602 -0.09454217 -0.066057354
0.012210908 -0.0040709423 0.00047998887 0.059144035 -0.015280609 0.039632678 -0.025085084 0.020889737
-0.032300085 0.048748355 0.07686806 0.14076778 0.06425258 -0.031296115 -0.0069919787 -0.038301732
-0.047156285 0.046079256 0.053496525 0.05018758 0.02397278 -0.046929687 -0.036443833 -0.064505205
-0.1194932 -0.08244782 -0.057738714 -0.015701052 -0.005225364 0.028646134 -0.017239295 -0.034392737
-0.024308868 -0.094992936 -0.045918886 0.013031077 -0.028624382 -0.013107705 -0.048840217 -0.011773415
0.018435784 0.03137953 -0.00906524 -0.0014625677 0.044703837 0.01655049 0.036879953 0.08265561
-0.019832982 0.017440258 0.04729052 -0.08963712 0.049276114 0.0064515052 -0.014559969 -0.008862094
-0.038609046 -0.07511153 -0.029790312 -0.015863687 -0.092358135 -0.074111596 -0.07332029 0.0008508186
-0.021192983 -0.09837447 0.05626015 0.048371416 0.005185883 0.028419733 0.035442147 0.08001082
0.09427626 0.07911359 0.07662728 0.070887424 0.062569275 0.04166789 -0.055081252 0.04103311
0.033696722 0.002526012 -0.04681704 -0.05585632 0.0039051373 0.006861007 0.040519316 -0.013011193
-0.017739234 -0.06910373 -0.020199466 0.0128207905 0.05014658 0.028416751 0.05351335 0.07995802
0.08716811 0.0029828215 0.08225594 0.06076714 0.03614396 0.04450465 0.0063454667 -0.031692207
-0.0068643936 -0.07221286 -0.07071797 -0.03139053 0.07752279 0.05143757 0.05065624 0.01752594
0.009757555 -0.073891126 0.02104725 0.014025502 -0.021307325 -0.0029122513 0.007350283 -0.008425035
-0.021568779 0.009408038 -0.045544304 -0.07749627 -0.06818928 -0.054015595 -0.03839889 0.023644648
0.03460731 0.009378037 0.039756835 -0.002911678 -0.071253076 -0.007667708 -0.013850189 -0.14556156
-0.02887785 -0.023182299 -0.093131654 -0.027687782 -0.05579289 0.10049451 0.0802659 -0.016041394
0.09205146 0.09117079 0.10669267 0.053912196 0.013506405 0.05087001 -0.043042906 -0.019340748
-0.009940833 -0.00610218 0.0062977057 0.041685387 -0.03482386 0.017714914 0.006385683 -0.06319403
-0.023269504 -0.033962388 -0.07401735 -0.07182783 -0.08693255 -0.08909529 -0.01285494 0.0014438756
-0.08341113 0.0329629 -0.022213131 -0.025361618 0.018389413 0.040462255 -0.009688757 0.014260842
0.04001671 0.04719798 -0.031211773 -0.002091616 -0.026319975 -0.07850562 -0.0395549 -0.0340244
00000000: 997e 63bd b930 2abd 37a2 1f3e 496d 17bc
00000010: a0cb b5bd 6b9a 833d b2d4 b43c 94a6 183d
00000020: 0a68 4d3d eb94 53bc 40d1 d4bb a832 3e3d
00000030: 7ad4 7abc d76e bf3d 6353 e23d dee4 033d
00000040: f011 ad3d 0b9f 8b3d c6fa 093d 8c8e 9f3c
00000050: 6090 2b3d 949c a13c 0111 2d3c 3ed9 d13c
00000060: 00d2 313d 5bd6 623c d517 853d 11d6 a23c
00000070: 5324 f43c 0cd2 493c 572f a93c 79f2 303d
00000080: e6af 323c 3951 27bc daa2 ca3c 15bb 03bd
00000090: 47c0 65bd 1f7b edba 26c4 043c 1609 01bd
000000a0: 7054 7c3c faa5 ffbc dc21 6abd b3fe 5cbd
000000b0: dcad 1bbd c9d5 993c 98be ed3b ac98 12b9
000000c0: 9d25 d3bc 6574 98bd 35cb 7ebc e3b2 97bd
000000d0: d9e1 2bbd c783 8b3c 2d34 9a3b fb99 fb3c
000000e0: ab02 f2bc 20cf 273b 64fa 9d3d 3a40 513d
000000f0: 5a47 8bbd 6a76 40bd 09cc d4bd 9f13 0ebe
00000100: 4bd5 8dbd e984 30bd e0be a7bd ef0a 41bd
00000110: 9ed2 4ebc be01 26be 539f c1bd 1449 87bd
00000120: 4310 483c 8a65 85bb 04a7 fb39 0441 723d
00000130: 855b 7abc e055 223d 3c7f cdbc f420 ab3c
00000140: 184d 04bd 5bac 473d 006d 9d3d 6e25 103e
00000150: db96 833d 5b30 00bd f81c e5bb 47e2 1cbd
00000160: f326 41bd 9abd 3c3d 2c1f 5b3d 7e91 4d3d
00000170: 9062 c43c 5839 40bd 2146 15bd 4e1b 84bd
00000180: dab8 f4bd 67da a8bd 6e7f 6cbd 7e9f 80bc
00000190: 8839 abbb 4cab ea3c 6c39 8dbc 66df 0cbd
000001a0: 6423 c7bc a88b c2bd 7115 3cbd 4c80 553c
000001b0: ae7d eabc b3c1 56bc ae0c 48bd 48e5 40bc
000001c0: a406 973c d287 003d 5f86 14bc a1b3 bfba
000001d0: 5f1b 373d e594 873c 6f0f 173d 5847 a93d
000001e0: c778 a2bc dfde 8e3c b4b3 413d ab93 b7bd
000001f0: c0d5 493d 2667 d33b f08c 6ebc 5132 11bc
00000200: 8524 1ebd 13d4 99bd d00a f4bc 90f4 81bc
00000210: 4326 bdbd d2c7 97bd f328 96bd 7809 5f3a
00000220: e89c adbc 8e78 c9bd 0b71 663d 1b21 463d
00000230: 57ee a93b 80d0 e83c c92b 113d b6dc a33d
00000240: e913 c13d 4e06 a23d c3ee 9c3d 6d2d 913d
00000250: 5224 803d f3ab 2a3d e19c 61bd 5612 283d
00000260: 9305 0a3d 738b 253b 39c3 3fbd 99c9 64bd
00000270: 55ed 7f3b 4cd2 e03b 95f7 253d e62c 55bc
00000280: df51 91bc 4286 8dbd 5a79 a5bc 4b0e 523c
00000290: 8066 4d3d 3fca e83c d130 5b3d 08c1 a33d
000002a0: 3285 b23d 717b 433b cd75 a83d f7e6 783d
000002b0: b00b 143d 824a 363d a2ed cf3b b0cf 01bd
000002c0: b5ee e0bb 56e4 93bd 95d4 90bd 5b93 00bd
000002d0: 45c4 9e3d 34b0 523d eb7c 4f3d 8f92 8f3c
000002e0: 27de 1f3c 3b54 97bd 486b ac3c 38cb 653c
000002f0: b38c aebc 78db 3ebb a5da f03b 2809 0abc
00000300: 02b1 b0bc 2c24 1a3c aa8c 3abd 5db6 9ebd
00000310: d2a6 8bbd 753f 5dbd 2848 1dbd 6cb2 c13c
00000320: 65c0 0d3d 57a6 193c 10d8 223d dad1 3ebb
00000330: 22ed 91bd 6641 fbbb e7eb 62bc 170e 15be
00000340: 3e91 ecbc cee8 bdbc cfbb bebd 7dd1 e2bc
00000350: 1687 64bd 11d0 cd3d 7362 a43d 3e69 83bc
00000360: 7a85 bc3d c0b7 ba3d b081 da3d 09d3 5c3d
00000370: f849 5d3c 125d 503d c24d 30bd 7d70 9ebc
00000380: e0de 22bc ccf4 c7bb fc5c ce3b 4cbe 2a3d
00000390: 77a3 0ebd de1e 913c fe3e d13b df6b 81bd
000003a0: b09f bebc 251c 0bbd 6996 97bd 781a 93bd
000003b0: b109 b2bd 9777 b6bd 879d 52bc 6d40 bd3a
000003c0: 74d3 aabd 1b04 073d 50f8 b5bc 2bc3 cfbc
000003d0: 65a5 963c c0bb 253d 98bd 1ebc 4fa6 693c
000003e0: 90e8 233d ab52 413d d5af ffbc 7e13 09bb
000003f0: fd9c d7bc 8ec7 a0bd 5204 22bd 2b5d 0bbd

body.block1.conv.bias f4 [64]
-0.037161034 0.042786773 -0.03425529 0.037550475 -0.0325834 -0.04203553 0.0068568815 0.030784838
-0.022930335 0.03576503 -0.031568754 -0.0111944955 0.030504202 -0.021249793 0.03490179 -0.020537702
-0.017942883 -0.032692466 0.026060464 -0.0068961694 0.04469972 0.048321247 0.02138211 0.03217684
0.0136579275 -0.013309259 -0.03539816 -0.011286755 0.03830441 0.022588583 -0.02047983 -0.020809693
-0.026425915 -0.017486071 -0.006391833 0.033809863 -0.01319189 -0.03325528 0.015530828 0.0025523535
0.0014296059 -0.02222007 -0.0012518541 -0.026152851 -0.018268734 -0.014523471 -0.018766562 0.031907186
-0.033753373 0.029240727 -0.039846092 0.030435754 0.001894224 0.022965804 0.028062144 -0.019684065
-0.04599418 -0.018917078 0.011905561 -0.004051786 0.0015241803 0.00022148421 0.03675278 0.011702576
00000000: 2b36 18bd 2f41 2f3d 464f 0cbd 87ce 193d
00000010: 2c76 05bd 732d 2cbd b1af e03b 7c30 fc3c
00000020: 66d8 bbbc 5a7e 123d 3d4e 01bd 1e69 37bc
00000030: f3e3 f93c 0c14 aebc 2ef5 0e3d af3e a8bc
00000040: f4fc 92bc 89e8 05bd c17c d53c 43f9 e1bb
00000050: 0e17 373d 80ec 453d 8929 af3c ddcb 033d
00000060: 80c5 5f3c 140f 5abc a9fd 10bd 15ec 38bc
00000070: 16e5 1c3d b10b b93c 51c5 a7bc 1779 aabc
00000080: 297b d8bc f33e 8fbc 9572 d1bb 367c 0a3d
00000090: cc22 58bc b036 08bd 0475 7e3c 6345 273b
000000a0: 9d61 bb3a dd06 b6bc 4115 a4ba 813e d6bc
000000b0: 50a8 95bc daf3 6dbc 55bc 99bc 1cb1 023d
000000c0: fa40 0abd 408a ef3c a835 23bd 6754 f93c
000000d0: 9c47 f83a c822 bc3c 95e2 e53c 7a40 a1bc
000000e0: 6564 3cbd fdf7 9abc 8b0f 433c d8c4 84bb
000000f0: 01c7 c73a 373e 6839 158a 163d 29bc 3f3c

body.block1.norm.weight f4 [64]
0.90977854 0.85707366 0.92466146 0.95994705 0.8896843 0.8914296 0.96207684 0.9742153
0.90669835 0.92623794 0.8802173 0.9522962 0.9847738 0.9237293 0.9641929 0.89585364
0.9057216 1.034912 1.0303792 0.9311352 1.0245261 0.93491834 0.8988191 0.97603416
1.0585307 0.88716507 0.90863585 0.9547124 0.8770097 1.0558544 0.9596768 0.9223529
0.9917252 0.9318791 1.0205222 0.9443417 0.926476 0.9635994 0.94777715 0.9347826
0.94464654 0.9408106 0.7415726 1.1457723 1.0070208 0.965376 1.0025666 0.90524644
0.9566555 0.9877747 0.9612274 1.0181181 0.8987502 1.0731348 0.9163615 0.89015585
1.0666511 0.9818809 0.9231139 1.0376644 1.0023779 1.0837369 0.9430793 0.9594912
00000000: 3fe7 683f 2e69 5b3f 9db6 6c3f 17bf 753f
00000010: 5ac2 633f bb34 643f ab4a 763f 2d66 793f
00000020: 621d 683f ee1d 6d3f ec55 613f afc9 733f
00000030: 231a 7c3f 8679 6c3f 59d5 763f aa56 653f
00000040: 5fdd 673f ff77 843f 77e3 833f e05e 6e3f
00000050: ac23 833f cf56 6f3f 0219 663f 60dd 793f
00000060: ef7d 873f 401d 633f 5c9c 683f 0868 743f
00000070: b583 603f 3d26 873f 61ad 753f 521f 6c3f
00000080: b4e1 7d3f a18f 6e3f 79a0 823f 61c0 713f
00000090: 882d 6d3f 73ae 763f 86a1 723f ea4d 6f3f
000000a0: 5bd4 713f f7d8 703f b4d7 3d3f aba8 923f
000000b0: 0fe6 803f e222 773f 1a54 803f 3bbe 673f
000000c0: 60e7 743f cede 7c3f 0013 763f b251 823f
000000d0: 7e14 663f 7b5c 893f ab96 6a3f 41e1 633f
000000e0: 0688 883f 8c5c 7b3f 3151 6c3f 30d2 843f
000000f0: eb4d 803f e4b7 8a3f a56d 713f 37a1 753f

body.block1.norm.bias f4 [64]
0.29091147 0.44513753 0.55517954 0.21033221 0.21308838 0.03844191 0.56547576 0.20757413
0.4261383 0.4105886 0.35954094 0.02635114 0.40351 0.5118006 0.060006406 0.3677932
0.47622687 0.465961 0.027204879 0.40817362 0.124706976 0.26389349 0.32056051 -0.08555326
0.18617429 0.6910441 0.6581876 0.12280828 0.5327819 0.12000317 0.39906305 0.5351191
-0.094960056 0.4058992 0.32910192 0.5152899 0.1797355 -0.11019019 0.55583745 0.4299167
0.37689662 0.24322726 0.30120078 0.3943735 0.14848904 0.20357575 0.08663552 0.38694268
0.26112038 0.32535088 0.54161733 0.10863982 0.5297082 0.35440743 0.23916627 0.06904874
0.23790036 0.15839054 0.2657369 0.1434144 -0.037943013 0.37113592 0.021402918 -0.020920673
00000000: 59f2 943e 11e9 e33e 3f20 0e3f 5461 573e
00000010: d733 5a3e 4475 1d3d 05c3 103f 508e 543e
00000020: cd2e da3e ab38 d23e c015 b83e 59de d73c
00000030: dd98 ce3e 5d05 033f 47c9 753d 644f bc3e
00000040: 02d4 f33e 7192 ee3e c4dc de3c 22fc d03e
00000050: 5f66 ff3d 0c1d 873e 8220 a43e 8c36 afbd
00000060: 79a4 3e3e 44e8 303f fc7e 283f e882 fb3d
00000070: 6564 083f 39c4 f53d fe51 cc3e 91fd 083f
00000080: 6b7a c2bd 05d2 cf3e 0c80 a83e 0aea 033f
00000090: 950c 383e 65ab e1bd 5d4b 0e3f 0b1e dc3e
000000a0: 98f8 c03e 9110 793e fd36 9a3e 53eb c93e
000000b0: 830d 183e 2976 503e f76d b13d 5a1d c63e
000000c0: 92b1 853e 6494 a63e 6fa7 0a3f 8e7e de3d
000000d0: f59a 073f e474 b53e 01e8 743e 6d69 8d3d
000000e0: 279c 733e 2131 223e ab0e 883e 39db 123e
000000f0: 226a 1bbd 8705 be3e 2c55 af3c d561 abbc

body.block1.norm.running_mean f4 [64]
-0.81629264 -1.3992263 -3.839371 0.00643673 -1.7896563 -2.6533177 -2.6922395 -1.7770482
1.5666326 -3.8994682 -1.3256143 -2.0156655 -2.6341937 -0.7950644 0.26305386 3.1800196
-2.0980923 -5.314565 -1.9092898 -2.547365 -1.8523024 -2.1981616 -0.5308662 0.047479562
1.0104299 0.6357887 -0.80784553 -1.0234926 -0.28204864 2.9477901 -0.4098011 2.6753802
0.5460697 -1.7993035 0.26679572 1.441641 -0.7793891 -3.5806801 0.76632506 0.60738367
-1.4094144 -1.402758 -1.5362396 6.3373327 -5.0225134 -1.5707662 0.34319523 -4.0625105
-1.7418767 0.7369392 -0.68552625 -1.4948627 -0.47778928 -3.254082 -0.5265684 -0.63118166
6.1411853 0.051275395 -1.2607595 -3.2012641 -3.001408 -4.229999 -2.2892425 -1.680152
00000000: 8ef8 50bf d919 b3bf 41b8 75c0 34eb d23b
00000010: 7513 e5bf f5cf 29c0 a74d 2cc0 5176 e3bf
00000020: 6b87 c83f e390 79c0 bbad a9bf aa00 01c0
00000030: a196 28c0 5789 4bbf ffae 863e 7185 4b40
00000040: 2547 06c0 eb10 aac0 9c63 f4bf 0708 23c0
00000050: 3f18 edbf aeae 0cc0 d9e6 07bf ee79 423d
00000060: c455 813f 0cc3 223f f7ce 4ebf ce01 83bf
00000070: ae68 90be 98a8 3c40 73d1 d1be 6e39 2b40
00000080: 39cb 0b3f 944f e6bf 7399 883e b187 b83f
00000090: 0b86 47bf dd29 65c0 e12d 443f 7f7d 1b3f
000000a0: b167 b4bf 938d b3bf 80a3 c4bf 6ecb ca40
000000b0: 6eb8 a0c0 de0e c9bf 49b7 af3e 1600 82c0
000000c0: d1f5 debf 0ca8 3c3f a67e 2fbf a957 bfbf
000000d0: cca0 f4be e142 50c0 30cd 06bf 1f95 21bf
000000e0: 9784 c440 2606 523d 9160 a1bf 83e1 4cc0
000000f0: 1217 40c0 275c 87c0 f382 12c0 390f d7bf

body.block1.norm.running_var f4 [64]
0.53052205 1.0094446 2.037009 2.287172 2.4134812 1.2621174 1.4662086 1.276061
1.3555015 2.176722 1.5383646 1.0684723 0.88661116 1.6249661 0.86280847 0.7354807
0.900491 2.2302337 3.6793752 0.9808287 1.647266 1.3350338 0.9629741 1.6803759
2.1336715 1.10262 1.5570173 0.6373494 0.818035 1.7438681 0.75427365 1.4223723
5.963783 0.67831606 1.3149477 1.0743028 1.2849452 2.4231007 1.5095236 0.55475783
1.6781672 0.9169736 0.39427656 4.2704864 4.4848366 0.6675295 0.6917011 2.0780163
1.1498876 0.9895804 0.691631 1.397951 2.9346716 1.3538562 0.96783364 0.57134295
3.6625838 1.4535129 1.5078033 4.029028 1.138101 3.4250178 0.7853307 3.5016117
00000000: 4bd0 073f 7b35 813f 5b5e 0240 0761 1240
00000010: 7a76 1a40 108d a13f b9ac bb3f f855 a33f
00000020: 1381 ad3f 6a4f 0b40 22e9 c43f b3c3 883f
00000030: f3f8 623f e4fe cf3f 04e1 5c3f 7748 3c3f
00000040: 9486 663f 26bc 0e40 e27a 6b40 9717 7b3f
00000050: 9dd9 d23f 63e2 aa3f 7885 763f 8f16 d73f
00000060: 138e 0840 a722 8d3f 584c c73f 5529 233f
00000070: be6a 513f 1237 df3f 1418 413f 4c10 b63f
00000080: 4fd7 be40 1fa6 2d3f 3550 a83f c182 893f
00000090: 1679 a43f 1514 1b40 1238 c13f 9c04 0e3f
000000a0: 2fce d63f c8be 6a3f 9ede c93e d3a7 8840
000000b0: c883 8f40 37e3 2a3f 5313 313f 38fe 0440
000000c0: 842f 933f 2455 7d3f bb0e 313f 0ff0 b23f
000000d0: a9d1 3b40 294b ad3f f2c3 773f 8843 123f
000000e0: c667 6a40 b60c ba3f b3ff c03f cced 8040
000000f0: 4bad 913f 7e33 5b40 6f0b 493f 681a 6040

body.block2.conv.weight f4 [64, 64, 3, 3]
0.0020926998 0.044270817 0.005640881 0.032804828 0.06259903 0.062314283 -0.0117524015 -0.00053158466
-0.031031769 -0.03255126 -0.003167133 -0.07609191 0.095257714 0.07790348 0.08489348 -0.0025077239
-0.008999871 -0.013606383 -0.101408795 0.0022040654 -0.051170092 -0.012031393 0.042175695 -0.015271869
0.011353894 0.00039483703 -0.07208674 -0.039416693 -0.0074157408 0.022676803 0.0011920793 -0.009770575
-0.05216695 0.018470433 -0.027345454 -0.07842234 0.010391977 -0.02710502 -0.05901661 0.025514757
0.009028029 0.02489912 0.012974687 0.032774992 0.034973852 -0.016635142 0.016247915 0.034431517
0.029513536 0.0013884538 -0.0069516613 0.02768486 0.06753663 0.1276284 -0.079699196 -0.048787314
-0.10110954 0.012070669 0.054861367 0.055967845 0.024731478 0.00062694564 0.03475721 -0.009483105
0.039890356 0.0039448612 -0.024182044 -0.045840506 0.018014811 0.07406998 0.025827397 0.039874945
0.033413146 -0.02360983 -0.13586974 0.025828263 0.025240324 -0.0020672244 0.058534008 0.109157585
-0.0046335617 -0.05935319 0.040379435 -0.025168285 0.028424244 -0.0132510625 -0.0920089 0.064682
-0.018821385 -0.046712127 -0.026348352 0.046679683 0.025106017 0.022670541 -0.065702364 0.034943357
-0.021714892 0.012445523 0.10742054 0.021959735 0.026681913 -0.011517727 0.04340466 0.010049288
0.0014230045 0.03505014 -0.021836903 0.046943117 -0.103378996 -0.09323371 -0.07218698 -0.04339723
-0.04427235 0.02265963 0.017574426 0.04615259 0.157948 -0.10566894 0.047954448 0.029581625
-0.005808016 0.017608553 -0.049489878 0.03505638 -0.042733505 -0.0955041 0.050948113 0.06640392
0.0012351798 0.06611274 0.02065558 0.043937027 -0.0018786476 0.057639126 0.053331837 0.046509102
0.04012908 0.027877059 0.010058846 -0.007960457 -0.06530791 0.008348981 -0.058114406 -0.13355154
-0.03913951 0.03598126 0.058175683 0.05349037 0.020343091 0.035576645 0.07140098 0.0024165537
0.04292428 -0.03513852 -0.0045882612 0.01988898 -0.028385036 0.013050483 -6.605502e-05 -0.0070629264
0.066330895 0.08925852 0.087879024 0.08038784 0.12294035 -0.01492214 0.05444924 0.06560877
0.010877623 -0.0015137015 0.018874338 -0.028641114 -0.042318374 -0.122485116 0.034830865 0.05090001
0.08806637 0.10635452 0.09639025 0.19546893 -0.08988752 -0.012143546 -0.05642938 0.04798443
-0.0033324235 0.087230705 0.06776862 0.019568909 0.03406998 -0.011413981 -0.015728453 0.031185996
-0.051697515 -0.03788769 0.01747577 -0.08164925 -0.005968367 -0.0766822 0.018140696 0.043955836
-0.024352912 0.020247415 0.00017564556 0.049317177 0.0513094 0.028900903 0.073615044 0.047532886
0.022210889 0.050729264 -0.030745845 -0.00898024 0.029252198 0.014447936 -0.0037895276 0.021648012
-0.033324346 0.0385659 0.073204346 -0.008335847 0.059303306 0.056781143 0.07225327 0.019640645
0.040762138 0.010829612 0.06817726 0.056505594 -0.0075203315 -0.031435713 0.009075139 0.070707396
0.054863524 0.09653904 0.01921571 -0.0143064335 0.039159592 0.005230857 0.042466898 -0.013092425
0.06440568 0.02423743 -0.010140211 -0.1059312 0.022037223 0.0384474 0.07401959 0.06434824
-0.0401526 0.008422089 -0.0066035734 -0.009528571 -0.023347557 -0.04085264 -0.093796596 -0.023523854
00000000: ad25 093b 5155 353d 24d7 b83b 5b5e 063d
00000010: ec33 803d 433d 7f3d 258d 40bc 0b5a 0bba
00000020: 5636 febc 7854 05bd ad8f 4fbb 13d6 9bbd
00000030: 7a16 c33d dc8b 9f3d a2dc ad3d a058 24bb
00000040: 3274 13bc 4fed 5ebc 6aaf cfbd 1572 103b
00000050: bb97 51bd 521f 45bc 6cc0 2c3d dc36 7abc
00000060: af05 3a3c 2102 cf39 36a2 93bd 6673 21bd
00000070: beff f2bb b4c4 b93c 8b3f 9c3a c314 20bc
00000080: 03ad 55bd 4e4f 973c 9303 e0bc e49b a0bd
00000090: 1c43 2a3c 590b debc 67bb 71bd 5304 d13c
000000a0: 4cea 133c 3df9 cb3c c893 543c 123f 063d
000000b0: be40 0f3d 6c46 88bc 591a 853c 1008 0d3d
000000c0: 5fc6 f13c c7fc b53a c3ca e3bb 5ccb e23c
000000d0: a550 8a3d 05b1 023e 5539 a3bd 35d5 47bd
000000e0: 8512 cfbd 0ec4 453c 50b6 603d 8a3e 653d
000000f0: ab99 ca3c 9c59 243a 945d 0e3d 065f 1bbc
00000100: 1264 233d e543 813b 6c19 c6bc 41c3 3bbd
00000110: cc93 933c 00b2 973d fa93 d33c e953 233d
00000120: 39dc 083d 6769 c1bc 7021 0bbe cb95 d33c
00000130: ccc4 ce3c 457a 07bb 5bc1 6f3d 038e df3d
00000140: 22d5 97bb 551c 73bd e864 253d b82d cebc
00000150: f6d9 e83c fc1a 59bc 2a6f bcbd ff77 843d
00000160: 4e2f 9abc 3755 3fbd 80d8 d7bc 3233 3f3d
00000170: 22ab cd3c 92b7 b93c f68e 86bd c420 0f3d
00000180: 6ee3 b1bc 4fe8 4b3c 4dff db3d e7e4 b33c
00000190: 0794 da3c d9b4 3cbc 16c9 313d c5a5 243c
000001a0: 1c84 ba3a bc90 0f3d 4ee3 b2bc 6d47 403d
000001b0: 5eb8 d3bd 51f1 bebd c4d6 93bd 4bc1 31bd
000001c0: ec56 35bd b0a0 b93c 3ef8 8f3c 800a 3d3d
000001d0: 1fbd 213e f568 d8bd e26b 443d 2a55 f23c
000001e0: 2b51 bebb d03f 903c e6b5 4abd 4797 0f3d
000001f0: 5409 2fbd a797 c3bd f8ae 503d c7fe 873d
00000200: c2e5 a13a 1e66 873d e435 a93c 50f7 333d
00000210: f43c f6ba 0117 6c3d 7c72 5a3d 5480 3e3d
00000220: 645e 243d 6e5e e43c dccd 243c 946c 02bc
00000230: 27c0 85bd 2aca 083c 5f09 6ebd bcc1 08be
00000240: c050 20bd 1661 133d a049 6e3d b818 5b3d
00000250: 8ea6 a63c d1b8 113d ad3a 923d 0b5f 1e3b
00000260: 5fd1 2f3d 69ed 0fbd 2059 96bb 37ee a23c
00000270: bc87 e8bc b1d1 553c 0587 8ab8 1f70 e7bb
00000280: 7ed8 873d 2ccd b63d ebf9 b33d 61a2 a43d
00000290: 26c8 fb3d fe7b 74bc 2b06 5f3d e45d 863d
000002a0: 0f38 323c 6567 c6ba 5b9e 9a3c c5a0 eabc
000002b0: 0856 2dbd 7ad9 fabd cfaa 0e3d 877c 503d
000002c0: 245c b43d 66d0 d93d 4068 c53d 0229 483e
000002d0: f316 b8bd b9f5 46bc 7e22 67bd 528b 443d
000002e0: ca64 5abb 03a6 b23d 46ca 8a3d fa4e a03c
000002f0: f78c 0b3d b501 3bbc f5d8 80bc c679 ff3c
00000300: c6c0 53bd 1f30 1bbd 5929 8f3c b937 a7bd
00000310: 4b92 c3bb 8f0b 9dbd cc9b 943c 090b 343d
00000320: c27f c7bc e8dd a53c 7f2d 3839 cf00 4a3d
00000330: ce29 523d 96c1 ec3c 7cc3 963d d8b1 423d
00000340: 9cf3 b53c 7dc9 4f3d b6de fbbc db21 13bc
00000350: 4ea2 ef3c 09b7 6c3c b959 78bb 2c57 b13c
00000360: 1c7f 08bd 47f7 1d3d 29ec 953d 1493 08bc
00000370: 06e8 723d 5893 683d 86f9 933d 6be5 a03c
00000380: 33f6 263d af6e 313c 85a0 8b3d 6972 673d
00000390: 1d6d f6bb bcc2 00bd e4af 143c 0acf 903d
000003a0: 93b8 603d 43b6 c53d 446a 9d3c 8865 6abc
000003b0: cf65 203d 9c67 ab3b c5f1 2d3d 9c81 56bc
000003c0: 20e7 833d 938d c63c 2123 26bc 75f2 d8bd
000003d0: 6887 b43c 057b 1d3d 9597 973d 03c9 833d
000003e0: 0d77 24bd cdfc 093c ca62 d8bb b91d 1cbc
000003f0: 6043 bfbc 1955 27bd 6e18 c0bd 19b5 c0bc

body.block2.conv.bias f4 [64]
-0.04011703 0.024009898 0.0023933686 0.010152988 0.009599828 0.0175082 0.004537704 -0.032042533
0.022898776 -0.005434792 0.013415746 -0.0073561263 0.0067433086 0.025443712 0.00076894223 -0.021137476
0.013379631 0.040738806 -0.019454388 -0.040459357 0.005611853 -0.02659345 0.0058276467 -0.019179245
-0.009093421 -0.002764386 -0.031349864 0.023528846 -0.016945908 -0.013867203 0.02087145 -0.0024357154
0.032749843 0.0388731 -0.010982834 -0.032674436 -0.010449956 -0.009431851 0.005224502 -0.026061751
0.04376643 0.028930549 0.028511772 -0.017672682 0.035023917 -0.043647163 0.038198322 0.031208372
-0.010168772 0.021224584 0.006398745 0.02195901 0.04076255 -0.059731957 -0.020251118 -0.0140875755
0.023799792 0.03482881 -0.032081682 -0.005415656 -0.026983207 0.022583097 -0.004746136 0.013447477
00000000: c151 24bd 68b0 c43c 10da 1c3b b858 263c
00000010: 9948 1d3c 5b6d 8f3c 05b1 943b 083f 03bd
00000020: 3796 bb3c 5716 b2bb b8cd 5b3c a90b f1bb
00000030: f9f6 dc3b 556f d03c d792 493a 8028 adbc
00000040: 3d36 5b3c bcdd 263d cf5e 9fbc b6b8 25bd
00000050: a3e3 b73b 82da d9bc d8f5 be3b cb1d 9dbc
00000060: 92fc 14bc b32a 35bb b768 00bd 91bf c03c
00000070: 25d2 8abc 4433 63bc 9afa aa3c 86a0 1fbb
00000080: b324 063d 6639 1f3d 58f1 33bc a1d5 05bd
00000090: 4b36 2bbc 0d88 1abc 4d32 ab3b 747f d5bc
000000a0: 6e44 333d c2ff ec3c 8591 e93c 4dc6 90bc
000000b0: 3d75 0f3d 5ec7 32bd d875 1c3d b3a8 ff3c
000000c0: ec9a 26bc 2edf ad3c 90ac d13b 62e3 b33c
000000d0: a2f6 263d 7fa9 74bd ace5 a5bc 93cf 66bc
000000e0: c8f7 c23c a7a8 0e3d 1568 03bd d175 b1bb
000000f0: e30b ddbc 3000 b93c 7985 9bbb ce52 5c3c

body.block2.norm.weight f4 [64]
0.97511595 0.89246976 0.9236907 0.962002 0.888755 1.0008368 1.0605425 0.93753374
0.94323933 0.93874717 1.0514293 1.0163836 0.9479131 1.0474828 1.0332654 0.97920585
1.012361 1.0580623 1.0080403 0.9740103 0.9889139 0.9868112 0.9487004 0.9935363
0.94610775 0.9619763 0.9873262 0.8753998 1.0068278 0.89630246 0.9113406 0.95551
0.97909087 0.871642 1.0226989 0.9663876 1.0374295 0.9407818 0.994821 1.0648341
0.99105424 1.0854427 0.94166803 0.9353331 0.85866493 0.87777734 1.0798655 1.059042
1.0116153 0.9566525 0.9294574 0.96638554 1.0404577 1.0559435 0.9915844 1.0222415
0.9880924 1.0116056 1.0017427 0.8654162 0.97497547 0.95347726 0.9495678 0.9791714
00000000: 33a1 793f e678 643f fe76 6c3f c345 763f
00000010: 7385 633f 6c1b 803f dbbf 873f 3602 703f
00000020: 2278 713f bc51 703f 3c95 863f dc18 823f
00000030: 6faa 723f eb13 863f 0a42 843f 3cad 7a3f
00000040: 0c95 813f 966e 873f 7707 813f bd58 793f
00000050: 7629 7d3f a99f 7c3f 08de 723f 6558 7e3f
00000060: 1e34 723f 1444 763f 69c1 7c3f 341a 603f
00000070: bcdf 803f 1474 653f 9e4d 693f 4e9c 743f
00000080: b3a5 7a3f ee23 5f3f cce7 823f 2e65 773f
00000090: 7dca 843f 13d7 703f 97ac 7e3f 7c4c 883f
000000a0: bbb5 7d3f c9ef 8a3f 2811 713f fd71 6f3f
000000b0: 77d1 5b3f 04b6 603f 0839 8a3f b08e 873f
000000c0: 9c7c 813f 2ee7 743f ecf0 6d3f 0b65 773f
000000d0: b82d 853f 2829 873f 7ad8 7d3f cfd8 823f
000000e0: a0f3 7c3f 4b7c 813f 1b39 803f eb8b 5d3f
000000f0: fe97 793f 1617 743f e016 733f faaa 7a3f

body.block2.norm.bias f4 [64]
0.261569 0.24790156 0.1675707 0.044668954 0.30350152 0.36888686 0.025671959 0.30586463
0.19269566 0.08270862 -0.021460172 -0.28342867 0.16933775 -0.18672372 -0.00291805 0.06928831
0.1457669 0.19843616 0.12692496 0.15485857 0.39873302 0.09464432 0.13789903 -0.17011102
0.15546933 0.28751644 0.07287483 0.55694216 0.13624968 0.5473628 0.06486276 0.3085798
0.38493955 0.3412741 0.05944191 0.3126236 -0.06915391 -0.033864383 -0.19299765 0.10684213
-0.15053774 0.1764564 0.422095 0.07735853 0.28740078 0.6962426 0.28899527 -0.039478093
0.2130148 0.23205744 0.3941422 0.3307567 0.28413683 0.18139362 -0.004970499 -0.07354816
0.22555022 -0.005199373 -0.0215989 0.25701302 0.1837514 -0.09324902 0.34297553 0.521153
00000000: 5fec 853e e8d9 7d3e a797 2b3e cbf6 363d
00000010: 8d64 9b3e bdde bc3e 004e d23c 4a9a 9c3e
00000020: 0352 453e 2363 a93d 3ecd afbc 901d 91be
00000030: e066 2d3e 8134 3fbe c13c 3fbb 08e7 8d3d
00000040: eb43 153e d932 4b3e 9ef8 013e 3f93 1e3e
00000050: bc26 cc3e e2d4 c13d 6735 0d3e 9531 2ebe
00000060: 5a33 1f3e 5b35 933e 663f 953d c393 0e3f
00000070: 0985 0b3e f81f 0c3f c4d6 843d 2cfe 9d3e
00000080: cc16 c53e 7bbb ae3e 5c79 733d 3310 a03e
00000090: 91a0 8dbd 61b5 0abd 2da1 45be 0cd0 da3d
000000a0: 9126 1abe fdb0 343e d61c d83e 266e 9e3d
000000b0: 3226 933e f43c 323f 30f7 933e c8b3 21bd
000000c0: 8d20 5a3e 77a0 6d3e 02cd c93e f158 a93e
000000d0: 627a 913e 40bf 393e 91df a2bb 6ba0 96bd
000000e0: a3f6 663e 805f aabb 2df0 b0bc 3697 833e
000000f0: 5429 3c3e 58f9 bebd 7d9a af3e 486a 053f

body.block2.norm.running_mean f4 [64]
1.0035086 -0.80130213 1.2340473 -0.73081434 1.7907814 2.5849822 3.0190694 -0.23335905
0.4491925 2.849065 0.29401553 -4.39417 -1.7708052 -0.47021902 -1.333428 -0.77771467
-0.22280984 -0.23495752 -1.024815 -0.72681254 -1.450601 3.3237593 -1.6783702 1.0242208
-2.012129 -0.4361267 0.94463605 1.150168 -0.05677756 2.7482462 -0.29056954 0.853607
1.9470772 -0.33567435 -1.9026369 2.009597 0.21116826 0.90995574 -0.5646351 -0.033478796
-1.7497799 0.7828597 0.10166457 -1.5142022 -0.021607878 -1.3981484 0.3958669 -0.19053584
-1.0255979 1.7543911 0.6915388 1.7380472 0.5512403 -0.7673877 0.4672338 0.65796113
1.495232 -0.06550744 0.7944856 2.5004585 -0.45582163 0.6245968 -0.14054787 1.0092388
00000000: f872 803f 2322 4dbf 43f5 9d3f a616 3bbf
00000010: 5338 e53f 5970 2540 6f38 4140 adf5 6ebe
00000020: 8ffc e53e 1557 3640 3489 963e 0a9d 8cc0
00000030: bfa9 e2bf 8cc0 f0be c5ad aabf 4f18 47bf
00000040: 4328 64be b498 70be 232d 83bf 6310 3abf
00000050: 4bad b9bf 79b8 5440 d6d4 d6bf ab19 833f
00000060: b9c6 00c0 004c dfbe abd3 713f b438 933f
00000070: 968f 68bd 44e3 2f40 88c5 94be fd85 5a3f
00000080: d339 f93f 82dd abbe 9b89 f3bf 3d9d 0040
00000090: 7e3c 583e dcf2 683f ed8b 10bf 1021 09bd
000000a0: caf8 dfbf 7e69 483f 8435 d03d 61d1 c1bf
000000b0: 0103 b1bc 87f6 b2bf 11af ca3e d41b 43be
000000c0: cb46 83bf e38f e03f b008 313f 5578 de3f
000000d0: 161e 0d3f 8573 44bf 4539 ef3e 2470 283f
000000e0: c363 bf3f c428 86bd 6963 4b3f 8307 2040
000000f0: 7461 e9be 93e5 1f3f c8eb 0fbe bd2e 813f

body.block2.norm.running_var f4 [64]
1.1674359 1.1940417 1.009534 0.98211133 1.1322174 1.8517009 2.989531 0.6746751
1.8708013 0.7875268 0.7683046 1.6444199 1.0220423 0.6548344 1.3535299 0.9466118
1.5438864 1.5737127 1.4623611 1.2009436 1.4617294 1.5655211 2.378722 1.1519953
1.0129648 2.5887775 1.5439473 4.1787333 1.7923084 1.1542182 0.503205 1.2965649
1.2794169 0.73627657 1.4559503 1.8472784 1.7721611 0.63099396 1.8027468 1.8858644
1.4133527 1.5791401 1.0489283 1.0881622 0.90882844 1.5423908 1.7162833 2.3936613
1.5200313 1.1770942 1.0454352 1.7368008 1.627601 1.0816439 0.7332684 1.530253
1.2556844 1.6813982 0.9563483 0.82883126 1.2284104 1.2476965 1.2517242 1.2237293
00000000: 8a6e 953f 5cd6 983f 6938 813f a66b 7b3f
00000010: 80ec 903f 8904 ed3f 7a54 3f40 82b7 2c3f
00000020: 6b76 ef3f 5b9b 493f 9caf 443f 5a7c d23f
00000030: 48d2 823f 3aa3 273f 7840 ad3f 2755 723f
00000040: 129e c53f 6b6f c93f a62e bb3f 85b8 993f
00000050: f319 bb3f ff62 c83f fb3c 1840 9574 933f
00000060: d5a8 813f 88ae 2540 11a0 c53f 2fb8 8540
00000070: 5d6a e53f 6cbd 933f 0bd2 003f d7f5 a53f
00000080: efc3 a33f 9f7c 3c3f 945c ba3f 9e73 ec3f
00000090: 2dd6 e23f d288 213f 68c0 e63f 0164 f13f
000000a0: bee8 b43f 4321 ca3f 4843 863f e648 8b3f
000000b0: fba8 683f 106d c53f 2caf db3f bf31 1940
000000c0: 6390 c23f 06ab 963f d2d0 853f 7d4f de3f
000000d0: 3b55 d03f 4f73 8a3f 7ab7 3b3f 55df c33f
000000e0: 44ba a03f 0e38 d73f 3ed3 743f 492e 543f
000000f0: 8d3c 9d3f 85b4 9f3f 8038 a03f 29a3 9c3f

body.block3.conv.weight f4 [64, 64, 3, 3]
0.017229393 0.0009852003 0.014133229 -0.055541486 -0.043936152 -0.058142867 -0.0146814585 -0.03588847
-0.048368808 0.09802191 0.019381566 -0.029939994 0.082906365 0.06874556 0.031037105 0.039185766
-0.021926783 0.007262524 0.005046946 0.08547204 -0.039697483 -0.04332329 0.0015474124 -0.028574843
-0.07387084 -0.1036869 -0.010558047 0.0130178435 0.041997965 0.025411198 0.025961468 -0.0160968
0.018632177 0.04564001 0.012848472 0.032767285 -0.018574571 -0.011299403 -0.050990168 -0.009536609
-0.005230693 -0.057402927 -0.00585938 -0.034088884 -0.041939624 0.0094620325 -0.044557657 -0.018072126
0.036874194 0.03214655 0.037281204 -0.0050857454 0.043145586 -0.0106321 -0.05489306 -0.0070469985
0.024816202 -0.002198684 -0.018074404 0.017185623 0.025925461 0.0009878299 0.0049327393 -0.0375998
-0.013013614 -0.093635246 0.016035862 -0.035059497 -0.06485472 0.12823556 0.053837154 -0.040754326
0.058827937 -0.04553109 -0.035676513 0.024540292 0.027468627 0.037777934 -0.0069891773 -0.013977961
0.009241696 0.037621927 -0.0023602291 -0.15918398 -0.045867216 -0.016823675 -0.09065373 -0.024675164
0.026115319 -0.008316105 0.0066315057 -0.007791491 -0.05832285 -0.037884906 -0.0055989176 0.012924459
0.107312545 0.049455702 0.08334949 -0.06360703 -0.11009437 -0.10623535 -0.047830414 -0.07371723
-0.069434226 0.049889974 -0.046335034 -0.11650833 -0.072319105 -0.007894417 0.0032350826 0.022018189
-0.012555124 0.014512489 0.0038812668 -0.008138709 -0.013837547 -0.020747835 0.037961703 -0.007400397
-0.013477719 0.046813197 -0.008396617 -0.05391002 -0.018567262 -0.05574753 0.043960225 0.052019157
0.06760966 0.076131016 0.06889568 0.043334402 0.09775449 0.013669271 0.0014232702 0.06921776
0.025793422 -0.04763862 0.113492645 0.023215832 -0.017621228 0.0744281 0.034913838 -0.011883169
0.054033563 0.04192115 0.06867712 0.0046982616 -0.0024400845 -0.017088223 -0.039741565 -0.038599543
-0.006023542 -0.021716803 -0.01014319 -0.046240553 -0.049341623 -0.032457676 -0.029591898 0.045315873
0.0519405 -0.0024580467 -0.008395437 0.033892766 -0.05215442 0.007548682 0.068776086 0.06690261
0.041833993 0.09124372 0.09939267 0.017444089 0.060293693 0.12921344 -0.008783792 -0.0031550073
-0.002109453 0.035384886 -0.0037906824 -0.015122617 -0.056826655 -0.08700276 -0.10037983 0.016371956
-0.035681836 -0.030063499 -0.011624959 0.01890667 0.058455102 0.0015350977 -0.007285104 0.05698502
0.011462181 0.029527418 0.046126813 0.0389288 0.024543151 0.03183679 0.06809292 0.056848574
0.05908155 0.04974126 0.04124118 0.035300195 0.03682289 0.0065362966 -0.068249546 -0.03836902
-0.033328503 -0.08663961 -0.059251506 -0.05384245 -0.019246843 -0.04677286 0.045436017 0.0733694
0.0059350417 0.06709462 0.10138669 0.015400408 -0.008082565 0.022185339 0.06989362 0.0057810023
-0.05234285 0.10238692 0.015386542 -0.100350544 0.0045407573 -0.030559191 -0.022366393 -0.050494853
-0.04417583 0.01838895 0.031831533 0.0058045327 0.06226823 -0.027748547 0.006304666 0.03969743
-0.046771523 -0.03340982 0.110155344 0.020759044 0.0146908965 0.023341129 0.011296829 0.02847714
0.03342355 0.08291528 0.03697633 0.098050475 -0.0022942962 0.028306602 -0.024687199 0.0081773875
00000000: a824 8d3c d621 813a 0f8f 673c 787f 63bd
00000010: 65f6 33bd 3727 6ebd 808a 70bc caff 12bd
00000020: 5f1e 46bd b6bf c83d 17c6 9e3c b844 f5bc
00000030: d0ca a93d 79ca 8c3d 8741 fe3c 4181 203d
00000040: cc9f b3bc 78fa ed3b da60 a53b f70b af3d
00000050: d499 22bd c373 31bd 8bd2 ca3a ca15 eabc
00000060: 9849 97bd cc59 d4bd a9fb 2cbc cb48 553c
00000070: 0f06 2c3d 252b d03c 25ad d43c 70dd 83bc
00000080: 82a2 983c 05f1 3a3d 6682 523c fd36 063d
00000090: b329 98bc 2221 39bc 11db 50bd 703f 1cbc
000000a0: 3c66 abbb 551f 6bbd 0b00 c0bb c9a0 0bbd
000000b0: e2c8 2bbd a406 1b3c 1782 36bd ff0b 94bc
000000c0: 6509 173d 1aac 033d 2db4 183d 53a6 a6bb
000000d0: 6db9 303d 4232 2ebc 8cd7 60bd 82ea e6bb
000000e0: 594b cb3c cc17 10bb c610 94bc ddc8 8c3c
000000f0: a261 d43c 127a 813a d1a2 a13b 3f02 1abd
00000100: 0e37 55bc d6c3 bfbd a45d 833c 8c9a 0fbd
00000110: 8dd2 84bd 2f50 033e 5984 5c3d 02ee 26bd
00000120: 90f5 703d cf7e 3abd 8921 12bd b908 c93c
00000130: e305 e13c 09bd 1a3d 7805 e5bb d103 65bc
00000140: 7c6a 173c 7319 1a3d 13ae 1abb 2001 23be
00000150: 43df 3bbd ced1 89bc aaa8 b9bd 9223 cabc
00000160: cbef d53c 4640 08bc 1a4d d93b c44f ffbb
00000170: f1e3 6ebd 342d 1bbd 2077 b7bb 1cc1 533c
00000180: aec6 db3d 1092 4a3d 23b3 aa3d 6744 82bd
00000190: 2879 e1bd eb91 d9bd d3e9 43bd 0ff9 96bd
000001a0: 8833 8ebd 6e59 4c3d cec9 3dbd eb9b eebd
000001b0: 0a1c 94bd 9657 01bc ae03 543b 7d5f b43c
000001c0: 02b4 4dbc cac5 6d3c da5c 7e3b 3858 05bc
000001d0: e1b6 62bc 5df7 a9bc bb7d 1b3d 087f f2bb
000001e0: a7d1 5cbc 32bf 3f3d f791 09bc c1d0 5cbd
000001f0: 5f1a 98bc 8657 64bd a30f 343d 0a12 553d
00000200: ef76 8a3d 94ea 9b3d 2e19 8d3d 6a7f 313d
00000210: 8233 c83d 14f5 5f3c 068d ba3a 0ac2 8d3d
00000220: ba4c d33c b720 43bd d56e e83d 212f be3c
00000230: 655a 90bc c26d 983d d001 0f3d a0b1 42bc
00000240: 4c52 5d3d 83b5 2b3d 97a6 8c3d e0f3 993b
00000250: d3e9 1fbb 9afc 8bbc 0dc8 22bd 8e1a 1ebd
00000260: 2261 c5bb 70e7 b1bc 9f2f 26bc bc66 3dbd
00000270: 711a 4abd 57f2 04bd b56a f2bc 239d 393d
00000280: 90bf 543d 2e17 21bb 048d 09bc 24d3 0a3d
00000290: e09f 55bd ef5a f73b 7ada 8c3d 3c04 893d
000002a0: 1f5a 2b3d fddd ba3d 628e cb3d e8e6 8e3c
000002b0: 85f6 763d 8750 043e e5e9 0fbc 3dc4 4ebb
000002c0: c03e 0abb beef 103d 196d 78bb dac4 77bc
000002d0: 11c3 68bd 812e b2bd f193 cdbd 7b1e 863c
000002e0: 1e27 12bd ba47 f6bc 9d76 3ebc 29e2 9a3c
000002f0: 9e6e 6f3d 5535 c93a e2b7 eebb 2069 693d
00000300: dfcb 3b3c 7ce3 f13c 78ef 3c3d ce73 1f3d
00000310: b80e c93c 4b67 023d 4d74 8b3d 0dda 683d
00000320: 7fff 713d 7ebd 4b3d 83ec 283d f096 103d
00000330: 99d3 163d 6e2e d63b 6bc6 8bbd d528 1dbd
00000340: 7883 08bd 1c70 b1bd b5b1 72bd e789 5cbd
00000350: 8eab 9dbc e694 3fbd 1e1b 3a3d b242 963d
00000360: bd7a c23b e768 893d d3a3 cf3d fe51 7c3c
00000370: bc6c 04bc 07be b53c 6324 8f3d 906e bd3b
00000380: 7565 56bd 3cb0 d13d d617 7c3c 9684 cdbd
00000390: a2ca 943b 4557 fabc ba39 b7bc b1d3 4ebd
000003a0: b7f1 34bd 6ca4 963c c861 023d f333 be3b
000003b0: f90c 7f3d ec50 e3bc 5f97 ce3b c699 223d
000003c0: 7f93 3fbd bcd8 08bd 2099 e13d df0e aa3c
000003d0: 16b2 703c e535 bf3c 5616 393c e448 e93c
000003e0: 22e7 083d 7ccf a93d 7e74 173d b0ce c83d
000003f0: e75b 16bb 3fe3 e73c cf3c cabc 73fa 053c

body.block3.conv.bias f4 [64]
-0.007689879 0.017977575 0.059766926 -0.025004396 -0.010689476 0.057007346 -0.07110779 0.02890469
0.028309537 -0.052447435 0.0029723716 0.09785003 -0.0034281625 -0.005982796 0.022964854 -0.034366515
0.011775188 -0.011805847 -0.0072592795 -0.001144583 -0.050762318 0.049625862 -0.0431373 -0.033884145
-0.06462403 0.015473204 0.022404904 -0.030733446 -0.0010022583 0.05166842 -0.07532621 0.026909577
0.00914046 0.119550586 -0.06492568 0.04670469 0.015602925 0.004265794 0.081286624 0.054145098
0.1031397 0.0027557642 0.017953483 0.019908205 0.024443084 -0.04116686 0.04891977 -0.0042161
-0.010919283 0.0029836327 -0.048033256 -0.03971869 0.030042091 0.05523521 -0.035415415 -0.023546966
-0.0502248 -0.018059185 0.04420046 -0.011609674 0.07200579 0.04284084 0.04373019 -0.06074863
00000000: 61fb fbbb b545 933c 2ace 743d 05d6 ccbc
00000010: e922 2fbc 8980 693d f6a0 91bd 87c9 ec3c
00000020: 67e9 e73c 1fd3 56bd 1fcc 423b 9965 c83d
00000030: 06ab 60bb 550b c4bb ca20 bc3c e7c3 0cbd
00000040: b8ec 403c 506d 41bc 40df edbb d505 96ba
00000050: 26ec 4fbd 7d44 4b3d bdb0 30bd 1aca 0abd
00000060: 9a59 84bd 5283 7d3c 7d8a b73c b5c4 fbbc
00000070: 355e 83ba 44a2 533d a144 9abd 7971 dc3c
00000080: dec1 153c f0d6 f43d c1f7 84bd 6b4d 3f3d
00000090: 69a3 7f3c 13c8 8b3b 9a79 a63d 40c7 5d3d
000000a0: e83a d33d 0d9a 343b 2f13 933c 8816 a33c
000000b0: dd3c c83c 959e 28bd 1960 483d 3627 8abb
000000c0: cbe6 32bc 0d89 433b 85be 44bd 11b0 22bd
000000d0: d51a f63c 513e 623d c10f 11bd 91e5 c0bc
000000e0: 85b8 4dbd dbf0 93bc 8b0b 353d 8136 3ebc
000000f0: c677 933d e079 2f3d 6d1e 333d 8ed3 78bd
