trained_models/sinGan/mountains/scale_factor=0.750000,alpha=10/5/netG.pth (torch_old, 466445 bytes, 26 tensors)

head.conv.weight f4 [64, 3, 3, 3]
000000 9b c6 90 3e ba 23 81 3e 15 13 53 3e 1e 77 c9 3c
       0.28276524 0.2522257 0.20612748 0.024592932
000010 45 0d 63 bb 28 db 5c 3d 92 aa 69 3d 7a 32 ab 3d
       -0.003464536 0.05391994 0.057047434 0.08359237
000020 56 31 fd 3d 5f da 35 3d 19 bd 48 3d 83 7d c8 bb
       0.12362926 0.044397708 0.049008463 -0.006118478
000030 34 0c 4d bc 56 e4 0f bc de d6 0f 3d 32 3d 2c 3b
       -0.0125151165 -0.008782467 0.035117023 0.0026281592
000040 87 d9 cc bc d7 87 51 bd da 14 ed bb 87 36 8c 3c
       -0.025006069 -0.051154938 -0.0072351517 0.017115844
000050 5f 58 3d bd 02 ed 84 bc 86 78 0b 3d 66 a9 81 bb
       -0.046226855 -0.016226295 0.034050487 -0.0039569614
000060 b7 df a0 bd 6e c3 8b bd f7 6b de bd c8 16 9c 3c
       -0.0785517 -0.06824385 -0.108604364 0.019053832
000070 e5 81 06 3d c6 18 59 3d f4 c0 e4 3b 88 af 3f bc
       0.03283872 0.05300214 0.0069810096 -0.011699565
000080 6e 63 18 bd 09 5c ef 3c 33 bc 3f bb bb f6 4d bb
       -0.0372042 0.02921869 -0.0029256463 -0.003142758
000090 36 52 b1 3d 34 29 19 3d 67 d9 00 3d 04 7c 19 3e
       0.086582586 0.03739281 0.03145733 0.14988714
0000a0 47 9e 20 bd c3 15 b1 bd c2 42 0f 3e 11 ba b0 3b
       -0.039213445 -0.08646729 0.1399031 0.0053932746
0000b0 16 45 7f 3c 6b 56 f5 3d 4b 6d 59 3d 83 95 5d 3b
       0.015580436 0.119793735 0.053082746 0.003381104
0000c0 df e0 09 3e 28 37 09 ba 2c 74 b6 bd 9d 4e 36 3e
       0.13464688 -0.0005234354 -0.08908877 0.17803426
0000d0 5a a0 20 3d e7 3b 17 bd cf f3 df bd 99 c9 1c be
       0.039215423 -0.03692236 -0.10935175 -0.15311278
0000e0 cb 8b 34 be e2 24 89 bc 03 89 48 bd ea 63 81 3c
       -0.17631452 -0.01674122 -0.04895879 0.015794713
0000f0 17 fa b9 39 74 ec 18 3d 7f 1f 35 3d c5 52 e8 3a
       0.0003547228 0.037334874 0.04421949 0.0017724863
000100 27 1b 83 bd d6 2b 5a bd 61 ac b1 3c 5b ef 90 bc
       -0.06401663 -0.05326446 0.021688642 -0.017692259
000110 12 ca 8e 3d ba 79 31 3d 75 bd f1 3d af 4a 17 3e
       0.069721356 0.043328978 0.11803714 0.14774583
000120 c0 72 1e bd 03 09 8e ba 17 07 66 bc b6 fd e1 bc
       -0.038683653 -0.0010836426 -0.014039776 -0.0275868
000130 dc d1 0a 3d 9b c6 02 3d 41 4b 5d bb c1 0d 4c 3d
       0.033891544 0.031927686 -0.0033766779 0.049817804
000140 16 01 5c 3d 38 58 0b 3e 1e 76 c6 3c 0f 11 09 bc
       0.053711973 0.13607872 0.024226245 -0.0083658835
000150 fa 65 55 3c 5a 21 83 3d f0 17 b9 bd d8 06 0a be
       0.013024801 0.06402846 -0.09037769 -0.13479173
000160 dd ad 37 bd 03 d0 73 be 14 78 44 3d d6 93 45 3d
       -0.044843543 -0.23809819 0.047966078 0.04823669
000170 57 77 b5 3d ce 16 bb 3c fc 01 47 3d 61 0a 61 3d
       0.08860653 0.022838023 0.048585877 0.05494154
000180 f2 a7 7d bd ba a4 d2 3c 01 cc a3 bd c8 f8 9f 3a
       -0.061927743 0.025713313 -0.07997895 0.001220488
000190 08 4b 12 bd af 8b e8 3d 9f bd 28 3b 31 b5 59 bd
       -0.035716087 0.113547675 0.0025747789 -0.053151313
0001a0 78 30 4c 3d 1d 25 d2 bd d0 9f 01 bd 62 eb 3d bd
       0.04985091 -0.10260985 -0.03164655 -0.046367057
0001b0 26 1c 93 3d 48 f6 87 3d 45 51 bf 3d ff d9 8c bd
       0.07183103 0.06638771 0.09341673 -0.06877517
0001c0 7c d1 40 bd 18 48 e4 bd ed 59 27 bc 60 4b b2 3d
       -0.04707478 -0.11146563 -0.010214311 0.08705783
0001d0 7e 8c 1f bd 6e ed b4 3d 09 98 10 3d a8 f5 1d 3c
       -0.038952343 0.088343486 0.035301242 0.009641089
0001e0 93 b3 30 bd 99 52 82 bd e8 b7 fc bd 49 35 47 3d
       -0.043140005 -0.063634105 -0.12339765 0.0486348
0001f0 5f 41 c3 3d 27 7c 85 3d f7 a8 c6 3d 57 61 57 bd
       0.09533953 0.06517821 0.09700196 -0.052583065
000200 05 db 26 bd cd 0d 8c bd b5 3e ab bd 19 91 25 be
       -0.040736217 -0.0683857 -0.0836157 -0.16168632
000210 71 69 1d 3d bd 01 36 3d 72 0e c0 3c 15 f3 37 3d
       0.038430635 0.04443525 0.023444388 0.044909555
000220 a4 51 ec bc 72 23 79 bd 02 76 96 bd ee d8 5e bd
       -0.028847523 -0.06082482 -0.07346727 -0.0544061
000230 4f c4 6c bd f0 a7 43 bd f3 27 b1 bd 7f 48 87 bd
       -0.057804402 -0.04776758 -0.08650198 -0.066056244
000240 65 e6 25 3e 08 c7 af 3c da a8 59 bd f1 5c 8a bd
       0.1620117 0.02145721 -0.053139545 -0.067560084
000250 6c e7 9a 3c fa 9e 46 3d 66 06 84 3b e3 74 e7 bc
       0.018909179 0.048491456 0.004029083 -0.028253978
000260 0c c8 cf 3d 93 59 2c bd 55 4d d2 bd 11 97 59 be
       0.10145578 -0.042077612 -0.10268656 -0.21249034
000270 7b ab 2a bd d2 95 b3 bd f2 c8 ab bd ed c6 fb 3c
       -0.041667443 -0.0876881 -0.08387937 0.030734504
000280 9a 18 04 3d 63 81 23 3d 12 00 7a bc 10 92 96 bd
       0.032250024 0.039918315 -0.015258806 -0.07352078
000290 d8 46 f7 bd 01 24 e2 3d a3 20 88 3c 63 0f 80 bd
       -0.12074059 0.110420235 0.016617125 -0.06252935
0002a0 83 22 48 3d 16 a6 ed 3c 6b f4 1e 3e 30 ce cc bd
       0.048861038 0.02900986 0.15522926 -0.10000265
0002b0 65 e4 c6 bd 11 ca 0d be 48 e8 86 3d e9 ef 88 3b
       -0.097115315 -0.13846613 0.06587273 0.00417899
0002c0 2d 3b 4b bd 74 9c 8a 3d 24 22 94 3d 8b d1 72 3d
       -0.04961698 0.06768122 0.07233074 0.059281867
0002d0 c0 63 96 bc a8 8d a3 bc 2a 25 af 3a 90 64 cb 3c
       -0.018358111 -0.019965008 0.0013362516 0.024828225
0002e0 ea 4e a6 3c 9f 43 6d 3d a6 a8 96 3b e2 25 40 3d
       0.020301301 0.057925817 0.004597741 0.046911128
0002f0 4d 2a 4a 3d 3e 51 b2 3c 0a 40 b1 3d 18 1f 94 bd
       0.049356747 0.021767255 0.086547926 -0.07232493
000300 d9 84 97 3d 30 dd fb 3d 97 6b 4a bd cc 58 c7 bd
       0.073983856 0.122980475 -0.049419012 -0.097337335
000310 88 70 29 bd 0f a7 7d bd 38 26 1c be d6 fa dc bc
       -0.041367084 -0.061926898 -0.15248954 -0.026975077
000320 fc 2b 3f be 42 17 1d 3d 7e f5 4f 3d ec 40 c4 bd
       -0.18669122 0.03835226 0.05077123 -0.09582695
000330 44 c0 34 be d5 f5 a8 bc 18 98 cb bd 7a 05 21 bd
       -0.17651469 -0.020625034 -0.09941119 -0.039311863
000340 c0 70 8e 3c 3e 61 93 bb c3 bc 13 3d 1a 70 3b 3d
       0.017387748 -0.004497676 0.03606869 0.045761205
000350 91 4d 9c 3c c1 d4 af bc b3 f6 ec 3c 4f b1 60 3d
       0.019079955 -0.021463754 0.02892623 0.054856595
000360 43 7a 31 bd 8c 85 a5 bc 3e 9b 61 bc 90 6a 6a bd
       -0.04332949 -0.020205282 -0.013769923 -0.057230532
000370 8a eb 7b bc d1 80 7f 3d 85 a9 57 bc 63 26 aa 3c
       -0.015375981 0.06237871 -0.013162975 0.020770257
000380 eb 99 98 3d b9 61 5f 3d 9e 0a 65 3c e6 5a 0a 3d
       0.074512325 0.054536555 0.013979582 0.033778094
000390 bf e2 c0 bc 3a f6 f8 bb 0a d2 be 3d 8c 9e 98 bc
       -0.023545621 -0.007597712 0.093174055 -0.018630289
0003a0 52 93 49 bc 1c 6f 7b 3d f0 c6 dc 3d 54 ee c1 3d
       -0.01230319 0.06138526 0.10780132 0.094692856
0003b0 97 5f 48 3e 1b 5b 24 bc 7d f1 9a bc 77 77 83 3d
       0.19567715 -0.010031487 -0.018913979 0.064192705
0003c0 09 e1 ef bd e2 fc b4 bd 06 03 c4 bd 00 a0 c0 3c
       -0.11712844 -0.08837296 -0.09570889 0.023513794
0003d0 4f 56 6e 3d 3b d4 d2 3d 34 95 28 be 3d 40 bd bd
       0.05818778 0.10294386 -0.16463166 -0.09240768
0003e0 f9 9a 20 3d fa 02 4b bd a4 e7 e0 3a 7b 98 34 3d
       0.039210293 -0.049563386 0.0017158878 0.04409073
0003f0 48 15 52 3d 4b 1c d5 3c 98 2d 53 bc a9 72 d6 3c
       0.051289827 0.026014468 -0.012889288 0.026177721

head.conv.bias f4 [64]
000000 93 97 64 3d 28 8b f6 3d f7 37 c9 3d fa 1d 29 bd
       0.055808615 0.12038261 0.098251276 -0.041288354
000010 6b 47 17 bd ba fe 52 bd 48 5f 82 bc 68 92 9a bc
       -0.036933344 -0.051512457 -0.015914574 -0.01886864
000020 d4 04 e3 3d 61 cc a8 3d ae 16 f0 3c e2 8a 03 be
       0.11084905 0.08242107 0.02930769 -0.12845948
000030 dd 4c 82 bb e3 02 22 3e 7e 21 55 bd a5 2a 3d be
       -0.003976448 0.15821414 -0.052033894 -0.18473299
000040 1a 37 27 3e a6 df 9f bd f5 14 28 3d 62 84 0e 3d
       0.16329613 -0.078063294 0.04103561 0.03479422
000050 b8 d9 98 3d 6f d0 94 bd 61 d7 05 be ac 4e 86 bd
       0.074634016 -0.07266318 -0.13070442 -0.06557974
000060 74 1a 4d bc a9 ce a1 3d 34 1c 92 bc 3f 9d 2a 3d
       -0.012518514 0.079007454 -0.017835714 0.041653868
000070 d5 1b 49 bd 77 a4 b5 bd 7a 47 c6 ba 38 1f 83 bd
       -0.04909881 -0.0886926 -0.0015127503 -0.06402439
000080 4c db 52 3e b8 31 ed bc b8 95 4f 3d 7f d2 c0 bc
       0.20591468 -0.028954372 0.050679892 -0.023537872
000090 b0 b8 19 3c 0a 29 2b be 44 0d 19 3d a8 f1 02 bd
       0.009382412 -0.16714874 0.037366167 -0.031968743
0000a0 bc b2 58 bc ba cc 0b 3d ac 40 fd bd 17 7b 28 3e
       -0.013226207 0.03413079 -0.12365851 0.16453205
0000b0 98 c3 10 be 66 06 28 be 03 77 aa 3d c5 6d fc bc
       -0.14137113 -0.16408691 0.08323481 -0.030814061
0000c0 90 14 0f bd d4 15 2d bd b8 c1 86 3c f1 53 41 bd
       -0.03493172 -0.042257145 0.016449794 -0.047199193
0000d0 d5 2f 2d 3c 79 b0 64 3d a4 14 e0 bc 90 bc 8c bd
       0.010570486 0.05583236 -0.027353592 -0.06871903
0000e0 e9 78 1d be 7a d4 41 bd 64 01 90 3c ef e1 86 bd
       -0.15378155 -0.047321774 0.017578788 -0.06586062
0000f0 0c 5d 8b 3d a2 e4 de bd 92 d1 10 3d 7d 1e 09 bc
       0.06804857 -0.10883452 0.03535611 -0.008369085

head.norm.weight f4 [64]
000000 9b 4c 9b 3f 51 87 7d 3f e9 cc a0 3f 32 0f bb 3f
       1.2132753 0.990346 1.2562534 1.4614012
000010 4e ac c4 3f ad c4 91 3f f9 ed a4 3f d4 4f 91 3f
       1.5365083 1.1388146 1.2885123 1.1352487
000020 5c 4e 83 3f 35 ef 95 3f d7 43 b7 3f d7 f1 9a 3f
       1.0258288 1.1713625 1.4317578 1.2105054
000030 79 e9 a3 3f 30 9b 98 3f 45 40 ca 3f 3e c9 69 3f
       1.2805625 1.192236 1.5800864 0.91322696
000040 0b a6 96 3f 20 c0 94 3f 31 5e a6 3f 0f ff a5 3f
       1.1769422 1.1621132 1.2997495 1.2968463
000050 e3 14 9c 3f 97 48 b8 3f 07 23 a5 3f 38 56 b5 3f
       1.2193874 1.4397153 1.2901314 1.4166937
000060 80 08 e8 3f 87 a5 b0 3f 6a 1c 7d 3f 8d 47 b9 3f
       1.8127594 1.3800515 0.9887148 1.447496
000070 4c 57 8a 3f 4d af ad 3f 17 57 b9 3f ea 30 a8 3f
       1.0807891 1.3569123 1.4479703 1.3139927
000080 6c d7 90 3f 96 4b a0 3f 0a 51 ac 3f ec 04 bc 3f
       1.1315742 1.2523067 1.3462231 1.4689002
000090 61 71 9b 3f 7a 6d 91 3f 5c 62 ac 3f 85 20 7a 3f
       1.2143975 1.1361535 1.3467517 0.9770587
0000a0 06 6b 90 3f 65 da c3 3f 3e 69 92 3f d3 c7 95 3f
       1.1282661 1.5301024 1.1438367 1.1701607
0000b0 d7 33 87 3f 8a b4 8a 3f dc e8 a7 3f 39 b9 8e 3f
       1.0562695 1.0836346 1.3117938 1.1150275
0000c0 d6 15 94 3f 48 a1 cf 3f e8 62 c4 3f 85 b8 78 3f
       1.1569164 1.6221094 1.5342684 0.97156554
0000d0 60 44 92 3f 14 3c 99 3f 17 f7 da 3f dd 0f a3 3f
       1.1427116 1.1971459 1.7106656 1.2739216
0000e0 74 67 75 3f 9e 46 8c 3f 16 17 bb 3f 64 51 78 3f
       0.9586098 1.0959051 1.461642 0.9699919
0000f0 72 ac 9a 3f 06 ce ac 3f 2f c9 a0 3f 8a ef 8f 3f
       1.2083876 1.3500373 1.2561396 1.1244977

head.norm.bias f4 [64]
000000 d4 ad 13 be bd bc 44 bd 48 a7 bf bd 60 11 c3 bd
       -0.14421779 -0.048031557 -0.09358078 -0.095247984
000010 98 e6 c7 be 1b 02 4c be 2e 79 32 be 37 10 fc bd
       -0.39043117 -0.19922678 -0.17429039 -0.1230778
000020 e7 e7 82 be 41 f6 5c be d8 6b 06 be dc c7 9d be
       -0.25567552 -0.21578313 -0.13127077 -0.30816543
000030 1d 4f 94 be d2 66 ba bc 7e ea 69 be a3 b8 d8 be
       -0.2896661 -0.022754107 -0.22843358 -0.42328367
000040 72 38 df bd 4c cc ec bd 80 a1 9a bd 1b 1c a1 be
       -0.10899438 -0.11562404 -0.07550335 -0.31466755
000050 f8 67 db 3b 35 54 43 be f7 bc 23 be 5d 3f ce bc
       0.0066957437 -0.19075091 -0.15990053 -0.025176698
000060 2d 82 2e 3d b6 f4 81 be 52 01 6d be c6 de 03 be
       0.042604614 -0.25382012 -0.23145035 -0.1287795
000070 21 12 ce bd 82 0d 9f be 31 03 81 be 1d 2d 76 be
       -0.100620516 -0.31064993 -0.25197747 -0.24040647
000080 e3 7d 84 be b0 67 98 be 16 7d ec bd 6c bf de bd
       -0.25877294 -0.29766607 -0.11547296 -0.108763546
000090 1c 2b 37 be 36 7e 8a bd 0d 52 88 be d8 94 5f be
       -0.17887539 -0.06762354 -0.266251 -0.21834123
0000a0 3d a5 48 3c c0 db cf bc 73 0e 2e be 49 29 b3 bd
       0.012246427 -0.02537334 -0.169977 -0.08748109
0000b0 dc da 1b be 12 b6 47 be 52 b1 eb bd a3 0c 72 be
       -0.15220207 -0.19503048 -0.115084305 -0.23637633
0000c0 ec 7d 4f be f1 f1 34 3d 98 27 19 bd 97 1e 92 bd
       -0.20262879 0.044176046 -0.037391275 -0.07134741
0000d0 c4 06 4c be 81 c4 f2 bd 4e fa 86 be 23 6c 8c bd
       -0.19924456 -0.118538864 -0.26362842 -0.06856563
0000e0 7d 82 88 be e4 98 37 be d7 59 fe bd 2d d7 e4 bd
       -0.26662055 -0.17929417 -0.12419479 -0.11173854
0000f0 f2 90 c9 bd c5 fe 02 be 73 ad 31 be 2d 9d 13 be
       -0.09842099 -0.127925 -0.17351322 -0.14415427

head.norm.running_mean f4 [64]
000000 f4 7a 2c bd a7 8f 0e 3d 4a 93 f0 3d 77 51 14 bc
       -0.042109445 0.034804966 0.11746843 -0.009052626
000010 22 97 cd bc 77 d5 32 3d c1 62 1d bd eb 21 78 3c
       -0.02509648 0.043660607 -0.038424257 0.015144805
000020 1c 94 a3 3d ce 15 aa 3d c5 48 3e 3d 4a 48 09 be
       0.07987234 0.0830494 0.046456117 -0.13406482
000030 6e f6 77 3b 4a d8 09 3e 2e d9 6c bd 6b f8 84 be
       0.0037836093 0.13461414 -0.057824306 -0.25970778
000040 e1 b0 15 3e 67 67 68 bd 0f 8d 1b 3c fb 7b 22 3d
       0.14618255 -0.056739237 0.00949408 0.03966902
000050 b9 03 fa 3b a7 f9 93 bd 04 fa a2 bd c1 c8 bc bd
       0.0076298383 -0.07225352 -0.07957843 -0.09217978
000060 75 37 01 bd 88 12 8e 3d 00 f3 7e bd 90 b6 8b 3d
       -0.03154703 0.06937128 -0.06224346 0.068219304
000070 4b 91 85 bd bb cc 0e bd 28 79 cd 3a 03 fc 8c bd
       -0.06521853 -0.034863215 0.0015676366 -0.06884005
000080 d3 ea 5f 3e eb c5 93 bc ea f5 0f 3d 95 6a 08 bd
       0.21866922 -0.01803871 0.03514663 -0.03330477
000090 8f f3 9a bd c0 84 f7 bd 33 74 96 3d bd 98 83 bd
       -0.07565986 -0.12085867 0.07346382 -0.06425617
0000a0 4b 67 c6 3d 34 c8 e5 3c 79 b2 1f be bd de 40 3e
       0.0968767 0.028049566 -0.15595426 0.18834968
0000b0 9f e0 1f be 83 79 1c be 85 d0 b7 3d df a7 36 bd
       -0.1561303 -0.15280728 0.08975319 -0.044593688
0000c0 fb 16 07 bc ed 69 42 bd 2d 71 b9 3c 7e 51 d7 bd
       -0.008245225 -0.0474643 0.022636974 -0.1051359
0000d0 8c 14 20 3d 97 83 47 3d 0d 81 76 bc 3e a9 1e be
       0.039082095 0.04870948 -0.015045417 -0.15494248
0000e0 01 f1 36 be d5 f0 97 bc a0 7a 0c 3d 76 6b 96 bd
       -0.17865373 -0.018547455 0.03429663 -0.07344715
0000f0 1b 0f 88 3d 0a a3 8a bd 2b 76 b4 3d 69 83 ce bc
       0.06643506 -0.067693785 0.08811601 -0.025209146

head.norm.running_var f4 [64]
000000 5c 33 95 3d c8 d4 02 3e 1b 86 a5 3c 3b 9f 95 3c
       0.07285187 0.12776482 0.020205548 0.018264404
000010 af 9d 04 3c 17 ae a5 3d 8b d4 98 3c 15 21 0f 3d
       0.008094235 0.08089846 0.018656036 0.03494366
000020 ac 8d e6 3c 08 1f 2e 3c e7 a6 93 3c 77 af 5a 3c
       0.028143726 0.010627516 0.018023921 0.013347498
000030 46 eb b2 3b 63 a7 1e 3c 06 89 cf 3b be 0a 4e 3d
       0.0054601757 0.009683463 0.006333473 0.050303213
000040 f5 71 8f 3b a9 cd 2b 3b 24 4e 8a 3c 3a 36 76 3c
       0.0043775984 0.0026215112 0.016882963 0.015027577
000050 dd 77 9a 3c 58 28 9d 3b 4f 04 a6 3c dd 9a 23 3c
       0.018855983 0.004796069 0.020265726 0.009985653
000060 e8 f8 54 3b 05 fb a6 3b 61 e7 85 3d b3 09 a4 3c
       0.0032496992 0.005095842 0.06538273 0.020024156
000070 25 18 40 3d 89 4e c2 3c 8e 58 84 3b 4e 31 4d 3b
       0.046898026 0.02371909 0.004038877 0.0031309905
000080 d2 bd e7 3a 3f 41 da 3b 9a e0 cc 3b 25 6e 2b 3c
       0.0017680472 0.00666061 0.0062523605 0.010463272
000090 e5 2f 4b 3d 9c d1 10 3d 17 91 0e 3c a2 17 1f 3d
       0.049606223 0.03535615 0.008701584 0.038840897
0000a0 57 1a f3 3d 98 ef 9f 3b fa 28 a6 3b c0 c9 27 3c
       0.11870258 0.0048808567 0.0050708028 0.010240972
0000b0 9b 68 3e 3d 47 7c 36 3c 51 4f 9a 3b d6 14 53 3d
       0.04648648 0.011138028 0.0047091623 0.051533543
0000c0 26 24 24 3c 53 af a4 3b 81 3c 85 3b 55 c7 00 3e
       0.010018384 0.005025783 0.0040660505 0.12576039
0000d0 95 85 81 3c 35 08 e5 3b ff 29 56 3b 25 cf 96 3d
       0.015810767 0.0069895037 0.003267884 0.073637284
0000e0 75 8a b4 3c 9b 7a 8f 3c fc fe 4a 3c 8e 85 9b 3d
       0.022038678 0.017514518 0.012389895 0.07593833
0000f0 d6 7f 17 3c f4 78 19 3c cc 0c 8b 3c 37 1a 1e 3c
       0.009246787 0.009367216 0.016973875 0.009649805

body.block1.conv.weight f4 [64, 64, 3, 3]
000000 a2 cc c5 3d 42 47 d0 3a f4 1f df 3c 05 11 21 3d
       0.09658171 0.0015890377 0.027236916 0.03932287
000010 e2 d0 7e 3d 0d 5c ed bc 69 94 05 3e e9 38 28 3d
       0.062210925 -0.028974557 0.13044895 0.0410699
000020 22 31 f3 3c a1 21 f7 bd 95 4b 85 bd 9b 26 f9 bd
       0.029686514 -0.12066961 -0.06508557 -0.121655665
000030 c1 71 97 bd aa a8 e2 bd 13 f3 20 be be ed c7 bd
       -0.07394744 -0.11067326 -0.15717725 -0.097621426
000040 a9 23 01 be fb 57 25 be fa 18 ee bc 29 1b fd bc
       -0.1261126 -0.16146843 -0.029064644 -0.03089674
000050 cb e3 9e 3d 7f 77 5f 3d 65 2d 74 3d 7a 0b 9c 3d
       0.07758292 0.05455732 0.059613604 0.076193765
000060 ac 97 7e 3d 05 63 72 3d 06 5c 63 3d 31 c3 c6 3d
       0.062156364 0.059176464 0.055507682 0.097051986
000070 5f d9 82 3b c8 dc 1d 3e 5a fb 93 3d 61 2e a7 bc
       0.003993198 0.15416253 0.07225676 -0.020407857
000080 47 b0 8e 3d 2c 46 02 3e 3b d8 0a 3e 55 93 1e 3e
       0.06967216 0.12722081 0.13559048 0.1548589
000090 b7 12 12 bc 37 ef 26 3c 5f 41 96 3d eb ef 96 3c
       -0.008915595 0.010188869 0.07336687 0.018424949
0000a0 41 3a 8f bd fb 9f c8 bd 3e 51 48 3d 03 b3 25 3d
       -0.06993533 -0.09796139 0.048905604 0.040453922
0000b0 89 25 87 3d 9d c5 08 be cf b6 11 be b4 ea b8 bd
       0.06598956 -0.13356633 -0.14229892 -0.09029141
0000c0 b0 7b c1 bd 87 e9 ec bd 37 07 14 be 47 ec c3 bd
       -0.0944742 -0.11567979 -0.14455877 -0.09566551
0000d0 29 b3 8b bd 93 6e ad bd 01 22 97 3d b1 a0 b0 3d
       -0.068212815 -0.08468356 0.073795326 0.086243995
0000e0 37 46 05 3e 70 52 30 bc db 45 67 3d 2a b1 8f 3d
       0.13015066 -0.010761842 0.056463104 0.07016213
0000f0 0d da e1 3d 5a 02 b7 3d c2 12 f5 3d 51 9e 1e be
       0.11027918 0.089359954 0.119664684 -0.1549008
000100 76 3f 1b be ff d9 98 bd 48 2e 59 3c 14 0e 35 bd
       -0.15160927 -0.074634545 0.013255663 -0.04420288
000110 95 31 a1 bd 93 7b 56 bd 51 01 00 bd ad ad 71 3d
       -0.07870785 -0.052363943 -0.031251255 0.05900352
000120 d6 c7 32 bd 05 8f a7 bd 04 28 1c 3d a0 f0 9e bd
       -0.04364761 -0.08181576 0.0381241 -0.07760739
000130 41 0c 85 bd e4 c7 3b bc d4 83 b4 bd a2 20 8b bd
       -0.06496478 -0.011461232 -0.08814207 -0.067933336
000140 ff 0c bb bd c3 39 84 bc b0 24 d5 3b fd e3 dc 3d
       -0.09133338 -0.016140824 0.0065046176 0.10785673
000150 78 3a 53 bb 26 b4 82 3d 34 8a 4d 3b 35 bc 3f bd
       -0.0032230895 0.06382017 0.0031362893 -0.046810348
000160 f0 29 07 bd ae 48 5d 3d 86 9f c7 bc 17 17 17 3d
       -0.03299898 0.05402439 -0.024368059 0.036887255
000170 d9 45 1a 3d ea 62 75 3d 0c 42 2c 3d be bb 74 3d
       0.03766427 0.059908785 0.042055175 0.059749357
000180 8c 46 c6 3d 9b 73 40 bd 2a 35 71 bd dd 37 d1 bc
       0.096814245 -0.04698525 -0.05888859 -0.025539333
000190 ac 9c 0c 3e 12 2d a0 3d c7 bd 82 3d 6f 77 8c 3b
       0.1373164 0.078210965 0.063838534 0.0042866985
0001a0 a0 87 ba 3c 01 b8 4e 3c 2c 27 bc 3d 35 c1 f1 3d
       0.02276975 0.012617112 0.09187159 0.118044294
0001b0 33 df 3a 3d 24 7e 3f 3c 51 23 8e 3d fb bc 48 bc
       0.045623016 0.011687789 0.0694033 -0.012252088
0001c0 4b 30 6f bb f9 a4 ca 3d 87 3e 31 3d 33 44 11 3c
       -0.003649729 0.09894747 0.04327252 0.008866358
0001d0 b3 38 2b 3b af 7a 87 bb 34 27 47 3b 4e 7b c3 3c
       0.0026126325 -0.004134498 0.0030388357 0.023862507
0001e0 ae 63 6d 3b 9d b5 bf bd 1d 0d b7 3c c9 13 95 3c
       0.0036222744 -0.09360812 0.02234512 0.01819791
0001f0 12 45 40 3d a4 a5 24 3e 20 13 4c 3e fd b3 f7 3c
       0.04694087 0.16078812 0.1992917 0.030237192
000200 bb 23 d9 bd 1b 99 17 3b dd a0 d9 bc af 06 92 3b
       -0.10602518 0.002313203 -0.026565963 0.004456363
000210 55 21 85 bd a8 05 b2 bd b2 ff 37 bd 0e f1 44 3b
       -0.06500498 -0.08692485 -0.044921584 0.0030050906
000220 27 fb d7 bc 1e ee 61 bd 64 e8 82 bd 7f 42 7f bd
       -0.026364876 -0.055158727 -0.06391981 -0.062319275
000230 de c6 03 bc 63 23 43 3c 35 c5 6c 3d d7 7a 81 3d
       -0.008043019 0.011910292 0.05780526 0.06322258
000240 ec 32 28 bc f3 04 83 3d 56 4c aa 3d dd d7 1d bc
       -0.010266047 0.06397428 0.08315341 -0.009633985
000250 08 16 7c bd 9e 62 56 bd 59 64 cd 3d 58 e4 23 3e
       -0.061544448 -0.052340142 0.100289054 0.16005075
000260 26 55 01 3e d3 e5 f9 3d 0d f8 8f 3d cf c4 eb 3d
       0.12630138 0.122020386 0.07029734 0.11512148
000270 c4 a2 77 3d 6c 88 28 bd f1 f8 43 bd 05 dc df 3d
       0.06045796 -0.041145727 -0.04784483 0.10930637
000280 09 ca 25 3d c1 15 a4 3b 84 36 86 bc a6 97 57 3b
       0.04047588 0.005007476 -0.016383417 0.0032896786
000290 37 5a 3a bd 8f 1d 3d bd 06 ea 1b bd 3d 11 95 bd
       -0.04549619 -0.046170767 -0.03806498 -0.072786786
0002a0 9d 7c af bd 1d 43 e6 3b 76 bb f6 3d e4 e8 c2 3d
       -0.0856869 0.0070270435 0.12047474 0.095170766
0002b0 9e 10 b8 3c 36 94 50 3d 0b b6 cd bc 98 00 17 3b
       0.022468861 0.050922595 -0.025111219 0.0023041125
0002c0 ed 4d 1a bd ae 60 90 3d 59 32 ac bb 65 2f f4 3b
       -0.037671972 0.0704969 -0.0052550253 0.007451939
0002d0 76 bd e5 bc 9c 55 0e be c4 1e f6 bd 6a 5a ea bc
       -0.028044444 -0.13899845 -0.12017587 -0.028607566
0002e0 a5 10 58 bd 17 6a 90 bd e1 3f 79 bc e5 55 df bc
       -0.05275025 -0.07051485 -0.015212984 -0.027262637
0002f0 c9 65 3c bd 29 06 4d be b0 14 be bd 5c 5d 8f bd
       -0.045995507 -0.20021881 -0.092812896 -0.07000229
000300 93 d4 ec 3c c6 49 97 3d d5 fe 87 bd 73 4d 18 3d
       0.028909957 0.07387118 -0.06640402 0.037183236
000310 ab ff b0 3d 04 a6 22 3e 71 1a d9 3b 69 f3 8c 3c
       0.08642515 0.15883642 0.0066254665 0.01720591
000320 da 44 ba bd 30 ea 85 bc d7 0d 25 bd 90 a5 8f bc
       -0.09095164 -0.01634702 -0.0402964 -0.017535001
000330 65 12 27 bd 00 94 fe bc 00 04 88 bd 65 18 51 3d
       -0.040789027 -0.031076431 -0.06641388 0.051048655
000340 b3 bb 1d 3d d3 73 13 3e 8a 14 71 3c 55 ec d7 bd
       0.038509082 0.14399652 0.01471437 -0.10543124
000350 bc ca f3 bd df 4b 31 bd 94 86 e1 bd 3e d0 8e 3d
       -0.11903903 -0.043285247 -0.11011997 0.06973313
000360 cb 78 1c be c6 2c 87 bd 8e d4 e3 bd 76 b6 52 bb
       -0.15280454 -0.06600337 -0.11124526 -0.0032152212
000370 00 cc a8 3d e4 09 e7 bd 41 37 d0 3d 61 5d 75 3b
       0.08242035 -0.11281183 0.10166789 0.0037439691
000380 8b 99 5e 3e b0 36 25 3d b2 11 cc 3d 24 66 54 3d
       0.2173826 0.040335357 0.099643126 0.05185522
000390 b0 4f 00 3e cd 74 ea 3d 55 55 6d 3d 35 81 0f be
       0.12530398 0.11448059 0.057942707 -0.14014132
0003a0 73 b7 87 bc 1e d7 be 3d 73 62 bd bd d2 dd 93 bd
       -0.016566968 0.09318374 -0.09247293 -0.07220043
0003b0 4b 70 bc bd 06 70 28 be 36 9a 1a be 39 04 f7 bd
       -0.09201106 -0.16448984 -0.1509789 -0.12061352
0003c0 70 55 c8 bd c2 92 4e bc b9 b6 ba bd 96 86 9b bd
       -0.09781921 -0.012608232 -0.09116883 -0.075940296
0003d0 de de 02 bc c8 0c 88 3c 04 8d 6b 3c ee 63 20 3d
       -0.007987706 0.016607657 0.014376882 0.0391578
0003e0 38 d9 eb 3d 05 90 24 3d d1 c6 cc 3b 41 94 44 bc
       0.115160406 0.04017641 0.0062492867 -0.011998237
0003f0 24 dc 62 bd 17 a6 85 bd 25 dd 42 bd 67 c9 b6 bc
       -0.055385724 -0.0652582 -0.04757418 -0.022312833

body.block1.conv.bias f4 [64]
000000 6d 5a 79 bb 8d f9 9b 3c 15 df 0f bd 88 50 55 3c
       -0.0038048283 0.019039894 -0.035124857 0.013019688
000010 6c c8 eb bb d7 3c a8 bc b0 23 0b bd 4b 9d 53 ba
       -0.007195523 -0.020536823 -0.03396958 -0.000807245
000020 5f b1 04 bd 64 9e c6 bb 5f 39 76 bc 42 11 25 39
       -0.032395717 -0.006061362 -0.015028327 0.00015742055
000030 f5 0d 96 bc 6c bd 1b 3c 5d 9f 6b bc 19 49 3f bb
       -0.018317202 0.009505611 -0.014381257 -0.0029187857
000040 86 8d 8c 3c a1 69 b1 3b 34 10 a6 bc a7 2a 86 bb
       0.017157327 0.0054142033 -0.020271398 -0.00409444
000050 b9 97 ea bc 13 b0 26 bd cc f6 f8 bc 11 7d 00 3b
       -0.0286368 -0.04069526 -0.03039112 0.0019605795
000060 33 0a 08 bd 0f a8 d5 bc fd 05 c8 bc 7e c9 e7 3b
       -0.03321285 -0.026081113 -0.024416918 0.0070735803
000070 46 7a e7 3c da 8c 68 3c 4d 14 10 3d 4f bd 56 3c
       0.028256547 0.014193738 0.03517561 0.013106658
000080 db 49 f6 bc 24 1a 29 bc ad 44 64 3c a0 5d 07 bc
       -0.030064514 -0.010321174 0.013932389 -0.008262068
000090 8d 4a 10 3d 9a 0e cc bc 81 2f dd 3c ac 72 c0 bc
       0.035227347 -0.024909306 0.02700019 -0.02349218
0000a0 ea 4d 24 3d 7a 26 0d 3d 4e bd 69 bc 04 c2 3e 3c
       0.040113367 0.034460522 -0.014266325 0.011642937
0000b0 2d bc ff 3c 88 dc f5 3c 53 5e 71 bc e7 f0 8e bc
       0.031217659 0.030012384 -0.014731961 -0.017448856
0000c0 6d 61 3d 3c 5c 3a e0 bc b6 fe f8 bc 83 40 44 3c
       0.011558873 -0.027371578 -0.030394893 0.011978271
0000d0 e7 79 a6 bc 6e 0f 41 bb 0b 8a a0 bc fd 21 17 bc
       -0.0203218 -0.002945866 -0.019597074 -0.009224412
0000e0 19 9a 10 bd c0 4c 09 3d 26 1b 24 3c c8 2e e4 3c
       -0.03530321 0.03352046 0.010016238 0.027854338
0000f0 2d 6e 17 3d 98 f2 f3 bc fc 37 0c 3d 88 b6 7e bb
       0.036970306 -0.029778764 0.03423308 -0.0038866121

body.block1.norm.weight f4 [64]
000000 94 7d c0 3f 48 dc af 3f c0 af a9 3f 03 a1 ae 3f
       1.5038323 1.37391 1.325676 1.3642887
000010 8f 85 a4 3f 2f 3d a4 3f f1 f5 9f 3f ab 28 a4 3f
       1.2853259 1.2831172 1.249693 1.2824911
000020 9d 2c b0 3f e7 cb a3 3f c9 34 b5 3f 9e 19 96 3f
       1.3763615 1.2796601 1.4156734 1.1726568
000030 e1 f8 98 3f 85 e8 ae 3f 6c 0f a4 3f e7 2f b1 3f
       1.1950952 1.3664709 1.2817206 1.3842744
000040 3b 8a a9 3f b2 e2 9d 3f 8c b7 9e 3f fb 9f ad 3f
       1.324531 1.2334807 1.2399764 1.3564447
000050 3e cc ab 3f 73 c6 93 3f 9b 8c aa 3f 07 42 93 3f
       1.3421705 1.1544937 1.3324159 1.1504525
000060 63 5f a2 3f 1f e3 96 3f b8 60 9b 3f fe 1c c0 3f
       1.268536 1.1788062 1.2138891 1.5008848
000070 d2 33 a2 3f 9a 16 93 3f 11 5b 9c 3f bd bf a5 3f
       1.2672064 1.1491272 1.2215291 1.2949139
000080 ce 9f ab 3f e5 c0 a3 3f 36 b3 ab 3f 9e b8 b0 3f
       1.3408144 1.2793242 1.3414066 1.3806341
000090 26 80 af 3f ef 8d a8 3f 7f e7 b7 3f d9 af ae 3f
       1.3710983 1.3168315 1.4367522 1.3647414
0000a0 d4 8e a8 3f 8c 63 b6 3f 7b 92 ab 3f 79 92 86 3f
       1.3168588 1.4249129 1.3404077 1.051345
0000b0 5d 02 93 3f 34 9d 95 3f c1 4d aa 3f c2 b1 ac 3f
       1.1485096 1.16886 1.3304979 1.3491747
0000c0 5f 3b b5 3f fe b5 a3 3f d6 de a5 3f 5f ae b3 3f
       1.4158744 1.2789915 1.2958629 1.4037589
0000d0 70 69 8f 3f 0b 71 c0 3f 9e 5f af 3f d2 d2 ae 3f
       1.1204052 1.5034498 1.3701055 1.3658087
0000e0 ca c1 ab 3f 25 74 9e 3f 40 66 b2 3f 5d 9f 8d 3f
       1.3418515 1.2379194 1.3937454 1.1064259
0000f0 b0 3a a9 3f 10 65 ae 3f 77 0e a4 3f b2 8d a2 3f
       1.3221035 1.3624592 1.2816914 1.2699492

body.block1.norm.bias f4 [64]
000000 fc 27 25 be 22 aa 12 bf 37 97 68 be 0b bf 4f be
       -0.16128534 -0.5729085 -0.22713934 -0.20287721
000010 55 53 1c be e8 5c 89 be e9 db 7d be ea 42 cb be
       -0.15266164 -0.26828694 -0.2479092 -0.3969949
000020 02 4a 4a be 64 2e 70 be 3f b7 34 be 58 48 b8 bc
       -0.19754794 -0.23455197 -0.17648028 -0.022495434
000030 18 f8 97 be 2a f0 ac be 24 37 7f be 9f 52 b5 be
       -0.29681468 -0.3377698 -0.24923378 -0.35414597
000040 6f 12 46 be 73 f5 e0 be 15 7e af be f8 b0 cb bc
       -0.1934297 -0.43937263 -0.3427588 -0.024864659
000050 e8 8f 81 be 3a 2e f3 be a5 27 14 be 77 3b a7 be
       -0.25305104 -0.47496206 -0.14468248 -0.32662556
000060 1d 1d 7f be 76 ef 0a be 2f 73 8d be 21 65 52 be
       -0.2491345 -0.1356791 -0.2762694 -0.2054639
000070 1e ea 4b be c6 73 c9 be e7 41 b3 be 57 04 83 bd
       -0.19913527 -0.3934614 -0.35011217 -0.06397312
000080 4a 2b 11 be 2c 7d 4c be c0 ac 30 3d ae f3 09 be
       -0.1417667 -0.19969624 0.043133497 -0.13471863
000090 5a bb 89 be 75 24 e1 be 14 a2 a4 bd 93 cb ad bc
       -0.2690075 -0.43973127 -0.080387264 -0.021215236
0000a0 e0 c4 fa bd 7c 5f d2 bd cf b0 2b be 89 66 70 be
       -0.12244582 -0.102721184 -0.16766666 -0.23476614
0000b0 8b 7a b7 be 77 6e a6 be c8 b9 e4 be 5e 75 28 be
       -0.3583568 -0.32506153 -0.4467299 -0.16451022
0000c0 c3 9e a0 be 6b 55 54 be 78 81 a4 be e2 c4 85 bc
       -0.31371126 -0.2073571 -0.32130027 -0.016329233
0000d0 70 ad ef be 53 77 8b be 9d 4b fd bd 29 7a 12 be
       -0.4681201 -0.27239475 -0.12367938 -0.14304413
0000e0 c4 1f 3c be 24 4c c6 be db 13 c0 bd 5b 39 c5 be
       -0.18371493 -0.38729966 -0.09378787 -0.3852032
0000f0 49 f3 7f bd ef 64 c8 be 9e 32 57 be 26 88 8e be
       -0.062487874 -0.39139506 -0.21015403 -0.27838248

body.block1.norm.running_mean f4 [64]
000000 c4 ff 98 bf 67 c3 b0 be 1e 3b 16 c0 73 ce f3 bf
       -1.1953053 -0.3452408 -2.3473582 -1.9047378
000010 72 62 aa 3f 04 ef 14 c0 1b f7 10 be 39 dc 4a 40
       1.3311293 -2.3270884 -0.14156763 3.1696913
000020 b5 74 97 bf 32 6b e2 bf 66 74 e2 bf b8 63 30 c0
       -1.1832491 -1.7688963 -1.7691772 -2.7560863
000030 2c 57 72 bf 78 2d a5 bf 57 0b 82 3f eb 00 92 3e
       -0.94664264 -1.2904501 1.0159711 0.28516325
000040 ef 42 4f 40 99 a7 3a 40 68 e7 65 3f d9 58 8b bf
       3.2384603 2.9164793 0.8980622 -1.0886489
000050 86 e2 8c 3f b6 35 bd 3f ed 87 61 c0 7b 6e 55 40
       1.100663 1.4782016 -3.5239213 3.3348682
000060 7a 91 d6 be b5 c5 1c c0 e9 cb 7a bf e6 74 99 bf
       -0.41907865 -2.449567 -0.9796739 -1.19888
000070 53 01 91 be 94 62 1d be 8e 84 fd 3f 67 60 e8 c0
       -0.28321323 -0.15369636 1.9806077 -7.261768
000080 4b 4f 01 c0 c2 9b 50 bf 91 31 e7 3e 2c e4 40 c0
       -2.0204647 -0.8148767 0.45155004 -3.0139265
000090 fb 02 02 3f 3a 25 df 3f c8 61 ff 3f 25 b9 ae bf
       0.507858 1.7433236 1.9951715 -1.3650252
0000a0 62 af fe bf ca 83 c9 bf 9e f1 2b c0 3e 51 0e c0
       -1.9897273 -1.5743344 -2.6866221 -2.2237086
0000b0 12 27 42 3f 2b 6f 8a 3e 41 8b 19 40 e3 dd a7 bf
       0.75840867 0.2703794 2.3991244 -1.311459
0000c0 fe 06 49 c0 94 95 9f bf 89 46 18 bf d6 f3 b9 bf
       -3.1410518 -1.2467523 -0.5948263 -1.4527538
0000d0 13 9e 6e 40 7e 29 0e c0 83 0c 53 c0 43 d8 e5 bf
       3.728398 -2.2212825 -3.2976387 -1.7956623
0000e0 9a 9d ef bf f9 71 a9 3f 7f 0d 97 bf d5 36 71 40
       -1.8719971 1.3237907 -1.1800994 3.7689717
0000f0 47 7a 2d c0 3f cc f5 bf e8 80 36 3e 7a fe d8 3f
       -2.7105882 -1.9202956 0.17822611 1.695266

body.block1.norm.running_var f4 [64]
000000 3a 4c b5 40 68 22 29 40 18 fa 8e 40 b8 34 bd 40
       5.665555 2.642725 4.468029 5.9126854
000010 e7 78 9b 40 48 7f a7 40 f4 f1 4f 40 9c 3d 35 41
       4.8585086 5.2342873 3.2491426 11.327541
000020 18 76 bb 40 00 7f 85 40 83 be c3 40 cc d5 db 40
       5.8581657 4.171753 6.117006 6.8698483
000030 82 aa fe 40 82 32 96 40 0f 9e 6b 40 f0 e4 63 40
       7.958314 4.6936655 3.6815221 3.5608482
000040 c4 f9 cb 40 b0 69 d8 40 64 3d f4 40 2f 00 7a 40
       6.374239 6.7629013 7.632494 3.9062612
000050 e1 b4 aa 40 ea f2 cf 40 5b 0b e9 40 ea ac 36 41
       5.33458 6.4984026 7.282636 11.417215
000060 b2 2a 11 41 5d 82 15 41 23 3c 6e 40 6b 44 96 40
       9.072924 9.344327 3.7224205 4.695852
000070 bf 78 8e 40 79 7e 2c 41 1e 54 ce 40 6f 47 7a 41
       4.4522395 10.780877 6.447768 15.64244
000080 ac 48 d4 40 1c ad 9e 40 57 8a 8e 40 9c 05 10 41
       6.633871 4.9586315 4.454387 9.001369
000090 f0 8f cd 40 88 4d 91 40 80 1a 82 40 a5 7c 84 40
       6.4238205 4.5407143 4.065735 4.1402154
0000a0 2f 65 c1 40 9a 2a e1 40 d3 d1 dc 40 77 56 3c 41
       6.0436015 7.0364504 6.9006133 11.77111
0000b0 be b1 ec 40 f2 08 8d 40 d5 b3 ce 40 db 45 40 40
       7.396697 4.407342 6.459452 3.0042636
0000c0 56 6d c5 40 c8 51 c5 40 16 e4 38 40 60 bf 8c 40
       6.1695967 6.166233 2.8889213 4.398361
0000d0 ba 80 4b 41 c9 70 75 40 18 9a dc 40 60 64 83 40
       12.718927 3.8350089 6.8938103 4.106003
0000e0 2d ed 92 40 23 45 7f 40 35 a8 15 40 4b fd 89 41
       4.591452 3.9885948 2.3383915 17.248678
0000f0 76 64 26 41 90 24 9d 40 21 59 39 40 ec cd c1 40
       10.399527 4.910713 2.896065 6.056387

body.block2.conv.weight f4 [64, 64, 3, 3]
000000 f6 21 8b bd 84 8b 69 bc 5e cb 47 3d 77 33 f9 bd
       -0.06793587 -0.0142544545 0.04877793 -0.12168019
000010 88 9a 26 3c f3 26 9a 3d 7b fd bc bd 71 a6 34 bd
       0.010168679 0.0752696 -0.09228035 -0.044104043
000020 c9 ba d7 3c 39 3f 5b bc 8c c9 98 bd c5 d9 1d be
       0.026334183 -0.013381773 -0.07460317 -0.15415104
000030 c1 c9 55 3d fe 75 04 bd ec 92 9d 3b 29 75 19 3e
       0.05219436 -0.03233909 0.004808774 0.149861
000040 17 06 d3 3d 44 de 56 3e 5a 9c b2 bc d5 e8 17 3d
       0.10303896 0.20983225 -0.02180307 0.03708728
000050 30 99 05 3d 5f a3 d0 bd b9 95 9a bc 23 05 45 bd
       0.032616794 -0.101874106 -0.018870221 -0.048100602
000060 8a 92 9a bd cb 83 5d bd ce 71 21 bd 5f cf b7 3d
       -0.07547481 -0.054080766 -0.039415173 0.089751
000070 e6 75 d1 3d ea af af 3d 35 31 cb 3d 81 54 aa 3d
       0.102275655 0.08578475 0.09921495 0.08316899
000080 2a f9 75 3d 7f ec 92 3c 3b f1 a3 3c d0 40 20 bd
       0.060052074 0.017935036 0.020012489 -0.03912431
000090 fb 81 5f 3d 45 25 c0 3c b8 f1 d4 bc 01 17 7c 3d
       0.05456732 0.023455271 -0.025994167 0.061545376
0000a0 44 23 18 bd 39 9d b9 bc b2 96 94 bb 4e 1f 69 bd
       -0.037143007 -0.022657977 -0.004534566 -0.05691462
0000b0 9a 11 b2 bc 62 f1 6a 3c ab 36 f8 3c f7 c7 13 bb
       -0.021736909 0.014339777 0.030299505 -0.0022549608
0000c0 77 69 7d 3d d8 d7 ee bc 2f 93 8c 3c 98 b1 2c 3d
       0.061868157 -0.029155657 0.017160026 0.042161554
0000d0 12 98 98 3d 7d 43 3b 3e c1 fc e9 bd 35 ec c2 3c
       0.0745088 0.18287463 -0.11425162 0.023794273
0000e0 0d 87 a3 3c 0c de ea 3c 7a c2 00 bc d3 5f 9c 3c
       0.019961858 0.028670333 -0.007858867 0.019088661
0000f0 47 bd 82 3d 66 49 2f 3d bb 63 6c 3c b7 d8 67 bc
       0.06383758 0.042794608 0.0144280745 -0.01415079
000100 41 2f 16 bd 57 33 44 bd fa bb 69 3d 64 79 72 bc
       -0.03666616 -0.047900524 0.057064034 -0.01479945
000110 6d 55 0d 3d 31 07 a7 3c 72 89 21 3d fd f6 dc 3d
       0.034505296 0.020389171 0.03943772 0.10789297
000120 4b a7 9c bd 4f ca 92 bd bb a8 4f bc 09 94 a3 bc
       -0.07649096 -0.071674936 -0.012674506 -0.01996805
000130 5a eb b1 3c d3 63 e8 ba 2a 8f 23 3e 3d 4e 47 3d
       0.02171867 -0.0017729945 0.15972582 0.0486586
000140 d3 fa d2 3c 4f e7 82 3b 18 f5 2a 3c 54 74 2b 3c
       0.025754368 0.0039948593 0.0104344115 0.0104647465
000150 24 30 7b 3d 73 a9 9f 3c 1a 0d 5f 3d db 72 17 be
       0.061325207 0.01948998 0.054455854 -0.14789908
000160 1b 7a 3e be 56 d5 83 bd 6b 84 cc 3c 65 36 79 3d
       -0.18601267 -0.06437175 0.024965486 0.06084289
000170 bb fc 87 3d b2 91 5e 3d 14 ae 21 3c 69 1e 2f 3d
       0.066400014 0.054338165 0.009868164 0.04275361
000180 0f c3 78 3d e2 e1 00 3e 44 58 01 3e da 5d 3d bd
       0.060732897 0.12586167 0.12631327 -0.046232082
000190 58 6d df bc ca 83 83 bd 22 66 bc bc 38 93 9d 3c
       -0.027273819 -0.06421621 -0.02299792 0.019235238
0001a0 2b 1b ce bc 4f 5d 71 bc 2d 30 d4 3c b6 fb c9 bc
       -0.02515944 -0.014731719 0.025901878 -0.024656158
0001b0 b4 ab 2f bb 22 2a ce bb f4 38 82 bd 6f a2 bd 3d
       -0.0026805224 -0.0062916437 -0.06358519 0.092594974
0001c0 ef 4c d2 3d e3 94 7b 3d 0a f3 09 3e 59 98 dc 3d
       0.1026858 0.061421286 0.13471618 0.107712455
0001d0 3d ff 29 3d 9c 84 08 be 72 13 d9 3b ed 85 8e 3c
       0.04150318 -0.13331836 0.0066246325 0.017397845
0001e0 1f b1 d6 bd e0 da be 3c da 83 c0 bd 75 c5 ca bd
       -0.10483002 0.023297727 -0.09400149 -0.09900943
0001f0 26 26 ce bc 54 94 63 bd 37 ea 86 bd 73 19 f0 3b
       -0.025164675 -0.05556138 -0.06587642 0.0073272525
000200 22 fb 27 bd a4 e2 6b bd a1 4d cd 3d 95 ad 21 3e
       -0.041010983 -0.05758919 0.10024572 0.15788873
000210 3e aa 07 be fe f4 12 3d 0c d3 9e 3d 6f b5 32 bd
       -0.13248536 0.035878174 0.07755098 -0.04363006
000220 b6 2c 30 bc 6e 6c 9e 3c 45 36 46 3d 85 e8 51 3d
       -0.010752847 0.019338813 0.0483916 0.05124714
000230 e2 c4 30 3b 04 c4 c5 3d 1d 79 17 3e 7a 07 14 bd
       0.002697282 0.09656528 0.14792295 -0.036139943
000240 43 3e 8b 3c 25 33 f3 bd 45 7a 96 bd da a1 c4 3c
       0.016997462 -0.118749894 -0.0734754 0.024002958
000250 1a 07 b2 3c f8 44 39 bd 05 e4 4f 3d 7d 7e e1 3b
       0.021731902 -0.04523179 0.050754566 0.0068815337
000260 17 1f 1c bc 55 77 77 3d b4 64 65 bc 34 56 30 3b
       -0.009528897 0.06041654 -0.01400106 0.002690685
000270 cd 1a f7 bc 91 58 4e bd 3f 34 58 3d c5 20 48 bd
       -0.030164147 -0.050377432 0.0527842 -0.048859376
000280 dd 5a 2e 3d 2a 73 a9 3d ca 3c 4d bd 8c 5b 42 bd
       0.042567123 0.08273919 -0.0501068 -0.047450587
000290 20 14 05 3d ff 15 f2 bd 2f 5f 02 be 30 b5 c1 ba
       0.032489896 -0.11820602 -0.12731622 -0.001477873
0002a0 17 37 73 bd a5 5c 1e bd f5 55 80 3c ce 0e 53 3d
       -0.05937871 -0.03866257 0.015665988 0.05152779
0002b0 61 92 7a bd e6 de 89 3b ec d4 36 3d 95 b5 01 3d
       -0.061174754 0.00420748 0.044636652 0.03166731
0002c0 9a 1e 16 bd c5 a9 aa bd 32 c7 08 3d 16 a3 79 bc
       -0.036650278 -0.08333162 0.033393092 -0.015236637
0002d0 27 af 04 bd f5 f4 f5 bd 50 12 a5 bc cf 56 28 bd
       -0.0323936 -0.120096125 -0.020150334 -0.041098412
0002e0 4c e6 d7 bc e4 13 cf 3c e5 28 c6 3c 32 e6 ff 3d
       -0.026354931 0.02527804 0.024189422 0.12495078
0002f0 91 23 13 3e 7b 8e 40 3e f7 9b 19 3e d7 04 5d 3e
       0.14369036 0.18804352 0.15000902 0.21583878
000300 35 03 de 3d 90 bb 65 3d aa 05 0c 3e cd 88 14 3d
       0.108404554 0.056087077 0.13674036 0.036263276
000310 1a 2a a3 bd 23 36 8d bd b2 64 22 3d ed ba 99 bb
       -0.079670146 -0.068950914 0.03964681 -0.0046914727
000320 f6 d2 c3 3d 14 61 83 3d 61 5d 7d 3d 3c c5 40 3d
       0.09561722 0.064150006 0.06185663 0.047063097
000330 60 5c 13 3d 1f d1 d2 3d 38 f1 3b 3d 27 d2 f7 3c
       0.035976768 0.10293793 0.04588434 0.030251576
000340 cb e7 88 bc 3d c8 bc 3c cc a6 b2 bd bd d2 a7 bd
       -0.01671209 0.0230447 -0.0872322 -0.08194492
000350 5b 45 b6 bd e6 b4 10 bc 9c 3c 9f bd af 9a 95 bc
       -0.08899947 -0.008832192 -0.07775232 -0.018262235
000360 de 8f 9e bd 24 7d e7 bd 19 62 e6 bd 98 06 df bd
       -0.07742284 -0.113031656 -0.112491794 -0.108899295
000370 c0 43 d6 bd bd 93 9c bd fb 39 bd bd 99 d8 4f bc
       -0.10462141 -0.07645366 -0.092395745 -0.012685918
000380 10 9d e3 39 56 ae ed 3d 7c 70 01 3e ba 2a ab 3d
       0.00043413835 0.116055176 0.12640566 0.08357759
000390 5a 52 1b 3d 83 97 1f bb fc 67 2f 3d 42 e6 14 bd
       0.037920333 -0.0024351783 0.042823777 -0.036352403
0003a0 25 35 a8 bc e8 93 bc 3c 00 a2 a1 bd b8 70 e1 bd
       -0.020533154 0.023019746 -0.07892227 -0.110078275
0003b0 2a 69 17 be 04 8a 91 bd 99 1e 81 bc df f2 22 3c
       -0.1478621 -0.071064025 -0.01576166 0.0099456
0003c0 82 9e 86 bd 09 42 6d bd a8 8b 2b bd 89 68 0e be
       -0.06573202 -0.057924304 -0.041881233 -0.13907064
0003d0 c6 bc 2b bd 1b 06 62 3c 19 16 18 bd e1 c4 8f 3c
       -0.041928075 0.013795401 -0.03713045 0.017549934
0003e0 28 45 94 3d 97 91 6c 3c 99 51 a9 3d 7a e2 a5 3d
       0.07239753 0.014439008 0.08267517 0.080998376
0003f0 aa 80 af bd 11 73 ba bc 4b f8 1b 3d f5 b0 8c bc
       -0.085694626 -0.022759946 0.038078588 -0.017174223

body.block2.conv.bias f4 [64]
000000 b7 cd a6 bc dc 31 97 bc e9 5a d7 3c 18 0d ed bc
       -0.020361764 -0.018456392 0.026288467 -0.028936908
000010 54 13 fc bb ec de 05 bd 96 90 8c bc 64 1f c6 3c
       -0.007692734 -0.032683298 -0.017158788 0.02418489
000020 91 ee b0 3c 68 7b ad bc d3 52 b4 bc 73 89 00 3d
       0.021598132 -0.021177009 -0.02201215 0.03138108
000030 48 a3 bf 3c ab 66 80 bc 47 46 20 bb 54 c8 1c 3d
       0.023393288 -0.015673956 -0.002445595 0.038276985
000040 0a 06 b4 bc ac 0e 38 3c 4a 09 10 3d 86 8b 12 bb
       -0.021975536 0.011233967 0.03516511 -0.0022360994
000050 30 28 2a 3c 12 52 bb bb e9 47 f4 3c 6d f4 ad bc
       0.010385558 -0.0057165707 0.029819446 -0.021234715
000060 31 a1 91 bc ed 25 80 3b e0 74 08 3c b0 d8 2a bc
       -0.017777057 0.003910771 0.008328646 -0.010427639
000070 df 02 30 3c 03 03 8e bc aa c2 17 bc 2f 1c c2 bb
       0.010742872 -0.01733542 -0.00926272 -0.00592377
000080 96 e8 fa 3c c7 16 8d 3c 67 e4 34 bd 1e 8e f2 bb
       0.030628484 0.017222775 -0.044163134 -0.0074021956
000090 40 0e fa bb e7 bc cd bc ac 7c c3 3b 58 ec 33 3d
       -0.0076310933 -0.02511449 0.00596579 0.043926567
0000a0 55 7f ce bb 0c bd c0 3c 06 cd 11 3d aa 3b 69 bc
       -0.0063018003 0.023527645 0.035595916 -0.014235416
0000b0 18 b0 41 3c 65 98 20 3d 23 9a 58 b9 c9 43 07 3d
       0.011821769 0.039207835 -0.00020656786 0.03302363
0000c0 47 80 70 bc 73 27 f9 3c ff ff 8a 3c f7 e6 26 bd
       -0.014679021 0.030414319 0.016967772 -0.04074761
0000d0 26 41 a6 3c 67 58 f9 bc 56 81 9f bc fb 68 21 bd
       0.020294737 -0.030437661 -0.019470852 -0.039406758
0000e0 67 9a 67 bc 28 28 4a bc 1a ad fe 3c ac 49 09 3d
       -0.0141359335 -0.012338676 0.0310884 0.033517525
0000f0 b3 9a de 3c c5 18 25 3d 5a 1c e7 bc b3 fc ca bc
       0.027173376 0.040306825 -0.028211761 -0.0247787

body.block2.norm.weight f4 [64]
000000 ce ca 92 3f 3f 7a 9f 3f 4c ae 8f 3f 18 7d 98 3f
       1.1468141 1.2459182 1.1225066 1.1913176
000010 9c 9a 9a 3f 26 c5 a5 3f 5a e8 a8 3f 23 5a ad 3f
       1.2078433 1.295079 1.3195908 1.3543133
000020 08 e8 9a 3f b9 c6 ab 3f 44 34 a0 3f b3 62 a9 3f
       1.210206 1.342002 1.251595 1.3233246
000030 ac a2 bd 3f f5 e1 a1 3f 75 b9 b3 3f 8b 75 98 3f
       1.4815269 1.2647082 1.4040972 1.1910871
000040 12 c5 a7 3f 1d fb 9c 3f d3 a0 b6 3f 93 22 b6 3f
       1.3107016 1.2264134 1.426783 1.4229301
000050 a9 59 98 3f 7e 7c b3 3f 62 cb 95 3f 66 01 9c 3f
       1.1902362 1.4022367 1.1702693 1.2187927
000060 fa aa a7 3f 3a 42 a6 3f 6d d2 b8 3f 3e fd ac 3f
       1.3099053 1.2988961 1.4439217 1.3514783
000070 5d 1f 98 3f fc 6e a8 3f 6b a3 96 3f 3d de 9a 3f
       1.1884571 1.315887 1.1768621 1.2099072
000080 13 83 bb 3f 97 ef a3 3f 5d 3e a4 3f bf 00 98 3f
       1.4649376 1.2807492 1.2831532 1.1875228
000090 9c 92 92 3f fa 36 b0 3f 26 ef aa 3f bc 5e a3 3f
       1.1450992 1.3766778 1.3354232 1.2763286
0000a0 20 3c ae 3f 77 69 91 3f 31 51 a4 3f 51 6b a1 3f
       1.3612099 1.136031 1.2837278 1.2610875
0000b0 ae cb a8 3f c3 5f a1 3f 19 3d bf 3f 3a 6b a6 3f
       1.3187158 1.2607349 1.494052 1.3001473
0000c0 f7 95 a0 3f 2c 24 92 3f 98 84 a3 3f 8f 92 a6 3f
       1.2545766 1.1417289 1.2774839 1.3013476
0000d0 53 13 97 3f 48 90 99 3f ba 0d a5 3f 8d 78 a9 3f
       1.1802772 1.1997156 1.2894814 1.3239914
0000e0 35 89 a8 3f bf 48 96 3f da 38 90 3f 89 66 9c 3f
       1.3166872 1.174095 1.126735 1.2218791
0000f0 5d 9e a1 3f c5 57 a2 3f e7 1b a6 3f 6d 92 9a 3f
       1.2626454 1.2683035 1.2977265 1.2075936

body.block2.norm.bias f4 [64]
000000 15 65 32 be 68 3d 89 be f3 7e 90 be e0 be ed bd
       -0.17421372 -0.26804662 -0.28221855 -0.11608672
000010 6f 3c 00 be 39 de 47 be 99 b0 1b be 7d dd 4e 3d
       -0.12523054 -0.19518365 -0.15204085 0.050504196
000020 09 55 9c be 0a fd 80 be fc 67 5f be cc c6 03 be
       -0.30533627 -0.25193053 -0.2181701 -0.12868804
000030 a8 26 51 be 3d e6 0d bf 55 53 b8 bd ce ef a2 be
       -0.20424902 -0.5542944 -0.09000269 -0.3182358
000040 e3 ba ad be 94 42 8f be ca 8f 3b be 7c 55 8b be
       -0.33931646 -0.27980483 -0.1831657 -0.27213657
000050 15 95 1e be d1 66 ad be 58 a1 c2 be b2 7a a6 be
       -0.15486558 -0.33867505 -0.3801372 -0.32515484
000060 d9 c9 11 be 49 c2 31 be 07 c8 37 be 24 4d a5 be
       -0.14237155 -0.1735927 -0.17947398 -0.32285416
000070 6a 71 20 be 89 1a d9 be 54 d5 0f bf 62 75 0e bf
       -0.15668264 -0.42403057 -0.5618489 -0.5564786
000080 3a 75 2e be 1e d2 b3 be 41 06 9b be 29 47 cd bd
       -0.17036906 -0.35121244 -0.3027821 -0.10023338
000090 69 c6 7a be 63 64 78 be 6b eb 86 be e8 3a fe bd
       -0.2448975 -0.24257044 -0.26351485 -0.12413579
0000a0 9c c4 b5 be be cd 97 be 5b 58 6e be 20 72 0a be
       -0.35501564 -0.29649156 -0.23275892 -0.13520098
0000b0 8d bb 19 be da 7d 8f be ad 85 66 bd 18 c5 45 bd
       -0.15012951 -0.28025705 -0.056279827 -0.048283666
0000c0 17 a6 7f be 94 a4 c7 be ef 5d 85 be 2f b8 90 be
       -0.24965702 -0.3899275 -0.26048228 -0.2826552
0000d0 1a d9 f8 be 8b 54 13 be 3f 46 32 bd 7a 96 11 be
       -0.48603135 -0.1438772 -0.043524023 -0.14217559
0000e0 b2 53 7b be d4 eb a0 be 4f 18 d4 be 4a 21 88 be
       -0.24543646 -0.31429923 -0.41424796 -0.26587898
0000f0 a2 f0 72 be c3 66 ec bd 24 65 16 be db 73 93 be
       -0.23724607 -0.11543038 -0.1468702 -0.28799328

body.block2.norm.running_mean f4 [64]
000000 84 d3 7e 3f 1e 8d c4 3f 3f 69 2e 40 81 63 e2 be
       0.995415 1.5355566 2.7251737 -0.4421654
000010 e7 41 e4 bf b0 fe 38 3d 71 21 fc be 63 15 52 bf
       -1.7832612 0.045164764 -0.49244264 -0.82063884
000020 11 69 cd 3f 9c 48 17 bd a5 a7 a9 be 89 01 92 be
       1.6047689 -0.03693448 -0.33135715 -0.28516796
000030 96 bb 28 bf 42 23 0a 40 90 58 39 bf 39 9f 85 3f
       -0.65911233 2.158402 -0.7240076 1.0439216
000040 a6 51 f0 3d 17 a5 de 3f c6 d0 96 bf cc e0 c9 be
       0.11734323 1.7394131 -1.1782463 -0.3942932
000050 14 fd d4 bf c6 7c 60 3e 39 40 21 3f 92 6f 7b 3e
       -1.6639733 0.21922597 0.6298862 0.2455428
000060 c6 17 38 3f a5 49 9c bf 12 9e 50 3e 7d a5 af bf
       0.71911275 -1.2209975 0.20372799 -1.3722378
000070 6e 0e c5 bf e5 26 26 3e 5f da f9 3f 75 06 d8 3f
       -1.5395029 0.16225775 1.9519767 1.687697
000080 37 d9 69 be 9a 78 60 3f c0 85 bf 3e e1 b9 81 3f
       -0.22836767 0.87684023 0.3740673 1.0134851
000090 9d 7a 59 be a2 cb 00 be 5d 41 4d bf 7c f4 6e bf
       -0.2123818 -0.1257768 -0.8017786 -0.93341804
0000a0 49 b6 e5 3e 7d 53 79 3e 05 15 03 3f 46 ec 65 bf
       0.44865635 0.24348255 0.5120395 -0.8981365
0000b0 a8 3d 0c bf fe ae 3d 3f f7 6a 03 bf b2 0d 41 c0
       -0.5478158 0.7409514 -0.5133509 -3.016461
0000c0 ce b5 3b bf 43 b6 48 bf 03 ea 91 3f bb 7f 66 3e
       -0.73324287 -0.7840311 1.139954 0.22509663
0000d0 e7 3d 50 be 03 99 6c bf e4 14 d2 3f 78 b3 a3 3f
       -0.20336114 -0.9242098 1.6412625 1.2789145
0000e0 f6 c2 b2 3f 7d cf 2e 40 bd 81 98 3f 11 16 8d 3f
       1.3965747 2.731414 1.1914593 1.1022359
0000f0 59 52 ca bc 30 0f 20 3f 01 40 68 bf ef 97 45 40
       -0.02469747 0.62523174 -0.9072266 3.0873983

body.block2.norm.running_var f4 [64]
000000 11 77 78 40 57 70 c0 40 b3 4d d3 40 14 2a 0b 41
       3.8822672 6.0137134 6.603235 8.697773
000010 b9 68 2f 40 e3 e6 f0 3f 82 0f 8d 40 24 aa 37 40
       2.7407668 1.8820461 4.408143 2.8697596
000020 09 18 46 40 49 83 a7 40 c7 0a 7e 40 7f d3 00 40
       3.095217 5.234776 3.9694078 2.0129087
000030 58 bd fa 3f 40 90 21 40 d5 f7 50 40 32 46 ac 40
       1.9589033 2.5244293 3.2651265 5.383569
000040 ec 19 9e 40 71 cf 90 40 70 aa 06 40 7a 20 0d 40
       4.9406643 4.5253224 2.1041527 2.2051072
000050 c6 b2 49 40 23 fa 0f 40 6a dd a7 40 91 80 4d 40
       3.1515365 2.2496421 5.245778 3.210972
000060 bf d1 78 40 95 27 3a 40 70 34 8e 3f 53 09 2b 40
       3.887802 2.908666 1.1109753 2.672444
000070 a8 9c e8 40 e9 49 68 40 17 ad 83 40 94 b7 78 40
       7.269123 3.629511 4.114879 3.8862047
000080 68 0d c2 3f 54 1a 63 40 89 ee fc 3f 76 8f d1 40
       1.5160341 3.548482 1.9760295 6.5487623
000090 3d 0a 19 41 88 d0 a4 3f 9d f9 2a 40 3f 6d 41 40
       9.565 1.2876139 2.6714852 3.0222929
0000a0 5a 5f 32 40 30 fc f9 40 40 7f 0b 40 07 19 3e 40
       2.7870698 7.8120346 2.1796417 2.9702775
0000b0 ad 91 5e 40 a7 39 73 40 26 5c 0e 40 66 63 82 40
       3.4776413 3.8003938 2.2243743 4.0746336
0000c0 59 f4 4a 40 b6 98 84 40 56 2d 9a 40 c5 b4 77 40
       3.1711638 4.1436415 4.818034 3.8704083
0000d0 ad 4b be 40 eb bb 62 40 1d 7b 86 40 65 6e 16 40
       5.946738 3.5427196 4.2025285 2.350488
0000e0 b0 d7 4f 40 a6 f3 c9 40 c2 6e 93 40 01 90 9d 40
       3.2475395 6.3109922 4.6072702 4.9238286
0000f0 5b 54 01 40 aa e4 3e 40 c6 f8 15 40 e9 15 05 41
       2.0207736 2.9827065 2.343309 8.317849
