trained_models/sinGan/cows/scale_factor=0.750000,alpha=10/3/netG.pth (torch_old, 125197 bytes, 26 tensors)

head.conv.weight f4 [32, 3, 3, 3]
0	0x3b52eed8	0.003218582
1	0xbd267637	-0.040640082
2	0x3d148254	0.036257103
3	0xbdbc2baa	-0.09188016
4	0xbdb1c774	-0.08680621
5	0x3d3482e1	0.04407013
6	0x3b0da06c	0.0021610511
7	0x3d8da274	0.06915751
8	0xbe964fe0	-0.29357815
9	0x3d63df0d	0.05563264
10	0x3da83af7	0.08214372
11	0x3e32b8a0	0.17453241
12	0xbd0c64ec	-0.034275934
13	0xbb729295	-0.003701364
14	0x3e083f7a	0.13305464
15	0x3d4c515e	0.049882285
16	0x3df1008c	0.117676824
17	0xbe9825f5	-0.2971646
18	0x3e4986d4	0.19680339
19	0x3dbc243a	0.09186597
20	0xbcc0f80c	-0.023555778
21	0xbcab4675	-0.02090762
22	0xbdd582f3	-0.10425367
23	0xbd7570b9	-0.059921954
24	0x3acf400c	0.0015811934
25	0x3d6f410c	0.058411643
26	0xbd812cb8	-0.063073575
27	0x3d2c5f62	0.04208315
28	0x3c94186f	0.018078057
29	0x3e8462e7	0.25856707
30	0x3c468df8	0.012118809
31	0xbd149b75	-0.036281068
32	0xbd9a8c68	-0.075463116
33	0xbdcff187	-0.101534896
34	0xbd73c3ea	-0.05951301
35	0xbd0d243a	-0.034458376
36	0x3cab8445	0.020937094
37	0xbd99499b	-0.07484742
38	0x3e194fb0	0.14971805
39	0x3cc07f81	0.023498299
40	0xbd48aba4	-0.048991814
41	0xbdb0a159	-0.086245246
42	0xbdcdff86	-0.10058503
43	0xbdc46884	-0.09590247
44	0xbcf61480	-0.030039072
45	0xbbedd93a	-0.0072585614
46	0x3e151672	0.14559343
47	0x3efce09e	0.4939012
48	0xbd02ec4f	-0.031963643
49	0x3d8fb981	0.07017804
50	0x3d88e28d	0.06683836
51	0xbe0e2fc1	-0.13885404
52	0xbba6c314	-0.005089173
53	0x3d61fa73	0.055170488
54	0x3d3d856d	0.046269823
55	0xbdaa4197	-0.083132915
56	0x3dbb095e	0.09132646
57	0x3ce1bb7e	0.027555224
58	0xbda81ab0	-0.08208215
59	0xbcabfd21	-0.020994725
60	0xbe0eb1f2	-0.13935068
61	0x3d57ba85	0.052668113
62	0x3e598669	0.2124268
63	0xbd2b4c85	-0.04182102
64	0xbd0c8025	-0.034301896
65	0xbd05a6fe	-0.03262996
66	0x3d8a1121	0.06741548
67	0xbde8a841	-0.11360217
68	0xbd711a1e	-0.058862798
69	0xbd8ae15e	-0.06781267
70	0x3c919ac5	0.017773995
71	0x3e18578c	0.14877146
72	0x3b6e46ff	0.0036358235
73	0xbdfbc007	-0.12292486
74	0xbd9142a5	-0.070927896
75	0x3d0dc65b	0.034612995
76	0xbe0904bb	-0.13380711
77	0xbdd5a87a	-0.10432525
78	0x3e0f48a8	0.1399256
79	0x3e148748	0.1450473
80	0x3e75d3f0	0.24006629
81	0x3d092987	0.03348687
82	0x3add705d	0.0016894449
83	0xbe3ecff8	-0.18634021
84	0xbd98be51	-0.07458175
85	0x3c07f2e5	0.008297657
86	0x3e0a1664	0.13485104
87	0x3cd11427	0.025522305
88	0x3d4c0081	0.049805168
89	0x3dca29c3	0.09871247
90	0x3af1a923	0.0018437247
91	0x3c69592e	0.0142424535
92	0xbe24643b	-0.1605386
93	0xbe6996cf	-0.22811435
94	0xbdc9a042	-0.0984502
95	0x3e33c57b	0.17555802
96	0xbe0ebd62	-0.13939431
97	0x3c42648d	0.0118647935
98	0x3e2d5c1e	0.16929671
99	0x3da36bf5	0.079795755
100	0x3d20fa44	0.039301172
101	0xbe08ec1a	-0.13371316
102	0x3dffa732	0.12483062
103	0x3d5b9b57	0.05361494
104	0x3e000bd8	0.12504518
105	0x3da84340	0.08215952
106	0xbd579ce1	-0.052639846
107	0xbe095492	-0.13411167
108	0xbe653895	-0.22384866
109	0xbdde8335	-0.108648695
110	0x3e8382ac	0.25685632
111	0xbe4d041d	-0.200211
112	0xbc6b18e2	-0.014349194
113	0xbda34a53	-0.079731606
114	0xbe3d053d	-0.1845903
115	0xbd764851	-0.06012756
116	0xbe599647	-0.21248733
117	0xbcae37a2	-0.021266762
118	0x3c14fa06	0.009092813
119	0x3e899e7d	0.2687873
120	0xbdd9fe9c	-0.10644266
121	0x3cdb3f9e	0.026763733
122	0xbd4f52ab	-0.050615948
123	0xbd276874	-0.0408711
124	0x3c839a84	0.01606489
125	0xbe134fac	-0.14385861
126	0x3cf12bbe	0.029439803
127	0xbd12374d	-0.03569727
128	0x3ca66caa	0.020315487
129	0x3c8ffde3	0.017577117
130	0x3c5025bb	0.012704308
131	0xbda48bfa	-0.08034511
132	0x3db0f49c	0.086404055
133	0x3d7834f6	0.060597382
134	0x3e182ba4	0.14860398
135	0xbd0270de	-0.03184592
136	0xbd232586	-0.039830707
137	0x3dd90a5f	0.10597681
138	0x3ce7fcb6	0.028318744
139	0xbd592689	-0.053015266
140	0x3abd0dfb	0.0014423722
141	0x3dbfc745	0.093641795
142	0x3e16e8ec	0.1473729
143	0xbcd7bc9d	-0.026335055
144	0xbd0172c2	-0.031603582
145	0xb80edcaf	-3.4060966e-05
146	0x3e30133e	0.1719484
147	0x3d274315	0.04083546
148	0x3ac6ca8a	0.0015166563
149	0x3e097596	0.13423762
150	0xbc9cfaad	-0.0191625
151	0x3dd80679	0.105481096
152	0xbdc503c1	-0.096198566
153	0x3e1c8b71	0.15287568
154	0x3e030942	0.127965
155	0xbc874b58	-0.016515419
156	0xbccb1d54	-0.024794258
157	0x3dd2a2c6	0.10284953
158	0xbdf84b59	-0.121237464
159	0x3dffe194	0.124941975
160	0x3ec40732	0.3828674
161	0xbd238506	-0.039921783
162	0x3d24f32c	0.04027097
163	0xbe1b96ca	-0.1519424
164	0xbdd3e960	-0.10347247
165	0x3d81ec06	0.06343846
166	0xbdd8d4b8	-0.10587448
167	0xbc032b33	-0.008005905
168	0x3ebaa267	0.36452028
169	0x392c0da2	0.00016408277
170	0x3e9ec915	0.31012788
171	0x3dd13465	0.102150716
172	0x3cf923d0	0.030412585
173	0x3d4aba43	0.04949404
174	0x3debb15a	0.115084365
175	0x3dc2d505	0.095132865
176	0x3e52dd2a	0.2059218
177	0x3e227fe0	0.15869093
178	0xbe16c780	-0.1472454
179	0x3e4f74b3	0.20259361
180	0xbcfc363b	-0.030787578
181	0x3d312442	0.04324747
182	0xbd6480c0	-0.055786848
183	0xbc183367	-0.009289599
184	0xbce54b69	-0.02799006
185	0xbdfad605	-0.12247852
186	0x3ea4ea4a	0.32209998
187	0xbca8ff97	-0.020629687
188	0x3c970516	0.018435042
189	0x3e1e20e0	0.15442228
190	0x3e703baf	0.23460267
191	0x3d985bcd	0.074393846
192	0x3d44d6a1	0.04805625
193	0x3ddad4e8	0.1068514
194	0xbda7f437	-0.08200877
195	0xbddd0882	-0.10792638
196	0x3df4d40b	0.119545065
197	0xbe190f4c	-0.14947242
198	0x3d0d2a74	0.034464315
199	0x3e2ca9f1	0.16861703
200	0x3d8a6309	0.06757171
201	0xbd03b4b7	-0.032154765
202	0x3e3781ba	0.1792058
203	0x3cf259cb	0.029583832
204	0xbe4dca2f	-0.20096658
205	0x3e7480c7	0.2387725
206	0x3e3652c4	0.1780501
207	0xbc7d8023	-0.015472445
208	0xbde6ffe0	-0.11279273
209	0xbe08d03b	-0.13360684
210	0x3d166f4c	0.036727235
211	0xbd14d936	-0.03633996
212	0xbd9811c6	-0.07425265
213	0xbdbba788	-0.091628134
214	0x3e1c835b	0.15284483
215	0x3cd424a2	0.025896374
216	0x3e193825	0.14962824
217	0x3d493c72	0.04912991
218	0x3b3d1fac	0.002885799
219	0x3e055256	0.1301969
220	0xbd8d2281	-0.06891347
221	0x3d3fa9c4	0.04679276
222	0x3ea25c86	0.31711215
223	0x3d4d1584	0.050069347
224	0x3e697ce8	0.22801554
225	0x3d27b568	0.040944487
226	0xbd630c27	-0.05543151
227	0xbdb7bdf7	-0.0897178
228	0x3c6c4951	0.014421777
229	0xbc243bd8	-0.0100240335
230	0x3cfa4f9f	0.030555544
231	0x3d9af2bd	0.0756583
232	0xbdaac7ef	-0.083389156
233	0x3e0735d4	0.13204128
234	0x3dd08fa8	0.1018365
235	0x3d87f2ae	0.06638084
236	0x3df9c48b	0.12195691
237	0xbb44b243	-0.0030013479
238	0xbd3d362d	-0.046194244
239	0x3d7802bb	0.06054948
240	0x3e05a498	0.13051069
241	0xbc3ac9ee	-0.011400683
242	0x3e9b58a7	0.30341074
243	0x3d9ff129	0.078096695
244	0x3dc330bc	0.0953078
245	0x3ed2f118	0.41199565
246	0x3d4e2182	0.050324924
247	0x3d4b32f5	0.049609143
248	0x3da18a26	0.07887678
249	0x3d1797cb	0.037009995
250	0x3cad94b8	0.021189079
251	0x3db77add	0.08958981
252	0x3d0e174b	0.034690183
253	0xbdebdeda	-0.11517115
254	0x3e3feb61	0.18742134
255	0x3e18925b	0.1489958

head.conv.bias f4 [32]
0	0xbe6012ce	-0.21882173
1	0xbe2b9029	-0.16754211
2	0xbd01c4e0	-0.031681895
3	0xbd752ec4	-0.059859052
4	0xbe5f16a7	-0.21785985
5	0xbc9a554b	-0.018839499
6	0x3de0c4ab	0.109750114
7	0xba8f5bab	-0.0010937353
8	0xbe2b7aff	-0.16746138
9	0xbda2ae87	-0.07943445
10	0x3e07dd51	0.1326802
11	0x3dc79b80	0.09746456
12	0xbdb07af7	-0.08617204
13	0x3e1e9ae9	0.15488781
14	0xbe2f561d	-0.17122693
15	0x3e2c298b	0.16812722
16	0xbd5e20ce	-0.054230504
17	0xbcbe6a16	-0.023243945
18	0x3e4858ca	0.1956512
19	0x3c419ffd	0.011817929
20	0x3d818992	0.063250676
21	0x3e250713	0.1611598
22	0x3df3d260	0.1190536
23	0xbdb0f3b8	-0.08640236
24	0x3e42f983	0.19040494
25	0xbd9b9307	-0.075964026
26	0x3b18bf93	0.0023307547
27	0x3e427ad8	0.18992174
28	0x3cdd4875	0.02701209
29	0x3e13571d	0.143887
30	0x3cfd3bf0	0.03091237
31	0x3e15b4aa	0.14619699

head.norm.weight f4 [32]
0	0x3faa1af8	1.328948
1	0x3fc45118	1.5337248
2	0x3fa1851a	1.2618744
3	0x3f910ba0	1.1331673
4	0x3fb35fc8	1.4013605
5	0x3fac8143	1.3476948
6	0x3fbc5a17	1.4714993
7	0x3fbe3326	1.4859359
8	0x3fb82008	1.4384775
9	0x3fb6e9e8	1.4290133
10	0x3fb794fe	1.4342344
11	0x3fa10d86	1.2582252
12	0x3fb75ace	1.4324586
13	0x3fa63efb	1.298797
14	0x3fa0bfdd	1.2558552
15	0x3faa3113	1.3296226
16	0x3f9abc2a	1.2088673
17	0x3faf2c2b	1.3685354
18	0x3fada28e	1.3565233
19	0x3f859758	1.0436811
20	0x3fbfcf13	1.4985069
21	0x3fb8b8e4	1.4431424
22	0x3fb5757b	1.4176477
23	0x3f899e0d	1.0751358
24	0x3fb46beb	1.4095434
25	0x3fb4e9e8	1.4133883
26	0x3fafc26e	1.373121
27	0x3fab7ddf	1.3397788
28	0x3fc0be47	1.5058068
29	0x3f8b9a32	1.0906432
30	0x3fb0729c	1.3784976
31	0x3fb05f3d	1.3779064

head.norm.bias f4 [32]
0	0xbe9bc737	-0.30425426
1	0xbea1a7d5	-0.31573358
2	0xbe669bab	-0.2252032
3	0xbe45cfd3	-0.1931756
4	0xbf0fa0fe	-0.5610503
5	0xbeaa526a	-0.33266002
6	0xbd9b0587	-0.07569414
7	0x3e298ab4	0.16556817
8	0xbe38db9b	-0.18052523
9	0x3e76b8de	0.24093959
10	0xbd9b6383	-0.0758734
11	0xbc1cc8d9	-0.00956937
12	0xbe5b36eb	-0.21407668
13	0xbec1a0f9	-0.37818125
14	0xbee0e403	-0.4392396
15	0xbf12ebc3	-0.57390994
16	0xbd3c1bf3	-0.045925092
17	0xbe7ec680	-0.24880409
18	0xbe978bcc	-0.29598844
19	0xbdb78eff	-0.08962821
20	0xbe641f02	-0.22277454
21	0xbdee8ab8	-0.11647552
22	0x3d6be886	0.0575948
23	0xbe239163	-0.1597343
24	0xbe4710dc	-0.19440025
25	0xbdefc6c2	-0.11707832
26	0xbf111899	-0.5667816
27	0x3ec162de	0.37770742
28	0xbe7c45c1	-0.24635984
29	0x3dd020c6	0.10162501
30	0xbea32b3d	-0.31868926
31	0xbe6a2d0b	-0.22868745

head.norm.running_mean f4 [32]
0	0xbe808e30	-0.2510848
1	0xbeda1b18	-0.42598796
2	0xbda9b45e	-0.082863554
3	0xbe0d39fe	-0.13791654
4	0xbeb3e666	-0.35136718
5	0xbe869621	-0.26286414
6	0x3de905fc	0.113780946
7	0x3e0c5374	0.1370371
8	0xbed1898f	-0.4092526
9	0x3d4c555c	0.049886093
10	0x3e98fdb4	0.2988106
11	0x3e0a3b40	0.13499165
12	0xbd96bf19	-0.07360668
13	0x3e58da29	0.21176971
14	0xbe3ccacd	-0.18436737
15	0x3e1ca9e7	0.15299188
16	0xbcc081d1	-0.023499401
17	0x3ca32d21	0.01991898
18	0x3e37e8b4	0.17959863
19	0xbe096c54	-0.1342023
20	0x3dc59e6a	0.09649356
21	0x3e84e445	0.25955406
22	0x3eafe1d6	0.34351987
23	0xbc40b763	-0.011762473
24	0x3d9b536f	0.07584273
25	0x3ee145de	0.43998617
26	0xbe3659e2	-0.17807725
27	0x3db3e6c1	0.08784247
28	0xbd9096f2	-0.070600405
29	0x3c170c5b	0.009219254
30	0xbd816ee5	-0.063199796
31	0x3d3859e0	0.045007586

head.norm.running_var f4 [32]
0	0x3bff100e	0.0077838963
1	0x3d1ae7b3	0.03781862
2	0x3c2f0279	0.010681742
3	0x3c131fe0	0.008979768
4	0x3cc710b9	0.024299966
5	0x3d14ada3	0.036298405
6	0x3d1d2ee8	0.03837481
7	0x3cdbd755	0.026836077
8	0x3d5b4245	0.053529996
9	0x3d3cc91d	0.046090234
10	0x3c598004	0.01327515
11	0x3c207f45	0.009795968
12	0x3d071926	0.032982968
13	0x3c1d1c4b	0.009589265
14	0x3c41917d	0.011814472
15	0x3c234e64	0.00996742
16	0x3cd562c3	0.02604807
17	0x3bbfe365	0.005855965
18	0x3c12c92b	0.008959095
19	0x3d292090	0.04129082
20	0x3bcda21d	0.006275429
21	0x3cb7ad99	0.022421645
22	0x3cce30bd	0.025169725
23	0x3d303ea3	0.043028485
24	0x3c3a303c	0.011364039
25	0x3db01184	0.08597091
26	0x3cfe95af	0.031077234
27	0x3cb5cf34	0.022193529
28	0x3d33801e	0.043823354
29	0x3c4fc83f	0.01268202
30	0x3c8539b1	0.016262861
31	0x3c96bc43	0.018400317

body.block1.conv.weight f4 [32, 32, 3, 3]
0	0x3d221a4d	0.039575864
1	0x3d9e991d	0.07744048
2	0x3dfd0fee	0.12356554
3	0xbd656bf3	-0.05601115
4	0xbd9f9588	-0.07792193
5	0x3b04ff8a	0.0020293915
6	0xbc9b76af	-0.018977491
7	0xbda37d43	-0.07982876
8	0x3d7b7e22	0.061399586
9	0xbd090415	-0.03345116
10	0xbe1aab3f	-0.15104388
11	0xbe66d72a	-0.22543016
12	0x3cb85505	0.022501478
13	0x3cb86563	0.022509282
14	0x3ddabddf	0.10680746
15	0xbdd657f3	-0.10465994
16	0x3d23271a	0.039832212
17	0xbb433460	-0.0029785857
18	0x3cfebd1a	0.03109603
19	0x3de15ff8	0.11004633
20	0xbc9d3047	-0.01918806
21	0x3e167836	0.14694294
22	0x3b1c88c7	0.0023885237
23	0xbdceca24	-0.10097149
24	0x3d38791b	0.04503737
25	0xbe173648	-0.147668
26	0xbe1d4948	-0.15359986
27	0xbce92208	-0.02845861
28	0x3e78a817	0.24282871
29	0x3e10945c	0.14119095
30	0xbe40d75b	-0.18832152
31	0xbd80c919	-0.06288356
32	0xbdcb05f8	-0.09913248
33	0xbea119e5	-0.31465068
34	0xbe9d7f91	-0.30761388
35	0xbddef5f6	-0.10886757
36	0xbdcb0fc9	-0.0991512
37	0xbd4fe85a	-0.050758697
38	0x3d5fe04b	0.05465726
39	0x3ccea276	0.025223952
40	0x3d334ea5	0.043776173
41	0x3d74cb28	0.059764057
42	0x3d1769d9	0.03696618
43	0x3e43954d	0.19099922
44	0xbe04c128	-0.12964308
45	0xbddc7ebe	-0.10766362
46	0xbe3c1396	-0.18366846
47	0xbba05538	-0.0048929714
48	0xbe6e8d6b	-0.23296134
49	0xbc5c0445	-0.013428752
50	0x3e37341c	0.17890972
51	0xbe357133	-0.17718963
52	0x3d813638	0.063091695
53	0x3e19b84e	0.15011713
54	0x3dac0435	0.0839924
55	0x3e1114ad	0.14168043
56	0xbd19a9e8	-0.03751555
57	0xbd9e8f02	-0.0774212
58	0xbda3a1fc	-0.079898804
59	0xbd3ef395	-0.046619017
60	0xbd2adae2	-0.04171265
61	0x3d81813a	0.06323476
62	0x3d9f770d	0.07786379
63	0x3da2b749	0.07945115
64	0x3d291ab0	0.041285217
65	0x3e3f3982	0.18674281
66	0x3d97cf53	0.07412591
67	0x3dd53835	0.10411111
68	0x3e39715e	0.18109652
69	0xbc87c115	-0.01657156
70	0xbde588bf	-0.11207723
71	0x3cea1ac3	0.028577214
72	0x3d4c673f	0.04990315
73	0x3ce0279f	0.027362643
74	0xbd9c79ca	-0.07640417
75	0x3ba63d1c	0.005073203
76	0xbcd7f8d6	-0.026363771
77	0xbc062ea5	-0.008189832
78	0xbcba6ea0	-0.022757828
79	0x3e017519	0.12642325
80	0x3d9a62cb	0.075383745
81	0x3beca9db	0.007222397
82	0xbda5f31d	-0.08103011
83	0x3d49915b	0.049210887
84	0x3c46aff1	0.012126909
85	0xbd887bd8	-0.06664246
86	0xba3b3a3d	-0.0007142162
87	0xbc0d6e97	-0.008632324
88	0xbd500a22	-0.050790913
89	0xbdc3954f	-0.09549963
90	0xbd9cbc9b	-0.07653161
91	0xbd5dcea5	-0.05415215
92	0x3daea828	0.08528167
93	0xbd8dcb6e	-0.06923567
94	0xbd8ad7f0	-0.06779468
95	0xbca29c7f	-0.019850014
96	0xbd1e45e1	-0.03864086
97	0x3bee6841	0.0072756116
98	0xbe13de2f	-0.14440225
99	0x3cb4681c	0.0220223
100	0x3c80b616	0.015711825
101	0x3cc723f6	0.02430914
102	0xbdb2a2ab	-0.08722433
103	0xbdd37176	-0.10324375
104	0xbe048b57	-0.12943779
105	0xbd32196c	-0.043481275
106	0xbdb9c1a6	-0.09070139
107	0x3da56607	0.08076101
108	0xbdeab95e	-0.11461137
109	0x3d7d655c	0.061864242
110	0x3e52e703	0.20595936
111	0xbd90cce0	-0.07070327
112	0xbd89d743	-0.06730511
113	0x3d4792e8	0.048724085
114	0xbe836a40	-0.25667
115	0xbd6c4d1f	-0.057690736
116	0x3d961ca0	0.073296785
117	0x3ca9ebb8	0.020742282
118	0xbe09fe4a	-0.1347591
119	0xbdd36515	-0.10322014
120	0xbc9f9961	-0.019482316
121	0xbba0fc6e	-0.0049129045
122	0xbdf53cb5	-0.119744696
123	0x3cb2b977	0.021816952
124	0x3defdf9e	0.117125735
125	0xbe40f9e5	-0.18845327
126	0x3e009e76	0.12560448
127	0x3e7cc39c	0.24683994
128	0xbe1dd44d	-0.15413018
129	0x3d80ee6a	0.06295474
130	0xbda04721	-0.07826067
131	0xbd730148	-0.059327394
132	0xbde6e56e	-0.11274229
133	0xbe4e055b	-0.2011923
134	0xbb9125d2	-0.0044295574
135	0x3cf49196	0.029854577
136	0x3b89a86b	0.004200985
137	0x3d54b3b3	0.051929187
138	0x3e0a46b2	0.1350353
139	0x3d0b3de6	0.033994578
140	0xbcb06541	-0.021532657
141	0x3d150109	0.03637794
142	0xbe61aeda	-0.22039357
143	0xbe4225fe	-0.18959805
144	0x3dcf9abf	0.10136937
145	0x3e564f7e	0.20928761
146	0xbc190b63	-0.009341094
147	0x3c51ad5b	0.012797679
148	0xbd52bcf9	-0.05144975
149	0xbe0dfd38	-0.13866127
150	0xbd92d403	-0.07169344
151	0xbdb264eb	-0.08710655
152	0x3a6f7028	0.0009133839
153	0x3e18aca1	0.14909603
154	0xbd7c2ba4	-0.061565056
155	0xbdc15d32	-0.09441604
156	0xbd607262	-0.054796584
157	0xbdc3887f	-0.09547519
158	0xbe4f8ec1	-0.202693
159	0x3da09454	0.07840791
160	0x3e35b490	0.1774466
161	0x3c2687f6	0.010164252
162	0x3c1d2109	0.009590396
163	0x3d9986dd	0.07496426
164	0xbdd690b3	-0.10476818
165	0xbcdcb6e1	-0.026942672
166	0xbe457f03	-0.19286732
167	0xbe838ef4	-0.25695002
168	0x3dcf1f61	0.10113407
169	0xbcf3facf	-0.02978268
170	0xbe795bad	-0.24351378
171	0x3d857214	0.06515899
172	0xbc33b269	-0.010967829
173	0xbcf12194	-0.029434957
174	0x3dc7c0bf	0.0975356
175	0x3c6884f9	0.014191859
176	0xbde2b42d	-0.11069522
177	0x3dbff0b5	0.09372083
178	0xbce0cff1	-0.027442904
179	0xbd3b54a8	-0.04573503
180	0x3db22185	0.086977996
181	0xbbfa8926	-0.007645744
182	0x3d015895	0.03157862
183	0xbcf09ce5	-0.029371688
184	0x3e413078	0.18866146
185	0x3d8d4b6e	0.06899153
186	0x3d01ed25	0.0317203
187	0x3dd1436f	0.1021794
188	0x3bfe7d9a	0.0077664377
189	0xbc2eb1ac	-0.010662477
190	0xbdcd2842	-0.10017444
191	0x3d425c93	0.047451567
192	0xbdb7e075	-0.08978359
193	0x3e3b5fc9	0.18298258
194	0x3dd52b9b	0.10408708
195	0x3e98fc74	0.29880106
196	0x3e40e947	0.18838988
197	0x3cc0e5f2	0.023547146
198	0xbc5218f4	-0.012823332
199	0x3d5aa5b0	0.05338067
200	0x3dcf0239	0.10107846
201	0xbd1d1afc	-0.038355812
202	0xbe03db94	-0.12876731
203	0xbc6e934a	-0.014561484
204	0xbdfe9425	-0.124306
205	0xbcd6cd8b	-0.026221057
206	0xbd814db7	-0.06313651
207	0x3e09b207	0.13446818
208	0x3de73e37	0.112911634
209	0xbce77b73	-0.028257107
210	0x3d570d6d	0.05250304
211	0x3d8e5674	0.069500834
212	0xbd1997ad	-0.037498165
213	0x3cc0c967	0.023533536
214	0x3c91406b	0.017730912
215	0x3d536ecf	0.051619347
216	0x3e019221	0.126534
217	0x3e0d5e7c	0.13805574
218	0x3e7066ab	0.23476665
219	0xbdd82d93	-0.105555676
220	0xbe52c441	-0.20582677
221	0xbd89da40	-0.06731081
222	0x3dbe76ba	0.09299989
223	0xbdbeec54	-0.0932242
224	0xbd8f9ea4	-0.0701268
225	0x3c7ae709	0.015313872
226	0x3d972abd	0.073811986
227	0xbe03ac8a	-0.12858787
228	0x3c702e3b	0.01465946
229	0xbd401619	-0.046896074
230	0xbdb952f1	-0.09049023
231	0x3db7ebcf	0.08980524
232	0xbd8b708b	-0.06808575
233	0xba9d2c3e	-0.0011991335
234	0x3e1a0fa9	0.15045036
235	0xbd946b40	-0.07247019
236	0xbe1220a4	-0.14270264
237	0x3d3a0a6c	0.045420095
238	0x3de5b30e	0.112157926
239	0xbd47b0f7	-0.04875275
240	0x3c5433ca	0.012951801
241	0xbdc0b4e5	-0.09409503
242	0x3dad0c66	0.084496304
243	0xbe20f56b	-0.1571862
244	0xbe17ce56	-0.14824805
245	0x3e02d714	0.12777358
246	0xbe4c3e2b	-0.1994559
247	0xbd685d13	-0.056729387
248	0x3d365900	0.04451847
249	0x3bda2bde	0.0066580614
250	0x3e62e717	0.22158466
251	0x3c940502	0.018068794
252	0xbcca4a03	-0.024693495
253	0x3dd4da74	0.10393229
254	0x3e5e926b	0.21735542
255	0xbaee2be3	-0.0018171038

body.block1.conv.bias f4 [32]
0	0xbbdc3de0	-0.0067212433
1	0x3d515b0b	0.051112216
2	0x3d2d6dd0	0.042341053
3	0x3bb68d13	0.0055710166
4	0xbcb3f7e8	-0.021968797
5	0x3d1667c2	0.036720045
6	0xbcb0f490	-0.021600991
7	0xbc81abcc	-0.01582899
8	0x3ac7a7ad	0.0015232466
9	0x3c34207e	0.010994075
10	0x3d2c081c	0.04199992
11	0x3c922031	0.017837616
12	0x3c0eb739	0.008710676
13	0x3d4eedc1	0.05051971
14	0x3d744567	0.0596365
15	0x3bfb45c6	0.0076682298
16	0x3cc0b591	0.023524078
17	0x3ccb47d5	0.024814526
18	0x3d4fed15	0.05076321
19	0x3c503382	0.012707593
20	0xbd451228	-0.04811302
21	0xbcbf852c	-0.023378931
22	0xbd440fab	-0.047866505
23	0x3c8a2bb7	0.016866548
24	0x3d584b27	0.052806046
25	0xbd48108c	-0.048843905
26	0x3d525123	0.05134691
27	0x3ba5f71e	0.005064859
28	0x3d48f66a	0.049063124
29	0xbd27d338	-0.04097292
30	0x3d6c30fd	0.057663906
31	0xbb98de66	-0.004665184

body.block1.norm.weight f4 [32]
0	0x3f98e61b	1.1945223
1	0x3fba401c	1.4550815
2	0x3f95e6b3	1.1711029
3	0x3fac1c53	1.3446144
4	0x3f9a8bcc	1.2073913
5	0x3fa0a5c6	1.255059
6	0x3f9dedca	1.2338192
7	0x3fb84e5f	1.4398917
8	0x3fa9c09e	1.3261907
9	0x3fa62f72	1.2983229
10	0x3fc9bf30	1.5761471
11	0x3fb13b45	1.3846213
12	0x3f969fda	1.1767533
13	0x3f88ac87	1.0677651
14	0x3fbdfac5	1.4842154
15	0x3fbdf068	1.4838991
16	0x3fab30fa	1.3374321
17	0x3fb5c8e4	1.4201932
18	0x3fa9d3ad	1.3267723
19	0x3faaa3bd	1.3331219
20	0x3fb34574	1.400557
21	0x3fb25051	1.3930761
22	0x3fcb3780	1.5876312
23	0x3fab21ef	1.3369731
24	0x3fb687ae	1.4260156
25	0x3f983b1c	1.1893039
26	0x3fa122f7	1.2588795
27	0x3fba7404	1.4566655
28	0x3fa678ce	1.3005617
29	0x3f9be967	1.2180604
30	0x3fbc6181	1.4717256
31	0x3fa76c6f	1.3079966

body.block1.norm.bias f4 [32]
0	0xbe2a728b	-0.16645257
1	0xbdd88742	-0.105726734
2	0xbeb5d07c	-0.35510623
3	0xbda315fb	-0.07963177
4	0xbe734636	-0.23757252
5	0xbe97a4e6	-0.29617995
6	0xbea43c1f	-0.3207712
7	0xbcd309a6	-0.025761437
8	0xbd3ff8f7	-0.04686829
9	0xbe8c1b5d	-0.27364627
10	0xbed9e47f	-0.4255714
11	0xbebbd09c	-0.36682594
12	0xbf03ccbb	-0.5148427
13	0xbe19dc82	-0.15025523
14	0xbe8e4e2d	-0.27794018
15	0xbd859ca6	-0.06524019
16	0xbe3ba661	-0.18325187
17	0xbea91307	-0.3302233
18	0xbf0f295e	-0.55922496
19	0xbec5a424	-0.38601792
20	0x3d01979b	0.031638723
21	0x3e72c457	0.2370771
22	0xbe4dc5e9	-0.20095028
23	0x3e972ebe	0.2952785
24	0xbf0ef3d1	-0.55840784
25	0x3e354330	0.17701411
26	0xbeb9f709	-0.36321285
27	0x3dccf84b	0.100082956
28	0xbedfc0c0	-0.43701744
29	0xbe9c5914	-0.3053671
30	0xbdb66153	-0.08905282
31	0xbf0fe376	-0.5620645

body.block1.norm.running_mean f4 [32]
0	0xbf4499c5	-0.76797134
1	0xbfd4de6d	-1.6630379
2	0x3f836c63	1.0267452
3	0x3dda961e	0.10673164
4	0x406eef72	3.7333646
5	0xc0170975	-2.3599522
6	0xbec42388	-0.38308358
7	0x3e8b4a60	0.2720518
8	0xbf0259e3	-0.50918406
9	0xbe571d1e	-0.21007201
10	0xc00b6990	-2.178318
11	0xbf872e11	-1.0560933
12	0x3f814271	1.0098401
13	0x3fbd45a8	1.4786882
14	0xc086f78b	-4.2177176
15	0xc071ef26	-3.7802215
16	0xbfbab512	-1.4586508
17	0xbf29f3f9	-0.663879
18	0x4095f895	4.6865945
19	0xbe3c686e	-0.18399212
20	0xbfc9e07b	-1.5771631
21	0xc0067b27	-2.1012666
22	0x3fcf55a9	1.6198016
23	0xc04ebc92	-3.2302594
24	0xc002fcd6	-2.046682
25	0x3e59130f	0.21198677
26	0xbfa6cd74	-1.3031449
27	0xbe00039c	-0.12501377
28	0x404aafc8	3.1669788
29	0xbfa1bf7f	-1.2636565
30	0xc02761c6	-2.6153426
31	0xbf10460d	-0.5635689

body.block1.norm.running_var f4 [32]
0	0x40921103	4.5645766
1	0x40de60e1	6.949326
2	0x40dc2494	6.879465
3	0x4082cdc2	4.087617
4	0x40e5ed3b	7.185209
5	0x4111e46e	9.118269
6	0x406e104c	3.7197447
7	0x40913a4c	4.5383663
8	0x40bb993a	5.8624544
9	0x4110aa31	9.041551
10	0x41012b49	8.073068
11	0x4094ef25	4.6541924
12	0x4136c0be	11.422056
13	0x417577f1	15.341783
14	0x410ef04d	8.933667
15	0x410a985b	8.662196
16	0x40c85858	6.260784
17	0x40a19d0d	5.050421
18	0x40a1d08e	5.0567083
19	0x40f263a0	7.5746613
20	0x4110d8ab	9.052897
21	0x40707e43	3.7577064
22	0x4147f9cb	12.498485
23	0x41113166	9.07456
24	0x406d6030	3.7089958
25	0x4147c6e9	12.486062
26	0x4075a81d	3.8383858
27	0x40c4b6c7	6.1473117
28	0x408a7bb6	4.3276014
29	0x412749c4	10.455509
30	0x40c46ac7	6.1380343
31	0x4058934e	3.3839908

body.block2.conv.weight f4 [32, 32, 3, 3]
0	0xbda4d4a5	-0.08048371
1	0x3ddad126	0.10684423
2	0xbd26fcbd	-0.040768374
3	0x3df62314	0.12018409
4	0x3dee943a	0.11649366
5	0xbccd24bc	-0.02504193
6	0x3d0e7a6f	0.03478473
7	0xbac52aad	-0.0015042626
8	0x3cc9d0aa	0.024635632
9	0x3dc77101	0.09738351
10	0xbdbc9621	-0.09208322
11	0xbde85867	-0.113449864
12	0xbd815bd1	-0.06316341
13	0xbd37aaad	-0.044840503
14	0xbce60c4a	-0.028082032
15	0xbdf18c76	-0.11794369
16	0xbdcbb97b	-0.09947487
17	0xbe0ece53	-0.13945894
18	0x3e35b067	0.17743073
19	0x3e1c0d1a	0.15239373
20	0x3d9e19f0	0.07719791
21	0xbd5953b8	-0.053058356
22	0xbcf5de87	-0.030013336
23	0x3cea0ca6	0.028570484
24	0xbe887d14	-0.26657927
25	0xbd4e8406	-0.050418876
26	0xbd0b7394	-0.03404577
27	0xbe4ba02f	-0.19885324
28	0xbe184f47	-0.14873992
29	0x3dfa8fde	0.12234472
30	0xbebc45dc	-0.36772048
31	0xbddcde55	-0.10784594
32	0xbd9f46c4	-0.07777169
33	0x3dcf7230	0.101292014
34	0x3dcc2c5c	0.099693984
35	0x3ca30a36	0.01990233
36	0xbd26edac	-0.040754005
37	0xbdc8007d	-0.09765718
38	0xbd28d4f2	-0.041218705
39	0xbd918d9a	-0.071070865
40	0xbbee7e1a	-0.007278216
41	0xbe0f97ff	-0.14022826
42	0xbd4059b5	-0.04696055
43	0xbe05f23f	-0.13080691
44	0xbe9b8390	-0.30373812
45	0x3dcd9bb5	0.100394644
46	0xbdc85430	-0.097816825
47	0xbd273ef6	-0.04083153
48	0xbd8be6fe	-0.06831168
49	0xbd5c98fa	-0.053856827
50	0xbe068568	-0.13136828
51	0xbd268599	-0.040654752
52	0x3d10624e	0.03525
53	0x3d0dd633	0.034628104
54	0xbdb124ac	-0.08649573
55	0xbd965e6b	-0.073422275
56	0xbcf45b3f	-0.029828666
57	0x3d2e2dbc	0.042524084
58	0x3df25468	0.118325055
59	0x3e036333	0.1283081
60	0xbd55496d	-0.052071977
61	0x3cb905be	0.022585746
62	0xbd7ae6fd	-0.061255444
63	0x3d908709	0.07057006
64	0x3e096ff4	0.13421613
65	0xbd6159bc	-0.055017218
66	0x3d8d692a	0.06904824
67	0x3db62866	0.08894424
68	0xbdf93054	-0.12167421
69	0x3e4f8186	0.20264253
70	0x3df73c49	0.12072045
71	0xba8d4213	-0.0010777138
72	0x3df03198	0.11728209
73	0x3da6cef7	0.08144944
74	0xbe30655a	-0.17226163
75	0x3d4de214	0.050264433
76	0xbcc94ef9	-0.02457379
77	0xbddcc176	-0.10779087
78	0x3d0a917b	0.033830147
79	0xbc9a3a1d	-0.018826539
80	0xbd27d304	-0.040972725
81	0xbc85fe99	-0.016356753
82	0xbd794b4c	-0.060862824
83	0x3d8fb4b4	0.07016888
84	0x3d211361	0.03932512
85	0x3dd3238b	0.10309514
86	0x3df30e4b	0.118679605
87	0x3d06d4bc	0.032917723
88	0xbdb80e20	-0.08987069
89	0xbd1411aa	-0.03614966
90	0x3c9e358f	0.019312648
91	0x3ba6d0ba	0.0050908
92	0xbe01e270	-0.12684035
93	0xbe2a4d4c	-0.16631049
94	0xbe1524e2	-0.14564851
95	0xbe10331c	-0.14081997
96	0xba1d1e86	-0.0005993623
97	0xbe53cef4	-0.20684415
98	0xbd1576e9	-0.036490355
99	0xbe5dc4cf	-0.21657108
100	0xbe135f6c	-0.1439187
101	0x3ca11dd3	0.019667542
102	0xbc8386f1	-0.016055556
103	0x3e249f25	0.16076334
104	0x3d80d7aa	0.06291135
105	0x3db71e24	0.08941296
106	0x3dbdf455	0.09275118
107	0xbdae4d0d	-0.0851079
108	0x3e287e4b	0.16454427
109	0x3e2b0771	0.16702057
110	0x3df593da	0.11991091
111	0x3e2b8973	0.16751651
112	0x3df0f014	0.11764541
113	0x3e1d494a	0.15359989
114	0x3cd0eb69	0.025502877
115	0x3d9b898f	0.075945966
116	0x3e18f276	0.14936242
117	0x3b62d914	0.0034614252
118	0x3e18e732	0.14931944
119	0x3d65215c	0.055940017
120	0x3d52f0ea	0.051499285
121	0x3d9323c3	0.071845554
122	0xbd8bf3c7	-0.06833606
123	0xbd240ea9	-0.040053044
124	0xbdb95030	-0.09048498
125	0xbe319ac8	-0.173442
126	0xbde437c7	-0.11143451
127	0x3d230825	0.03980269
128	0x3d2e8452	0.04260666
129	0xbd45e3df	-0.048313018
130	0xbca2a09a	-0.019851971
131	0x3d64ec61	0.05588949
132	0x3cbb4a47	0.022862567
133	0x3cadfa2e	0.021237459
134	0x3e08cb10	0.13358712
135	0x3de50502	0.11182596
136	0xbc67928b	-0.01413406
137	0x3c3e9765	0.011632775
138	0x3ac8ab4c	0.001530984
139	0xbdd72c62	-0.10506512
140	0x3db2e136	0.08734362
141	0x3dac878f	0.08424293
142	0xbdf89e3c	-0.12139556
143	0xbcea47b3	-0.028598642
144	0xbd27d8eb	-0.040978353
145	0x3d4720b0	0.048615158
146	0x3e832a63	0.25618276
147	0xbd14abe6	-0.036296748
148	0x3c8e5e23	0.017378872
149	0x3e0ca0ee	0.13733265
150	0xbe720634	-0.23635179
151	0xbe863d9b	-0.26218876
152	0xbde1d481	-0.1102686
153	0x3e80c1e4	0.25147927
154	0x3e2e9239	0.17047967
155	0x3e46f0f1	0.1942785
156	0x3ddf843e	0.10913895
157	0x3dbf0fb3	0.09329166
158	0x3d39dec2	0.045378454
159	0xba4a8e8d	-0.000772693
160	0xbe154e54	-0.14580661
161	0xbd552357	-0.052035656
162	0x3e486031	0.19567944
163	0x3cceb9f6	0.025235157
164	0xbe758c60	-0.2397933
165	0x3d25d9ca	0.040490903
166	0xbc9f6fd8	-0.019462511
167	0xbc55cd6f	-0.0130494675
168	0xbdbbcb62	-0.091696516
169	0xbd892a6b	-0.06697544
170	0xbda4ed1b	-0.08053037
171	0xbd977c9d	-0.07396815
172	0xbe08870c	-0.13332766
173	0xbe8b3c00	-0.27194214
174	0x3d92911e	0.07156585
175	0x3d9a9660	0.07548213
176	0xbe905e6f	-0.28197047
177	0xbdc2ddc6	-0.09514956
178	0xbd59acfe	-0.053143494
179	0xbe0b2a99	-0.13590468
180	0xbdc8db72	-0.09807481
181	0xbcf09f3f	-0.02937281
182	0x3d3bb812	0.04582984
183	0xbcba2f4d	-0.022727633
184	0xbd3ef21d	-0.046617616
185	0x3c51132a	0.012760917
186	0x3dd7ec18	0.10543078
187	0x3b226fc7	0.0024785863
188	0x3d80d557	0.06290691
189	0x3d99d167	0.075106435
190	0x3d7e0071	0.06201214
191	0x3d8fe684	0.07026389
192	0x3cead1ff	0.028664587
193	0xbda0c898	-0.0785076
194	0x3c39ca90	0.011339799
195	0x3e351e4d	0.1768734
196	0xbcdff745	-0.027339587
197	0x3e384426	0.17994747
198	0xbdddf0c8	-0.10836941
199	0xbd80153b	-0.062540494
200	0x3d0d55b9	0.03450558
201	0xbe136922	-0.14395574
202	0xbdab0257	-0.08350056
203	0xbd99dee7	-0.075132184
204	0xbe2c1606	-0.16805276
205	0xbe03f9d2	-0.12888268
206	0xbd984546	-0.07435088
207	0x3ddbb678	0.107281625
208	0x3d10d274	0.035356954
209	0x3d7235a3	0.059133183
210	0x3d5b5aa5	0.053553242
211	0xbe0084f5	-0.12550719
212	0xbdd95392	-0.10611643
213	0x3dc0a133	0.09405746
214	0x3d19dc7c	0.037563786
215	0x3e8482a3	0.25880918
216	0x3cd4d056	0.025978249
217	0xbd8ecd26	-0.06972723
218	0xbd87e96e	-0.0663632
219	0xbe85fd74	-0.26169932
220	0xbd677127	-0.056504395
221	0xbdb56809	-0.08857734
222	0xbe0979f4	-0.13425428
223	0xbda1b514	-0.07895866
224	0xbe1d7822	-0.15377858
225	0xbcba6094	-0.02275113
226	0x3d741382	0.059588917
227	0xbbcca58c	-0.0062453207
228	0xbe11565e	-0.14193103
229	0x3cad175c	0.021129303
230	0xbd1ba76e	-0.03800147
231	0xbd559fc9	-0.052154336
232	0xbdb24bcd	-0.08705864
233	0xbd847d39	-0.06469197
234	0x3ca39ec4	0.019973166
235	0x3e2e8bee	0.17045566
236	0xbe40f477	-0.18843256
237	0x3e0e35b9	0.13887681
238	0xbc842309	-0.016129987
239	0xbd02d781	-0.0319438
240	0xbd8184e0	-0.06324172
241	0xbdf5e30f	-0.120061986
242	0xbdfea180	-0.124331474
243	0xbe82f99c	-0.25581062
244	0xbe9577d1	-0.29192975
245	0xbdabfed5	-0.08398215
246	0x3d857704	0.06516841
247	0xbc1cf591	-0.009580032
248	0x3c38b0e0	0.011272639
249	0xbdbb4e08	-0.09145743
250	0x3d294080	0.041321278
251	0x3d80ddfa	0.06292339
252	0x3e4bd350	0.19904828
253	0xbd68d03c	-0.056839213
254	0xbdfc62d7	-0.1232354
255	0xbcd2970d	-0.025706792

body.block2.conv.bias f4 [32]
0	0x3b9b4e76	0.004739578
1	0x3caf76c5	0.021418938
2	0x3d314309	0.04327682
3	0xbc7b9bcc	-0.015356969
4	0x3900c3bd	0.0001227995
5	0xbce79fa4	-0.028274365
6	0xbcdc8c89	-0.026922481
7	0xbc0450b3	-0.008075881
8	0xbc7469fa	-0.014917845
9	0xbd24a5e4	-0.040197268
10	0x3cd30882	0.025760893
11	0x3b572add	0.0032831945
12	0x3d1e0313	0.03857715
13	0x3c1f8929	0.009737291
14	0x3cfc2913	0.030781304
15	0xbc785f4c	-0.015159439
16	0xbbec9a49	-0.0072205407
17	0xbce40b69	-0.027837472
18	0xbd14a04c	-0.036285684
19	0xbc297034	-0.010341693
20	0xbcfb2691	-0.030658038
21	0xbd580e9b	-0.052748304
22	0x3cc994d1	0.024607094
23	0xbd2cb869	-0.042168055
24	0xbd1129ce	-0.03544026
25	0xbd5afdae	-0.053464584
26	0x3d3e41c4	0.046449438
27	0x3be95af5	0.0071214386
28	0x3c8e8889	0.01739909
29	0x3b4ec77b	0.0031552005
30	0x3d3f9ee7	0.0467824
31	0x3b9c1626	0.0047633825

body.block2.norm.weight f4 [32]
0	0x3fbb9023	1.4653362
1	0x3fa9cc7a	1.3265526
2	0x3fba6b1a	1.4563935
3	0x3fae0a70	1.3596935
4	0x3fbe122e	1.4849298
5	0x3fbaa048	1.4580164
6	0x3fabd0b8	1.3423071
7	0x3fb1a0d3	1.3877205
8	0x3fb368f2	1.4016402
9	0x3f9de513	1.2335533
10	0x3fb7bd7d	1.4354702
11	0x3fbd0b74	1.476912
12	0x3fb0bf01	1.380829
13	0x3fa8f6a0	1.3200264
14	0x3fa5ead2	1.2962286
15	0x3faf40fa	1.3691704
16	0x3fa40caa	1.2816365
17	0x3fb4343f	1.4078444
18	0x3f9fbb48	1.2479029
19	0x3fad795e	1.3552663
20	0x3facf29b	1.3511537
21	0x3fc75bad	1.5574852
22	0x3fb6f5bb	1.4293741
23	0x3fb9e1ba	1.4522011
24	0x3fade0a9	1.3584186
25	0x3fafd106	1.3735664
26	0x3fbc8dc9	1.4730769
27	0x3fa6c4fb	1.3028864
28	0x3faf9109	1.3716136
29	0x3fb94030	1.4472713
30	0x3fa052de	1.2525289
31	0x3fcde775	1.608626

body.block2.norm.bias f4 [32]
0	0xbe966cb1	-0.293798
1	0xbdc5b065	-0.09652785
2	0xbde38796	-0.11109845
3	0xbe81ff6a	-0.25390178
4	0xbf176900	-0.5914459
5	0xbcfee73c	-0.03111612
6	0x3d82d70d	0.06388674
7	0x3ce00bfc	0.027349465
8	0xbe37638d	-0.1790907
9	0xbe5df272	-0.21674517
10	0xbe8546ae	-0.26030487
11	0xbed7b484	-0.4212991
12	0xbe92213c	-0.2854098
13	0xbeb35c23	-0.35031232
14	0xbea0009d	-0.31250468
15	0xbd70fcd5	-0.05883487
16	0xbe7357f2	-0.23764017
17	0xbe8b5ed8	-0.27220798
18	0xbe8cf475	-0.27530256
19	0xbe14cb4f	-0.14530681
20	0xbd9125b6	-0.07087271
21	0xbec9a174	-0.3938099
22	0xbe41874b	-0.18899266
23	0xbf123967	-0.5711884
24	0xbdba341a	-0.09091969
25	0x3cee68f0	0.029102772
26	0xbf25d205	-0.6477359
27	0xbe1b6695	-0.1517585
28	0xbe574179	-0.2102107
29	0x3dcda976	0.10042088
30	0xbdd071b6	-0.10177939
31	0xbd9b9683	-0.07597067

body.block2.norm.running_mean f4 [32]
0	0xbf95af5e	-1.1694143
1	0x3ef5ada0	0.47984028
2	0x3f6ead5e	0.9323329
3	0xbf2c4e6a	-0.6730715
4	0x3f327f38	0.6972537
5	0x3f22ba6b	0.635657
6	0xc057e4a0	-3.3733292
7	0xbe73f921	-0.23825504
8	0xbf2d744d	-0.67755586
9	0xbec1f2c9	-0.37880543
10	0x3f944b7e	1.1585538
11	0xbfa37f6d	-1.2773262
12	0xbf4875e5	-0.7830489
13	0xbf9a1b6a	-1.2039616
14	0x3fdf5043	1.7446369
15	0x3f23dfb9	0.6401325
16	0x3f5c3b9d	0.8602846
17	0xc00e3ca1	-2.2224505
18	0x3f913d8d	1.1346909
19	0xbfab2e97	-1.3373593
20	0xbfc668c0	-1.5500717
21	0xbf8d647e	-1.1046293
22	0x3fb8dfae	1.4443262
23	0xbefd026d	-0.49415913
24	0xc010d5a1	-2.2630389
25	0xbdf91065	-0.1216133
26	0x3fa9c13e	1.3262098
27	0x3e3dd1f5	0.18537124
28	0x3a18f99c	0.00058355345
29	0xbf09070d	-0.53526384
30	0x3f106e85	0.5641864
31	0xbd0975cf	-0.033559617

body.block2.norm.running_var f4 [32]
0	0x40308764	2.7582636
1	0x404b0910	3.1724281
2	0x404842b2	3.1290708
3	0x4045ee82	3.0926824
4	0x405561d3	3.3340957
5	0x40010ea0	2.0165176
6	0x405fe2a9	3.4982092
7	0x40591b6c	3.3922987
8	0x4000d02b	2.0127056
9	0x405e99a6	3.478128
10	0x407f19fd	3.9859612
11	0x401ff0d0	2.499073
12	0x40895f99	4.2929196
13	0x401b8724	2.4301233
14	0x40ab1a51	5.3469625
15	0x4063b50a	3.5579247
16	0x40671d25	3.6111538
17	0x4025fb89	2.5934775
18	0x407c1bdd	3.9392006
19	0x40380d44	2.8758097
20	0x40162143	2.3457801
21	0x4010709b	2.256873
22	0x40070a85	2.110017
23	0x403b387c	2.9253225
24	0x3fed015e	1.8516042
25	0x3fea73b3	1.8316559
26	0x401d94c8	2.462206
27	0x4085a461	4.176316
28	0x400176dd	2.0228798
29	0x40a075f6	5.0143995
30	0x402588c4	2.5864725
31	0x4047c11f	3.1211622

body.block3.conv.weight f4 [32, 32, 3, 3]
0	0x3d327cf5	0.0435762
1	0x3d18a1f9	0.037263844
2	0xbe6c3493	-0.2306693
3	0xbcc581f2	-0.024109814
4	0x3e5e20fb	0.21692269
5	0xbe0d3388	-0.13789189
6	0x3dbb7627	0.09153395
7	0x3d27b9a5	0.04094853
8	0x3d5f7090	0.054550707
9	0xbd2aabe9	-0.041667853
10	0xbdf4af9d	-0.11947558
11	0xbd13d0fd	-0.03608798
12	0x3e3a2473	0.18177967
13	0x3c4f4295	0.012650152
14	0xbd9f8f01	-0.07790948
15	0x3cf33865	0.029689977
16	0xbd75d9c8	-0.060022146
17	0x3cf9bdc5	0.030485997
18	0xbdda2156	-0.106508896
19	0x3c642a85	0.013926153
20	0x3cd211a6	0.025643181
21	0x3ca4a147	0.020096434
22	0x3c0b1ea6	0.008491194
23	0xbe2b6546	-0.16737852
24	0x3e32fc60	0.17479086
25	0x3bbb0202	0.0057070265
26	0xbe3509b7	-0.17679487
27	0x3c9c75cb	0.019099137
28	0xbcea78ac	-0.028621994
29	0x3d5f49ee	0.054513864
30	0x3c071eef	0.008247121
31	0xbcb48ae2	-0.02203888
32	0xbe1331cb	-0.14374463
33	0x3df9475c	0.12171814
34	0xbd55b0a0	-0.052170396
35	0xbd3b7fbc	-0.045776114
36	0x3d6e5ec8	0.05819586
37	0xbdd36b09	-0.1032315
38	0x3da4d9d7	0.08049362
39	0xbd59615b	-0.05307136
40	0xbde4a807	-0.11164861
41	0x3e277d11	0.16356303
42	0x3c11396e	0.00886379
43	0x3d3c96dc	0.04604231
44	0x3e84db8e	0.25948757
45	0xbe61cbda	-0.2205042
46	0x3d01e5d2	0.031713314
47	0xbe42feca	-0.19042507
48	0xbc62d2ae	-0.013844175
49	0x3d7e0cdd	0.062023986
50	0xbe90dc8c	-0.28293264
51	0xbe61af72	-0.22039583
52	0x3da5a035	0.08087198
53	0x3c1cac15	0.009562512
54	0x3d7d2142	0.061799295
55	0x3cb3fde9	0.02197166
56	0x3c32ab8e	0.01090516
57	0x3d9b8e44	0.075954944
58	0x3de71dbc	0.11284968
59	0x3b955b6c	0.0045580175
60	0xbdd0ba7c	-0.10191819
61	0x3d94cb62	0.07265355
62	0x3d995db3	0.07488575
63	0x3bca84a1	0.0061803614
64	0x3d86847b	0.065682374
65	0xbc37402e	-0.011184735
66	0xbdc844cb	-0.09778746
67	0xbd9f49dd	-0.0777776
68	0x3c32355e	0.010876982
69	0x3ce5eaee	0.028066125
70	0xbe228679	-0.1587161
71	0xbe400885	-0.1875325
72	0x3e18d0e6	0.14923438
73	0x3e095265	0.13410337
74	0x3d913394	0.07089916
75	0xbb9cf47b	-0.0047898865
76	0xbcfd8675	-0.030947903
77	0xbe17af58	-0.14812982
78	0x3ce9036c	0.028444014
79	0xbcc5b352	-0.024133358
80	0xbe07fe95	-0.13280709
81	0xbdc59bb1	-0.096488364
82	0xbe0c2a4c	-0.1368801
83	0xbd5e3cde	-0.054257266
84	0x3d71104b	0.05885343
85	0x3d83ccaf	0.06435525
86	0x3d57b2f7	0.05266091
87	0xbe6bca12	-0.23026302
88	0xbdef4340	-0.11682749
89	0x3d767b69	0.060176287
90	0xbe19d6eb	-0.15023391
91	0x3d4f0f87	0.050551917
92	0x3cd7fa73	0.02636454
93	0xbe1a75bf	-0.15083979
94	0xbc9c9bce	-0.019117262
95	0x3e26e06e	0.1629655
96	0xbe0c6a4a	-0.13712421
97	0x3d7c2dfd	0.061567295
98	0x3cda9497	0.026682181
99	0x3dd1d587	0.10245805
100	0xbbf81c11	-0.007571705
101	0x3d462feb	0.048385542
102	0xbd979df5	-0.07403175
103	0xbddbdee7	-0.107358746
104	0xbe02ef88	-0.12786686
105	0xbe328912	-0.174351
106	0xbde1ad7e	-0.11019419
107	0xbe4c759a	-0.19966736
108	0x3e6d2d80	0.23161888
109	0x3d07a1fd	0.03311347
110	0xbe0782f4	-0.13233548
111	0x3dfc84c3	0.1233001
112	0x3d4f1b1b	0.05056296
113	0xbe352230	-0.17688823
114	0x3c634544	0.013871495
115	0xba606279	-0.00085595954
116	0xbe20ed23	-0.1571546
117	0xbd213f94	-0.039367273
118	0xbce386a3	-0.02777416
119	0xbd532c3c	-0.051555857
120	0xbdc35578	-0.09537786
121	0xbdad9b8c	-0.08476934
122	0xbdd42687	-0.10358911
123	0x3da3e0fe	0.08001898
124	0x3d30d104	0.043168083
125	0x3dbb19fc	0.091358155
126	0x3d5204e9	0.051274214
127	0xbdab3d7b	-0.08361336
128	0x3c32588c	0.010885369
129	0xbe90d3d9	-0.28286627
130	0xbcaa83a7	-0.02081473
131	0x3d84645c	0.064644545
132	0xbe8ab533	-0.2709137
133	0xbdd130b4	-0.102143675
134	0x3e070fe9	0.13189663
135	0x3e0dbfc6	0.13842687
136	0xbe1cfcfa	-0.15330878
137	0xbd04b503	-0.03239919
138	0x3d215a89	0.03939298
139	0x3d08b6c7	0.033377435
140	0xbddf91e5	-0.10916499
141	0xbe839909	-0.25702694
142	0xbe35e6fd	-0.17763896
143	0xbe8c25d0	-0.273726
144	0xbea02e15	-0.31285158
145	0xbdd3442c	-0.10315737
146	0xbd1573f4	-0.036487535
147	0xbc605455	-0.013691981
148	0xbcc1dae9	-0.023663955
149	0xbcfa9f21	-0.030593457
150	0x3dfa17f0	0.12211597
151	0x3de3d431	0.11124457
152	0x3e18f1bd	0.14935966
153	0x3d92fde0	0.07177329
154	0x3e546a22	0.20743611
155	0x3e5ae435	0.21376117
156	0x3d1d5fe4	0.038421527
157	0x3e06ca0a	0.1316301
158	0xbd7c3e9f	-0.061583158
159	0xbac1c210	-0.0014782567
160	0x3cd2c03f	0.025726436
161	0x3da9b71d	0.08286879
162	0x3dfc6a67	0.12324982
163	0x3cef1e53	0.029189264
164	0xbe1241fa	-0.1428298
165	0x3e225158	0.15851343
166	0x3ddcc531	0.10779799
167	0xbd8677f2	-0.065658465
168	0x3d68081f	0.05664837
169	0xbbcc9031	-0.006242775
170	0xbc0f52b7	-0.008747748
171	0x3e17381a	0.14767495
172	0xbc89a83f	-0.016803859
173	0xbdea330e	-0.11435519
174	0x3e821c4c	0.25412214
175	0xbd9a71dc	-0.07541248
176	0x3cbafd70	0.022825927
177	0x3c41a745	0.011819665
178	0xbdd5d75d	-0.10441468
179	0xbdd0019f	-0.10156559
180	0xbd98acef	-0.074548595
181	0xbd9900e9	-0.07470877
182	0x3d70c076	0.058777295
183	0xbe2b674b	-0.16738622
184	0xbdde7f5d	-0.10864136
185	0x3de9a95f	0.11409258
186	0xbdbc2f66	-0.09188728
187	0xbc649b62	-0.013953062
188	0x3d01489b	0.031563383
189	0xbd112474	-0.035435155
190	0xbbd61b65	-0.0065340274
191	0xbe34db2f	-0.17661737
192	0x3d54c0c1	0.051941637
193	0x3d82e9a7	0.06392222
194	0x3e2e3dec	0.17015809
195	0xbd95d892	-0.07316698
196	0x3bca2e10	0.006170042
197	0x3db71422	0.08939387
198	0x3e680846	0.22659406
199	0x3db3d597	0.087809734
200	0x3d40f4f9	0.047108624
201	0x3da3cd9d	0.07998202
202	0xbd5523ad	-0.052035976
203	0xbd60968f	-0.054831084
204	0x3c94c9fa	0.018162716
205	0xbd8740ad	-0.06604133
206	0x3d61aecc	0.05509834
207	0xbd11a8f6	-0.035561524
208	0x3c94f982	0.01818538
209	0xbcbccca3	-0.023046797
210	0xbe78d432	-0.24299696
211	0xbd84f1e9	-0.06491453
212	0x3ba5ee97	0.0050638425
213	0x3d2e8064	0.04260291
214	0x3da2cfba	0.07949777
215	0x3de64351	0.11243308
216	0x3cdf3382	0.02724624
217	0x3d9025da	0.070384696
218	0x3e20a68b	0.15688531
219	0x3d6233df	0.05522525
220	0x3d9ebe93	0.07751193
221	0xbd034ea1	-0.03205741
222	0x3d6d2c41	0.057903532
223	0xbd0e36e8	-0.03472033
224	0xbe1ee498	-0.15516889
225	0x3db21734	0.08695832
226	0x3dc99d08	0.098444045
227	0xbd4c6d5d	-0.049908984
228	0xbcf2abce	-0.029622938
229	0x3c9444c4	0.018099196
230	0xbb199fa6	-0.0023441105
231	0x3bfce0c7	0.0077172252
232	0x3c2a7697	0.010404251
233	0xbdfd338d	-0.12363348
234	0xbeba943e	-0.36441225
235	0x3d119a38	0.035547465
236	0xbc04ea5b	-0.008112515
237	0xbc5e9a3a	-0.013586575
238	0x3c14fcbb	0.009093459
239	0xbc7622fc	-0.015022989
240	0xbdbc9d81	-0.09209729
241	0xbcf057f4	-0.029338814
242	0xbd936ea4	-0.071988374
243	0xbd344435	-0.04401036
244	0xbd468571	-0.048467103
245	0xbbd6b3bd	-0.006552188
246	0xbe0d7fed	-0.13818331
247	0xbd5f3acc	-0.054499432
248	0xbbca37a0	-0.006171182
249	0xbe70a44e	-0.23500177
250	0xbdd6ffcd	-0.10498009
251	0xbd1f070c	-0.03882508
252	0xbdcfc485	-0.10144905
253	0x3db5bbac	0.08873686
254	0x3d8c5ac3	0.06853249
255	0xbc8cda93	-0.017194068

body.block3.conv.bias f4 [32]
0	0x3d5c7c83	0.05382968
1	0xbd3c5794	-0.04598196
2	0xbd46bdd0	-0.048520863
3	0xbd8a8f38	-0.06765598
4	0xbce1eec2	-0.027579669
5	0xbd3fdc2d	-0.046840835
6	0x3d0a5851	0.03377563
7	0xbb385be5	-0.0028130945
8	0x3d195ba1	0.0374409
9	0xbd2f91fa	-0.042863823
10	0x3cb375b9	0.02190672
11	0x3cf450a3	0.029823607
12	0xbb96ead8	-0.0046056323
13	0x3d1f3f2c	0.038878605
14	0xbcf6bae8	-0.03011842
15	0xbd4913ae	-0.049091034
16	0xb979f06a	-0.00023836052
17	0x3d1a9ef4	0.037749246
18	0xbcca9e69	-0.024733739
19	0xbc255d35	-0.010093023
20	0x3d115e71	0.035490457
21	0x3cf058ab	0.029339155
22	0xbd2c40c3	-0.04205395
23	0x3caa6f0d	0.020804906
24	0xbb5544f9	-0.0032542332
25	0x3ce7c0b4	0.02829013
26	0x3d2a8782	0.041633137
27	0xbc93372d	-0.017970646
28	0xbd43dda1	-0.047818784
29	0xb98750fe	-0.0002580955
30	0xbd2533bf	-0.040332552
31	0xbc081dc4	-0.008307878

body.block3.norm.weight f4 [32]
0	0x3ef57ddb	0.47947583
1	0x3f0b8d2e	0.545123
2	0x3f1d0e92	0.6135036
3	0x3f416b1a	0.7555405
4	0x3f1ff659	0.6248527
5	0x3ef2b06f	0.47400233
6	0x3f1476a8	0.57993555
7	0x3eebec86	0.4607889
8	0x3f2ef5b0	0.6834364
9	0x3f0ffe8b	0.56247777
10	0x3f2a3700	0.66490173
11	0x3f11e933	0.5699646
12	0x3f045d72	0.51705086
13	0x3f0d2f72	0.5515052
14	0x3f060fc7	0.52367824
15	0x3f0d2ba7	0.55144733
16	0x3f178b29	0.59196717
17	0x3eeb85f2	0.4600063
18	0x3f2346e3	0.6378004
19	0x3f0905d7	0.53524536
20	0x3f0d0a2e	0.5509366
21	0x3ef6f469	0.48233345
22	0x3edc41f4	0.43019068
23	0x3f090981	0.53530127
24	0x3ebf098a	0.37311965
25	0x3f08ea12	0.5348216
26	0x3f072060	0.52783775
27	0x3f10ac48	0.5651288
28	0x3f376e7d	0.71652967
29	0x3f01563c	0.5052221
30	0x3ef2f863	0.4745513
31	0x3ed37539	0.4130037

body.block3.norm.bias f4 [32]
0	0xbebe6dc4	-0.3719312
1	0xbd2f7332	-0.04283447
2	0xbedec848	-0.43512177
3	0xbf28d12f	-0.6594419
4	0xbf214c2b	-0.6300685
5	0xbed0f486	-0.40811557
6	0xbef7d588	-0.484051
7	0xbe5973eb	-0.21235625
8	0xbf3d8592	-0.7403194
9	0xbe846f49	-0.25866154
10	0xbf08a9df	-0.533842
11	0xbef17036	-0.47155923
12	0xbec3c6f5	-0.3823773
13	0xbf2bc861	-0.6710263
14	0xbed136a4	-0.40862
15	0xbeb3a170	-0.35084105
16	0xbea1ac6e	-0.31576866
17	0xbefd9a5d	-0.49531832
18	0xbef69618	-0.48161387
19	0xbeba377f	-0.36370465
20	0xbf01ecc7	-0.5075192
21	0xbe92b45c	-0.28653228
22	0xbe3a1860	-0.18173361
23	0xbed990af	-0.42493197
24	0xbe9a923d	-0.30189696
25	0xbeccfd3a	-0.40036947
26	0xbf0332eb	-0.5124957
27	0xbefdc383	-0.49563226
28	0xbf43319f	-0.7624759
29	0xbe868f7c	-0.26281345
30	0xbdc473d2	-0.095924035
31	0xbee21799	-0.4415863

body.block3.norm.running_mean f4 [32]
0	0xbf9d3749	-1.2282497
1	0x3eefb536	0.4681794
2	0xbe6020cc	-0.21887511
3	0xbfc52575	-1.5402056
4	0xc0329963	-2.790612
5	0xc0510412	-3.2658734
6	0xbfca8aa5	-1.5823561
7	0xbf9ba68a	-1.2160199
8	0xbfacc6b0	-1.3498135
9	0xbf6ec687	-0.9327168
10	0xc0161839	-2.3452284
11	0xbfc8fa65	-1.5701414
12	0xbfa13857	-1.2595319
13	0xbfd91e83	-1.6962436
14	0xbff2340a	-1.8922131
15	0xc015248d	-2.330356
16	0xbf73e42f	-0.95270056
17	0xbf8cfc6c	-1.1014533
18	0xc0013b6c	-2.0192518
19	0xc031e880	-2.7798157
20	0xbfb2e7fd	-1.3977047
21	0xbfd8022c	-1.6875663
22	0xbf89dffc	-1.077148
23	0xc023bbd0	-2.5583382
24	0xbf487a29	-0.783114
25	0xc00fb150	-2.2451973
26	0xbefc6e23	-0.49302778
27	0xc00614c0	-2.0950165
28	0xc03b3f69	-2.9257452
29	0xbfafd6e1	-1.3737451
30	0xc0290c63	-2.641381
31	0xc02b7aa8	-2.6793613

body.block3.norm.running_var f4 [32]
0	0x404a4480	3.160431
1	0x41258e27	10.347205
2	0x40e1ff7f	7.0624385
3	0x400ae730	2.1703606
4	0x410e29a2	8.885164
5	0x410a9667	8.661719
6	0x4055cced	3.3406327
7	0x4042a123	3.041085
8	0x40fb9f6d	7.863211
9	0x40e539d0	7.163307
10	0x40c4d85e	6.151412
11	0x40dbc15d	6.867354
12	0x408d2a78	4.411434
13	0x4081a25c	4.0510693
14	0x4109ea75	8.6197405
15	0x40acd624	5.40114
16	0x408c14aa	4.3775225
17	0x40d67318	6.7015495
18	0x408a6535	4.3248544
19	0x41080d7e	8.503294
20	0x41594f5f	13.581878
21	0x41045356	8.270346
22	0x405097a6	3.259256
23	0x40ca486b	6.32134
24	0x4082665a	4.074994
25	0x41026e39	8.15191
26	0x4138fc31	11.56157
27	0x40c0fd12	6.0308924
28	0x41152122	9.320589
29	0x40a5fe02	5.187257
30	0x40a567f6	5.1689405
31	0x41284a76	10.518179

tail.0.weight f4 [3, 32, 3, 3]
0	0x3c0f56a2	0.008748682
1	0xbcb3aa43	-0.021931773
2	0xbb6a01fc	-0.003570675
3	0xbc62ce4a	-0.013843128
4	0x3e121443	0.14265542
5	0x3cb94734	0.02261696
6	0xbd52b2d3	-0.05144007
7	0x3c29c7f3	0.010362613
8	0xbd7f28a0	-0.062294602
9	0x388f471a	6.832015e-05
10	0x3c162683	0.009164455
11	0xbc61e455	-0.013787349
12	0xbc39a6d2	-0.011331277
13	0x3c98dda1	0.018660368
14	0x3c178ce4	0.0092499
15	0xbddf4afc	-0.10902974
16	0xbc357241	-0.011074604
17	0x3b9609ef	0.004578821
18	0x3d2f01f3	0.04272647
19	0x3c488cbd	0.012240586
20	0x3d541a57	0.051782932
21	0xbcb7bd87	-0.02242924
22	0xbd4054a2	-0.046955712
23	0xbd150360	-0.03638017
24	0xbc8f5ff9	-0.017501818
25	0x3ced239a	0.02894764
26	0x3dd5a272	0.104313746
27	0xbc9f077c	-0.019412749
28	0xbc6986c7	-0.014253325
29	0x3ba83f82	0.005134524
30	0xbc50bb67	-0.012739993
31	0x3e520152	0.20508316
32	0xbdc8ca67	-0.0980423
33	0xbce9bee0	-0.0285334
34	0xbc26bf80	-0.010177493
35	0xbc98a3ee	-0.018632855
36	0xbcccd2be	-0.025002833
37	0x3c9d80b6	0.019226413
38	0xbd02743a	-0.031849124
39	0x3d9ebc66	0.07750778
40	0x3d857039	0.065155454
41	0x3c1dda57	0.009634576
42	0xbc7af2d0	-0.01531668
43	0xbd199b0a	-0.037501372
44	0xbd481987	-0.04885247
45	0xbc71feb6	-0.0147702005
46	0x3b149bea	0.002267594
47	0x3dbcef64	0.09225348
48	0x3d32bd26	0.043637417
49	0x3dc2b8e2	0.0950792
50	0x3d7bb6ad	0.06145351
51	0x3daa85c2	0.083262935
52	0x3c2ee269	0.010674098
53	0xbda3e25d	-0.0800216
54	0x3c55b55b	0.013043727
55	0xbc4bb1f9	-0.012432569
56	0xbd4a04cd	-0.049320985
57	0x3d391b9c	0.045192346
58	0xbe00c96c	-0.12576836
59	0x3e1a5b51	0.15073897
60	0xbd3d77dc	-0.046256885
61	0xbd4c159a	-0.04982529
62	0x3df5bf26	0.11999349
63	0xbcd1ec12	-0.025625262
64	0xbdcd1ba4	-0.10015038
65	0x3cc512cf	0.02405682
66	0x3d37dba6	0.044887207
67	0x3c2e71ed	0.010647279
68	0x3d2525bd	0.040319193
69	0xbd8c4d64	-0.068506986
70	0x3cff4608	0.031161323
71	0xbcd63d95	-0.026152411
72	0xbd19bf9e	-0.037536256
73	0xb8268176	-3.9698054e-05
74	0x3db64310	0.0889951
75	0xbd210a85	-0.039316673
76	0x3c99a64a	0.01875605
77	0xbc433d53	-0.011916476
78	0xbe303da3	-0.17211013
79	0x3db91a3b	0.09038206
80	0xbd0df1d0	-0.03465444
81	0x3c463213	0.0120969
82	0xbd12f51e	-0.035878293
83	0x3cca81bb	0.024720063
84	0x3d887873	0.06663599
85	0x3d6412cf	0.055682
86	0xbc5fea34	-0.013666678
87	0xbddfeb64	-0.10933569
88	0x3cf95d7a	0.03044008
89	0x3cd8e4ad	0.026476229
90	0xbbaeaeac	-0.005330881
91	0x3d17528f	0.03694397
92	0xbdf48bd3	-0.11940732
93	0x3d3f2e7d	0.046675194
94	0x3e133fb3	0.14379768
95	0xbd8f5d86	-0.0700026
96	0xbc4528f1	-0.012033687
97	0xbd21a792	-0.039466448
98	0xbd5db3e5	-0.05412664
99	0xbd729f97	-0.059234228
100	0xbd351f33	-0.044219207
101	0x3d24f0d8	0.04026875
102	0xbcd52d51	-0.026022585
103	0x3c96d0bb	0.018410077
104	0x3ba99382	0.005175055
105	0x3d457a51	0.048212353
106	0xbcaf0416	-0.021364253
107	0xbe4597e1	-0.19296218
108	0xbcb7ea47	-0.02245058
109	0x3c96f71d	0.01842838
110	0x3bfaf989	0.0076591414
111	0x3caea49d	0.021318728
112	0xbd47860c	-0.04871182
113	0xbccf3d34	-0.025297739
114	0xbd08e18b	-0.03341822
115	0x3c24a4ca	0.010049054
116	0x3dd7e5d0	0.1054188
117	0x3d5b49d8	0.05353722
118	0xbc301dcb	-0.010749291
119	0xbd0f48ca	-0.034981526
120	0x3aadb9dc	0.0013254243
121	0xbcc4413a	-0.023956884
122	0xbd65166d	-0.05592959
123	0xbd76fbb4	-0.060298637
124	0x3d99699c	0.074908465
125	0x3d8409da	0.064471915
126	0x3c868f8f	0.016425876
127	0xbd144676	-0.03620001
128	0xbd8ea7db	-0.0696561
129	0x3d46df83	0.048553
130	0xbca21e6f	-0.019789902
131	0xbd39c17b	-0.045350533
132	0x3dc5b14a	0.09652956
133	0x3b851929	0.004061837
134	0xbd3d1bfd	-0.04616927
135	0x3d413b62	0.047175772
136	0xbc895148	-0.01676239
137	0xbd65194e	-0.055932336
138	0x3cef3e49	0.029204505
139	0xbd8135e2	-0.063091055
140	0xbc922c6d	-0.01784345
141	0xbda20efe	-0.07913016
142	0x3d30567d	0.04305123
143	0x3dd240ed	0.1026629
144	0xbd508496	-0.050907694
145	0x3d5c6bde	0.053813808
146	0x3d3473b1	0.044055644
147	0x3c8a3b5c	0.016874008
148	0xbd9a7500	-0.07541847
149	0xbd9285a6	-0.07154398
150	0xbccef89c	-0.02526503
151	0x3d1a922c	0.037737057
152	0x3d90cb76	0.07070057
153	0xbc3b785f	-0.011442273
154	0x3d998e69	0.07497866
155	0xbd76588f	-0.06014305
156	0xbe027aab	-0.12742107
157	0xbbd63a45	-0.006537708
158	0x3df6abb9	0.12044472
159	0xbd8577d8	-0.06516999
160	0x3cf34df3	0.029700255
161	0x3c9b5cf6	0.018965226
162	0x3e29662b	0.1654288
163	0x3d08c888	0.033394367
164	0xbcb0810a	-0.021545906
165	0xbc4fbf24	-0.012679849
166	0xbde90750	-0.11378348
167	0x3d2e4359	0.042544696
168	0x3b3b99c5	0.002862559
169	0x3c9dac73	0.01924727
170	0xbd1af044	-0.03782679
171	0x3ccb5474	0.024820544
172	0xbc8d2124	-0.017227717
173	0x3c92a25a	0.01789968
174	0x3da96bb0	0.08272493
175	0xbcdb9d8a	-0.026808519
176	0xbd068b14	-0.03284748
177	0x3da87315	0.08225075
178	0xbd3d67a0	-0.046241403
179	0x3d3b1b6b	0.045680445
180	0x3c9fae54	0.019492306
181	0x3cfe69b8	0.03105627
182	0xbbbcf101	-0.0057660346
183	0x3cd79684	0.026316889
184	0x3c29a71a	0.0103547815
185	0xbd547113	-0.05186565
186	0x3d014aed	0.031565595
187	0x3d212bd0	0.039348423
188	0xbd53a173	-0.05166764
189	0x3c3a4273	0.011368382
190	0xbcbcf45a	-0.023065735
191	0x3cb35268	0.02188988
192	0xbd2731d2	-0.040818997
193	0xbcbbab67	-0.02290888
194	0x3d4a8ff5	0.049453694
195	0xbcbe4053	-0.023224032
196	0x3c4ebf47	0.012618846
197	0x3caa06c1	0.020755174
198	0x3cf0ccb6	0.029394489
199	0xbcbb589a	-0.022869397
200	0xbbf15e3d	-0.0073659704
201	0xbd0894c4	-0.033345
202	0xbd976364	-0.07392004
203	0xbca4ca1b	-0.020115903
204	0xbdde70d3	-0.10861363
205	0x3da817a5	0.08207635
206	0xb9b44ad7	-0.00034388035
207	0x3cbe4248	0.023224965
208	0x3cfca39b	0.030839732
209	0x3b133958	0.00224646
210	0xbd21b777	-0.039481606
211	0x3ccb5055	0.024818579
212	0x3c98e3aa	0.018663246
213	0x3c737769	0.014860013
214	0x3cc4473d	0.02395975
215	0x3d71b7d5	0.059013207
216	0xbd8b763e	-0.06809662
217	0xbca6deef	-0.020369975
218	0xbbddf05e	-0.006773039
219	0x3c1515c0	0.009099424
220	0xbc6b0357	-0.014344058
221	0x3d8473d9	0.06467409
222	0xbc47df44	-0.012199227
223	0xbd5dca65	-0.054148097
224	0xbcf19e1b	-0.029494336
225	0xbd75d7ce	-0.06002026
226	0xbe0144e2	-0.12623933
227	0x3cd17bb9	0.02557169
228	0x3d600a91	0.054697577
229	0xbc155e99	-0.009116792
230	0x3d1fb503	0.038990986
231	0x3d5543a0	0.052066445
232	0x3d8b7685	0.06809715
233	0x39d59763	0.00040739318
234	0xbdc00a1a	-0.09376927
235	0x3d0a9a26	0.033838414
236	0x3d987c0c	0.07445535
237	0x3a51b667	0.00079998974
238	0xbbc8dafe	-0.0061296215
239	0xbc9ca1ed	-0.019120181
240	0x3c1b4e7c	0.009479161
241	0x3d339133	0.043839645
242	0x3dba554b	0.090982996
243	0xbc8ff6c5	-0.017573724
244	0xbe011dff	-0.12609099
245	0xbd706d0d	-0.05869775
246	0x3c25f1e5	0.010128473
247	0x3d8bfbc0	0.06835127
248	0xbb14b58a	-0.0022691214
249	0xbc2d85f3	-0.010591018
250	0x3c9cf852	0.019161377
251	0xbe074d33	-0.13213043
252	0x3d1d462b	0.038396996
253	0xbd4b1512	-0.04958064
254	0xbcae1e50	-0.021254689
255	0xbd8b8533	-0.06812515

tail.0.bias f4 [3]
0	0xbcd1428e	-0.025544431
1	0xbd8ab6a7	-0.067731194
2	0xbd0b636e	-0.03403037
