trained_models/sinGan/mountains/scale_factor=0.750000,alpha=10/7/netD.pth (torch_old, 461765 bytes, 25 tensors)

head.conv.weight f4 [64, 3, 3, 3]
000000 d5 58 69 bc 98 d3 06 bd 98 5d ae bd 9d 5b 88 3d
       -0.014242371 -0.032916635 -0.08513945 0.06658099
000010 91 f0 7f 3c df 50 81 3c 4a a4 25 3e 40 b9 66 3d
       0.01562132 0.015785633 0.16175953 0.056329012
000020 35 8b dd 3d 2b 06 36 bd 19 97 8e bd d2 41 e0 bd
       0.10817567 -0.044439476 -0.06962413 -0.10950054
000030 3a 5e 00 3d 90 c1 2a 3c 7e 6c 6b bc 79 3b 0d 3e
       0.03133986 0.010422125 -0.014369128 0.13792218
000040 58 72 77 3d ad fe 8b 3d 5e e5 b3 bd 3b 48 82 bd
       0.06041178 0.06835685 -0.08783983 -0.06361433
000050 86 94 e5 bd 33 83 91 3b 89 29 38 bc e7 d2 06 bd
       -0.11209969 0.004440689 -0.0112403715 -0.032915976
000060 ea 2d 8b 3d b6 1d b6 3c 65 bd 89 3c 99 86 cb 3d
       0.06795867 0.022230964 0.016813943 0.09937782
000070 d0 88 36 3d 84 df 76 3d 13 6d d2 3d 10 8b 4b 3d
       0.04456407 0.060271755 0.102747105 0.049693167
000080 05 e4 48 3d bb 87 b1 3d 18 7b 37 3c 59 72 95 3c
       0.04904558 0.08668467 0.011198781 0.018243002
000090 48 be c9 bd 67 57 87 bd ff 9c 51 bd ae e3 88 bd
       -0.098507464 -0.066084675 -0.051175114 -0.066840515
0000a0 43 ab 01 bd ac c8 ca bb 22 8a 68 bd 98 ce 71 bd
       -0.03165747 -0.0061884727 -0.05677236 -0.059034914
0000b0 ea 4a 9c bd ea f9 06 be 5c af 1b ba 2d f9 00 be
       -0.07631476 -0.13181272 -0.00059389113 -0.12595053
0000c0 13 a3 84 bd d0 94 3d 3d 44 80 b0 bc f1 08 70 bd
       -0.064764164 0.046284497 -0.021545537 -0.058602277
0000d0 9c 0f 3b bc dc 99 97 bd 49 03 d7 bd 4c ad 46 bd
       -0.011417296 -0.07402393 -0.104986735 -0.048505113
0000e0 ab 7f fb bd a6 b5 5f 3c e2 e0 da bc 91 25 03 bc
       -0.1228021 0.013654148 -0.02671856 -0.008004562
0000f0 a7 25 59 3e ee c9 75 3d f6 85 23 3e cd 55 b5 bd
       0.2120577 0.06000703 0.15969071 -0.08854256
000100 be 9d ce bc 27 62 9c bd f6 eb c0 bc 87 2c f3 bc
       -0.025221702 -0.076359086 -0.023550015 -0.029684318
000110 5c 5f c0 bb 34 54 e0 3d d3 62 99 3c d9 20 b0 3d
       -0.0058707427 0.109535605 0.01872388 0.08600015
000120 7c 8f 78 3b 52 4a 8c 3c 58 1b 85 bc e7 4a f3 3c
       0.003792732 0.017125282 -0.01624839 0.029698802
000130 85 f6 08 3b af b9 b4 3c e6 c1 e6 3d b0 d3 79 3d
       0.002089889 0.022061197 0.11267452 0.060992897
000140 13 83 b3 3d 95 15 24 bd 82 45 ca bc 70 30 a7 bd
       0.08765235 -0.040059645 -0.024691347 -0.081635356
000150 5f 5f 3e ba 34 63 07 bc 25 6b 04 3b 96 f6 31 3c
       -0.0007262136 -0.008263398 0.0020205465 0.010862013
000160 4e e8 07 3d 18 b5 c3 3c 6c e4 9c 3d 4d e3 68 3d
       0.033180527 0.023890063 0.076607555 0.056857396
000170 6b a9 1a 3a 29 6e 29 3d 7a 41 e6 b9 73 a8 1a 3d
       0.0005899879 0.041364823 -0.00043917802 0.037758302
000180 70 ee 91 bd 91 b5 5c bd b2 a1 15 be 59 b4 0c bd
       -0.071255565 -0.053884093 -0.14612463 -0.03435168
000190 7a 22 5d bc b8 5d 17 be c4 25 b1 bd e9 ea 56 bc
       -0.013496989 -0.14781845 -0.08649781 -0.01311753
0001a0 94 01 4d bd 35 9d 64 be 44 38 12 3d 28 89 a8 be
       -0.050050333 -0.22325595 0.03569819 -0.32917142
0001b0 c1 62 b3 3d 7c 9c 97 bb c2 dd 22 3d b8 eb a7 3d
       0.0875907 -0.0046268087 0.039762266 0.08199257
0001c0 e2 49 72 3c 10 cf 54 3d 38 77 83 3c 4f 63 b3 3c
       0.014788123 0.051955283 0.016048059 0.02189794
0001d0 33 4c fa 3c af 1b a9 3b f8 e7 8b bc 00 fa c5 bc
       0.030553913 0.005160771 -0.017078385 -0.02416706
0001e0 e6 02 d9 bc 4b 4d 0a bd 10 d5 70 bd e3 48 37 be
       -0.02649064 -0.03376512 -0.058796942 -0.17898898
0001f0 95 38 06 bd 9d b4 e9 bd 85 fa e9 3d 3b bd 20 3d
       -0.032768805 -0.114114024 0.11424736 0.039242964
000200 79 a2 55 3d 24 f3 86 3d e7 ce fb 3a cf e0 01 bd
       0.0521569 0.06589344 0.0019211442 -0.031708535
000210 b6 c1 23 be fa 70 99 bd c6 fd 1d be f4 99 91 3d
       -0.15991864 -0.07492252 -0.15428838 0.07109442
000220 e8 bb 58 bd ce 25 3a be 5a f9 9a bd 80 d2 e1 bc
       -0.052913576 -0.18178484 -0.07567091 -0.027566195
000230 32 23 96 3d db a9 b5 bc a2 7f d2 3c 81 80 ea 3d
       0.07330932 -0.02217572 0.025695626 0.114502914
000240 7e 20 f6 bb 1c 19 9a bd 73 0a 70 be 82 bc b9 bd
       -0.0075111976 -0.075243205 -0.23441486 -0.09069158
000250 87 03 5a bd 9f fd 34 3d 9e 13 54 3c ac 35 f2 3c
       -0.05322602 0.044187184 0.01294413 0.029566608
000260 ff a3 3a 3d c9 39 75 bb bb d9 76 3c 38 c5 aa bc
       0.045566555 -0.0037418476 0.015066559 -0.020845994
000270 3e cc c6 bd a2 b4 04 bd f1 2c 6e 3d 35 59 94 3c
       -0.09706925 -0.032398827 0.05814833 0.018108943
000280 33 18 20 3d d8 82 b5 3d ce a6 29 3e d5 33 32 3d
       0.03908558 0.08862847 0.16567537 0.043506462
000290 dd 8f 1f 3e 59 e8 da 3d d2 3c 48 3b 37 83 db 3d
       0.15582223 0.10688848 0.003055383 0.107183866
0002a0 42 5d 20 3e e0 c9 a8 3d 0e 53 42 3e a4 9b 60 3c
       0.15660575 0.082416296 0.18976995 0.013708983
0002b0 4a 37 18 bc 04 38 c7 bc fa 8c 25 3c 99 c4 ea 3b
       -0.009290526 -0.024318703 0.010104412 0.0071645495
0002c0 97 ed de bc cb d9 a1 bc fb 0f 0d bc 21 07 9d 3a
       -0.027212901 -0.019757172 -0.008609767 0.0011980274
0002d0 15 ff 52 bd db ea 5b bd 5a ea bf bd ad e0 c0 bc
       -0.051512796 -0.053690773 -0.09370871 -0.023544634
0002e0 7f d0 c6 bb 58 1c a9 bc 14 7f 7d bd bb 6a 15 bd
       -0.006067335 -0.020643398 -0.06188877 -0.03647874
0002f0 2b 2e 83 bc 68 31 22 bd 61 5b a9 3c ac 43 da 3c
       -0.016013226 -0.0395979 0.020673456 0.026643597
000300 96 2d fe 3c 67 f3 b7 bb 17 8e 00 3d e6 f7 04 bd
       0.031027596 -0.0056137326 0.031385507 -0.032462977
000310 9a c8 19 3d e8 48 fa 3c 8a 56 d0 bd c9 04 98 bb
       0.037544824 0.030552343 -0.10172756 -0.0046392423
000320 b0 bd de bc f9 60 05 3d 27 fc 58 3d 8a 1f 05 3c
       -0.02719006 0.032563183 0.052974846 0.008125195
000330 54 aa 4a be af 02 3f bd 34 06 97 bd 3b 0d 1a bd
       -0.19791538 -0.04663342 -0.0737423 -0.037610274
000340 57 73 78 3c ac 8e 7b 3d cd 3a 6b 3d 33 b7 98 3d
       0.015164218 0.06141536 0.057429124 0.074568175
000350 9d 7c 09 3e 0e 44 40 be 36 39 ab bd f3 2c 50 bd
       0.13426442 -0.18775961 -0.083605215 -0.050824117
000360 7a a9 9f bd dc cf ef 38 86 89 01 bd 68 c4 b5 3c
       -0.07795997 0.00011435125 -0.031625293 0.02218838
000370 fc 0e 5b 3d 39 e3 9a bc 7a 1b ae bc ce 15 f8 ba
       0.053481087 -0.018907176 -0.021253336 -0.0018927397
000380 00 f7 ea bd 8f ab ef bd 1d b0 06 3d 1f 25 03 3e
       -0.11472893 -0.11702644 0.0328828 0.1280713
000390 2f b2 39 bc 63 eb 11 3d 36 e8 5a 3d 54 fa da bc
       -0.011333986 0.035624873 0.05344411 -0.026730694
0003a0 4c 7a 6d 3c 95 30 e7 bc ae e3 52 be e1 41 0b bc
       0.01449449 -0.028221408 -0.20594665 -0.0084995935
0003b0 ca 14 ed 3d 9f a4 9a bd 3f 03 5b 3c fa 3a 70 3d
       0.11576231 -0.0755093 0.013367473 0.058649994
0003c0 94 93 12 bd a4 32 a8 3c 0c 53 20 3d 80 20 89 bd
       -0.035785273 0.02053196 0.0391417 -0.06695652
0003d0 96 6f 1f bd 3f 11 dc bd da 79 e3 3d 29 c6 7f 3d
       -0.038924776 -0.10745477 0.11107226 0.06244484
0003e0 fb 0b 0e 3e 33 0c 2c 3d c8 c1 c1 3b b8 ad 91 3c
       0.13871758 0.04200382 0.005912993 0.01778303
0003f0 f2 9f ae bd d5 fd 63 bd 36 61 ea bd da 4a 89 3d
       -0.08526601 -0.055661995 -0.11444323 0.0670373

head.conv.bias f4 [64]
000000 15 a5 01 be 15 13 0c 3e 07 97 76 be 0f 5c 65 be
       -0.1266063 0.13679154 -0.2408105 -0.22398399
000010 46 b9 21 be 3e a9 7c be 5b 5e bb 3d e4 77 6e 3d
       -0.15793332 -0.24673936 0.09148856 0.058219805
000020 07 ea 1f be 41 4b ed bd b8 5a 2e be 8b 7b de 3d
       -0.15616618 -0.11586619 -0.17026794 0.10863408
000030 0b b3 8a 3d 88 b8 e4 3d 98 05 03 3d 2e 33 fb 3c
       0.06772431 0.11168009 0.031987756 0.030664053
000040 10 a6 1e be ac bf 1d 3e 89 ad 1b 3e 25 d7 64 bd
       -0.15493035 0.15405148 0.15202917 -0.05586924
000050 0e 35 0e 3e ff 2a d8 bd c6 60 4b 3d e8 b5 09 be
       0.13887426 -0.10555076 0.049652837 -0.13448298
000060 8e 6b 2b be 2f 7d 64 3e 09 6d 29 3e 82 c0 09 be
       -0.16740248 0.22313379 0.165455 -0.13452342
000070 de 76 f0 3d 4d a9 65 bd 30 81 14 bd 02 bd 6a bd
       0.11741422 -0.05606966 -0.036256015 -0.05730916
000080 fd 2b 82 be a9 aa 03 3e 2b 73 b9 3d 96 67 87 bd
       -0.25424185 0.1285807 0.0905517 -0.06611554
000090 b0 6e ad bd 05 ff 35 be 94 98 41 3e b7 c8 db bd
       -0.084683776 -0.17773063 0.1890586 -0.10731643
0000a0 c2 e6 4f bd 30 2f 00 bc e2 32 5b bd 76 04 cc bd
       -0.050757177 -0.00782375 -0.053515323 -0.09961788
0000b0 d2 ca 3b be 41 31 85 bd 8a ea b6 bd 4e 3c 2f 3d
       -0.18339089 -0.06503535 -0.089314535 0.04278212
0000c0 59 24 95 3d cb 36 97 3c fc d4 0a 3e 13 83 2e bd
       0.072823234 0.018458745 0.1355781 -0.04260547
0000d0 ea a5 ac 3d 65 e7 6b 3d a8 43 03 bd de 17 18 be
       0.08430083 0.057593722 -0.032046944 -0.14852855
0000e0 c2 2f de 3c 28 70 dc bb 1f 33 25 bd 4e d1 e7 3d
       0.027122382 -0.0067272373 -0.040331956 0.113192186
0000f0 e2 f3 d9 3d 7c f3 3e 3d 1e e4 83 bd ad aa 5e bd
       0.1064222 0.046618924 -0.06439994 -0.054361988

head.norm.weight f4 [64]
000000 e0 28 7e 3f cd 94 6a 3f 70 68 a1 3f df ef 37 3f
       0.9928112 0.916333 1.2609997 0.7185039
000010 26 4e 63 3f b9 c8 5d 3f 68 a7 88 3f bc 27 41 3f
       0.8879112 0.86634403 1.0676088 0.75451255
000020 80 43 35 3f e5 87 44 3f ec 72 71 3f 02 a4 85 3f
       0.7080612 0.7676986 0.9431598 1.0440676
000030 62 ac 87 3f 94 1c 6f 3f 10 82 8f 3f 42 0e 6e 3f
       1.0599482 0.9340298 1.1211567 0.92990506
000040 a9 38 57 3f a8 79 72 3f 5f 64 64 3f ea 18 83 3f
       0.8407083 0.9471688 0.89215654 1.0241978
000050 2b a8 81 3f 8f d0 91 3f e2 c2 57 3f 88 8a 76 3f
       1.0129446 1.1391772 0.8428174 0.9630513
000060 b4 53 8f 3f e2 a5 5b 3f 86 13 59 3f 20 ff 23 3f
       1.1197419 0.8579999 0.84795415 0.64061165
000070 06 0c 1c 3f 7e b8 4b 3f d4 c4 72 3f fd f3 54 3f
       0.60955846 0.7957839 0.94831586 0.83184797
000080 2a af 51 3f 82 45 6a 3f 10 81 55 3f f6 c5 97 3f
       0.81907904 0.9151231 0.8340006 1.1857288
000090 5d f3 42 3f 36 c5 55 3f 54 28 98 3f f3 35 72 3f
       0.7615259 0.83504045 1.1887307 0.9461357
0000a0 5b 1b 37 3f d1 86 61 3f 61 e3 66 3f 33 e9 60 3f
       0.71526116 0.8809634 0.901907 0.87855834
0000b0 7a 1c 4f 3f 56 17 94 3f 93 25 3f 3f ea 4f a4 3f
       0.80902827 1.1569622 0.7466671 1.2836888
0000c0 f5 23 49 3f 00 4a 4a 3f db 7a 60 3f 9d 58 3b 3f
       0.7857049 0.79019165 0.8768746 0.7318209
0000d0 71 8f 55 3f 5d ae 5d 3f 25 3d 38 3f 33 0c 53 3f
       0.83422 0.8659418 0.719683 0.8244049
0000e0 59 27 78 3f 68 f8 8f 3f 20 66 55 3f 78 b9 58 3f
       0.9693504 1.1247683 0.83358955 0.84658
0000f0 e3 30 4a 3f 81 51 43 3f 5e e3 37 3f 38 35 07 3f
       0.78980845 0.7629624 0.7183131 0.5281558

head.norm.bias f4 [64]
000000 34 b4 19 3f 95 75 b2 bc e7 01 05 3f 65 e0 3d bd
       0.60040593 -0.021784583 0.5195603 -0.046356577
000010 5b 57 b2 3b a7 3b 79 bd 11 8a 1f 3f 9d 5d 08 3f
       0.0054425425 -0.060847905 0.6232005 0.5326784
000020 3e b9 94 3e 99 73 72 3e d7 f7 bf 3e 35 fa e7 3e
       0.2904758 0.2367691 0.37493774 0.4530808
000030 5e cf 1c 3f e0 6f 35 be 88 a5 9b 3e 0c 47 b4 3e
       0.6125392 -0.17718458 0.30399728 0.35210454
000040 c3 4b 7e 3f 35 4c e9 3d e4 e2 9b be 29 97 bf 3e
       0.99334353 0.113914885 -0.3044654 0.37420014
000050 0a 7b 0f 3e 53 06 01 3f 5c c7 f4 bd cc 8c 94 3f
       0.1401178 0.50400275 -0.11952087 1.1605468
000060 d9 20 c5 3d e4 7e 04 be c0 be 84 3d e5 29 01 3f
       0.09625406 -0.1293903 0.06481695 0.5045455
000070 51 f0 49 3e 8d 2c b4 3e 9c 7a 97 3e 77 4c 9d 3e
       0.1972058 0.3519024 0.2958573 0.307224
000080 d8 6c 8a 3e 79 69 be 3d 46 0e 34 3e d0 1d f0 3e
       0.27036166 0.09297461 0.1758357 0.46897745
000090 80 c3 58 3e b2 b8 13 be 15 c4 78 3e db 39 28 be
       0.21168327 -0.14425924 0.2429355 -0.1642832
0000a0 47 3b ae 3e 8f c6 b5 bd 13 e9 e2 3c 9e a3 a9 3e
       0.340296 -0.08875763 0.02769903 0.33132643
0000b0 a4 05 0d 3c 42 db b5 3e b7 7c 80 3e d6 f7 46 3e
       0.008607302 0.35518843 0.2509515 0.1943048
0000c0 ae 22 01 3e 81 53 99 be af ef c8 3e e6 32 d2 3e
       0.12610886 -0.2994652 0.39245364 0.41054457
0000d0 62 0c 62 3e 3a bd 18 bf 1e 71 d7 3d 88 24 99 3d
       0.22075036 -0.59663737 0.10519622 0.07477671
0000e0 de b4 9f bd 79 54 96 3d ea a3 2d be 5b 00 ba 3e
       -0.077981696 0.07340331 -0.1695706 0.36328396
0000f0 f5 78 6a 3e 62 29 da 3d 8e 3b b0 3e ed e5 cd 3d
       0.22897704 0.106524244 0.34420437 0.100536205

head.norm.running_mean f4 [64]
000000 11 ed 1a be 34 64 27 3e aa e2 9b be fb 9a b5 bd
       -0.15129496 0.16346818 -0.30446368 -0.08867451
000010 04 78 0d be c2 d9 68 be f6 d9 4c 3c 4c f1 9e 3d
       -0.13815314 -0.22739318 0.012503138 0.077608675
000020 19 fa 04 be 9d 9f f7 bd 88 41 1e bd 42 fa 20 3e
       -0.1298603 -0.12090991 -0.038636714 0.15720466
000030 1d 32 e7 3c e1 91 12 3e 0d 57 bb bc 2b b7 31 3d
       0.028222138 0.14313461 -0.022868657 0.043387573
000040 6d 0b 1a be 5c b8 5a 3e 8f 4a 3b 3e 8d af f5 bd
       -0.15043421 0.2135939 0.1829016 -0.11996374
000050 3a 05 41 3e e0 84 08 be 33 12 50 3d c5 88 1e be
       0.1884965 -0.13331938 0.050798606 -0.15481861
000060 da b8 69 be 7d 9d b4 3e e6 9a 85 3e 73 78 fe bd
       -0.22824422 0.35276404 0.2609474 -0.124253176
000070 07 76 fd 3d 47 bd 59 bd 2d da 7f bd 55 06 ac bc
       0.123760276 -0.053159025 -0.062463928 -0.020999113
000080 b7 58 69 be d3 78 25 3e 63 38 4f 3e 3e 32 15 be
       -0.22787748 0.16159372 0.20236354 -0.14569947
000090 2a 3b df bc ff 1f a5 bd e4 37 67 3e a0 d5 28 3d
       -0.027249891 -0.080627434 0.22579914 0.041219354
0000a0 da fd 73 bd a1 21 05 bc ea c3 4b bd 3e 2f 19 3d
       -0.059568264 -0.008125694 -0.049747385 0.03739857
0000b0 7c e6 34 be cd d4 11 be 65 6f 90 bd 31 70 ec bd
       -0.17666048 -0.14241333 -0.07052497 -0.11544836
0000c0 25 09 a7 3d ee 32 c4 3d 43 81 ff 3d f1 ef 9f 3c
       0.08156041 0.095800266 0.124758266 0.019523593
0000d0 59 94 09 3e 0a ec 78 3d c0 79 17 bd 61 27 90 bd
       0.13435496 0.06077198 -0.036981344 -0.07038761
0000e0 d0 52 c3 3c 23 79 bf bd 89 4a ec 3d 7a 36 17 3e
       0.023843199 -0.09349277 0.11537654 0.14766875
0000f0 d6 d7 42 3e d9 df 70 3d 70 24 4c bd df d3 65 bd
       0.19027647 0.058807228 -0.049839437 -0.05611026

head.norm.running_var f4 [64]
000000 dc 61 d6 3c 17 5c d1 3d 1b 97 7c 3d c8 1c 8b 3e
       0.02616971 0.10222643 0.061667543 0.27170396
000010 a0 21 32 3d 0a 47 e3 3c 99 f9 6f 3d b3 f7 aa 3c
       0.0434891 0.027743835 0.058587644 0.020870065
000020 7a c6 01 3c d5 c6 38 3c fa a3 0b 3e 41 13 de 3c
       0.007920856 0.011277874 0.13636771 0.02710879
000030 0e d7 34 3d 21 95 a8 3d a1 ac a7 3d 18 9c 81 3c
       0.044150405 0.08231569 0.08187223 0.015821502
000040 90 ab 00 3d 79 a5 89 3d 63 92 fe 3c 32 fd 5b 3e
       0.031413615 0.067210145 0.031075662 0.21483305
000050 db cb 71 3d d2 4f d0 3d 46 b0 7c 3c 2f 53 9f 3c
       0.059032302 0.101714745 0.015422886 0.019448845
000060 a2 05 e0 3d 40 d5 5b 3e c5 54 24 3e a2 ec 82 3b
       0.109385744 0.21468067 0.16047962 0.003995494
000070 e5 f7 89 3b 63 82 f2 3b ed 6e be 3c 31 1e 46 3d
       0.0042104595 0.007400797 0.023246253 0.048368637
000080 84 41 4e 3c c8 4c 00 3d 86 da 82 3e 65 78 b0 3d
       0.012588862 0.031323224 0.25557345 0.086167134
000090 b8 29 03 3e fc 5d 14 3e 3d f0 01 3d 42 31 83 3e
       0.12808883 0.14488977 0.03172325 0.25623518
0000a0 2d 66 ed 3b bf 8d b6 3b 84 ba 25 3c 92 9b 38 3e
       0.0072448463 0.0055710967 0.01011527 0.18028095
0000b0 45 9e 16 3c 14 67 ac 3d 3b aa 76 3c 81 87 7e 3e
       0.009193008 0.08418098 0.015055235 0.24856378
0000c0 95 2b 26 3c 93 41 ca 3d 36 88 b5 3c 5c 0d 6c 3c
       0.010142227 0.098757885 0.022159677 0.014407482
0000d0 95 d4 5a 3d e7 a3 8e 3d 26 67 9f 3b ec 0f 24 3e
       0.05342539 0.06964856 0.004864591 0.16021699
0000e0 e2 a1 eb 3b 18 e4 19 3e bb 67 9f 3e 28 7f 11 3d
       0.007190929 0.15028417 0.31133828 0.035521656
0000f0 54 3f 14 3e 93 c6 91 3c 1e bb 6c 3c 2b 46 78 3b
       0.14477283 0.017794883 0.014448909 0.003788362

body.block1.conv.weight f4 [64, 64, 3, 3]
000000 95 a3 a7 3d 6d 29 98 3b f0 07 37 3e 6e f2 79 3b
       0.08185498 0.00464361 0.17874122 0.0038138884
000010 0e 5d 8f bd 88 4d d6 3d 98 50 ba 3a 15 45 0a 3d
       -0.07000171 0.10464007 0.0014214693 0.033757288
000020 5f 77 89 3d 9f ee 80 bd 04 08 4e bd 9c 65 2f 3b
       0.06712221 -0.06295513 -0.050300613 0.0026763445
000030 0e 01 5e bd 2b ca 7b 3d 2c 3c ad 3d 75 fd 34 bc
       -0.054200225 0.0614721 0.084587425 -0.011046757
000040 5f 07 83 3d c2 d4 47 3d 0b 45 c3 3d bd 54 87 3d
       0.0639789 0.048786886 0.09534653 0.066079594
000050 66 36 57 3d 17 22 2a 3d 2b b1 d4 3c 58 40 35 bc
       0.052542113 0.041536417 0.025963387 -0.011062704
000060 3f 27 13 3d 61 8c b5 3c e9 47 a5 3d 5e 27 b9 3d
       0.0359261 0.022161664 0.080703564 0.09040712
000070 1c ce a5 3d df 90 49 3d ab 92 b4 3d 76 1f bb 3d
       0.08095953 0.049210425 0.08817037 0.0913686
000080 48 e3 61 3d 09 e2 da bc 73 89 04 3c 51 37 35 bd
       0.055148393 -0.02671911 0.008089411 -0.044242207
000090 61 f7 84 bd 4e 21 06 bc 0b 52 46 3d ed 23 2c 3d
       -0.06492496 -0.008186651 0.048418086 0.04202645
0000a0 df 41 8f 3d 93 ec 80 3d a5 7f a1 bd a5 1f 95 bd
       0.06994986 0.06295123 -0.078856744 -0.07281426
0000b0 3f 58 4a bd 09 b3 8e 3c 4c d4 ad bc f3 96 3b bd
       -0.049400564 0.017419355 -0.021219395 -0.045798253
0000c0 47 51 8b 3d 9a d9 92 3c fb 97 26 3c b7 25 89 bd
       0.06802612 0.017926026 0.010168071 -0.06696647
0000d0 82 c0 6a bc 40 35 cf 3d 30 67 50 3d 79 85 5b 3d
       -0.014328124 0.101175785 0.050879657 0.053594086
0000e0 1e e8 07 bd 18 a4 ff 3c ab 62 cb 3d 39 e6 3a 3d
       -0.03318035 0.031206176 0.09930929 0.045629714
0000f0 23 b7 90 bd e1 cd 2a bd fd 69 19 be 8d 86 1e be
       -0.070661806 -0.041700248 -0.14981838 -0.15481015
000100 a0 97 33 bd f3 c3 0d bd 74 16 ad bd 53 8a 02 bd
       -0.043845773 -0.0346107 -0.08451548 -0.031870198
000110 02 d3 a2 3c cf ad 42 be 80 9e 93 bd c8 5b 23 bd
       0.019876007 -0.19011615 -0.07207966 -0.03988245
000120 77 59 66 bd 1b ec 0c 3c 42 37 05 bd a4 de 3c 3d
       -0.056237664 0.008601214 -0.0325234 0.046110764
000130 03 08 c4 bc 0e 40 82 3c 0f ba 91 bd 6c d6 0c 3d
       -0.023929602 0.015899684 -0.07115566 0.034384176
000140 a7 ee a7 bd 09 00 ed 3c a3 c0 a7 3d 01 0d 11 3e
       -0.08199816 0.02893068 0.081910394 0.14165117
000150 6e bc 80 3c 25 64 1e bd 28 30 f0 bc e0 7d 49 3d
       0.01571485 -0.038669724 -0.029319838 0.04919231
000160 c4 a7 89 3d e4 8a b7 3d cb 92 d6 3c 3e b8 68 3d
       0.06721452 0.08962038 0.026193043 0.056816332
000170 67 ab f3 3c 62 f1 70 bd a5 ad d3 bb a1 d8 21 bd
       0.029744817 -0.05882395 -0.006459909 -0.039513234
000180 60 d5 03 be bc 3f b8 bd 2c ad a0 bd b1 67 2d bd
       -0.12874365 -0.08996531 -0.0784553 -0.042335216
000190 8d 53 6e 3c b5 2b 84 3d 2b a9 c8 bd ae f1 76 bd
       0.014546287 0.06453649 -0.09797891 -0.060289077
0001a0 85 9f 82 3b a7 2f 18 be 57 51 c7 bd 74 77 1a bd
       0.0039863014 -0.14861928 -0.09732311 -0.037711576
0001b0 b2 e7 12 3c 56 2f 49 3c 8e 99 24 bc 56 93 c0 bd
       0.008966373 0.012279352 -0.010046376 -0.09403102
0001c0 04 b8 3a bb 57 6c fb 3b 1f 89 a7 bd 7b cd 06 bd
       -0.002849103 0.007672827 -0.08180451 -0.032910805
0001d0 73 b2 5f 3d 72 37 6a 3d 95 e6 85 3d 68 29 da 3d
       0.05461354 0.057181783 0.06538121 0.10652429
0001e0 9e 40 65 bd 72 bc 2b 3c 9b 1b 71 3d 7b 95 c6 bd
       -0.055969827 0.010481941 0.058864217 -0.0969648
0001f0 15 ce 43 3d f5 97 fe 3b 28 9c 41 bd 56 af 10 bd
       0.047803957 0.0077695795 -0.047268063 -0.035323463
000200 e4 42 6d bd ea b0 d9 bd 07 7e 1c bd fe 84 27 bd
       -0.05792512 -0.10629447 -0.038206127 -0.040898316
000210 ec 2a 41 be 3d 38 17 be 15 5f 0b be ee b6 75 bb
       -0.1886403 -0.14767547 -0.1361049 -0.0037493068
000220 30 d0 e7 bb 4d 9c c9 bd eb 9f 34 3d cc fd 2c 3d
       -0.0070743784 -0.09844265 0.044097822 0.042234227
000230 1f 38 8c bc 94 69 a3 39 6c 9f 95 3d 83 fa d5 3d
       -0.017116604 0.00031168445 0.07305798 0.10448172
000240 4f 18 f9 3d 66 a3 e5 3d 23 35 fd 3d 4b ee d3 3d
       0.121628396 0.112128064 0.12363651 0.10348185
000250 35 72 ac 3d f0 8b 5b 3d 04 8a 88 bd d7 96 5b 3d
       0.08420221 0.05360025 -0.066669494 0.05361065
000260 24 05 33 3d a3 fd 13 bc a9 24 50 bc fa 6d 85 bd
       0.043706074 -0.00903264 -0.012704053 -0.06515117
000270 b8 1a b3 bd b2 67 1d bd e9 5b 02 bb ea 5b a4 bd
       -0.087453306 -0.03842897 -0.0019891209 -0.08025344
000280 12 d6 a8 bd b3 56 1e be 91 d1 80 3d 40 f7 b5 3c
       -0.08243956 -0.1546276 0.062899716 0.022212625
000290 55 50 9b 3c 42 dc 93 b9 ef 2f f6 bb 15 c9 ea 3b
       0.018959204 -0.0002820213 -0.0075130383 0.007165084
0002a0 e9 fa 61 3d 7a 79 2b bd 29 bd 82 3b 35 98 1a 3d
       0.055170927 -0.041863896 0.003989835 0.037742812
0002b0 1c 45 0c 3d d1 5a 97 3d 5b a8 b5 bc e3 b6 80 bd
       0.034245595 0.07390369 -0.022175005 -0.06284883
0002c0 7a ce b2 bc 84 e8 bf bd b9 6e d0 bd 66 c2 3e bd
       -0.021826971 -0.09370521 -0.10177369 -0.04657211
0002d0 58 e1 9c 3d 4b a7 d8 3c e9 fd 77 3d 1b 49 5b ba
       0.076601684 0.026446959 0.060544882 -0.00083650806
0002e0 8c ee 8e bc 31 0c 52 bd 11 5e f0 ba b5 48 cc 3c
       -0.017447732 -0.051281158 -0.0018338581 0.024937013
0002f0 e2 2a ed 3c 91 be 02 3c 82 1d 70 3c dc c0 24 3a
       0.028951112 0.007980005 0.014655473 0.0006284842
000300 e3 1b 93 bc 1b 2b a3 3b 1f e4 75 bd bd 7c be bd
       -0.017957633 0.004979504 -0.060032006 -0.09301136
000310 b8 41 cd bd 4d ca d1 bd 34 4a c8 bd 4e 77 4c bc
       -0.100223005 -0.10243664 -0.09779778 -0.012479616
000320 d4 52 a6 bc 82 5d f0 bb 74 30 ff bc 6e fe fa bd
       -0.020303167 -0.0073353657 -0.031151034 -0.1225556
000330 21 d2 d1 bd c8 8e ce 3c 4a 1f 39 bc 7b 00 31 be
       -0.10245157 0.025214568 -0.011298964 -0.1728534
000340 ba f4 87 bd d4 c4 8e bd e9 34 ec bd f3 4b 11 bd
       -0.06638475 -0.06971136 -0.11533529 -0.03547282
000350 14 53 c0 bd 90 f2 6a 3d 35 16 5d 3d f5 f9 68 bd
       -0.09390846 0.057360232 0.053976256 -0.056879003
000360 b8 42 13 3e 09 91 e8 3d 34 d3 09 3e 49 ef 39 3d
       0.1438092 0.11355788 0.13459474 0.045394216
000370 72 57 10 bc 50 f0 f0 3c e0 76 87 bd 0b 22 1a bd
       -0.008809911 0.029411465 -0.066144705 -0.037630122
000380 63 8c 06 bd 02 91 c5 bc f2 99 d2 3c ba af 34 3d
       -0.032848727 -0.024116997 0.025708172 0.0441129
000390 f5 0c 9b bc 03 e2 46 3d 13 42 01 3c f6 01 b4 bc
       -0.018927077 0.048555385 0.0078892885 -0.021973591
0003a0 8b df 0a 3c 2b e3 0d bd f4 0a 6f bd f9 fc 6d bd
       0.008476148 -0.034640472 -0.058360055 -0.05810258
0003b0 77 37 bb bd a1 d4 a5 bd 48 09 3d 3b 30 0f b2 3c
       -0.091414385 -0.08097196 0.0028844643 0.021735758
0003c0 f2 87 26 bd 1a b4 ab 3d 2d 21 18 3d 30 3f c2 bd
       -0.04065699 0.08383961 0.037141014 -0.09484708
0003d0 59 3b 6d 3b 25 e8 69 3c 39 57 0b bd c0 1e 71 3d
       0.0036198704 0.014276539 -0.03401873 0.058867216
0003e0 56 7f 5f 3d a6 0c 20 3d 09 d1 a3 bc a4 ef b9 bd
       0.054564796 0.039074562 -0.019997137 -0.09078911
0003f0 6b f7 f4 39 a2 cb e7 3c 5a fd 18 bd 61 37 4f bd
       0.00046723647 0.028295342 -0.03735099 -0.050589923

body.block1.conv.bias f4 [64]
000000 ab 57 e6 bc 48 a6 27 3d 74 4f 35 bd 13 f5 49 3d
       -0.028117975 0.040930063 -0.044265226 0.049305987
000010 16 7f 20 bd 18 30 12 bd e1 da f0 3b de 59 e1 3c
       -0.0391837 -0.035690397 0.007350311 0.027508672
000020 95 dd ab bc 58 d7 37 3d cc 20 ea bc ee 89 18 bc
       -0.020979682 0.044883102 -0.028580092 -0.009310229
000030 20 a8 02 3d 3b 76 cf bc da 0f 0c 3d e3 43 61 bc
       0.031898618 -0.025324931 0.034194805 -0.013749096
000040 04 fb ab bc 39 6a e9 bc 29 08 b7 3c 41 c5 b8 bb
       -0.020993717 -0.028493034 0.022342758 -0.005638749
000050 8b bf 3c 3d 29 3d 33 3d ef a9 bc 3c b9 94 c1 3c
       0.046081107 0.0437595 0.02303025 0.023630487
000060 35 d4 50 3c 2e a2 42 bc c6 ee 11 bd 6b 5e bd bb
       0.012745907 -0.011879487 -0.035628103 -0.0057790778
000070 ad cb f0 3c 10 33 70 3d e8 60 e1 bc ec 31 e6 bc
       0.029393995 0.058642447 -0.027512029 -0.028099976
000080 e8 ea bf bc 73 6f a6 bc 5d d6 3a bc 61 0b 07 3d
       -0.023427442 -0.020316815 -0.011403647 0.032969836
000090 1f 0f 66 bc fb eb 2e bd 6b e8 89 3c 6e b5 b1 3a
       -0.014041691 -0.042705517 0.016834458 0.0013558099
0000a0 41 1e a7 bb 99 fc cb bc f8 9d 24 3c c1 78 06 bc
       -0.005100042 -0.024900721 0.010047428 -0.008207501
0000b0 e1 98 5e bc c0 a3 f3 39 61 fb df bc 2c 2f db 3c
       -0.013586254 0.00046470575 -0.027341546 0.026755892
0000c0 e8 40 f2 bc 09 49 11 3d 40 ff d6 bc 9b af d5 3c
       -0.029571965 0.035470042 -0.02624476 0.026084712
0000d0 e1 60 c3 ba bc e8 d2 3c f6 9c 04 3d ab 42 71 bc
       -0.0014906191 0.025745742 0.032376252 -0.014725368
0000e0 08 ab 75 bd d7 41 91 bc 96 63 5e 3c 2b db 4f bc
       -0.05997756 -0.01773159 0.013573548 -0.012686531
0000f0 01 06 46 3c ce de f4 3c c5 4b 0e 3d 7c 4f 95 3c
       0.012086392 0.029891398 0.03474023 0.018226378

body.block1.norm.weight f4 [64]
000000 7d b2 5d 3f 2b 25 3b 3f a1 c6 6f 3f d1 b9 63 3f
       0.86600477 0.7310359 0.9366246 0.8895541
000010 f4 ef 52 3f ca 49 6e 3f 5c 76 63 3f 0f 7e 5a 3f
       0.8239739 0.93081343 0.8885248 0.853486
000020 96 c2 56 3f 77 bf 69 3f ab d5 4b 3f df 3e 7f 3f
       0.83890665 0.9130778 0.79622906 0.9970531
000030 4d ab 75 3f dd 3c 62 3f 97 a1 7e 3f 95 1d 58 3f
       0.9596451 0.8837412 0.99465317 0.8442014
000040 2e 04 68 3f 5f fb 8b 3f 7f 55 8c 3f bc 9e 52 3f
       0.9063138 1.0936087 1.0963591 0.8227346
000050 81 d2 85 3f cc f1 74 3f bc 7e 5b 3f 1e 32 7c 3f
       1.0454866 0.9568145 0.85740256 0.9851397
000060 5a 5d 8a 3f ae 24 5d 3f 75 ad 54 3f 72 b8 63 3f
       1.0809739 0.86384094 0.83077174 0.88953316
000070 90 a1 56 3f eb 68 81 3f 98 11 6e 3f 8c 8c 5b 3f
       0.83840275 1.0110143 0.92995596 0.8576133
000080 c2 b0 83 3f e9 19 31 3f 9b a3 7a 3f 4a d5 6a 3f
       1.0288317 0.6918016 0.9790589 0.91731703
000090 ea 87 57 3f 6b ac 85 3f cb 6d 73 3f c8 38 5d 3f
       0.84191763 1.0443243 0.95089406 0.86414766
0000a0 54 01 5f 3f f8 e6 85 3f d5 c6 37 3f 35 b2 9a 3f
       0.871114 1.0461111 0.7178777 1.2085634
0000b0 34 85 8c 3f 96 07 7b 3f 0c db 5c 3f 28 b8 6c 3f
       1.097815 0.9805845 0.8627174 0.924685
0000c0 ab ad 51 3f f9 f2 6d 3f 11 92 5e 3f 68 1a 88 3f
       0.8190562 0.9294887 0.8694163 1.0633059
0000d0 50 f4 52 3f 96 11 84 3f ef eb 53 3f 9b 79 48 3f
       0.8240404 1.0317867 0.8278188 0.78310555
0000e0 31 0f 92 3f 4e a7 7f 3f 43 77 57 3f 8c 8b 83 3f
       1.1410886 0.9986466 0.84166354 1.0276961
0000f0 5a c2 7e 3f a4 90 8d 3f 63 9c 82 3f d9 04 76 3f
       0.99515307 1.1059766 1.0203975 0.96101147

body.block1.norm.bias f4 [64]
000000 7e 75 c1 3e aa af 02 3f 38 2e d9 3e de 99 be 3e
       0.37784952 0.5104929 0.42418075 0.37226766
000010 bb 06 8a 3e 5c 52 83 3c 31 0d ea 3e 92 bc ea 3e
       0.2695826 0.016030483 0.4571319 0.45846993
000020 e7 74 f0 3e f3 1d e9 3e 15 2f cd 3e 5c 58 5a bc
       0.4696419 0.45530662 0.40074983 -0.013326731
000030 04 35 c0 3e 6a c1 c2 3e 37 02 a6 3e 6a f8 b7 3e
       0.37540448 0.38038188 0.32423565 0.35931712
000040 b8 04 a8 3e c9 f4 b8 3e 6a c5 eb 39 c4 58 06 3f
       0.328161 0.36124256 0.00044969778 0.52479196
000050 77 fa c8 3c 34 37 41 3e 30 68 e0 3e df 1b e7 bd
       0.024533493 0.18868715 0.4382949 -0.11284613
000060 f0 7e d7 3d fc 88 3e 3f 2a 3a 1b 3f 79 e5 a3 3e
       0.10522258 0.7442777 0.60635626 0.3201101
000070 3b fb d2 3e 2b ef a9 3e c8 ca 1c 3f d7 e1 16 3f
       0.412073 0.33190283 0.6124692 0.58938354
000080 d3 6f 89 bd 06 25 49 3f 71 53 98 3e 78 e8 23 3f
       -0.06710782 0.7857212 0.2975116 0.64026594
000090 80 96 7c 3e c6 c8 02 be 43 d3 fd 3e 32 9a f9 3e
       0.24666786 -0.12771901 0.49575242 0.48750454
0000a0 17 89 04 3f 69 90 2e 3e 0c ed ca 3e 12 e3 0c 3f
       0.5177168 0.17047276 0.39633977 0.5503398
0000b0 34 b9 c7 3d 3d 2d bc bc 65 2a a9 3e 5f 0d a1 3e
       0.097521216 -0.02297079 0.33040157 0.31455514
0000c0 08 4d 15 3f 93 f6 72 3e 33 50 02 3f 62 e1 1a bd
       0.58320665 0.23726873 0.50903624 -0.037812598
0000d0 34 aa 12 3f 37 c5 f5 3e 59 42 c5 3e 18 ff aa 3e
       0.5729096 0.48002025 0.38527182 0.33397746
0000e0 01 88 b1 3e cc 1f 44 3e 16 8c ac 3e 09 c1 97 3e
       0.34674075 0.19152755 0.33700627 0.29639462
0000f0 f5 db 8c bd 35 c5 f9 3e 81 54 f9 3d ab d3 35 3d
       -0.06877891 0.4878327 0.12174321 0.044391315

body.block1.norm.running_mean f4 [64]
000000 bc 53 f9 bf 34 fc 66 bf 55 1f ca c0 c4 f0 44 3f
       -1.9478679 -0.9022858 -6.3163247 0.7692988
000010 76 dd 4b c0 a7 eb 3d c0 d2 aa 51 c0 99 ee 19 c0
       -3.185392 -2.967508 -3.276051 -2.4051878
000020 63 da 54 be 6d 1f 60 c0 2b b6 d0 bf 3d e8 b0 bf
       -0.20786433 -3.501918 -1.6305593 -1.3820873
000030 24 f6 57 c0 00 04 c4 bf 0a ed aa 3f 87 89 88 40
       -3.3743982 -1.5313721 1.3353589 4.266788
000040 d6 28 5d c0 6a ca e1 c0 d2 ff 50 c0 40 a2 2c c0
       -3.4556174 -7.0559587 -3.265614 -2.697403
000050 c0 17 52 c0 56 f3 65 c0 30 a9 85 bf c9 41 10 3f
       -3.2826996 -3.592977 -1.0442257 0.5635038
000060 6a 06 ce 3f 37 25 ca 3e b4 46 c8 3d 48 13 c6 bf
       1.6095707 0.39481518 0.097791106 -1.5474634
000070 84 d4 73 bf ea 42 2b 40 8d 99 df bf db eb 60 40
       -0.9524615 2.675959 -1.7468735 3.5143955
000080 d9 f3 65 3f 7a 47 d5 bf 9e e8 30 bf 87 13 ae 3f
       0.89825207 -1.6662438 -0.69104946 1.3599709
000090 ea 28 10 bf ed 34 e5 c0 70 f3 fe 3f 51 9e 86 3f
       -0.5631243 -7.1627107 1.9918041 1.0517064
0000a0 4f 90 0b c0 23 99 06 c0 f5 0f ca bf 75 5e 03 41
       -2.180683 -2.1030967 -1.578612 8.210561
0000b0 ee 6f db c0 4a 07 5f c0 4a 89 3c 3e 5b e0 80 c0
       -6.8574133 -3.48482 0.18411747 -4.027387
0000c0 61 79 ec bf 13 57 28 3f 46 b3 87 be 7e 60 11 c0
       -1.8474542 0.65757865 -0.26503962 -2.2715144
0000d0 15 85 af bf e8 bc 6d c0 88 ad 53 be ba 90 2f bf
       -1.3712488 -3.714655 -0.20671666 -0.6858021
0000e0 88 ac f6 40 a2 41 a5 3f 68 bf 2e c0 40 da 85 c0
       7.708561 1.2910655 -2.7304325 -4.182892
0000f0 5b 41 2e c0 bd 1c b0 c0 83 6f 78 c0 2e db 93 bf
       -2.722739 -5.503508 -3.8818061 -1.1551263

body.block1.norm.running_var f4 [64]
000000 0a 22 88 3f 1f 5b ac 3f d8 3b 86 40 bb 0a ee 3f
       1.0635388 1.3465308 4.194805 1.8597025
000010 bb e9 07 40 7f 97 18 40 90 27 d5 3f 0d 3f b4 3f
       2.1236408 2.3842466 1.6652699 1.4081742
000020 e1 12 30 40 8e 95 42 40 07 9e 2c 40 6e c3 cc 3f
       2.7511523 3.040378 2.6971452 1.599714
000030 6c 1a fb 3f 39 ef ff 3f c2 e9 0c 40 04 40 90 3f
       1.9617438 1.999488 2.2017674 1.1269536
000040 ce d6 ac 3f 5f 89 6c 40 a4 5a bb 40 f5 f4 b6 3f
       1.3503053 3.6958845 5.8548145 1.4293505
000050 1e e1 2b 40 7d 94 37 40 39 03 91 3f 15 5b b5 3f
       2.685615 2.868438 1.1329108 1.4168421
000060 a3 9a 6b 40 f8 9b 9f 3f ab ad 49 40 e2 ef bf 3f
       3.6813133 1.2469473 3.1512249 1.4995081
000070 54 c2 90 3f ce 65 f4 3f b9 08 f7 3f 2d 04 08 40
       1.1309304 1.9093568 1.9299537 2.1252549
000080 73 08 fb 40 92 2c 4b 3f e6 c5 cb 3f fa 3c eb 3f
       7.8447814 0.79364884 1.5919769 1.8377984
000090 a4 0f 96 3f 77 6e b3 40 66 cd 89 40 91 33 a9 3f
       1.1723523 5.6072345 4.306323 1.3218862
0000a0 7a 5f f5 3f e2 0e 00 40 7b 1c 4b 3f 5f 22 07 41
       1.9169762 2.0009084 0.7934033 8.445891
0000b0 05 66 ff 40 e4 73 89 3f c4 05 73 3f 30 e3 91 40
       7.9812036 1.0738492 0.9493067 4.558983
0000c0 56 b3 ed 3f ad bf c9 3f f9 1e 8e 3f 19 77 16 40
       1.8570354 1.576162 1.1103202 2.3510191
0000d0 c8 69 90 40 68 ca 01 40 54 96 a4 3f 0b 94 b7 3f
       4.5129128 2.027979 1.2858377 1.4342054
0000e0 c0 1f d5 40 7c 48 36 40 91 42 74 3f be b5 1f 41
       6.6601257 2.848174 0.9541407 9.981871
0000f0 09 f0 8b 3f b9 f1 c6 40 6d c8 e2 3f 89 81 a5 40
       1.0932628 6.217007 1.7717415 5.1720624

body.block2.conv.weight f4 [64, 64, 3, 3]
000000 c3 8d 98 bd c0 00 07 3d df ed 35 bd 50 33 90 bd
       -0.07448914 0.0329597 -0.044416305 -0.07041037
000010 69 cd f5 3b 64 6d 49 3d a7 76 80 bd 6e ca fe b9
       0.0075012934 0.04917659 -0.06272631 -0.00048597477
000020 20 42 19 3d 6c 53 6e bc 09 42 78 3c f4 72 52 bd
       0.037416577 -0.0145462565 0.015152463 -0.05137916
000030 c6 95 a2 3d 3c cb 2c 3d bd 50 e6 bc 26 02 28 bd
       0.07938723 0.042186007 -0.02811467 -0.041017674
000040 a6 58 8a bd cc d4 fa bd fd 80 09 be cd 85 15 3c
       -0.067551896 -0.12247619 -0.13428111 0.009126139
000050 68 43 30 bd c6 04 e5 3c 27 0d b8 3d 40 ea 0e 3d
       -0.043033034 0.027956378 0.089868836 0.034891367
000060 65 9b 66 3d b7 5e 26 3d 6d 48 85 bd af cc 00 be
       0.05630054 0.04061767 -0.06507955 -0.1257808
000070 8d 6e 69 bd 61 88 22 bd f9 d2 25 b9 9d d6 d0 3b
       -0.056990195 -0.039680842 -0.0001581422 0.00637324
000080 8a 5e 7e bd d3 4c 35 3d 1d 9e 4e 3d 6d b4 39 3b
       -0.06210188 0.04426272 0.050443757 0.0028336302
000090 67 1f fe 3c 65 51 31 bd 8e 14 87 bd 25 fd c0 3c
       0.031020833 -0.043290514 -0.06595717 0.023558209
0000a0 24 4e 3e bc df db 2e 3b b7 2d bd 3d 49 d3 bc 3d
       -0.01161531 0.0026681346 0.09237235 0.09219987
0000b0 9c 44 d6 3d 9f bb a2 3d 44 18 97 3c 1c 2e 24 3d
       0.10462305 0.07945942 0.018444188 0.040083036
0000c0 d3 53 a9 3d c0 cb 68 bd 80 ff f2 bc b3 41 58 3e
       0.08267941 -0.056834936 -0.029662848 0.21118812
0000d0 84 da 00 3e a7 5a 11 3e 05 2e c5 bd 19 16 22 bd
       0.12583357 0.14194737 -0.09627918 -0.039571855
0000e0 6f 5c dd bd 5b 87 c6 bb 13 7b af 3d c4 18 b9 3d
       -0.10808646 -0.006058616 0.085683964 0.09037927
0000f0 0a 0a bb 3c 6c 25 69 bc 34 cb 20 3d fc ac f2 bb
       0.022831935 -0.0142301135 0.03925629 -0.0074058753
000100 59 ae d2 3c be 82 c5 bb 33 9d 21 bc 2c 9f a9 bd
       0.025717901 -0.0060275486 -0.009864139 -0.08282313
000110 14 fb ae ba d9 11 af 3c 57 51 2d bb 60 fd 83 3d
       -0.0013349974 0.021370815 -0.0026446187 0.06444812
000120 59 5e 96 3d 27 54 29 3d 50 08 cc bd fb 13 93 3c
       0.07342214 0.04134002 -0.09962523 0.017953863
000130 9e 3b 51 3d 76 42 eb 3c ab 53 f7 3d a9 23 0d 3e
       0.051082246 0.028718214 0.12076505 0.13783135
000140 19 5a be 3d b4 1c 29 3c ab 0b 1b 3e 7e 94 e7 3d
       0.092945285 0.010321785 0.1514117 0.113076195
000150 ef 22 99 3d 16 c8 da 3c 04 e0 46 bd e6 01 b3 bc
       0.07477366 0.026706737 -0.04855348 -0.021851491
000160 6a 2e 92 bd 05 0a 9e bd ee a3 9a bd 00 60 9d 3c
       -0.07137759 -0.07716755 -0.07550798 0.019210815
000170 a8 89 47 3d ad 5b 88 3d 57 9f 82 3a 9d e4 fe 3d
       0.048715264 0.06658111 0.00099657 0.12445948
000180 4d 85 b1 3c e1 58 26 3d 01 4b e6 3d f3 9c 81 3d
       0.021670008 0.040612105 0.112447746 0.06328764
000190 25 db 82 bc f1 bc c5 bc 1d e0 04 3e 8b 52 94 bb
       -0.015973637 -0.024137946 0.12976117 -0.0045264415
0001a0 38 98 dd bc 78 6c ec 3c 9c 34 38 bd b3 10 40 3c
       -0.027050123 0.028860316 -0.044972047 0.011722731
0001b0 02 ca 24 be bb ad 02 be ff dc dc bd e2 ed c1 bd
       -0.16092685 -0.12761585 -0.10784339 -0.09469201
0001c0 0e 6c 9e bd 0b 21 4f 3c 50 79 1c 3d 61 15 f4 3c
       -0.077354535 0.012642155 0.03820163 0.02979535
0001d0 4c 6b f3 3d f8 0a 48 be ca c5 5e bb 68 09 1f bc
       0.118857 -0.19535434 -0.0033992403 -0.0097068325
0001e0 9c 90 9f bd a4 03 26 3c cf 1f 85 bd 0b 8d 78 3d
       -0.07791254 0.010132704 -0.06500208 0.060681384
0001f0 fc 86 14 3d 09 04 3c 3d 04 bb d6 3c 93 a8 b1 3d
       0.036261544 0.045902286 0.026212223 0.08674731
000200 63 5c 90 bd cc a9 e5 3c 88 2a da bc c0 3e 18 3c
       -0.07048871 0.028035067 -0.026631609 0.0092923045
000210 52 f1 4a 3d 51 3d 1c 3e 4a ef b1 3d 3f 9a 97 3b
       0.049546547 0.15257765 0.08688219 0.004626542
000220 33 80 e7 39 10 76 3d 3c 23 ac 1b 3d 9b 09 b2 3d
       0.0004415527 0.011563793 0.03800596 0.08693238
000230 2a e5 a2 bb 3d 6a 9c bc 10 cd 85 bd 96 c1 46 be
       -0.004971166 -0.019093627 -0.06533253 -0.19409785
000240 f9 d4 12 bd d0 7b 4b 38 a4 1d 0c 3d 49 45 0e 3d
       -0.035847638 4.851428e-05 0.034207955 0.034734044
000250 db 99 e2 bc 45 dd 4c 3c f7 f3 48 3d 8e 3b 60 bc
       -0.027661255 0.012503927 0.049060788 -0.013686074
000260 c9 ba 7a 3d 89 dc 55 bd 39 c5 54 bd 41 be f4 ba
       0.06121329 -0.05221227 -0.0519459 -0.0018672423
000270 54 24 0f bd 0a 43 17 3d 7d f9 3f 3d a2 9a 08 bd
       -0.034946755 0.036929168 0.04686879 -0.033350594
000280 2e 30 90 3c 10 3d 20 3c cf ef 3c 3e 32 07 08 3e
       0.017601099 0.009780183 0.18450855 0.13283995
000290 1f a4 06 3e b7 f3 91 3d 81 30 87 3d 36 83 82 3b
       0.13148545 0.07126563 0.06601048 0.0039829267
0002a0 8c 69 ba 3d db f8 c3 bb 74 36 39 bd 49 8c 1f bd
       0.09102163 -0.0059805936 -0.045217946 -0.038952146
0002b0 2b 05 08 ba d0 12 05 be a9 3a f0 bc af 60 6f 3b
       -0.00051887584 -0.12995458 -0.029324846 0.0036526134
0002c0 4c a7 a1 3c 63 9c 1d 3e bc f8 c2 3d da 93 51 3e
       0.019733094 0.15391688 0.095200986 0.20466557
0002d0 9f ad 25 be d0 c6 43 bc 82 bf 00 bd 05 e5 8b 3b
       -0.16179512 -0.011949256 -0.031432636 0.0042692446
0002e0 24 42 7c bd c4 02 3d 3d dc b1 e8 3d 61 69 06 3d
       -0.061586514 0.046145216 0.11362049 0.03281534
0002f0 7a bd 04 3d 36 3b e5 bd 41 1d b1 bd bc 7f e4 bc
       0.03240726 -0.11192934 -0.08648158 -0.02789294
000300 e2 21 39 bd 91 22 a5 bc 4e a6 df bc c7 2c 8e bd
       -0.04519833 -0.020158084 -0.02730098 -0.06942134
000310 73 73 17 bd 2a aa a7 bd ea 3a 84 bd 35 e3 38 3c
       -0.036975335 -0.08186753 -0.064565495 0.011284639
000320 ef cd 66 3d 63 5a 7c bd 00 5b fd bc 5c 0e 22 3e
       0.056348737 -0.061609637 -0.030927181 0.1582579
000330 23 10 f1 bc 7b cd 1e ba 31 b5 c2 3c d1 e7 98 3c
       -0.02942664 -0.00060578407 0.02376804 0.018665226
000340 2c cf c7 3c ae 71 b9 3d 00 1d ed bc 39 cb c3 3c
       0.02439078 0.09054886 -0.028944492 0.023900615
000350 0c ac 2b 3d 1a cb 28 bd e8 7b 5b 3c 56 40 2f 3b
       0.041912124 -0.041209318 0.013396241 0.0026741228
000360 d8 85 0f bc 28 b9 b8 3d 4d 5e 16 3e fb d0 b0 bc
       -0.008759938 0.09019691 0.1468441 -0.021584025
000370 ff 69 84 3d 70 73 f8 3d 09 7f 07 3d e7 5b d4 3c
       0.0646553 0.12131393 0.033080135 0.025922729
000380 ef 6e fe 3d 45 a2 08 3e 64 e4 00 3d 25 bf fa bc
       0.12423503 0.13343151 0.03146781 -0.030608723
000390 37 fe be 3d da 39 1e bd 68 61 14 bc 31 5c 01 3e
       0.093258314 -0.03862939 -0.009056427 0.12632824
0003a0 b6 19 8c 3d ad b9 41 3e 07 7e 3d 3c c4 66 2a bd
       0.068408415 0.18918486 0.011565692 -0.04160191
0003b0 51 9f 80 3d bb 16 72 bc 2b d5 bc 3c 81 e8 89 ba
       0.06280387 -0.014775927 0.023050865 -0.0010521562
0003c0 05 cc 0f 3d 24 32 02 3c a1 cf 03 bd 40 95 47 be
       0.035106678 0.007946525 -0.032180432 -0.19490528
0003d0 9d 82 02 3d cb eb 81 3d f0 1b 12 bc d0 d4 99 bc
       0.031862844 0.06343802 -0.008917794 -0.018778235
0003e0 f7 0a 2b bd 8c 71 15 3c 67 bc b1 bd be f6 ac 3c
       -0.041758504 0.00912131 -0.08678513 0.02111375
0003f0 88 e7 9b bd 4b 5a 86 bd 0e 47 7a bd af 34 c5 bd
       -0.076125205 -0.06560191 -0.06110292 -0.09629189

body.block2.conv.bias f4 [64]
000000 24 8a 19 bd 51 35 f3 3c 7d 66 00 3a 44 f3 65 3c
       -0.037485257 0.02968851 0.00048980844 0.01403505
000010 49 20 ba 39 ee 63 a6 3c 7d 09 e0 3b 29 d3 12 bd
       0.0003550074 0.020311322 0.0068370686 -0.03584591
000020 28 f7 de 3c 07 72 8d bb 81 bc 02 3c e9 b6 f4 bb
       0.027217463 -0.0043165716 0.007979513 -0.0074680937
000030 c6 a8 c6 3b 0e d9 b8 3b 6b f3 99 ba 81 24 9d bc
       0.0060626 0.0056411093 -0.0011745518 -0.019182445
000040 ec d1 85 3c b0 3f 14 3d 04 76 90 bc 59 17 17 bd
       0.01633545 0.03619355 -0.0176344 -0.0368875
000050 c4 7a c3 3a 97 dc ee bc c6 41 dd bb 0b 70 89 bc
       0.0014913906 -0.02915792 -0.0067522256 -0.016777059
000060 90 70 1e bc b6 49 c7 3b ef 86 0d bd fc 4b fa 3c
       -0.009670392 0.006081785 -0.03455251 0.03055381
000070 38 fc 93 bc cf 7c c0 bb 16 d2 be 3c c8 42 1d bc
       -0.018064603 -0.0058742533 0.023293536 -0.009598441
000080 11 14 ec 3c 60 96 1b 3d 0b 42 e3 bc 37 18 ff bc
       0.028818162 0.037985206 -0.027741453 -0.031139476
000090 b7 ec 9f bc dd 32 99 bc 06 50 00 3c 49 74 e2 bc
       -0.019522054 -0.018701011 0.007831579 -0.02764334
0000a0 ea 27 22 3d 56 c4 0d 3d 03 9d b6 3c 8c 68 eb bc
       0.039588846 0.03461107 0.022291666 -0.028736375
0000b0 eb c0 d7 3c 1c 04 fd bc 81 ff 2d 3d 45 eb 12 3d
       0.026337108 -0.030885749 0.042479996 0.0358689
0000c0 c6 79 8f bc 73 20 e6 3c 87 55 f4 3a 2d 1a 7f 3c
       -0.01751412 0.028091645 0.0018641212 0.015570206
0000d0 80 22 1e 3d 40 9b 56 bd b7 58 0b bd 2f 45 01 bc
       0.03860712 -0.05239415 -0.034020152 -0.00789003
0000e0 d7 8f 04 3d 53 5c 28 3d 57 13 11 bd 1b f1 fc bc
       0.03236374 0.041103672 -0.035418835 -0.030876687
0000f0 93 9f ab bc f6 68 8f 3c 67 71 e1 ba 72 2a 78 3b
       -0.020950114 0.017506104 -0.0017199934 0.0037867096

body.block2.norm.weight f4 [64]
000000 c5 d3 6e 3f 1b 60 67 3f 56 c2 7b 3f d7 67 78 3f
       0.93291885 0.9038102 0.9834341 0.9703345
000010 1b 7e 33 3f 09 38 72 3f 4a f7 89 3f 35 18 5c 3f
       0.70114297 0.9461675 1.0778592 0.85974437
000020 88 f0 6b 3f 4e 27 75 3f 5d cb 79 3f ad 4f 84 3f
       0.92163897 0.957631 0.9757593 1.0336815
000030 9d 07 71 3f 86 ad 89 3f 64 1a 7c 3f cf 58 7a 3f
       0.9415224 1.075608 0.9847777 0.9779176
000040 20 dd 7e 3f 32 3c 7e 3f 07 3b 7f 3f e3 b8 5f 3f
       0.9955616 0.993106 0.99699444 0.8739149
000050 fb 68 7b 3f 36 43 72 3f ae df 7c 3f 46 26 86 3f
       0.9820706 0.94633806 0.9877881 1.048043
000060 13 02 76 3f 85 cc 80 3f 00 b7 6e 3f 95 fb 5d 3f
       0.96096915 1.0062414 0.93247986 0.8671201
000070 bc 67 6f 3f b2 6d 56 3f 41 98 64 3f 83 83 6c 3f
       0.9351766 0.8376113 0.8929482 0.9238817
000080 c2 1c 67 3f cc 4f 4c 3f b4 1d 88 3f 94 07 6f 3f
       0.90278256 0.7980926 1.0634065 0.9337094
000090 10 c9 84 3f 92 46 76 3f c5 d8 85 3f c5 5d 90 3f
       1.037386 0.9620143 1.0456778 1.1278616
0000a0 83 2c 80 3f 16 df 82 3f 61 2b 6b 3f d0 74 85 3f
       1.0013584 1.022433 0.91863066 1.0426273
0000b0 31 38 5a 3f dc b7 58 3f ea 83 84 3f a4 dc 92 3f
       0.8524199 0.8465555 1.0352757 1.1473584
0000c0 b7 5f 75 3f 06 96 6c 3f 0d 87 62 3f 81 e4 75 3f
       0.95849174 0.9241642 0.8848732 0.96051794
0000d0 03 53 78 3f 4b 5a 82 3f dc 33 67 3f bb 4f 74 3f
       0.97001666 1.0183805 0.90313506 0.9543416
0000e0 77 a9 77 3f 1f cb 84 3f b9 6a 81 3f 67 60 66 3f
       0.9674296 1.0374488 1.0110694 0.8999085
0000f0 99 ee 62 3f e1 04 6b 3f 30 6d 6f 3f d1 19 84 3f
       0.8864532 0.9180432 0.9352598 1.0320379

body.block2.norm.bias f4 [64]
000000 ed ed 47 3e 65 21 d3 3e 53 a2 8b 3e 1f 82 ab 3d
       0.19524355 0.41236416 0.2727228 0.08374428
000010 88 b5 4f 3f 8b 0c 01 3f 97 9b 65 3d e2 39 af 3e
       0.8113637 0.50409764 0.056056585 0.3422385
000020 fd 90 9a 3e 20 1f a6 3e 8f 3f 14 3e 19 1c b4 bb
       0.30188742 0.32445621 0.1447737 -0.0054965136
000030 47 e5 be 3e 58 6e 93 be 4a 10 90 3d f4 b6 0d 3e
       0.372843 -0.28795123 0.07034357 0.13839322
000040 48 cc 72 3e e9 77 e3 3e d6 19 3c 3e b9 98 92 3e
       0.2371074 0.44427422 0.1836923 0.28632143
000050 1a 29 ea 3e 10 6e 96 3e 23 e2 bf 3e 94 be f2 bd
       0.45734483 0.29380846 0.37477216 -0.11852756
000060 ef 88 58 3d c8 02 1d 3e 46 0f c0 3e 34 a0 18 3f
       0.052864965 0.15333092 0.37511653 0.5961945
000070 a2 4e 31 3e 01 86 19 3f 42 b8 f7 3e 84 19 d7 3e
       0.17315152 0.599701 0.48382765 0.42011654
000080 ce c3 09 3f 70 9b fb 3e 00 d2 22 3d 40 27 1d 3f
       0.538144 0.49142027 0.039751053 0.61388016
000090 18 57 95 be 22 93 7b bb 20 5a 25 be 23 d5 aa bb
       -0.2916801 -0.0038387259 -0.16147661 -0.005213396
0000a0 4c 9c c7 bd 82 41 ce 3e fb 8e da 3e c0 df 59 3e
       -0.09746608 0.40284353 0.4268721 0.2127676
0000b0 d5 8a b4 3e 2b 49 4d 3f 95 90 a8 3e 98 a1 fe bc
       0.3526217 0.8018977 0.32922807 -0.031082913
0000c0 ea 63 cf 3d 45 63 b6 3e dd ea 97 3e 12 16 59 3e
       0.10126479 0.35622612 0.29671374 0.21199825
0000d0 46 4e 09 3f 9b e7 92 3e 43 b5 d2 3e cd 74 87 3e
       0.5363506 0.28692326 0.41153917 0.264563
0000e0 97 03 20 3e 4a b5 57 3d 5b b7 cd 3d 5f 3c 1f 3d
       0.1562637 0.052663125 0.10044738 0.038875934
0000f0 89 de b5 3e fe ee 73 39 d9 f9 c7 3e d4 fb 10 3f
       0.35521343 0.00023263317 0.39057806 0.5663426

body.block2.norm.running_mean f4 [64]
000000 64 4c 85 3f 40 14 35 c0 32 85 1b c0 ad fe 6b bf
       1.0413938 -2.829361 -2.4300046 -0.9218548
000010 94 8a a8 3f 68 30 27 40 03 e6 36 40 98 44 9d bf
       1.3167291 2.6123295 2.8577888 -1.2286558
000020 9f 38 b1 3f 3a d9 60 40 cb 42 e9 bf 2c b3 a3 c0
       1.3845404 3.5132585 -1.8223509 -5.1156216
000030 e1 03 21 c0 d3 3d 18 c0 66 5e 44 bf 9c 71 56 bf
       -2.5158617 -2.3787735 -0.7670654 -0.83767104
000040 8b 38 c5 bf 1c e3 9d be 4b 4b bc be a9 db bd bf
       -1.540788 -0.30837333 -0.36776194 -1.483266
000050 3d ba 53 c0 bc 0c a3 3f ba c7 64 c0 f0 32 10 be
       -3.308242 1.2738261 -3.5746903 -0.14081931
000060 bb 5e 3e c0 af ee d2 bf f9 60 ee 3e da 6a 46 bf
       -2.974532 -1.647909 0.4655836 -0.7750679
000070 9f 1d c0 be 37 46 89 40 ca 71 28 bf cd df 82 bc
       -0.375226 4.289821 -0.6579863 -0.015975857
000080 ea 4d 7c 3f f2 7f 2e 3e f1 08 67 c0 da 02 ac 3f
       0.9855639 0.17040995 -3.6099207 1.343837
000090 fe a8 2f c0 b5 ec dd 3e 1c 13 24 c0 5b 9e 08 3e
       -2.7446895 0.43344656 -2.5636663 0.13341658
0000a0 67 32 74 c0 62 81 67 bf 79 93 b1 bf f0 35 22 c0
       -3.8155763 -0.904318 -1.387313 -2.534542
0000b0 1c 4e 34 be 18 34 33 bf 0c a8 12 bf a3 2c c3 3c
       -0.17607921 -0.70001364 -0.5728767 0.023824995
0000c0 8b 31 df bf 1e 56 4f 40 7f 91 a4 3e e9 6f f5 3f
       -1.7436994 3.2396312 0.32142255 1.9174777
0000d0 c5 36 e4 be 55 96 a4 bf 49 06 99 3f b8 a4 d1 3f
       -0.44573036 -1.2858378 1.1955043 1.6378393
0000e0 47 c5 f2 3f e2 29 e3 3f 76 44 ce 3f 9a 9b 07 40
       1.8966454 1.7747157 1.6114643 2.1188722
0000f0 ea c8 8f 3f e3 bd 14 3f b6 b3 7f 3f 29 a2 40 bd
       1.1233189 0.58102244 0.9988359 -0.047029648

body.block2.norm.running_var f4 [64]
000000 98 b0 10 40 21 c5 12 40 69 84 49 40 e2 ef 8f 3f
       2.2607784 2.2932818 3.1487067 1.1245081
000010 4b eb 07 40 35 b7 29 40 ab 58 57 40 62 2d b2 3f
       2.1237361 2.651807 3.3647869 1.39201
000020 4b 9a 37 40 63 a8 24 40 f4 c6 6c 3f 26 6d 1b 40
       2.8687923 2.5727775 0.9249108 2.428537
000030 db 9c ed 3f f7 ac 56 3f ac 76 d9 3f b0 ef 1d 40
       1.8563493 0.83857673 1.6989341 2.4677544
000040 d2 b9 0b 40 ab 84 16 40 92 0a 02 40 31 52 af 3f
       2.1832166 2.3518474 2.0318952 1.3696958
000050 52 65 17 40 87 6b a9 3f b2 78 3b 40 f1 fb 6b 40
       2.365559 1.323594 2.9292417 3.6872523
000060 8d c1 1a 40 15 2a 59 40 af ff b1 3f 10 88 d4 40
       2.4180634 3.3931935 1.3906153 6.641609
000070 55 ed 2b 40 d1 01 ec 3f 42 73 dc 3f 41 d2 34 40
       2.6863606 1.8438054 1.7222674 2.8253329
000080 9d 24 f6 3f 45 fc b9 3f 45 e9 ed 3f a9 94 1c 40
       1.9229923 1.4530112 1.8586813 2.4465735
000090 e0 f4 62 40 3b 4f 8a 3f a2 83 57 40 bb 9b 45 40
       3.546196 1.0805429 3.3674092 3.08763
0000a0 f0 14 4c 40 fb 1d 03 40 b4 6b dd 3f 4d d1 e4 3f
       3.188778 2.0487049 1.7298493 1.7876374
0000b0 07 ec e1 3f a9 94 31 40 ad 5f 04 40 ca 36 74 40
       1.7650155 2.7746985 2.0683396 3.815844
0000c0 10 de cc 3f 1c 98 d7 3f 1a 4c bb 3f 4b 82 0b 40
       1.6005268 1.6843295 1.4632599 2.1798275
0000d0 67 30 11 40 7f 3a d4 3f cd ec bd 3f 3c 99 18 40
       2.2685792 1.6580352 1.4837891 2.3843527
0000e0 10 f9 26 40 8a c3 4b 40 b9 3d 16 40 2a a6 75 3f
       2.6089516 3.1838098 2.3475173 0.9595667
0000f0 e4 40 c0 3f 91 1b c1 3f 74 0f 15 40 95 87 db 3f
       1.5019803 1.5086538 2.3290682 1.7150751
