trained_models/sinGan/mountains/scale_factor=0.750000,alpha=10/7/netG.pth (torch_old, 466445 bytes, 26 tensors)

head.conv.weight f4 [64, 3, 3, 3]
00000000: 2925 d53e 7cfe bf3e f6f7 b63e d5d9 b93c
00000010: 9cb9 bebc 5946 c13d bce6 f33d e720 bf3d
00000020: 1f49 d53d abae 853d b832 9e3d 3242 b33c
00000030: 97ae d0bb 613e 49ba 3c83 2e3d 9533 813c
00000040: 4c61 c5bc 4ef9 a5bd 87a2 43bc 8aed 703c
00000050: f744 52bd ab1d e4bc 989f b43c 2706 c7bc
00000060: 9b1a e9bd 11b7 d7bd f3ae 29be fc36 a9bc
00000070: 6de0 efbb 7de0 2f3d 7052 73bd 603e 84bd
00000080: 8bd7 81bd e88f bdbb 0dd3 abbc 896b 6fbc
00000090: ec12 5e3d 1637 13bc 7457 e83c 300c 163e
000000a0: 0b7b 6fbd 5ea2 98bd 84cf 803e a016 f63d
000000b0: 659d e03d 2c62 2f3e 6227 9f3d 25a4 0fba
000000c0: fe43 5e3e 420f 0c3d 6c96 f8bd 55f7 d23e
000000d0: 1a0a 5b3e baa4 373d f01c 5dbe 4953 67be
000000e0: 22ef 7ebe f9ee 4bbd 9f72 7bbd cf82 c33c
000000f0: 4182 bebb 9f2b 793d b5d2 973d 8905 56bd
00000100: 2a9d cebd 791a aabd e115 85bc 1380 0dbd
00000110: 6c6b a83d 8205 463d b3ea 223e 08c8 523e
00000120: 2fe4 22bd 88d3 fb3b f073 283b 9e25 02bd
00000130: 13de 333d 0454 6d3d cd61 283d aefd ed3d
00000140: 9075 fd3d 3206 7b3e f5e2 a03d d4b2 363d
00000150: f230 d43c c5d0 0b3d bcea f2bd f899 40be
00000160: 58aa adbd 3249 b1be ad50 033e a2da cf3d
00000170: 8abf 223e fb88 5f3c 8c34 bf3c ced7 563d
00000180: 57e8 eebd 99ae 4e3b 71b5 edbd 0ce9 aa3b
00000190: 1bac 45bd 21c6 043e 99ea 27bc 4f66 b0bd
000001a0: ae42 1a3d 1d9e e0bd c379 0ebd b498 41bd
000001b0: 2e75 e03d b927 b03d 6475 053e c41d 31be
000001c0: 6e24 e7bd 51ec f7bd 184b 14bd 9486 083e
000001d0: 9c83 3b3d ceec 073e 57ab 023d 8164 563a
000001e0: 7741 b1bd 746f f7bd eaee 22be 6164 603d
000001f0: 1040 193e de32 103e 4762 ef3d 400b 6fbd
00000200: 852a aabd 64f1 dabd 659e e4bd 97a5 48be
00000210: fbf8 333d 8a62 883d 1dce 4a3d d085 1c3c
00000220: 1032 3dbd 227d b8bd 8d4e b5bd a8d0 37bd
00000230: be6d 95bd af35 64bd dc70 ecbd 084f e5bd
00000240: 387a 3a3e d9cd 023d 7233 0fbd f796 5bbd
00000250: 089b 913c 114e 463d e4bc dc3d 39e8 b03c
00000260: 7571 043e ae55 e4bd ebf7 3dbe fcee a9be
00000270: ef8b 91bd 3499 06be 3a7b 20be 5cf6 5f3d
00000280: 8a42 883c ac6d 703b ce21 90bd 6965 eabd
00000290: 8d92 39be 9b21 293e d1a9 b73c ed23 b1bd
000002a0: d3f1 2d3e 6234 dc3d 80df 513e efa9 1abe
000002b0: 55d2 07be 2503 45be 2d12 c53d 79aa 453c
000002c0: 78bc 75bd eeae f73d b93a f83d 3de1 c13d
000002d0: dc3c 15bd 50f7 11bd ddc9 8bbc bd19 083d
000002e0: 0e1e ad3c a9ba 833d 0d6c a13c 0121 843d
000002f0: 5d58 893d 4459 a73c 3320 cd3d 721b f4bd
00000300: 3b0f c73d b275 433e deeb afbc 943e a3bd
00000310: b8c8 aa3c cb1e 00bd 5b02 79be a0d1 1fbe
00000320: db3e 01bf 54be 683b 99c0 6e3d 1c90 07be
00000330: 55e8 39be b3cd ad3c 0001 0bbe 5c39 363d
00000340: 9b0f 693d 0168 61bd 2a7e aa3d b148 623d
00000350: b513 abbc 8124 1a3c 5bae 953c eab3 a13a
00000360: f02f 28bd 1182 25bd c2d9 dabc 32fb a0bd
00000370: 7b9d 1bbd 84ed 763d cc76 03bd ac34 7c3c
00000380: 3086 a63d b841 c53d 64e3 253d a33f 9f3d
00000390: aee4 0ebd 78b1 60bb 9b44 fc3d 55c0 eabc
000003a0: 1a0c 46bc f91c 8e3d 1817 703e 98b6 4a3e
000003b0: 1904 943e 7b70 073a b503 febb 75f3 9d3d
000003c0: fce1 15be 516f e3bd ff4a eabd 9948 8d3d
000003d0: cd89 b03d 4b39 fb3d 7071 41be ef64 1dbe
000003e0: a036 08bd f2cc b0bd ed4e f9bc 56fa f038
000003f0: a87e d63d 21a2 7e3d 768a ad3c 2b9c a03d
0.41629913 0.37498844 0.35736054 0.022686878 -0.023281865 0.09437246 0.119092435 0.093324475
0.10414337 0.06527456 0.077245176 0.02188215 -0.006368469 -0.00076768367 0.042605624 0.015771667
-0.024094246 -0.08104192 -0.011940605 0.014705071 -0.0513353 -0.027846178 0.022048756 -0.024294926
-0.11382028 -0.10532964 -0.16570644 -0.020656101 -0.007320455 0.042938698 -0.05940479 -0.064572096
-0.0633994 -0.005784977 -0.02097466 -0.014613041 0.054217264 -0.0089853015 0.028362013 0.14653087
-0.058466952 -0.07452844 0.25158322 0.12016034 0.109675206 0.17127293 0.077711836 -0.00054794765
0.21705624 0.03419424 -0.12138066 0.41204324 0.21390572 0.04483483 -0.2159307 -0.22590365
-0.2489591 -0.04978845 -0.061388608 0.023866085 -0.0058138673 0.060832616 0.07413236 -0.052251372
-0.100885704 -0.083058305 -0.016245784 -0.03454597 0.08223614 0.048345096 0.15909843 0.20584118
-0.039768394 0.0076851286 0.002570387 -0.031774156 0.04391296 0.05794145 0.041108895 0.11620651
0.12375939 0.24514082 0.078557886 0.044604138 0.025902245 0.034134645 -0.11861178 -0.18808734
-0.08479756 -0.34626156 0.12823744 0.10149123 0.15893379 0.0136434985 0.023340486 0.0524519
-0.11665409 0.0031537174 -0.11606873 0.0052157696 -0.048259836 0.12966205 -0.0102488035 -0.08613264
0.037661247 -0.10967658 -0.03478409 -0.04726477 0.1095985 0.086013265 0.13033062 -0.17296511
-0.11286245 -0.12105621 -0.036204427 0.13332587 0.04577981 0.13273928 0.031901684 0.00081784284
-0.086550646 -0.12081805 -0.15911451 0.05478323 0.14965844 0.14081904 0.11688667 -0.05836034
-0.08308891 -0.10690573 -0.11163024 -0.19594418 0.04393862 0.0665942 0.04951297 0.009553388
-0.04619032 -0.09008242 -0.08852873 -0.044876724 -0.07296322 -0.05571526 -0.11544964 -0.11196715
0.18210685 0.031934593 -0.03496117 -0.05361077 0.01777412 0.048414294 0.107782155 0.021595107
0.12933905 -0.111491546 -0.18551604 -0.33190143 -0.07106768 -0.1314438 -0.15672007 0.054678306
0.01663329 0.0036686463 -0.07037698 -0.11445124 -0.18122311 0.16516726 0.022419842 -0.086494304
0.1698678 0.10752179 0.20495415 -0.15103887 -0.13263829 -0.19239481 0.096226074 0.01206457
-0.05999419 0.12093912 0.121205755 0.09466789 -0.036434993 -0.035636246 -0.01706403 0.03322767
0.021132495 0.06432087 0.019704843 0.064516075 0.06706307 0.020428307 0.10015907 -0.11919297
0.09719702 0.19087866 -0.021474775 -0.0797092 0.020847663 -0.031279366 -0.24317305 -0.1560731
-0.50486535 0.0035513835 0.058289144 -0.13238567 -0.18155034 0.02121625 -0.135746 0.044488296
0.05689965 -0.055030826 0.08324845 0.055245105 -0.02088342 0.009408117 0.018271616 0.0012336944
-0.04106134 -0.040407244 -0.026715163 -0.07860412 -0.037991982 0.060285106 -0.032095715 0.015393417
0.08131063 0.096316755 0.04050006 0.077758096 -0.034886055 -0.0034285467 0.12317773 -0.028656164
-0.012087846 0.0693912 0.2344631 0.19796216 0.28909376 0.0005166602 -0.0077519068 0.07712451
-0.14636987 -0.11105216 -0.114400856 0.068986125 0.086200334 0.12266787 -0.18890929 -0.15370534
-0.03325522 -0.0863284 -0.030433143 0.000114907205 0.104733765 0.062166337 0.021184187 0.07842287

head.conv.bias f4 [64]
00000000: fa6f 603d bd67 f73d dd9a c93d a707 3ebd
00000010: 4f56 0abd c33d 42bd d67f a4bc 14e4 b2bc
00000020: b530 ed3d a8a5 b83d 8ca9 ed3c 9a92 06be
00000030: 7b42 f73a 6411 1b3e b18f 83bd 970b 3abe
00000040: db3f 193e 99ff a7bd fc0d 243d 8d08 0e3d
00000050: 015c 973d 47f7 92bd a423 0abe 3695 89bd
00000060: 793e 993a ebc9 753d 967d 71bc 7d47 3b3d
00000070: 1b6d 5cbd 2c88 c4bd ed29 94bb 7e81 53bd
00000080: d95d 503e 0cfc b0bc a79c 533d 5982 28bc
00000090: 457c 4a3c b598 2ebe 5dd8 203d 655e 03bd
000000a0: 5e50 31bc 59c3 3f3d 21e7 04be 1196 1d3e
000000b0: 2755 09be 30ad 29be e92e 943d 9624 f7bc
000000c0: acfa 12bd 0ac8 17bd f7e4 0e3d 3e31 39bd
000000d0: 0d1d 113c 976c 833d 56a8 54bc 3d36 83bd
000000e0: 0c78 14be 91e2 1fbd e12e 843c b0af 89bd
000000f0: 1b2f 663d eae8 c8bd bda5 563d 0b6d 1cbc
0.05479429 0.120803334 0.09843991 -0.046394017 -0.033773717 -0.04742218 -0.020080488 -0.021837272
0.11581556 0.090159714 0.02901151 -0.13141862 0.0018864417 0.15143353 -0.06423891 -0.18168484
0.14965765 -0.08203048 0.0400524 0.034676123 0.07390595 -0.07176071 -0.13490158 -0.06717913
0.0011691592 0.060007017 -0.014739415 0.045722473 -0.05381499 -0.09596285 -0.0045215995 -0.051637165
0.203483 -0.02160456 0.051663067 -0.010284984 0.01235873 -0.1705044 0.03926884 -0.032072444
-0.010822384 0.046817157 -0.12978794 0.15389277 -0.1341139 -0.16569972 0.0723551 -0.030168813
-0.03588359 -0.037056006 0.034886327 -0.045212977 0.008857024 0.06417196 -0.012979588 -0.064068295
-0.14498919 -0.03903443 0.016135635 -0.06722963 0.056197267 -0.0981005 0.052404154 -0.009547482

head.norm.weight f4 [64]
00000000: b7fc ae3f 9fc7 873f 9743 b43f 361a c13f
00000010: a589 d43f 6d93 a53f 3a2e b93f 587c a83f
00000020: 5be4 8a3f 29da af3f 874c c93f 98ec ae3f
00000030: f795 ac3f 03f0 a33f 498b ee3f 6c92 763f
00000040: b022 a73f 0398 9f3f 703f b03f 53ca b23f
00000050: 1f03 a53f f925 c53f 96c3 ac3f 61d1 cc3f
00000060: 1491 0140 8acd be3f 261b 843f 1904 d13f
00000070: 5aa0 903f 12a1 b83f 82f6 d23f 4b96 db3f
00000080: 0c72 973f d032 c03f 0a20 c33f 67c9 d13f
00000090: 63cd a73f 8f81 a13f 8f4b b73f af9b 813f
000000a0: e046 9e3f b632 ce3f 7399 a63f 2333 963f
000000b0: e6f7 8f3f e066 993f 63c9 ba3f 7bdc 9b3f
000000c0: 90bb a03f cf9d e43f db6f ef3f 1475 803f
000000d0: c7f1 973f c733 b63f 7ceb fd3f 407e b13f
000000e0: 73b0 803f 3eb3 9d3f 40bb c83f 493c 803f
000000f0: 7dd9 a53f b1e2 b43f e941 ab3f 5bef 973f
1.3670872 1.0607795 1.4083127 1.5086124 1.6604506 1.2935616 1.4467232 1.3162947
1.0850939 1.3738452 1.5726479 1.3665953 1.3483266 1.2807621 1.8636256 0.9631717
1.3057461 1.2468265 1.376936 1.3967994 1.2891577 1.5402213 1.3497188 1.6001397
2.0244799 1.4906476 1.0320785 1.6329376 1.1298935 1.4424155 1.6481478 1.7155241
1.1831679 1.5015507 1.5244153 1.6389588 1.3109554 1.2617663 1.4319934 1.0125636
1.2365379 1.6109226 1.3015579 1.1734356 1.1247528 1.198452 1.4592708 1.217666
1.255724 1.7860659 1.870601 1.003573 1.187066 1.4234551 1.9837489 1.3866653
1.0053848 1.2320325 1.5682144 1.0018398 1.2956997 1.4131681 1.3379489 1.186992

head.norm.bias f4 [64]
00000000: d0f2 a8bd 3c9a b8bc 7b34 88be ebfa 0dbe
00000010: be2c 0cbf d7b0 93be a1e4 6ebe ddee f33a
00000020: bb92 a3be 6168 b7be d102 0fbd 6654 97be
00000030: d6f1 04bf 3cb6 89bd 26ba b8be d43c 06bf
00000040: cf24 b3be 7533 bbbd a54a e1be 0f63 e8be
00000050: cb8a 8b3d 0ef9 c3be 32fa a1be 9732 aabe
00000060: eea1 95be 5f68 1dbf 33d7 a1be eae7 31bd
00000070: 74ec fdbd 1baa 65be 80fe 1cbe a18e b4be
00000080: a0e1 45be 93c5 c5be 11ed 15bd f4e1 97be
00000090: ade9 65be 1fe3 ce3d bbe7 90be 9025 9dbe
000000a0: e809 ed3d e275 74be d915 91bd 9e12 36be
000000b0: ab08 57be 3c24 98be 3748 d1be f293 a5be
000000c0: d7db b4be b556 e23d a09b 943d 3220 32be
000000d0: 43e5 f6be 0bd8 193e 002c 41be f41f 12bd
000000e0: 7d07 b3be 36bb 1dbe 6c52 afbe fbbb 27be
000000f0: b4a9 11be 1ad4 aebe 5bfb 5ebe a4a8 87be
-0.08249438 -0.022534482 -0.2660254 -0.13865249 -0.5475577 -0.28845856 -0.23329403 0.0018610616
-0.31947884 -0.35821822 -0.034914795 -0.29556578 -0.5193151 -0.067242116 -0.3607952 -0.52436566
-0.3498902 -0.09140674 -0.44002262 -0.45388076 0.06813582 -0.3827595 -0.31636196 -0.33241722
-0.29225105 -0.6148738 -0.31609496 -0.04343406 -0.123986155 -0.22428171 -0.15331459 -0.35265067
-0.1932435 -0.386273 -0.036603037 -0.29664576 -0.22452421 0.10101914 -0.28301796 -0.3069272
0.11574155 -0.23873094 -0.07084245 -0.1778054 -0.209994 -0.29715145 -0.40875408 -0.32339436
-0.35323974 0.11051694 0.072562456 -0.17395094 -0.48221788 0.1502382 -0.18864441 -0.035675004
-0.3496665 -0.15403447 -0.3424257 -0.16380303 -0.14224893 -0.34146196 -0.21775572 -0.2649585

head.norm.running_mean f4 [64]
00000000: 3887 b6bd 0f80 e7bc 4d1a fc3d 972c adbb
00000010: efcd 86bc aeee e73d 83d0 82bd 6f53 c53c
00000020: b1eb 4f3d 44c2 de3d eb82 b73d 5a26 0fbe
00000030: 0f21 ab3c 6fd4 e83d 9bd7 8abd 89c0 d2be
00000040: 661a e13d d02a efbc 0c0e 78bc 3d1e 8e3d
00000050: b0e6 e0bc 3c4c 80bd 1698 cebc 97af acbd
00000060: fe90 02bd 29da 863d 6867 dcbd 9aff ae3d
00000070: dcd6 cbbd 7cf8 8ebc 0e60 67ba 8c40 27bd
00000080: 0cc4 763e eb1b acbc ad88 973c 9e61 d9bc
00000090: 56c1 f8bd aad1 eebd 9419 b03d a71c d1bd
000000a0: f753 0b3e 5d2e 2f3d 81d9 24be e5b6 483e
000000b0: 4591 2dbe 655e 15be b33a aa3d 8411 7abc
000000c0: 00da 073d 19c0 53bd d243 143d d074 05be
000000d0: 5488 a83d aa1d 5c3d 0033 d33a 00e0 6dbe
000000e0: 4853 1cbe 0dc7 72bc a037 4f3d 4226 e2bd
000000f0: fd74 5a3d f772 89bc b5a0 063e d886 63bd
-0.0891251 -0.028259305 0.12309704 -0.0052848565 -0.016455619 0.113248214 -0.06387427 0.024087636
0.050761882 0.10876897 0.089605175 -0.13979474 0.020889787 0.113686435 -0.06779405 -0.41162518
0.10991363 -0.02919522 -0.015140068 0.06939361 -0.02745375 -0.062645406 -0.025219005 -0.084319286
-0.031876557 0.065845795 -0.10761911 0.08544846 -0.099530905 -0.017452471 -0.0008826264 -0.04083304
0.24098223 -0.021009406 0.01849779 -0.026535805 -0.12146251 -0.11661084 0.08598629 -0.10210543
0.13606249 0.042768825 -0.16098596 0.19601019 -0.16949947 -0.1458679 0.08311977 -0.015262965
0.033166885 -0.05169687 0.03619749 -0.13032842 0.082291275 0.053739227 0.0016113222 -0.2322998
-0.15266144 -0.014817965 0.050590158 -0.11042453 0.053334225 -0.016778452 0.13147242 -0.05554852

head.norm.running_var f4 [64]
00000000: a2e7 4b3e 4331 083f 46c2 6c3d c02c 3a3d
00000010: 7218 823c e18d 7a3e 3154 663d 7df5 053e
00000020: 0c3b f93d 3aa3 733c 67f0 c53d dd36 043d
00000030: d622 4d3c 61a6 f03c 572e 833c 4f4a 263f
00000040: 0ec4 d43b 54e9 ca3b cfa5 0c3d 0228 9b3d
00000050: 9ce2 383d 7343 303c 7e03 973d fcb6 8f3c
00000060: f30b e83b 994a 153d 52e2 863e 97ea 163d
00000070: 52b1 153e 0f93 213d f793 063c 3593 813b
00000080: 00f9 8c3b ccf8 ba3b 551c 693c 24a2 aa3c
00000090: 3844 1d3e b208 483d 713c 8f3c a6dc 3e3e
000000a0: f7eb 5d3e c36d 213c 7a08 d53b d5d9 903c
000000b0: 83a3 373e 02e4 d63c b732 493c 1b67 043e
000000c0: 46ea 073d 5319 6c3c 01d8 e03b 7af9 853e
000000d0: 8221 9f3d 72db 743c 2131 383c 662f 943e
000000e0: e4c9 243d 823b 183d 6650 533d 6edb 803e
000000f0: 35fd 8f3c 5e8d 0b3d 558a fd3c e24e 223d
0.1991258 0.5320017 0.05780246 0.045452833 0.015880797 0.24468185 0.056232635 0.13081928
0.121694654 0.014870459 0.09664994 0.032278884 0.012520513 0.02937621 0.016013307 0.64957136
0.006493098 0.0061923657 0.034337815 0.0757599 0.045137987 0.010758269 0.07373713 0.017543308
0.0070815026 0.036448095 0.26344544 0.036844816 0.14618424 0.039446887 0.0082139885 0.003954316
0.004302144 0.0057059284 0.014227946 0.020829268 0.15358055 0.048836417 0.017484875 0.18638858
0.21672045 0.009852829 0.0065012546 0.017681995 0.17933469 0.02623177 0.012280158 0.12929957
0.033182405 0.014410335 0.006861687 0.26166898 0.07770063 0.014944898 0.011242182 0.28942412
0.0402316 0.037166126 0.051590346 0.25167412 0.017576793 0.034070365 0.03094975 0.03962601

body.block1.conv.weight f4 [64, 64, 3, 3]
00000000: 9e6b c43d 8e65 ffbc ad20 1d3d 924a cbbb
00000010: 2bd0 233d c792 283c a585 8b3d 68f9 af3c
00000020: 404f 453d 4f37 42be c2d2 18be 6cad 51be
00000030: de34 57be eb64 74be c722 a6be f4f3 86be
00000040: 8114 9abe febe b3be 0b7c 39bd 8c00 c5bc
00000050: f417 c03d 70ff a23d ade4 913d 0016 803d
00000060: 75b5 233e 1662 9d3d e79f dd3d a58a 323e
00000070: 1654 b43d f605 713e 00f2 0b3e 4d0c 363d
00000080: f4ee 233d 1a57 d33d f9ca b73d 8401 e33d
00000090: 1fa0 21bd 8fe4 0cbd 38e4 9ebc 7a77 0bbd
000000a0: 94b5 05be f352 0bbe 75b4 21bc 8d82 b03d
000000b0: e9b3 bd3d 546a 6ebe 2262 65be 4456 67be
000000c0: a254 68be f8f3 54be 2cbf 8bbe 8978 73be
000000d0: 6cdb 43be 9f66 34be 6487 143e 15d5 483e
000000e0: cf69 7f3e 7a8b 4a3d 182f ab3d 02b2 ae3d
000000f0: d18f 653e 06f8 fc3d 919a 103e 6fe8 4bbe
00000100: 150d 6ebe 7cc1 4bbe 5ca5 0a3c 2062 58bd
00000110: e9b1 ddbd cb72 85bd 3f27 c23a d95c bd3d
00000120: 629c 74bd a5dd bcbd e184 313d 7213 1bbe
00000130: 907b f6bd 40a5 47bd e568 31be 5f2f 17be
00000140: b525 4cbe 8e05 6f3c a1fb ab3d d96c 083e
00000150: 9f39 aebd e95d 973d 131b 0dbd 8d43 d4bd
00000160: 10d4 74bd ba8b 8b3d 1c0b 0fbe 1213 6fbd
00000170: fcf8 023d a0a2 f9bc ae35 b0bc 1a29 a33d
00000180: 54bf d2ba a1a6 c9bd 6bfc babd a29c 093d
00000190: 6987 763e 09ad 563e 186b a93d 4bca a53d
000001a0: f765 993d 4249 293d 1e9a 003e a1aa f13d
000001b0: 9cf1 233e dbb4 b03c efc2 5ebc 0be1 acbd
000001c0: d11f bfbd be70 3d3d d9fb e73d d171 423d
000001d0: 9256 84bd 3eb9 bcbd ccbe abb9 1496 ebbb
000001e0: de8f 5b3d bc98 d1bd 494c 123c e349 ef3c
000001f0: 75ed a33b e2f5 013e a604 d23d a7a6 b838
00000200: 53f3 ecbd ebab 1ebd d2c2 2b3c 3c73 9fbb
00000210: d832 5a3d ee14 b8bd 9bf4 f0bb b4e1 28bd
00000220: 1dc1 9dbd 6847 e0bd 4443 11be 2851 1abe
00000230: c70f e2bd e524 35bd e1ba a33a fbc4 adbc
00000240: c6d1 b9bc 2fc4 aa3c b402 173d 7734 953b
00000250: 584c 51bd 6623 b7bc 7909 543d 0054 413e
00000260: bf97 303e f506 4b3e 6bb8 e03d 9025 be3d
00000270: 2f43 ba3d 265e 2ebd f54e d2bd 1132 083e
00000280: 174e 363d fc8a 3e3d ba29 9dbd f34b 86bd
00000290: 0197 e8bc 7dac 10be 11d8 01be 5825 10be
000002a0: 4d1f 19bd 8acc 033d 9403 093e a9fc 453d
000002b0: eb4b 8d3a ac69 213d b612 fdbc 5230 28bc
000002c0: 796d c0bd 21f3 c33d b367 c03c 61b2 f7bc
000002d0: fdf4 90bd 3ec5 0bbe c085 bdbd 3b39 98bd
000002e0: a7a3 21be b3da 23be 88a7 cdbd d2cb 0abe
000002f0: da13 21be 4283 16be 3694 06be 2c7f 07be
00000300: e7f5 113d 38ee 703d ccfa 48bd 3b2b 76bc
00000310: 6067 ac3d 7c1f 303e 35b9 e2bd 138a 78bd
00000320: 063f 94bd f894 25be 5fca 2bbe 3997 14be
00000330: afbb 49be 92f7 2bbe 7f8e 77be 11f2 c43d
00000340: eb4f d13d b4af a23e ab14 d4bd 0639 05be
00000350: 9621 d9bd 606d ddbc 4ed4 30be 5867 903d
00000360: ee17 2cbd b137 93bd b920 0abe e3d7 59bd
00000370: 31ea ed3d 20a3 dbbc 1678 f73d 767e c53d
00000380: d000 783e a1ea 193d cfba 043e e060 323e
00000390: d7e2 b33d bb24 f83d e5e4 093e 2344 13be
000003a0: 789e 15bc 1ff7 1f3e 5550 2fbe 59c3 21be
000003b0: f9bb 3dbe 3a8b 99be b8e4 8cbe a0d5 88be
000003c0: f459 62be 9345 02be ea04 63be c21f f8bc
000003d0: 790c 893c e65c 473c ac66 5abc 4289 54bc
000003e0: cd0e 0b3d de6f 123c b3d7 05bd fdf5 153c
000003f0: 74d2 6fbd 807a 81bd b609 53bd e460 c83a
0.09590839 -0.031176355 0.03836124 -0.006203958 0.039993446 0.010288901 0.068126 0.02148123
0.04817128 -0.18966411 -0.14924148 -0.20476311 -0.21016261 -0.23866622 -0.32448408 -0.26357996
-0.30093768 -0.35106653 -0.045284312 -0.024048112 0.09379569 0.07958877 0.071236946 0.06254196
0.15987189 0.07684724 0.108215146 0.17435701 0.088051006 0.2353743 0.13666534 0.044445325
0.040022805 0.10319348 0.08974261 0.110842735 -0.039459344 -0.034397658 -0.019395933 -0.03404949
-0.13057548 -0.13605861 -0.009869684 0.086186506 0.09262831 -0.23282748 -0.22400716 -0.22591501
-0.22688535 -0.20796192 -0.2729429 -0.2377645 -0.19126672 -0.17617272 0.14504772 0.19612534
0.24942707 0.04944942 0.08358592 0.08530046 0.22418143 0.12351994 0.14121462 -0.19912885
-0.23247178 -0.19898027 0.008462276 -0.052827954 -0.10824949 -0.06516036 0.0014812722 0.09246225
-0.05971945 -0.09221963 0.043339614 -0.15144137 -0.120352864 -0.04874158 -0.1732517 -0.14764164
-0.19936259 0.014588727 0.08397604 0.13322772 -0.08507084 0.07390959 -0.034449648 -0.10364447
-0.05977255 0.0681376 -0.13969082 -0.058367796 0.03197573 -0.030473053 -0.021509971 0.07966824
-0.0016078749 -0.09846235 -0.09130176 0.033596642 0.24075092 0.20964445 0.0827238 0.08095225
0.074901514 0.04132963 0.12558791 0.11800123 0.16010135 0.021570614 -0.0135962805 -0.08441361
-0.093322404 0.046250097 0.11327333 0.047471825 -0.064618245 -0.0921502 -0.00032757816 -0.0071895216
0.053604 -0.1023421 0.008929321 0.029210037 0.0050026723 0.12691453 0.10254793 8.804845e-05
-0.11569848 -0.038738173 0.0104834605 -0.004866032 0.053271145 -0.08988367 -0.007353378 -0.041230872
-0.07702849 -0.1095112 -0.14185816 -0.15070021 -0.110381655 -0.04422464 0.0012491607 -0.021212092
-0.022683036 0.0208455 0.036867812 0.0045533734 -0.051098198 -0.022355746 0.051766846 0.188797
0.17245387 0.19826873 0.10972675 0.09284508 0.090948455 -0.042570256 -0.10268966 0.13300349
0.044508066 0.046519265 -0.07673974 -0.06557455 -0.028392317 -0.14128299 -0.12680079 -0.14076746
-0.037383366 0.032177486 0.13380271 0.04833666 0.0010780072 0.039407417 -0.030892711 -0.010265427
-0.0939588 0.095678575 0.023486948 -0.030236425 -0.07077978 -0.1364946 -0.092540264 -0.07432791
-0.15785085 -0.16001396 -0.1004172 -0.13554314 -0.15730229 -0.14698508 -0.13142475 -0.13232106
0.0356349 0.058820933 -0.049067304 -0.015024955 0.08418155 0.1719951 -0.11070482 -0.060678553
-0.07238583 -0.16170108 -0.16776417 -0.14510812 -0.19700502 -0.1679366 -0.24175452 0.09616483
0.10220321 0.31774676 -0.103555046 -0.13010034 -0.10602109 -0.027029693 -0.17268488 0.07050961
-0.04201501 -0.07188357 -0.13489045 -0.0531844 0.11616934 -0.026811182 0.120834514 0.09643261
0.2421906 0.037577275 0.12961887 0.17419767 0.08783501 0.12116381 0.13466223 -0.14381461
-0.00913202 0.15621613 -0.17120488 -0.15797175 -0.18528737 -0.29989034 -0.2751825 -0.26725483
-0.22104627 -0.12721853 -0.22169843 -0.03028858 0.01672958 0.012168145 -0.013330143 -0.012972178
0.033949662 0.008937804 -0.03267641 0.009152886 -0.058550313 -0.06322193 -0.051522933 0.0015287665

body.block1.conv.bias f4 [64]
00000000: 2632 91bb addd 993c c89c 0bbd f592 513c
00000010: 0170 debb cfd0 abbc d32c 08bd d2b7 20ba
00000020: 097e 05bd f07a c9bb f3db 6ebc 2011 86ba
00000030: d19d 91bc 9fdc 0d3c eaf5 60bc ab31 29bb
00000040: 7886 873c 312a b43b 527d a6bc 2208 99bb
00000050: c964 e7bc f59c 27bd a27c ffbc 570b 2b3b
00000060: e270 09bd dbf8 d2bc 97cf cfbc 31b6 f23b
00000070: 3bb5 e33c 8bd9 6e3c 0f12 113d 9d15 593c
00000080: 1fbf fcbc 1478 2dbc d175 613c 5d78 08bc
00000090: f33b 113d 7966 cabc c780 e53c 5375 c5bc
000000a0: 41e4 233d a52e 0b3d 0eb8 6fbc e98e 3c3c
000000b0: 424f fd3c b7ec f33c ccba 66bc 41ce 90bc
000000c0: e224 413c 77ee e1bc 33cc fdbc e7ed 4c3c
000000d0: 7e3f aabc 7f54 7bbb 7676 a2bc 522b 20bc
000000e0: 341f 14bd b684 0b3d 7b0b 193c ee9c df3c
000000f0: c54f 1b3d d555 f8bc 492b 093d 4d05 73bb
-0.004431027 0.018782461 -0.034085065 0.012791385 -0.0067882542 -0.020973591 -0.033245873 -0.0006130907
-0.0325909 -0.0061486885 -0.014578807 -0.0010228492 -0.017775448 0.008658557 -0.0137305055 -0.0025816958
0.016543612 0.0054981937 -0.02032343 -0.004670159 -0.0282463 -0.04092117 -0.03118736 0.0026099288
-0.03355492 -0.02575343 -0.025367541 0.007406973 0.027796378 0.0145782335 0.035417613 0.013249782
-0.030852852 -0.010587711 0.013761 -0.008329478 0.035457563 -0.024707066 0.028015507 -0.024103796
0.0400126 0.03398003 -0.014631284 0.011508682 0.030921582 0.02977596 -0.014082622 -0.017676475
0.011788579 -0.02757953 -0.030981159 0.012507892 -0.020782229 -0.0038349924 -0.019831877 -0.009775953
-0.03616257 0.03406211 0.009341116 0.02729651 0.03791787 -0.030314365 0.033488546 -0.0037082017

body.block1.norm.weight f4 [64]
00000000: 4103 d63f 0792 d33f 58dd b53f c400 c23f
00000010: fe60 c53f 2932 ae3f 8362 a93f 82b1 b83f
00000020: 3fb6 be3f 098a b83f 61aa c23f d1ba a33f
00000030: 451b a53f f09d c63f 8353 ba3f 2701 ca3f
00000040: 2673 bc3f f049 a63f 2bfd b63f 8343 be3f
00000050: d2e3 bf3f d8ec a43f 91ab b83f 006c a33f
00000060: 8651 ad3f b259 ac3f 8815 aa3f eb8b d83f
00000070: bb9d b43f e7ac a23f 572e ae3f 40b4 b03f
00000080: 7712 ba3f fc61 bf3f 90a7 c23f cc04 c23f
00000090: f5b8 b93f f741 af3f 6dfd c33f cced be3f
000000a0: e802 ad3f c099 c63f 5d32 bd3f 75ff 8b3f
000000b0: bb59 983f 17cc ae3f ed91 b33f 7796 cb3f
000000c0: 4ca5 d63f cc0d b03f 78e3 b73f f88c c73f
000000d0: f4f8 973f c1f8 da3f 5695 bd3f 5ec0 c03f
000000e0: 4afe bf3f e594 b63f 02af bb3f d906 963f
000000f0: 9cdc c33f be94 bf3f e95a bc3f 8fb8 a93f
1.6719743 1.6528939 1.4208174 1.5156484 1.5420225 1.3609058 1.3233188 1.4429171
1.4899367 1.4417125 1.5208246 1.2791387 1.2898947 1.5516949 1.4556736 1.5781602
1.472264 1.2991314 1.4296011 1.4864353 1.49914 1.2884779 1.4427358 1.2767334
1.3540504 1.3464873 1.3287821 1.69177 1.4110636 1.2709016 1.3607892 1.3805008
1.4536885 1.4951777 1.5207386 1.5157714 1.450957 1.3692006 1.5311714 1.491632
1.3516512 1.5515671 1.4780995 1.0937334 1.1902384 1.3656033 1.4028908 1.5905293
1.6769195 1.375421 1.4366293 1.5589895 1.187285 1.7107164 1.4811199 1.5058706
1.4999478 1.4264189 1.4662783 1.172084 1.53017 1.4967268 1.4715244 1.3259448

body.block1.norm.bias f4 [64]
00000000: 70c3 e4be 985b 48bf 35e2 07bf 6ee5 cabd
00000010: d27f 80be 34ed ebbe 95bb cbbe 9029 d3be
00000020: f682 03bf 66b7 56be 61c1 08bf cda3 acbd
00000030: f31b d1be 95a0 1dbf 8ba7 14bf bedf d9be
00000040: 76b8 8fbe 0486 03bf cff1 fbbe ccfd 86be
00000050: 454c 86be 8984 61bf dd64 59be 1c3e 14bf
00000060: ca29 a5be efc5 a0bd 26ab b9be 3ab9 60be
00000070: a3eb a7be a6db cebe 5ec0 97be e37d 43be
00000080: 0f95 96be 93e3 b0be 78a2 03be b5da 10be
00000090: e7d9 c3be c5ab 3abf d3d9 61be 331b 03be
000000a0: de4a a9be 2e2a 76be fed2 e8be f869 a3be
000000b0: fbdf 25bf 0c21 ccbe 0c8c 2dbf 133c 00bf
000000c0: 1381 ebbe d593 00bf 8da9 5bbf 6bbc 533d
000000d0: a920 2ebf f503 b7be 5973 5abe 68ba 33be
000000e0: 7916 19be 3250 38bf b573 91be 8f2c 03bf
000000f0: dac6 a43b 67b6 0cbf fd54 83be c3d1 05bf
-0.44680357 -0.7826476 -0.5307954 -0.099070415 -0.2509752 -0.4607941 -0.3979155 -0.41242647
-0.51371706 -0.20968398 -0.5342007 -0.0842968 -0.40841636 -0.61573154 -0.5806815 -0.42553514
-0.2807042 -0.51376367 -0.49207923 -0.26365507 -0.26230064 -0.8809286 -0.21229883 -0.5790727
-0.32258445 -0.07850253 -0.36263388 -0.21945658 -0.32796964 -0.40401953 -0.29638952 -0.1909099
-0.29410598 -0.34548625 -0.12854946 -0.1414593 -0.38252184 -0.7291835 -0.2205575 -0.12803344
-0.33064932 -0.24039528 -0.45473474 -0.31916785 -0.6479489 -0.39868963 -0.6779182 -0.50091666
-0.45996913 -0.50225574 -0.8580559 0.05169336 -0.68018585 -0.35745206 -0.21333064 -0.17551577
-0.14949979 -0.7199737 -0.2840859 -0.51239866 0.0050285878 -0.54965824 -0.25650778 -0.52273196

body.block1.norm.running_mean f4 [64]
00000000: 47fe 96c0 f8dc 17c0 ed5a 8dc0 b84b 8dc0
00000010: 4de8 9e3f 55f9 05c0 959c 3bbf d0a1 e640
00000020: 0f70 1ec0 d173 f4bf 7679 7dc0 2adb 8cc0
00000030: 6cb2 cf3e c1dc 2fc0 7001 0d40 23e4 023f
00000040: b101 b740 0565 5740 ba19 a5be 060b b8bf
00000050: ab47 513f 702a 0f40 dad4 bec0 fd31 aa40
00000060: e993 b6be 66c6 6ec0 0bfa 25bf 0992 84bf
00000070: c9f6 76be 79d9 b93f 14f2 c73f 7edf 1ec1
00000080: 3a02 00c0 0617 99bf 0cd0 333f 6022 dcc0
00000090: 3d19 e43e 6128 2c40 4a0e 5e40 39ce d1bf
000000a0: d2e9 41c0 c5c3 31c0 e76e 44c0 da75 97c0
000000b0: 53e4 ef3f 389d 1e40 18f5 5c40 7ed6 3fc0
000000c0: 0a26 90c0 ac59 33c0 40c8 26c0 96b9 18c0
000000d0: f136 b640 a31a 7cc0 4b94 a3c0 0cb5 afbf
000000e0: 244b 57c0 23ca 3040 5fb5 a5bf 1409 0840
000000f0: 7db1 47c0 e897 cdbf 1d9d cbbe a1e6 1b40
-4.7185397 -2.3728619 -4.4173493 -4.415493 1.2414643 -2.093343 -0.732858 7.2072525
-2.4755895 -1.9097844 -3.9605384 -4.4017534 0.40565813 -2.7478487 2.2032127 0.5112936
5.7189565 3.3655407 -0.3224619 -1.4378364 0.8174998 2.2369652 -5.963483 5.318602
-0.35659721 -3.7308593 -0.6483466 -1.0357066 -0.24117579 1.4519492 1.5620751 -9.9295635
-2.000136 -1.1960151 0.7023933 -6.879196 0.44550505 2.6899645 3.4696221 -1.6391059
-3.0298963 -2.7775738 -3.069269 -4.733136 1.8741554 2.4783459 3.4524593 -2.9974666
-4.5046434 -2.8023481 -2.6059723 -2.3863273 5.6942067 -3.9391258 -5.111852 -1.3727126
-3.3639612 2.7623374 -1.2945975 2.125554 -3.120208 -1.6061983 -0.39768305 2.4359515

body.block1.norm.running_var f4 [64]
00000000: 64a0 a041 a45b bb40 6731 5e41 aece ad41
00000010: 4c3a 3441 81ce 4d41 50e5 9c41 5b11 0542
00000020: ec01 4541 047d 1d41 766b 8041 741f e541
00000030: 9a19 c541 959a 6741 089a 6941 2191 0f41
00000040: 9840 c741 3e77 a741 33fc 2b41 172a f040
00000050: 099b 6e41 9a61 9741 6812 0042 4373 1b42
00000060: c95d 4741 d2db b841 4de8 2241 de81 0241
00000070: 65db 8741 b255 cf41 8983 8241 c07f 0b42
00000080: 8a6f 8941 c46d 2841 daf7 7e41 af1e d341
00000090: 0c4c ae41 3403 7141 4ce6 2241 c273 2f41
000000a0: baac 3341 50bb 7b41 dd41 0d41 815f 2942
000000b0: f54e bc41 0d26 4e41 73f1 9541 577f 3841
000000c0: 4789 5141 807a 4e41 f8af 2541 0fea 3641
000000d0: 1625 2142 c327 2f41 6821 5a41 93fa e440
000000e0: 66df 1b41 f1e7 0641 393a ce40 0e61 8142
000000f0: 8cd8 9a41 36e7 0e41 5177 e640 e29f 7741
20.078316 5.8549366 13.887061 21.725918 11.264233 12.862916 19.611969 33.26695
12.312969 9.843021 16.052471 28.640358 24.6375 14.47524 14.600105 8.972932
24.90654 20.933224 10.749072 7.505138 14.91285 18.922657 32.017975 38.86256
12.460397 23.107334 10.181714 8.156706 16.982126 25.916843 16.314226 34.874756
17.179462 10.526798 15.935511 26.389982 21.787132 15.063282 10.181225 10.965761
11.22967 15.733231 8.82858 42.343266 23.538553 12.88429 18.742895 11.531089
13.096015 12.904907 10.355461 11.432143 40.286217 10.947207 13.633156 7.1555877
9.742041 8.431626 6.4446073 64.68956 19.355736 8.931448 7.202065 15.476534

body.block2.conv.weight f4 [64, 64, 3, 3]
00000000: ee28 a5bd 9b1c 51bd 3896 983d 9b8b 46bd
00000010: f1eb 223d 1182 a83d 7d50 3d3b ffd3 4f3b
00000020: 4876 ac3d 72dc d1bc 8ae1 0fbe 9852 87bd
00000030: 13fa c73d 1d63 98bd a6be 05bc a64e 983e
00000040: b9c9 253e b5e5 723e deae 96bd f24b 333d
00000050: 742f 4e3d e944 c0bd 209e 813c 6783 93bc
00000060: 9a64 52bd 0a04 d6bd 4391 82bc 0deb 023e
00000070: 259e 293e 8b01 013e 1824 ea3d 4f3d 9a3d
00000080: 86df 8a3c d272 893d 8c6b ab3c 98f2 d1bd
00000090: ae19 303d 90ba 143d 11cd c03d bfd5 feba
000000a0: 9d58 4dbe 3d20 983c 1c3c 983c 5838 a2bd
000000b0: 8256 673c 76c6 153e a74a 393e eebe 6a3e
000000c0: 1886 473e 0f3a 993d e760 f33d 4278 cc3d
000000d0: 5a50 f33d a191 333e 7f98 91be b610 dabd
000000e0: 7ec3 24bd c417 80bd 6c8f c93c 9fbd a03d
000000f0: 2247 653e cb54 0f3e a472 a83c 691c 0bbe
00000100: f3c6 f1bd ce32 aabd f1a9 34bd 995a 0dbe
00000110: f568 19bd 7328 893d 8019 b53d 1672 f93d
00000120: af83 24bc 8164 c9bd ca70 983c a085 c1bd
00000130: c4e4 97bd 6f9c 1abd 6aae 4e3e ebaa 303e
00000140: f354 e93d dd7c 35be 2129 01bc 728f 7ebc
00000150: 2f46 8ebd 96e9 15bc 6e63 a83d 36a7 a9be
00000160: 4ba2 54be aa82 14bd 7de6 d63d e588 a23d
00000170: 4a61 a13d af20 2b3e 8004 1dbb 8627 183c
00000180: 63f2 2d3e 6890 3e3e 37fb 613e 5866 95bd
00000190: 4904 fdbd ed3b 2dbe e860 46bb 4ff3 4c3d
000001a0: 7fec fbbc f0ac 98bd 9115 b93c 8766 adbd
000001b0: 99f6 0d3d b631 363d ebd9 9dbd 63cb 9a3d
000001c0: 0b4f b73d 8bf3 f43c ea94 463e 80f2 3f3e
000001d0: ee85 b73d 860c 60be 43b4 6dbc 54b1 123d
000001e0: 1a89 1dbe 3e30 c03d b31f 5ebd 2ff5 71be
000001f0: 5a27 d0bd ac34 26be 7116 efbd 6519 d3bd
00000200: b30b 2d3d f12f 95bd d64a 963d 83eb 743e
00000210: fe8e 19be d6a6 8cbd 0ede 193d a27b 38bd
00000220: b185 89bc 6814 83bc f550 2dbd 5ac8 acba
00000230: 680c 80bd a396 0b3c 2579 363e 91db 82bd
00000240: 6bbb 6c3d 2be8 e7bd 83f2 d7bd 6b8b 1a3e
00000250: e9a7 8e3d beee c4bd bdc7 c53d fff6 aa3d
00000260: c954 883d 9709 e63d 109d a1bd 368a 46bd
00000270: 5c70 923d fd6c 653c addd ce3c e150 9cbc
00000280: bac3 873d 5bf0 f83d e246 d73d f44b f43b
00000290: c39d b0bc 9dea 06be bc01 14be 1359 73bd
000002a0: a652 52bd 7496 80bb af9d 033c 4a0f 4c3d
000002b0: 6ef6 dd3c 30c9 923d 737d 04bd ba14 403d
000002c0: 8d32 383d d69d 07be 5454 cb3c fa8f 843b
000002d0: 036d af3d 6e04 78bd dac8 5bbb a014 abbb
000002e0: e131 4bbd 200b 37bd a226 9d3d d152 553e
000002f0: dd02 033e 68a5 9d3e f6f3 903e c9a5 ae3e
00000300: 2a4c 653e 8616 433e ff73 8f3e 6e1a bd3d
00000310: 5735 2abd b1d9 c2bc 0f9a 91bc 650c 7abd
00000320: f8f8 a73d 19fa 573d 5ea3 963c db9b cc3b
00000330: 559a 1e3e 22c5 6e3e cf91 3c3e 23d5 0cbc
00000340: 50cb ad3c 8104 c03d f9cd 10be d0ce 0ebe
00000350: e4c9 fdbd 4595 d3bd da91 39be 52b3 00be
00000360: ac3e 51bd db66 fcbd 5d14 d7bd e0ca e5bd
00000370: 5a1f 18be 29c6 e5bd 1e0a 66bc 0ae5 3e3d
00000380: d2d0 a7bc 3e47 343c e631 393d 95ef 0bbd
00000390: 078c 89bd 0975 74bc 5e31 bc3c be05 0dbe
000003a0: 2629 88bd 91f1 2d3d 2c00 e4bc 6c45 ccbd
000003b0: 20c9 41be 109d 12bd 9899 d2bb 19e7 adbc
000003c0: 6530 05be 2ab0 17be ae38 06be a990 8dbd
000003d0: a15b 67bd 8f5a 66bb ef09 12bd 9c64 abbd
000003e0: 5299 f0ba 350c 873d 7cad 903d bb1f d33d
000003f0: 5233 41be 03be cdbd 5e83 933d 12d2 333d
-0.08064447 -0.05105267 0.07450527 -0.048472982 0.039775793 0.08227933 0.0028887086 0.0031712053
0.08420998 -0.025617812 -0.1405088 -0.066075504 0.09764495 -0.07440779 -0.00816313 0.29747504
0.16190232 0.23720439 -0.07357572 0.0437736 0.050338224 -0.093881436 0.01582247 -0.018006993
-0.051365472 -0.10449989 -0.015938407 0.12784977 0.16564234 0.12598245 0.114326656 0.07531225
0.016952287 0.06711353 0.020925306 -0.10251349 0.04299324 0.036310732 0.09414113 -0.0019442363
-0.20053335 0.01857006 0.01858335 -0.07920903 0.014119746 0.14626488 0.18094884 0.22924396
0.19484746 0.07481777 0.11883717 0.09983875 0.1188056 0.17536022 -0.28436658 -0.106477186
-0.0402255 -0.06254533 0.024604522 0.07848667 0.22390416 0.1399719 0.020562477 -0.13585056
-0.11805525 -0.083104715 -0.04410738 -0.13804092 -0.03745361 0.06697168 0.08842754 0.12179963
-0.010041161 -0.09833623 0.01860847 -0.09449315 -0.074166805 -0.037746843 0.20183721 0.172527
0.11393156 -0.17723413 -0.007883341 -0.01553713 -0.0694698 -0.0091499295 0.0822209 -0.33135384
-0.20765035 -0.036257423 0.10493181 0.07936267 0.078798845 0.16711687 -0.002395898 0.009286767
0.16986994 0.18609774 0.22068487 -0.07294911 -0.12354333 -0.16917391 -0.0030270163 0.050036725
-0.030752419 -0.0745486 0.022593291 -0.08466821 0.034659002 0.044481 -0.0770758 0.07558324
0.08950623 0.029901287 0.19392744 0.1874485 0.08961092 -0.21879777 -0.01450831 0.035813645
-0.15384331 0.093842015 -0.05422945 -0.23628686 -0.10163756 -0.1623103 -0.11674202 -0.10307578
0.042247485 -0.07284535 0.073384926 0.23917966 -0.14995953 -0.06867759 0.037565283 -0.04503978
-0.016787382 -0.016000941 -0.042313535 -0.0013182268 -0.06252366 0.008519801 0.1781965 -0.06389535
0.057795923 -0.113235794 -0.10544302 0.15092246 0.0696562 -0.09615849 0.09657238 0.08347892
0.066567965 0.11232298 -0.078912854 -0.048471652 0.07150337 0.014003036 0.025252188 -0.019081535
0.06629129 0.12155219 0.10511567 0.0074553434 -0.021559602 -0.13175435 -0.14453787 -0.05941112
-0.05134835 -0.0039241854 0.0080332 0.04981927 0.027095046 0.0716728 -0.0323462 0.046894766
0.044970084 -0.13243803 0.024820484 0.0040454837 0.08565714 -0.0605511 -0.0033536465 -0.0052209646
-0.049608115 -0.044688344 0.07673384 0.20832373 0.12794061 0.30790257 0.28311127 0.3411086
0.22392336 0.19051561 0.28018185 0.09233557 -0.041554775 -0.023785444 -0.017773656 -0.061046977
0.08201784 0.052728746 0.018388446 0.0062441654 0.1548856 0.23317388 0.18414997 -0.008595738
0.021215111 0.09375859 -0.14141072 -0.1394608 -0.12392023 -0.10331205 -0.18122044 -0.12568405
-0.05108516 -0.123243056 -0.10501931 -0.11220336 -0.1485571 -0.11219437 -0.014040498 0.046605147
-0.020485315 0.011003314 0.045213602 -0.03416403 -0.06716161 -0.0149204815 0.022972759 -0.13771722
-0.066484734 0.042466704 -0.027832113 -0.09974179 -0.1892438 -0.035794318 -0.006427001 -0.02122836
-0.13006742 -0.14813295 -0.13107559 -0.06912357 -0.05648387 -0.0035149192 -0.035654005 -0.08368799
-0.001835624 0.06594125 0.070643395 0.103087865 -0.18867233 -0.100460075 0.07202791 0.04390151

body.block2.conv.bias f4 [64]
00000000: 11f5 a6bc 83ae 9ebc eb1b d33c c78a eabc
00000010: 03aa f4bb bf13 07bd 40f4 8bbc 40bd c03c
00000020: db42 b23c b74c acbc 16a1 b3bc cc4f 073d
00000030: 4269 be3c cffb 85bc 2748 5bbb 5a01 1d3d
00000040: a072 b6bc d6d7 393c ae0d 0e3d 8c87 0fbb
00000050: d49e 2a3c 2b4b bdbb 27b5 f03c b003 b2bc
00000060: d26d 90bc d91c 853b 9c8a 053c 29e6 33bc
00000070: 4bd8 3a3c 1bf5 8fbc 2c7d 20bc 46bd cbbb
00000080: f85f fc3c e41d 8a3c b4db 33bd f1e3 f1bb
00000090: ceee ddbb e8c5 cabc d70f b23b 5b81 333d
000000a0: 85d9 d0bb acac be3c b8c7 113d cdfd 6fbc
000000b0: 9b99 313c 0637 1e3d 1558 d338 f6c8 043d
000000c0: db97 6abc ddf4 fa3c b647 8c3c 314c 25bd
000000d0: f3e4 a63c a766 e9bc ec22 9ebc 442f 21bd
000000e0: 3ef3 6abc 620f 47bc c236 fc3c 626b 093d
000000f0: 591e e23c ea0e 253d 5313 e3bc 8942 cebc
-0.020380529 -0.019370323 0.025770148 -0.028630627 -0.007466556 -0.032977816 -0.01708424 0.023527741
0.021760395 -0.021032674 -0.021927398 0.033035085 0.02324355 -0.016355423 -0.0033459754 0.038331367
-0.022271454 0.011342963 0.034681015 -0.002190086 0.010413844 -0.005776783 0.029383255 -0.021730274
-0.017630491 0.004062277 0.008150723 -0.010980167 0.011404107 -0.01757293 -0.009795468 -0.0062176315
0.03080748 0.016859956 -0.043910697 -0.007381909 -0.0067728525 -0.024752572 0.005434017 0.043824535
-0.0063735866 0.023275696 0.035590857 -0.014647913 0.010839845 0.038626693 0.000100776706 0.032418214
-0.014318432 0.030634338 0.017124038 -0.040355865 0.020372843 -0.028491331 -0.019303761 -0.039351717
-0.01434022 -0.012149664 0.03078783 0.033549674 0.027602362 0.040297426 -0.027719175 -0.02517821

body.block2.norm.weight f4 [64]
00000000: 5a3e a83f 8511 ab3f 7570 9e3f e5cf a13f
00000010: 77f0 ae3f b5a8 b83f 08b6 ad3f 009b c53f
00000020: ce26 b33f 2826 b63f 6573 b53f cbd1 b63f
00000030: 8d29 d43f bacc bd3f 498e c13f f7b8 b03f
00000040: c039 c93f 24dc ae3f f239 ce3f 9966 ba3f
00000050: 2004 a93f 00d9 c83f f28a a43f a0a7 ad3f
00000060: 561b c13f 00a7 cc3f e545 ca3f ea26 c63f
00000070: 9964 af3f 897d bc3f 70f8 a53f da9a ab3f
00000080: a897 cd3f f5d7 b93f c05a b33f 87c3 a03f
00000090: 8cd7 a13f dcc2 c83f c598 c23f 2c60 b13f
000000a0: 1d42 c43f 2666 973f 4243 bd3f 4908 b53f
000000b0: 8e42 b93f ffe8 b83f 09d5 d53f 538e b23f
000000c0: 05a0 b43f 9567 9d3f ed6e b43f 795b b33f
000000d0: 3280 a03f 3445 a33f 718d b73f e842 b23f
000000e0: c390 bc3f 57ee a13f 8e57 9a3f 894a a93f
000000f0: c323 c23f b5a7 bd3f c11e b93f fba4 aa3f
1.3144028 1.3364722 1.2378069 1.2641569 1.3667134 1.4426485 1.3571177 1.5437927
1.3996217 1.4230394 1.4175841 1.4282774 1.657518 1.4828103 1.5121547 1.3806447
1.5720749 1.3660932 1.6111434 1.456256 1.3204384 1.5691223 1.2854903 1.356678
1.5086467 1.5988464 1.580258 1.5480626 1.3702575 1.472581 1.2966442 1.3406632
1.6061907 1.451903 1.401207 1.255967 1.2643905 1.5684466 1.5202872 1.3857474
1.5332676 1.1828048 1.478615 1.4143153 1.4473436 1.4446105 1.6705638 1.3949684
1.4111334 1.2297236 1.4096352 1.401229 1.2539122 1.2755494 1.434004 1.3926668
1.4731678 1.265086 1.205797 1.3225871 1.5167164 1.4816805 1.446251 1.3331598

body.block2.norm.bias f4 [64]
00000000: 641c b7be b7e5 3bbf 3fb4 09bf 1fb5 e9bd
00000010: ed38 48be deeb bcbe c8d5 bbbe 67d1 15bd
00000020: 9998 24bf 2c3e f5be 0d6f 6ebe dd67 82be
00000030: c64e 15bf 88bf 72bf cf82 94be 3596 d5be
00000040: 78ae 07bf 6101 0bbf 3475 bfbe b925 c0be
00000050: d369 a0be f208 e5be e006 14bf d140 21bf
00000060: 60f6 41be 742c a0be dc7a d0be a64a b1be
00000070: 957a 71be fdc8 18bf 0b29 92bf 53a8 49bf
00000080: 2078 07be 6ebb 22bf 0907 bdbe ff13 83be
00000090: 6632 a5be 4afa 79be 5999 d4be ebd9 4b3d
000000a0: ee41 e8be 2eba d6be f307 08bf 51f0 a2be
000000b0: 0ade 91be 978a 64bf 8472 c8be 292a 09bd
000000c0: b13f cabe e1f2 06bf 339d abbe 6c2f b2be
000000d0: 4122 25bf 5fcd 6abe 1933 50be bdbd 07bf
000000e0: 507b ebbe cf3d 12bf 4f7e 21bf 9b65 aabe
000000f0: a9d7 b1be e1cc a9be c44e 8fbe 16be c8be
-0.35763848 -0.7339739 -0.5379066 -0.11411499 -0.19552965 -0.36898702 -0.3668654 -0.036576655
-0.64295346 -0.47898996 -0.2328455 -0.25469866 -0.58323324 -0.94823503 -0.2900605 -0.4171616
-0.53000593 -0.5429898 -0.37394106 -0.3752878 -0.31330737 -0.44733387 -0.5782299 -0.62989527
-0.18941641 -0.31283915 -0.40718734 -0.34627265 -0.23581918 -0.59681684 -1.1418775 -0.7877247
-0.13229418 -0.63567245 -0.3691943 -0.25601193 -0.32265013 -0.24411884 -0.41523245 0.04976837
-0.453628 -0.4193892 -0.5313713 -0.31823972 -0.28489715 -0.8927397 -0.39149868 -0.033487473
-0.39501718 -0.52714354 -0.3351837 -0.34801805 -0.6450539 -0.22929905 -0.20331992 -0.5302389
-0.45992517 -0.5712556 -0.63083357 -0.33280644 -0.34734848 -0.33164123 -0.2798978 -0.39207524

body.block2.norm.running_mean f4 [64]
00000000: 6ca7 9c3f ea5c 6740 24c3 7b40 5c82 45c0
00000010: 5fc3 80c0 5387 d73d 21be a73e 908d 10bf
00000020: fbf1 8e3f 789e c6be 9dab 72bf 292c 9fbf
00000030: 8b37 d6bd d2eb a43f 4ec5 46bf 33ca d1be
00000040: ad07 a53f 45c5 1740 ae02 ddbf c364 efbe
00000050: b062 ddbf 89ba 63bf d0b8 16bf 26e7 88bf
00000060: b407 1d3d 7517 07c0 ab83 9bbd 2f21 11c0
00000070: 7997 18c0 c728 833f 9046 ac3f c4da 7c3d
00000080: ec10 bebf cfd8 f03f 1758 ef3f c826 1c40
00000090: bfc3 c8bf 01a3 0abf 90d9 c8bf 9106 7dbf
000000a0: 5ba0 ca3e 1ac5 643f 7638 12be c183 2fc0
000000b0: ddc5 87be 1551 e43f 7b23 82bf 7ef3 49c0
000000c0: 4346 50bf dbb2 d23e 4f40 0140 4ba6 dabf
000000d0: c2b6 18c0 1ab3 2bc0 41fb 1340 e68f 4f40
000000e0: baee 993f 6270 8b40 9934 4740 1115 1b3f
000000f0: 10a8 2a3d 1ab4 ddbe 7f55 c8be 4f46 8440
1.2238593 3.615046 3.9337854 -3.0860815 -4.023849 0.10523858 0.32762244 -0.5646601
1.1167597 -0.38792777 -0.9479311 -1.2435352 -0.10459813 1.2884467 -0.77644813 -0.40974578
1.2892967 2.3714154 -1.7266443 -0.46756563 -1.7295742 -0.88956505 -0.5887575 -1.0695541
0.038337424 -2.1108067 -0.07593473 -2.2676504 -2.3842452 1.0246819 1.3459034 0.06173207
-1.4848914 1.8816165 1.8698758 2.439867 -1.5684737 -0.54154974 -1.5691395 -0.98838145
0.39575467 0.89363253 -0.1427935 -2.7424166 -0.26518145 1.7837244 -1.0167078 -3.1554866
-0.8135721 0.4115208 2.01955 -1.7081999 -2.3861547 -2.6828065 2.3122103 3.2431579
1.2025979 4.3574686 3.1125853 0.6057902 0.041664183 -0.4330147 -0.39127728 4.1335826

body.block2.norm.running_var f4 [64]
00000000: 6f61 3241 2b92 2a41 d208 9041 af1b 1142
00000010: c860 4b41 8462 9240 ed95 2f41 0f7c da40
00000020: cc52 f140 1810 c740 ab15 2841 8802 3440
00000030: 15ba bd40 a1ef 0441 b00c e240 9f59 f540
00000040: b730 8741 be20 0841 9f26 ac40 233f c040
00000050: 5e42 c840 4c32 ea40 d5bf 5d41 b34a e240
00000060: 0a9a f740 370e b140 9477 9240 3e34 b340
00000070: ea7f 5a41 61a2 a141 e95c 0641 e2db 0341
00000080: 4603 6240 537c 0841 0baa 9240 31f2 3b41
00000090: 4c51 8441 1330 7d40 9519 e440 051e ae40
000000a0: 6e7a fd40 bdaf 6041 8151 8740 96c3 f240
000000b0: 710f 0f41 0dc3 1741 f0e9 9340 a0e8 0941
000000c0: cf9e 1841 5dd7 5741 c0ed 6641 5d08 5d41
000000d0: a8cf eb40 a908 ff40 30b0 4141 8f7e b640
000000e0: 93ea 1841 8f32 3f41 55d6 e640 3445 7c41
000000f0: 1f32 6040 9986 a540 66ac a140 692d a041
11.1487875 10.660686 18.004307 36.277035 12.711128 4.574526 10.974103 6.827644
7.541357 6.2207146 10.50529 2.8126545 5.928965 8.308503 7.064049 7.66719
16.898787 8.507994 5.3797145 6.007707 6.2581015 7.3186398 13.859334 7.0716186
7.7375536 5.532985 4.577097 5.600127 13.656229 20.204287 8.397683 8.241182
3.5314498 8.530353 4.583257 11.746629 16.539696 3.9560592 7.128123 5.4411645
7.921195 14.042905 4.228699 7.586375 8.94127 9.48512 4.622307 8.619293
9.538772 13.490079 14.433044 13.814542 7.3690987 7.969807 12.105515 5.702949
9.557269 11.949843 7.2136636 15.766895 3.5030591 5.1726804 5.0522947 20.022173

body.block3.conv.weight f4 [64, 64, 3, 3]
00000000: b00a 41be a8e0 8bbe d341 42bd e702 0cbe
00000010: 1427 bfbd cef7 883d a80e 7dbd 1b24 a1bc
00000020: cbff 133d c20d 483e 7ec7 7f3d ce56 b93c
00000030: 1f75 aa3d efe8 573b ae29 36bc b4ec dc3b
00000040: 6b36 bebd 3bee 24bd dfe5 4abe db93 2bbe
00000050: 2bc0 64be 84f6 86bd ccc8 dbbc 9e55 e0bd
00000060: 126f 1c3e a5c1 143e 496f 933d b032 24bd
00000070: 38b9 bbbd 3c66 64bd 830b 15bc 8b43 a9bc
00000080: 8be8 f93c 6f9b e4bc 99ec 1dba 57fc 0fbd
00000090: b98e 04bd d336 20bc ac21 d93c 0770 88bd
000000a0: 854b 873c 6731 883d b1bc 15be 8c35 81bd
000000b0: 9b2e 04be 2ab4 3ebe 7327 eebd b215 12be
000000c0: f4cd 0abe ad04 ebbd 8fbd 16be cf5d 4c3d
000000d0: 4d25 3bbc b72c 9f3d 77fe 97bd f516 93bd
000000e0: 592c 7dbe dbac 7bbb 5452 973c 5650 0cbe
000000f0: f77b bdbc adec ba3d d58d 533d abed 983d
00000100: ae6f c33d 7abb 10bd 421d dfbb b420 413c
00000110: 9be3 ffbc 33f5 c43d ee17 0b3d 51f8 413b
00000120: 6b2a 77be c655 40be ee02 c0bd bb87 69be
00000130: 7e60 d3bd 5873 34bb 8c2d 63be 8a72 0abe
00000140: 7234 acbd e1a1 1cbe 1a5b 5f3c 86e8 b83d
00000150: b1fe 51bd 1b8e 23bd 1ea0 69bd c0bd 3b3d
00000160: a147 ecbc d89b a3bd 211f ab3d 0069 57bd
00000170: a97e fabd 82e3 c33d b3fe d6bd a039 16bd
00000180: bc4e f13d b7fc c23c b1e9 553e bc35 ee3d
00000190: e169 95bc a2c3 26bd a53e 503d 4bfb 9b3c
000001a0: f19c 383d 2243 60be 6c8a 8cbc d50e 8ebd
000001b0: e28c a0bd 7f87 b6bb 3a7e dcbd 74bf ff3d
000001c0: 0041 953d 3e9f 7c3c 8f9a 11be 0517 17be
000001d0: 14d1 fabd 0a74 9bbd d34c 0cbe fb84 09be
000001e0: eb28 8cbe 7f35 1bbe 7d29 29be bf50 febd
000001f0: b29f 56bd 64f4 2ebd 0c37 eb3d 16fa 133d
00000200: f34d ccbc 0915 193e d1a3 463e 092c 353d
00000210: 2a5c 41bd b74e 1a3b 6ad5 37bd cbcf 0b3d
00000220: 5d1f c93c aec1 1e3d 5a08 4bbd b661 a3bd
00000230: 6d41 783c 72fd 663c a6fb 4a3d e6bb f33d
00000240: 8b51 45be b974 b0bd efaf 1b3c 1c35 a7bd
00000250: a6ba 63bd 96cc 4b3d 0d42 a73d 5ecc cd3d
00000260: 612c de3d e339 0e3a 3243 cbbd 9092 07be
00000270: 3ce2 9bbd bab0 75bd a7b0 153d b890 48bd
00000280: 40a4 18be 36a6 413d dfc9 ad3c aaa2 8e3d
00000290: 5dcd 503c f7ce d5bd 3966 d2bd 7c0e 5bbe
000002a0: e66c 0abe 8d03 51bc 767a cf3c d683 fd3d
000002b0: 3242 343c d0c1 28bc 94aa 71bd c59b 3b3b
000002c0: b70e 883d 388a 1ebe 1cf0 acbd 9ecb 57bd
000002d0: 6fd0 a03d 132e 183e 1925 9c3e b4d8 8ebd
000002e0: 79c1 abbd 8152 0b3d 8b9d b73d a308 f4bb
000002f0: afe2 95bd 1f9e 35be 7791 a4bd badf c73c
00000300: 6b87 0abe 9f63 1ebe 8320 66bd 66c0 383e
00000310: 98fa b33d b683 1d3d 9ed4 a63d ea46 0c3e
00000320: fcc3 0d3d 20f8 923d e35b 113d 893b cbbc
00000330: 456a bf3d 09c7 9ab9 bf2b 473d b5a9 823d
00000340: 84ac 823d 8397 343d 0898 ecbc 0297 2ebd
00000350: cb3f 05be 47ec adba 4e08 373d 0753 2b3d
00000360: 216e c7bd 16f7 e43b 0356 30be 75ca 91bd
00000370: 5e78 5bbc 3a09 c3bc 30a9 22bd 3421 703d
00000380: 14d4 653d c704 3e3d 06b6 ec3c e6dc 1f3e
00000390: 9531 b4bd b5c0 d6bd 09b5 da3d 612c 29be
000003a0: a138 15be 0814 263d 6e10 80bc e69e e13c
000003b0: 5299 c63c b99a 7a3e a97e 753d 3dcc 023d
000003c0: 35ad 92bd cad4 3bbc 7e15 32bd 1415 103e
000003d0: 221e 4b3d 5045 143d 5a36 243e 33b6 2d3c
000003e0: 8806 2abe 53c4 103e 29ed b13c cd1e cbbd
000003f0: 7d00 6bbe b29c 1dbe 15b4 28be d3c9 5bbe
-0.18851733 -0.27319837 -0.047426056 -0.13672982 -0.093336254 0.0668789 -0.061781555 -0.019670537
0.036132615 0.19536498 0.06244611 0.0226244 0.0832312 0.0032945236 -0.011118336 0.0067420844
-0.09287723 -0.040266257 -0.19814251 -0.16755621 -0.22338931 -0.06589988 -0.026829146 -0.1095383
0.15276745 0.14526995 0.0719896 -0.040087402 -0.09166187 -0.05576156 -0.009096983 -0.02066209
0.030506393 -0.027906148 -0.00060243305 -0.03515276 -0.032362673 -0.009778696 0.026505314 -0.066619925
0.016515503 0.06650048 -0.14622761 -0.063090414 -0.12908404 -0.18623415 -0.11628618 -0.14266089
-0.13555127 -0.11475501 -0.14720748 0.04989415 -0.011422467 0.077722006 -0.07421582 -0.07182113
-0.24723949 -0.003840259 0.018471874 -0.1370252 -0.0231304 0.091271736 0.051648933 0.074672066
0.095427856 -0.03533504 -0.0068089077 0.011787582 -0.03123646 0.096170805 0.033958368 0.002959747
-0.24137275 -0.1878272 -0.09375559 -0.22805683 -0.10321139 -0.002753457 -0.22185344 -0.13520256
-0.08408441 -0.15296127 0.01363256 0.09028725 -0.051268283 -0.039930444 -0.057037465 0.045835257
-0.02884275 -0.07988709 0.08355547 -0.05259037 -0.1223119 0.09564878 -0.10497799 -0.03667605
0.117825955 0.023802144 0.20889927 0.11631343 -0.018238964 -0.040713914 0.050840992 0.019040724
0.045071546 -0.21900609 -0.017155848 -0.06936423 -0.07839371 -0.0055703516 -0.10766263 0.12487689
0.072877884 0.015418826 -0.14219116 -0.14754875 -0.1224691 -0.07590492 -0.13701181 -0.13429634
-0.27374968 -0.15157126 -0.16519733 -0.12417745 -0.05239839 -0.042713538 0.11485109 0.036127172
-0.024939513 0.1494943 0.19398428 0.04423145 -0.047207035 0.0023545453 -0.044881262 0.034133714
0.024551088 0.038758926 -0.04956851 -0.07977621 0.0151523175 0.014098512 0.049556397 0.11901073
-0.19269387 -0.08616013 0.009502395 -0.08164427 -0.055597924 0.049755655 0.08166895 0.100487456
0.10848308 0.0005425496 -0.09924926 -0.13239503 -0.0761151 -0.059982993 0.036545422 -0.04896614
-0.14906406 0.04727765 0.021214424 0.069646195 0.012744275 -0.10439866 -0.10273404 -0.21392244
-0.13518104 -0.012757194 0.025326949 0.12378661 0.01100211 -0.010300115 -0.059000567 0.0028626781
0.06643432 -0.15482414 -0.08444235 -0.05268442 0.078522556 0.14861326 0.30497053 -0.069749266
-0.08386511 0.03401423 0.08965596 -0.0074473186 -0.07318627 -0.177361 -0.08035558 0.024398673
-0.1352822 -0.1546769 -0.05618335 0.18042144 0.08788031 0.038455687 0.08146022 0.13698927
0.034610733 0.07176232 0.03548802 -0.024808662 0.09346441 -0.00029521462 0.048625704 0.06380025
0.06380561 0.044089805 -0.028881088 -0.04262448 -0.13012616 -0.0013269269 0.044685654 0.041827228
-0.09737802 0.0069874628 -0.17220311 -0.07118694 -0.013395397 -0.02380811 -0.03971213 0.058625415
0.056110457 0.046391275 0.02889539 0.1561161 -0.087985195 -0.10485975 0.10679061 -0.16520835
-0.14572383 0.040546447 -0.015632834 0.027541589 0.02424303 0.24473085 0.059935246 0.031933058
-0.07161943 -0.011464307 -0.043477528 0.1407054 0.049589284 0.036198914 0.16036358 0.010602522
-0.16604054 0.14137392 0.021719532 -0.09917984 -0.22949405 -0.15391806 -0.16474946 -0.21463709

body.block3.conv.bias f4 [64]
00000000: 48d7 6c3c f390 12bc a6c0 333c ad95 c2bc
00000010: 5357 4e3c 7e1d f33a 2dff fc3c a922 debc
00000020: 5fb4 e2bc 70c8 003d 022b fa3c a527 ab3c
00000030: 1c27 e2bc 7690 2b3d c292 b83c c909 21bc
00000040: eef1 94bc a5ca fabc dc5a 8ebc ed40 a53b
00000050: 1706 b2bc b62c 0dbd f191 323d ef3a fd3c
00000060: 13b8 e1bc 5d6d 2a3d 65b1 5fbb 5ae0 de3c
00000070: ff1a 44bb 32ab bc3c 0fb2 643c df94 95bc
00000080: 6eb9 e7bc 26c6 3b3d 5a58 913c 00c5 79bc
00000090: 05bf bbbc ef0a 9fbc 7124 753c ac2a 5c3c
000000a0: 9df5 5a3a 7b44 323d 3d18 1a3d 783d 1e3c
000000b0: ad90 d8bc 0a78 363d 0a11 10bd 0a14 fc3c
000000c0: 2f4b a9bc 3657 d73c 7582 6fbc 81bc af3c
000000d0: 480b 7dbc 988c c93c 131d 0ebc f511 7ebb
000000e0: df0b ba3b a3c8 2c3d 88be 08bd a80e 3ebc
000000f0: 6a04 b63c 9541 c83c 1292 e33c 359c 9bbc
0.014455624 -0.008945691 0.010971224 -0.023753012 0.012594062 0.0018548218 0.030883396 -0.027116137
-0.027673898 0.031441152 0.030538086 0.020892927 -0.02760654 0.041885816 0.022530917 -0.009828993
-0.018181767 -0.030614207 -0.01737731 0.00504314 -0.02173142 -0.034466468 0.04359621 0.03091189
-0.027553594 0.041608203 -0.0034132835 0.027206589 -0.0029923317 0.023030851 0.013958468 -0.018259464
-0.028286662 0.045843266 0.017742325 -0.015244722 -0.022918234 -0.019414393 0.014962302 0.013437908
0.0008352639 0.04352234 0.03762077 0.00965821 -0.026436174 0.044548072 -0.0351725 0.030771274
-0.020665733 0.026286703 -0.014618506 0.02145219 -0.015444584 0.024603173 -0.008673924 -0.0038768027
0.0056776847 0.04218353 -0.03338483 -0.011600174 0.022218902 0.024445334 0.027779613 -0.018995384
