trained_models/sinGan/cows/scale_factor=0.750000,alpha=10/2/netG.pth (torch_old, 125197 bytes, 26 tensors)

head.conv.weight f4 [32, 3, 3, 3]
000000 7c 34 cc 3c 53 25 2e bd bb 28 89 3c 44 3b 94 bd
       0.02492737 -0.042516064 0.016743055 -0.072378665
000010 19 20 39 bd 9d 77 95 3d 50 04 37 bd e2 05 88 3d
       -0.045196626 0.07298205 -0.044681847 0.06641747
000020 d1 bc 6c be 1f a2 91 3d 4b fb 25 3d 1a a9 ce 3d
       -0.23118903 0.07111 0.040522855 0.10090847
000030 c5 0e 7b bc af eb 02 bd d9 ca 90 3d 77 07 55 3d
       -0.015323346 -0.031963047 0.0706994 0.052009072
000040 3b 56 e5 3d dd 01 85 be 02 2e 42 3e 63 cc 73 3d
       0.11198088 -0.25977984 0.18962863 0.05952109
000050 e9 91 60 bc 6b bb e6 3b 64 79 d4 bd a5 a8 4f bd
       -0.013706663 0.007041385 -0.10374716 -0.05069794
000060 54 d4 0e 3d 4d 2e 78 3d 1a a2 a2 bd d9 6e 75 3d
       0.03487046 0.06059103 -0.07941075 0.059920166
000070 bb 37 69 3c 69 e4 80 3e e6 dc 9f 3b 15 6b ab bd
       0.014234479 0.25174263 0.004878628 -0.08370034
000080 28 3c d2 bd 78 2c 96 bd df 58 ae bd 00 af 3a bd
       -0.1026538 -0.073327005 -0.085130446 -0.04557705
000090 3e 92 64 3d 27 32 54 bd 72 6b 35 3e 43 fa 47 3d
       0.05580353 -0.05180564 0.17716768 0.048822653
0000a0 4e b7 49 bd f7 13 d2 bc c3 ca 41 bd 23 7d ad bd
       -0.04924708 -0.025644286 -0.04731251 -0.084711336
0000b0 c0 07 02 3d 71 5b f3 3b c8 2d 04 3e 02 e0 d7 3e
       0.031745672 0.007426672 0.12908089 0.42163092
0000c0 c3 85 2b bd 0d 9b 44 3d 24 59 ac bc 85 68 dc bd
       -0.041875612 0.04799943 -0.0210386 -0.10762123
0000d0 bc ad 06 bc 4e d5 02 bd 13 f8 1e 3c 05 ff 43 bd
       -0.008220132 -0.031941704 0.0097027 -0.047850627
0000e0 fa 05 a8 3d 30 71 2e 3c c7 c4 16 bd a3 17 10 bd
       0.08204265 0.010647103 -0.036808755 -0.03517879
0000f0 f9 9e d3 bd a5 8d a1 3d 23 6e 30 3e ca 30 08 bd
       -0.10333056 0.07888345 0.17229514 -0.033249654
000100 fc 29 39 bc 27 b5 ac bc 3f 3f 8c 3d e3 62 c9 bd
       -0.011301514 -0.021082474 0.06848001 -0.09833314
000110 ab 17 a1 bd ba 12 68 bd 04 35 a3 bb 2d e5 5d 3d
       -0.078658424 -0.056658484 -0.004980685 0.054173637
000120 99 93 3e 3b c6 2b f5 bd 8f 7c 91 bd f1 68 3d 3d
       0.0029079674 -0.1197124 -0.07103836 0.046242658
000130 2f 6f d4 bd ac 34 f7 bd 4f 63 f5 3d 20 72 1c 3e
       -0.10372769 -0.12070593 0.11981832 0.1527791
000140 fa a3 3e 3e ec b5 da 3c 19 71 ec ba c8 b0 17 be
       0.1861724 0.026698075 -0.0018039077 -0.1481353
000150 98 b3 8a bc f9 9b 2b 3b 32 28 de 3d 03 4c 14 3b
       -0.01693134 0.0026185496 0.108475104 0.0022628314
000160 3f 01 f3 3c 0c 0d 60 3d 5b dd 85 bd 2f 76 0b bd
       0.02966368 0.054699942 -0.06536361 -0.034048256
000170 a3 c4 15 be c9 db ff bd 52 e6 c1 bd 1d b1 03 3e
       -0.14625792 -0.124930926 -0.09467758 0.12860532
000180 ac 5e c8 bd e0 6e 03 3d 4c 5f 04 3e 28 30 ae 3d
       -0.09783682 0.03208816 0.12926978 0.08505279
000190 f7 c2 01 3c 8a 53 12 be ef 7f 0b 3e c4 0f 74 3d
       0.007920018 -0.1428968 0.13623022 0.059585348
0001a0 d3 a7 0a 3e 67 f5 9b 3d 5a d1 47 3c c1 05 73 bd
       0.13540582 0.07615166 0.012195909 -0.05933166
0001b0 95 82 14 be 66 65 4a be 27 10 27 3e f8 a5 30 be
       -0.14502938 -0.19765243 0.16314755 -0.17250812
0001c0 b2 ea c0 bd fa d9 95 bd 72 5e 0f be e2 20 9d bd
       -0.094197646 -0.07316966 -0.14000872 -0.076722875
0001d0 a4 33 64 be d9 d7 f0 3c dd da 01 bd 6d 27 76 3e
       -0.22285324 0.0293998 -0.031702865 0.24038477
0001e0 06 2a df bc c6 40 f8 3c 25 ae 8e 3c da 34 17 3c
       -0.027241718 0.030304324 0.017417023 0.009228909
0001f0 49 4f 26 3d 79 25 a1 bd a5 22 32 bd f1 09 70 bd
       0.040602956 -0.078684755 -0.04349007 -0.05860323
000200 06 75 10 3d ce bc bb bc 36 16 25 3d b8 17 12 bd
       0.035267852 -0.022917178 0.040304385 -0.03566715
000210 eb 65 62 3d cd d9 8d 3d 28 ff eb 3d 52 6e c9 bc
       0.055272978 0.06926308 0.115232766 -0.024588738
000220 52 84 e3 3c a2 9b d9 3d 5f 57 68 3c f2 92 75 bd
       0.027773056 0.10625388 0.014180987 -0.05995459
000230 14 c0 2d 3c c0 ef 0f 3e 34 57 e5 3d 9d 36 8b bc
       0.010604877 0.14056301 0.11198273 -0.016993815
000240 31 7b cd bd 94 45 e3 3c f4 f1 09 3e 77 67 51 3d
       -0.100332625 0.027743138 0.13471204 0.051124062
000250 03 e3 f8 bb d5 38 c6 3d b2 a2 3a 3c d2 4d 67 3d
       -0.0075954213 0.096788086 0.011391329 0.0564707
000260 4a 01 b9 bd 30 94 d1 3c 28 b7 96 3d ce ca be bc
       -0.09033449 0.025583357 0.07359153 -0.023290064
000270 b0 7f 09 3c d9 b9 e8 3d 3c 4e c8 bd 19 24 07 3e
       0.0083922595 0.113635726 -0.09780547 0.13197364
000280 ba 98 a0 3e b7 76 5a bc eb 97 08 3d db 5b da bd
       0.3136652 -0.013333968 0.033348005 -0.10662051
000290 4f b7 5d bd 33 c9 a6 3d ee 5d 61 bd f1 89 08 bc
       -0.054129895 0.081438445 -0.05502122 -0.008333669
0002a0 ef 31 b5 3e 64 45 af 3b fd 27 77 3e ee f2 98 3c
       0.3538966 0.005348848 0.24136348 0.018670525
0002b0 a6 02 88 3c f6 6a 58 3d 83 26 0c 3e 15 aa 19 3e
       0.016602825 0.05283638 0.13686566 0.15006287
0002c0 00 2d 47 3e c7 dd 4d 3e e4 62 b3 bd 3c 3f 61 3e
       0.1945076 0.20104133 -0.08759096 0.21996778
0002d0 79 de ae 3c 9c 8c b2 3d 02 af ba 3b 55 d2 82 bc
       0.021346318 0.08718225 0.005697132 -0.015969435
0002e0 1b df c6 bc 6a 9d c4 bd f5 e6 89 3e 4a 29 f0 bb
       -0.024276307 -0.09600337 0.2693402 -0.007329141
0002f0 0c 11 84 3d 74 01 f3 3d ea be 27 3e 13 62 b3 3d
       0.06448564 0.118655115 0.16381422 0.087589405
000300 40 84 48 3d 14 dc e6 3d 5c 7e 26 bb 04 4a c9 bd
       0.04895425 0.11272445 -0.0025404906 -0.098285705
000310 eb b7 e6 3d 86 be 0e be 6c 22 16 3d f6 c2 53 3d
       0.11265548 -0.13939866 0.03665392 0.0516996
000320 71 c9 03 3d fa 15 29 bd 85 f2 a6 3d d5 8c c9 3c
       0.03217453 -0.041280724 0.08151726 0.024603287
000330 71 73 6d be 73 41 17 3e 6f ab 1c 3e 32 db c5 3c
       -0.23188569 0.1477106 0.15299772 0.024152372
000340 5a 27 eb bd 93 d2 ee bd 34 41 ac 3c 2e 22 75 bd
       -0.11482115 -0.116612576 0.021027185 -0.05984705
000350 1f 96 72 bd 57 e3 d2 bd 78 4e 10 3e dd 62 0c 3d
       -0.059225198 -0.10297268 0.14092433 0.03427397
000360 32 d9 0b 3e 47 2c 82 3d bf 42 10 3c 85 a1 d2 3d
       0.13657072 0.063561015 0.008804976 0.10284714
000370 f4 1e 21 bd 09 e4 39 3d b6 ee a4 3e 02 ab 24 3d
       -0.03933616 0.045383487 0.32213372 0.04020215
000380 7a 7a 16 3e fa 33 13 3e c4 f5 28 3d 7d 2f 82 bb
       0.14695159 0.14375296 0.041250005 -0.003972946
000390 a7 7a 9b 3d 1a ec 64 3d c3 a5 5e 3d 8c c6 2a 3d
       0.075917535 0.055889226 0.0543573 0.041693255
0003a0 8a 2d e5 bd 5d 1f a9 3d 27 a2 48 3c fd 5a f4 3c
       -0.111903265 0.08257935 0.012245691 0.029828543
0003b0 95 6d 9a 3d 7c 91 08 bd 40 78 12 bd c4 90 f5 3c
       0.07540432 -0.03334187 -0.03575921 0.029976256
0003c0 33 49 1a 3e d9 e6 07 3d 8f d8 74 3e 5f 7b f0 3d
       0.15066986 0.033179138 0.23910736 0.11742281
0003d0 55 10 e0 3d 54 08 b7 3e 5a 9a 26 3d 1b fb 12 3d
       0.10940615 0.3574854 0.040674545 0.035884004
0003e0 6d 9f 96 3d 5f 0e 52 3c 72 9c 07 3c 95 23 69 3d
       0.07354627 0.012820809 0.008277046 0.0569187
0003f0 31 c8 87 3d 37 47 ea bc c0 7f 8b 3e 5d c2 08 3e
       0.0662998 -0.028598411 0.27245903 0.13355394

head.conv.bias f4 [32]
000000 5c cf 5d be e3 6a 34 be e9 4e b7 bc 46 13 92 bd
       -0.21661133 -0.17618899 -0.022376494 -0.07132582
000010 aa 3c 65 be 25 96 a3 bc 7f 06 02 3e 41 8c 02 3a
       -0.22386423 -0.019969055 0.1269779 0.0004980006
000020 07 db 2d be 62 20 8b bd 85 c7 ab 3d 42 47 a2 3d
       -0.16978084 -0.06793286 0.08387665 0.079237476
000030 9e 16 b0 bd f6 e6 27 3e 27 64 37 be 01 67 2f 3e
       -0.08598064 0.16396698 -0.17909299 0.17129137
000040 4c 1b 3e bd 95 e1 9a bb 80 6f 2a 3e 10 46 8e 3b
       -0.04641275 -0.0047265985 0.16644096 0.004341848
000050 7c 82 9c 3d 19 81 35 3e 57 84 d5 3d d9 db a6 bd
       0.076420754 0.17725028 0.104256324 -0.08147401
000060 df 44 4c 3e 4c 33 89 bd 45 fa ff ba 4b ee 36 3e
       0.19948147 -0.06699237 -0.0019529542 0.17864339
000070 b7 c5 22 3d 87 ea 17 3e 96 26 99 3c 4c 05 1d 3e
       0.039739337 0.14835559 0.018695157 0.15334052

head.norm.weight f4 [32]
000000 16 79 9d 3f b0 f4 bf 3f 47 e5 9f 3f e8 3c 8b 3f
       1.2302577 1.4996548 1.2491845 1.0877962
000010 f9 3d a9 3f 88 c2 a5 3f 65 18 af 3f 21 b5 b4 3f
       1.3222038 1.2949991 1.367932 1.4117776
000020 a3 9b af 3f 62 4a b0 3f e7 c1 a9 3f 0c 45 8e 3f
       1.3719372 1.37727 1.3262299 1.1114821
000030 0d 1b af 3f a0 a3 9c 3f 7c b8 9a 3f c7 47 a5 3f
       1.368013 1.2237434 1.208755 1.291253
000040 dd 21 98 3f 16 07 a2 3f 6b f0 a5 3f db d9 7e 3f
       1.1885334 1.2658412 1.2963995 0.9955117
000050 ff 69 b6 3f 91 27 ae 3f ad e1 a8 3f 12 cd 81 3f
       1.4251097 1.3605825 1.3193871 1.0140707
000060 8e 49 aa 3f 95 86 a3 3f 1a ab a9 3f 54 14 9c 3f
       1.3303697 1.2775446 1.3255341 1.2193704
000070 ee c8 b7 3f 66 b7 88 3f 14 9d a0 3f 6a d8 ad 3f
       1.4358194 1.0680969 1.2547936 1.3581669

head.norm.bias f4 [32]
000000 ca cc 83 be d1 9a 9a be c2 f3 c8 bd 85 c3 75 bb
       -0.2574218 -0.3019624 -0.09812118 -0.0037500572
000010 a3 db e5 be 7c 87 d2 bd d5 ac 06 bd 43 89 e1 3d
       -0.44894132 -0.10279748 -0.03287967 0.11012509
000020 83 65 d2 bd 99 a4 49 3e d2 8f 3e 3d 74 59 72 bc
       -0.10273268 0.19691695 0.046523876 -0.014791835
000030 7b 4b 34 be ca 61 aa be ff 11 9a be fb b4 a5 be
       -0.17606919 -0.33277732 -0.30091855 -0.3236464
000040 fe 46 b1 bd fc c5 72 be 47 9b 5a be b9 48 79 bd
       -0.08656119 -0.23708338 -0.21348296 -0.06086037
000050 b5 7d 54 be 7a ac 0d be ba d1 c2 3a 9a db 45 be
       -0.20751078 -0.13835326 0.0014863529 -0.19322053
000060 6c e3 3d bd 5f 06 60 be 1b 2e cf be ae bd a3 3e
       -0.046359465 -0.2187743 -0.40464863 0.31980652
000070 a8 a1 81 be 8f e3 06 3d 1f c9 05 be a9 7d 68 be
       -0.25318646 0.03293186 -0.13065003 -0.22704186

head.norm.running_mean f4 [32]
000000 b2 46 84 be 3e 44 a4 be 4c 20 72 bd de 93 46 be
       -0.25835186 -0.32083315 -0.059112832 -0.19392344
000010 ae 9e 9c be e0 2f 49 be 1d 42 8e 3d 2c 8c e2 3d
       -0.30589813 -0.19647169 0.06946204 0.11061892
000020 e2 a6 9d be 90 b7 f3 3c 4b 95 62 3e e9 33 0d 3e
       -0.30791384 0.029750615 0.22127263 0.13789333
000030 cf c4 ad bd bd 7a 25 3e 9a 3e 37 be 97 bd 32 3e
       -0.08484804 0.16160102 -0.17894974 0.17455135
000040 70 03 78 bb 50 15 e9 ba 4b d3 2d 3e 72 6b bb bd
       -0.0037843846 -0.0017782841 0.16975133 -0.09151353
000050 cb e6 34 3d 61 43 15 3e ef 31 78 3e 58 2c f0 bc
       0.044165414 0.14576484 0.24237798 -0.02931802
000060 cb 47 f0 3d a4 9e 9c 3e f6 58 c6 bd ab 69 18 3e
       0.117324434 0.30589783 -0.09684937 0.14884059
000070 2a b4 53 bc be 69 a5 3c b3 1a 5d bd 21 e4 f7 3d
       -0.012921372 0.020192023 -0.05398054 0.12104059

head.norm.running_var f4 [32]
000000 aa 72 97 3b b7 29 a1 3c f0 dd d0 3b 7f d7 24 3c
       0.0046218233 0.019673212 0.0063741133 0.010061144
000010 14 f8 72 3c 54 45 ba 3c 72 8b 1b 3d ff 60 38 3c
       0.014829654 0.022738136 0.037974782 0.011253594
000020 e5 3b 14 3d 01 09 32 3d 3a 80 1d 3c fb e8 0c 3c
       0.036189932 0.043465618 0.009613091 0.008600469
000030 33 0d 06 3d ed 9a a3 3b 0a 26 b3 3b 27 96 d5 3b
       0.03272743 0.004992834 0.005467181 0.0065181437
000040 7f 8a 9a 3c ae 3d 45 3b c4 b4 8c 3b b7 b4 39 3d
       0.018864868 0.0030096578 0.00429401 0.04533836
000050 8e ed 91 3b dc 4d 70 3c 5c 77 7c 3c 63 53 c0 3c
       0.0044533676 0.014667001 0.015409317 0.023477262
000060 6b 8c bd 3b 74 10 54 3d 0d 51 83 3c 08 94 60 3c
       0.0057845614 0.051773503 0.016029859 0.013707168
000070 ad 6e be 3c c9 21 2f 3c dc 82 64 3c 4a 91 27 3c
       0.023246134 0.010689207 0.013947215 0.010227511

body.block1.conv.weight f4 [32, 32, 3, 3]
000000 29 d3 c7 bb 0f cc 7b 3b bf af 85 3c 66 bd 0b bd
       -0.0060981703 0.003842119 0.016319154 -0.03411617
000010 b6 16 77 bd 30 6a fd bc e6 e1 8b 3c f8 f7 8e bc
       -0.060324393 -0.030934423 0.01707549 -0.017452225
000020 72 60 58 3d a6 ca 70 bd a7 31 4b be 41 2c 0d be
       0.052826352 -0.05878701 -0.1984316 -0.13786413
000030 fa 6f d1 3c 18 12 55 3b f5 34 1d bd 5b 04 75 bd
       0.02556609 0.0032512005 -0.038380582 -0.059818607
000040 cc e4 bd bd af 3b e7 bd 5a 5c 9b 3d 5a a3 bf 3d
       -0.09272155 -0.112906806 0.07585974 0.09357329
000050 9b 97 91 bd 1b 33 e8 3d e7 e5 85 bc 79 9f ed bd
       -0.071089946 0.113378726 -0.016344978 -0.116026826
000060 83 82 c3 3d 1b 84 11 be b7 35 43 bd e2 0f fd bd
       0.095463775 -0.1421055 -0.04765865 -0.12356545
000070 7f 12 e7 3d 17 a0 f8 3d 93 34 28 be 4b 82 0b bc
       0.11282825 0.1213991 -0.16426305 -0.008514951
000080 45 d5 40 bd b3 a5 8b be da 0b 80 be 51 76 a6 bd
       -0.04707839 -0.27274856 -0.25009042 -0.08128036
000090 81 a7 ba bd 90 39 f5 bd 9a d1 04 3d 2b 32 4b 3b
       -0.0911398 -0.1197387 0.032426454 0.0031005244
0000a0 0b e0 79 bd 1e 58 b1 b9 36 b6 e0 bc 0e bf 0b 3e
       -0.06100468 -0.00033825723 -0.027430635 0.136471
0000b0 ab 7a 34 bd cc a4 b0 bd 43 0d 06 be ed b3 a0 bd
       -0.044062298 -0.086251825 -0.13090996 -0.07846818
0000c0 09 fe 23 be d5 1c b3 bc 38 88 94 3d 78 98 ab bd
       -0.16014875 -0.021864334 0.07252544 -0.083786905
0000d0 93 67 b4 3d ed 18 76 3d 81 23 80 3d b8 59 c8 3d
       0.08808818 0.060082365 0.06256772 0.097827375
0000e0 a8 6e bf bd 0e ef c0 bd a7 f8 c7 bd fb 3c a2 bd
       -0.09347278 -0.09420596 -0.097642235 -0.07921787
0000f0 9f b3 34 bd b3 92 0f 3b f6 61 ba 3d fc 14 ea 3d
       -0.044116613 0.0021907508 0.09100716 0.11429784
000100 8d f9 ac 3c 5b 54 f4 3d 02 f8 2d 3d 64 96 8e 3d
       0.021115089 0.11930152 0.042472847 0.069622785
000110 43 d2 02 3e f2 14 27 b9 ec 29 4c bd 4f e6 35 3d
       0.12775521 -0.00015934164 -0.049844667 0.044409093
000120 1a dc 25 3d f7 62 f1 bb 93 19 12 be b7 d6 25 bd
       0.04049311 -0.007366534 -0.14267568 -0.04048797
000130 dd 97 b3 bc ae 60 d5 3c 0b 97 b8 bc 47 10 ca 3d
       -0.021923 0.026047077 -0.02253296 0.09866386
000140 c6 5a 11 3e a0 35 44 3c 1a 56 b7 bd 6d 3a 9c bc
       0.14194784 0.011975676 -0.089519694 -0.019070828
000150 15 be 19 bc f3 b0 9b bd e3 4e 53 bd ea df 41 bd
       -0.009383698 -0.0760211 -0.051588904 -0.04733268
000160 80 d2 e7 bd e6 96 05 be 40 dc ed bd 69 4c 26 bd
       -0.113194466 -0.13045844 -0.11614275 -0.040600214
000170 c7 9d 39 3d 85 dd 5f bd db c6 b1 bc ab f3 de bd
       0.045316484 -0.054654617 -0.021701267 -0.1088632
000180 b4 a1 bf 3d d3 94 67 3c a0 0f f3 bd f6 29 81 3c
       0.09357014 0.014134604 -0.118682146 0.015767079
000190 65 fc 53 3d 85 b7 2f 3c c6 ff cb bd c2 b9 11 bb
       0.051754374 0.010724907 -0.09960894 -0.0022235964
0001a0 6d 9c 3c 3d d1 55 a4 bd 4f 2b 82 bd b6 29 7d 3d
       0.046047617 -0.08024181 -0.06355917 0.061807357
0001b0 21 5e ae bd b4 73 50 3a 16 68 cb 3d af 57 50 bd
       -0.085140474 0.00079518114 0.09931962 -0.05086487
0001c0 17 f8 29 3b 2b f1 1d 3d 30 66 01 be 57 4d b5 bd
       0.0025935227 0.038560074 -0.12636638 -0.08852642
0001d0 c0 0f 2a 3c 1f e1 a4 bd 07 0b df bd db b0 eb bd
       0.010379732 -0.08050751 -0.10890775 -0.11508342
0001e0 b2 f9 8e bd 03 c6 8c bd 29 67 1d be ba 3b dd 3c
       -0.06981219 -0.06873705 -0.15371384 0.027006019
0001f0 c4 8c 5f 3d aa 91 69 be 22 43 fe 3d a7 a7 31 3e
       0.054577604 -0.22809473 0.12415148 0.1734911
000200 ce 19 10 be 17 92 8b 3d 69 87 00 bd de 76 cb bd
       -0.14072344 0.06814974 -0.031379137 -0.099347815
000210 f8 10 82 bd 1b 4d 22 be 9b 0f 4e 3b 9f 51 18 3d
       -0.06350893 -0.15849726 0.0031442407 0.037187215
000220 89 b2 35 bc b2 78 ac 3c 8d 44 cd 3d 0b 2d 4e 3d
       -0.011089929 0.021053646 0.10022841 0.050335925
000230 60 52 8e bd 21 51 2a bb 7e 9d 51 be 3a fc 25 be
       -0.069493055 -0.0025988298 -0.20470235 -0.16209498
000240 e4 d6 a5 3d 0e b8 1a 3e 72 b3 d8 bd 2c f3 cc 3c
       0.08097628 0.15109274 -0.105811015 0.025018297
000250 f2 11 82 bd 61 94 cf bd df 23 8f bd 8c 01 a9 bd
       -0.06351079 -0.10135723 -0.06989264 -0.08252248
000260 6c 39 7a 3c 10 23 bc 3d 35 5d c6 bd b0 64 16 be
       0.0152724795 0.09186375 -0.096857466 -0.14686847
000270 2e e5 62 3c c0 ce 91 bd 2a 3e 6e bd bc 1a ff bd
       0.013848586 -0.071195126 -0.058164753 -0.12456271
000280 59 dc f1 3d bf 85 be 3d ae bc 9c bd 3b 57 54 bb
       0.11809606 0.09302854 -0.07653175 -0.0032400626
000290 9c 9f 04 be 21 94 48 3c c2 2f 09 be 05 ba 37 be
       -0.12951511 0.012242348 -0.13397124 -0.17942055
0002a0 b3 a7 dc 3d 5b aa d8 bb 93 9d 46 be f3 0b 93 3d
       0.107741736 -0.006612105 -0.19396047 0.071800135
0002b0 0c 53 9a bc 49 d9 82 bd 49 68 93 3d 91 c7 b9 bc
       -0.018838428 -0.063891 0.07197625 -0.022678168
0002c0 ac 67 c1 bd c4 b4 96 3c d4 88 bb bd 1c 3f 7b bd
       -0.09443602 0.018396743 -0.09156957 -0.061339483
0002d0 89 b5 9d 3d 9a fa 1e bd 43 7a 31 3d 5f 41 96 bd
       0.07700641 -0.03881321 0.04332949 -0.07336687
0002e0 9c 52 f2 3d 4a 89 56 3d 4f 64 c7 bc cb 3b 53 3d
       0.11832163 0.052377023 -0.024339823 0.051570695
0002f0 ec 2f 84 3d 50 99 8a bd 55 42 f7 bc 7f e2 08 3d
       0.06454453 -0.06767523 -0.030182997 0.03341913
000300 a7 4b 1c be 2b f7 a3 3d d6 bb b5 3d f0 f9 54 3e
       -0.15263234 0.08006128 0.088737175 0.20798469
000310 52 30 0b 3e fa 71 98 3c 85 b5 30 bb a6 a9 54 3d
       0.13592651 0.018609036 -0.0026963663 0.0519196
000320 29 77 04 3e 5e 5a df bc 26 31 aa bd d9 1f 2a 3c
       0.12936081 -0.02726477 -0.083101556 0.01038357
000330 71 37 12 be 51 73 a6 bc 52 6e 4a bd b3 4b f0 3d
       -0.14278962 -0.020318659 -0.049421616 0.117331885
000340 57 b7 9a 3d de 62 a8 bd 4a aa ed 3c e5 d6 cd 3b
       0.075545006 -0.082219824 0.029011864 0.006281721
000350 e5 7b 2a bd 50 af 0e 3c f1 aa c4 bb 7c 30 98 3d
       -0.04162206 0.00870879 -0.006001823 0.07431123
000360 c9 20 59 3e 47 9f 00 3e b4 70 4f 3e c5 89 1f bd
       0.21203913 0.1256076 0.20257837 -0.038949747
000370 54 f1 b7 bd d1 07 88 3c 36 d3 89 3d 6d e2 76 bd
       -0.089815766 0.01660529 0.067297384 -0.06027453
000380 82 6f 5f bd 3a 60 e8 bb a0 08 d0 3d b2 ac a8 bd
       -0.0545497 -0.007091549 0.10157895 -0.08236064
000390 38 dc 95 bc 41 4b 28 bd 04 4f 85 bd d7 2c 82 3c
       -0.018293485 -0.041087393 -0.06509212 0.015890522
0003a0 98 bb 94 bd 58 3b 99 bb fd 26 b1 3d e6 31 df bd
       -0.07262343 -0.004676264 0.086500145 -0.10898189
0003b0 ff 95 e2 bd bc 58 1b 3e 24 ba f9 3d 76 31 72 bd
       -0.11063766 0.15170568 0.12193707 -0.0591292
0003c0 aa da 9b 3d c0 94 9a bd 36 85 13 bd c1 2e 5f be
       0.07610066 -0.07547903 -0.03601571 -0.21795179
0003d0 15 69 09 be b4 be b1 3d 98 8e 0a be cf 4a be bc
       -0.13418992 0.08678952 -0.13530958 -0.02322903
0003e0 79 74 a1 3d d5 3d ad 3b b8 cc f7 3d af 3a be 3c
       0.078835435 0.005286912 0.12099594 0.023221342
0003f0 f8 7d 2a bd ca 3b a7 3c 1b e0 d9 3d df 4e 86 bc
       -0.04162404 0.020414252 0.10638448 -0.01639503

body.block1.conv.bias f4 [32]
000000 0a 0a af bb aa 27 54 3d eb b7 2d 3d b7 42 b0 3b
       -0.005341773 0.05179564 0.042411726 0.005379047
000010 fa 7d b6 bc 32 1d 16 3d af 83 b3 bc 3f 21 8b bc
       -0.022276867 0.036648937 -0.021913378 -0.016983626
000020 2b 8e 1c 3b a3 e0 37 3c e2 5b 23 3d cc e3 8f 3c
       0.002388845 0.011222991 0.03988255 0.017564677
000030 9a 47 0b 3c 79 41 48 3d 05 61 76 3d 7a 53 f1 3b
       0.008500958 0.048890565 0.06015112 0.0073646875
000040 54 de af 3c 6b aa d5 3c 8b 20 35 3d 9d 14 37 3c
       0.021468319 0.026082238 0.04422049 0.011174348
000050 16 ef 3f bd 2d 87 b1 bc c8 f8 45 bd 2a 2c 87 3c
       -0.04685887 -0.021670902 -0.04833296 0.016500551
000060 f7 51 5f 3d 26 a0 45 bd da 46 53 3d 98 96 9a 3b
       0.054521527 -0.048248433 0.05158124 0.004717659
000070 44 fc 43 3d 19 40 27 bd 86 db 6d 3d d6 10 96 bb
       0.047848 -0.040832613 0.058070682 -0.0045796437

body.block1.norm.weight f4 [32]
000000 76 12 8d 3f ec 6a b4 3f 1e ef 8e 3f 88 63 a1 3f
       1.1021259 1.409513 1.1166723 1.26085
000010 77 b3 94 3f 3c 3a 98 3f 26 50 9c 3f a5 e3 a7 3f
       1.1617268 1.1892772 1.2211959 1.3116347
000020 69 60 99 3f 9a ed 9c 3f 58 13 bf 3f 44 9b a5 3f
       1.1982547 1.226001 1.4927778 1.2938008
000030 62 26 8e 3f 86 17 85 3f 8a 88 b3 3f 7a 02 b5 3f
       1.1105464 1.0397804 1.4026043 1.4141381
000040 f5 e6 ae 3f d5 86 b1 3f 00 18 9f 3f 71 aa a0 3f
       1.3664232 1.3869272 1.2429199 1.2552015
000050 f2 0e ac 3f 00 18 a5 3f c6 e0 b6 3f e7 1c a5 3f
       1.3442061 1.2897949 1.4287345 1.2899445
000060 30 8a a8 3f ba 98 95 3f a0 3e 93 3f 8f e9 ac 3f
       1.3167171 1.1687233 1.1503487 1.3508776
000070 c8 09 a4 3f 2d 0f 9a 3f 56 ca b1 3f 08 a9 9a 3f
       1.2815485 1.2035881 1.3889873 1.2082834

body.block1.norm.bias f4 [32]
000000 9f cd 90 bd f2 65 1c be 8c 42 98 be 90 08 da bd
       -0.07070469 -0.15273264 -0.2973827 -0.106461644
000010 ff 65 25 be 16 83 47 be 50 ff 63 be fb 72 99 bc
       -0.1615219 -0.19483599 -0.22265363 -0.018731585
000020 38 be 18 be 0d 1d 3c be e7 c8 e1 be 0d 8f 90 be
       -0.14916313 -0.18370457 -0.4409859 -0.2823414
000030 07 24 df be 8f e1 f9 bd 0c 34 08 be 7a 9b dc bd
       -0.43582174 -0.12201225 -0.13301104 -0.10771842
000040 27 0a 98 bd 63 39 7c be 56 0d b0 be e9 d1 b1 be
       -0.074238114 -0.24631266 -0.34385175 -0.3473046
000050 c1 e6 ba 3d 21 61 25 3e a3 90 18 be cf 7c 7c 3e
       0.09126044 0.16150333 -0.14898925 0.24656986
000060 a3 db ed be f6 a2 af 3d 0d a7 70 be d5 4c 80 3d
       -0.46456632 0.08576004 -0.23501225 0.062646545
000070 98 80 90 be 01 cc 79 be 74 10 79 bd 3f 3a 09 bf
       -0.2822311 -0.24394228 -0.060806707 -0.536045

body.block1.norm.running_mean f4 [32]
000000 e3 f9 bf bf 68 35 7a bf 96 77 ee 3f 32 cf f3 bd
       -1.4998134 -0.9773774 1.8630245 -0.11904754
000010 94 7e 4d 40 2f 85 0a c0 6b 60 81 3f b5 3b 7b 3d
       3.2108507 -2.164379 1.010755 0.061336238
000020 49 94 f5 be 69 64 1f 3f 55 60 17 c0 35 81 b3 be
       -0.47964695 0.6226259 -2.3652546 -0.35059515
000030 ac 8f a6 3f ad bf df 3f ce 75 59 c0 69 0f 31 c0
       1.3012595 1.748037 -3.3978152 -2.7665656
000040 c3 7d 97 bf 0b 60 b3 3e bd cb 6f 40 c8 a2 ce 3d
       -1.1835254 0.35034212 3.7468102 0.10089642
000050 41 40 19 c0 8b d7 cb bf e4 6a 9f 3f bb 40 34 c0
       -2.3945467 -1.5925153 1.2454495 -2.8164508
000060 9b dc f4 bf 7c 36 b7 bd 36 5b 9e be d2 ca df bd
       -1.9129823 -0.08945939 -0.30928963 -0.10927357
000070 46 31 a6 3f e5 6c 3b bf ef db 05 c0 0c 15 50 3e
       1.2983787 -0.73213035 -2.0915487 0.20320529

body.block1.norm.running_var f4 [32]
000000 57 93 6c 40 bb ad 9e 40 fe c3 83 40 34 2f 67 40
       3.696493 4.9587073 4.117675 3.612256
000010 1d 2b 97 40 73 84 1f 41 b4 b5 4c 40 e7 cb 3f 40
       4.724013 9.969836 3.1985903 2.9968202
000020 0d 53 c0 40 00 9a e8 40 6e d1 13 41 c0 5f 84 40
       6.010138 7.268799 9.23863 4.136688
000030 7d d9 01 41 67 b3 3a 41 b0 db 12 41 b7 d2 d7 40
       8.115598 11.668799 9.178635 6.744472
000040 b8 73 bb 40 4f 5f 71 40 b1 e7 73 40 37 1b a1 40
       5.857876 3.7714422 3.8110163 5.034572
000050 15 1e 2f 41 c2 9f 4f 40 7c dc 46 41 fd cb d7 40
       10.944844 3.2441258 12.428829 6.743651
000060 fd b4 50 40 70 83 be 40 f9 d4 23 40 1c 66 8d 40
       3.2610466 5.9535446 2.5598738 4.4187145
000070 08 a9 bd 40 b5 35 f0 40 a3 74 a4 40 c8 76 48 40
       5.9268837 7.506556 5.139238 3.1322498

body.block2.conv.weight f4 [32, 32, 3, 3]
000000 16 63 a7 bd ad 13 e8 3c e6 85 b0 bd f7 6d 5b 3d
       -0.08173196 0.028329695 -0.08619289 0.053571668
000010 22 1d fe 3d 15 1d 02 bd 84 c1 ec 3d bf 26 23 3d
       0.124079004 -0.031766016 0.11560348 0.039831873
000020 5d 29 8f bc 3e 93 a1 3d d4 11 55 bd 9f 78 cb bd
       -0.017475778 0.07889412 -0.052018955 -0.09935116
000030 ef 51 e9 bd 64 ab c5 bd 66 b5 02 3d 54 ec 13 be
       -0.11392581 -0.09651831 0.031911276 -0.14445621
000040 dd 26 54 be 00 bb 09 be 0e 67 7e 3e 5b 73 3b 3e
       -0.2071795 -0.13450241 0.24844 0.18305723
000050 54 d6 59 3d 12 b7 09 3d 49 1c 62 3b cb 92 07 bb
       0.053182915 0.033621855 0.0034501723 -0.002068686
000060 ab 8e 1d be bd 4c 57 bc 45 5f aa bc f3 1b f6 bd
       -0.15386455 -0.013140854 -0.020797381 -0.1201705
000070 56 6c 21 be 39 0b b3 3d 0e 3b 79 be fa d1 e6 bd
       -0.15763983 0.08742375 -0.24338934 -0.112705186
000080 17 3b c7 3b e3 57 1c 3d aa 98 b1 bc 4d b8 83 bc
       0.006080042 0.038169753 -0.021679241 -0.016079092
000090 75 98 c9 bc 12 19 ce bd fd a0 b9 bd f6 1e a4 bc
       -0.02460883 -0.100633755 -0.09063909 -0.020034295
0000a0 a8 fa a3 bc 5a af 86 bd 8d 2d 16 bd 84 70 38 be
       -0.020016983 -0.065764144 -0.036664534 -0.18011671
0000b0 ae 7c 68 be 52 48 65 3d 02 45 bb bd b9 a3 a3 bd
       -0.22703812 0.055977173 -0.091440216 -0.07990212
0000c0 65 11 a7 bd e2 38 9b bd 11 d2 15 be 16 77 6e 3d
       -0.081576146 -0.07579209 -0.14630915 0.058219038
0000d0 3e 1d 68 3d ad a0 c2 bd 5e 00 b7 bc 1b 6b 90 bd
       0.056668513 -0.09503303 -0.022339042 -0.07051679
0000e0 95 b5 b9 bc e8 94 28 bd 09 dd fd 3d a0 71 73 3c
       -0.022669593 -0.041157633 0.12395675 0.014858633
0000f0 05 2e 9f bb 66 14 21 3d 6c 73 8f bd 9b 4a e2 3d
       -0.004857781 0.039326094 -0.07004437 0.11049386
000100 5d 61 d1 3d 4d df f5 bb d0 6a 91 3d 9f d8 8f 3d
       0.10223649 -0.007503426 0.07100451 0.07023739
000110 cd 39 2d be 96 58 95 3d c6 0f e2 ba 40 d3 1b bd
       -0.1691658 0.07292287 -0.0017247132 -0.03804326
000120 a8 24 e7 3d 2f 10 0f 3d 45 7a 01 be d3 df df 3d
       0.112862885 0.034927543 -0.12644298 0.10931363
000130 6e 8c 52 bc 86 05 57 bd 70 71 b0 3d c2 60 5f 3c
       -0.012850864 -0.052495502 0.086153865 0.013633909
000140 be 7d 14 3d 98 2d 4e bd a9 08 36 3b 77 ce 66 3d
       0.03625273 -0.05033645 0.0027776158 0.056349244
000150 7c 1c b5 3c cf ff b6 3d a5 92 93 3d 63 b8 3a 3d
       0.022108309 0.0893551 0.072057046 0.045586
000160 a0 e7 e7 bc 7c fa 8c bc 36 9e b1 3d 1e 79 b5 3d
       -0.02830869 -0.017209284 0.086727545 0.08860992
000170 88 4b 42 be 61 c6 22 be 4f 21 24 be 77 29 3d be
       -0.18974125 -0.15895988 -0.16028331 -0.18472849
000180 6a 88 13 bd 05 9b 83 bd ef ba bf 3c 99 0c 16 be
       -0.036018766 -0.06426052 0.023404567 -0.14653243
000190 80 69 38 be b6 00 39 bd 0b 25 b8 bd e3 c9 c6 3d
       -0.18008995 -0.045166694 -0.089914404 0.097064756
0001a0 9c 57 74 3d d1 9c a4 3c c9 39 26 bd 15 79 86 bd
       0.059653863 0.020094307 -0.040582452 -0.06566063
0001b0 fa e5 c5 3d ce 68 b4 3d 46 50 5f 3d 65 e7 97 3d
       0.09663005 0.088090524 0.054519914 0.07417182
0001c0 17 f6 31 3d 3a 42 4f 3c 1e f8 2c bd 03 2f 36 bd
       0.04344758 0.012650067 -0.04222881 -0.044478428
0001d0 d4 4c e9 3c 33 f9 b8 3d 08 7f 12 3e 1b a0 4c 3d
       0.028479017 0.09031906 0.14306271 0.049957376
0001e0 a9 36 17 bd 46 b7 38 bc e5 c4 ba bd ce ac ed 3c
       -0.036917362 -0.011274165 -0.09119586 0.029013064
0001f0 0d 26 24 bd 16 c5 de bd ab ce 12 be e9 f5 a6 bc
       -0.04007535 -0.10877435 -0.1433665 -0.020380931
000200 e8 3a 73 3d 5f cd 54 bd c7 5e 86 bd 82 cb c3 3d
       0.05938235 -0.05195367 -0.06561046 0.095603004
000210 4b 8d 70 3d c7 63 ab bc a4 ba 19 3e e1 fb de 3d
       0.058728497 -0.020921601 0.15012604 0.10887886
000220 9c 36 0f 3d 55 db 82 3d e8 bf d3 3b ce 88 dd bd
       0.03496419 0.063894905 0.006462086 -0.10817109
000230 4d f7 91 3d 30 71 74 bb 7d ec 19 be 39 54 40 3d
       0.07127247 -0.003729891 -0.1503162 0.04695532
000240 3f ec 0c be 7d 6c 01 bc bc 33 24 3e 69 61 c7 bd
       -0.13761996 -0.007899401 0.1603536 -0.097353764
000250 7c ac f9 bc 0e 4f f5 3d 86 1c b0 bd a2 bb 02 be
       -0.030477755 0.11977969 -0.085991904 -0.12766889
000260 27 ef 13 3d 66 3a 23 3e 56 ec f2 3d 9e 00 2d 3e
       0.036116745 0.15940246 0.11861484 0.16894767
000270 1e 6c df 3d 7a cf 86 3c fb 57 40 3d 0e ed b2 3d
       0.109092936 0.016456354 0.046958905 0.08736621
000280 ad e7 cd bd 08 16 98 3c 1e 79 2d 3e f0 3b 97 3c
       -0.10053954 0.018565193 0.16940734 0.018461198
000290 b6 f8 46 bd 3d 9a 4c 3d 33 b8 9f bd 55 56 b8 bd
       -0.048577033 0.04995178 -0.07798805 -0.090008415
0002a0 48 9c bc bd 02 25 ea bc 69 69 84 bd d2 d3 95 bd
       -0.09209496 -0.0285821 -0.06465418 -0.07315792
0002b0 0d 7b 16 be 39 f4 8b be b0 fe 70 3d 70 b5 78 3c
       -0.14695378 -0.27334765 0.05883664 0.015179977
0002c0 6e 50 b1 bd 4f db 38 3d 6d 50 fc bc ba 3c f8 bd
       -0.08657919 0.045131024 -0.030800069 -0.12120958
0002d0 62 a9 8f bd 8b 07 85 bd c4 0d 57 bd c3 c1 10 be
       -0.07014729 -0.06495579 -0.052503362 -0.14136414
0002e0 e5 6c 0a be f4 78 2e 3d 22 69 7a 3d 75 65 1a 3d
       -0.13518102 0.04259582 0.06113542 0.037694413
0002f0 be 65 e3 3d ac 77 b5 3d c8 51 c7 bc f7 0e 1a 3d
       0.1110339 0.08860716 -0.024330989 0.037611928
000300 83 26 32 3c 66 76 ad bd 74 7c 74 3c 2e a1 2c 3e
       0.01087344 -0.08469848 0.01492225 0.1685836
000310 c3 4c 57 3d 53 99 57 3e 97 62 2e be 7c 16 3b bd
       0.05256344 0.21054582 -0.17029797 -0.04567574
000320 f2 a3 01 3e 7e 6f 0b be 93 c0 73 bd ad 18 cb 3b
       0.12660196 -0.1361675 -0.059509825 0.00619801
000330 f7 fa ae 3b 01 be c1 bd a9 29 2c be 3e bd 33 3d
       0.005339976 -0.094600685 -0.16812767 0.043881647
000340 38 61 d9 bb 64 37 70 3d 78 86 5b 3d 02 6f f1 bd
       -0.006633904 0.058646575 0.053595036 -0.11788751
000350 46 ec b7 bd b1 87 c0 3c 01 c9 c2 bd ff 71 3a 3e
       -0.089806125 0.023502203 -0.09510995 0.18207549
000360 5c 15 20 3d ad 8f a0 bc 2e f9 23 bd c6 47 7c be
       0.03908287 -0.01959976 -0.04003256 -0.24636754
000370 f6 19 03 be 1e 2e 0d bd 35 e5 1d 3d f3 35 2b bd
       -0.12802872 -0.03446781 0.038548667 -0.041799497
000380 60 07 51 bc 18 5b ac bc 5d 55 19 3d dc 02 a5 3c
       -0.012758106 -0.02103953 0.037434924 0.020142965
000390 69 3f 8e bc a5 5f bd 3d 04 70 aa 3d d6 40 9c 3b
       -0.01736422 0.09246758 0.083221465 0.0047684712
0003a0 d0 de af bb 88 29 82 3d f8 93 04 3e e5 f1 3f 3e
       -0.0053671375 0.06355578 0.1294707 0.18744619
0003b0 5a b1 b0 bd 07 b6 38 3e 6d 6d 6e 3b c9 bc 87 bd
       -0.08627577 0.18038188 0.003638114 -0.06627805
0003c0 8e e3 21 be d6 57 2d be d7 ba 30 be 26 fc 4f be
       -0.15809461 -0.16928038 -0.17258774 -0.20311031
0003d0 b8 9d 36 be 9f e0 ac bd a9 c2 87 3c 9d e7 99 3d
       -0.17833602 -0.084412806 0.016572313 0.0751488
0003e0 b0 42 e2 3c 0f 06 f5 bd ec 6a a1 3d 0b 82 3c 3d
       0.02761969 -0.11964046 0.07881722 0.046022456
0003f0 17 ba 20 3e 68 a5 fd 3c 23 e0 9f bd f1 fa db bd
       0.15695988 0.03096266 -0.078064226 -0.10741223

body.block2.conv.bias f4 [32]
000000 70 b6 92 3b 56 86 ad 3c 8b 25 32 3d 4d 36 7c bc
       0.0044773147 0.02118222 0.043492835 -0.015393806
000010 50 1c 7d b9 12 62 00 bd 3a 0e d1 bc 30 e5 da bb
       -0.00024138507 -0.031343527 -0.025519479 -0.0066801533
000020 98 dc 7b bc c7 5a 25 bd 7c ce dd 3c b3 8e a8 3b
       -0.015372418 -0.040369775 0.027075998 0.005143964
000030 a3 94 1b 3d 34 3d 0f 3c b9 d1 00 3d 5d 92 71 bc
       0.037983548 0.008742619 0.031450007 -0.014744368
000040 55 9f e9 bb d8 42 e6 bc c0 8e 12 bd 27 f2 27 bc
       -0.0071295896 -0.028108045 -0.03578067 -0.010250605
000050 da 8b fe bc 78 94 5b bd 87 2c ce 3c 8c e6 2a bd
       -0.031072546 -0.053608388 0.025167717 -0.041723773
000060 78 86 09 bd 82 d1 5a bd ec f9 3b 3d 08 75 20 3c
       -0.033575505 -0.05342246 0.04589264 0.009793527
000070 63 2e a8 3c e7 9f a3 3b 23 4e 43 3d c5 58 9d 3b
       0.020529931 0.004993427 0.04768194 0.004801842

body.block2.norm.weight f4 [32]
000000 26 c4 ac 3f 6d 21 9a 3f a7 88 aa 3f 6c aa b0 3f
       1.349736 1.2041451 1.3322953 1.3802009
000010 fe 71 af 3f 7f bb ac 3f 20 48 a2 3f 56 eb a4 3f
       1.3706663 1.3494719 1.2678261 1.2884319
000020 02 b5 9e 3f 1e f5 93 3f a0 09 a6 3f 39 47 b3 3f
       1.2398989 1.1559179 1.2971687 1.400611
000030 8c 9d ab 3f 81 b8 9f 3f 2d 5a 95 3f 2e 3b a7 3f
       1.3407454 1.2478181 1.1668144 1.3064935
000040 9f 2f 9e 3f b1 02 b4 3f 12 9f 93 3f f4 d4 a7 3f
       1.2358283 1.4063321 1.153292 1.3111863
000050 01 b8 a4 3f a1 4e c2 3f 18 cd aa 3f 38 1f b4 3f
       1.2868654 1.5180246 1.334384 1.4072027
000060 a1 34 96 3f d1 8f a9 3f 03 53 a2 3f ba 60 9a 3f
       1.1734811 1.3247014 1.2681583 1.2060769
000070 47 95 a3 3f 9a 34 b2 3f ca 58 9b 3f c9 c6 b7 3f
       1.2779931 1.3922303 1.2136471 1.435754

body.block2.norm.bias f4 [32]
000000 1a f3 c2 be 0d 98 0f be 8d 81 a4 bc 22 0b fe bd
       -0.38076097 -0.14022847 -0.020081306 -0.12404467
000010 78 d1 0f bf d1 7c 61 bd 9d 65 b2 3d 54 14 95 bd
       -0.56179 -0.055050675 0.087107874 -0.07279268
000020 45 85 5d be aa f4 33 be 80 88 9c be c0 d2 fc be
       -0.2163287 -0.175738 -0.3057289 -0.4937954
000030 71 a0 02 be 1e 2a 34 be 91 c8 9e be 89 43 af bb
       -0.12756516 -0.17594191 -0.31012395 -0.005348627
000040 2d 6e 40 be ee 3b 37 be ad d2 70 be 80 46 3d be
       -0.18792029 -0.17893955 -0.23517866 -0.18483925
000050 4c 00 ba bd ae 2c d8 be 17 f2 ff bd 11 cf 8b be
       -0.09082088 -0.42221588 -0.12497347 -0.27306417
000060 1f a6 4c be 08 49 2b 3c 80 22 d7 be 07 5f 12 be
       -0.19985245 0.010454424 -0.4201851 -0.14294063
000070 c2 cc 71 be 70 8f b6 3d 17 0f 94 bb f9 d4 20 be
       -0.23613265 0.08914077 -0.0045184004 -0.15706243

body.block2.norm.running_mean f4 [32]
000000 06 eb 65 bf bb 38 20 3f cc 1a b8 3e 52 5b 5f bf
       -0.8981174 0.62586564 0.35957944 -0.8724872
000010 d7 e6 21 3f aa 2d c8 3e f5 fd 3b c0 ff d1 d3 be
       0.6324286 0.3909734 -2.9373753 -0.41371152
000020 62 ee 57 bf 01 76 ed be bb 9a 91 3f 0c ac 8a bf
       -0.8434812 -0.46379092 1.1375345 -1.0833755
000030 1b bc 00 bf a7 7e 40 bf 68 aa af 3f 3e 59 8c 3f
       -0.50287026 -0.75193256 1.3723879 1.0964735
000040 0a e5 27 3e 0d 2d fc bf 43 68 dc 3e bb c1 8b bf
       0.16395965 -1.9701248 0.43048295 -1.0918497
000050 83 6a 9f bf c6 9a b0 bf 10 04 11 40 db 94 0f bf
       -1.245438 -1.3797233 2.265873 -0.5608651
000060 8f ac fd bf 1f 28 83 be 04 00 d4 3f d8 ac b9 3e
       -1.9818286 -0.25616547 1.6562505 0.36264682
000070 f3 4d ae 3e 0f 2b 21 bf a1 03 05 3f d8 07 14 3f
       0.34043846 -0.6295633 0.5195866 0.5782447

body.block2.norm.running_var f4 [32]
000000 75 89 18 40 62 dd 10 40 86 7b 17 40 42 17 26 40
       2.3833897 2.2635121 2.3669143 2.5951695
000010 03 f1 08 40 3a 8c 1d 40 38 3c 0b 40 f5 f4 2d 40
       2.1397102 2.4616838 2.1755505 2.718076
000020 69 d8 be 3f 26 55 6e 40 3e 02 5e 40 f0 ce 13 40
       1.4909793 3.723947 3.4688869 2.3095055
000030 2f 1c 82 40 00 ac 14 40 c8 f2 6d 40 43 2b 43 40
       4.0659404 2.322998 3.7179432 3.0495155
000040 27 ac 78 40 9e 56 f0 3f c9 de a2 40 c2 d4 03 40
       3.8855073 1.8776433 5.0896955 2.0598607
000050 f6 fd 21 40 06 47 ad 3f 1d 3d f6 3f cd 68 46 40
       2.5311255 1.35373 1.92374 3.1001465
000060 9b 57 b3 3f 41 0a b2 3f b8 bd 0b 40 83 29 36 40
       1.401111 1.3909379 2.1834545 2.8462837
000070 1c 9c 07 40 24 51 36 40 a2 f0 2c 40 f4 92 3b 40
       2.1189032 2.8487024 2.702187 2.9308443

body.block3.conv.weight f4 [32, 32, 3, 3]
000000 2a e4 ea bc 48 85 a1 bc ab 8b 46 be 84 9f d5 3d
       -0.02867325 -0.019716874 -0.19389217 0.10430816
000010 4e e7 14 3e 19 98 a0 bd 3e 05 c1 3b 7b 31 17 bb
       0.1454136 -0.0784151 0.0058905175 -0.0023070264
000020 b5 34 95 3d 89 44 1a be a0 46 47 be 94 c3 7e bd
       0.07285444 -0.15065207 -0.19460535 -0.062198237
000030 1e b6 26 3e 8b b6 f0 3c a9 05 0a bd ba 23 9d bd
       0.1628041 0.029383918 -0.033696804 -0.0767283
000040 a7 cd 7e bd a6 e2 35 3d 66 56 3f be 59 8e 62 3c
       -0.062207844 0.044405602 -0.18685302 0.013827884
000050 56 23 3a 3d 09 17 1d 3c b5 c6 84 3d 2e 13 ce bd
       0.045443855 0.009588012 0.06483213 -0.10062252
000060 97 6e a4 3d 3f 16 02 3d f3 a9 97 bd b2 cf 02 3d
       0.08028906 0.031759497 -0.07405462 0.031936355
000070 28 88 0a be 46 34 cb bd dc 50 0b be 0a f1 cb bd
       -0.13528502 -0.0992208 -0.13605064 -0.09958084
000080 fb 21 d6 bd cb db 75 3d 3b b9 83 bc c0 af a2 3b
       -0.104557 0.060024064 -0.016079536 0.0049647987
000090 4a 99 b3 3d c2 3a 01 be 73 e4 85 bd 51 df 38 bd
       0.08769472 -0.1262007 -0.06537714 -0.045134846
0000a0 0b 2e fb bd 8a 6c ad 3d 36 9f a5 bd 40 db c6 3b
       -0.122646414 0.08467968 -0.08087008 0.006068617
0000b0 7c d8 80 3e 3e 56 c8 bd 5c 34 fa 3c f2 42 a7 bd
       0.25165164 -0.097820744 0.030542545 -0.08167066
0000c0 33 3c 7a bd 1b 18 3a bd ab 0c f6 bd 3a 9d 56 bd
       -0.061092567 -0.045433145 -0.12014135 -0.052396037
0000d0 19 2b 58 3d 04 fd 8a 3d 3c 7a 83 3c 88 4d 78 bd
       0.052775476 0.0678654 0.016049497 -0.060620815
0000e0 e9 a7 54 bd 78 d1 99 3d d2 e6 c6 3d 79 36 04 bc
       -0.051917944 0.07510656 0.09711994 -0.008069628
0000f0 78 5a 3c bd ff 15 ba 3c 37 b0 23 bb fc 87 72 bd
       -0.045984715 0.022715567 -0.0024976858 -0.059211716
000100 ba 68 95 3d 2a cc 27 bd 3d a2 1a be 84 ce d1 bd
       0.07295366 -0.04096619 -0.15100951 -0.10244468
000110 51 39 b3 bd af e2 9e 3d b6 13 61 bd a7 09 d9 bd
       -0.087511666 0.0775808 -0.05495044 -0.10597544
000120 f8 02 00 3e d3 30 8f 3d ba 98 12 3e 04 a5 ac bc
       0.12501132 0.06991734 0.14316073 -0.02107478
000130 22 52 7a bd 86 8d 4b bd 3f 37 bf 3d 36 78 b8 3d
       -0.061113484 -0.049695514 0.09336709 0.090073034
000140 40 cc 81 bd 7a 88 98 3c e1 44 dd bd e4 09 d5 bb
       -0.06337786 0.018619765 -0.10804153 -0.006501423
000150 f7 ac 04 bd ab 40 bf bb b4 89 34 3d 7d ad 1a be
       -0.032391515 -0.0058365664 0.044076636 -0.15105243
000160 08 6d da bd 36 8d a6 bc 36 1b 83 bd 71 1d 2d 3c
       -0.10665327 -0.020331006 -0.064016744 0.010566101
000170 95 92 98 3c 86 7b 8c bd ba 25 a7 bd 52 f7 36 3d
       0.018624583 -0.06859498 -0.08161493 0.044669457
000180 06 6a c4 bd 73 7c 71 bd bb 53 c6 bd e6 8d 03 3e
       -0.09590535 -0.058956575 -0.09683939 0.12847099
000190 74 80 0e 3d b5 6a 9a 3d 0e e3 89 bb ba 54 01 be
       0.03479047 0.07539884 -0.004207975 -0.12629977
0001a0 8c 34 10 be 58 ae 1d be ec 50 32 be a6 de 31 be
       -0.14082545 -0.15398538 -0.17413682 -0.1737009
0001b0 83 39 37 3e 8b 54 4b 3d fd 3f 0b be 93 7e e5 3d
       0.17893033 0.049641173 -0.13598628 0.11205783
0001c0 e2 ff 62 3d a4 97 a4 bd 90 23 9e 3d cb ad eb b9
       0.05541981 -0.08036736 0.07721627 -0.0004495218
0001d0 4e 43 23 bd 9b c7 81 3d 15 1f 54 bd 01 d6 d9 bd
       -0.03985911 0.063369 -0.051787455 -0.10636521
0001e0 8d 44 3b bb 3e 92 0b bd e5 8a e1 bc 90 82 38 3e
       -0.0028574795 -0.034075014 -0.02753205 0.18018556
0001f0 96 c5 15 3e b9 01 74 3d 2b 1c 22 bc c8 e6 42 3c
       0.14626154 0.059571955 -0.009894411 0.011895843
000200 51 ae a7 bc 19 31 3f be 7d 0e 9c bb ae a8 ad 3d
       -0.020468863 -0.18671073 -0.0047624693 0.08479439
000210 1b 91 42 be 64 5b 19 bc e4 04 03 3e 2e 59 ed 3c
       -0.19000666 -0.009360168 0.12794834 0.028973188
000220 d3 ac 17 be 4e bc 99 bd 36 50 17 bd 52 93 6c bd
       -0.14812021 -0.075066194 -0.03694173 -0.057757683
000230 86 89 75 bd 36 6f fe bd df e2 87 bd 74 b9 89 bd
       -0.059945606 -0.124235556 -0.06635069 -0.067248255
000240 13 2f 78 be 41 c4 54 bd 29 ca c2 3d 18 bb 77 bd
       -0.24236707 -0.051944975 0.09511215 -0.06048116
000250 f8 36 d1 bb 2a e5 db bc 34 7d c9 3d 0d 25 bf 3d
       -0.0063847266 -0.026842672 0.09838334 0.09333239
000260 71 ee 7a 3d cc a4 45 3d c5 14 55 3e 4d 8b 4d 3e
       0.06126255 0.048252866 0.20808704 0.2007267
000270 92 35 fc 3d 28 77 1f 3e 89 a2 66 bb 45 87 7e 3c
       0.12314905 0.15572798 -0.0035192093 0.01553518
000280 6a 74 e0 3c e8 20 06 ba d4 7e 1b 3e 6f 17 e1 bc
       0.02739926 -0.0005116598 0.151851 -0.027476994
000290 a6 98 13 be 09 15 a8 3d e8 cd 75 bb 14 d8 b8 bd
       -0.144137 0.08207137 -0.0037506763 -0.09025589
0002a0 4f a8 3e 3d 09 8e ea ba 79 b5 06 bd 3a 0e 17 3e
       0.04654723 -0.0017895113 -0.03288791 0.14751521
0002b0 6b 6d cf 3c 09 52 61 bd fb ee c0 3d db c0 df bd
       0.02532073 -0.055009875 0.09420582 -0.10925456
0002c0 2b f8 f7 3c 57 a8 2b 3c 83 ba 9c bd ca 1d ed bd
       0.030269703 0.010477147 -0.07652762 -0.115779474
0002d0 e0 b4 a3 bd 98 49 58 3d 57 ee 38 3e cf 89 70 bd
       -0.079934835 0.05280456 0.1805967 -0.058725175
0002e0 46 9a 32 bd f1 44 59 3d 55 24 4b bd 1b e4 e1 bc
       -0.043604158 0.053044263 -0.049595196 -0.02757459
0002f0 d8 ea 95 bb c5 45 4e bd 0f 93 ac bb c7 19 bb bd
       -0.0045751147 -0.050359506 -0.005266554 -0.09135776
000300 bf 03 ce 3d 75 92 3f 3d 0e 1e 3e 3e a9 88 9a 3c
       0.10059308 0.04677053 0.18566152 0.018863993
000310 5b 5c 9a 3c 65 6c 9c 3d 94 ac 03 3e 9a 34 d0 3d
       0.018842867 0.07637862 0.12858802 0.10166283
000320 a7 81 68 3d 32 ad bc 3d 23 d7 1e 3d bc 6a 3c 3c
       0.05676427 0.09212722 0.03877939 0.011500057
000330 22 2a 5a 3d ab dc a0 3a b2 38 89 bd b3 36 2d 3c
       0.053262837 0.0012272795 -0.06700267 0.010572123
000340 2a 59 28 bd a2 f1 58 bd 5d be 56 be ed a1 c4 bd
       -0.04110066 -0.052964814 -0.20971055 -0.096011974
000350 85 92 a1 3c 86 6f aa bd e6 df cf 3c 69 bd c2 3c
       0.019723186 -0.08322053 0.025375318 0.023771958
000360 3d ba 99 3d 4f 44 f1 3c 65 e2 3d 3e d5 68 90 bc
       0.07506225 0.029451517 0.18543394 -0.017628113
000370 35 1a f0 3d 9e 67 3a 3d d9 6a 9e bd cd e0 bf bd
       0.117237486 0.045508973 -0.07735223 -0.09369049
000380 dc de 85 bc 94 96 0e 3c 9e 11 b6 3d 7e 5e 21 3b
       -0.01634162 0.008702893 0.08890079 0.0024622972
000390 ba bd e6 3c 6d a1 5e 3d b3 81 08 3d 41 4f df 3d
       0.02816664 0.054353166 0.033326816 0.10903788
0003a0 d7 aa a5 3a 41 10 db bd 4b a4 88 be 0b 43 b3 bd
       0.0012639415 -0.106964596 -0.26687846 -0.08753022
0003b0 63 68 79 bc e8 98 68 bd 8c 0b 5d bd b8 c1 23 bd
       -0.015222642 -0.056786448 -0.05396609 -0.039979666
0003c0 c7 ff 6a 3d 87 1d c2 3c 0d 03 ef bc 4e 25 22 bd
       0.057372835 0.02369572 -0.02917626 -0.039586358
0003d0 2d 1a a5 bd d5 aa 86 bc 8e ee 85 bd d0 81 aa bd
       -0.08061633 -0.016438881 -0.06539641 -0.08325541
0003e0 da 51 a2 3d 1b 9a 58 be ed 8c 2f be c7 0f 92 bd
       0.07925768 -0.21152537 -0.17143603 -0.071319155
0003f0 b8 aa ca bc 48 8b 87 3d 1d 47 17 3e 09 70 3c bd
       -0.024739608 0.06618363 0.14773221 -0.046005283

body.block3.conv.bias f4 [32]
000000 07 6b 66 3d 20 4b 3b bd e9 a2 48 bd fc 40 86 bd
       0.056254413 -0.04572594 -0.04898349 -0.065553635
000010 04 3c d4 bc be f4 3e bd ed 06 f5 3c 7b 54 82 bb
       -0.025907524 -0.046620123 0.029910529 -0.003977356
000020 77 8f 19 3d 59 9c 2f bd f3 e0 d4 3c ce 47 f3 3c
       0.037490334 -0.042873714 0.02598617 0.029697325
000030 0e d2 a0 bb c9 3c 24 3d b4 da ee bc a8 77 49 bd
       -0.004907853 0.04009703 -0.02915702 -0.04918638
000040 fa 40 ff ba 65 df 1a 3d cf 88 d8 bc ea 27 2b bc
       -0.001947432 0.037810702 -0.026432423 -0.010446528
000050 3a 1f 13 3d fd 2a e4 3c bc b8 2b bd 0b 14 aa 3c
       0.03591845 0.02785253 -0.041924223 0.02076151
000060 2e 83 6f bb 9c d9 e4 3c f8 46 2b 3d 76 03 89 bc
       -0.0036546695 0.027935795 0.041815728 -0.016725283
000070 25 e6 40 bd c0 ea 8d 3a 64 9e 1e bd d8 03 03 bc
       -0.047094483 0.0010827407 -0.03872527 -0.007996522

body.block3.norm.weight f4 [32]
000000 cc 32 03 3f a1 2f 28 3f af 3f 35 3f 6d 2e 42 3f
       0.51249385 0.65697676 0.708003 0.7585209
000010 7a 8b 26 3f f9 a9 0c 3f d5 92 14 3f 46 8e 01 3f
       0.65056574 0.5494686 0.5803655 0.5060772
000020 b2 20 31 3f 37 a6 15 3f 12 c3 2e 3f 6a 80 14 3f
       0.69190514 0.5845675 0.68266404 0.58008444
000030 79 ab 0f 3f ee e0 18 3f 18 c6 10 3f e1 dc 16 3f
       0.5612102 0.59718215 0.5655227 0.58930784
000040 40 1d 20 3f 9d ed fd 3e a9 f1 2c 3f 9d e8 22 3f
       0.6254463 0.49595347 0.67556244 0.6363619
000050 2f 8c 0d 3f e2 23 0c 3f 16 36 ed 3e 09 48 23 3f
       0.5529203 0.5474225 0.46330327 0.6378179
000060 7b 43 d8 3e 48 45 16 3f c6 3b 0f 3f 39 aa 21 3f
       0.42238984 0.58699465 0.5595058 0.63150364
000070 eb d2 45 3f b8 9b 12 3f fa b2 13 3f f6 5e e8 3e
       0.7727496 0.5726886 0.5769497 0.4538495

body.block3.norm.bias f4 [32]
000000 cd 94 c8 be 9a c8 cf 3c 1c 89 be be b8 9e 1e bf
       -0.39176026 0.025364209 -0.3721398 -0.61960936
000010 5f da 0d bf 7a 48 ad be 85 25 bd be eb 97 83 be
       -0.5541133 -0.33844358 -0.36942688 -0.25701842
000020 d1 34 48 bf 29 f8 78 be 00 fb 0a bf 28 f0 f7 be
       -0.7820559 -0.24313416 -0.54289246 -0.48425412
000030 f4 c2 bd be ec 3f 2e bf 5e 5e d1 be 51 b9 cb be
       -0.370628 -0.6806629 -0.4089231 -0.39789823
000040 24 33 89 be 32 6e fa be 54 3a e4 be a7 82 77 be
       -0.2679683 -0.48912197 -0.4457575 -0.24170934
000050 f1 04 09 bf a2 91 68 be 40 62 16 be 90 d3 a4 be
       -0.53523165 -0.22711805 -0.14685917 -0.3219266
000060 d3 d4 90 be 44 e7 b4 be 63 c3 02 bf e7 c5 e6 be
       -0.28287372 -0.35332692 -0.51079386 -0.45072863
000070 d0 31 3b bf ab 92 95 be 3d 09 b3 3c 01 14 da be
       -0.7312288 -0.2921346 0.021854991 -0.42593387

body.block3.norm.running_mean f4 [32]
000000 3b d7 25 bf 74 a7 ae 3e 55 f9 5e bd 38 8a 33 bf
       -0.6478154 0.34112132 -0.054437 -0.7013278
000010 dd df 01 c0 4c ed 01 c0 c9 7b 9f bf 6d e7 1d be
       -2.0292885 -2.0301085 -1.2459651 -0.15420313
000020 fa be 78 bf 2c 04 79 bf 2c b6 91 bf 04 ac 81 bf
       -0.9716641 -0.9727199 -1.138372 -1.013062
000030 5f b6 d8 bf e7 bb c7 bf 91 96 be bf 8f 81 ec bf
       -1.6930655 -1.5604218 -1.4889699 -1.8477038
000040 b3 c4 fc be 2c 0b fb be 11 dd b2 bf bd 18 e5 bf
       -0.4936882 -0.4903196 -1.3973714 -1.7898175
000050 b2 61 99 bf 9c b8 ee bf 3b 5e f8 be 7b b0 01 c0
       -1.1982939 -1.8650088 -0.48509392 -2.0263965
000060 97 b0 55 be 41 c3 c7 bf 5d 4d a9 bf 53 52 b2 bf
       -0.20868145 -1.5606462 -1.3226734 -1.3931373
000070 d8 69 06 c0 57 78 a3 bf 2e 47 31 c0 dd a8 27 c0
       -2.1002102 -1.27711 -2.7699695 -2.6196816

body.block3.norm.running_var f4 [32]
000000 cc 4d 0b 40 f1 c0 9f 40 b5 df c6 40 ca e8 a3 3f
       2.1766233 4.9923024 6.214808 1.2805417
000010 89 55 8d 40 97 92 8e 40 17 ea 0b 40 dc cb 16 40
       4.4166913 4.4553943 2.1861627 2.3561926
000020 aa 7e 9c 40 21 f6 77 40 97 dd 88 40 d7 12 64 40
       4.890462 3.8743975 4.2770495 3.56365
000030 23 b4 9f 40 2f 8f 29 40 ce 67 ae 40 59 a3 4f 40
       4.9907393 2.6493642 5.4501715 3.244345
000040 f7 1b 38 40 79 76 10 40 07 af 21 40 0f 7f 9a 40
       2.8767068 2.257231 2.5263078 4.82801
000050 09 81 db 40 0e 3f 95 40 4d 8a 17 40 ba ec b0 40
       6.8595014 4.663947 2.3678162 5.5288973
000060 c4 ff 3a 40 91 97 88 40 bd f7 be 40 32 59 70 40
       2.9218607 4.2685018 5.9677415 3.755444
000070 24 ef a0 40 1f bf 84 40 8f f0 8a 40 3c de be 40
       5.029192 4.14833 4.341865 5.964628
