trained_models/sinGan/mountains/scale_factor=0.750000,alpha=10/0/netD.pth (torch_old, 122821 bytes, 25 tensors)

head.conv.weight f4 [32, 3, 3, 3]
00000000: 9951 df3d c2e1 643d 1f75 b93d 0279 25bd
00000010: 6557 10bd 702b 6fbd 0fb4 1fbd 1d82 6a3c
00000020: ba05 67bb 7505 503d e664 c83c b9d8 903d
00000030: c0b0 d9bc ed1c a0bc a5e5 f7bc 57c6 18bd
00000040: 3b09 a43b 569c 8cbb 45af ed3c 32b2 243c
00000050: 5088 423d 8d89 8cbc dd6e 85bc 3108 82bc
00000060: 9ef4 b2bc 0acc 4dbc 0031 77bc f1a6 2ebd
00000070: 859a 073d aebb 12bd cd99 e8bb 21fe 353d
00000080: 4558 1cbc c32d 29bc 4945 0f3d 5afe 43bc
00000090: 4ac5 b8bd ad1d 903a d0e3 b8bd f65d 38bd
000000a0: 792f 2abc eeb8 5cbd a578 e1bc 15b0 cd3b
000000b0: 3985 17bd 7c11 35bc f849 2b3d 6eb0 82bd
000000c0: a6fd 353c ac1d f2bb ab36 bbbc 66ea c6bc
000000d0: 95d6 3bbb d21b 87bd 32cd d73a 2e94 b5bc
000000e0: 5e13 b2bc 3550 00bc 7fd6 82bb 445e 08bd
000000f0: c65c 063c 0d4b eebc 5598 28bc 39b2 2b3d
00000100: 1b36 943c e786 403c 6289 053c a7c2 f5bb
00000110: 5d33 133b fddd 47bb e154 7b3c ad1b 2e3d
00000120: 5802 a63d 3dd8 373d 0fae 823b c003 31bb
00000130: 2204 50b8 032c cdbc 9eb2 df3c 6613 0c3d
00000140: aabb 043e 6bd7 c13a 1423 963c 448b 1f3d
00000150: 7e51 35bd d74d 93bc a6ae 113d 9956 55bd
00000160: 81c1 5cba 89b8 013d 7d44 aebc 4f5b 153d
00000170: d710 553d b927 0dbd 378f 54bc 5789 483d
00000180: aeba 02bc fa6a 633b d8c0 a03d 6752 a7bc
00000190: 2fc2 da3c 5056 fc3c 2077 12bd 73b5 c0bc
000001a0: 7978 0b3c 7d06 d9bb c88b a839 f332 953d
000001b0: 8e48 70bd ab60 1c3d 3b5e 85bd 6a3a d1bc
000001c0: df1d 7dbb fb37 8abd 8d7e 433c 13a5 223c
000001d0: 5c62 b9bd d03d 8ebc f9c0 523c ed96 8fbd
000001e0: a863 bc3c eb14 99bc f42d 1cbd 0aba c13c
000001f0: 26ac cabb b1c2 b6bc 19e1 05bc 75c8 24bc
00000200: ca3d fcbd c1ca 3f3c 4be4 113a ca4b 9cbc
00000210: eac1 52bd ba62 efbb 5d0a cfbc 1cdc 48bd
00000220: ad53 04bc 8117 a63c 575e ddbc ae47 b53c
00000230: b1ba a83d f3ed 5dbc 76c5 0f3d 9c12 0b3e
00000240: d6cd 57bd 9d45 bf3b 6b5b 0fbb 6f83 f8bc
00000250: 96d5 9d3c e433 293d 7faa 36bd 879d c43c
00000260: 393c 2e3d 70b5 4dbd 3db0 093c 288a 3c3c
00000270: 03a2 1dbd a16c 463b 76ba 363c b53c 72bd
00000280: ace4 c53a e177 14bc 2e12 9a3b 6041 e33b
00000290: 7bc9 7dbc 916d a93c 0396 263d 6f29 3b3d
000002a0: 015f 0e3c 6b24 8f3c 329b 503d 0451 053d
000002b0: 7575 ae3c caa2 32bc 2bdc 8dbc ec65 d6ba
000002c0: 1d3e f5bc 942a 72bd 08b5 96bc 23d7 e1bc
000002d0: c6f6 963d 55f8 2a3d 7643 11bc c66a 2ebc
000002e0: 7cfe f5bb cc60 afbd 86f8 29bd c605 c1bc
000002f0: e16c f7bc 06c1 bc3d 6e9d 75bd e5ed 0f3e
00000300: 04e4 613d c8d7 b0bc a324 e83c 1288 243d
00000310: e551 04bc cfe1 233d 90b0 be3c 19bf abbd
00000320: 8ff5 d13d f407 843c fb31 86bc 898e 283c
00000330: 8103 723c cc2c 333c a6d8 b33b deaa 64bb
00000340: c769 6cbd f122 a63d a3b3 763c f5d2 b93b
00000350: f601 253c e1c4 013c 3f32 983c c1bd 1fbd
00000360: 3358 48bc 7261 18bc 43c4 82bb 16f6 71bc
00000370: cbe6 f23b a223 b83b b7b9 c13c e6ad 283c
00000380: a738 b0bb 4f11 8e3c 340c 113c 4b3f 853c
00000390: 07fd 573d 517f 0a3c 943a 1cbc 1a24 403d
000003a0: 3a82 22bd f330 c1bc 6c08 bd3d 077b ae3c
000003b0: 5470 903c dd5a e93d 55c2 423c 9dba 46bb
000003c0: dae5 4f3d 4431 86bd 4062 c1bd 5d05 bebc
000003d0: c8e4 51bc 815c febc 5f8e 22bd ba2d f1bc
000003e0: a9c3 1a3c 2936 21bc 02b7 34bc 9b63 193d
000003f0: 71ad e3bc cd6c 173d 19d4 83bd d5e0 9abc
0.109042354 0.055879362 0.09055542 -0.040398605 -0.035239596 -0.058391035 -0.038990077 0.014313248
-0.0035251216 0.050786454 0.024462175 0.070725866 -0.026573539 -0.019545043 -0.03026087 -0.037298527
0.005005983 -0.0042910976 0.02901424 0.010052251 0.04749328 -0.017155433 -0.016288215 -0.015873047
-0.021845158 -0.012560854 -0.015087366 -0.042639676 0.033106346 -0.035823517 -0.0070984126 0.04443181
-0.0095425295 -0.010325852 0.034978185 -0.011962498 -0.09022005 0.0010995172 -0.09027827 -0.045011483
-0.010387295 -0.0538873 -0.027523348 0.006277094 -0.036992285 -0.011051532 0.04181859 -0.063813075
0.011107838 -0.007388791 -0.022853216 -0.024281692 -0.0028661836 -0.06597103 0.0016464351 -0.022165384
-0.02173775 -0.007831623 -0.003992855 -0.033293024 0.00820083 -0.029088521 -0.010290225 0.041918013
0.018092206 0.011750913 0.00815043 -0.007500011 0.0022461035 -0.0030497306 0.015340061 0.042506862
0.08105916 0.044883955 0.0039880346 -0.0027010292 -4.9594913e-05 -0.0250454 0.027306851 0.034198187
0.12962213 0.0014788931 0.018327273 0.038951173 -0.04426717 -0.017981453 0.03556695 -0.05208454
-0.00084211683 0.031670127 -0.021272892 0.03646403 0.052018013 -0.03446171 -0.012973598 0.048959102
-0.007979078 0.0034701214 0.07849282 -0.020425035 0.026703922 0.030802876 -0.035758138 -0.023524022
0.00851261 -0.006623088 0.00032147602 0.072851084 -0.058662944 0.038178127 -0.06512114 -0.02554055
-0.003862254 -0.06748959 0.0119320275 0.009927052 -0.09051964 -0.017363459 0.012863391 -0.07011209
0.022996739 -0.018686732 -0.03812976 0.02364828 -0.0061850725 -0.022309633 -0.008171343 -0.010057558
-0.12316473 0.011706055 0.00055653293 -0.019079108 -0.051454462 -0.0073054703 -0.025273496 -0.049038038
-0.0080765905 0.02027488 -0.027022524 0.022128906 0.082387336 -0.013545501 0.035100423 0.13581318
-0.052686535 0.005837156 -0.0021874558 -0.03033611 0.019266885 0.041309252 -0.04459619 0.024000896
0.0425379 -0.05022186 0.008403835 0.011507548 -0.038484585 0.003027715 0.011152854 -0.059139926
0.0015098057 -0.0090617845 0.004701874 0.0069352835 -0.015489931 0.020682128 0.040670406 0.04569381
0.008689643 0.01747342 0.050929256 0.032547966 0.021296242 -0.01090307 -0.017316898 -0.0016357279
-0.029936844 -0.059122637 -0.01839687 -0.027568405 0.07371287 0.041740734 -0.008866182 -0.010645574
-0.0075071435 -0.085633844 -0.041496776 -0.023562323 -0.030203285 0.09216504 -0.05996459 0.14055593
0.055149093 -0.021587268 0.028337782 0.04016883 -0.008076166 0.04001027 0.023277551 -0.08386058
0.10251915 0.016117074 -0.016381254 0.010287889 0.014771343 0.010935973 0.005488473 -0.0034891884
-0.057718065 0.08112133 0.015057477 0.0056709 0.010071268 0.007920475 0.018578647 -0.038999323
-0.01222806 -0.0093005765 -0.0039906814 -0.014768144 0.0074127666 0.005619482 0.023648126 0.010295367
-0.0053778472 0.017342238 0.008853007 0.016265532 0.05273154 0.008453206 -0.0095354505 0.04690943
-0.039674975 -0.023582911 0.09230122 0.021298898 0.017631687 0.11394284 0.011887153 -0.0030323633
0.050756313 -0.065523654 -0.09442568 -0.023195917 -0.012810893 -0.031049969 -0.039686557 -0.02944075
0.009446063 -0.009839573 -0.011029961 0.037448507 -0.027792664 0.036968995 -0.06436939 -0.018906036

head.conv.bias f4 [32]
00000000: 02eb 433e d046 88be 93fd 19be a3a5 0abf
00000010: ff7b e73b 976a aa3e 83a3 c7be 2c6d ab3d
00000020: 8aa5 b83e 2e54 35be 915d a83e 9323 b03e
00000030: ef54 9a3d ed38 473d c38a b33e bf54 73bd
00000040: 5494 42be f183 6c3f a3c3 803d 0d72 ba3e
00000050: e85c 3d3c 86a3 0b3f 7eae c8bb ddc1 433f
00000060: 72c2 9f3e f41c 7d3d 9cb8 5dbc 15c4 b73c
00000070: 0eba 30be 9628 4fbe a731 18bf 906f 3c3f
0.19132617 -0.26616526 -0.15038137 -0.5415899 0.007064342 0.33284447 -0.38991937 0.08370432
0.36063796 -0.17707893 0.32883886 0.3440214 0.07535731 0.048638273 0.35066804 -0.059406992
-0.19001895 0.92388827 0.06287315 0.3641514 0.011557795 0.5454639 -0.0061243167 0.76467687
0.31203038 0.06179519 -0.013532784 0.022432366 -0.17258474 -0.20230326 -0.59450763 0.7360773

head.norm.weight f4 [32]
00000000: e265 6a3f eee4 733f 686a 743f e16b 513f
00000010: 9f95 723f 2dc9 603f 5c6a 703f 8e91 7f3f
00000020: 0c8a 5c3f 0289 733f d532 843f 68f7 723f
00000030: 3a25 853f 6b2c 433f 2abb 7a3f f3c9 663f
00000040: 35d2 563f ac29 213f 4bea 7e3f 117a 783f
00000050: 8922 6b3f cbf4 463f 5b25 603f 01aa 543f
00000060: ae7e 543f e560 803f 4fe6 523f 2411 7a3f
00000070: 492c 753f 77a7 813f fe3f 823f b4b8 6d3f
0.9156171 0.95271194 0.95474863 0.81805235 0.94759554 0.8780697 0.9391229 0.99831474
0.8614814 0.9513093 1.0328013 0.9490876 1.0401986 0.7623965 0.9794184 0.901519
0.839145 0.6295421 0.9957625 0.9706126 0.9184957 0.77717274 0.87557 0.83071905
0.830058 1.002957 0.82382673 0.97682405 0.957707 1.0129231 1.0175779 0.9285996

head.norm.bias f4 [32]
00000000: 7f29 183f f343 283e 6c65 273f 2883 223f
00000010: 0d28 943e cf92 203f 77c5 c6be 878e dd3e
00000020: 5769 263f b3cb 823e e7c9 993d 4a7e 1e3e
00000030: af4b 063f 4820 a43e 0589 b53d 3e01 dc3e
00000040: dd02 903e 9046 673f 555f e93c 2666 8d3e
00000050: 09f4 843e 0715 853f a9e5 49bd cb53 323f
00000060: 0cb8 ed3e e8e3 283e f098 d73e ad2d ea3e
00000070: 1b77 cfbd 2dcc fa3e f386 3a3e 1dc4 723e
0.5943832 0.1643217 0.6538913 0.6348138 0.28936806 0.6272401 -0.3882253 0.43272802
0.65004486 0.25546035 0.07509213 0.15477863 0.52459234 0.3205588 0.08864025 0.42969698
0.28127185 0.90342045 0.02848784 0.27616996 0.25967434 1.0397042 -0.049291287 0.6965911
0.4642948 0.1649319 0.4210887 0.45737973 -0.101301394 0.489839 0.18215542 0.23707624

head.norm.running_mean f4 [32]
00000000: bc25 443e ae22 56be 401e 46be b828 12bf
00000010: dfae bd3d 6218 a03e 0dd5 c0be d471 bc3c
00000020: 7b01 b33e 5062 fcbd 1891 d03e eb34 c23e
00000030: be4b d3bc 5720 de3c 9c47 c63e 2beb ef3a
00000040: 8d93 4cbe 07cb 723f e917 153e 69cf c03e
00000050: b7e7 863c 0f1c 113f 682d fd3c 30a6 463f
00000060: d62f b93e 309c 263d 7201 7bbc 3400 c13c
00000070: 4edd 04be 5260 77be 7386 19bf 4b12 3e3f
0.1915502 -0.20911667 -0.19347477 -0.5709338 0.0926187 0.31268603 -0.37662545 0.023003496
0.34962067 -0.12323439 0.40735698 0.37930998 -0.025792953 0.02711503 0.3872651 0.0018304338
-0.19978161 0.94841045 0.14559902 0.3765824 0.016467912 0.5668344 0.03090544 0.7759733
0.36169308 0.040676296 -0.015320169 0.023559667 -0.12975046 -0.24157837 -0.5997078 0.7424666

head.norm.running_var f4 [32]
00000000: f2f9 d33b f345 d03c bd37 863c 6954 af3b
00000010: 67e6 003d bd66 503b 1ea7 633b 2e58 393c
00000020: 96d3 2b3c abf7 883c 0a51 ef3c 25e1 2e3c
00000030: e151 f53c 7646 013b c852 b63b ef2d 493c
00000040: f421 043b ba61 ff3a ca4c 103d fbf7 a33b
00000050: b95e 953b 913f 0d3c cfbe fe3b ac2b 2c3c
00000060: c803 2d3c 9398 073c 34f4 d73a ffa5 833b
00000070: b71f 8a3c 934d 913c 6188 f73b 0216 d03a
0.006469005 0.02542398 0.016384 0.0053506386 0.03146973 0.0031799518 0.003473706 0.011312528
0.010487458 0.01671966 0.029213447 0.010673796 0.02994627 0.0019725836 0.0055640675 0.012279018
0.002016184 0.0019484081 0.03522948 0.005003927 0.004558411 0.008621112 0.007774211 0.010508459
0.010559984 0.008276123 0.0016475976 0.004017591 0.016860826 0.017737186 0.0075540994 0.00158757

body.block1.conv.weight f4 [32, 32, 3, 3]
00000000: 2819 0c3c 5aa2 32bd 8072 86bd 1ab1 a8bd
00000010: cb86 79bd 82fd c9bd d21a 2bbd ab19 25ba
00000020: cc5d 5a3c a978 ad3b c713 9abc 9901 2d3d
00000030: cba1 79bd 7984 1cbd b047 c3ba 34d9 6cbd
00000040: 5ce1 33bc cc66 22ba a67a a33c ca1a 933c
00000050: 628b 653c 6fee 06bc 2038 03bd 2071 78bd
00000060: ad61 ddbd 5f1f 0fbe 0836 5dbe 5a6c 1b3a
00000070: c35d 3b3c 6a26 52bd 439a 28bd 7890 993c
00000080: aa6f 4cbc 5cc3 36bb 9184 c83b 9c69 03be
00000090: e422 933a d3bb 9cbc 7d93 99bc bec0 ccbb
000000a0: 0d7f cb3b dfdf a43a 7ddd 1bbc b6d5 8e3c
000000b0: fb85 733c 2c8d 7e3d f5cf c93b 7898 8bbd
000000c0: c795 bbbd e3e9 a6bd 0ebc 9dbd e7cf 8cbd
000000d0: fc52 a2bd 97ca b8bd 423a cf3c 836a 563c
000000e0: 1373 6cba 706b bdbc 0836 fd3b 611a fcbc
000000f0: 2e29 f3bc cdbc 8cbc 2dab 3a3d 41ab 0a3d
00000100: d0f3 693a 3ad7 02bd 94a8 923b 4577 df3c
00000110: bc52 2f3c 4f02 df3c afb2 b3bb eea2 2cbb
00000120: 915c 3fbd c9d7 f3bc 2c6c 0cbc 8d4c 23bb
00000130: 2dec 64bc ec17 073d 107e bcbc 698f 23bd
00000140: 72e3 b7bd 0ff9 f1bc 9faa 5ebd 859a 2d3c
00000150: d549 59bd c052 dabc 9833 03bd de01 13bc
00000160: acc9 69bd 9ec9 f63c 40fa f9bc da7b edbb
00000170: e5ed b53c 5b3b 0f3d aced fcbc 024d 063c
00000180: 98f2 34bd 0da3 87bc 1162 da3c 65bc 55bd
00000190: 7fa1 80bc c929 40bc e917 57bc d07f 1ebc
000001a0: 0bee 11bd 9232 79bd 0c80 ccbc 3818 2ebd
000001b0: 4baf 823c 0406 89bc 088d d73c 44ef 5abd
000001c0: 06ed 91bc fe14 263c ce71 a9bd ceb7 f5bd
000001d0: 6a63 f7bd 82a0 35bd 905a e6bc 1ec5 2bbd
000001e0: 95e1 e93c 0068 683c 4c53 4f3d 6aa6 16bb
000001f0: f234 2db8 8c02 48bc 753e a7bd 9211 1abd
00000200: 9a8b a03d d67b 4abc b093 1e3c 12cd 2d3d
00000210: d757 13ba e645 f5bc b0b8 d8bc 59e1 eabc
00000220: 97d2 493c d980 683d 8b84 bbbc 3c8e 58bb
00000230: a713 693d 6aba 8fbd 68f8 0abd b8f7 093b
00000240: 998b c63c add6 133b 6bd5 2e3d a32c bc3c
00000250: 1e20 0b3c 52c6 01bc 3a2c 71bd 6de9 5cbd
00000260: 2d73 04bd d4eb 2cbd 0580 98bc cd46 fcbc
00000270: 8a33 b4bb 9d7d 3fbc a800 21bc f638 83bd
00000280: ce1d 97bc 1cf0 743c f278 ba3b 8107 debc
00000290: c94f 0bbd 6f71 8cbd ef5b 963b 2a8a 103c
000002a0: 9d53 57bc 6679 95bb 66a3 d43c dd38 f53c
000002b0: 02a0 223d 8973 08bd ea83 c5bc 6f29 1e3d
000002c0: 0821 87bc 8721 12bc 0d5b 8c3c 2d2c babd
000002d0: 6e5b 39bd dfb8 9a3a 7f56 91bc 597d a8b8
000002e0: 54a2 7d3a e8ca 71bb 9451 96bd 8d40 2ebd
000002f0: 14b3 ec3c 418b 01bd 0877 e7bc 9e95 a6bd
00000300: 6ceb e73c 10ec 1e3d 6e07 ccbb e6de 9d3d
00000310: 982a 173d d6f1 e13b 2cc3 193d 6245 e9bc
00000320: f4f8 013d 1800 a4bd 946b cabc c233 acbc
00000330: aaab 90bd 6630 33bd de70 ff3c afe5 3abc
00000340: bc43 dabc a802 c4bc be1c d1bc 232a 52bd
00000350: c6e7 b8bc 5cf9 1c3a b362 ac3c db9f 233d
00000360: 8bc4 74bc 6a79 0a3c 16e5 e5bc 4bcd 0cbd
00000370: b14d 2c3c 740d 793c 7856 b6bd db79 e73a
00000380: fb8e 3f3c 6448 2d3d b216 7b3b 563b 2ebd
00000390: cae0 cf3a a7d6 243d de92 cabb 0cf5 bc3d
000003a0: 69df d33d 314f 963d 1aec 303c 8c34 9ebc
000003b0: b899 3cbd 9264 2f3d eb5c 21bd a493 e6bb
000003c0: e3fe 0cbd 578b 81bc f4fb af3c fc3f 523d
000003d0: 0b7b 463c 44a9 35bd 98c5 82bd 59b5 d1bc
000003e0: 41fb 44bd b2bc 10bb a7c0 2a3c d03c fdb9
000003f0: 5001 34bc 3591 07bc 89ac a9bc 3f44 df3c
0.00855092 -0.04361186 -0.06564808 -0.082369044 -0.060919564 -0.09862806 -0.041773625 -0.00062980753
0.013328027 0.005293925 -0.018808259 0.04223785 -0.060945313 -0.038212273 -0.0014898684 -0.05782433
-0.010979023 -0.00061951275 0.019955944 0.01795711 0.014010282 -0.008235558 -0.032035947 -0.06065476
-0.10809646 -0.13976811 -0.21602643 0.00059289264 0.011435929 -0.051306166 -0.04116274 0.018745646
-0.012477795 -0.002788744 0.006119319 -0.12833256 0.0011225608 -0.01913253 -0.018747086 -0.0062485626
0.006210214 0.0012578926 -0.009513256 0.01743589 0.014863486 0.06214635 0.0061588236 -0.068161905
-0.09159427 -0.08150079 -0.07701884 -0.06875592 -0.07925984 -0.09023016 0.025296334 0.013086918
-0.0009019833 -0.02312252 0.0077273883 -0.030774297 -0.029682722 -0.017179871 0.045573402 0.033854727
0.00089245755 -0.031943537 0.0044756625 0.027278552 0.010700878 0.02722278 -0.005483947 -0.002634223
-0.046719138 -0.02976598 -0.008570712 -0.0024917454 -0.013972324 0.032981798 -0.02300933 -0.03993169
-0.089789286 -0.029537706 -0.054361936 0.010595922 -0.053048927 -0.026650786 -0.032031626 -0.008972613
-0.057077095 0.030125435 -0.030514836 -0.0072474303 0.022208164 0.034968715 -0.03087505 0.008197071
-0.044176668 -0.01655724 0.02665809 -0.05218162 -0.015702007 -0.011728712 -0.013128259 -0.009674028
-0.035627406 -0.060839243 -0.024963401 -0.042503566 0.015952727 -0.016726501 0.026312366 -0.053450838
-0.017813217 0.010136841 -0.0827366 -0.119979486 -0.120795086 -0.044342525 -0.028119355 -0.041936032
0.028549949 0.014184952 0.050616547 -0.0022987374 -4.1295723e-05 -0.0122076385 -0.081662096 -0.037614413
0.07839127 -0.012358626 0.009678766 0.0424319 -0.0005620694 -0.029940557 -0.026455253 -0.028671907
0.012318275 0.056763504 -0.02289035 -0.0033043763 0.056903508 -0.070179775 -0.033928305 0.0021052193
0.024236487 0.0022558377 0.042684 0.022970503 0.008491544 -0.007920818 -0.05888007 -0.05393355
-0.032336403 -0.04221709 -0.018615732 -0.03079548 -0.005499308 -0.011687663 -0.009826817 -0.06407349
-0.01844683 0.014949825 0.0056906873 -0.027103188 -0.034011636 -0.06857573 0.004588596 0.008822003
-0.013142494 -0.004561591 0.02595682 0.029934341 0.039703377 -0.033313308 -0.024110753 0.038613733
-0.016495243 -0.008919126 0.01713326 -0.09090457 -0.04525321 0.0011804363 -0.01774144 -8.034212e-05
0.0009675373 -0.0036894623 -0.073397785 -0.04254203 0.028893985 -0.031626943 -0.028255 -0.08134006
0.0283105 0.038799345 -0.0062264716 0.0770853 0.036905855 0.006895284 0.037539646 -0.028475467
0.03173156 -0.080078304 -0.0247095 -0.021020774 -0.07063992 -0.04374733 0.031181749 -0.0114073
-0.026643626 -0.023927048 -0.0255264 -0.051309716 -0.022571456 0.0005988085 0.021043157 0.039947372
-0.014939438 0.008451799 -0.028063338 -0.03437547 0.01051657 0.015200961 -0.08903211 0.0017660217
0.011691804 0.042305365 0.0038313088 -0.042537056 0.0015859839 0.04024377 -0.0061820587 0.092264265
0.103453465 0.07339323 0.0107984785 -0.019312166 -0.046045035 0.04282052 -0.039395254 -0.007036643
-0.034422766 -0.015813513 0.021482445 0.05133055 0.012114297 -0.044350877 -0.06385344 -0.025599169
-0.048091177 -0.0022085127 0.010421908 -0.0004830123 -0.010986641 -0.008274366 -0.020712154 0.027254222

body.block1.conv.bias f4 [32]
00000000: 8fcc cb3c ea14 a33b 13b0 713d 54d9 dc3d
00000010: a3d9 2b3d 006e 3fbc e759 ec3d 4328 7bbc
00000020: bb5c 9a3d 8bdb 753d b669 1e3e d831 4a3c
00000030: af4d 1b3d da98 3eba e920 73bd 910f 953d
00000040: a35e 273d d01b 2f3d 4305 15bd 8e21 a9bc
00000050: e242 da3d f819 31bd c1bd 25bd a27b 87bd
00000060: a313 a3bc 403c 69bd 8c7e 323d e8be 60bc
00000070: 3471 f73c 89a7 a13c 4e9d 973d 3799 cf3c
0.024877815 0.0049768584 0.059005808 0.107836396 0.0419556 -0.011683941 0.11540585 -0.015329423
0.07537218 0.060023826 0.15470013 0.012340985 0.03791588 -0.00072707015 -0.059357557 0.0727836
0.040861737 0.042751133 -0.03638197 -0.020645883 0.10657288 -0.043237656 -0.040464167 -0.06615378
-0.019906824 -0.056942225 0.043577716 -0.013717391 0.030205347 0.019733207 0.0740305 0.025341613

body.block1.norm.weight f4 [32]
00000000: 4050 623f 3010 713f a900 633f 1855 473f
00000010: c07b 653f 98d5 653f 7c02 4d3f 9064 7a3f
00000020: 846c 473f 084e 763f 850c 453f 0dba 7c3f
00000030: da0b 723f 6596 6a3f 350d 0d3f 7505 5d3f
00000040: 9a96 703f 8077 573f 73c9 843f 96c8 433f
00000050: 3106 873f b9f4 743f 12c3 623f b139 6b3f
00000060: 9465 623f 6dcc 6f3f 2acf 733f fa3f 8a3f
00000070: 9138 633f ff4c 753f 836c 513f 5a2a 883f
0.884037 0.94165325 0.8867288 0.7786422 0.8964195 0.89779043 0.80081916 0.97809696
0.77899957 0.96212816 0.7697223 0.9872139 0.94549334 0.91635734 0.5509828 0.8633645
0.939798 0.8416672 1.0373977 0.76477945 1.0548764 0.9568592 0.88578904 0.91884905
0.88436246 0.93671304 0.9523798 1.0800774 0.8875819 0.9582061 0.818062 1.0637925

body.block1.norm.bias f4 [32]
00000000: fddc 003f 9c1c 673e c3f3 1b3f 4442 543f
00000010: 9c5f cf3e c25f af3e 63ab 463f 0942 513e
00000020: 9695 1e3f 251b 213f 2e7a 393f ca6f 6e3e
00000030: 1109 d93e df2a 02be 786a 963f 0f52 943e
00000040: b849 c33e 7546 223f 1d58 dcbc 8279 533f
00000050: 3faf a13e 7112 953e c390 45bd c074 c73e
00000060: d418 d63e 64a8 743e 72a8 f73e 76cb c93e
00000070: d1d3 223f a262 083f 3ca7 013f ccfe 913e
0.503372 0.22569507 0.60918826 0.82913613 0.40502632 0.34252745 0.77605265 0.20435347
0.61947 0.62932044 0.72452056 0.23284832 0.4238973 -0.12711667 1.1751242 0.28968856
0.3814218 0.6338876 -0.026897484 0.8260728 0.31579015 0.29115632 -0.04823376 0.3895626
0.41815817 0.23892361 0.483707 0.3941304 0.63604456 0.532755 0.50645804 0.28514707

body.block1.norm.running_mean f4 [32]
00000000: 168d 0ac0 e791 aabf 7824 863f 7886 993f
00000010: e454 af3f 7fee e8bf 2790 683f 5b54 b3be
00000020: 47ef ff3c 8875 cd3e 89db 1ebf 0201 adbe
00000030: 3cd3 b93f c5a8 a1bf 80a0 03c0 fadd a23e
00000040: 5317 26bf 27dd 8f3e 9a21 34bf 7ab9 0f3e
00000050: e54c 833f 453a 91bf d789 96bf ae71 61bf
00000060: d5be 02bf 8254 a53e f899 97bf 333f dbbf
00000070: 752f d9bf ded9 11be 16db a83e 0550 383f
-2.1648612 -1.3325776 1.0479879 1.1994162 1.3697782 -1.8197783 0.9084496 -0.35025296
0.031242026 0.40128732 -0.62053734 -0.3378983 1.4517589 -1.2629629 -2.0566711 0.3180998
-0.6487934 0.28098413 -0.7036377 0.14035597 1.0257841 -1.1345907 -1.1760815 -0.88064086
-0.51072437 0.32291037 -1.1843863 -1.7128662 -1.6967608 -0.14243266 0.3297965 0.719971

body.block1.norm.running_var f4 [32]
00000000: 69d4 b43e 97ea 2e3e 4b81 1f3f 1a2b 9b3e
00000010: e2e3 9c3e d383 5d3e 2784 a63e 79b1 6a3e
00000020: 2a86 1e3e 9e11 133f 43ad 0f3f 4f10 ba3e
00000030: 00bc 513f f361 163e fdb9 093f f076 683e
00000040: ca4f de3e 6219 083e f561 793e 962d 7b3e
00000050: 30d7 4e3f b0a9 813e 73fa 2c3e 176e d63e
00000060: a57a 6e3e 547f 6b3e 263b 053f 8ed5 8a3f
00000070: d0de c03e d764 2f3f 6e5e 1b3e 0cb2 503f
0.35318306 0.17081676 0.6230666 0.3030632 0.3064261 0.21632318 0.325227 0.22919263
0.15480867 0.57448757 0.5612375 0.36340567 0.8192749 0.14685802 0.5379942 0.22701621
0.4342025 0.13290933 0.24353774 0.24529108 0.807971 0.25324774 0.16892414 0.41880867
0.23288973 0.2299779 0.5204338 1.0846422 0.37669992 0.68513244 0.15172741 0.8152168

body.block2.conv.weight f4 [32, 32, 3, 3]
00000000: 33f8 0f3d ee14 393d 2b74 00bd 5d83 613d
00000010: 68b3 1f3d 7eb7 0d3b 6894 813d f807 06bd
00000020: d139 bbbc 75ec d5bc 3f44 31bc 3837 62bd
00000030: f7c4 5fbc 5d48 70bd 4a1b 74bd 3fca 6a3b
00000040: 235c a6bc 1f89 5dbd 46fe b5bc a723 d63c
00000050: a644 1dbc 9ad0 573c 480a bd3c 87dd 0a3d
00000060: 4baf 053c da3a 193c c9f9 363d 943d 0cbd
00000070: fdfd acbc f5da 16bd 69b4 a4bd 4e8d ab3c
00000080: 9384 8dbb f394 7abc 421a f0bc d4b6 da3a
00000090: 9be2 a0bb cbfc ab3c 6497 c4bc 9194 ed3c
000000a0: ff58 c63c 3e9c 9c3c 727a 8d3c ee1e c23c
000000b0: 1ada 113e 9fb0 d03c 8e7e 253d 282c 04bc
000000c0: 00b0 983d 6895 3f3d 99ff 27bd 0922 42bd
000000d0: 7ad2 b9bc c6ed ffbc 2e97 b7bb fbdb 513d
000000e0: 319c 143d ae21 68bc 3f3a 45bb 569b 803d
000000f0: 46f6 4fbc 6bc4 2f3c 48eb 9e3d ee21 bd3c
00000100: f54c 193d e7c6 333d cc4f 883d efa8 2f3d
00000110: 71ec 3d3d a0c6 07bd 985f 3bbd 8de5 bd3b
00000120: 2676 39bd 4f1a 2fbd a5aa 35bc a4c1 f0bd
00000130: 5bac 0dbd 99fc 463c 079b 98bc 7548 a63b
00000140: 92f9 7c3d c8ec 75bc 9c7c 91bc 56bd 21bd
00000150: cdc8 2ebc 75a6 4d3c add3 e7bc fa90 883d
00000160: 23bd b23d 838a 323d b1fd cbbc 4da6 0ebd
00000170: 107c a1bc a6b2 58bc 51a8 873b 27a5 083d
00000180: 2e5c 08bd fedc 553b 7a4e 62bb c633 86bb
00000190: da01 d6bc 7713 e1bc 4de9 66bd 3dfc b2bc
000001a0: 61fd 01bd 4681 433d 59fe 0cba 2d4d 9b3c
000001b0: 4118 6d3d b79f ff3c 1f21 61bb a85c 9c3d
000001c0: e415 e5bb cf59 303d f6e8 bfb9 c392 d33b
000001d0: 94e2 e93c cbe4 6c3d 5f26 e43c 64d9 883d
000001e0: 6731 4f3c 6b96 10bd 2e0a af3b 60c9 96bd
000001f0: ae36 b3bc 978e 003d 17b1 92ba 9b0e 74bd
00000200: 7427 61bd cb6b 12bc b4f5 0ebc b7a1 88bc
00000210: 854a d7bd fbad a4bd 126d d3bd f97e 46bc
00000220: ae12 d43c ef8b 11bd a5d6 873d 33d6 503d
00000230: 87b7 2dbb 756c 523c 54b7 993c 1cdf 893c
00000240: 133d 673d a9c8 3c3d ca8d aabd 4c1b 6cbb
00000250: 121f 70bc 6db8 9dbd cb0a 7139 2de4 ccbb
00000260: 75e9 5bbc 1295 46bb a1d7 25bd 1964 93bd
00000270: b136 143d bc7d 393d 6708 33bb 37b5 033d
00000280: 11ee 913c 1931 493c 0bd3 64bd 21e8 ac3b
00000290: 4083 1cbd fd96 d33c 0de8 8fbc b229 48bc
000002a0: 62b6 2cbc 3c33 6dbc d54f 673d 2786 c23c
000002b0: 6eaf 4cbc abd0 7abc a366 f73c 4e36 a1bc
000002c0: 4a85 6cbc eba1 1cbc d957 54bd e509 a5bd
000002d0: 235b e83c dc41 3c3c 62e0 43bd aea1 0f3d
000002e0: e4ab b53c 8ddf 60bd 8615 ebbb 98ff 133d
000002f0: 9ef0 2dbd c804 c1bc f1fa a33c 7f7f 7abb
00000300: 95c6 8c3b 2c1e 333c 8f1b 133d 9782 70bc
00000310: fa7c 403c 56d3 2c3d 52f8 89bd 5b37 34bd
00000320: 259b 8fbc 35be 57bc cf0b f13c 8601 833c
00000330: 3a9e 2e3c d871 fbbc cd9b 043d 1991 133d
00000340: ebce 093d ced4 2bbd 6a05 babc f1fb 383c
00000350: 34b1 8dbc 475a f9bc ff90 ed3b 544c c1bc
00000360: 22be 6bbd 7e20 e6bc 0705 5ebd 462a bf3c
00000370: 8cd0 523d 35d2 183d 6e58 7c3d 4c2f e23c
00000380: 9bdc bc3c 5211 923d c2b9 563d d0d4 5f3d
00000390: d7f6 3a3d 5839 383d a298 873d fe67 96bc
000003a0: a762 80bc 8998 16bc afa8 663d 0250 0f3d
000003b0: 8964 b03c b374 64bc f821 8dbc 3713 b3bc
000003c0: d3d9 913d a3f4 963c 0537 63bb 2acf 083d
000003d0: ecf7 a5bc 5468 0ebd b613 c53d d749 6f3d
000003e0: 2aec 3bbb acca 1dbd c78e dfbc be12 86bc
000003f0: 08b5 23bd f50e 53bd d89e 2abd 4665 25bc
0.03514881 0.045185976 -0.031360786 0.05505692 0.038989455 0.0021624262 0.06327134 -0.032722443
-0.022854717 -0.026113728 -0.010819494 -0.055228442 -0.0136578 -0.05866276 -0.059596337 0.0035826114
-0.020307606 -0.054085847 -0.022215974 0.026140047 -0.009598887 0.013172293 0.023076192 0.03390267
0.008159469 0.00935241 0.044671807 -0.034238413 -0.021117205 -0.036829907 -0.08042223 0.020941403
-0.0043187826 -0.015294301 -0.029309396 0.0016686567 -0.004909826 0.020994565 -0.02399797 0.029001506
0.024212359 0.01911747 0.0172703 0.023696389 0.14243355 0.025474845 0.040403895 -0.008067168
0.07455444 0.046773344 -0.04101524 -0.04739574 -0.02268337 -0.031241309 -0.005602739 0.05123518
0.03628177 -0.014168186 -0.0030094532 0.06279628 -0.0126929935 0.010727982 0.0775972 0.023087468
0.037426908 0.04389086 0.06655845 0.042885717 0.046368066 -0.033148408 -0.045745462 0.005795187
-0.04527869 -0.0427497 -0.011088048 -0.11755684 -0.0345882 0.012145185 -0.01862861 0.0050745555
0.061761446 -0.015010066 -0.017759614 -0.039487205 -0.010667992 0.0125518935 -0.028299177 0.06668277
0.08727481 0.043589126 -0.024901243 -0.034826566 -0.019712478 -0.013226187 0.004139938 0.033360627
-0.033291034 0.0032632942 -0.003453164 -0.0040955273 -0.02612393 -0.027475102 -0.056374837 -0.021848792
-0.03173578 0.047730707 -0.0005378477 0.018957699 0.05788446 0.031204088 -0.0034352017 0.0763486
-0.006991135 0.0430544 -0.00036603928 0.0064567043 0.028550424 0.05783538 0.027850328 0.06682089
0.012646056 -0.0352997 0.0053417897 -0.07362628 -0.02187666 0.031385984 -0.0011191693 -0.05958424
-0.054969266 -0.008936833 -0.008725572 -0.016678674 -0.1051226 -0.08040997 -0.10323538 -0.012115234
0.025887813 -0.03553384 0.06632737 0.050985526 -0.0026507096 0.012843241 0.018764175 0.01683002
0.05645473 0.046089802 -0.08327825 -0.0036027012 -0.014655845 -0.07701192 0.00022987572 -0.0062527866
-0.01342236 -0.0030301255 -0.040488843 -0.071968265 0.03618497 0.045285925 -0.002731824 0.03215524
0.017813714 0.012279772 -0.05586533 0.0052766954 -0.038211107 0.025828833 -0.017566705 -0.012216972
-0.01054153 -0.014477547 0.056472618 0.02374561 -0.012492998 -0.015308539 0.030200308 -0.019679215
-0.014436075 -0.009560089 -0.05184159 -0.08058528 0.02836377 0.0114903115 -0.04782141 0.0350663
0.02217669 -0.054900695 -0.0071741967 0.036132425 -0.0424658 -0.02356185 0.02001712 -0.0038222966
0.0042961338 0.0109324865 0.035914954 -0.014679573 0.011748547 0.042193733 -0.067368165 -0.043998104
-0.017530033 -0.0131679075 0.029424576 0.015991937 0.010657841 -0.030693933 0.032375146 0.036027048
0.033644598 -0.041950993 -0.02270766 0.011290536 -0.017296411 -0.030438555 0.007249951 -0.023595966
-0.05755437 -0.028091665 -0.054204013 0.023335587 0.051468417 0.037309844 0.06160777 0.027610444
0.023054412 0.0713221 0.052423246 0.054646313 0.04564556 0.044976562 0.06620909 -0.018360134
-0.015672041 -0.009191641 0.056313213 0.03498841 0.021532314 -0.013943839 -0.017228112 -0.021859748
0.07121625 0.018427199 -0.0034670245 0.033400692 -0.02025982 -0.034767464 0.096229 0.05842003
-0.00286747 -0.03852336 -0.027289761 -0.016366359 -0.039967567 -0.051527936 -0.04165539 -0.010094946

body.block2.conv.bias f4 [32]
00000000: a06f 8b3d 3113 a6bb cc0f fbbc 4da0 903d
00000010: 1031 053c cd03 8fbd 80b9 553d df9c 093d
00000020: bb3e 643d e34c b93d 2db4 61bd 745e 473d
00000030: df0f b4bc acad b03d 2255 e33c e748 3fbc
00000040: 99a2 553d f147 8f3d d104 813d 2070 23bd
00000050: 2173 6c3d b052 073c 0984 48bd d167 693d
00000060: 6a80 563d 0c32 093d 2e80 443d 6c8a b43d
00000070: 55d2 173c bf28 193d c058 11bd 0dc6 863d
0.068084 -0.0050682058 -0.030647181 0.07061825 0.008129373 -0.06983147 0.05217886 0.03359687
0.055723887 0.09047868 -0.05510347 0.048674062 -0.021980224 0.08626875 0.027750555 -0.011675096
0.05215702 0.069961436 0.06299747 -0.039901853 0.057726983 0.00825946 -0.048954044 0.056983773
0.05236856 0.033494994 0.047973804 0.088154644 0.009266456 0.037392374 -0.03548503 0.06580744

body.block2.norm.weight f4 [32]
00000000: 6472 533f d516 6e3f 89c9 803f a671 503f
00000010: a29a 6a3f 2e82 733f 2509 663f 177c 743f
00000020: bab0 713f bee5 673f 6cdf 803f dc33 673f
00000030: e91d 7b3f 7925 813f 52f4 673f 44a0 663f
00000040: 20de 5a3f 593d 7d3f b426 493f b695 633f
00000050: 3149 703f e0f2 763f 9d39 613f 7cb3 673f
00000060: 465c 5f3f 13b1 853f 3b72 793f 637a 733f
00000070: 73e9 853f 65b1 853f d3ba 813f 6014 853f
0.8259642 0.9300359 1.0061504 0.81423414 0.916422 0.95120513 0.89857703 0.95501846
0.9441029 0.90584934 1.0068183 0.90313506 0.98092514 1.0089561 0.9060718 0.90088296
0.85495186 0.98921734 0.7857468 0.88900316 0.9386168 0.9646435 0.87978536 0.90508246
0.87250173 1.0444664 0.97439927 0.9510862 1.0461868 1.0444762 1.0135139 1.0396843

body.block2.norm.bias f4 [32]
00000000: 6b93 393f 3d66 923e d616 293e 83aa 463f
00000010: 8a6f 433e ce80 923e 4eb4 d13e 4f33 e23e
00000020: 9f27 d43e e571 123f 0ac8 e73e b4ce 183f
00000030: 6907 333e 80b7 f83d 0626 c23e 7e4b 303f
00000040: 2565 113f 8226 ccbd a7bc 303f fcdb f63e
00000050: 5868 b13e c367 773d d207 053f bb67 033f
00000060: 8ed2 a63e 005c babd 7dcb 5f3e 89ca 1c3f
00000070: 477d 3d3e bbe8 843e ac97 e33e 4d87 dabd
0.72490567 0.28593627 0.16512617 0.7760393 0.19085518 0.28613895 0.40957874 0.4417977
0.41436478 0.5720504 0.45269805 0.59690404 0.17483296 0.12144375 0.37919635 0.6886519
0.5679496 -0.09968282 0.6903786 0.4821471 0.3464992 0.06040169 0.5196506 0.51330155
0.32582515 -0.09099579 0.21854968 0.61246544 0.18504821 0.2595881 0.44451654 -0.10670338

body.block2.norm.running_mean f4 [32]
00000000: 5ba9 11be 917f 84bf 11b4 993d b03a a7be
00000010: 9e28 453f b272 4b3f 4b8f 1f3f 0e14 1d3f
00000020: d00f 193f bfc2 a23e 4ff5 aabf e5c4 a8bf
00000030: cba8 8cbe 9981 48bf 5ad5 0a3e 13b9 733f
00000040: 2998 e1be 991f 04bc fc39 e8be 274c 95bd
00000050: e0e0 ae3e e565 a3bf 0bc4 d9bf 8f22 96bf
00000060: c2ad 74bf 7fe4 063c 2efa 933f dacc 5c3f
00000070: 4af5 303f 408d 88bd 0702 4abf 6e09 90bf
-0.1422476 -1.035143 0.07505048 -0.32661963 0.770151 0.79471886 0.6232802 0.61358726
0.5978975 0.31789204 -1.3356112 -1.3185087 -0.2747253 -0.7832275 0.1355795 0.95204276
-0.440614 -0.008064174 -0.4535674 -0.072899155 0.3415594 -1.2765471 -1.7012953 -1.1729296
-0.95577633 0.008233189 1.1560724 0.8625008 0.6912428 -0.06667566 -0.78909343 -1.1252878

body.block2.norm.running_var f4 [32]
00000000: a062 0a3f a5f7 843e f217 4e3e dbca f03e
00000010: 6e26 e73d 0ad0 8d3e c63e 613e d498 1e3f
00000020: 0865 973e 321d 623e 3e3e c43e ce96 7a3e
00000030: 9ddc 0e3f b482 1d3f 02c6 0c3f c7f7 8d3f
00000040: fb04 0e3e d045 653e 3bc1 a63e 566a 8f3e
00000050: 2a7d 573e efaf 013f aaef 5b3e ddba 883e
00000060: c58f 003f 73f0 3c3f 1bb2 8e3e 21af 1f3f
00000070: a348 cb3e a56a 9e3f a522 853e b875 0d3f
0.5405674 0.25970188 0.20126322 0.47029766 0.11286627 0.27697784 0.21996602 0.6195195
0.29569268 0.2208145 0.38328737 0.2447159 0.5580538 0.6152756 0.54989636 1.1091241
0.13869087 0.22389913 0.32569298 0.28010815 0.2104384 0.5065908 0.21478143 0.26705065
0.50219375 0.73804396 0.2787026 0.623766 0.39703855 1.2376295 0.26002994 0.5525775

body.block3.conv.weight f4 [32, 32, 3, 3]
00000000: 3951 21bd 470b 1c3c 4bbd e0bb 6632 2a3d
00000010: ce5e 2e3d ee04 54bc 89f4 dfbc a6ef c3bc
00000020: 2dfa 873c 74dc 363c 591d 123d 1c54 0c3c
00000030: aeea babb 6621 1b3c 07df 173d 25a9 2e3d
00000040: ecd4 ba3d 4325 3c3d d2e7 bd3d 5356 e83c
00000050: 9acb 0c3d 8311 243d d38a ff3c a5c5 273d
00000060: 3667 a23c 0625 003c 1cd0 5dbd da3d 6a3d
00000070: 9fe0 ed3c 06c2 183d 8936 943c d5b1 c23c
00000080: f529 163d afbf 73bc 8399 723c 53ad f1bc
00000090: d9cf 9dbc f069 f5bc a396 02bd c64a 2cbc
000000a0: 0e9e e3bc c655 05bd 0b48 623c 6696 1eb9
000000b0: 9d5e 033d f0a6 bc3c 4ba8 febc 2097 87bc
000000c0: 99ae f73b 01cb 883c f678 123d 615e 723b
000000d0: 27cd 8cbc a31c 0b3d fc26 2b3c 0ee8 d33c
000000e0: 309e 573c b645 60bc 01a0 e9bc f668 bcbb
000000f0: fc21 683d 6f62 cabc f5f3 413d f645 913c
00000100: 3bce 133c 7f8e f1bb 929b 193d f617 743c
00000110: f124 9cba abf0 5c3d 7d23 b73d 3e91 ac3d
00000120: 8d65 513c ed93 a1bb 8149 d6bc bf83 6c3c
00000130: 0c79 3ebb 57dd 613c 0c78 183d ee79 1a3d
00000140: 2eda 003b 6edd ce3c a043 373d 283f 663d
00000150: f628 ef3a 13ad 393b 4fe5 3bbd 88bb dc3d
00000160: bb26 2f3d 285d 433d e389 993d 5d31 04bc
00000170: 512a 97bb d5f1 de3d 6991 6b3d 319f 5c3c
00000180: 2724 2c3d 009a 573c a6f7 003c 2c19 f4b9
00000190: c4e3 503b 3d51 bbbc c686 00bd efa5 f2bc
000001a0: 9b93 e9bb 818a 08bd 38c2 31bd 937e 55bd
000001b0: 4171 813d ca4a ae3d f7e6 eb3c e379 233d
000001c0: 480d 04bc 6804 6bbc 45f9 9aba 395e d23c
000001d0: be54 12bc ade9 e03c 72f2 4bbc 36b2 9abc
000001e0: 25c8 e639 b37d 943b 71f7 42bd cd47 1fbd
000001f0: 92fc e1bb bda6 22bc a7c1 edbb ef8d 4abd
00000200: cd59 a9bc 01a3 01bd 4783 4bbd f751 72bd
00000210: f36a a8bd add4 7fbd 56ef ffbc 1d27 f9bc
00000220: ec2b 11bd f9f2 0ebd 151b 133d b86a 80bb
00000230: 9b16 c1ba d8a5 873d a031 4d3c cfac 49bd
00000240: 27df 96bb 0e68 2cbc bbfa b7bd 36a4 52bd
00000250: ab7c b9ba 7041 89bb 732f 123d 6d80 45bc
00000260: e1aa 9c3c 238d 2d3c c995 db3b b8aa f73a
00000270: 44d6 623d 468f b0bb 080f 49bd 27a6 643d
00000280: e296 1e3d 6d75 4e3b ad18 33bc fae3 2a3c
00000290: 8f19 ddbb 3a48 8f3a e585 ed3c b2f6 56bc
000002a0: 4259 c43c 017d 01bc 1219 92bd 15ae 983c
000002b0: b75d b9bc 621d 803c c9a9 52bd 24ef 9dbb
000002c0: 1e13 313b f8e5 ba3d 39d2 833b 506c 4fbc
000002d0: 6037 88bd 4c80 54bd e893 be3c 2ec7 9e3c
000002e0: a13d 74bc 25f8 903c 8cd3 c7bc e996 3dbd
000002f0: d94d c6bb e0c0 79bc 456b f0bc 4241 6cbd
00000300: 3def 19bb ba1a 2e3d b484 e63c 4843 903c
00000310: 77c8 ac3b 04d5 b53c 50d4 d33c 482e 813d
00000320: 67e6 043e 626f b7bc 8a6b 0d3b b695 023c
00000330: 1293 1dbc 7467 3a3c fc15 70bd 7231 bbbc
00000340: 9063 1f3c 6d9e 423d ddb9 ffbc 62a8 84bd
00000350: 6bf5 433a bed0 113c 56e4 9a3c 3056 243d
00000360: 1c67 ae3c 591e 363d b88d 0b3d 7a13 e53b
00000370: 3f2b 0bbd 1697 54bd e03f 06bc fc67 88bd
00000380: 8e00 aabd 4201 86bd f7ab 923b 87be 783c
00000390: 6146 1dbc 4627 f03a 14bf 0bbc f410 a1bd
000003a0: a92f 17bc 95ad 763c 6313 89bc 3179 9dbc
000003b0: 3071 95bc d840 c23c 7e28 5a3d 6067 323d
000003c0: 2c3c 0fbd bf52 87bc 9bf0 f8bc 8c81 e3bc
000003d0: 138e 50bd 6202 ecbc 9c9d e7bc d292 873a
000003e0: 4672 c2bc dda3 9e3c 2431 073d 70fd 23bc
000003f0: e32e 2e3d e820 8abc ba90 f03c 6674 533c
-0.0393841 0.009524173 -0.006858503 0.04155197 0.04257088 -0.012940628 -0.027338283 -0.023917984
0.016598785 0.011160959 0.03567252 0.008564975 -0.0057042455 0.009468412 0.03707793 0.042641778
0.09122643 0.045933973 0.09272732 0.028361475 0.034373857 0.040055763 0.031194126 0.040959973
0.019824605 0.007821327 -0.054153547 0.057187892 0.029037772 0.03729441 0.01809241 0.023766438
0.036661107 -0.014877244 0.014807108 -0.029501593 -0.019264149 -0.029957741 -0.03188194 -0.010515874
-0.027785327 -0.032552503 0.013811122 -0.00015124082 0.032072652 0.02302882 -0.031086108 -0.016551554
0.0075586555 0.016698362 0.03575989 0.0036982524 -0.017187668 0.033962857 0.010446306 0.025867488
0.013160273 -0.013688495 -0.028518679 -0.005749817 0.056673035 -0.02470514 0.047351796 0.017733555
0.009021337 -0.007371723 0.03750188 0.014898291 -0.0011912865 0.053940456 0.08942316 0.0842614
0.012780559 -0.004930964 -0.026158096 0.014435708 -0.0029063849 0.013785682 0.03722386 0.037713937
0.0019661295 0.02525207 0.044742227 0.056212574 0.001824646 0.002833192 -0.045872983 0.10777956
0.042761546 0.047696263 0.07497003 -0.00806841 -0.004613199 0.108859695 0.05751172 0.013465689
0.042026665 0.013159275 0.007871544 -0.0004655806 0.003187404 -0.022865886 -0.03137853 -0.029620139
-0.0071281916 -0.033335213 -0.043398112 -0.052122664 0.063204296 0.08510359 0.028796656 0.039911162
-0.008059807 -0.014344312 -0.0011823556 0.025679694 -0.008931337 0.027455175 -0.01244794 -0.018883806
0.00044018138 0.004531586 -0.04759926 -0.038886834 -0.006896564 -0.009927449 -0.007255751 -0.049451765
-0.020672703 -0.031649593 -0.049685743 -0.0591602 -0.08223524 -0.062458683 -0.031242054 -0.030414158
-0.035442278 -0.034899686 0.0359145 -0.003918972 -0.0014731468 0.06623429 0.012524039 -0.04923707
-0.0046042386 -0.010522855 -0.0898337 -0.051426135 -0.0014151534 -0.004188709 0.035689782 -0.012054545
0.01912445 0.010592732 0.0067012054 0.0018895483 0.05538012 -0.0053881733 -0.0490866 0.055822518
0.03871811 0.0031503097 -0.010931176 0.01043033 -0.0067474316 0.0010931559 0.02899451 -0.01312034
0.023968343 -0.007903338 -0.07133688 0.018637696 -0.022627695 0.01563901 -0.05143145 -0.0048197675
0.0027019451 0.09125894 0.004022863 -0.012660101 -0.06651187 -0.051880166 0.023263887 0.019382086
-0.014907272 0.01769645 -0.024392866 -0.046286497 -0.0060517606 -0.015243739 -0.029348025 -0.057679422
-0.0023488544 0.042505957 0.02813945 0.017610207 0.0052729207 0.0221963 0.025858074 0.063076556
0.12978517 -0.022391979 0.002157899 0.007970264 -0.009617584 0.011377204 -0.058614716 -0.022850726
0.009728327 0.047514368 -0.031216556 -0.06477429 0.000747523 0.008899866 0.018907707 0.040121257
0.0212894 0.044462536 0.0340707 0.006990847 -0.03397679 -0.0519019 -0.00819394 -0.066604584
-0.08300887 -0.06543209 0.004476066 0.015182144 -0.009599299 0.0018322251 -0.008529443 -0.07864562
-0.009227672 0.015056034 -0.016732877 -0.019222828 -0.018242449 0.02371256 0.053261273 0.043555617
-0.034969494 -0.016518949 -0.030388167 -0.027771734 -0.050916743 -0.02880973 -0.028273396 0.0010343438
-0.02373613 0.019365245 0.03300585 -0.010009155 0.042525183 -0.016861394 0.029365886 0.0129061695

body.block3.conv.bias f4 [32]
00000000: dba0 053d 21f3 56bd 59a8 d43c 5c8c 6f3c
00000010: d326 383d adf0 6a3d c268 8a3d d946 943c
00000020: a22a c3bd e59b 9dbb 7c64 153d 73af e53c
00000030: 16c5 cdbc ad90 1c3d d0d2 523a 62db f5bc
00000040: 190a 73bd 0c57 4bbb 9c29 ddbc 409f d63d
00000050: 59f5 9b3d a5a7 24bc 7292 79bc be1a c0bc
00000060: 5a2e ab3a e031 7e3d 341d 99bd 2039 9e3d
00000070: 98c6 813d 3692 6b3c 66d1 1a3c 5544 873d
0.032624107 -0.05247796 0.02595918 0.014620867 0.0449589 0.057358433 0.06758262 0.018100189
-0.09529616 -0.004809844 0.036472782 0.028037762 -0.025118392 0.03822391 0.0008042278 -0.030011836
-0.0593358 -0.0031027226 -0.02699738 0.10479593 0.07615156 -0.010049735 -0.015232669 -0.023450252
0.0013060078 0.062059283 -0.07476273 0.077257395 0.06336707 0.014378121 0.009449339 0.0660483

body.block3.norm.weight f4 [32]
00000000: 87c4 883f 72c6 8c3f a161 943f abcc 773f
00000010: 8959 7c3f 769b 813f 977d 743f ea2a 913f
00000020: 436f 8c3f 6567 953f f109 913f fdf8 8a3f
00000030: 7c5e 703f 3f4b 923f cc66 843f 20ff 973f
00000040: 2853 933f 2ec0 a73f 12b7 8a3f c0e5 993f
00000050: eb88 7d3f 70a5 953f 7abe 913f 3cbf 823f
00000060: 8aed 903f f168 9f3f 42fc 923f ea78 893f
00000070: 9531 903f d800 8c3f 1254 773f 3825 8f3f
1.0684975 1.0998061 1.1592294 0.96796674 0.9857412 1.0125568 0.95504135 1.1341221
1.0971454 1.1672179 1.1331159 1.0857235 0.9389417 1.1429213 1.0343871 1.1874733
1.1509752 1.3105524 1.0837119 1.2023239 0.99037045 1.1691113 1.1386254 1.021461
1.1322491 1.24539 1.1483233 1.0740025 1.1265131 1.0937757 0.96612656 1.1183233

body.block3.norm.bias f4 [32]
00000000: 9584 0d3f 0c14 73be cdff 773e 4e87 913f
00000010: 1ddb 953f 3e14 393f b929 39bf 16b6 d73e
00000020: 23ec b03f 3103 ae3e dafd d33c f94f a03e
00000030: 1f24 553f c59e 473f f156 023f c918 143e
00000040: 7258 b53e c558 573f 21eb 533e 0b6a 833f
00000050: 8873 5e3f 06dd 503f 2c70 b53e 4275 5d3f
00000060: cb6a fd3e 5c12 663f 24c5 023f ebc7 bf3e
00000070: de22 a93f 7d5b e53d fad0 1fbf 4722 ea3e
0.5528043 -0.23738116 0.24218674 1.1369417 1.1707493 0.7229651 -0.7232929 0.42131108
1.3822063 0.3398681 0.025877882 0.31311014 0.8325824 0.7797664 0.5091391 0.1446258
0.3541904 0.84119827 0.20695163 1.0266737 0.86895037 0.81587255 0.35437143 0.86507046
0.4949554 0.89871764 0.5108206 0.37457213 1.3213766 0.11199091 -0.6242825 0.45729277

body.block3.norm.running_mean f4 [32]
00000000: 6718 0b3f a609 c6bf 4a27 8dbf e6e1 f3bd
00000010: 02b7 56be 5ca4 c43d 549e b6bf 1b68 72be
00000020: 03fb 823f 7ef4 3abf 03fe febe f0c4 45bf
00000030: 85d2 1b3f 7ea9 5e3e e7e0 733f 6310 33bf
00000040: cf00 9cbd 7d24 3a3f 93ef c5be 5fd4 403f
00000050: 4be1 9f3f d6c7 20be 8bd7 413f dd35 443f
00000060: def3 693e 6ab1 003e f0a1 893e f807 513f
00000070: 2d29 a43e 98da 9fbf da73 92be e8b1 ce3e
0.5433411 -1.5471694 -1.1027615 -0.11908321 -0.2096825 0.096016616 -1.4267068 -0.23672526
1.0232853 -0.73029315 -0.4980317 -0.7725363 0.608681 0.21744344 0.9526505 -0.6994688
-0.07617342 0.72711927 -0.38659343 0.7532405 1.2490629 -0.15701231 0.7571952 0.7664469
0.22846934 0.12567678 0.2688136 0.81652784 0.32062665 -1.2488585 -0.28604013 0.40370107

body.block3.norm.running_var f4 [32]
00000000: 47ba ff3e a638 543f afab 823f e72e b03e
00000010: 5b62 b53e e244 0a3f 02e0 3e3f 1a7a da3e
00000020: fdb7 d83e 46f4 aa3e 4cb5 863e a47f 843e
00000030: 1ecc 073f 82bb 413e 552f 1d3f 4b53 bb3e
00000040: 8e5b 4c3f 7038 403f 5929 073f 8c79 023f
00000050: 8b1c af3e a1da a53e 26ed 5e3f 37e0 123f
00000060: 98b6 533f 7c14 a03e e9db 613f eb85 153f
00000070: fff0 0d3f 944a 873f 3aa2 453e 4a2a 7e3f
0.49946806 0.8289894 1.0208644 0.34410784 0.35426602 0.54011357 0.7456056 0.4267128
0.42327872 0.3338949 0.26310194 0.25878632 0.53045833 0.18919185 0.6140035 0.36586985
0.798272 0.75086117 0.52797467 0.50966716 0.34201464 0.32393363 0.8708061 0.57373375
0.8270049 0.31265628 0.8822618 0.5840747 0.55445856 1.0569634 0.19300166 0.9928328

tail.weight f4 [1, 32, 3, 3]
00000000: b229 f93b 5017 a63d 386a 2f3e f749 ccbd
00000010: 1757 03bd 00d1 f6bb 2083 16be 8250 c9bd
00000020: 9aa8 fbbc aa34 dbbd 9fb7 76bd 8131 8dbc
00000030: 975b d6bd 806b 38bd b0f6 1b3c 8b9f 06be
00000040: 9c84 3ebd 5ff0 653d c439 98bd dc42 c9bd
00000050: 1db7 0abe 6d86 abbd 881c e7bd c453 29be
00000060: 52e6 3fbd 07a7 eebd 2278 14be 31e1 88bc
00000070: fc78 9c3c 9487 f73d 02be eabd 6966 91bd
00000080: e38e a8bc 900a 24be 58ed 08be a281 99bd
00000090: f211 08be 41c3 b6bd 6651 e13d 9902 d6bd
000000a0: 5236 cbbd 4443 8d3a 30bc 06be 43d2 9ebd
000000b0: f8f5 5b3c 1a3f bf3d 09b4 be3d 3056 133e
000000c0: 3c21 80bc d6cc e13c 889f 843d 9a62 20be
000000d0: c8b1 d1bd 343d e2bd 4212 093e a40b 3b3e
000000e0: 914c 373d ee20 1f3e 1d79 eb3d 8c02 7e3d
000000f0: 8c48 233e c943 2b3e 3cd0 a43d b588 d03d
00000100: d5b9 033d 6630 1cbe 88d7 b63d dba4 963b
00000110: 104a 26be 32aa ba3d f89f e73c fc60 15be
00000120: d907 5cbe bbbf e2bd 1c1d a83d 5001 52be
00000130: 4d98 e8bd d45e fd3d 7cfe e3bd 09fb 403c
00000140: f74b 9f3e ec45 bc3c 1252 ebbd b601 69be
00000150: 9fb7 db3d a77b 523c b079 88bd 790c 763e
00000160: 5e85 033e cd99 0e3e e065 153e 1a4b 8b3d
00000170: 9b35 8e3c c600 033e ef3b 313d e59e e2bc
00000180: b914 983d 42f8 aebd 2492 d7bd 79c1 58bd
00000190: e815 403d f21b bc3d 493c 37bd fdf2 273d
000001a0: f9af de3d ab23 87bd b40f a7bc 500a b03d
000001b0: 7eea 2fbd 553c a1bc 4a64 1e3e 5639 b2bd
000001c0: 1780 8dbd 8ed3 a0bb 5c7f c1bd e1f8 91bd
000001d0: 5bdf 13bd 957c 4cbe db5a e43b ebfe 893e
000001e0: 5376 1bbe e2d3 1dbd 799c 073e c024 c5bd
000001f0: 670e 8fbd 4aac c13d ed01 de3a 1d75 9e3d
00000200: 1a20 063e 2ba5 23bd 69df 5abc 2cf2 8e3c
00000210: e24d dbbd 0b8e d9bd f02c afbd ecce 313e
00000220: 8613 513d fdaf e6bd 91b0 d73d c95d 7d3d
00000230: 1075 09be fa4e ff3d c392 543c a948 51be
00000240: 517a 443e ba31 373e 6d00 513e e640 aebc
00000250: 0ba4 e23b 38d2 3bbb 483b d9bd 244a 1ebe
00000260: f611 33be dae9 8dbe 8e30 73be 5158 94be
00000270: 622d d7bd 1611 0cbe ba39 c6bd 2726 a03e
00000280: 4916 913e d993 c73e ef8f 8f3d 335d 6f3c
00000290: cabe d0bd 20b2 6e3d f400 813b 2b15 1dbd
000002a0: af1e f43d 1578 783d 0b5b 0bbd 5ada e0bd
000002b0: 73fa 51be 7d78 88be 8344 b63c 9ce5 2bbe
000002c0: 6c92 6abe e32e c53e 953f 8d3e df94 1b3e
000002d0: 5a20 debd 93ce b9bd 0276 5ebe 9a20 b43c
000002e0: b8e0 05be 7028 68be 6028 873e cd2b c33d
000002f0: f448 1a3c 5bc4 2ebe 25ed 8fbd 1eb8 6a3e
00000300: 58bc 0abe 8bb3 83bd 0c63 213e abb6 0abe
00000310: a108 81bd 21f5 df3d 3e27 1e3e 1d80 223e
00000320: 9e3a 233e aacf 53bc e4dc 64bc 1128 6bbd
00000330: 2c6e 23be da9a 20be 411d b1bd 2a7e cdbc
00000340: 2dcb 8b3d 045b 533e 646d 46bd a0aa 28bd
00000350: d076 c83c fc9b fcbd 79ac 03be 665a debd
00000360: c70b 24be 2230 43bd 9a6f 603d 17bf 6e3c
00000370: 1585 e33d 0806 263e 1ff2 873d ea6a 1e3e
00000380: 0f04 543e 0c3c 4bbe e5be 80bd 1a2d 823e
00000390: 1324 18be 5f5f 83bd dc2b 4a3e e86f 21be
000003a0: b33c 9fbd 2230 083e 859e 45be 62f0 b6bd
000003b0: 4732 a53d ab95 c33c a0f8 fd3d 2ed3 693e
000003c0: 26be 113e 88b7 393e 5248 853e 65b1 ac3d
000003d0: 1eb0 f93d 03ea 063e b24d 4abd 03a6 ddbc
000003e0: 20bb 2bbd e8df ecbd 43d8 b9bd f174 15be
000003f0: 0a46 723e da09 503e 41a0 ff3d 9378 12be
0.0076038474 0.08109915 0.17130363 -0.09975045 -0.032065477 -0.007532239 -0.14698458 -0.09829809
-0.030720044 -0.10703404 -0.06023371 -0.01723552 -0.10466688 -0.045024395 0.009519264 -0.13146798
-0.046513185 0.05613744 -0.07432893 -0.098272055 -0.13546415 -0.08375249 -0.11284739 -0.1653586
-0.04685051 -0.11652952 -0.14498952 -0.016708942 0.019100659 0.12086406 -0.11462022 -0.07099611
-0.020575946 -0.16019654 -0.1337179 -0.074954286 -0.13288096 -0.089239605 0.11001854 -0.10449714
-0.0992247 0.0010777493 -0.13157725 -0.07754948 0.013425343 0.093382075 0.09311683 0.14388347
-0.015640847 0.027563494 0.06475741 -0.15662614 -0.10238987 -0.1104683 0.13385871 0.1826616
0.044750754 0.15539905 0.1149771 0.062014148 0.15945643 0.16725077 0.0804753 0.10182325
0.032159645 -0.15252838 0.08927828 0.004597289 -0.1623919 0.091144934 0.028274521 -0.14587778
-0.21487369 -0.11071726 0.08208677 -0.20508313 -0.11357174 0.12371603 -0.111325234 0.011778601
0.31112644 0.02298256 -0.11490263 -0.22754559 0.10728382 0.012846864 -0.06663835 0.24028195
0.12843844 0.13925858 0.14589643 0.06801434 0.017359545 0.12793264 0.043270048 -0.027663657
0.074258275 -0.08543445 -0.10525921 -0.052918885 0.04689589 0.09185018 -0.044735227 0.041003216
0.10873408 -0.065986 -0.02039323 0.08595717 -0.04294824 -0.019682089 0.15467945 -0.08702342
-0.06909197 -0.004908032 -0.0944812 -0.07127548 -0.03610168 -0.199694 0.0069688386 0.269523
-0.15181856 -0.038532145 0.13243283 -0.0962615 -0.06985169 0.0945669 0.001693783 0.07737181
0.13098183 -0.03995244 -0.013358929 0.01744946 -0.10708214 -0.10622796 -0.08553493 0.1736409
0.05104401 -0.11264036 0.10531724 0.06185702 -0.13423562 0.124662355 0.012974444 -0.20437874
0.19187285 0.17890063 0.20410319 -0.02127118 0.006916528 -0.0028659236 -0.1060701 -0.1545797
-0.1748732 -0.27717477 -0.23748991 -0.2897363 -0.10506703 -0.13678393 -0.09678979 0.31279108
0.28337315 0.38979986 0.07009875 0.014609623 -0.1019264 0.058275342 0.003936881 -0.038350265
0.11919915 0.060661394 -0.034022372 -0.10979147 -0.20505695 -0.26654425 0.022249466 -0.16786808
-0.22907418 0.38512334 0.27587572 0.15193509 -0.10846014 -0.09072604 -0.21724704 0.021988202
-0.13074005 -0.22671676 0.2639799 0.09529839 0.009416807 -0.17067091 -0.070276536 0.22921798
-0.1354841 -0.064307295 0.1576044 -0.13546245 -0.06300474 0.109354265 0.15444657 0.15869184
0.1594033 -0.012927929 -0.01396868 -0.057411257 -0.15959996 -0.15684071 -0.08648158 -0.025084574
0.06825862 0.20640188 -0.048444167 -0.041178346 0.024470717 -0.12334439 -0.12858762 -0.10857086
-0.16020118 -0.047653325 0.05479393 0.014571927 0.11109368 0.16213238 0.06637978 0.15470472
0.20704673 -0.19847125 -0.0628641 0.25425035 -0.14857511 -0.06414675 0.19743294 -0.15765345
-0.07775249 0.13299611 -0.19298752 -0.08932568 0.0806623 0.023875078 0.12400937 0.22834465
0.14232692 0.18136418 0.2603174 0.08432273 0.12191795 0.13175206 -0.049390502 -0.0270567
-0.041926503 -0.11566144 -0.09074452 -0.14595391 0.2365953 0.20316258 0.12481738 -0.14303808
