trained_models/sinGan/mountains/scale_factor=0.750000,alpha=10/0/netG.pth (torch_old, 125197 bytes, 26 tensors)

head.conv.weight f4 [32, 3, 3, 3]
-0.013893831 0.008261264 -0.0061417245 -0.002056968 -0.0010117566 -0.013745272 -0.016413093 -0.011173561
-0.33786815 0.00702511 -0.015185277 0.023597691 0.012700619 -0.00040958615 0.011371305 0.012432788
0.0582351 -0.3137665 0.005809163 0.0050202096 -0.012425092 -0.006225638 0.0034797746 0.0115030985
-0.0065994044 -0.03874606 -0.31214157 0.10084894 -0.036818646 0.019130375 -0.015865978 -0.019126521
-0.04142166 0.024509719 0.055455144 -0.02274064 0.06358627 -0.049721576 0.06338199 0.004436593
-0.0057425876 -0.0010869317 0.008687053 0.03000155 -0.029159786 0.013219664 -0.013015837 0.061511137
-0.017995775 0.00044422975 -0.007725264 0.032208867 0.05621809 -0.046824317 -0.014318166 -0.022714615
-0.031051021 -0.026668819 -0.0049637966 -0.01439633 -0.039161496 -0.16645834 0.08833617 0.004780867
-0.016890287 0.017073268 -0.01871737 -0.0061726826 -0.0062377374 -0.044810273 -0.16375232 0.03770876
-0.024619527 0.016627816 -0.014386447 0.025068518 -0.004729851 0.007920014 -0.045722533 -0.1827197
0.10087031 -0.20596057 0.031973645 0.0034090658 0.033907223 -0.0026002156 0.0126882065 0.0009273423
0.027163588 0.007843227 -0.2571184 -0.04773523 0.0012436939 0.0054394067 0.011915488 0.011555387
-0.014474236 -0.03314292 0.0045586023 -0.22323485 -0.006073498 0.00052921847 -0.0027112623 0.016245969
0.019828048 0.051187877 0.019845147 0.011678566 -0.014962246 -0.07691526 0.06467552 0.029594943
0.026067885 -0.06799108 0.006899168 -0.0028775588 0.026937304 0.012296251 -0.07742193 0.087278485
-0.0052066967 0.032822173 -0.04128383 -0.0054955445 -0.005063547 0.0011365028 -0.010877915 -0.06000444
0.09118918 -0.02569481 -0.010385472 -0.04094757 0.0055456846 -0.017119415 0.034212857 0.02422882
-0.015060837 0.007666677 -0.008327563 0.012596692 0.008909568 -0.006747233 0.026078263 -0.23680414
-0.0013721059 0.009411183 -0.0042719883 0.023208017 -0.015739815 -0.012025987 -0.0023652073 -0.018433288
-0.23090822 -0.01829946 0.0054378924 -0.0015027823 -0.01360853 0.002601672 0.01512806 -0.0020157474
0.0042487225 -0.21526992 -0.042740375 0.04135952 -0.013323268 0.029042898 -0.04213682 0.114304155
-0.00031552298 -0.00360069 0.0021646898 -0.006736442 0.07773707 -0.0047045634 0.035708185 -0.028084217
0.13238996 0.008110329 -0.0439768 -0.01655239 -0.053189907 0.0692904 -0.021111734 0.018139286
-0.030694716 0.10336831 0.033028126 -0.0018944745 0.011016633 -0.038711507 0.04722473 0.002805371
0.06619037 -0.02809701 0.04854222 0.03964856 -0.027981326 0.00055141497 -0.05804802 0.08166185
0.02110157 0.097678445 -0.0029851021 0.095224634 0.01940601 0.022850426 0.01899887 -0.08657567
0.09045157 -0.03715805 0.043513708 -0.016027259 0.06448053 0.039084367 0.01706615 0.001536556
-0.015810637 -0.0580183 0.10071961 0.01855465 0.06513412 -0.040964913 0.040628113 0.008953926
-0.0047658235 -0.0665952 -0.04800661 0.095079355 -0.00013734636 0.06819704 -0.01058617 0.040626038
0.034445573 -0.014051625 -0.06265733 -0.012100268 0.05685639 0.022114186 0.061292533 -0.039533027
0.008316101 -0.022368483 -0.0093004145 -0.016933309 -0.007994059 -0.26448542 0.014734058 -0.016826492
0.016324108 0.01601849 -0.03974371 0.026111728 -0.00044441386 0.00823877 -0.30310765 -0.011904033
00000000: f3a2 63bc 415a 073c 8540 c9bb 32ce 06bb
00000010: eb9c 84ba d933 61bc c074 86bc 5011 37bc
00000020: 0efd acbe e532 e63b abcb 78bc f24f c13c
00000030: 4216 503c b9bd d6b9 b64e 3a3c e4b2 4b3c
00000040: ee87 6e3d 01a6 a0be cb5a be3b 9280 a43b
00000050: 9d92 4bbc 7000 ccbb ee0c 643b 7e77 3c3c
00000060: d13f d8bb 30b4 1ebd 05d1 9fbe e489 ce3d
00000070: 26cf 16bd 4eb7 9c3c 5ef9 81bc 39af 9cbc
00000080: c2a9 29bd 9bc8 c83c ef24 633d 944a babc
00000090: 8539 823d daa8 4bbd 6bce 813d d760 913b
000000a0: 512c bcbb 6077 8eba 2454 0e3c d0c5 f53c
000000b0: 81e0 eebc 4a97 583c 6140 55bc 1af3 7b3d
000000c0: e06b 93bc 82e7 e839 3624 fdbb 72ed 033d
000000d0: f144 663d dbca 3fbd be96 6abc 0014 babc
000000e0: b65e febc 9178 dabc 58a7 a2bb 96de 6bbc
000000f0: ce67 20bd 0e74 2abe 98e9 b43d d2a8 9c3b
00000100: 805d 8abc 3ddd 8b3c 2c55 99bc 3744 cabb
00000110: ef65 ccbb fa8a 37bd b0ae 27be 8074 1a3d
00000120: e4ae c9bc 0f37 883c 22b5 6bbc 7e5c cd3c
00000130: defc 9abb f2c2 013c 8d47 3bbd df1a 3bbe
00000140: 1895 ce3d 54e7 52be ccf6 023d a26a 5f3b
00000150: 4de2 0a3d 6168 2abb 32e2 4f3c e318 733a
00000160: 2c86 de3c e180 003c 06a5 83be 0486 43bd
00000170: 7103 a33a 0d3d b23b 2e39 433c ce52 3d3c
00000180: 5925 6dbc dfc0 07bd 5460 953b ad97 64be
00000190: 3204 c7bb 40bb 0a3a 6faf 31bb 4416 853c
000001a0: 6e6e a23c 61aa 513d 4a92 a23c 7557 3f3c
000001b0: 3524 75bc bf85 9dbd 9974 843d 1871 f23c
000001c0: 518c d53c e83e 8bbd 6a12 e23b 6d95 3cbb
000001d0: 9fab dc3c 3776 493c 648f 9ebd 10bf b23d
000001e0: f09c aabb 8b70 063d 3c19 29bd f813 b4bb
000001f0: 1cec a5bb b5f6 943a 4839 32bc 37c7 75bd
00000200: 65c1 ba3d ec7d d2bc d427 2abc a4b8 27bd
00000210: 93b8 b53b 043e 8cbc c822 0c3d 857b c63c
00000220: bbc1 76bc bf38 fb3b 5570 08bc 5b62 4e3c
00000230: 70f9 113c e517 ddbb 15a2 d53c c97c 72be
00000240: 3cd8 b3ba 5d31 1a3c 09fc 8bbb bd1e be3c
00000250: c9f0 80bc a508 45bc 9801 1bbb 6801 97bc
00000260: 3473 6cbe c0e8 95bc 5930 b23b 02f9 c4ba
00000270: 50f6 5ebc d080 2a3b afdb 773c a11a 04bb
00000280: de38 8b3b b86f 5cbe 8810 2fbd 9a68 293d
00000290: d649 5abc 5feb ed3c a897 2cbd 4c18 ea3d
000002a0: c76c a5b9 8ef9 6bbb 78dd 0d3b 5fbd dcbb
000002b0: 9d34 9f3d bd28 9abb bf42 123d df10 e6bc
000002c0: 3c91 073e 2fe1 043c 0421 34bd e198 87bc
000002d0: a9dd 59bd 20e8 8d3d 84f2 acbc d798 943c
000002e0: 7c73 fbbc c4b2 d33d 8048 073d 0450 f8ba
000002f0: 1c7f 343c f58f 1ebd b86e 413d 51da 373b
00000300: d18e 873d b32b e6bc 35d4 463d 8766 223d
00000310: 1839 e5bc d58c 103a c3c3 6dbd 543e a73d
00000320: 33dd ac3c a30b c83d b4a1 43bb 2205 c33d
00000330: 5af9 9e3c d130 bb3c 85a3 9b3c 964e b1bd
00000340: ac3e b93d 0a33 18bd 6e3b 323d 994b 83bc
00000350: 5e0e 843d ee16 203d 50ce 8b3c 4466 c93a
00000360: 4f85 81bc 99a4 6dbd 1546 ce3d ecff 973c
00000370: 0a65 853d d3ca 27bd aa69 263d 7db3 123c
00000380: a02a 9cbb 1063 88bd 94a2 44bd f7b8 c23d
00000390: a204 10b9 e4aa 8b3d 9d71 2dbc 7d67 263d
000003a0: cd16 0d3d c938 66bc 7c52 80bd 3440 46bc
000003b0: 3fe2 683d cf28 b53c e10d 7b3d 62ed 21bd
000003c0: 4140 083c 1c3e b7bc c460 18bc b9b7 8abc
000003d0: 83f9 02bc a26a 87be 1e67 713c b6d7 89bc
000003e0: 23ba 853c 3539 833c 4dca 22bd 43e8 d53c
000003f0: 3800 e9b9 e8fb 063c ed30 9bbe 2209 43bc

head.conv.bias f4 [32]
0.041165326 0.08605911 -0.17575453 -0.080496766 0.026758874 -0.12718208 -0.16089484 0.1799581
-0.14870429 0.089516796 0.0454932 0.07734688 -0.13899176 0.10387196 -0.07830287 -0.07178535
0.12679298 -0.16840345 0.050640564 -0.004167888 0.13540374 0.092940666 -0.057266 0.0009892482
-0.0965068 -0.04144661 -0.08464293 0.02987468 -0.021001903 0.0083769215 -0.19333068 0.044063203
00000000: f99c 283d c23f b03d fff8 33be 7ddb a4bd
00000010: 6d35 db3c 053c 02be 9ec1 24be f046 383e
00000020: f045 18be 9554 b73d 1457 3a3d 0b68 9e3d
00000030: db53 0ebe d2ba d43d 415d a0bd 3304 93bd
00000040: 05d6 013e f471 2cbe 7b6c 4f3d c792 88bb
00000050: 47a7 0a3e ad57 be3d c18f 6abd a9a9 813a
00000060: 5ba5 c5bd ecc3 29bd 4659 adbd bfbb f43c
00000070: 2f0c acbc 5b3f 093c 7af8 45be 9e7b 343d

head.norm.weight f4 [32]
1.1273372 0.86592025 1.1066502 1.0546408 0.7975934 1.0446534 0.84646046 0.9752105
0.87898916 1.1477334 1.0440701 1.0425171 1.2178826 1.0857127 1.0463802 1.04576
1.1538956 0.921571 1.0174555 1.0476233 1.3170276 1.059319 1.0583897 0.93779796
1.1642653 0.9867737 1.2531345 1.1900951 1.1018273 1.1657455 1.0321717 1.0152655
00000000: 964c 903f f3ac 5d3f b7a6 8d3f 78fe 863f
00000010: 152f 4c3f 34b7 853f a2b1 583f 65a7 793f
00000020: 6f05 613f eee8 923f 17a4 853f 3371 853f
00000030: 94e3 9b3f a2f8 8a3f c9ef 853f 77db 853f
00000040: dab2 933f 14ec 6b3f fb3b 823f 8518 863f
00000050: 5c94 a83f c497 873f 5079 873f 8713 703f
00000060: a506 953f 349d 7c3f b666 a03f 0955 983f
00000070: ad08 8d3f 2637 953f 341e 843f 38f4 813f

head.norm.bias f4 [32]
-0.032640867 -0.17921126 -0.03144363 -0.068334654 -0.15991019 -0.034154024 -0.17381467 -0.086726524
-0.08873928 -0.045348313 -0.029081572 -0.041607197 -0.048091482 -0.0044262754 -0.031847678 -0.09402725
-0.08266094 -0.15482424 -0.07637142 -0.06544653 -0.019989822 -0.008776177 -0.008620878 -0.060413793
-0.065345466 -0.121811606 -0.008187485 -0.041603506 -0.057344835 -0.0045220205 -0.04900559 -0.011173964
00000000: 6eb2 05bd 2883 37be 09cb 00bd 0af3 8bbd
00000010: 7fbf 23be 17e5 0bbd 79fc 31be ad9d b1bd
00000020: f1bc b5bd 27bf 39bd 7a3c eebc 4f6c 2abd
00000030: 93fb 44bd 4a0a 91bb b672 02bd 5c91 c0bd
00000040: 244a a9bd 3f8a 1ebe 9e68 9cbd d508 86bd
00000050: b2c1 a3bc f4c9 0fbc 953e 0dbc 7474 77bd
00000060: d8d3 85bd 5d78 f9bd cd24 06bc 7068 2abd
00000070: 6be2 6abd 752d 94bb 16ba 48bd 0013 37bc

head.norm.running_mean f4 [32]
0.05828497 0.081948295 -0.16585964 -0.07099888 0.027602311 -0.11523963 -0.16754787 0.1705524
-0.1526183 0.10387616 0.033413425 0.088536896 -0.123707525 0.08820012 -0.0677385 -0.08043408
0.13616247 -0.1746411 0.052640427 -0.0011814915 0.12136421 0.087521434 -0.07099545 -0.014103508
-0.09392072 -0.05172396 -0.10273353 0.03590682 -0.029787255 -0.0095142545 -0.18608099 0.039224293
00000000: 38bc 6e3d 82d4 a73d 1cd7 29be dc67 91bd
00000010: 3e1e e23c c102 ecbd ab91 2bbe 4aa5 2e3e
00000020: f947 1cbe 06bd d43d 84dc 083d d552 b53d
00000030: 5f5a fdbd 44a2 b43d 7cba 8abd 9fba a4bd
00000040: 2d6e 0b3e 1ed5 32be 7d9d 573d 47dc 9aba
00000050: cd8d f83d 703e b33d 1066 91bd 6612 67bc
00000060: 8259 c0bd 81dc 53bd f565 d2bd 0813 133d
00000070: 6704 f4bc ade1 1bbc 048c 3ebe a7a9 203d

head.norm.running_var f4 [32]
0.59187716 0.06393063 0.21367365 0.3043422 0.0865858 0.29745716 0.12110935 0.11323418
0.10016711 0.46889043 0.30266723 0.25430322 0.5133898 0.25779587 0.25590372 0.13443696
0.20047116 0.091894805 0.16107999 0.20210986 0.41140303 0.21403676 0.39452094 0.22879212
0.16506198 0.111879945 0.59845996 0.22502182 0.22165658 0.6150748 0.24204138 0.17505966
00000000: 4385 173f 10ee 823d 44cd 5a3e bed2 9b3e
00000010: e553 b13d 4e4c 983e 2e08 f83d 52e7 e73d
00000020: 6a24 cd3d 6812 f03e 33f7 9a3e 0834 823e
00000030: 846d 033f d2fd 833e d005 833e d8a9 093e
00000040: 5048 4d3e 5833 bc3d 27f2 243e e3f5 4e3e
00000050: 6ba3 d23e 742c 5b3e a6fe c93e 7b48 6a3e
00000060: 0206 293e 5021 e53d ac34 193f 1f6c 663e
00000070: f1f9 623e 8b75 1d3f b2d9 773e d742 333e

body.block1.conv.weight f4 [32, 32, 3, 3]
-0.026670542 -0.03168125 -0.003698497 -0.0031381203 -0.036477637 0.00019563973 -0.025556264 0.009056723
0.0024849947 -0.015382788 -0.051616624 0.056563497 0.0043252525 0.061588753 -0.01708224 0.018753972
-0.016050423 0.036197603 0.002003398 -0.028734233 -0.0078051416 -0.08506268 -0.0085376715 -0.03719501
-0.013334809 0.0035097585 0.036394414 0.06668649 0.034261104 0.02587329 0.029090622 0.015340108
-0.025282932 -0.037738353 0.0044441503 -0.004066903 -0.021216651 -0.034094498 0.11255672 -0.014716826
0.052664913 -0.0075775413 0.03146326 -0.03952435 0.039211113 -0.0176348 0.0036420878 -0.020425094
-0.021194495 -0.032570094 0.010866329 0.0045734216 0.011382682 0.03788985 -0.010073205 0.075162046
-0.029704483 0.03039226 -0.036921352 0.06952039 -0.032936785 0.044520717 -0.046557378 0.043831818
0.024950616 -0.053467423 0.046777226 -0.07090652 0.0024360912 -0.04715587 0.036812283 -0.03356146
0.0020423932 -0.02959612 0.052566204 -0.041464813 -0.03196306 -0.074669935 0.0598434 0.009247566
0.030635538 0.016709138 0.04154929 0.07759996 -0.014276678 -0.032459408 0.023841059 0.020276625
-0.013781099 -0.036994822 0.00846462 -0.030285658 0.049618084 0.0047710356 0.005434273 -0.0279122
0.030459223 -0.013184992 0.06460886 -0.021117859 -0.026533438 -0.019255748 -0.01421699 -0.038860593
0.035366587 0.00093253335 -0.011358963 -0.0026917418 -0.012963635 0.06296793 0.07078572 -0.047894496
-0.066418596 0.03532957 -0.03781953 -0.039454456 -0.0005153413 0.03835884 0.030888293 0.09369354
-0.018971201 0.06766216 -0.029841697 0.00017740096 -0.07396381 0.024783015 -0.012981602 0.013591024
-0.03860156 0.031543337 -0.02546512 0.019576132 0.03975533 -0.002605058 -0.03644186 0.009666195
0.019656718 -0.025157342 0.033636075 -0.09126736 -0.01792853 -0.018114315 0.051121317 -0.011477227
-0.027552929 0.03756466 -0.0085148765 -0.021825058 -0.066893615 -0.01755949 -0.001972321 -0.028026145
-0.03468061 0.064868525 -0.032141987 0.087372385 -0.021486873 0.056026224 -0.035144582 0.06063252
-0.0038076765 0.07000633 0.0085423505 0.014483558 -0.013605458 0.016848972 -0.0055622314 -0.008703022
-0.024071086 0.019445682 0.003133978 0.029421076 -0.005908731 0.10856436 -0.030986533 -0.0077933143
-0.035469014 0.009264748 -0.01684863 0.008211178 0.07975959 0.014992799 0.0035830706 -0.02958845
0.055782456 -0.05205578 -0.018241141 -0.040383317 0.028139042 0.00025715778 -0.014444818 0.118166424
-0.02760192 0.028118355 -0.057153497 0.0040985034 -0.03896935 0.03454466 0.017379267 -0.057849135
0.09843146 -0.03327056 -0.00093035673 -0.033358246 0.00021822087 0.017673781 0.07129187 -0.05317221
-0.0417433 0.0009050882 -0.021937916 0.003817447 -0.022924455 0.03923714 -0.009197491 0.0025347876
0.048852 0.024139324 -0.006977279 0.0415228 -0.07296564 -0.0218621 -0.07159957 0.027777674
-0.014317585 -0.027269699 0.05186499 -0.0035207183 0.0711923 -0.0904771 0.056056753 0.012156129
0.011260847 -0.05137797 0.008984559 -0.0035520515 0.18489465 -0.04735003 0.04550715 0.019239416
-0.020888496 -0.023141365 0.037015196 0.030093202 0.06475457 0.07048522 -0.026336893 -0.080083884
0.036835723 -0.007341428 -0.015724517 -0.051284425 0.034756128 -0.027074616 -0.010187025 -0.0063473433
00000000: 2e7c dabc 33c4 01bd 7c62 72bb eca8 4dbb
00000010: 9369 15bd a424 4d39 5f5b d1bc a662 143c
00000020: 4bdb 223b 1708 7cbc f46b 53bd 20af 673d
00000030: d9ba 8d3b 7d44 7c3d 0ef0 8bbc eea1 993c
00000040: 2d7c 83bc f043 143d 714b 033b 0e64 ebbc
00000050: 46c2 ffbb 5835 aebd 97e1 0bbc cb59 18bd
00000060: 3e7a 5abc fa03 663b 4f12 153d ed92 883d
00000070: 5f55 0c3d 39f4 d33c 754f ee3c 1455 7b3c
00000080: 271e cfbc 8893 1abd 3ca0 913b a843 85bb
00000090: 8bce adbc aca6 0bbd 2384 e63d d81e 71bc
000000a0: 2ab7 573d 064d f8bb 9fdf 003d 49e4 21bd
000000b0: d59b 203d db76 90bc 18b0 6e3b 8752 a7bc
000000c0: 14a0 adbc 3868 05bd b008 323c a4dc 953b
000000d0: 6e7e 3a3c 6332 1b3d 160a 25bc 8fee 993d
000000e0: d156 f3bc 30f9 f83c d83a 17bd b560 8e3d
000000f0: b9e8 06bd 5b5b 363d f3b2 3ebd fe88 333d
00000100: 3c65 cc3c a800 5bbd 7a99 3f3d 7037 91bd
00000110: d4a6 1f3b 8326 41bd 7ac8 163d be77 09bd
00000120: acd9 053b 9073 f2bc a94f 573d 02d7 29bd
00000130: b3eb 02bd 8dec 98bd 5a1e 753d 1a83 173c
00000140: 61f7 fa3c 9ae1 883c 972f 2a3d baec 9e3d
00000150: bae8 69bc 28f4 04bd 534e c33c 2a1b a63c
00000160: 1eca 61bc e287 17bd 31af 0a3c a119 f8bc
00000170: 553c 4b3d 5956 9c3b fc11 b23b 20a8 e4bc
00000180: 9f85 f93c dd05 58bc a651 843d 5cff acbc
00000190: a75c d9bc 3bbe 9dbc 61ee 68bc 492c 1fbd
000001a0: 8edc 103d 4175 743a f21a 3abc ef67 30bb
000001b0: 6d65 54bc 55f5 803d 1bf8 903d 052d 44bd
000001c0: 7906 88bd bdb5 103d a7e8 1abd ff9a 21bd
000001d0: f817 07ba 291e 1d3d 7209 fd3c 66e2 bf3d
000001e0: 7e69 9bbc 7592 8a3d 9376 f4bc b504 3a39
000001f0: 577a 97bd c005 cb3c c9b0 54bc e3ac 5e3c
00000200: ab1c 1ebd 9633 013d 3a9c d0bc 205e a03c
00000210: 7cd6 223d 9fb9 2abb 0f44 15bd f65e 1e3c
00000220: 2007 a13c c516 cebc fbc5 093d 62ea babd
00000230: dade 92bc 7964 94bc 9664 513d fb0a 3cbc
00000240: aeb6 e1bc 67dd 193d fb81 0bbc 77ca b2bc
00000250: 85ff 88bd ebd8 8fbc 0e42 01bb 1697 e5bc
00000260: 410d 0ebd cad9 843d 51a7 03bd 4bf0 b23d
00000270: 3d05 b0bc c17b 653d c4f3 0fbd ce59 783d
00000280: 368a 79bb 7b5f 8f3d 37f5 0b3c 724c 6d3c
00000290: 6de9 5ebc db06 8a3c 6143 b6bb 1f97 0ebc
000002a0: ba30 c5bc 8d4c 9f3c 6d63 4d3b 7804 f13c
000002b0: 079e c1bb fe56 de3d 78d7 fdbc 0f5f ffbb
000002c0: f547 11bd 2bcb 173c 2306 8abc 2d88 063c
000002d0: ff58 a33d 5ba4 753c f3d1 6a3b 7a63 f2bc
000002e0: 257c 643d 7138 55bd 726e 95bc fa68 25bd
000002f0: d983 e63c 22d3 8639 f5a9 6cbc 3d01 f23d
00000300: 6c1d e2bc 7758 e63c c919 6abd bd4c 863b
00000310: 539e 1fbd b47e 0d3d f75e 8e3c 37f3 6cbd
00000320: 6f96 c93d b646 08bd 2fe3 73ba a8a2 08bd
00000330: 38d2 6439 9bc8 903c 7901 923d 1acb 59bd
00000340: 06fb 2abd 7143 6d3a 25b7 b3bc 222e 7a3b
00000350: 11cc bbbc 20b7 203d 13b1 16bc ae1e 263b
00000360: 0919 483d d5bf c53c a9a1 e4bb d013 2a3d
00000370: 026f 95bd 2618 b3bc cca2 92bd 018e e33c
00000380: 4e94 6abc b464 dfbc 6270 543d dabb 66bb
00000390: 45cd 913d 0f4c b9bd c49b 653d 802a 473c
000003a0: 6a7f 383c b571 52bd f933 133c 89c9 68bb
000003b0: 0655 3d3e 1bf2 41bd b565 3a3d fb9b 9d3c
000003c0: 5a1e abbc f692 bdbc 3f9d 173d 0586 f63c
000003d0: 0b9e 843d 8e5a 903d 78c0 d7bc 0503 a4bd
000003e0: 0ee1 163d 5d90 f0bb b4d0 80bc 9e0f 52bd
000003f0: 715c 0e3d 96cb ddbc 7be7 26bc 60fd cfbb

body.block1.conv.bias f4 [32]
-0.05302631 0.012046428 -0.038876925 0.069579326 0.057613317 0.04274627 -0.04065668 0.03205016
0.015368513 0.00049229263 0.022143811 -0.025473922 0.015545535 0.03148165 -0.008770141 0.031905755
0.003270331 0.045002848 -0.030265767 0.04416955 0.010236208 -0.0071722683 -0.04119351 -0.020871546
0.04166845 -0.024290191 -0.024474885 -0.023757044 -0.044490613 -0.00972096 -0.04998461 -0.02324023
00000000: 1e32 59bd 625e 453c 693d 1fbd 9b7f 8e3d
00000010: f1fb 6b3d b616 2f3d 9e87 26bd 0747 033d
00000020: 37cc 7b3c 330d 013a f066 b53c b0ae d0bc
00000030: b3b2 7e3c e7f2 003d a3b0 0fbc 9caf 023d
00000040: 0d53 563b e854 383d eaef f7bc 21eb 343d
00000050: c5b5 273c 5905 ebbb 87ba 28bd cefa aabc
00000060: 89ac 2a3d 39fc c6bc 8e7f c8bc 229e c2bc
00000070: ca3b 36bd a944 1fbc aabc 4cbd 4b62 bebc

body.block1.norm.weight f4 [32]
0.93117094 0.8871291 0.88326776 1.3082114 1.1648508 0.9338154 0.9727913 0.9878124
0.8777666 1.4137671 0.8365166 1.2421105 0.95600194 0.93048316 0.99133676 0.92811584
0.9854114 0.89600754 0.8756873 0.9737748 0.9354457 0.9443747 0.9760314 1.1401577
1.0560385 1.4130448 0.99792105 0.9125428 0.96680063 0.9036906 1.3681711 0.8508916
00000000: 3861 6e3f e51a 633f d61d 623f 7973 a73f
00000010: d519 953f 870e 6f3f da08 793f 46e1 7c3f
00000020: 50b5 603f 52f6 b43f f425 563f 7afd 9e3f
00000030: 8bbc 743f 2534 6e3f 3fc8 7d3f 0099 6d3f
00000040: ec43 7c3f c060 653f 0b2d 603f 4e49 793f
00000050: 5f79 6f3f 8ac2 713f 32dd 793f b0f0 913f
00000060: 452c 873f a7de b43f c177 7f3f 689c 693f
00000070: 3f80 773f 4458 673f 3b20 af3f 08d4 593f

body.block1.norm.bias f4 [32]
-0.13305832 -0.17845152 -0.06884825 -0.19257516 -0.36897004 -0.14454627 -0.16705365 -0.005821833
-0.20999461 -0.06825039 -0.14386655 -0.08601142 -0.1054742 -0.17085828 -0.046775363 -0.06890095
0.006028267 -0.06822807 -0.16448171 0.03721068 -0.10380363 -0.12704536 -0.14248702 0.038309373
-0.090756655 -0.1968371 -0.07289696 -0.16718547 -0.06215046 -0.13610266 -0.2828118 -0.13746731
00000000: 7140 08be ffbb 36be 5000 8dbd 6c32 45be
00000010: a4e9 bcbe f003 14be 1d10 2bbe 13c5 bebb
00000020: d408 57be dcc6 8bbd c151 13be c126 b0bd
00000030: db02 d8bd 79f5 2ebe 8697 3fbd f11b 8dbd
00000040: c588 c53b 29bb 8bbd e56d 28be 3a6a 183d
00000050: ff96 d4bd 2e18 02be 1ee8 11be 4aea 1c3d
00000060: a0de b9bd aa8f 49be 004b 95bd ab32 2bbe
00000070: 7b91 7ebd 7f5e 0bbe b5cc 90be 3bc4 0cbe

body.block1.norm.running_mean f4 [32]
0.2095468 1.5587997 -0.45928764 -1.2996209 -0.9353504 0.7610726 -0.112495475 0.052221548
2.3925836 -1.3136691 0.63698506 -1.511957 0.42444167 2.2804909 0.41872346 1.2908732
-0.04204987 2.4404716 0.960576 2.11457 0.20829011 -1.4052525 -0.003097297 -1.0754386
-1.583713 -1.5390805 1.1319124 1.6575013 0.636073 1.5181898 -1.5642052 0.27902597
00000000: 7093 563e c086 c73f c027 ebbe fa59 a6bf
00000010: 2073 6fbf a7d5 423f 0764 e6bd 43e6 553d
00000020: 1720 1940 4f26 a8bf 7411 233f cf87 c1bf
00000030: 6b50 d93e 90f3 1140 ec62 d63e 553b a53f
00000040: 7c3c 2cbd b030 1c40 4fe8 753f 1d55 0740
00000050: 014a 553e 50df b3bf 05fc 4abb f9a7 89bf
00000060: 1cb7 cabf 9700 c5bf 81e2 903f 0129 d43f
00000070: aed5 223f 0b54 c23f e037 c8bf 7edc 8e3e

body.block1.norm.running_var f4 [32]
1.5415794 2.104023 1.2441071 1.4587893 1.0890313 2.6206334 3.366255 0.995182
2.3597405 1.5717341 1.6140823 1.6272506 1.9397217 2.3513021 1.1875503 2.0845234
2.0595498 2.0953329 1.7879255 1.7168598 1.5309858 1.247776 3.1828606 0.8628986
1.4050001 1.6275893 2.1732306 1.9736958 2.3153956 1.448584 1.3227086 1.565248
00000000: 7952 c53f 50a8 0640 e73e 9f3f 9cb9 ba3f
00000010: 6165 8b3f 75b8 2740 b970 5740 3fc4 7e3f
00000020: fd05 1740 952e c93f 409a ce3f bf49 d03f
00000030: cd48 f83f bc7b 1640 a601 983f d568 0540
00000040: aacf 0340 ef19 0640 beda e43f 10c2 db3f
00000050: 58f7 c33f 20b7 9f3f fdb3 4b40 ece6 5c3f
00000060: 0bd7 b33f d954 d03f 3616 0b40 10a2 fc3f
00000070: 712f 1440 336b b93f 844e a93f 0c5a c83f

body.block2.conv.weight f4 [32, 32, 3, 3]
0.011918577 0.007409729 0.04134176 0.006663596 0.001708693 0.04113058 -0.0027071529 -0.01971709
0.013021408 0.0048387204 0.010592579 0.0791012 0.052953202 -0.042997155 0.036015324 0.040726066
0.0068726283 0.00020056774 -0.039055344 0.055728342 0.063666 0.013709266 0.015223988 0.046369586
-0.05070822 0.0025352105 -0.0053908834 -0.03740571 -0.05930744 -0.07290018 0.033662297 0.0127491355
0.050633807 0.039867084 0.072918 0.046689443 -0.011700466 -0.038234863 -0.080556735 -0.028947348
-0.016575528 0.02688182 0.02937241 -0.021751229 -0.07628407 0.022049457 0.003998622 0.03571846
-0.015464105 -0.09471261 0.007937805 0.049070925 -0.04231601 0.0026094 -0.03090219 -0.0073911515
0.05540875 0.03396915 -0.0422854 0.056957 0.04632731 0.008074263 0.027129011 0.004190319
0.025161818 0.02320392 -0.046549562 -0.016846457 0.030552126 -0.0208961 -0.036242314 -0.028216487
0.0029879364 -0.025712382 0.042404912 -0.02032707 -0.019495888 0.015263691 0.041467883 0.047219142
0.059534788 -0.032362018 -0.05313111 0.03052115 -0.059032314 -0.021013346 -0.071303196 -0.15915607
-0.11285118 -0.105038054 -0.009447813 0.02420026 0.06880753 0.00131937 -0.026308365 0.021749085
0.027795758 0.018323507 -0.0073135677 -0.02389162 -0.011418389 -0.009303985 -0.099572994 -0.07454205
-0.07080889 -0.10494577 -0.047329262 -0.078484096 -0.004662243 -0.008204795 0.063618526 0.00082444045
-0.039977368 0.049857877 0.0047260225 -0.05412855 0.050307896 -0.017245864 -0.03226276 0.040208057
-0.00085869594 -0.047244113 0.015823016 -0.009353448 0.010370292 0.009386198 -0.0063536596 0.013015366
0.046724133 -0.011267829 -0.0007573676 0.049066972 -0.004985915 0.017573088 -0.008331135 0.00852964
-0.04499358 0.030347086 0.0064265244 0.009920787 0.047247503 0.005781926 -0.060626924 0.055467572
-0.022438008 -0.044790424 0.01049386 -0.00181637 -0.047679976 0.001049558 -0.01650167 -0.030368349
0.02524427 -0.003354305 -0.0025744133 0.026346972 0.0044520455 -0.0017065553 0.033807993 0.0041315304
0.004436673 0.06388822 0.030009113 -0.0005724205 0.05079032 0.027558746 -0.021837179 0.029909406
0.009597271 0.05071407 0.03144921 0.042025514 -0.050751068 0.04241865 0.03696939 -0.057804964
0.0441353 0.057027385 0.039536547 0.07828391 0.0015033464 0.018124253 0.061540425 -0.051483355
0.03080925 0.07921988 0.07601243 0.022887185 0.040997 0.028020807 0.0375168 -0.04088635
0.06672506 0.022623934 -0.01154968 0.0018336701 -0.031042196 -0.012982933 0.050621223 0.01849262
0.08676118 -0.035046432 -0.039063636 0.028404016 0.043814637 -0.033797275 0.006850547 -0.08277686
0.05248009 -0.012130347 0.026379133 0.036883514 0.00903064 -0.049111966 0.037564695 -0.028865628
0.017995615 0.026188467 0.023989351 0.06120137 0.061447 0.021660987 0.009688587 0.023505773
0.03912146 -0.03840498 -0.050532725 -0.11045325 0.026628548 -0.00853053 -0.017442454 0.012389589
0.111466005 0.032619677 0.0210356 -0.0048052147 0.04532671 -0.0077002007 0.0008752531 0.045641545
-0.006056116 0.039447397 0.1032925 0.012421189 -0.013142972 0.032884676 0.023512376 0.006635327
0.029328085 0.014900757 -0.028004205 0.01645311 -0.011873268 -0.037501622 0.0992274 0.004919759
00000000: 2346 433c 50cd f23b fa55 293d 4b5a da3b
00000010: 39f6 df3a 8a78 283d 7d6a 31bb bc85 a1bc
00000020: be57 553c 218e 9e3b 7f8c 2d3c cfff a13d
00000030: 75e5 583d c91d 30bd ce84 133d 60d0 263d
00000040: c933 e13b 7e4f 5239 7ff8 1fbd 6743 643d
00000050: 5263 823d d49c 603c 096e 793c 09ee 3d3d
00000060: 6cb3 4fbd c625 263b 02a6 b0bb bb36 19bd
00000070: 5cec 72bd b14c 95bd 7ae1 093d c0e1 503c
00000080: 6565 4f3d ab4b 233d 0856 953d 6e3d 3f3d
00000090: 50b3 3fbc 299c 1cbd eefa a4bd fd22 edbc
000000a0: 67c9 87bc 4337 dc3c 699e f03c a22f b2bc
000000b0: d33a 9cbd 10a1 b43c df06 833b 854d 123d
000000c0: 285d 7dbc aff8 c1bd 910d 023c 98fe 483d
000000d0: 8d53 2dbd 7802 2b3b 9726 fdbc 7931 f2bb
000000e0: 49f4 623d 3c23 0b3d 7533 2dbd be4b 693d
000000f0: b5c1 3d3d ea49 043c a93d de3c f24e 893b
00000100: 2820 ce3c 2616 be3c c1aa 3ebd 9501 8abc
00000110: 7448 fa3c 4c2e abbc d272 14bd 4326 e7bc
00000120: 41d1 433b c6a2 d2bc c6b0 2d3d f584 a6bc
00000130: d7b5 9fbc 8f14 7a3c 3ada 293d dc68 413d
00000140: c0da 733d 098e 04bd 02a0 59bd 7e07 fa3c
00000150: decb 71bd 2e24 acbc 6907 92bd cff9 22be
00000160: 851e e7bd 311e d7bd 00cb 1abc a03f c63c
00000170: f6ea 8c3d b6ee ac3a a484 d7bc 232b b23c
00000180: eeb3 e33c 2e1b 963c a7a6 efbb 5cb8 c3bc
00000190: 3214 3bbc be6f 18bc edec cbbd 81a9 98bd
000001a0: 4004 91bd cfed d6bd 54dc 41bd 45bc a0bd
000001b0: bbc5 98bb 686d 06bc 6e4a 823d 431f 583a
000001c0: 4fbf 23bd c637 4c3d c0dc 9a3b e6b5 5dbd
000001d0: a70f 4e3d 3347 8dbc f525 04bd 34b1 243d
000001e0: 1c1a 61ba 0b83 41bd 459f 813c 343f 19bc
000001f0: 28e8 293c 91c8 193c 5c32 d0bb 673e 553c
00000200: ce61 3f3d b39c 38bc 148a 46ba 73fa 483d
00000210: e360 a3bb 70f5 8f3c 507f 08bc e7bf 0b3c
00000220: 304b 38bd 749a f83c 9895 d23b cc8a 223c
00000230: 9986 413d 5076 bd3b f053 78bd f731 633d
00000240: eacf b7bc 2a76 37bd 70ee 2b3c 4313 eeba
00000250: 144c 43bd 5391 893a 832e 87bc 0bc7 f8bc
00000260: 12cd ce3c e6d3 5bbb 7db7 28bb 9bd5 d73c
00000270: 77e2 913b 7eae dfba 407a 0a3d ca61 873b
00000280: 8361 913b d4d7 823d acd5 f53c 7d0e 16ba
00000290: 8309 503d e1c2 e13c e2e3 b2bc 9204 f53c
000002a0: df3d 1d3c 8fb9 4f3d e3d0 003d f222 2c3d
000002b0: 5ae0 4fbd 2ebf 2d3d 376d 173d e6c4 6cbd
000002c0: 37c7 343d 8c95 693d 13f1 213d 5153 a03d
000002d0: ef0b c53a 5079 943c d011 7c3d 36e0 52bd
000002e0: ae63 fc3c 083e a23d 68ac 9b3d e87d bb3c
000002f0: 78ec 273d e48b e53c 37ab 193d 7278 27bd
00000300: 26a7 883d d455 b93c de3a 3dbc c257 f03a
00000310: 344c febc 5eb6 54bc 3358 4f3d d67d 973c
00000320: d8af b13d d98c 0fbd 3101 20bd 8aaf e83c
00000330: fa76 333d 036f 0abd 8e7a e03b ea86 a9bd
00000340: 5df5 563d 5dbe 46bc 0d19 d83c 2b13 173d
00000350: 40f5 133c a129 49bd 70dd 193d 9c77 ecbc
00000360: 8a6b 933c 3289 d63c 5185 c43c 4aae 7a3d
00000370: d9af 7b3d 6272 b13c e1bc 1e3c 2e8f c03c
00000380: d33d 203d 8a4e 1dbd 67fb 4ebd 5035 e2bd
00000390: 1d24 da3c a3c3 0bbc 7ae3 8ebc b4fd 4a3c
000003a0: 4a48 e43d 369c 053d da52 ac3c 1075 9dbb
000003b0: 80a8 393d f751 fcbb 3e71 653a a1f2 3a3d
000003c0: 6272 c6bb 9893 213d 058b d33d 3e82 4b3c
000003d0: 9f55 57bc 15b2 063d 079d c03c 286d d93b
000003e0: 7441 f03c 4e22 743c 1369 e5bc acc8 863c
000003f0: 1888 42bc 4d9b 19bd bc37 cb3d ee35 a13b

body.block2.conv.bias f4 [32]
0.010597856 -0.0064362222 0.0063676243 -0.017241785 -0.04310329 -0.041656304 0.048227035 0.07156947
0.04121654 0.020298148 -0.047567923 0.023831028 -0.053707317 0.01896158 -0.029995712 -0.028515901
-0.024766272 -0.0009706942 0.01871659 -0.034856632 -0.0407164 -0.010905911 -0.017045062 -0.064535245
-0.052007668 -0.039015803 0.04226505 0.012120895 -0.037762742 -0.017021623 -0.020363288 0.05298145
00000000: a1a2 2d3c f2e6 d2bb 81a7 d03b a53e 8dbc
00000010: 138d 30bd cd9f 2abd b689 453d 0493 923d
00000020: add2 283d 4d48 a63c 95d6 42bd 4a39 c33c
00000030: 34fc 5bbd 5155 9b3c 91b9 f5bc 2e9a e9bc
00000040: a3e2 cabc 2f76 7eba 8953 993c d4c5 0ebd
00000050: 3dc6 26bd b5ae 32bc 16a2 8bbc 0e2b 84bd
00000060: fe05 55bd 09cf 1fbd 1e1e 2d3d b896 463c
00000070: 1bad 1abd ee70 8bbc e9d0 a6bc 1403 593d

body.block2.norm.weight f4 [32]
0.99446607 1.2655857 1.0214976 0.93777484 0.9835452 1.2668173 0.82521325 0.93929416
0.97914696 0.95671743 1.2017787 1.0499703 0.96437824 1.1814989 1.3026564 1.14094
1.1325791 0.94128895 1.0941446 1.221683 1.2634565 1.1900874 1.2108085 0.9531206
1.1649356 0.95181805 0.88227224 1.1246147 1.0830162 0.9732384 1.1344237 1.1310475
00000000: 5495 7e3f b6fe a13f 6fc0 823f 0312 703f
00000010: 9ec9 7b3f 1227 a23f 2d41 533f 9575 703f
00000020: 60a9 7a3f 6feb 743f e2d3 993f 6d65 863f
00000030: 7ee1 763f 5b3b 973f 72bd a63f 520a 923f
00000040: 5af8 903f 50f8 703f ee0c 8c3f 1c60 9c3f
00000050: f1b8 a13f c954 983f c6fb 9a3f b6ff 733f
00000060: 9c1c 953f 59aa 733f 98dc 613f 60f3 8f3f
00000070: 46a0 8a3f 2726 793f cc34 913f 2ac6 903f

body.block2.norm.bias f4 [32]
0.07719025 -0.27362436 -0.1963184 -0.159602 -0.16206042 -0.024133658 -0.18925802 -0.1974022
0.011665753 -0.20475823 -0.18322778 -0.2288845 -0.16997756 -0.09887407 -0.16332716 -0.12355379
-0.0830917 -0.18527249 -0.18222582 -0.035777528 -0.0121230865 -0.117005736 -0.3767679 -0.09379428
-0.12680653 -0.03788914 -0.090400614 0.0834228 -0.00737304 -0.11765598 -0.18191017 -0.1199336
00000000: ec15 9e3d 7e18 8cbe b107 49be b56e 23be
00000010: 2bf3 25be f3b3 c5bc dbcc 41be cd23 4abe
00000020: b721 3f3c 24ac 51be 10a0 3bbe b360 6abe
00000030: 990e 2ebe 7d7e cabd 3c3f 27be c509 fdbd
00000040: fb2b aabd 12b8 3dbe 6899 3abe 758b 12bd
00000050: e99f 46bc b4a0 efbd b9e7 c0be 3717 c0bd
00000060: 92d9 01be a531 1bbd f523 b9bd 93d9 aa3d
00000070: 8b99 f1bb 9ef5 f0bd a946 3abe bf9f f5bd

body.block2.norm.running_mean f4 [32]
0.22329581 -1.3273273 -0.58998376 1.4881307 1.8195019 0.8330569 0.0744472 1.6840161
-0.058892764 1.259146 0.38686153 -0.31018633 0.58286434 0.5753172 -0.34942985 0.2048481
0.86281973 -0.38468155 0.7646198 0.6058448 0.51753545 0.7106822 -0.31865555 0.65526557
-0.8603664 0.25737068 -0.04135992 0.547114 0.7062855 -0.51798946 0.28873205 1.5605543
00000000: a8a7 643e dce5 a9bf 2d09 17bf 117b be3f
00000010: 70e5 e83f 3843 553f c677 983d d78d d73f
00000020: 8a39 71bd b22b a13f b712 c63e bed0 9ebe
00000030: 9936 153f fd47 133f 78e8 b2be b3c3 513e
00000040: c1e1 5c3f fbf4 c4be 20be 433f a518 1b3f
00000050: 347d 043f 45ef 353f d226 a3be 7cbf 273f
00000060: f940 5cbf 17c6 833e 0569 29bd aa0f 0c3f
00000070: 20cf 343f f59a 04bf b0d4 933e 3ec0 c73f

body.block2.norm.running_var f4 [32]
2.0830653 1.0974169 1.1621889 3.4350128 2.6469162 2.246386 1.4821941 3.3403645
1.360263 2.7215042 1.4318471 0.9457461 1.8329647 2.2446506 1.3700395 3.1188269
2.043828 2.07092 2.0985081 1.8120931 1.728527 2.523674 1.1789634 3.9428482
2.339758 2.925391 2.0128148 3.949018 1.9926766 2.19168 2.782562 1.8437935
00000000: f150 0540 2878 8c3f 9bc2 943f 40d7 5b40
00000010: 1367 2940 cac4 0f40 89b8 bd3f 88c8 5540
00000020: 191d ae3f 202d 2e40 c446 b73f 6b1c 723f
00000030: 969e ea3f 5ba8 0f40 745d af3f dc9a 4740
00000040: 14ce 0240 f489 0440 f54d 0640 abf2 e73f
00000050: 5f40 dd3f e083 2140 46e8 963f a057 7c40
00000060: 98be 1540 9b39 3b40 f5d1 0040 b6bc 7c40
00000070: 0710 ff3f 7c44 0c40 7f15 3240 6d01 ec3f

body.block3.conv.weight f4 [32, 32, 3, 3]
-0.017103417 -0.00071092404 0.006064149 -0.019704523 -0.015683513 -0.023586206 0.045339383 -0.046778414
-0.017994028 0.050087135 0.04275134 -0.05156088 -0.05819487 -0.012432304 -0.08443284 -0.017543055
-0.025927959 -0.07424913 -0.02154353 0.027591309 -0.03130931 -0.0052100047 0.07505827 -0.0014136839
0.04528462 0.045715954 -0.016452208 0.04463234 0.017163511 0.00057529076 0.033286422 0.0070833834
0.013125663 -0.016603658 -0.0294211 0.011433304 0.04493888 0.025376068 0.020298846 0.05191023
0.025826307 -0.0075408253 -0.01803481 -0.015021205 -0.0049316795 -0.022672888 -0.016827911 -0.040364947
-0.044612594 -0.042982616 -0.056248106 -0.16096829 -0.08516675 -0.08286665 -0.042163976 -0.051731974
-0.005884369 -0.01344573 -0.029109227 -0.009693555 -0.003423402 -0.020098425 0.0119983265 0.032339618
0.029111726 0.025032919 0.028833067 0.031986948 0.04427283 -1.3840056e-05 -0.0025696694 0.027056754
-0.014771215 -0.017237356 0.00020741687 -0.040700167 0.022161998 0.020007228 -0.054264702 0.01611699
0.012473115 0.041944697 0.06717028 0.032286245 0.027670873 0.078648165 0.03637177 -0.014126402
-0.022525003 0.024175871 -0.016867299 -0.016919369 -0.07721206 -0.014175481 0.00031650302 -0.07952359
0.07915251 0.05171514 -0.056278646 -0.040638898 -0.0036807752 0.0042968127 -0.08028403 -0.045972686
-0.02435316 -0.05138307 -0.021428823 -0.03218669 -0.045709368 -0.043057393 -0.039586183 -0.06568236
-0.05567404 -0.061149362 0.016957557 0.032531656 -0.029172316 -0.10941232 -0.08360576 -0.09935718
-0.15776487 -0.12916467 -0.14630106 -0.060760494 -0.08853522 -0.09475938 -0.01895566 -0.0015659997
-0.07304653 -0.07002331 -0.016668463 -0.08071831 -0.15479958 -0.085439645 -0.13908377 -0.08853537
-0.09361995 -0.09956779 -0.11601037 -0.09572688 -0.10341734 -0.05191477 -0.05012274 -0.046582673
-0.068870164 -0.05627482 -0.043814752 -0.107603066 -0.073241085 -0.0641549 0.024777202 0.01552284
-0.023875201 -0.016736925 -0.0023717843 0.012350463 0.048360184 0.030321648 0.05970373 0.09680061
0.05671834 0.0398928 -0.10391619 -0.08270828 -0.029951552 -0.06904637 -0.06471845 -0.04130397
0.025701078 0.019990433 -0.019307237 -0.09867873 -0.11660936 -0.054980006 -0.055065118 -0.12770163
-0.104515314 0.036706198 -0.063962385 -0.058090128 -0.063735574 -0.011305245 -0.063499786 -0.10317092
-0.07286809 -0.049554173 -0.21332608 -0.1608202 -0.13036032 -0.13086268 -0.08084936 -0.1319623
-0.111141145 -0.10680263 -0.09136671 0.02945697 -0.012875821 -0.009115687 0.02122786 0.06383773
-0.039827887 -0.03179238 0.040054154 -0.084852055 0.043497026 0.079098314 -0.057088472 0.023087075
0.015977481 -0.022635158 0.020318499 0.018271443 -0.03491565 -0.00066932786 0.0012116424 -0.036541875
-0.0063555804 -0.01818591 -0.038065273 -0.062312596 0.0740631 -0.023936592 -0.00989522 0.064769775
-0.011468503 0.008638003 -0.013830618 0.019843211 0.004691154 -0.036310863 0.019353945 0.02608304
0.01158556 0.025838364 -0.03792712 -0.034782987 0.0036317958 -0.016374592 -0.023036618 -0.0041719424
0.060190205 0.009380747 0.01908498 -0.003716644 0.019966317 -0.01811275 -0.05805939 -0.056505986
-0.05715535 -0.1120612 -0.0727994 -0.082140714 0.000580732 -0.028450714 -0.047406454 0.0008293437
00000000: 771c 8cbc 4e5d 3aba c5b5 c63b 616b a1bc
00000010: b67a 80bc dc37 c1bc cab5 393d b99a 3fbd
00000020: 3668 93bc 2b28 4d3d 071c 2f3d 8031 53bd
00000030: be5d 6ebd ddb0 4bbc 20eb acbd 74b6 8fbc
00000040: df66 d4bc ee0f 98bd 0f7c b0bc 2b07 e23c
00000050: 313e 00bd b0b8 aabb 26b8 993d 5c4b b9ba
00000060: 5e7c 393d a740 3b3d c8c6 86bc 67d0 363d
00000070: 7e9a 8c3c 1ccf 163a 5857 083d ba1b e83b
00000080: 050d 573c 6504 88bc 8504 f1bc c152 3b3c
00000090: d511 383d 79e1 cf3c c449 a63c d29f 543d
000000a0: b191 d33c 0719 f7bb bdbd 93bc 801b 76bc
000000b0: ed99 a1bb 7ebc b9bc b0da 89bc b755 25bd
000000c0: b2bb 36bd 8a0e 30bd 6a64 66bd dfd4 24be
000000d0: e86b aebd fdb5 a9bd 22b4 2cbd e8e4 53bd
000000e0: aad1 c0bb 7b4b 5cbc 7976 eebc b7d1 1ebc
000000f0: 285b 60bb 74a5 a4bc a194 443c 8c76 043d
00000100: b77b ee3c d611 cd3c 5333 ec3c bf04 033d
00000110: 6d57 353d 9732 68b7 e667 28bb 20a6 dd3c
00000120: f702 72bc 5b35 8dbc 0b7e 5939 38b5 26bd
00000130: 148d b53c 33e6 a33c aa44 5ebd c707 843c
00000140: 095c 4c3c 34ce 2b3d 9290 893d 953e 043d
00000150: 07ae e23c 4a12 a13d 91fa 143d 6d72 67bc
00000160: 5b86 b8bc 7a0c c63c 4a2d 8abc 7d9a 8abc
00000170: 5b21 9ebd 4740 68bc 51f0 a539 44dd a2bd
00000180: b61a a23d 41d3 533d 7084 66bd f974 26bd
00000190: 2939 71bb 47cc 8c3b f46b a4bd db4d 3cbd
000001a0: 4780 c7bc 0e77 52bd 808b afbc 31d6 03bd
000001b0: bf39 3bbd f35c 30bd 1f25 22bd 7984 86bd
000001c0: 760a 64bd c177 7abd 93ea 8a3c ea3f 053d
000001d0: c8fa eebc 9113 e0bd 7f39 abbd c77b cbbd
000001e0: 1d8d 21be be43 04be f2cf 15be ffdf 78bd
000001f0: f451 b5bd 3511 c2bd e648 9bbc 3b42 cdba
00000200: 6b99 95bd 6268 8fbd 4d8c 88bc a44f a5bd
00000210: c883 1ebe fbfa aebd fa6b 0ebe 0852 b5bd
00000220: d1bb bfbd 33ea cbbd d896 edbd 740c c4bd
00000230: 78cc d3bd 95a4 54bd 814d 4dbd 79cd 3ebd
00000240: cd0b 8dbd 6d80 66bd 1977 33bd ff5e dcbd
00000250: 6cff 95bd a563 83bd 8ff9 ca3c 8353 7e3c
00000260: ed95 c3bc e01b 89bc f06f 1bbb 9959 4a3c
00000270: 5415 463d 1b65 f83c e68b 743d 663f c63d
00000280: 7d51 683d a266 233d 03d2 d4bd f562 a9bd
00000290: f55c f5bc 2f68 8dbd 1b8b 84bd 5a2e 29bd
000002a0: 118b d23c fac2 a33c 362a 9ebc 1318 cabd
000002b0: e3d0 eebd b732 61bd f68b 61bd 37c4 02be
000002c0: 200c d6bd 3d59 163d b6fe 82bd eaef 6dbd
000002d0: cc87 82bd a239 39bc 2d0c 82bd 464b d3bd
000002e0: dd3b 95bd 51f9 4abd 2772 5abe 0dae 24be
000002f0: 2d7d 05be de00 06be 5994 a5bd 2021 07be
00000300: f89d e3bd 56bb dabd 781e bbbd be4f f13c
00000310: 1cf5 52bc f659 15bc 0de6 ad3c 5bbd 823d
00000320: 9122 23bd ba38 02bd d30f 243d eac6 adbd
00000330: f029 323d 4cfe a13d 9ad5 69bd 1b21 bd3c
00000340: 35e3 823c 5e6d b9bc fb72 a63c fead 953c
00000350: b603 0fbd d575 2fba f9cf 9e3a efac 15bd
00000360: 7942 d0bb 9efa 94bc 55ea 1bbd 7e3b 7fbd
00000370: 65ae 973d ac16 c4bc 901f 22bc 04a6 843d
00000380: 63e6 3bbc 6986 0d3c d199 62bc 3b8e a23c
00000390: 41b8 993b b3ba 14bd 2a8c 9e3c 19ac d53c
000003a0: 5cd1 3d3c faaa d33c 7859 1bbd 9b78 0ebd
000003b0: 6c03 6e3b 0224 86bc 4ab7 bcbc cab4 88bb
000003c0: 018a 763d b4b1 193c 1b58 9c3c f092 73bb
000003d0: 6790 a33c 3161 94bc afcf 6dbd d272 67bd
000003e0: ba1b 6abd 5880 e5bd da17 95bd 6439 a8bd
000003f0: 443c 183a 7911 e9bc 452d 42bd 5068 593a

body.block3.conv.bias f4 [32]
-0.038805146 0.011534933 -0.032251284 -0.0085904915 0.025382867 0.015753234 -0.001882078 -0.024048658
-0.03978183 -0.015536383 -0.024254763 -0.045781817 -0.02263676 0.026454084 0.008568252 0.0104639055
-0.04499737 0.0041043162 -0.06328378 0.036627006 0.012692834 0.043037076 -0.03567998 0.04267938
-0.018681502 -0.061476633 0.0038868582 0.023774052 -0.032800492 0.03566746 0.024826456 0.05649606
00000000: 25f2 1ebd 04fd 3c3c ec19 04bd 22bf 0cbc
00000010: bbef cf3c ed0c 813c 0fb0 f6ba b101 c5bc
00000020: 46f2 22bd 508c 7ebc edb1 c6bc b785 3bbd
00000030: ba70 b9bc 3cb6 d83c db61 0c3c cd70 2b3c
00000040: 2a4f 38bd 807d 863b ed9a 81bd 3306 163d
00000050: 9bf5 4f3c a547 303d 2c25 12bd 93d0 2e3d
00000060: f309 99bc ecce 7bbd a9ba 7e3b cdc1 c23c
00000070: cf59 06bd 0b18 123d da60 cb3c 6a68 673d

body.block3.norm.weight f4 [32]
0.86087114 0.93119204 0.92128855 0.8127526 0.9164214 0.90051043 0.72913057 0.8177078
0.73417217 0.7749557 0.9545086 0.6076085 0.71429485 0.85887796 0.7309502 0.9631301
0.6834454 0.7905215 0.8658713 0.8837361 0.96518785 0.75189614 0.803432 0.7238221
0.8346893 0.842732 0.71247596 0.90342945 0.80785245 0.88309175 0.5805209 0.98051643
00000000: 0d62 5c3f 9a62 6e3f 91d9 6b3f 8e10 503f
00000010: 989a 6a3f da87 663f 4da8 3a3f 4c55 513f
00000020: b5f2 3b3f 7f63 463f ad5a 743f 3b8c 1b3f
00000030: 07dc 363f 6ddf 5b3f 8d1f 3b3f b28f 763f
00000040: 47f6 2e3f 9e5f 4a3f bea9 5d3f 873c 623f
00000050: 8d16 773f 447c 403f b8ad 4d3f 684c 393f
00000060: 33ae 553f 49bd 573f d364 363f 2747 673f
00000070: 6bcf 4e3f 4d12 623f 059d 143f 2003 7b3f

body.block3.norm.bias f4 [32]
-0.07067083 -0.45780194 -0.16146453 -0.2388823 -0.13743839 -0.10953333 -0.3736144 -0.13060193
-0.15009111 -0.28600168 -0.2523999 -0.3606455 -0.16226119 -0.25450113 -0.22515206 6.749875e-06
-0.33788285 -0.16803177 0.013393342 -0.06440394 -0.31536934 -0.24855456 -0.048325364 -0.29812783
-0.09798615 0.0046825535 -0.30425286 0.038367424 -0.26980898 -0.14898159 -0.2729145 -0.12623219
00000000: debb 90bd 0465 eabe f556 25be 909d 74be
00000010: a6bc 0cbe 0353 e0bd 634a bfbe 83bc 05be
00000020: 7cb1 19be d06e 92be 8f3a 81be 87a6 b8be
00000030: cc27 26be f94d 82be 438e 66be fc7c e236
00000040: fbfe acbe 8510 2cbe bf6f 5b3c 37e6 83bd
00000050: 1778 a1be 1685 7ebe d1f0 45bd 36a4 98be
00000060: f6ac c8bd 1b70 993b 08c7 9bbe 2927 1d3d
00000070: 6724 8abe a18e 18be 73bb 8bbe 0343 01be

body.block3.norm.running_mean f4 [32]
-2.5761476 -0.83474576 -0.41710824 -1.1592479 -1.5268449 0.024053892 -0.5067499 -1.4872231
-0.8856628 -1.5422882 0.14100917 -1.1053704 -0.9609294 -1.202622 -1.5014579 0.018756455
-1.2142729 -0.92726445 -0.20440288 -1.0813407 0.8642427 -0.98742795 -0.7841805 -1.0583858
-1.2862664 -0.99320203 -0.89124644 -0.4679637 -0.5516217 0.5484979 -1.1285789 -0.5267985
00000000: 9adf 24c0 e6b1 55bf 368f d5be 3c62 94bf
00000010: a76f c3bf ab0c c53c 5dba 01bf 545d bebf
00000020: ccba 62bf b369 c5bf b564 103e c77c 8dbf
00000030: 78ff 75bf 85ef 99bf c62f c0bf 23a7 993c
00000040: 4b6d 9bbf 3461 6dbf fd4e 51be 5f69 8abf
00000050: 023f 5d3f 14c8 7cbf 0ec0 48bf 3079 87bf
00000060: 61a4 a4bf 7d42 7ebf ba28 64bf f098 efbe
00000070: 1437 0dbf 5c6a 0c3f 4675 90bf 44dc 06bf

body.block3.norm.running_var f4 [32]
16.414043 5.609594 12.927504 5.2791505 7.434143 11.8012905 16.564405 5.229963
10.84784 5.032215 8.871577 8.346969 9.594922 6.899416 5.7789 6.9150105
13.169806 6.5938573 5.2514215 6.116442 8.472702 7.3733034 17.855335 7.548377
5.68718 2.511843 16.92315 6.931227 5.8915434 10.052371 9.93203 8.491116
00000000: f64f 8341 cb81 b340 0ed7 4e41 cdee a840
00000010: 80e4 ed40 16d2 3c41 e783 8441 db5b a740
00000020: c190 2d41 e807 a140 fbf1 0d41 2f8d 0541
00000030: cd84 1941 04c8 dc40 c0ec b840 c447 dd40
00000040: 86b7 5241 e100 d340 a50b a840 e5b9 c340
00000050: 3090 0741 1af2 eb40 bad7 8e41 4e8c f140
00000060: 61fd b540 09c2 2040 9c62 8741 9dcc dd40
00000070: 8687 bc40 83d6 2041 98e9 1e41 9cdb 0741

tail.0.weight f4 [3, 32, 3, 3]
0.009982466 -0.0049533234 -0.016551351 -0.021996832 0.008956905 0.03301818 -0.015137608 0.007050748
0.042531196 0.016032215 -0.0022610954 -0.014101002 0.021945877 -0.006187274 0.022590168 -0.03143445
-0.025290871 -0.028847408 0.052479606 0.02101227 0.034808874 0.0364542 -0.008960763 -0.03190766
0.006735112 -0.011392454 -0.043190427 0.0310272 -0.0040681595 -0.048685804 -0.012097204 -0.03984262
-0.010757858 0.057287678 0.03652846 0.05612238 0.012496801 0.013306514 -0.031086227 -0.010732387
-0.0038577062 -0.022783536 -0.050832015 -0.012330387 -0.03910464 0.011616083 0.027923953 0.030238356
0.024803052 0.036981035 -0.0057315044 -0.03466041 -0.028075527 -0.010581926 0.015641697 -0.01759993
0.005499672 -0.00078347017 -0.0074286824 -0.02041181 0.05447296 0.057205234 0.026930483 -0.013665295
-0.028838642 -0.015729262 -0.0031693128 -0.0019508335 -0.0004384858 -0.02287551 -0.006435112 -0.013704429
-0.04452263 0.005362035 -0.0017329395 -0.037162192 -0.003609933 0.0027552033 0.035926234 0.0033803284
-0.010902236 -0.009177118 -0.015380495 0.009685745 0.023732396 0.03399183 0.011983971 0.006521881
0.008009239 0.0048001586 0.024387117 0.03922365 0.06027681 0.00816921 -0.02072429 -0.031984452
-0.028623447 -0.02221659 0.02299421 0.010083892 0.008222304 0.004252052 0.010686101 0.008301967
0.005026641 0.0012204781 -0.020545498 -0.019620698 -0.034467172 0.0041685523 0.015755983 0.0042809406
0.022401787 -0.007182746 -0.006114804 0.021167813 -0.026513387 0.024787694 -0.002941203 -0.003858721
0.03451977 -0.02607899 -0.04499138 0.056168184 0.037957452 -0.0031591167 -0.0005342085 0.020687625
-0.040845957 -0.0016434389 0.001791803 -0.042148612 -0.0038543788 -0.0059961225 -0.006739803 0.0021332009
0.021999096 0.04127548 -0.01649784 -0.026757723 -0.032325193 -0.020289382 -0.011632246 -0.020754676
-0.0086698495 -0.016510649 0.0056102104 -8.4267325e-05 -0.031164628 0.0047506345 0.02719519 0.0063050017
0.023151232 -0.041442633 0.023037987 0.02242642 -0.022426685 0.011760017 0.014087713 -0.047210682
-0.016440835 0.027152708 -0.0044076145 -0.012190346 0.0021785148 0.046830434 0.008269026 -0.02567944
0.05691373 0.0019845406 -0.046970934 -0.024446476 -0.013593928 -0.0004007216 -0.020297641 0.005144172
0.010825506 -0.08785128 -0.03797341 -0.027065217 0.024344949 0.04003218 0.09076854 0.0011431103
-0.005713513 -0.014784067 0.014637594 0.016909799 0.03315249 0.023251731 0.0059850696 0.017074395
0.015925238 -0.0175777 0.019222775 0.002642895 0.0008259661 -0.015904522 0.035606626 0.037051503
0.003160869 -0.0009384304 -0.020128625 -0.014690399 0.020201236 -0.013006611 0.008915392 0.0038535974
-0.02121517 -0.022569066 0.00942158 -0.0048883995 0.017970381 -0.010492212 -0.0009600608 0.011629008
-0.035054494 -0.05371956 0.0057404176 0.0113669 0.029501582 0.00416836 0.0005671202 -0.01660379
-0.056051347 0.01178668 0.008693104 0.011998971 -0.026766503 0.017485233 0.042219106 -0.04950042
-0.0077018617 0.0153924115 0.059735455 0.03490757 0.012295166 0.026237674 0.0042884164 -0.0090330355
0.030845912 -0.010683831 -0.010659711 -0.017675942 -0.014026734 -0.013009305 0.016948236 0.0024976868
-0.0067995754 0.06306978 0.042501815 0.04053406 0.004202285 -0.0026098762 -0.017204547 0.01965033
00000000: 7f8d 233c 7d4f a2bb b396 87bc b332 b4bc
00000010: fcbf 123c 123e 073d bb03 78bc f609 e73b
00000020: 3135 2e3d fe55 833c e32e 14bb e407 67bc
00000030: d7c7 b33c 9ebe cabb 040f b93c 69c1 00bd
00000040: cd2e cfbc 6651 ecbc dbf4 563d ed21 ac3c
00000050: c093 0e3d 0051 153d 2ad0 12bc 9bb1 02bd
00000060: 37b2 dc3b 6aa7 3abc 72e8 30bd c12c fe3c
00000070: 324e 85bb c46a 47bd 5a33 46bc 0432 23bd
00000080: ba41 30bc 7ca6 6a3d de9e 153d 95e0 653d
00000090: 62bf 4c3c 9103 5a3c 8ba8 febc e5d6 2fbc
000000a0: 92d1 7cbb 8aa4 babc 3b35 50bd 6405 4abc
000000b0: 302c 20bd 6251 3e3c c6c0 e43c 6eb6 f73c
000000c0: c52f cb3c 6d79 173d 58cf bbbb 13f8 0dbd
000000d0: a6fe e5bc d15f 2dbc 0423 803c ba2d 90bc
000000e0: 9836 b43b cb61 4dba 4e6c f3bb ab36 a7bc
000000f0: 0a1f 5f3d 0950 6a3d 519d dc3c 67e4 5fbc
00000100: 043f ecbc a7da 80bc 3fb4 4fbb 1cb3 ffba
00000110: 91e4 e5b9 6c65 bbbc a2dd d2bb 8b88 60bc
00000120: 5c5d 36bd 02b4 af3b cd23 e3ba 6237 18bd
00000130: a094 6cbb a490 343b 6327 133d 8088 5d3b
00000140: 4b9f 32bc 9f5b 16bc 79fe 7bbc f6b0 1e3c
00000150: 716a c23c 043b 0b3d 6b58 443c 81b5 d53b
00000160: 2f39 033c a64a 9d3b 7ec7 c73c faa8 203d
00000170: d1e4 763d 26d8 053c fcc5 a9bc 2102 03bd
00000180: b87b eabc 91ff b5bc 5a5e bc3c e936 253c
00000190: d8b6 063c cc54 8b3b c214 2f3c f904 083c
000001a0: 85b6 a43b 73f8 9f3a 084f a8bc 96bb a0bc
000001b0: 732d 0dbd 5a98 883b b112 813c 2247 8c3b
000001c0: f483 b73c 3e5d ebbb b25e c8bb 1f68 ad3c
000001d0: 9a32 d9bc 900f cb3c 33c1 40bb 98e2 7cbb
000001e0: 9a64 0d3d 9ba3 d5bc e248 38bd 9c10 663d
000001f0: 4679 1b3d 2f09 4fbb 200a 0cba 1879 a93c
00000200: 174e 27bd a968 d7ba efda ea3a 06a4 2cbd
00000210: bf99 7cbb 1f7b c4bb 91d9 dcbb 2ccd 0b3b
00000220: 7337 b43c 7a10 293d 7a26 87bc 0333 dbbc
00000230: 6c67 04bd eb35 a6bc 2d95 3ebc b605 aabc
00000240: fc0b 0ebc 5741 87bc dbd5 b73b adb8 b0b8
00000250: f64c ffbc 36ab 9b3b 72c8 de3c 309a ce3b
00000260: a7a7 bd3c c0bf 29bd 29ba bc3c 9db7 b73c
00000270: 2bb8 b7bc 16ad 403c 27d0 663c fd5f 41bd
00000280: eeae 86bc 5b6f de3c c06d 90bb 04ba 47bc
00000290: 6ac5 0e3b 45d1 3f3d cf7a 073c b05d d2bc
000002a0: 5f1e 693d 110f 023b 9864 40bd fa43 c8bc
000002b0: 11b9 5ebc f117 d2b9 3d47 a6bc 7190 a83b
000002c0: 775d 313c 5feb b3bd 028a 1bbd e0b7 ddbc
000002d0: 0f6f c73c c8f8 233d dbe4 b93d 6bd4 953a
000002e0: 6c38 bbbb df38 72bc 85d2 6f3c 6b86 8a3c
000002f0: e8ca 073d 6a7a be3c 671e c43b 9adf 8b3c
00000300: a575 823c 1cff 8fbc 1579 9d3c 6c34 2d3b
00000310: a685 583a 334a 82bc 41d8 113d 51c3 173d
00000320: 9526 4f3b 0001 76ba c9e4 a4bc 00b0 70bc
00000330: 107d a53c ae19 55bc dd11 123c a38c 7c3b
00000340: 70cb adbc c3e2 b8bc f85c 1a3c de2e a0bb
00000350: 9f36 933c 87e7 2bbc 97ac 7bba 9887 3e3c
00000360: 4d95 0fbd 0b09 5cbd 1d1a bc3b 3c3c 3a3c
00000370: 4dad f13c bd96 883b cbaa 143a ac04 88bc
00000380: 1996 65bd eb1c 413c 856d 0e3c 5597 443c
00000390: 6d45 dbbc 313d 8f3c f1ed 2c3d f4c0 4abd
000003a0: e65f fcbb 7430 7c3c 2aad 743d 3dfb 0e3d
000003b0: aa71 493c 64f0 d63c d885 8c3b 4cff 13bc
000003c0: 91b0 fc3c 3c0b 2fbc 12a6 2ebc 23cd 90bc
000003d0: 63d0 65bc fb24 55bc 07d7 8a3c 3bb0 233b
000003e0: f9ce debb bb2a 813d 6216 2e3d 0b07 263d
000003f0: 52b3 893b 750a 2bbb 8df0 8cbc bbf9 a03c

tail.0.bias f4 [3]
-0.15305047 -0.047818255 -0.037763704
00000000: 43b9 1cbe 13dd 43bd 1dae 1abd
