SinGan/TrainedModels/cows/scale_factor=0.750000,alpha=10/0/netG.pth (torch_old, 125197 bytes, 26 tensors)

head.conv.weight f4 [32, 3, 3, 3]
-0.00807989 0.0032247645 0.021000898 -0.012846406 0.009512148 -0.0122928955 0.018833248 0.044298694
-0.14319807 0.008423999 0.010047201 0.0004910706 0.008675058 -0.014442713 0.020522766 0.004061308
0.00587097 -0.14495127 0.0065529426 -0.0060561746 -0.020112086 0.004253966 -0.0029640002 0.0022796802
0.010282691 0.033346593 -0.15560989 -0.022286516 0.012463851 0.27820012 0.0037373882 -0.010370164
-0.022432338 -0.012729671 -0.0055652983 0.00092417916 0.021788156 -0.016436959 0.22572237 -0.01932159
0.0012890111 0.04822129 0.014174375 0.012573555 0.011921252 -0.0137897 0.012880913 0.30899096
0.012312068 0.008370878 -0.02657194 0.002113018 -0.00923599 -0.010412368 -0.022661222 -0.055030093
0.033045504 0.013159747 0.0017933443 -0.04436506 -0.050744895 0.057998773 0.076956265 0.002974356
-0.004638564 0.0048831487 0.037236277 -0.026428893 -0.0057964483 -0.0292787 0.05537741 0.07959209
-0.012202293 -0.06470018 -0.010032477 0.041602664 0.003688531 -0.0357256 -0.019936867 0.063018896
0.08873423 -0.0014142173 0.035367314 -0.09360278 -0.010748902 0.018594038 0.08363182 0.0020294914
-0.019322483 0.005935233 0.024144374 0.008296872 -0.11153588 0.028811878 0.0023436255 0.09124167
0.014012937 0.016713152 0.019128188 0.016009366 0.0131375035 -0.115417555 0.027805913 0.002443029
0.07002686 0.00926614 0.035156816 -0.0057583214 -0.051415373 -0.10969663 0.15033105 -0.022727141
0.008036485 0.00033378505 -0.010540707 0.018770892 -0.036356427 0.013801637 -0.096374825 0.11918223
0.01197804 0.008657307 -0.014982681 0.007286687 0.023619575 0.008462379 -0.0030475594 -0.080628514
0.10604268 2.730622e-05 0.01832321 -0.022108529 0.03963113 -0.008713936 0.034576148 0.006639778
0.008299475 0.017581318 -0.012845112 -0.015847946 0.004425006 0.08312159 0.1296234 -0.050496697
-0.0087874755 -0.006855053 -0.014887882 0.008204645 -0.009574449 -0.0045307553 0.0963565 0.16774271
-0.055075098 -0.00020278017 -0.0029519745 -0.0041629337 0.00526852 0.031339265 0.0029036624 0.088464916
0.18217942 -0.062659346 -0.014812583 -0.06236389 -0.010787028 0.001532376 -0.025216477 0.011054429
0.28728464 0.0025261901 0.06563197 0.004493225 0.027377147 0.008080166 -0.0059617152 0.033041235
-0.010998163 0.3027351 -0.02427095 0.010946302 0.008457759 0.034592774 0.0021988298 0.008817748
-0.0032328477 0.0065574674 0.29017502 -0.019658014 0.021725569 0.014853231 0.015896404 -0.0025026738
-0.017529793 -0.003298841 0.031100888 -0.16502221 0.07101103 -0.018995253 0.00593612 -0.0038084374
0.0021944954 0.011030654 0.0071623074 -0.023973843 -0.15123178 0.086814396 0.032834873 -0.021519193
-0.012381181 -0.0027595218 0.007410634 -0.0007024838 -0.0054253815 -0.16819303 0.0981609 0.013032761
-0.021074826 0.00090009155 -0.011958844 -0.0016596677 -0.024724633 0.037619293 0.24749583 0.031330954
0.00079993746 0.013080424 4.1740195e-06 -0.01746844 -0.008984267 0.02212699 -0.05429183 0.19959682
-0.0014942422 -0.0051377467 0.006020486 -2.1125505e-05 0.028518641 0.013938594 0.0050631966 0.01903355
0.19387834 -0.025831934 0.031211093 -0.023571758 0.041786928 0.2664952 -0.024758913 0.00039882679
0.0079502165 0.007641422 -0.031565018 -1.643291e-05 0.0062513268 -0.013234881 0.27420783 0.027236972
00000000: 8461 04bc 9256 533b 130a ac3c bb79 52bc
00000010: d7d8 1b3c 2468 49bc 2f48 9a3c 8c72 353d
00000020: 84a2 12be d004 0a3c 049d 243c 31bb 003a
00000030: d521 0e3c 21a1 6cbc 5c1f a83c b914 853b
00000040: 4461 c03b 1b6e 14be 11ba d63b e072 c6bb
00000050: 1ac2 a4bc da64 8b3b ac3f 42bb b066 153b
00000060: bb78 283c 7096 083d 3358 1fbe 3692 b6bc
00000070: 2e35 4c3c 3f70 8e3e f8ee 743b 9fe7 29bc
00000080: 06c4 b7bc 1c90 50bc 1b5d b6bb 9d44 723a
00000090: 137d b23c cda6 86bc c423 673e 5048 9ebc
000000a0: 09f4 a83a b083 453d a33b 683c 5001 4e3c
000000b0: 5b51 433c 32ee 61bc 770a 533c 1034 9e3e
000000c0: 8eb8 493c 0226 093c 66ad d9bc 8f7a 0a3b
000000d0: 8d52 17bc a398 2abc 07a4 b9bc 3c67 61bd
000000e0: b95a 073d fb9b 573c a60e eb3a 23b8 35bd
000000f0: e1d9 4fbd 1f90 6d3d 3f9b 9d3d 6aed 423b
00000100: 18ff 97bb d202 a03b 1185 183d 6881 d8bc
00000110: 22f0 bdbb e2d9 efbc 6cd3 623d 2d01 a33d
00000120: 20ec 47bc 8781 84bd 425f 24bc 8e67 2a3d
00000130: 48bb 713b 0255 12bd a452 a3bc 0d10 813d
00000140: 4bba b53d 425d b9ba 51dd 103d d0b2 bfbd
00000150: 2a1c 30bc 8652 983c 2947 ab3d 3701 053b
00000160: 2f4a 9ebc 587c c23b 6cca c53c 9aef 073c
00000170: ec6c e4bd e306 ec3c 8397 193b eadc ba3d
00000180: 8596 653c 05ea 883c b8b2 9c3c 1326 833c
00000190: af3e 573c 0a60 ecbd 3ac9 e33c 3a1b 203b
000001a0: 3e6a 8f3d 02d1 173c 9800 103d 4db0 bcbb
000001b0: ed98 52bd a0a8 e0bd 62f0 193e 452e babc
000001c0: 76ab 033c dfff ae39 eeb2 2cbc 6ac5 993c
000001d0: 7aea 14bd 4320 623c 2a60 c5bd d015 f43d
000001e0: 8b3f 443c 61d7 0d3c eb79 75bc 29c5 ee3b
000001f0: d77d c13c caa5 0a3c 90b9 47bb 9020 a5bd
00000200: e82c d93d a90f e537 8e1a 963c f21c b5bc
00000210: 4054 223d e6c4 0ebc b89f 0d3d 7f92 d93b
00000220: 85fa 073c b206 903c 4e74 52bc 8dd3 81bc
00000230: a4ff 903b a73b aa3d ffbb 043e a0d5 4ebd
00000240: 58f9 0fbc 5aa0 e0bb 4eec 73bc c66c 063c
00000250: 26de 1cbc bb76 94bb 8f56 c53d bfc4 2b3e
00000260: 6d96 61bd 63a1 54b9 ea75 41bb 3869 88bb
00000270: 8da3 ac3b 9a5d 003d 5f4b 3e3b 182d b53d
00000280: 3e8d 3a3e 8b53 80bd 7ab0 72bc 4771 7fbd
00000290: 13bc 30bc 02da c83a c992 cebc a31d 353c
000002a0: f916 933e 708e 253b 0e6a 863d e73b 933b
000002b0: 0a46 e03c ac62 043c 7e5a c3bb 3f56 073d
000002c0: a431 34bc 1800 9b3e dfd3 c6bc 1e58 333c
000002d0: 6a92 0a3c 27b1 0d3d 3e1a 103b 5178 103c
000002e0: 2fde 53bb 06e0 d63b d291 943e d809 a1bc
000002f0: d2f9 b13c f75a 733c 2d39 823c e603 24bb
00000300: a49a 8fbc 5e31 58bb 4ac7 fe3c 95fb 28be
00000310: 3b6e 913d ef9b 9bbc c983 c23b fa96 79bb
00000320: 86d1 0f3b ebb9 343c cab1 ea3b cb64 c4bc
00000330: 81dc 1abe bfcb b13d dc7d 063d 0549 b0bc
00000340: 70da 4abc 18d9 34bb e7d4 f23b e426 38ba
00000350: 66c7 b1bb cb3a 2cbe 9508 c93d 5d87 553c
00000360: 1da5 acbc 1ff4 6b3a 07ef 43bc 3589 d9ba
00000370: 508b cabc b016 1a3d 8c6f 7d3e e354 003d
00000380: e5b2 513a 464f 563c 8e0e 8c36 f919 8fbc
00000390: bf32 13bc a943 b53c 1c61 5ebd 1c63 4c3e
000003a0: 73da c3ba 8b5a a8bb 7f47 c53b ad36 b1b7
000003b0: ed9f e93c b35e 643c 2ce9 a53b 3fec 9b3c
000003c0: 0b88 463e 7e9d d3bc 68ae ff3c 8f19 c1bc
000003d0: c528 2b3d 0f72 883e 34d3 cabc a019 d139
000003e0: a041 023c e564 fa3b 524a 01bd 68d9 89b7
000003f0: eed7 cc3b 1dd7 58bc f864 8c3e 1220 df3c

head.conv.bias f4 [32]
-0.18732212 -0.15643284 0.04505618 -0.047953486 -0.12472695 -0.022321945 0.09693922 0.025905542
-0.16617681 -0.00730052 0.07905338 0.089554034 -0.08050088 0.13397554 -0.15165085 0.16698503
-0.02910333 0.0075878003 0.10244728 -0.0045702355 0.068598956 0.1396551 0.14188823 -0.09165088
0.15024905 -0.07871898 -0.011908017 0.17216586 0.07518044 0.17017074 -0.015627347 0.066585444
00000000: 5fd1 3fbe ee2f 20be d48c 383d e06a 44bd
00000010: d870 ffbd 83dc b6bc 1288 c63d dc37 d43c
00000020: 412a 2abe 3339 efbb bde6 a13d 1b68 b73d
00000030: a5dd a4bd e230 093e 5c4a 1bbe 20fe 2a3e
00000040: 1b6a eebc 15a3 f83b e1cf d13d eac1 95bb
00000050: 9c7d 8c3d bf01 0f3e 264b 113e 75b3 bbbd
00000060: e3da 193e 6b37 a1bd d819 43bc 3f4c 303e
00000070: 34f8 993d 3d41 2e3e ec04 80bc f35d 883d

head.norm.weight f4 [32]
1.0041537 1.265189 0.8678721 0.9301399 1.0647126 1.2652684 1.3549632 1.1363358
1.3614258 1.2694039 0.92765725 1.0381985 1.2885836 1.0116256 0.931913 1.1257477
1.1371047 0.8599551 0.95876485 0.94905823 0.9997364 1.1360973 1.0404825 1.0188726
1.092086 1.0051607 1.1073316 1.0760341 1.2970346 0.95611227 1.1593212 1.0857507
00000000: 1c88 803f b7f1 a13f de2c 5e3f a61d 6e3f
00000010: 8148 883f 51f4 a13f 6f6f ad3f 7473 913f
00000020: 3343 ae3f d47b a23f f27a 6d3f b0e3 843f
00000030: 4ff0 a43f f37c 813f da91 6e3f 8018 903f
00000040: a68c 913f 0426 5c3f 9d71 753f 7bf5 723f
00000050: baee 7f3f a36b 913f 882e 853f 6b6a 823f
00000060: 79c9 8b3f 1ba9 803f 0bbd 8d3f 7cbb 893f
00000070: 3b05 a63f c6c3 743f a364 943f e1f9 8a3f

head.norm.bias f4 [32]
-0.03982131 -0.015769249 -0.14063756 -0.0074505545 -0.013744469 -0.006070331 -0.0036983762 -0.00444935
-0.0030377428 -0.0132142855 0.004898829 -0.0062548113 0.0043105134 -0.031790435 -0.059158474 0.0019303971
-0.0072346292 -0.06872325 -0.00035757513 -0.015128645 -0.012488352 -0.003042558 -0.01544542 -0.010326989
-0.009646895 -0.09633621 -0.023050038 0.016527042 0.0050719646 0.00784575 -0.0025517656 -0.019634387
00000000: ac1b 23bd 832e 81bc 4b03 10be c823 f4bb
00000010: 7b30 61bc a1e9 c6bb 7560 72bb dacb 91bb
00000020: de14 47bb bb80 58bc 5b86 a03b 29f5 ccbb
00000030: 353f 8d3b b036 02bd 2850 72bd 6105 fd3a
00000040: 7810 edbb c6be 8cbd ec78 bbb9 23de 77bc
00000050: f29b 4cbc a765 47bb c90e 7dbc 8832 29bc
00000060: 030e 1ebc eb4b c5bd 6fd3 bcbc b863 873c
00000070: b932 a63b 768b 003c 863b 27bb 4bd8 a0bc

head.norm.running_mean f4 [32]
-0.1883163 -0.15384804 0.045627307 -0.047406644 -0.12436864 -0.020444551 0.10000914 0.025277277
-0.16400479 -0.004773573 0.07879053 0.087323554 -0.08422195 0.13281924 -0.15132894 0.16463657
-0.031389568 0.0072419886 0.102383815 -0.0069859587 0.06881645 0.14135592 0.14301516 -0.093956314
0.14989474 -0.08151522 -0.009443464 0.16970365 0.07209821 0.171027 -0.017829843 0.06789425
00000000: fdd5 40be 578a 1dbe b3e3 3a3d 782d 42bd
00000010: fcb4 febd 557b a7bc 98d1 cc3d 4b12 cf3c
00000020: dff0 27be a26b 9cbb ee5c a13d b1d6 b23d
00000030: 8f7c acbd c401 083e f9f5 1abe 7d96 283e
00000040: 5992 00bd 344e ed3b 9bae d13d 78ea e4bb
00000050: a4ef 8c3d 9bbf 103e 9172 123e 2b6c c0bd
00000060: 027e 193e 74f1 a6bd c2b8 1abc cbc6 2d3e
00000070: 3aa8 933d b421 2f3e e40f 92bc 240c 8b3d

head.norm.running_var f4 [32]
0.13406222 0.43521124 0.08885171 0.11197305 0.14835759 0.21765587 0.5179732 0.19540194
0.2713639 0.41642362 0.08770617 0.26995006 0.8491856 0.18728194 0.109321155 0.2732424
0.31447724 0.07791837 0.10188684 0.16713664 0.15055087 0.31640947 0.17537609 0.19332223
0.15782128 0.14179285 0.40400824 0.3523551 0.53749156 0.108386755 0.22555593 0.15273258
00000000: 9b47 093e 02d4 de3e e3f7 b53d 2052 e53d
00000010: 0deb 173e 2ee1 5e3e e499 043f 7217 483e
00000020: 36f0 8a3e 7a35 d53e 4b9f b33d e536 8a3e
00000030: 3a64 593f d6c6 3f3e c5e3 df3d 6ee6 8b3e
00000040: 2903 a13e ab93 9f3d 0caa d03d de25 2b3e
00000050: 022a 1a3e 6c00 a23e ca95 333e 43f6 453e
00000060: e79b 213e 2532 113e 2bda ce3e e367 b43e
00000070: 0c99 093f e0f9 dd3d 22f8 663e ee65 1c3e

body.block1.conv.weight f4 [32, 32, 3, 3]
-0.07679212 0.0012481534 0.04127952 -0.07062731 -0.037635107 -0.0130391745 -0.048673913 0.006294466
0.01355735 -0.0013935218 -0.018469144 0.031812754 -0.0639567 -0.00086417486 -0.0043700184 -0.012501084
-0.039764263 0.017222047 0.050361782 -0.031138357 -0.08201839 0.004657955 -0.034387402 -0.04022623
0.030066166 -0.033398293 -0.028750597 -0.03338943 -0.0349192 -0.012747194 -0.052588448 -0.026013255
-0.0071682907 -0.07225821 -0.019603232 -0.057689946 -0.02879055 -0.028288987 0.061033048 -0.046422996
-0.029632227 -0.0057220403 -0.0338199 -0.0037930384 -0.037863985 -0.027438153 -0.059436604 -0.011046094
-0.04025775 -0.043426014 -0.010674897 -0.059763227 -0.030787498 -0.028908538 0.010079157 -0.0335386
-0.059589434 -0.02690548 -0.037705474 -0.04389863 -0.05385994 -0.037629195 0.017022017 0.009351503
-0.030669354 -4.898508e-05 -0.0007047 0.0097309 -0.04925902 0.026484976 -0.017155806 -0.044501923
0.004836765 -0.012745704 -0.064534895 -0.03754216 -0.038834807 -0.036490615 -0.107239544 -0.008304879
0.016912177 0.022360679 -0.017929872 0.014744021 -0.010587055 -0.056531478 -0.022437898 -0.0037781075
-0.03261517 -0.022532158 -0.028232498 -0.07393547 -0.011036011 -0.08995961 -0.021747231 0.0032970347
-0.04232379 0.011038831 -0.007835833 -0.031344112 0.058786087 0.0034384413 -0.014291948 0.012809223
-0.051076334 0.023576431 -0.0009908507 -0.052990966 -0.039689098 0.009506709 0.026600115 -0.013430394
-0.0021955108 -0.0027390947 -0.048884805 -0.021646988 0.0022188507 -0.046617653 -0.013852554 -0.046089757
-0.14127271 -0.049128395 -0.056451425 -0.0069403457 0.072978474 -0.031976283 0.053292792 0.023591248
-0.047616877 0.04145241 -0.08201569 -0.051194206 0.013070989 -0.042212866 -0.061863523 0.043366
-0.023403198 -0.031730536 0.043658692 0.010231752 -0.034798365 0.0061391396 -0.10118977 -0.036786325
0.016167482 0.07281056 -0.07226721 0.020670569 -0.03630334 -0.050872345 0.022932347 -0.0298913
-0.06172347 0.019661663 -0.047644954 -0.058751684 -0.016210854 -0.044755634 -0.013675072 -0.02427194
-0.008036761 -0.008125069 0.004185843 0.0075489664 -0.044185 -0.011193846 -0.083914414 -0.07616661
0.020048741 -0.03521657 -0.03519204 0.029396774 -0.0005243641 0.005388596 0.03573297 -0.0148039395
-0.004389113 0.023422034 -0.03715327 -0.0007859381 -0.005037633 -0.05398647 0.009980953 -0.011080952
-0.004379637 -0.033805393 -0.06708972 -0.03235989 0.020234806 0.0069033466 -0.008307779 -0.018369649
-0.008197965 -0.056279145 -0.020934442 -0.046250504 0.0038847725 -0.042117316 0.02969958 0.024359135
0.029131372 0.02977501 -0.0095422175 -0.022810457 -0.039660975 -0.029878644 0.0065639503 0.014556656
0.007880593 -0.045793116 0.007991379 0.0068437667 -0.012288553 0.048478797 0.0019076089 -0.0098278755
0.10189273 -0.052383248 -0.0093139745 0.07018046 -0.056829203 -0.0220971 0.08521138 -0.056876354
-0.040842667 -0.08999396 0.05272514 -0.05201911 -0.008153876 0.005294742 -0.039213724 0.0779769
0.024574779 -0.028258359 0.03756572 -0.034195 -0.020654274 -0.0097587835 -0.01557195 -0.016623735
-0.066831626 -0.028392734 0.004978102 -0.081068836 -0.0051041194 0.0037059975 -0.14074515 -0.05354601
-0.02376003 0.013944318 0.06448112 -0.021294275 -0.016878983 0.010742913 0.055778798 -0.032439936
00000000: 3045 9dbd 1499 a33a b714 293d 0da5 90bd
00000010: 4527 1abd 43a2 55bc 4c5e 47bd cf41 ce3b
00000020: a61f 5e3c d5a6 b6ba 9a4c 97bc 174e 023d
00000030: bbfb 82bd cb89 62ba 5f32 8fbb 59d1 4cbc
00000040: dadf 22bd 4015 8d3c 2848 4e3d de15 ffbc
00000050: 42f9 a7bd c2a1 983b ced9 0cbd 42c4 24bd
00000060: 524d f63c a6cc 08bd 5f86 ebbc 5bc3 08bd
00000070: 6f07 0fbd 9bd9 50bc fc66 57bd c019 d5bc
00000080: fbe3 eabb 1dfc 93bd f596 a0bc 4b4c 6cbd
00000090: 29da ebbc 4ebe e7bc cafd 793d 0a26 3ebd
000000a0: 49bf f2bc f47f bbbb bc86 0abd a094 78bb
000000b0: 4417 1bbd fac5 e0bc cc73 73bd adfa 34bc
000000c0: 4fe5 24bd 7adf 31bd c3e5 2ebc 49ca 74bd
000000d0: 1036 fcbc 99d1 ecbc 0c23 253c c55f 09bd
000000e0: 0d14 74bd e268 dcbc 0e71 1abd 0dcf 33bd
000000f0: 3e9c 5cbd 1221 1abd c271 8b3c 0c37 193c
00000100: 4c3e fbbc 5475 4db8 9ebb 38ba 5a6e 1f3c
00000110: d3c3 49bd 05f7 d83c 558a 8cbc a647 36bd
00000120: ba7d 9e3b 5bd3 50bc df2a 84bd cfc5 19bd
00000130: 3f11 1fbd 2f77 15bd 68a0 dbbd 3011 08bc
00000140: 688b 8a3c be2d b73c abe1 92bc e890 713c
00000150: 5475 2dbc 8d8d 67bd afcf b7bc 209a 77bb
00000160: 7c97 05bd 5c95 b8bc d747 e7bc 7b6b 97bd
00000170: 63d0 34bc be3c b8bd 4027 b2bc 1013 583b
00000180: b65b 2dbd 37dc 343c de61 00bc af62 00bd
00000190: aec9 703d 7957 613b c628 6abc c6dd 513c
000001a0: 6b35 51bd 5c23 c13c 6fdf 81ba 0e0d 59bd
000001b0: 0991 22bd 07c2 1b3c 7ce8 d93c 280b 5cbc
000001c0: 8fe2 0fbb 6282 33bb 6f3b 48bd 0655 b1bc
000001d0: 236a 113b 27f2 3ebd d3f5 62bc 9dc8 3cbd
000001e0: cba9 10be db3a 49bd 9c39 67bd d76b e3bb
000001f0: bd75 953d 90f9 02bd 8b49 5a3d 6f42 c13c
00000200: ea09 43bd 01ca 293d d8f7 a7bd 04b1 51bd
00000210: b427 563c 66e7 2cbd 9b64 7dbd 8ca0 313d
00000220: 10b8 bfbc e1f7 01bd 75d3 323d 14a3 273c
00000230: bb88 0ebd d62a c93b 953c cfbd 42ad 16bd
00000240: ab71 843c b41d 953d d500 94bd 5355 a93c
00000250: d0b2 14bd 855f 50bd 9edc bb3c 99de f4bc
00000260: c0d1 7cbd 7f11 a13c 5b27 43bd 9ba5 70bd
00000270: a0cc 84bc af51 37bd 690d 60bc f3d5 c6bc
00000280: 9eac 03bc 021f 05bc 6529 893b 525d f73b
00000290: 55fb 34bd 6566 37bc 52db abbd 3dfd 9bbd
000002a0: 423d a43c 403f 10bd 8725 10bd 81d1 f03c
000002b0: 7b75 09ba d292 b03b bc5c 123d 398c 72bc
000002c0: 8cd2 8fbb 91df bf3c 072e 18bd 6a07 4eba
000002d0: ba12 a5bb eb20 5dbd 2787 233c e28c 35bc
000002e0: 0f83 8fbb 8677 0abd 5666 89bd ce8b 04bd
000002f0: 77c3 a53c 7835 e23b 5a1d 08bc f27b 96bc
00000300: c250 06bc f684 66bd b57e abbc 2b71 3dbd
00000310: ab97 7e3b 3583 2cbd 894c f33c cf8c c73c
00000320: eaa4 ee3c b9ea f33c f656 1cbc ffdc babc
00000330: 8c73 22bd 0fc4 f4bc 6816 d73b 0a7f 6e3c
00000340: 9a1d 013c 9091 3bbd 46ee 023c ad41 e03b
00000350: ed55 49bc b491 463d bc08 fa3a 1905 21bc
00000360: 23ad d03d d18f 56bd a499 18bc c6ba 8f3d
00000370: bdc5 68bd fa04 b5bc 4e83 ae3d 2ef7 68bd
00000380: a44a 27bd c14e b8bd 51f6 573d fe11 55bd
00000390: d697 05bc 847f ad3b 929e 20bd 5ab2 9f3d
000003a0: 0c51 c93c 137e e7bc 83de 193d 0e10 0cbd
000003b0: 2733 a9bc 4ee3 1fbc 7e21 7fbc 802e 88bc
000003c0: 05df 88bd e197 e8bc 591f a33b 6b07 a6bd
000003d0: 7540 a7bb 52e0 723b 7f1f 10be 1053 5bbd
000003e0: 65a4 c2bc b576 643c ad0e 843d 5571 aebc
000003f0: cb45 8abc 0b03 303c 4f78 643d bddf 04bd

body.block1.conv.bias f4 [32]
-0.004603201 0.05429624 0.040538818 0.0068000196 -0.021817042 0.036786254 -0.025456252 -0.017758822
0.007109945 0.009709807 0.038305607 0.019915462 0.010947951 0.050649226 0.057443164 0.00605697
0.027354889 0.022544013 0.040840723 0.005648899 -0.04753034 -0.015849452 -0.046917707 0.007890796
0.054005478 -0.048925567 0.051543236 0.004121894 0.047546484 -0.03969264 0.055821568 -0.005943874
00000000: 73d6 96bb bc65 5e3d 080c 263d b3d2 de3b
00000010: a7b9 b2bc 2fad 163d a189 d0bc f37a 91bc
00000020: 8bfa e83b e215 1f3c 57e6 1c3d c025 a33c
00000030: 095f 333c 9075 4f3d 8649 6b3d 8c79 c63b
00000040: 5c17 e03c 39ae b83c 9a48 273d 661a b93b
00000050: 2caf 42bd b6d6 81bc c82c 40bd 6648 013c
00000060: d934 5d3d 2d66 48bd 001f 533d f410 873b
00000070: 1ac0 423d c094 22bd 28a5 643d d4c4 c2bb

body.block1.norm.weight f4 [32]
0.85194373 1.2954524 0.9115974 0.9448067 0.9443596 1.0566953 0.94527435 1.0420855
0.9455263 1.0967607 1.4338835 0.97702366 1.015266 0.94802874 1.4341725 1.2999448
1.1527952 1.0613298 0.9073627 0.91375464 1.2977679 0.9388141 1.2354931 1.2284241
1.1256503 1.0328686 0.9244293 1.0910927 1.0355965 1.062079 0.99347234 0.9362197
00000000: fc18 5a3f 62d1 a53f 725e 693f dade 713f
00000010: 8dc1 713f cb41 873f 80fd 713f 0f63 853f
00000020: 030e 723f a862 8c3f 7f89 b73f 391e 7a3f
00000030: 3cf4 813f 03b2 723f f792 b73f 9764 a63f
00000040: cb8e 933f a8d9 873f ec48 683f d3eb 693f
00000050: 421d a63f 1f56 703f a324 9e3f 003d 9d3f
00000060: 4f15 903f 0a35 843f 66a7 6c3f eda8 8b3f
00000070: 6d8e 843f 34f2 873f 3454 7e3f 18ac 6f3f

body.block1.norm.bias f4 [32]
-0.06739406 -0.24255243 -0.077406265 -0.14563863 -0.060591184 -0.13352978 -0.010958116 0.012479374
-0.15763335 0.047584053 -0.37356997 -0.1810909 -0.13292998 -0.1350443 -0.05405725 -0.07984787
0.011872395 -0.092988946 -0.008243036 -0.049570035 -0.0022747666 -0.0476337 -0.15272157 0.053829767
-0.17514363 -0.069466 -0.096806034 0.027920416 -0.117542416 -0.11616039 -0.046684742 -0.083281286
00000000: e605 8abd aa5f 78be 2d87 9ebd 4b22 15be
00000010: 762e 78bd 08bc 08be ab89 33bc 4a76 4c3c
00000020: a36a 21be 7fe7 423d 9044 bfbe e56f 39be
00000030: cc1e 08be 0e49 0abe 236b 5dbd 4887 a3bd
00000040: 6f84 423c fd70 bebd cd0d 07bc f309 4bbd
00000050: 4014 15bb 8e1b 43bd 0b63 1cbe 9a7c 5c3d
00000060: da58 33be 3144 8ebd 3e42 c6bd 5bb9 e43c
00000070: 14ba f0bd 80e5 edbd 8038 3fbd 618f aabd

body.block1.norm.running_mean f4 [32]
-1.3397312 -1.6296738 0.57624555 1.0416824 1.6717963 0.8902045 0.8444931 1.3152134
0.75987726 1.0320594 -1.7880688 0.4216536 0.94796896 1.723462 -2.1718097 -1.8533951
-1.9558047 0.3251175 0.5224516 1.0510801 -1.170087 0.2345411 -0.97756463 -0.8904302
-1.4236864 -0.5091212 0.43736994 -0.86839914 0.6812412 -0.13975336 1.0046091 0.51150423
00000000: 507c abbf 2799 d0bf d484 133f d955 853f
00000010: 6cfd d53f 71e4 633f b330 583f ea58 a83f
00000020: 5187 423f 861a 843f 70df e4bf fbe2 d73e
00000030: 18ae 723f 679a dc3f eefe 0ac0 0d3c edbf
00000040: cf57 fabf cd75 a63e 63bf 053f cb89 863f
00000050: 69c5 95bf 8b2b 703e ad41 7abf 3cf3 63bf
00000060: 5b3b b6bf c455 02bf f4ee df3e 684f 5ebf
00000070: d365 2e3f 811b 0fbe 0897 803f f1f1 023f

body.block1.norm.running_var f4 [32]
1.4941984 1.8752949 2.0231173 1.9890896 1.8840733 1.9055063 1.6453452 1.8655585
2.1902232 1.6869296 2.0259864 2.185758 1.6889644 2.7133973 2.2878077 1.8583379
2.012944 1.7052553 1.2764102 2.4915268 1.27658 1.6499937 1.3070985 1.2086097
1.5536684 2.0706232 1.2846876 1.2292587 2.1739016 2.2692862 2.275707 1.9186908
00000000: e541 bf3f aa09 f03f c17a 0140 7d9a fe3f
00000010: 5029 f13f a1e7 f33f ac9a d23f 9fca ee3f
00000020: 9e2c 0c40 4fed d73f c3a9 0140 76e3 0b40
00000030: fc2f d83f 4da8 2d40 716b 1240 04de ed3f
00000040: 13d4 0040 ce45 da3f 6961 a33f 2d75 1f40
00000050: f966 a33f fe32 d33f 014f a73f b9b3 9a3f
00000060: 9bde c63f 1785 0440 a570 a43f 5958 9d3f
00000070: 3421 0b40 fc3b 1140 2fa5 1140 a997 f53f

body.block2.conv.weight f4 [32, 32, 3, 3]
0.04509809 0.019393897 0.00067227794 0.09918233 0.053334665 0.050294556 0.029137313 0.019760985
0.021048935 0.046326563 -0.01930385 -0.00087848044 -0.099615656 -0.08003655 -0.10824873 -0.1644971
-0.14481495 -0.078689806 0.03541775 0.00025579735 -0.04967476 -0.018468598 -0.031929214 -0.04909415
-0.014859496 0.0070626596 -0.025493981 -0.027597835 -0.016005915 0.0023781832 -0.05408617 -0.048437517
-0.010647962 0.016377985 -0.022346092 -0.0033633986 -0.014627603 -0.027094584 0.014593867 -0.050030474
-0.004796518 -0.010857982 0.030722512 0.011543242 -0.092996486 -0.01012524 -0.054814983 -0.035938703
-0.065181546 -0.0368235 -0.010006265 0.025462873 -0.01638898 -0.08591117 0.030915037 -0.032042183
-0.049477424 0.0017245832 -0.0010075176 -0.07949173 -0.010225525 0.014961996 -0.03615551 0.05841225
0.03192295 0.029645687 0.044365223 -0.013338418 -0.08835719 0.011718672 -0.02148209 -0.008670442
-0.03451511 -0.072395384 -0.07067489 -0.010365837 -0.032207124 -0.047350246 0.027700132 0.0102870865
0.01089366 -0.03904459 -0.0075731413 -0.04055332 -0.06700376 -0.055790864 0.004434258 -0.0015693987
-0.02484709 -0.00041518811 0.01477732 -0.017025577 -0.039960284 -0.14577554 -0.13396111 -0.06626858
-0.1717239 -0.11364627 -0.14595826 -0.034258552 -0.09348664 -0.03650624 -0.05234218 -0.025625946
-0.032402936 0.0020586317 -0.006063383 -0.019312615 0.012128252 0.029875474 -0.006122527 0.02433189
-0.018893637 -0.036546014 -0.03676753 -0.0036745407 0.039535154 0.0020467706 -0.00459724 -0.03751275
0.023802329 0.052817293 0.010872635 0.06431299 0.009477414 -0.020682333 -0.053595193 -0.04712146
0.020792022 -0.0233892 -0.03918041 0.09192264 0.015606682 0.026196169 0.09927575 0.029144298
-0.0074105286 0.087005034 0.093376465 0.07134993 0.180704 0.03441445 0.014014968 0.16947062
-0.07407197 -0.029829262 0.046099577 -0.039226446 -0.00057284953 0.044290844 0.017657515 -0.005948495
0.083498344 0.0867002 0.020334043 0.05739672 0.078722626 0.0344116 -0.024328113 -0.030257704
-0.016763944 0.008432907 0.0645213 -0.013343977 -0.036796883 0.0073327427 -0.03129974 -0.054935712
-0.040993113 -0.03812908 -0.042504452 0.017259102 0.0034936194 -0.02104522 0.036901098 -0.023126502
-0.040038813 0.073740356 -0.030690037 -0.010601841 -0.0072285607 -0.02072788 0.09126388 0.0007143672
-0.02506991 0.13278137 0.0017774841 0.017742703 0.13587439 0.015543011 0.002996828 0.011090999
-0.0049150065 0.026816435 0.023821024 -0.018117877 -0.023003262 0.037284642 -0.061821505 -0.041178536
0.04100863 -0.029426211 -0.0012582542 0.029641595 -0.029783763 -0.009323158 -0.00082435436 -0.036746804
-0.02848898 0.07323826 -0.013884397 -0.04096476 0.086924806 -0.00954515 -0.014235455 0.16392131
0.060859554 0.04491659 0.022782294 -0.0404717 -0.075340256 -0.034376975 -0.067862555 -0.09623449
-0.0360999 0.033369105 0.041663032 0.015644532 -0.009446969 0.06590959 0.048892964 0.091922075
0.042362444 0.097321756 0.06209142 -0.0020713452 0.023389772 0.05255389 -0.025300298 0.020617979
-0.019490412 -0.044855732 0.03461492 -0.040894393 -0.00034324804 0.051883854 -0.0017517805 0.02152666
0.07503509 0.018271318 0.019769197 0.10999883 0.058099207 -0.016862968 -0.017279863 -0.00048148382
00000000: c6b8 383d f3df 9e3c cf3b 303a 1b20 cb3d
00000010: 7375 5a3d aa01 4e3d 60b1 ee3c cae1 a13c
00000020: d16e ac3c ecc0 3d3d 1c23 9ebc d349 66ba
00000030: 4b03 ccbd 34ea a3bd 83b1 ddbd ee71 28be
00000040: 5f4a 14be 1f28 a1bd 3412 113d 8a1c 8639
00000050: c377 4bbd 754b 97bc 35c8 02bd f316 49bd
00000060: 3e75 73bc e26d e73b c1d8 d0bc db14 e2bc
00000070: d61e 83bc 4bdb 1b3b 7689 5dbd 6b66 46bd
00000080: ca74 2ebc 202b 863c 270f b7bc 776c 5cbb
00000090: 9da8 6fbc 76f5 ddbc 1d1b 6f3c c1ec 4cbd
000000a0: 1c2c 9dbb ade5 31bc c7ad fb3c de1f 3d3c
000000b0: f174 bebd 56e4 25bc ad85 60bd 7634 13bd
000000c0: e77d 85bd 3dd4 16bd 51f1 23bc 8497 d03c
000000d0: 2f42 86bc 32f2 afbd 8841 fd3c aa3e 03bd
000000e0: d7a8 4abd 690b e23a ae0e 84ba 8fcc a2bd
000000f0: f688 27bc 2923 753c cd17 14bd af41 6f3d
00000100: a4c1 023d 83db f23c 4fb8 353d 6189 5abc
00000110: 9df4 b4bd acff 3f3c 35fb afbc 780e 0ebc
00000120: b75f 0dbd 0844 94bd ffbd 90bd 79d5 29bc
00000130: 9eeb 03bd 55f2 41bd 63eb e23c 2b8b 283c
00000140: 527b 323c 38ed 1fbd 1d28 f8bb 3d1b 26bd
00000150: 4439 89bd f684 64bd 414d 913b 48b4 cdba
00000160: 208c cbbc 9bad d9b9 931c 723c 3979 8bbc
00000170: 65ad 23bd 2f46 15be 1a2d 09be d2b7 87bd
00000180: 64d8 2fbe 60bf e8bd 1576 15be b252 0cbd
00000190: ec75 bfbd 9187 15bd c164 56bd 81ed d1bc
000001a0: f1b8 04bd 1cea 063b 58af c6bb 7d35 9ebc
000001b0: 93b5 463c 69bd f43c 7b9f c8bb ac53 c73c
000001c0: d4c6 9abc 46b1 15bd 8d99 16bd 90d0 70bb
000001d0: 9def 213d 1d23 063b 72a4 96bb f8a6 19bd
000001e0: 1afd c23c f256 583d 2323 323c 87b6 833d
000001f0: 2847 1b3c ff6d a9bc a286 5bbd 6f02 41bd
00000200: 0854 aa3c b59a bfbc a37b 20bd f041 bc3d
00000210: 2bb3 7f3c 5999 d63c 1651 cb3d 06c0 ee3c
00000220: 05d4 f2bb b22f b23d 293c bf3d e91f 923d
00000230: 780a 393e 2bf6 0c3d 099f 653c b589 2d3e
00000240: 0cb3 97bd 7f5c f4bc e9d2 3c3d e9ab 20bd
00000250: 482b 16ba 516a 353d 7ea6 903c 98eb c2bb
00000260: 2e01 ab3d e08f b13d 9493 a63c d318 6b3d
00000270: 5439 a13d 2ef3 0c3d c04b c7bc 01df f7bc
00000280: 8a54 89bc 2d2a 0a3c be23 843d b2a0 5abc
00000290: 54b8 16bd 8147 f03b 2834 00bd 4504 61bd
000002a0: 65e8 27bd 3d2d 1cbd 2619 2ebd f662 8d3c
000002b0: 35f5 643b 0667 acbc 9b25 173d ca73 bdbc
000002c0: bdff 23bd 2f05 973d ac69 fbbc 58b3 2dbc
000002d0: 90dd ecbb 84cd a9bc 8fe8 ba3d 5f44 3b3a
000002e0: 695f cdbc d7f7 073e 78fa e83a 2559 913c
000002f0: a822 0b3e 1da8 7e3c 6e66 443b 05b7 353c
00000300: 100e a1bb 24ae db3c 4f24 c33c f16b 94bc
00000310: 5671 bcbc c8b7 183d 8c38 7dbd d3aa 28bd
00000320: aaf8 273d 3d0f f1bc 01ec a4ba eed2 f23c
00000330: 14fd f3bc 29c0 18bc 7c19 58ba d183 16bd
00000340: b961 e9bc f1fd 953d 627b 63bc aaca 27bd
00000350: a205 b23d 4363 1cbc d33b 69bc fdda 273e
00000360: de47 793d 75fa 373d efa1 ba3c a7c5 25bd
00000370: fe4b 9abd dfce 0cbd 86fb 8abd 9716 c5bd
00000380: 7ddd 13bd 0bae 083d dba6 2a3d f628 803c
00000390: 76c7 1abc 9bfb 863d fd43 483d a441 bc3d
000003a0: 3e84 2d3d a150 c73d 9353 7e3d 68bf 07bb
000003b0: e89b bf3c bf42 573d 9242 cfbc 09e7 a83c
000003c0: 5baa 9fbc a5ba 37bd 60c8 0d3d e180 27bd
000003d0: f9f5 b3b9 2a84 543d 009c e5ba ae58 b03c
000003e0: ffab 993d bbad 953c 03f3 a13c 1147 e13d
000003f0: 6ff9 6d3d 3524 8abc 808e 8dbc aa6f fcb9

body.block2.conv.bias f4 [32]
0.0073757353 0.022637285 0.04700442 -0.017382933 0.0029209019 -0.030634139 -0.026686523 -0.004880709
-0.013858751 -0.0413279 0.029263072 0.010154056 0.034787863 0.008584446 0.035910588 -0.015984634
-0.007416672 -0.034223225 -0.03771132 -0.009939612 -0.028430773 -0.060688496 0.027104773 -0.040717598
-0.035648346 -0.057004772 0.0464205 0.009989889 0.027592413 0.0036348163 0.047033817 0.0032902502
00000000: 27b0 f13b d471 b93c b587 403d a766 8ebc
00000010: 9a6c 3f3b 72f4 fabc b29d dabc 5bee 9fbb
00000020: d10f 63bc 7247 29bd 1cb9 ef3c 335d 263c
00000030: b87d 0e3d c7a5 0c3c fb16 133d 35f2 82bc
00000040: 8e07 f3bb a72d 0cbd 2f77 1abd c1d9 22bc
00000050: a7e7 e8bc 8094 78bd d40a de3c 7fc7 26bd
00000060: 0004 12bd d67d 69bd 6c23 3e3d a2ac 233c
00000070: 7c09 e23c 1936 6e3b 88a6 403d 3da1 573b

body.block2.norm.weight f4 [32]
1.1756085 1.0228409 1.1063068 1.055835 1.1242448 1.2166477 1.0706764 1.2031367
1.1292241 1.0515453 1.2063506 1.412161 1.0986891 0.9542879 0.9950059 1.1072495
1.0893801 1.10719 1.0477676 1.0335362 1.0479248 1.1297855 1.199515 1.2523028
1.0293776 0.9874776 0.9943347 1.0652293 1.0843923 1.0615406 1.1307857 1.2655239
00000000: 577a 963f 73ec 823f 769b 8d3f 9a25 873f
00000010: 41e7 8f3f 1dbb 9b3f ed0b 893f 6200 9a3f
00000020: 6a8a 903f 0999 863f b269 9a3f b1c1 b43f
00000030: d8a1 8c3f 364c 743f b5b8 7e3f 5aba 8d3f
00000040: cf70 8b3f 67b8 8d3f 401d 863f ea4a 843f
00000050: 6622 863f d09c 903f b589 993f 754b a03f
00000060: a5c2 833f 55cb 7c3f b88c 7e3f 6f59 883f
00000070: 5ecd 8a3f 90e0 873f 96bd 903f b0fc a13f

body.block2.norm.bias f4 [32]
-0.04474336 -0.12565298 0.023469802 -0.01854771 -0.34353712 -0.060796153 0.13888381 -0.07812588
-0.13540685 -0.054979075 -0.1116238 -0.36962464 0.049839877 -0.14480199 -0.038426585 0.02111055
-0.09991785 -0.09544022 -0.06551524 -0.009459343 -0.008882729 -0.1666941 -0.057755522 -0.11833972
0.01880284 -0.018038621 -0.15991561 -0.061565176 -0.021458438 -0.03419562 -0.055247966 0.008556326
00000000: d044 37bd 2dab 00be be43 c03c 5ef1 97bc
00000010: 19e4 afbe 6305 79bd 8f37 0e3e 7600 a0bd
00000020: 18a8 0abe bd31 61bd 059b e4bd 713f bdbe
00000030: e624 4c3d f946 14be 3265 1dbd 08f0 ac3c
00000040: bba1 ccbd 2976 c3bd db2c 86bd 5cfb 1abc
00000050: de88 11bc dcb1 2abe 0e91 6cbd 185c f2bd
00000060: 6a08 9a3c bbc5 93bc ebc0 23be c42b 7cbd
00000070: 9bc9 afbc b510 0cbd b14b 62bd d52f 0c3c

body.block2.norm.running_mean f4 [32]
-0.1526881 -0.15435435 -0.54152006 -1.371791 0.65334946 0.71582615 -1.7037129 0.5085415
0.57556534 0.8496415 0.3854977 0.2444657 -0.56281465 0.39912724 -0.30249515 0.6943437
-0.6579464 0.33508825 1.1100502 -0.47117436 -0.8345202 -0.12134266 1.2954633 0.40908304
-0.8858682 -1.0953274 0.77696705 -0.3039895 1.053932 -0.8452778 0.5396709 0.20343561
00000000: 455a 1cbe 110f 1ebe 0fa1 0abf d996 afbf
00000010: e941 273f 6240 373f 4413 dabf c72f 023f
00000020: 4058 133f 1b82 593f f45f c53e 3755 7a3e
00000030: 9f14 10bf 685a cc3e a5e0 9abe 82c0 313f
00000040: 2d6f 28bf b090 ab3e 2016 8e3f c43d f1be
00000050: 1ea3 55bf 8082 f8bd bed1 a53f 5573 d13e
00000060: 42c8 62bf b033 8cbf 50e7 463f 83a4 9bbe
00000070: 3ee7 863f 2064 58bf df27 0a3f 6d51 503e

body.block2.norm.running_var f4 [32]
2.3085895 1.6788872 2.7532206 1.5110775 1.2524096 2.1040828 2.2232585 1.4024141
3.2020657 2.528678 3.2322192 1.4944407 2.9564056 2.1426642 4.2257485 2.8813415
3.3109229 3.1537194 3.1607203 1.6433636 4.2365904 1.3073987 2.820265 3.4849458
3.3857095 1.956535 1.9717176 3.4177358 2.0962787 1.9848806 1.845255 1.4724218
00000000: eebf 1340 c7e5 d63f c434 3040 fd6a c13f
00000010: f54e a03f 4ba9 0640 de49 0e40 4e82 b33f
00000020: a5ee 4c40 dcd5 2140 aedc 4e40 d549 bf3f
00000030: c035 3d40 6921 0940 5539 8740 e667 3840
00000040: 29e6 5340 8ad6 4940 3e49 4a40 bd59 d23f
00000050: 2692 8740 d758 a73f 397f 3440 5a09 5f40
00000060: 77af 5840 bd6f fa3f 3e61 fc3f 2fbc 5a40
00000070: 6e29 0640 9110 fe3f 5131 ec3f 5178 bc3f

body.block3.conv.weight f4 [32, 32, 3, 3]
-0.0830618 -0.031554468 -0.0790622 -0.04446287 -0.006706607 -0.08934976 -0.015367702 -0.00024776845
-0.07355819 0.006327358 -0.038974844 -0.003066167 -0.0407026 0.052845355 -0.03298121 -0.043467924
-0.018405506 -0.021848097 -0.071184 -0.0582717 -0.009039457 0.0054289694 0.0068816645 0.038083196
0.0071529117 -0.021130422 -0.019402863 0.074134015 0.028738085 -0.11801451 -0.008923992 -0.02743724
-0.03297292 0.07011021 -0.007654491 -0.005649704 -0.021493189 -0.0045665293 -0.01185706 0.018949673
0.023654155 0.05442127 -0.06818063 -0.04513042 -0.022681532 -0.110870816 -0.060951144 -0.07420259
-0.029053375 -0.068347044 -0.05199479 -0.103969485 -0.019184988 -0.059100118 -0.001004976 -0.09591832
-0.05062838 0.030193286 -0.10649062 -0.02307672 -0.038524877 -0.015568283 0.028784998 -0.03555753
0.06246521 -0.05064882 -0.010601274 -0.018707775 -0.052860413 -0.029275768 -0.044178747 -0.099645376
0.026148839 0.005084339 -0.07246734 0.044877816 -0.024867851 -0.026771287 0.028352888 0.06573584
0.016963247 0.03670508 -0.069551714 0.03845339 -0.03938694 -0.03269176 0.032829188 -0.06570896
-0.0018154806 -0.013892335 -0.08549542 -0.059620857 -0.076140195 -0.045024816 -0.16500632 -0.07953011
-0.076076254 -0.051849067 -0.04669433 -0.048290223 0.008295574 0.03633682 -0.0028866755 0.036952905
0.030666059 -0.095216066 -0.057965048 -0.079733744 -0.013458068 -0.03826905 -0.027688712 -0.03689093
0.0034879223 0.011134368 0.027831066 -0.039484285 0.011135237 0.06105841 0.08422461 -0.044914894
0.051890086 0.06709199 -0.06257575 -0.008381139 0.01311438 -0.005584339 -0.012495249 0.013039573
0.0009870736 -0.04424988 0.044807743 0.017771855 -0.011429177 -0.007077491 0.046357717 -0.08817805
-0.05802922 -0.053562246 -0.11726264 -0.03182101 -0.028079199 -0.07951356 -0.052460447 -0.039927438
-0.0090590585 0.019400153 0.021621205 0.014041836 0.022417158 -0.017135086 -0.04164627 -0.010726388
-0.009615676 0.012719681 0.0783091 -0.04855294 0.062850386 0.05436316 -0.046731677 0.048210356
-0.010618246 0.021540899 -0.004438454 -0.044809263 -0.06928016 -0.015626973 0.012288648 0.00059758296
-0.021274798 0.019875381 -0.005322932 0.008244565 0.051607538 0.03656369 0.043929044 -0.035190437
-0.015009384 -0.007090505 0.03086031 0.030392556 -0.07857918 0.0117948735 0.034164134 0.030339377
-0.033056874 0.009848545 0.040836215 0.029169781 0.04915614 -0.090598375 -0.0024390707 -0.080124125
0.02270024 0.067433044 -0.021377081 0.046287738 0.027006306 0.017408524 -0.029364381 -0.045838982
-0.09073924 -0.048039842 -0.03167409 -0.07444926 -0.05471227 -0.024938239 -0.037827868 -0.13199513
-0.043950886 -0.09029666 -0.09249075 -0.09437339 -0.061027933 -0.03522 -0.036894985 -0.014099388
0.016671395 -0.018553492 0.0037209936 -0.02871087 -0.037522417 -0.06471578 -0.03077483 -0.020550651
-0.014893161 0.0130934585 -0.05286976 0.009376033 -0.03753478 0.032115977 0.019688608 -0.007000117
-0.0012854285 0.0015537047 -0.0769999 -0.023223475 0.007618178 -0.0027254904 0.009371785 0.03495401
0.049931373 -0.009229194 0.031104252 -0.07151639 -0.06883162 0.00049222406 -0.062005 -0.0049040876
0.00270142 -0.026156034 -0.039957196 -0.012975568 -0.07252155 0.017916765 0.045196787 0.02741539
00000000: 4e1c aabd 423f 01bd 5deb a1bd b31e 36bd
00000010: 19c3 dbbb 02fd b6bd d0c8 7bbc ebe6 81b9
00000020: ada5 96bd ba55 cf3b 16a4 1fbd bff1 48bb
00000030: c5b7 26bd 5f74 583d 4e17 07bd 6c0b 32bd
00000040: 25c7 96bc c8fa b2bc ebc8 91bd 4eae 6ebd
00000050: 3b1a 14bc 7fe5 b13b 967f e13b 20fd 1b3d
00000060: f962 ea3b b519 adbc c1f2 9ebc 93d3 973d
00000070: 226c eb3c 97b1 f1bd ef35 12bc 10c4 e0bc
00000080: 9d0e 07bd f195 8f3d 86d2 fabb 2721 b9bb
00000090: 7c12 b0bc d3a2 95bb 1d44 42bc 583c 9b3c
000000a0: 5cc6 c13c d6e8 5e3d 49a2 8bbd adda 38bd
000000b0: 9fce b9bc 3d10 e3bd e8a7 79bd 87f7 97bd
000000c0: 5801 eebc 89f9 8bbd 7df8 54bd f4ed d4bd
000000d0: d629 9dbc f712 72bd 66b9 83ba d370 c4bd
000000e0: b45f 4fbd e957 f73c c117 dabd 640b bdbc
000000f0: 43cc 1dbd 1d12 7fbc 84ce eb3c c6a4 11bd
00000100: 85db 7f3d 2375 4fbd f7b0 2dbc 0c41 99bc
00000110: 2984 58bd bcd3 efbc c6f4 34bd e012 ccbd
00000120: 1736 d63c 879a a63b c269 94bd cdd1 373d
00000130: aab7 cbbc 754f dbbc 5144 e83c 83a0 863d
00000140: 82f6 8a3c 1158 163d 2171 8ebd 4d81 1d3d
00000150: 3354 21bd cce7 05bd e677 063d 6b92 86bd
00000160: 6cf5 edba ad9c 63bc 3918 afbd 0035 74bd
00000170: 64ef 9bbd f16b 38bd 6bf7 28be afe0 a2bd
00000180: decd 9bbd b05f 54bd 8e42 3fbd f8cb 45bd
00000190: 29ea 073c ebd5 143d 612e 3dbb ee5b 173d
000001a0: 6337 fb3c a400 c3bd c26c 6dbd 724b a3bd
000001b0: 3a7f 5cbc 02c0 1cbd 70d3 e2bc f21a 17bd
000001c0: a095 643b ed6c 363c fafd e33c 46ba 21bd
000001d0: 9270 363c 6218 7a3d f47d ac3d aef8 37bd
000001e0: b38a 543d 8667 893d b727 80bd 0b51 09bc
000001f0: b2dd 563c d5fc b6bb dfb8 4cbc efa3 553c
00000200: b260 813a 5d3f 35bd 5388 373d 4896 913c
00000210: 7141 3bbc 4cea e7bb 97e1 3d3d b296 b4bd
00000220: 0cb0 6dbd 1664 5bbd 6527 f0bd bf56 02bd
00000230: 5906 e6bc 01d8 a2bd c4e0 56bd f48a 23bd
00000240: 726c 14bc 12ed 9e3c f41e b13c bb0f 663c
00000250: 30a4 b73c e15e 8cbc 4795 2abd bbbd 2fbc
00000260: 118b 1dbc 3566 503c 8560 a03d 73df 46bd
00000270: b4b7 803d e8ab 5e3d b769 3fbd 3978 453d
00000280: 27f8 2dbc 8a76 b03c 7370 91bb eb89 37bd
00000290: c2e2 8dbd 2304 80bc 5356 493c 1da7 1c3a
000002a0: 7c48 aebc b2d1 a23c fd6b aebb 3614 073c
000002b0: 6d62 533d cfc3 153d f1ee 333d d923 10bd
000002c0: ebe9 75bc 7857 e8bb c3ce fc3c cff9 f83c
000002d0: 1fee a0bd 493f 413c b1ef 0b3d 498a f83c
000002e0: a566 07bd cb5b 213c e043 273d 77f5 ee3c
000002f0: f357 493d a48b b9bd d1d8 1fbb 1e18 a4bd
00000300: dbf5 b93c 561a 8a3d fd1e afbc 3698 3d3d
00000310: 543c dd3c 529c 8e3c 928d f0bc a8c1 3bbd
00000320: 7fd5 b9bd 6dc5 44bd b1bc 01bd db78 98bd
00000330: f919 60bd 474b ccbc 65f1 1abd bb29 07be
00000340: d805 34bd 75ed b8bd ca6b bdbd d646 c1bd
00000350: 6df8 79bd d942 10bd 321f 17bd 1f01 67bc
00000360: 7392 883c 7efd 97bc eadb 733b 0f33 ebbc
00000370: 1bb1 19bd b589 84bd 7f1b fcbc d759 a8bc
00000380: 7202 74bc f285 563c f68d 58bd ef9d 193c
00000390: 12be 19bd 0b8c 033d 014a a13c 3d61 e5bb
000003a0: d37b a8ba aea5 cb3a 20b2 9dbd 283f bebc
000003b0: e9a1 f93b 249e 32bb 1e8c 193c f02b 0f3d
000003c0: d784 4c3d 0c36 17bc 58ce fe3c 2f77 92bd
000003d0: 98f7 8cbd 9908 013a f4f8 7dbd 78b2 a0bb
000003e0: 4f0a 313b 2e45 d6bc 28aa 23bd 7a97 54bc
000003f0: 2e86 94bd 2ec6 923c 4420 393d 3d96 e03c

body.block3.conv.bias f4 [32]
0.056607064 -0.04176301 -0.050395086 -0.047875002 -0.016899362 -0.045614682 0.03174712 -0.0006669732
0.045584556 -0.038456224 0.02709762 0.03428874 -0.0035160484 0.043714616 -0.02887617 -0.046202056
0.006907258 0.034533583 -0.023505166 -0.0046136305 0.042595606 0.027211165 -0.043634437 0.024729779
-0.007136385 0.030382005 0.04361785 -0.017458696 -0.0502905 0.002626718 -0.033836804 -0.004804955
00000000: cfdc 673d b10f 2bbd 146b 4ebd 9418 44bd
00000010: 8870 8abc 76d6 3abd 4509 023d d0d7 2eba
00000020: dfb6 3a3d 4684 1dbd d4fb dd3c 5a72 0c3d
00000030: 816d 66bb 190e 333d b88d ecbc 5e3e 3dbd
00000040: 4856 e23b 1673 0d3d e88d c0bc f02d 97bb
00000050: bb78 2e3d f3e9 de3c 06ba 32bd 1b96 ca3c
00000060: 56d8 e9bb afe3 f83c a1a8 323d 8a05 8fbc
00000070: 69fd 4dbd 0425 2c3b 7698 0abd e272 9dbb

body.block3.norm.weight f4 [32]
0.72382146 0.92125255 0.8411429 0.6588499 0.76927584 0.659684 0.58782464 0.767079
0.82560825 0.7863015 0.7824151 0.6750609 0.69801486 0.75029266 0.76921546 0.74557
0.8635821 0.56965744 0.6686321 0.8156808 0.662184 0.74118125 0.636 0.7906128
0.5605385 0.73053175 0.66064465 0.6693749 0.78116703 0.7329524 0.84303045 0.532817
00000000: 5d4c 393f 35d7 6b3f 2455 573f 63aa 283f
00000010: 43ef 443f 0de1 283f ad7b 163f 4a5f 443f
00000020: 105b 533f 0e4b 493f 5b4c 483f cbd0 2c3f
00000030: 1ab1 323f 2e13 403f 4eeb 443f addd 3e3f
00000040: b713 5d3f 12d5 113f 792b 2b3f 75d0 503f
00000050: e484 293f 0ebe 3d3f e5d0 223f 9a65 4a3f
00000060: 737f 0f3f 2104 3b3f 0220 293f 275c 2b3f
00000070: 90fa 473f c5a2 3b3f d8d0 573f b266 083f

body.block3.norm.bias f4 [32]
-0.04540113 0.10262041 -0.37088358 -0.13571979 -0.1168342 -0.1737455 -0.24812429 -0.12079234
-0.35698742 -0.041670006 -0.3039499 -0.13790889 -0.2674753 -0.40899044 -0.069911 -0.06939885
0.008278811 -0.32782415 -0.20131841 0.022930305 -0.23391165 -0.10301868 -0.0766896 -0.25171554
-0.18884324 -0.23611529 -0.42298707 -0.18609923 -0.37436667 -0.19775844 0.13866918 -0.29481745
00000000: 89f6 39bd a62a d23d 74e4 bdbe 21fa 0abe
00000010: c546 efbd 57ea 31be 4b14 7ebe f961 f7bd
00000020: 0ec7 b6be 2bae 2abd 529f 9bbe fd37 0dbe
00000030: 86f2 88be 3267 d1be 802d 8fbd fc20 8ebd
00000040: daa3 073c 91d8 a7be 6a26 4ebe 56d8 bb3c
00000050: 8986 6fbe 75fb d2bd 700f 9dbd dce0 80be
00000060: 1f60 41be 35c8 71be c391 d8be cc90 3ebe
00000070: fdac bfbe 3081 4abe 4bff 0d3e 50f2 96be

body.block3.norm.running_mean f4 [32]
-1.3384125 -0.6258625 -0.03913849 -0.70706224 -0.503974 -1.3828907 -0.5469089 -1.2447972
-0.46974134 -1.1799339 -0.46458986 0.6133788 -0.25029778 -1.8741703 -0.623061 -0.92434776
-1.3130542 -0.92140627 -0.19616258 -1.1275289 -0.15045312 -0.9241539 -0.49409404 -1.1714467
-0.9330053 -1.2081053 -0.8684347 -1.5982082 -0.6817307 -0.5623104 -1.9959676 -0.9028302
00000000: 1a51 abbf 8638 20bf ae4f 20bd 0802 35bf
00000010: 7104 01bf 9002 b1bf 3902 0cbf 8455 9fbf
00000020: f081 f0be 1308 97bf b9de edbe 6506 1d3f
00000030: 0827 80be d0e4 efbf ed80 1fbf 0ea2 6cbf
00000040: 2912 a8bf 48e1 6bbf d8de 48be de52 90bf
00000050: 6210 1abe 5a95 6cbf e5f9 fcbe f7f1 95bf
00000060: 6fd9 6ebf 32a3 9abf bd51 5ebf 1692 ccbf
00000070: e785 2ebf 93f3 0fbf de7b ffbf e11f 67bf

body.block3.norm.running_var f4 [32]
4.477226 6.868853 5.8581142 1.3035271 2.4688878 3.5184696 0.7993076 4.715795
2.441109 2.8078775 1.7120798 1.9799998 5.0343933 2.7461245 3.8305337 6.437892
4.6079054 1.3958797 1.1810051 3.569942 1.1745512 2.7630417 0.7255073 5.5485616
1.135089 3.0724154 1.573507 3.9665878 1.4662807 4.7593565 7.059629 0.8605987
00000000: 6f45 8f40 a5cd db40 ac75 bb40 fad9 a63f
00000010: 4202 1e40 9b2e 6140 6c9f 4c3f cbe7 9640
00000020: 213b 1c40 44b4 3340 6e25 db3f a270 fd3f
00000030: c019 a140 81c0 2f40 7727 7540 3603 ce40
00000040: f673 9340 30ac b23f 2d2b 973f ee79 6440
00000050: b257 963f add5 3040 d9ba 393f d18d b140
00000060: 994a 913f 74a2 4440 ad68 c93f 93dc 7d40
00000070: 16af bb3f a64c 9840 7be8 e140 3250 5c3f

tail.0.weight f4 [3, 32, 3, 3]
-0.02381086 -0.013164999 0.00749282 0.00082058116 0.030096514 0.0040986673 -0.015949974 -0.00731594
-0.035483744 0.03461358 0.025773177 0.02148816 0.016608374 0.010343435 -0.019370688 -0.04206203
-0.022074204 -0.011040701 -0.0076144147 -0.006045007 0.0051289406 0.0028226308 0.009029774 -0.0070434036
0.033525493 0.065468505 0.07450006 -0.009934381 -0.0027319228 0.00020646614 -0.008536356 0.0021923913
-0.006260966 -0.01658444 0.0029161086 0.020495709 0.010162831 0.013661574 0.010749576 0.0002685061
0.006912729 0.030151315 0.0038940634 -0.0072456608 0.0036760336 0.00521344 0.013724019 0.020645292
0.0024516794 0.02118798 0.0069586467 0.017551145 -0.004229495 -0.02975313 0.021523573 0.011800618
-0.0033954887 -0.00956687 -0.0005852299 0.0028903885 -0.023787888 -0.01875776 0.026117714 -0.019031357
0.0017094401 0.03911604 0.016686076 0.0018658127 -0.011201859 0.004523226 -0.0012040681 -0.024300763
-0.01193931 0.027347244 0.027599046 -0.030775422 -0.0054662707 -0.017038794 -0.073539704 -0.013486554
-0.0036427553 -0.022418553 -0.023774998 -0.011989909 -0.0015378954 0.023605226 0.0024028777 -0.027530823
0.007999684 0.0019490703 -0.013139828 -0.022363348 -0.011510306 0.032850277 0.051265433 0.004804768
-0.04122064 -0.02177519 -0.05222391 -0.013440684 0.005426025 0.01978474 0.011934589 -0.004643323
-0.021990128 0.029839903 -0.008937554 -0.04054399 -0.003914074 -0.01331213 -0.0034438893 0.009508338
-0.013273738 -0.01902251 0.015710965 0.03320839 0.053834576 0.016958378 -0.02015546 -0.057205904
0.010099205 -0.023495475 -0.038907062 -0.019000897 -0.0021839407 0.029770501 0.0024269528 -0.006035668
-0.021649813 0.032078844 0.018562786 -0.012269353 0.032083564 -0.008896548 -0.044346318 -0.011378612
-0.029441392 -0.018333469 0.019597808 -0.008670468 0.012159453 -0.018913819 0.017904311 0.03848218
-0.021463187 -0.011566024 0.00088975905 0.003512433 0.009462752 -0.0009881592 -0.016721537 0.02093516
0.033872098 -0.005418751 0.023880737 0.00685827 -0.040662806 -0.01669028 0.016870147 -0.028993437
-0.009503653 0.024425007 0.037731405 -0.012783149 -0.017259128 0.013167822 -0.0127809085 -0.004158917
-0.005568117 -0.006736536 0.023461986 -0.025728855 -0.02824081 -0.0006944836 0.015887775 -0.007601809
0.01436381 0.0025405136 -0.01883157 0.026903937 -0.02023961 0.01609135 0.016205527 -0.0020466961
0.0051487 -0.008085091 -0.0025748764 0.0012507533 0.01938174 -0.0075816764 -0.019604947 -0.026582401
0.013739308 0.018863153 0.009420726 -0.015226552 0.008760632 0.021433111 0.008050269 -0.016969327
-0.0031043582 0.0055978135 0.0013585339 0.005362686 -0.003906819 0.014490322 0.0043409443 0.021277903
0.011996495 0.015944429 0.008973953 0.013743448 0.024815274 0.0140547035 -0.018499093 -0.014768732
-0.0027894727 -0.0065429285 -0.008523975 0.025811847 0.0077952235 0.0067752968 -0.009659513 -0.015417047
-0.008082217 -0.013309769 -0.03234285 -0.012350576 0.029988168 -0.01015925 -0.02769961 0.011920731
0.0060150074 -0.048045885 -0.0067866254 -0.01717055 0.031168714 -0.00084014464 0.020981336 0.018983625
-0.036329754 0.05600179 0.07834601 -0.02167092 -0.02406364 -0.0119926175 0.015857266 0.024774216
-7.4142413e-06 -0.0010261246 0.0068464335 -0.030851878 0.0056616776 -0.023760622 -0.012108143 0.0048001613
00000000: fe0e c3bc 02b2 57bc 5486 f53b 451c 573a
00000010: f78c f63c 1d4e 863b 85a9 82bc 8eba efbb
00000020: 6757 11bd f8c6 0d3d 4522 d33c f007 b03c
00000030: 490e 883c 8377 293c 47af 9ebc 3c49 2cbd
00000040: f6d4 b4bc 0ee4 34bc 5782 f9bb 3215 c6bb
00000050: ac10 a83b e3fb 383b 9ef1 133c 5acc e6bb
00000060: 0752 093d 5a14 863d 7d93 983d d0c3 22bc
00000070: 0f0a 33bb d57e 5839 12dc 0bbc 39ae 0f3b
00000080: ca28 cdbb 17dc 87bc 2f1c 3f3b 9ee6 a73c
00000090: 0182 263c cbd4 5f3c fd1e 303c 47c6 8c39
000000a0: 2c84 e23b e4ff f63c 8b33 7f3b 026d edbb
000000b0: 9ce9 703b 81d5 aa3b b5da 603c 5120 a93c
000000c0: 5bac 203b 6a92 ad3c 5c05 e43b 6bc7 8f3c
000000d0: 9397 8abb d6bc f3bc 3452 b03c 6157 413c
000000e0: d986 5ebb 5cbe 1cbc 1d6a 19ba ac6c 3d3b
000000f0: d1de c2bc e0a9 99bc d1f4 d53c a6e7 9bbc
00000100: 4b0f e03a 2438 203d 3db1 883c 498e f43a
00000110: 0188 37bc 9237 943b d2d1 9dba 6512 c7bc
00000120: 189d 43bc 5407 e03c 6517 e23c bd1c fcbc
00000130: 671e b3bb f194 8bbc fc9b 96bd b5f6 5cbc
00000140: 4bbb 6ebb 1da7 b7bc c9c3 c2bc 5371 44bc
00000150: 3593 c9ba bf5f c13c 9979 1d3b 5288 e1bc
00000160: 1b11 033c f277 ff3a 6f48 57bc 5733 b7bc
00000170: b995 3cbc 038e 063d b4fb 513d 5171 9d3b
00000180: f9d6 28bd e261 b2bc bde8 55bd 5136 5cbc
00000190: cccc b13b 9b13 a23c 4b89 433c 0427 98bb
000001a0: a424 b4bc d072 f43c d26e 12bc 7411 26bd
000001b0: a241 80bb 1f1b 5abc e0b2 61bb dcc8 1b3c
000001c0: 187a 59bc 18d5 9bbc 48b4 803c 8505 083d
000001d0: a581 5c3d 4cec 8a3c 101d a5bc bd50 6abd
000001e0: 2377 253c 9579 c0bc 035d 1fbd c5a7 9bbc
000001f0: 7220 0fbb 44e1 f33c 830d 1f3b dac6 c5bb
00000200: f35a b1bc 1b65 033d fc10 983c 6505 49bc
00000210: 0e6a 033d d4c2 11bc 7ca4 35bd 5c6d 3abc
00000220: 132f f1bc 1230 96bc 958b a03c 940e 0ebc
00000230: 7138 473c 27f1 9abc 10ac 923c 7e9f 1d3d
00000240: 91d3 afbc 6c7f 3dbc b83e 693a d930 663b
00000250: a909 1b3c 1f85 81ba 9bfb 88bc 3680 ab3c
00000260: 78bd 0a3d c78f b1bb 89a1 c33c 57bb e03b
00000270: 0b8e 26bd 0eba 88bc 4333 8a3c a583 edbc
00000280: 36b5 1bbc f416 c83c 3f8c 1a3d 6a70 51bc
00000290: 0463 8dbc d9bd 573c 0467 51bc 8647 88bb
000002a0: c074 b6bb 29be dcbb 5a33 c03c 52c5 d2bc
000002b0: 4559 e7bc 010e 36ba 1427 823c 9918 f9bb
000002c0: 3056 6b3c bf7e 263b aa44 9abc a565 dc3c
000002d0: 8acd a5bc 02d2 833c 74c1 843c dd21 06bb
000002e0: 6db6 a83b 5477 04bc 42bf 28bb 51f0 a33a
000002f0: 74c6 9e3c b66f f8bb 8e9a a0bc 56c3 d9bc
00000300: d61a 613c e686 9a3c 6459 1a3c ca78 79bc
00000310: c188 0f3c 7e94 af3c 47e5 033c 4203 8bbc
00000320: 7d72 4bbb dd6d b73b d510 b23a 78b9 af3b
00000330: c604 80bb d168 6d3c 7b3e 8e3b ff4e ae3c
00000340: f28c 443c e49d 823c 7d07 133c 332c 613c
00000350: 6749 cb3c b345 663c 698b 97bc 8df8 71bc
00000360: 96cf 36bb 1066 d6bb 24a8 0bbc 5e73 d33c
00000370: 136f ff3b 4f03 de3b ef42 1ebc c897 7cbc
00000380: 466b 04bc 3811 5abc f079 04bd 125a 4abc
00000390: bfa9 f53c fc72 26bc 4bea e2bc 2b4f 433c
000003a0: 8a19 c53b c3cb 44bd 5762 debb 41a9 8cbc
000003b0: 8855 ff3c 273d 5cba 0de1 ab3c 8c83 9b3c
000003c0: 82ce 14bd 2262 653d df73 a03d 3787 b1bc
000003d0: 1c21 c5bc af7c 44bc 19e7 813c 4cf3 ca3c
000003e0: d9c7 f8b6 077f 86ba 0c58 e03b 14bd fcbc
000003f0: 9885 b93b a3a5 c2bc 3c61 46bc ac4a 9d3b

tail.0.bias f4 [3]
0.027167229 0.041201256 -0.2732093
00000000: cf8d de3c a6c2 283d 17e2 8bbe
