trained_models/sinGan/mountains/scale_factor=0.750000,alpha=10/6/netD.pth (torch_old, 461765 bytes, 25 tensors)

head.conv.weight f4 [64, 3, 3, 3]
0	0xbaabb7e4	-0.0013101068
1	0xbd26cfe4	-0.040725604
2	0xbdb7ad1d	-0.089685656
3	0x3da6fa45	0.08153204
4	0x3cc35e21	0.023848595
5	0x3c3d14ae	0.011540575
6	0x3e06cd0d	0.13164158
7	0x3d2ca7ba	0.042152144
8	0x3da9ea27	0.08296614
9	0xbce6f240	-0.028191686
10	0xbd85e6db	-0.06538173
11	0xbdbb2701	-0.09138299
12	0x3d27e78d	0.04099231
13	0x3c2e1ad1	0.010626511
14	0xbcb51935	-0.022106746
15	0x3dfb1a0e	0.12260829
16	0x3d32ec1d	0.043682206
17	0x3d60f349	0.054919515
18	0xbd8d835e	-0.06909822
19	0xbd61e0e1	-0.0551461
20	0xbdcdd19a	-0.10049744
21	0x3c183e46	0.009292191
22	0xbc2c93fa	-0.010533327
23	0xbcfaf9a2	-0.030636612
24	0x3d666897	0.05625209
25	0x3c6e080d	0.014528287
26	0x3c8ec27b	0.01742672
27	0x3daa2ca9	0.083092995
28	0x3d4dd9ef	0.050256666
29	0x3d67eab2	0.056620307
30	0x3d90dbbe	0.070731625
31	0x3d0f7ba6	0.03503003
32	0x3d1631ea	0.036668696
33	0x3d98aaff	0.0745449
34	0x3c8202ad	0.015870417
35	0x3ccf8843	0.02533353
36	0xbda72edd	-0.08163235
37	0xbd5f427d	-0.054506768
38	0xbd4a0e9f	-0.04933035
39	0xbd5c52db	-0.053789955
40	0xbd1d2952	-0.038369484
41	0xbca82ae6	-0.020528268
42	0xbd009077	-0.031387772
43	0xbd1604c1	-0.036625627
44	0xbd6890a2	-0.056778558
45	0xbdf35549	-0.11881501
46	0xba45b9ac	-0.0007542621
47	0xbe0a6064	-0.13513333
48	0xbd385683	-0.04500438
49	0x3d3f7010	0.04673773
50	0xbcddb54b	-0.027063986
51	0xbd70cb7f	-0.05878782
52	0xbc51cc65	-0.012805079
53	0xbd9abb99	-0.07555313
54	0xbdbc950f	-0.09208118
55	0xbd48320f	-0.048875865
56	0xbde260a0	-0.11053586
57	0x3c365049	0.01112754
58	0xbcfc8c8b	-0.030828735
59	0xbc93fb2d	-0.018064106
60	0x3e3ece59	0.18633403
61	0x3d853950	0.06505072
62	0x3deb4ee2	0.11489655
63	0xbd9fb209	-0.077976294
64	0xbc9b9823	-0.018993443
65	0xbd8ed920	-0.06975007
66	0xbca7492e	-0.020420637
67	0xbcc16cc0	-0.023611426
68	0xbc0f9151	-0.0087626735
69	0x3dc049bd	0.093890645
70	0x3ca75b88	0.020429388
71	0x3d7f77b4	0.062370017
72	0x3c5f8d54	0.013644535
73	0x3cd29045	0.025703559
74	0xbc97e058	-0.018539593
75	0x3d0ac020	0.03387463
76	0x3c04130c	0.008061182
77	0x3c8fb98d	0.017544532
78	0x3dcf0c69	0.10109789
79	0x3d45272d	0.048133064
80	0x3d6540bc	0.05596994
81	0xbbe82e59	-0.007085603
82	0xbcc6f502	-0.02428675
83	0xbdc16663	-0.09443357
84	0x3c74d53d	0.014943418
85	0xbbe8a3e4	-0.0070996154
86	0xbb7e72e9	-0.0038825816
87	0x3c8e6738	0.017383203
88	0x3c8aa89a	0.016926099
89	0x3ccaf3c4	0.02477444
90	0x3dc32597	0.09528654
91	0x3d3a3e56	0.045469604
92	0xbca29ff2	-0.019851658
93	0x3d886c35	0.06661264
94	0xbbc22926	-0.0059253154
95	0x3c69e64b	0.0142760975
96	0xbd4d9225	-0.050188202
97	0xbdb33c43	-0.087517284
98	0xbe07ddf1	-0.13268258
99	0x3c23bade	0.009993283
100	0xbc1dbc14	-0.009627361
101	0xbe171cdf	-0.14757107
102	0xbcb42c3c	-0.021993749
103	0xbcf6b9d9	-0.030117916
104	0xbd575c7f	-0.052578446
105	0xbe16ffca	-0.14746013
106	0xbc56e2e1	-0.013115616
107	0xbe3180e4	-0.17334324
108	0x3da7e8ce	0.08198701
109	0x3a634c08	0.00086706923
110	0x3cba1720	0.022716105
111	0x3d8ae30f	0.06781589
112	0x3be90436	0.0071110977
113	0x3d243d1b	0.040097337
114	0x3c24f038	0.010067038
115	0x3d174de8	0.03693953
116	0x3cb912eb	0.022592029
117	0x3c90ae43	0.01766122
118	0xbc0a4d74	-0.008441318
119	0xbcbe768f	-0.023249893
120	0x3b1ea208	0.0024205465
121	0xbceb3d89	-0.028715866
122	0xbd2ec6c6	-0.042670034
123	0xbe1fd5b5	-0.15608867
124	0xbcb1d4f2	-0.021707986
125	0xbdd6341e	-0.10459159
126	0x3db96b4c	0.090536684
127	0x3cc22367	0.023698522
128	0x3d0bf98a	0.034173526
129	0x3d89fafc	0.067373246
130	0xbbf8ddec	-0.0075948145
131	0xbce357e8	-0.027751878
132	0xbe1d45b5	-0.15358622
133	0xbd8bbd9a	-0.06823273
134	0xbe0634f6	-0.1310614
135	0x3da58e64	0.080837995
136	0xbd0da83e	-0.034584276
137	0xbe172e87	-0.14763843
138	0xbd5b038a	-0.053470172
139	0xbcd048a8	-0.02542527
140	0x3d8819a0	0.066455126
141	0xbc43cdfa	-0.011950964
142	0x3c46ab33	0.012125778
143	0x3dbb7108	0.091524184
144	0x3c888c5d	0.016668493
145	0xbd6ae370	-0.057345808
146	0xbe4c8fd2	-0.19976738
147	0xbd99dfa1	-0.07513357
148	0xbd856c67	-0.06514817
149	0x3d2799d3	0.040918183
150	0x3c2edba1	0.010672481
151	0x3ca46457	0.020067377
152	0x3d15ab6f	0.036540445
153	0x3b19351d	0.0023377605
154	0x3ca573ad	0.02019676
155	0xbc91a8e0	-0.017780721
156	0xbdd354a5	-0.10318879
157	0xbd3ecdab	-0.04658286
158	0x3d2ef314	0.042712286
159	0x3b90374f	0.0044011245
160	0x3d005d01	0.031338695
161	0x3da43700	0.08018303
162	0x3e0aef9a	0.13567963
163	0x3d1f6568	0.038915068
164	0x3e0a1303	0.13483815
165	0x3db807a6	0.08985834
166	0x3b1f24bc	0.002428337
167	0x3dc14dfb	0.09438702
168	0x3dfc4653	0.12318101
169	0x3d89c7eb	0.067275845
170	0x3e1ebd9e	0.1550202
171	0x3c4acc13	0.012377757
172	0xbb9abe88	-0.00472242
173	0xbcba2452	-0.022722397
174	0x3c1dbbd7	0.009627304
175	0x3c48bfe1	0.012252779
176	0xbcbdc3e0	-0.02316469
177	0xbca9f01c	-0.020744376
178	0xbbc4fc14	-0.0060114954
179	0xbad5cf27	-0.0016312347
180	0xbd39b8d5	-0.045342285
181	0xbd434bbc	-0.047679648
182	0xbda99a0f	-0.082813375
183	0xbcd61e64	-0.026137538
184	0xbc20e0f6	-0.00981926
185	0xbca29797	-0.019847674
186	0xbd871e00	-0.06597519
187	0xbd27d807	-0.040977504
188	0xbc853454	-0.016260304
189	0xbd45ddc7	-0.048307206
190	0x3c399625	0.011327301
191	0x3cdb394c	0.02676072
192	0x3ce49e96	0.02790765
193	0xbc2a17c2	-0.010381641
194	0x3d26e946	0.04074981
195	0xbc83e6d1	-0.016101273
196	0x3ce37193	0.027764117
197	0x3cd1150f	0.025522737
198	0xbdee2281	-0.11627675
199	0xbcbb3f6a	-0.022857387
200	0xbcdc9a7b	-0.02692913
201	0x3d04d4e9	0.03242961
202	0x3d44a499	0.048008535
203	0x3c00c2d1	0.007858948
204	0xbe014698	-0.12624586
205	0xbc609c8b	-0.013709198
206	0xbd648bb3	-0.05579729
207	0xbd594047	-0.053039815
208	0xba9a4696	-0.0011770304
209	0x3d5492d3	0.051897835
210	0x3d6042f3	0.054751348
211	0x3d8aa107	0.06768995
212	0x3dfb7778	0.12278646
213	0xbe183bea	-0.14866605
214	0xbd858724	-0.06519917
215	0xbd464586	-0.048406146
216	0xbd44a4d2	-0.048008747
217	0xbc61d812	-0.013784425
218	0xbd6e26e0	-0.058142543
219	0x3d545414	0.051837996
220	0x3d806b20	0.062704325
221	0xbc253220	-0.0100827515
222	0xbcd76772	-0.026294444
223	0xbc4df3eb	-0.012570362
224	0xbe0c2c16	-0.13688692
225	0xbdbc4c7c	-0.09194276
226	0x3c9be251	0.019028815
227	0x3db3f63f	0.08787202
228	0x3ccfe752	0.025378857
229	0x3d37af6d	0.044845033
230	0x3d6adf06	0.057341598
231	0xbd281511	-0.041035715
232	0x3af8ad5a	0.0018972561
233	0xbd364ef4	-0.04450889
234	0xbe2fef21	-0.17181064
235	0xba9633ff	-0.0011459588
236	0x3dcb67b4	0.09931889
237	0xbd52952a	-0.051411785
238	0x3ca60f1a	0.020270873
239	0x3d6a9d9f	0.057279225
240	0xbd5337de	-0.05156695
241	0x3c0d820f	0.008636965
242	0x3ca28ef9	0.019843565
243	0xbd1d7431	-0.038440887
244	0xbd83e923	-0.06440952
245	0xbdb8485a	-0.08998175
246	0x3de08525	0.10962895
247	0x3d1f6b3a	0.03892062
248	0x3ddbef38	0.10738987
249	0x3d0896bd	0.03334688
250	0x3aa681c2	0.0012703466
251	0x3cf88d8e	0.030340936
252	0xbd71f669	-0.059072886
253	0xbd60b960	-0.054864287
254	0xbdb9f9d1	-0.09080852
255	0x3d7f2547	0.06229141

head.conv.bias f4 [64]
0	0xbde55b66	-0.111990735
1	0x3e1e96f8	0.15487278
2	0xbe4bf1e4	-0.19916493
3	0xbe57074b	-0.20998876
4	0xbe26ab99	-0.16276397
5	0xbe451704	-0.19247061
6	0x3de4db2b	0.111746155
7	0x3c89374e	0.016750004
8	0xbe03c533	-0.12868194
9	0xbddc444d	-0.10755215
10	0xbe10397e	-0.14084432
11	0x3ddeb04f	0.10873472
12	0x3d0b9e7a	0.034086682
13	0x3dcaaf65	0.09896735
14	0x3d507a50	0.050897896
15	0x3c84e911	0.016224416
16	0xbe1d471c	-0.15359157
17	0x3e2a710f	0.16644691
18	0x3e5e79f8	0.21726215
19	0xbd32323b	-0.043504935
20	0x3e06a5d4	0.13149196
21	0xbe1ce994	-0.15323478
22	0x3d6a9759	0.057273243
23	0xbd59a622	-0.053136952
24	0xbe44375b	-0.19161741
25	0x3e545427	0.20735227
26	0x3e2602c0	0.16211987
27	0xbe165090	-0.1467917
28	0x3df653d1	0.120277055
29	0xbd5c7008	-0.05381778
30	0x3c421cba	0.011847669
31	0xbd204c72	-0.039135404
32	0xbe607246	-0.21918592
33	0x3e15615b	0.1458792
34	0x3dcbe2a5	0.099553384
35	0xbd1cb4d8	-0.038258404
36	0xbda2b813	-0.079452656
37	0xbe54dd81	-0.20787622
38	0x3e2778d6	0.16354689
39	0xbdcef590	-0.10105431
40	0xbd3e4c3e	-0.04645943
41	0xbc81dbd9	-0.015851902
42	0xbd94b657	-0.07261341
43	0xbd964b17	-0.07338541
44	0xbe300ab4	-0.17191583
45	0xbd2c8e07	-0.042127635
46	0xbd91015f	-0.0708034
47	0x3db54611	0.08851255
48	0x3d950d7f	0.07277965
49	0x3cee19c4	0.02906502
50	0x3e01d9af	0.12680696
51	0xbd518c2a	-0.05115906
52	0x3dbf9b00	0.09355736
53	0x3d821027	0.06350737
54	0xbd7c01e0	-0.061525226
55	0xbdfd1674	-0.12357798
56	0x3da9ab6e	0.08284651
57	0x3d3baf53	0.0458215
58	0xbd34c70a	-0.04413513
59	0x3e003954	0.12521869
60	0x3dc6acde	0.097009405
61	0x3d378e6a	0.04481355
62	0xbd8f29de	-0.069904074
63	0xbdc7b306	-0.09750943

head.norm.weight f4 [64]
0	0x3f82059e	1.0157964
1	0x3f6af2df	0.9177684
2	0x3fa0c0bb	1.2558817
3	0x3f3b39cb	0.7313506
4	0x3f617dd6	0.88082635
5	0x3f5cf9c2	0.863186
6	0x3f886313	1.0655235
7	0x3f442c8a	0.7663046
8	0x3f44f2ea	0.7693316
9	0x3f5850bf	0.8449821
10	0x3f70b30f	0.9402322
11	0x3f830474	1.0235734
12	0x3f868404	1.0509038
13	0x3f6f67c0	0.93517685
14	0x3f8ebd0e	1.1151445
15	0x3f6d854b	0.92781514
16	0x3f585c17	0.8451552
17	0x3f70b3c8	0.94024324
18	0x3f677e6d	0.90427285
19	0x3f828253	1.0196022
20	0x3f801c64	1.0008664
21	0x3f8daa70	1.1067638
22	0x3f558ddb	0.8341958
23	0x3f7c8c37	0.9865145
24	0x3f8e5ad3	1.1121467
25	0x3f614765	0.87999564
26	0x3f5c0c51	0.85956293
27	0x3f27ff66	0.6562408
28	0x3f35d7a6	0.7103218
29	0x3f5d682a	0.86487067
30	0x3f781892	0.9691249
31	0x3f51f511	0.82014567
32	0x3f559e97	0.83445114
33	0x3f6b1b1f	0.9183826
34	0x3f5b9e3a	0.8578831
35	0x3f970b72	1.1800368
36	0x3f485c2a	0.7826563
37	0x3f585f21	0.84520155
38	0x3f97d402	1.1861575
39	0x3f744712	0.95420945
40	0x3f4b0431	0.7930327
41	0x3f61a048	0.88135195
42	0x3f6cb21f	0.9245929
43	0x3f615dbd	0.8803366
44	0x3f603d6b	0.87593716
45	0x3f93058b	1.1486067
46	0x3f467374	0.7751992
47	0x3fa1c6af	1.2638758
48	0x3f53fdb3	0.8280899
49	0x3f461d16	0.7738813
50	0x3f6a3b4e	0.9149674
51	0x3f452591	0.77010447
52	0x3f572f17	0.8405623
53	0x3f5ab066	0.8542541
54	0x3f4c7b15	0.7987531
55	0x3f576bbe	0.84148777
56	0x3f80213a	1.001014
57	0x3f8e2e5e	1.11079
58	0x3f5632c0	0.8367119
59	0x3f5eb39e	0.86992824
60	0x3f4ed26d	0.80789834
61	0x3f430122	0.76173604
62	0x3f3f4e4d	0.7472885
63	0x3f210c90	0.62909794

head.norm.bias f4 [64]
0	0x3efb44e7	0.49076006
1	0x3cac535e	0.021035846
2	0x3f0da89a	0.5533539
3	0x3beac034	0.0071640257
4	0x3ca13f16	0.019683402
5	0xbdb9acb9	-0.09066147
6	0x3f1df5d8	0.6170325
7	0x3f037fdb	0.51366967
8	0x3e5c3a60	0.21506643
9	0x3df176f4	0.11790267
10	0x3ecdb661	0.40178207
11	0x3ef749be	0.48298448
12	0x3f31eabf	0.6949882
13	0xbe300cb5	-0.17192347
14	0x3e98503e	0.2974872
15	0x3ec4d02d	0.38440076
16	0x3f81e029	1.0146533
17	0x3d7adc83	0.061245453
18	0xbe60607d	-0.21911807
19	0x3eb2d792	0.34930092
20	0x3e3393db	0.17536871
21	0x3f0e54df	0.55598253
22	0xbe12e941	-0.14346792
23	0x3f8ab393	1.0836052
24	0x3e1a649b	0.1507744
25	0xbd758fab	-0.059951466
26	0x3d96eecc	0.07369766
27	0x3f0defb2	0.5544387
28	0x3ea5a72e	0.3235411
29	0x3e5f19b6	0.21787152
30	0x3eb75781	0.35808948
31	0x3eaa3647	0.33244535
32	0x3e9faa3a	0.3118456
33	0x3da3135c	0.07962677
34	0x3e14706a	0.14496008
35	0x3ee35650	0.4440179
36	0x3e2d4128	0.16919386
37	0xbcc56a68	-0.02409859
38	0x3e37aa90	0.17936158
39	0xbddec001	-0.108764656
40	0x3ebdc885	0.37067047
41	0x3d0823d9	0.033237312
42	0x3e0aff0b	0.13573854
43	0x3e97756d	0.29581776
44	0x3d2ae71d	0.041724313
45	0x3ec41645	0.3829824
46	0x3e482fb6	0.1954945
47	0x3e42302e	0.18963692
48	0x3e1376fe	0.1440086
49	0xbe9d161f	-0.3068094
50	0x3ed20cef	0.41025493
51	0x3ecb774c	0.39739454
52	0x3e676611	0.22597529
53	0xbf0ccea1	-0.5500279
54	0x3dfe0658	0.12403554
55	0x3da7b0d5	0.08188025
56	0xbd01cd58	-0.03168997
57	0x3d33b0e8	0.043869883
58	0xbddcc7b4	-0.10780278
59	0x3ebfa020	0.37426853
60	0x3e4ca6c4	0.19985491
61	0x3e00f155	0.12592061
62	0x3ec14e6e	0.3775515
63	0x3e18863f	0.14894961

head.norm.running_mean f4 [64]
0	0xbe0a1252	-0.13483551
1	0x3e411fbc	0.18859762
2	0xbe82305c	-0.2542752
3	0xbdd36578	-0.10322088
4	0xbe0c57a5	-0.13705309
5	0xbe31aff7	-0.17352282
6	0x3d4a692a	0.0494167
7	0x3d093c44	0.03350474
8	0xbdc9738f	-0.09836494
9	0xbde53c13	-0.11193099
10	0xbceb17af	-0.028697817
11	0x3e19bb9b	0.15012972
12	0xbc2747b7	-0.010209969
13	0x3e026ef4	0.12737638
14	0xbbe2bd5c	-0.006919546
15	0x3cfdf93d	0.031002635
16	0xbe18e1f1	-0.1492994
17	0x3e5ec9f7	0.21756731
18	0x3e7bdadd	0.24595208
19	0xbdae9e28	-0.0852626
20	0x3e36130a	0.177807
21	0xbe2b8b5c	-0.1675238
22	0x3d80b9f7	0.0628547
23	0xbd97404c	-0.073853105
24	0xbe78f434	-0.24311906
25	0x3eaaaa0d	0.33332863
26	0x3e8b2453	0.2717615
27	0xbe0a621f	-0.13513993
28	0x3e007768	0.1254555
29	0xbd5d7a21	-0.05407155
30	0xbbb3090d	-0.0054637254
31	0xbbdb1c32	-0.0066867108
32	0xbe483ad8	-0.19553697
33	0x3e2e0cce	0.16997072
34	0x3e5ef6bc	0.21773809
35	0xbdd6a493	-0.10480609
36	0xbc9e4597	-0.019320292
37	0xbdf1299b	-0.11775514
38	0x3e44d075	0.19220145
39	0x3cea6627	0.028613163
40	0xbd66f689	-0.056387458
41	0xbc2a6dd9	-0.010402166
42	0xbd8f7dbb	-0.07006403
43	0x3d54d524	0.05196108
44	0xbe293f26	-0.16527995
45	0xbdf0ddc0	-0.117610455
46	0xbd43d91a	-0.047814466
47	0xbd7a12aa	-0.061052956
48	0x3da5c748	0.080946505
49	0x3df7018b	0.12060841
50	0x3df07ab3	0.11742153
51	0x3bce8faa	0.006303747
52	0x3e116148	0.14197266
53	0x3d8d29d1	0.068927415
54	0xbd8949ec	-0.067035526
55	0xbcf8db7b	-0.030378094
56	0x3da82092	0.08209337
57	0xbd0ce70c	-0.03440003
58	0x3dcf7826	0.10130338
59	0x3e1dd695	0.15413888
60	0x3e3da7e5	0.18521078
61	0x3d5d7e02	0.05407525
62	0xbd43c146	-0.04779174
63	0xbdd2f188	-0.10299975

head.norm.running_var f4 [64]
0	0x3ca08673	0.01959536
1	0x3daf1a58	0.085499465
2	0x3d2b939d	0.041888822
3	0x3e0c434b	0.13697545
4	0x3d0c9e9b	0.034330945
5	0x3ca1e9f1	0.019764872
6	0x3d1ab600	0.037771225
7	0x3c4117fc	0.0117855035
8	0x3bfb3b56	0.0076669855
9	0x3c00ec54	0.007868845
10	0x3db07672	0.08616342
11	0x3c814dde	0.0157842
12	0x3d014ddf	0.031568404
13	0x3d7653b5	0.060138423
14	0x3d88f93f	0.06688165
15	0x3c4576e6	0.012052273
16	0x3ca88b19	0.02057414
17	0x3d2c64bb	0.04208825
18	0x3cab1716	0.020885032
19	0x3dd175a5	0.10227517
20	0x3d351d2d	0.044217277
21	0x3d7cc5bd	0.061712015
22	0x3c391a4f	0.011297776
23	0x3c82b59d	0.01595574
24	0x3d8590bf	0.06521749
25	0x3e1a09d4	0.15042812
26	0x3e34be49	0.17650713
27	0x3b40247c	0.0029318621
28	0x3b82aa98	0.0039876215
29	0x3bbc8f3e	0.0057543805
30	0x3c905bc1	0.017621877
31	0x3cfe98ce	0.031078722
32	0x3c0e05bd	0.00866836
33	0x3c9d67c4	0.019214518
34	0x3e5b37ee	0.21408054
35	0x3d4aee9e	0.04954397
36	0x3dd96c91	0.106164105
37	0x3da0b7b2	0.07847537
38	0x3ca8c278	0.020600542
39	0x3e1e9f55	0.15490468
40	0x3bdcad23	0.0067345067
41	0x3b815526	0.003946918
42	0x3c01ff07	0.007934338
43	0x3df6de1a	0.12054081
44	0x3bf4a383	0.007465781
45	0x3d867c5a	0.06566687
46	0x3c654478	0.013993375
47	0x3e4026b3	0.18764763
48	0x3be2ed3f	0.0069252546
49	0x3de8bde3	0.11364343
50	0x3c869ebf	0.016433118
51	0x3c2e68c0	0.0106450915
52	0x3d2c35a9	0.04204336
53	0x3d5ed4d1	0.054402176
54	0x3b6e54eb	0.0036366533
55	0x3e2c6e17	0.16838871
56	0x3ba958df	0.005168065
57	0x3de565d0	0.1120106
58	0x3e4ff519	0.20308341
59	0x3cab318e	0.020897653
60	0x3e0121ad	0.12610503
61	0x3c7e1dc6	0.015510028
62	0x3c58201e	0.013191251
63	0x3b43b159	0.0029860346

body.block1.conv.weight f4 [64, 64, 3, 3]
0	0x3d3ecc07	0.046581294
1	0x3a1ce3bd	0.00059848634
2	0x3e3e68c3	0.18594651
3	0x3c7c1382	0.01538551
4	0xbdad8fba	-0.08474679
5	0x3d623f5d	0.05523621
6	0x3c9dd550	0.019266754
7	0x3d6b8ebd	0.057509173
8	0x3d616013	0.055023264
9	0xbd037889	-0.032097373
10	0xbc96f36e	-0.018426623
11	0x3d040c7f	0.03223848
12	0xbcac8795	-0.021060744
13	0x3dbd37cd	0.09239159
14	0x3deec959	0.11659498
15	0x3cdb0d9f	0.026739893
16	0x3dc32778	0.095290124
17	0x3dab03cc	0.083503336
18	0x3d9a9f7f	0.07549953
19	0x3d3018a9	0.042992268
20	0x3d60a4ca	0.054844655
21	0x3d37b671	0.044851724
22	0x3d2ff5bf	0.04295897
23	0x3cd09170	0.025459975
24	0x3d394d44	0.045239702
25	0x3d0652d4	0.032793835
26	0x3dbf2fc9	0.09335286
27	0x3d44cd1f	0.04804718
28	0x3d4428e5	0.047890563
29	0x3c810f7a	0.01575445
30	0x3d5fd320	0.054644704
31	0x3d99e4d9	0.07514352
32	0x3d38f95e	0.04515969
33	0xbbb3db87	-0.005488816
34	0x3d22147a	0.03957031
35	0xbc8c1bac	-0.017103039
36	0xbd80555e	-0.062662825
37	0xbc247d1a	-0.010039592
38	0x3cd83b6a	0.026395518
39	0xbb6f0692	-0.0036472422
40	0x3d419bf3	0.047267865
41	0x3d0093c7	0.03139093
42	0xbd463c3a	-0.04839728
43	0xbd138d06	-0.036023162
44	0xbcb15cde	-0.021650728
45	0xbcafadfc	-0.021445267
46	0xbcc039f1	-0.023465129
47	0xbbc94a81	-0.0061429148
48	0xbb9d4e45	-0.00480059
49	0xbd83a684	-0.06428245
50	0xbd1107a5	-0.03540768
51	0xbda058a1	-0.078294046
52	0xbd60b043	-0.054855596
53	0x3cb750b4	0.02237735
54	0x3c563f06	0.013076549
55	0x3ce0d6a1	0.027446093
56	0xbd429fbb	-0.047515612
57	0xbaad2ba5	-0.001321186
58	0x3d9c000d	0.07617197
59	0x3d157195	0.036485273
60	0xbda3e9f0	-0.080036044
61	0xbd557a85	-0.052118797
62	0xbe0d59fd	-0.13803859
63	0xbe30dae8	-0.17271006
64	0xbd88df74	-0.06683245
65	0xbd33a315	-0.0438567
66	0xbda2efee	-0.07955919
67	0xbd3472c9	-0.04405478
68	0x3d133dd5	0.03594764
69	0xbe22dc19	-0.15904273
70	0xbd9ac0c9	-0.07556302
71	0xbd3b98f7	-0.045800176
72	0xbd32e45b	-0.043674808
73	0x3caaf146	0.020867001
74	0xbc885eb2	-0.016646717
75	0x3cf66f72	0.030082438
76	0xbc988c76	-0.018621664
77	0x3d565cfc	0.05233477
78	0xba09b902	-0.00052537036
79	0x3d9406da	0.07227869
80	0xbd2ef578	-0.042714566
81	0x3ce1f8c1	0.027584435
82	0x3d87ff65	0.066405095
83	0x3e0d6d57	0.13811241
84	0xbc17791c	-0.009245183
85	0xbd83e3b2	-0.06439914
86	0xbc39b345	-0.011334245
87	0xbb317cb7	-0.0027082392
88	0xbac2b75d	-0.0014855672
89	0x3c672721	0.01410845
90	0x3d378db1	0.04481286
91	0x3d3f24f2	0.046666093
92	0x3c95c988	0.018284574
93	0xbd3cda4a	-0.046106614
94	0xbcaf7640	-0.02141869
95	0xbd4031d5	-0.046922524
96	0xbdecec37	-0.11568492
97	0xbdb421a3	-0.08795478
98	0xbd980bc5	-0.0742412
99	0x3c0d953c	0.008641537
100	0x3cd2c882	0.025730375
101	0x3d76be3a	0.060240008
102	0xbd8911b7	-0.06692832
103	0xbd840775	-0.06446735
104	0xbcb46cb6	-0.022024494
105	0xbdfeda7c	-0.12444016
106	0xbd7e30ce	-0.062058263
107	0xbd294aed	-0.04133122
108	0xbd0eadc9	-0.034833703
109	0x3c3e55e3	0.011617157
110	0xbc343d5b	-0.011000956
111	0xbd86832f	-0.0656799
112	0x3bf0fea1	0.007354573
113	0x3c1c34f9	0.009534114
114	0xbd924ab4	-0.07143155
115	0xbcf42173	-0.029801106
116	0x3d2ef503	0.04271413
117	0x3d13c3be	0.036075346
118	0x3d3d63da	0.046237804
119	0x3d9cfc15	0.07665268
120	0xbcf96d15	-0.030447522
121	0x3ca0396a	0.019558627
122	0x3d5243d8	0.051334232
123	0xbdc6dff9	-0.09710688
124	0x3d3d67c9	0.046241555
125	0x3bc381a0	0.0059663802
126	0xbd2a15e9	-0.0415248
127	0xbd21603c	-0.039398417
128	0xbd753f89	-0.059875045
129	0xbdc3ea87	-0.09566217
130	0xbd0d7415	-0.034534533
131	0xbcba16c5	-0.022715935
132	0xbe027de8	-0.12743342
133	0xbdc94db5	-0.098292746
134	0xbdb13be0	-0.086539984
135	0x3b498cb2	0.0030754027
136	0xbbd4bee4	-0.0064924825
137	0xbdb2bdcc	-0.08727607
138	0x3d5353c7	0.05159357
139	0x3cfe8794	0.031070508
140	0x3c078169	0.0082706
141	0xbbac4057	-0.0052566933
142	0x3c85556d	0.016276086
143	0x3dd63640	0.10459566
144	0x3de165a3	0.11005714
145	0x3dc88219	0.09790439
146	0x3dc0c9a0	0.09413457
147	0x3d90f95f	0.07078814
148	0x3d8fca06	0.07020955
149	0x3d4e97d3	0.05043776
150	0xbda8deaf	-0.082455985
151	0x3d374d30	0.044751346
152	0x3d22a674	0.039709523
153	0x3b8b34ac	0.0042482223
154	0xbd4e4e04	-0.05036737
155	0xbdc5b48c	-0.09653577
156	0xbd0ef997	-0.034905996
157	0xbc828b74	-0.015935637
158	0x3cc52155	0.024063746
159	0xbd0f0f92	-0.03492696
160	0xbd128d9f	-0.03577959
161	0xbdb6c375	-0.08923999
162	0x3b70703d	0.0036687993
163	0x3c8a257a	0.016863573
164	0x3d156b96	0.036479555
165	0x3c8cd727	0.017192436
166	0x3d2418da	0.040062763
167	0x3d9d14e8	0.07670003
168	0x3dbbd8aa	0.09172185
169	0x3c99664a	0.018725533
170	0x3da1ae47	0.07894569
171	0x3d7c40e3	0.06158532
172	0x3d451e96	0.048124872
173	0x3d999c15	0.075004734
174	0x3ad085f9	0.0015909068
175	0xbd141672	-0.036154218
176	0xbbb874a0	-0.005629137
177	0xbda6d01d	-0.08145163
178	0xbd9ec867	-0.077530675
179	0xbce4576b	-0.027873715
180	0x3d93845a	0.072029784
181	0x3c7687d0	0.015047029
182	0x3d1a05d5	0.037603218
183	0xbcb5b1ab	-0.022179445
184	0xbcc6d68d	-0.024272228
185	0xbd90bb96	-0.07067029
186	0xbc680d69	-0.0141633535
187	0x3c5f7aa4	0.01364008
188	0x3cd7b837	0.026332958
189	0x3c95e220	0.018296301
190	0x3ccecad3	0.025243198
191	0x3c5e62bd	0.013573346
192	0xbc39ca37	-0.011339716
193	0x3c80662c	0.01567372
194	0xbd361253	-0.04445107
195	0xbda71824	-0.08158901
196	0xbda54f8c	-0.08071813
197	0xbd98d4ab	-0.07462438
198	0xbd98d135	-0.07461778
199	0x3c5b23bc	0.013375219
200	0x3cb0d1eb	0.021584472
201	0x3d384804	0.044990554
202	0x3d03e270	0.03219837
203	0xbd92f8d5	-0.07176367
204	0xbdbd3b65	-0.09239844
205	0x3cab02a5	0.020875284
206	0x3ce218db	0.027599743
207	0xbe22a6f7	-0.15884005
208	0xbce234df	-0.027613102
209	0xbcf0d8d1	-0.029400261
210	0xbda5838f	-0.080817334
211	0xbd07b667	-0.033132937
212	0xbda25770	-0.07926834
213	0x3d9dfca0	0.077142
214	0x3d592138	0.053010195
215	0xbcd77942	-0.026302937
216	0x3e08e043	0.13366799
217	0x3dd761ae	0.10516678
218	0x3df48191	0.11938775
219	0x3d772c69	0.060345087
220	0x3c1b7c1a	0.009490037
221	0x3d3c16db	0.045920234
222	0xbd83fe60	-0.064450026
223	0xbd066e4d	-0.032820035
224	0xbcd9f980	-0.026608229
225	0xbd00d4f9	-0.031453107
226	0xbb887d58	-0.0041653328
227	0x3c629076	0.0138283875
228	0xbced2ea0	-0.028952897
229	0x3cd6996d	0.026196206
230	0x3bd2118b	0.0064107827
231	0xbd43f810	-0.047843993
232	0xbc801f94	-0.015640058
233	0xbd35d652	-0.044393845
234	0xbda6e64a	-0.08149393
235	0xbd9cda2b	-0.076588
236	0xbdd555a6	-0.10416727
237	0xbdad9045	-0.08474783
238	0xbbb00902	-0.0053721676
239	0x3c6f2843	0.0145970015
240	0xbd8b65f3	-0.06806555
241	0x3d5a5d1f	0.053311463
242	0x3b913fef	0.0044326703
243	0xbcbbf81f	-0.022945462
244	0x3cade180	0.02122569
245	0x3d226d3f	0.039654966
246	0xbcd6dde8	-0.02622886
247	0x3d42a4dd	0.047520507
248	0x3d8ad634	0.06779137
249	0xbc9e2b0b	-0.019307634
250	0xbd3ed63d	-0.046591032
251	0xbd4051d5	-0.04695304
252	0x3afeb263	0.0019431825
253	0xbcd70c5c	-0.02625101
254	0xbcbb25e4	-0.022845216
255	0xbcd9b30e	-0.026574638

body.block1.conv.bias f4 [64]
0	0xbcf699b5	-0.03010259
1	0x3d3b79b1	0.04577035
2	0xbcff65fe	-0.031176563
3	0x3d36ee76	0.044661008
4	0xbd064c8a	-0.032787837
5	0xbd43f267	-0.047838595
6	0x3c27a8d9	0.0102331275
7	0x3cf1b0a6	0.029503178
8	0xbc91895c	-0.017765693
9	0x3d24d706	0.040244125
10	0xbcf83399	-0.030298041
11	0x3969f5d3	0.00022312188
12	0x3d06271d	0.032752145
13	0xbcaddb07	-0.021222604
14	0x3d11f91e	0.035637967
15	0xbb187e17	-0.0023268515
16	0xbd0dad6a	-0.03458921
17	0xbd0c9d8d	-0.03432994
18	0x3c997a30	0.018735021
19	0xbc259b87	-0.010107881
20	0x3d4ca30b	0.049960177
21	0x3d4660c6	0.048432134
22	0x3cd138d7	0.025539799
23	0x3cd15b64	0.025556274
24	0x3c1c1050	0.009525374
25	0xbc751f37	-0.0149610555
26	0xbd110b6f	-0.035411295
27	0xbc05d2af	-0.008167907
28	0x3d0a8498	0.033817858
29	0x3d0ec0f1	0.034851972
30	0xbca86338	-0.020555124
31	0xbcf47e3d	-0.029845351
32	0xbcfa8c60	-0.030584514
33	0xbc858a96	-0.016301434
34	0xbc28a2f7	-0.01029276
35	0x3d08a902	0.033364303
36	0xbc3afd07	-0.0114128655
37	0xbd2b8dc1	-0.041883234
38	0x3c97b510	0.018518955
39	0xbb5ee699	-0.0034011959
40	0xbb35e8b5	-0.0027757112
41	0xbcbb757b	-0.022883167
42	0xb9b27be2	-0.00034043106
43	0xbcd41686	-0.025889646
44	0xbc408fd9	-0.011753046
45	0xbc487b54	-0.012236435
46	0xbcba8c2f	-0.022771923
47	0x3d053d50	0.032529175
48	0xbd043d2e	-0.032284908
49	0x3d17db5b	0.037074428
50	0xbd1a7846	-0.037712358
51	0x3ce58b02	0.028020386
52	0x3b7da1d4	0.0038701193
53	0x3cb253e1	0.021768512
54	0x3d0f0007	0.034912135
55	0xbc7b2eb4	-0.015330959
56	0xbd60bfb4	-0.054870322
57	0xbca477f9	-0.020076739
58	0x3c6d7585	0.014493351
59	0xbbc97732	-0.0061482424
60	0x3a8fe035	0.0010976853
61	0x3bc9cbfd	0.0061583505
62	0x3d122dcf	0.035688218
63	0x3c3adfe9	0.011405923

body.block1.norm.weight f4 [64]
0	0x3f659cfb	0.8969266
1	0x3f4fd5e5	0.8118575
2	0x3f7149b8	0.9425311
3	0x3f6eb725	0.93248206
4	0x3f5ccbab	0.8624827
5	0x3f65eefb	0.8981778
6	0x3f6f0b9d	0.93377095
7	0x3f68384e	0.90710914
8	0x3f5f7fb3	0.8730423
9	0x3f710f49	0.9416395
10	0x3f58dec0	0.8471489
11	0x3f7d2c4f	0.98895735
12	0x3f733f4d	0.95018464
13	0x3f6b47ca	0.91906416
14	0x3f7e7261	0.9939328
15	0x3f5abadb	0.8544137
16	0x3f6678d3	0.90028113
17	0x3f873103	1.0561832
18	0x3f88b64d	1.0680634
19	0x3f5a360d	0.85238725
20	0x3f83c90e	1.0295732
21	0x3f72ffac	0.94921374
22	0x3f5e6281	0.86869055
23	0x3f7c3a37	0.9852633
24	0x3f87854f	1.0587558
25	0x3f60d28e	0.8782128
26	0x3f69e19c	0.9135988
27	0x3f6b3565	0.9187835
28	0x3f5f0dbc	0.8713033
29	0x3f848724	1.0353742
30	0x3f6e6654	0.9312489
31	0x3f645230	0.8918791
32	0x3f812cdb	1.0091814
33	0x3f405355	0.75127155
34	0x3f829b4a	1.020364
35	0x3f684b6f	0.907401
36	0x3f5d494f	0.86439985
37	0x3f815a7d	1.010574
38	0x3f72499c	0.9464357
39	0x3f65af6d	0.89720803
40	0x3f658643	0.8965799
41	0x3f7f7b2e	0.9979733
42	0x3f3caf39	0.7370487
43	0x3f95f548	1.1715479
44	0x3f860501	1.0470277
45	0x3f7708c1	0.9649773
46	0x3f6b1dc3	0.9184229
47	0x3f6f56a4	0.9349158
48	0x3f6311e2	0.8869916
49	0x3f7bbd9b	0.9833619
50	0x3f6dace4	0.92841935
51	0x3f88516a	1.0649846
52	0x3f5d371b	0.8641221
53	0x3f88a671	1.0675794
54	0x3f63ad2f	0.8893613
55	0x3f5896d0	0.8460512
56	0x3f8c987b	1.0984033
57	0x3f7eca27	0.9952721
58	0x3f5e50cf	0.86842054
59	0x3f83f4d6	1.0309093
60	0x3f7e5cb6	0.99360216
61	0x3f8c7435	1.0972964
62	0x3f7bbda5	0.9833625
63	0x3f70543e	0.93878543

body.block1.norm.bias f4 [64]
0	0x3e89b64d	0.26896897
1	0x3ee885f6	0.45414704
2	0x3f022c5d	0.50848943
3	0x3e8a8120	0.2705164
4	0x3e924fb8	0.28576446
5	0x3b5e1c2e	0.0033891308
6	0x3f1e09c7	0.6173367
7	0x3eb23cf6	0.34812135
8	0x3f005dc7	0.5014309
9	0x3ee23f4b	0.44188914
10	0x3ed25297	0.41078636
11	0x3d521c2b	0.051296394
12	0x3ee5a7a4	0.44854462
13	0x3ec59b69	0.3859513
14	0x3e01bc0c	0.1266939
15	0x3ec78ca8	0.389745
16	0x3ee35982	0.44404227
17	0x3ed5e7a3	0.41778287
18	0xbc363820	-0.01112178
19	0x3efa64e6	0.48905104
20	0x3d4d7245	0.050157804
21	0x3e6c18b5	0.230563
22	0x3ed1a61f	0.40947053
23	0xbdf57076	-0.11984341
24	0x3e166c69	0.14689793
25	0x3f449830	0.7679472
26	0x3f1e23f3	0.61773604
27	0x3e79a15d	0.24377961
28	0x3efb02f6	0.49025697
29	0x3e702434	0.2345131
30	0x3ef62ca4	0.48080933
31	0x3f133557	0.57503265
32	0xbd99a088	-0.07501322
33	0x3f18cd76	0.5968851
34	0x3e7b2965	0.2452751
35	0x3f0c4545	0.54793197
36	0x3e60feb1	0.21972157
37	0xbdf5e2bc	-0.12006137
38	0x3efde26a	0.49586803
39	0x3ef31ee1	0.47484496
40	0x3ed0880a	0.4072879
41	0x3e93f076	0.28894395
42	0x3ecdf024	0.40222275
43	0x3f044225	0.5166343
44	0x3da92a47	0.08260017
45	0x3dc45b2a	0.09587701
46	0x3e88bfa8	0.26708722
47	0x3ec658e1	0.38739684
48	0x3ebb8f09	0.36632565
49	0x3e81fee4	0.2538978
50	0x3f058639	0.5215793
51	0x3dc4c76b	0.096083485
52	0x3f000d59	0.50020367
53	0x3ed6bfa1	0.41943076
54	0x3e944dc3	0.28965577
55	0x3e5ca12d	0.21545859
56	0x3e94c3a5	0.29055515
57	0x3e240608	0.16017926
58	0x3ea160db	0.31519207
59	0x3e61710f	0.22015785
60	0xbdff6c75	-0.124718584
61	0x3edf3ede	0.4360265
62	0x3ddec3b4	0.10877171
63	0xbb1d2af4	-0.00239819

body.block1.norm.running_mean f4 [64]
0	0xbf8ebad4	-1.1150765
1	0xbeb37620	-0.3505106
2	0xc0a30df8	-5.095455
3	0x3e5df32f	0.21674798
4	0xc0277e06	-2.6170669
5	0xc02c4810	-2.6918983
6	0xc00e4224	-2.222787
7	0xc001dfd3	-2.0292861
8	0x3f64a50c	0.8931434
9	0xc084894d	-4.1417603
10	0xbf285732	-0.6575805
11	0xbfda3e14	-1.7050195
12	0xc04b5163	-3.1768425
13	0xbfdacdfc	-1.7094111
14	0x3e8ae6e5	0.27129284
15	0x406fcda8	3.7469273
16	0xc033789d	-2.8042367
17	0xc0c87815	-6.2646585
18	0xc0365e96	-2.849523
19	0xc0511c72	-3.2673612
20	0xc015635e	-2.33419
21	0xc03db09e	-2.9639049
22	0xbf0cb046	-0.5495647
23	0x3eff2263	0.49830922
24	0x3fe586f8	1.7931814
25	0x3f0456ec	0.5169513
26	0xbf1bfb9b	-0.60930794
27	0xbff2c19c	-1.8965335
28	0xbe63cf76	-0.22247109
29	0x4030eec1	2.7645724
30	0xbf486085	-0.7827228
31	0x405a66fd	3.412536
32	0x3e8aa113	0.27076015
33	0xbfd7e054	-1.6865335
34	0xbe9c5186	-0.30530947
35	0x3f3cfa29	0.73819214
36	0xbf2f2c7b	-0.68427247
37	0xc0b5a3ad	-5.67623
38	0x3fa63703	1.2985538
39	0x3fc71c5d	1.5555531
40	0xbfd4ffd5	-1.6640574
41	0xbfcddd85	-1.6083227
42	0xbfe865be	-1.8156049
43	0x40eff954	7.4991856
44	0xc0cfee4f	-6.4978404
45	0xc023248f	-2.5491064
46	0x3ee24a39	0.44197252
47	0xc0776706	-3.865663
48	0xbfc4dad5	-1.5379282
49	0x3f4e97cf	0.8070039
50	0xbf1dd98d	-0.6166008
51	0xc0043d7b	-2.0662525
52	0xbf95f19d	-1.171436
53	0xc063e1bc	-3.5606527
54	0xbe2ee776	-0.17080483
55	0xbf859621	-1.0436441
56	0x40dcf5db	6.9050117
57	0x3f8dfd44	1.1092916
58	0xbfc1905e	-1.5122182
59	0xc06335b7	-3.5501535
60	0xc0362e31	-2.8465693
61	0xc0a014c9	-5.0025373
62	0xc0401dd5	-3.0018208
63	0xbf771afb	-0.96525544

body.block1.norm.running_var f4 [64]
0	0x3f5afc39	0.8554111
1	0x3f914f62	1.1352351
2	0x405b9e54	3.4315386
3	0x3ff1fc71	1.8905164
4	0x403120bd	2.7676232
5	0x3fe6fb6d	1.8045479
6	0x3fb457d8	1.4089308
7	0x3faf0853	1.3674415
8	0x40086b3d	2.1315453
9	0x40454d80	3.0828552
10	0x3fe9da4c	1.8269744
11	0x3fac4e81	1.3461457
12	0x3fd88f6a	1.6918766
13	0x3fdc7492	1.7223074
14	0x3fa89622	1.3170817
15	0x3f666af0	0.90006924
16	0x3f8dbb62	1.107281
17	0x4049b191	3.1514628
18	0x408b1adc	4.3470287
19	0x3fb868ef	1.4407023
20	0x4005b797	2.0893304
21	0x3ff86658	1.9406233
22	0x3f8c4eb6	1.0961521
23	0x3fa77caf	1.3084925
24	0x40631c52	3.5486035
25	0x3f8e6470	1.1124401
26	0x402e8424	2.7268152
27	0x3f6b4397	0.9190001
28	0x3f6fe64a	0.9371077
29	0x400cfb1a	2.202826
30	0x3f91913a	1.1372445
31	0x3fe7810d	1.8086258
32	0x40d6e26d	6.71514
33	0x3f153846	0.5828899
34	0x3fb9e558	1.4523115
35	0x3fbe29e5	1.4856535
36	0x3f926e7d	1.1439968
37	0x40883079	4.255917
38	0x402aaedf	2.6669233
39	0x3f60bfe3	0.87792796
40	0x3fe8de57	1.8192853
41	0x3fb6b3d4	1.4273629
42	0x3f001cb1	0.5004378
43	0x40ce7734	6.452051
44	0x40d9b40d	6.803229
45	0x3f6475a4	0.89242005
46	0x3f4dd249	0.80398995
47	0x404e9c69	3.2282965
48	0x3fa79b98	1.3094358
49	0x3fd49003	1.6606449
50	0x3f863aad	1.0486656
51	0x3fdf0820	1.7424355
52	0x4081519f	4.0412135
53	0x4008add8	2.1356106
54	0x3fad9278	1.3560324
55	0x3f79c4fc	0.975662
56	0x40a92117	5.2852893
57	0x40083e84	2.1288157
58	0x3f871b9a	1.0555298
59	0x40d0044b	6.500524
60	0x3fa410a6	1.2817581
61	0x40a2b075	5.08404
62	0x3f87db38	1.0613775
63	0x40853a7f	4.1633906

body.block2.conv.weight f4 [64, 64, 3, 3]
0	0xbcc05602	-0.023478512
1	0x3d94562e	0.07243
2	0x3ca9856f	0.020693509
3	0x3cd24b61	0.02567071
4	0x3d3944b2	0.04523153
5	0x3d859979	0.06523413
6	0xbb9dc2ba	-0.004814473
7	0xbd1875d9	-0.037221763
8	0xbd918c7d	-0.07106874
9	0xbd44eaa5	-0.048075337
10	0x3b9f0fb0	0.004854165
11	0xbd6326a5	-0.055456776
12	0x3d71c47e	0.05902528
13	0x3d8d3c48	0.06896263
14	0x3d50201d	0.050811876
15	0x3c7db9d6	0.015486201
16	0xbb876d68	-0.0041329153
17	0xbd6cef28	-0.057845265
18	0xbe18cf52	-0.14922836
19	0xbcf22f96	-0.029563706
20	0xbd2ac260	-0.041689277
21	0xbc87b6b3	-0.01656661
22	0x3d086271	0.033297006
23	0x3c2fae84	0.01072276
24	0x3d40e80c	0.047096297
25	0x3d0d433d	0.03448795
26	0xbd7e65ac	-0.06210868
27	0xbd8906f2	-0.06690778
28	0xbd07ad57	-0.033124294
29	0xbc0c4ed8	-0.00856372
30	0xbabdd3f8	-0.0014482727
31	0x3b5783af	0.0032884886
32	0xbd48426e	-0.048891477
33	0x3bad9f7e	0.005298554
34	0xbbc4108b	-0.0059834174
35	0xbd4292ac	-0.04750316
36	0xbce12b41	-0.027486445
37	0xbda68a71	-0.08131874
38	0xbde4c67a	-0.11170669
39	0x3c5834e9	0.0131962085
40	0xbc639233	-0.013889837
41	0xbbb1dd6f	-0.0054280083
42	0x3d424187	0.047425773
43	0x3d85da74	0.06535807
44	0x3d1b260f	0.037878092
45	0x3d0d5e67	0.034513857
46	0x3bafb039	0.0053615835
47	0x3d952636	0.07282679
48	0x3dd6041f	0.10450005
49	0xbc964c3c	-0.018346898
50	0xbca14d3a	-0.019690145
51	0x3e0b77a0	0.13619852
52	0x3dc19ecb	0.094541155
53	0x3e1203e3	0.14259295
54	0xbda20acb	-0.07912215
55	0xbd5bc6f0	-0.05365652
56	0xbe0c6dc3	-0.13713746
57	0x3c5ac82d	0.01335339
58	0x3d880109	0.066408224
59	0x3d8d630e	0.06903659
60	0x3d2fd2af	0.042925533
61	0xb8af3fa9	-8.356508e-05
62	0x3d3d6c75	0.04624601
63	0x3d34d581	0.044148926
64	0x3d5e4369	0.054263506
65	0x3c1c1850	0.009527281
66	0x3bd92f35	0.006627942
67	0xbd840f16	-0.0644819
68	0x3d04e168	0.032441527
69	0x3d09c960	0.03363931
70	0x3c27f396	0.0102509465
71	0x3dafdc96	0.08586995
72	0x3c9d43b0	0.019197315
73	0xbc6f7ca4	-0.014617119
74	0xbe23931e	-0.1597409
75	0x3cf311af	0.029671518
76	0x3d4c7d9e	0.049924485
77	0x3c28ed0a	0.010310421
78	0x3dd3899a	0.1032898
79	0x3e18276d	0.1485879
80	0x3d82e00f	0.06390392
81	0xbd49714e	-0.04918032
82	0x3da9d30e	0.082922086
83	0x3c8dc956	0.017307919
84	0x3d8ccfb1	0.068755515
85	0x3d0918f9	0.03347108
86	0xbd8316e7	-0.06400853
87	0x3da0d34e	0.07852803
88	0xbc0a0f98	-0.008426569
89	0xbd3f6548	-0.04672745
90	0xbd7754fc	-0.06038378
91	0x3ca725fe	0.020403858
92	0x3d9a49c4	0.07533601
93	0x3d5832e9	0.052782927
94	0xbd19f28e	-0.037584834
95	0x3dda8534	0.10669938
96	0x3d35b6ca	0.044363774
97	0x3d4c6430	0.049900234
98	0x3dfdf4e8	0.12400228
99	0x3d468205	0.04846384
100	0x3c2f0510	0.010682359
101	0x3c2b3f96	0.010452172
102	0x3dd304d1	0.10303653
103	0xbc9a67f2	-0.018848393
104	0xbd2a438d	-0.041568328
105	0x3d0541ca	0.032533444
106	0xbd442646	-0.047888063
107	0x3b73a452	0.00371768
108	0xbdf9ac6e	-0.121910915
109	0xbde1e80e	-0.11030589
110	0xbdb11b0c	-0.08647737
111	0xbd2814a6	-0.041035317
112	0xbd7309c2	-0.059335478
113	0x3bb1c3eb	0.0054249666
114	0x3d2c120d	0.042009402
115	0x3cea4537	0.028597457
116	0x3df61d2d	0.120172836
117	0xbe0f9c68	-0.14024508
118	0x3d43f71e	0.04784309
119	0x3d002f36	0.031295024
120	0xbd588f11	-0.052870814
121	0x3c84b200	0.016198158
122	0xbd828063	-0.06372144
123	0x3d055cff	0.03255939
124	0xbcbf6bc3	-0.023366814
125	0xbcd9f661	-0.02660674
126	0x3d87ace7	0.066247754
127	0x3da4d5f5	0.080486216
128	0xbca940ae	-0.020660724
129	0x3dda3aae	0.106557235
130	0x3c57a965	0.013162945
131	0xbbe5c7b8	-0.0070123337
132	0x3b5b399d	0.0033451088
133	0x3db12aae	0.08650719
134	0x3cb19c81	0.021681072
135	0x3d6417a2	0.0556866
136	0x3d2438e5	0.04009332
137	0x3d3d193e	0.04616665
138	0xbcbdbca1	-0.023161234
139	0x3c8ba34e	0.017045643
140	0xbc917345	-0.01775516
141	0xbcf205a7	-0.02954371
142	0xbd833a1d	-0.064075686
143	0xbe1d9785	-0.15389831
144	0xbd7632a0	-0.060106874
145	0xbbbd82f5	-0.0057834336
146	0x3c5cb61d	0.013471154
147	0x3d3e2263	0.046419512
148	0xbbadf37a	-0.0053085657
149	0x3cadc8f5	0.021213988
150	0x3d8d003d	0.06884811
151	0x3c25f9d4	0.010130364
152	0x3db24274	0.08704081
153	0xbd6abbc3	-0.05730797
154	0xbd295065	-0.041336436
155	0xbacaef8f	-0.0015482771
156	0xbceb3d8f	-0.028715877
157	0x3cbdd5ab	0.023173174
158	0x3c20ffce	0.009826614
159	0xbca3d1b3	-0.019997453
160	0x3d02e070	0.03195232
161	0x3d194cb9	0.037426684
162	0x3e02c2ad	0.12769575
163	0x3da912c6	0.08255534
164	0x3daf5319	0.085607715
165	0x3c4fe6f3	0.01268934
166	0x3d0b3139	0.03398249
167	0xbab059dd	-0.0013454516
168	0x3d8f4d11	0.06997121
169	0x3bea8014	0.0071563814
170	0x3c6d2b22	0.014475616
171	0xbd1c9393	-0.038226675
172	0xbc9438fc	-0.018093579
173	0xbdece941	-0.11567927
174	0x3c13f614	0.009030838
175	0x3d3f68a0	0.046730638
176	0x3d8119cc	0.063037485
177	0x3df58e3d	0.119900204
178	0x3db185bb	0.08668085
179	0x3e3dd2df	0.18537472
180	0xbdfb3acb	-0.12267073
181	0x3d10f4e1	0.035389785
182	0xbd091d37	-0.033475127
183	0xba5c7a00	-0.00084105134
184	0xbd1fd677	-0.03902289
185	0x3d1bdbbc	0.038051352
186	0x3df90b95	0.12160412
187	0x3da0a77e	0.078444466
188	0x3cdaeabf	0.026723264
189	0xbd2c83ec	-0.042117998
190	0xbd36c450	-0.044620812
191	0x3b1254be	0.0022328342
192	0xbd61c005	-0.055114765
193	0xbd14e751	-0.036353413
194	0xbcd80186	-0.026367914
195	0xbdb9bf1a	-0.09069653
196	0xbcbcaa04	-0.023030289
197	0xbd94f436	-0.07273142
198	0xbcd2d1fc	-0.025734894
199	0x3d8c1d4c	0.068415254
200	0x3c3bebca	0.011469791
201	0xbd989cdd	-0.07451794
202	0x3c4dd823	0.012563738
203	0x3dcde081	0.10052586
204	0xbc4998c7	-0.012304491
205	0x3d2bd730	0.041953266
206	0x3d78f750	0.06078273
207	0x3d3b582d	0.045738388
208	0x3d5ba2c3	0.05362202
209	0x3dd80e73	0.10549631
210	0xbdb19e76	-0.08672802
211	0xbc9d232a	-0.019181807
212	0x3d4bb763	0.049735438
213	0xbd1ffd81	-0.03906012
214	0x3c8be9b4	0.017079212
215	0xbb755d74	-0.0037439736
216	0xbce6959e	-0.028147515
217	0x3d57e870	0.052711904
218	0x3da6a766	0.081373975
219	0xbc5e980a	-0.013586054
220	0x3da0c504	0.07850078
221	0x3dbbdee2	0.09173371
222	0x3d82d1fe	0.06387709
223	0x3d33c365	0.043887515
224	0x3dd7cfdf	0.10537695
225	0x3e05fb92	0.13084248
226	0x3dbb1b65	0.091360845
227	0xbc51e6f6	-0.012811413
228	0x3d926a09	0.07149131
229	0xbca1497b	-0.019688359
230	0xbce561c9	-0.02800073
231	0x3dd939b8	0.10606712
232	0x3dc1ad6f	0.09456908
233	0x3e324744	0.17409998
234	0xba0a12ef	-0.00052671036
235	0xbd12ea6f	-0.035868105
236	0x3d4e241b	0.0503274
237	0x3bd86278	0.0066035353
238	0x3cef10b9	0.029182779
239	0x3c5a1b25	0.013312136
240	0x3d6cf7ad	0.05785339
241	0x3c77356b	0.015088419
242	0xbb53f2e6	-0.0032340824
243	0xbe38db92	-0.1805251
244	0x3d227ea7	0.039671566
245	0x3d64eb5f	0.05588853
246	0x3cafc671	0.021456929
247	0x3d432b80	0.047648907
248	0x39a55b86	0.00031539443
249	0x3d1604a2	0.036625512
250	0xbd86d095	-0.065827526
251	0x3d86d941	0.06584407
252	0xbd47eb2a	-0.048808254
253	0xbd489681	-0.048971657
254	0xbd49d8e1	-0.049279097
255	0xbd4f4402	-0.050601967

body.block2.conv.bias f4 [64]
0	0xbd20db8b	-0.039271872
1	0x3cb84e11	0.022498162
2	0x3b471c5a	0.003038189
3	0x3c45f13c	0.012081441
4	0x3adb9e9b	0.0016755642
5	0x3c97fe5c	0.018553905
6	0x3ba051b2	0.0048925513
7	0xbd0de02f	-0.034637626
8	0x3cf11a3d	0.029431457
9	0xba76c735	-0.00094138394
10	0x3c1e7fa1	0.009673984
11	0xbc9c540a	-0.019083042
12	0x3b9ce7dd	0.0047883824
13	0x3c38f332	0.011288451
14	0xbb040edd	-0.002015046
15	0xbcd3b714	-0.025844134
16	0x3c691106	0.01422525
17	0x3d19f544	0.03758742
18	0xbca34f2b	-0.019935211
19	0xbd1afa96	-0.037836634
20	0x3ab6ea02	0.0013955238
21	0xbd0c1003	-0.034194957
22	0xbbb6c599	-0.0055777547
23	0xbc9da745	-0.0192448
24	0xbc79c795	-0.015245338
25	0x3b18578b	0.002324554
26	0xbd02aff9	-0.0319061
27	0x3d08a0f6	0.03335663
28	0xbc9ef97b	-0.019406071
29	0xbc24493c	-0.010027226
30	0x3c98b4c9	0.018640893
31	0xbc00287a	-0.00782215
32	0x3cdbcb2d	0.02683028
33	0x3d0bbb57	0.034114208
34	0xbce4e72c	-0.027942263
35	0xbd07f44f	-0.033191975
36	0xbc33e3c8	-0.0109796
37	0xbc4e032a	-0.012573997
38	0x39c40f94	0.0003739564
39	0xbceabf2e	-0.028655615
40	0x3d1bc05c	0.038025245
41	0x3d181bab	0.03713576
42	0x3cf56766	0.02995653
43	0xbcf2b0b3	-0.029625272
44	0x3cf8e8f9	0.030384528
45	0xbceb82c9	-0.028748887
46	0x3d21f8cf	0.039543923
47	0x3d07c582	0.033147343
48	0xbcd877fa	-0.026424397
49	0x3ce20cae	0.027593937
50	0xbac7510d	-0.001520665
51	0x3c803600	0.01565075
52	0x3d1e2bd2	0.03861601
53	0xbd60c7fe	-0.054878227
54	0xbcffe253	-0.03123585
55	0xbc3afc43	-0.011412683
56	0x3d11a264	0.03555526
57	0x3d1b916e	0.03798049
58	0xbd0a1d34	-0.033719257
59	0xbcd90a0d	-0.02649405
60	0xbcaa9339	-0.020822154
61	0x3c9a93bb	0.018869272
62	0xba88743a	-0.0010410615
63	0x3bb19e6d	0.005420497

body.block2.norm.weight f4 [64]
0	0x3f70b93f	0.94032663
1	0x3f69c1c4	0.9131129
2	0x3f7ce06e	0.9877995
3	0x3f7ab4c8	0.979321
4	0x3f433f77	0.76268715
5	0x3f7f2638	0.9966769
6	0x3f88e06a	1.0693486
7	0x3f5dcaa5	0.86637336
8	0x3f66186b	0.8988101
9	0x3f72b345	0.94804794
10	0x3f810f77	1.0082844
11	0x3f83ba12	1.0291159
12	0x3f68c38b	0.90923375
13	0x3f892f9c	1.0717654
14	0x3f81fd1d	1.0155369
15	0x3f7b6b44	0.9821055
16	0x3f830ce5	1.023831
17	0x3f81f2e8	1.0152254
18	0x3f821e8a	1.016557
19	0x3f710964	0.94154954
20	0x3f7b32a5	0.9812415
21	0x3f72cdd1	0.948453
22	0x3f77ae8c	0.9675071
23	0x3f848ee2	1.0356104
24	0x3f7048de	0.93861187
25	0x3f760553	0.96101874
26	0x3f8079c7	1.0037163
27	0x3f581167	0.84401554
28	0x3f77ec6a	0.96845114
29	0x3f5e4189	0.8681875
30	0x3f5ed069	0.8703676
31	0x3f707287	0.93924755
32	0x3f6d171f	0.92613405
33	0x3f51fc6a	0.8202578
34	0x3f857290	1.0425587
35	0x3f70d7fa	0.94079554
36	0x3f84517b	1.0337366
37	0x3f7793ae	0.96709716
38	0x3f825f2f	1.0185298
39	0x3f8c26d5	1.094935
40	0x3f7f4253	0.9971058
41	0x3f8a101f	1.078617
42	0x3f7442ba	0.95414317
43	0x3f7c478d	0.9854668
44	0x3f541c15	0.8285535
45	0x3f582af2	0.8444053
46	0x3f8488bb	1.0354227
47	0x3f8c59ed	1.0964943
48	0x3f7b0f5f	0.9807033
49	0x3f712652	0.941991
50	0x3f696c0f	0.9118051
51	0x3f7a2529	0.9771295
52	0x3f818f43	1.0121845
53	0x3f87bae7	1.0603913
54	0x3f6a6c48	0.91571474
55	0x3f829044	1.0200276
56	0x3f7dd1a5	0.9914802
57	0x3f846b3d	1.0345227
58	0x3f7ce84c	0.98791957
59	0x3f5ea901	0.8697663
60	0x3f72e4fd	0.9488066
61	0x3f7115ee	0.9417409
62	0x3f6ddf78	0.9291911
63	0x3f82ae32	1.020941

body.block2.norm.bias f4 [64]
0	0x3eada040	0.33911324
1	0x3eab4e48	0.3345816
2	0x3e7283f1	0.23683144
3	0x3dbd9aba	0.092580274
4	0x3f1b3674	0.60629964
5	0x3ec0c223	0.37648115
6	0x3c630783	0.013856771
7	0x3e9899e0	0.29804897
8	0x3ea7d3fb	0.32778916
9	0x3e5cc582	0.21559718
10	0x3d655575	0.0559897
11	0xbe127650	-0.14302945
12	0x3e9bcfe8	0.30432057
13	0xbe6c1dd6	-0.23058257
14	0x3c726c7e	0.014796374
15	0x3e2c2a2e	0.16812965
16	0x3da796b1	0.08183039
17	0x3ec6d669	0.38835457
18	0x3e1ea61a	0.1549305
19	0x3e7c7349	0.24653353
20	0x3eb1e8d3	0.34747943
21	0x3e8351e4	0.25648415
22	0x3e9bab25	0.3040401
23	0xbe5cd0c2	-0.2156401
24	0x3dc93ebd	0.098264195
25	0x3e32ee07	0.17473613
26	0x3e44bc0e	0.19212362
27	0x3f22e24a	0.6362654
28	0x3e48f57a	0.19624892
29	0x3f1298f8	0.5726466
30	0x3ee80d2d	0.45322552
31	0x3eb6e2db	0.35719952
32	0x3f0f30d0	0.55933857
33	0x3edd7127	0.4325039
34	0x3d23b650	0.03996879
35	0x3f0837bc	0.53210044
36	0xbe2ea24f	-0.17054103
37	0xbd93d996	-0.072192356
38	0xbde11525	-0.10990361
39	0x3d97a7eb	0.07405075
40	0xbdf2bf10	-0.118528485
41	0x3e95e2f1	0.29274705
42	0x3ececd84	0.4039117
43	0x3de77d45	0.1130319
44	0x3edfcaaa	0.43709308
45	0x3f42b307	0.76054424
46	0x3ebe929b	0.37221226
47	0xbdfe5fad	-0.124205925
48	0x3e0baff9	0.13641347
49	0x3e931186	0.28724307
50	0x3ef35335	0.4752442
51	0x3e5f1e49	0.21788897
52	0x3ee250c3	0.4420224
53	0x3e33bce0	0.17552519
54	0x3e89f56f	0.26945063
55	0x3d33bbba	0.043880202
56	0x3e317658	0.17330301
57	0xbbe1af95	-0.006887386
58	0x3d4aea4c	0.04953985
59	0x3dd05da3	0.1017411
60	0x3e8f17e9	0.2794793
61	0xbd4fafe1	-0.05070484
62	0x3ed4ba83	0.41548547
63	0x3f12575e	0.5716456

body.block2.norm.running_mean f4 [64]
0	0x3f92e309	1.1475536
1	0xc003bd6f	-2.058437
2	0xbd5c360a	-0.053762473
3	0xbf802741	-1.0011979
4	0x3ffbdd6c	1.9676948
5	0x4035a36a	2.838099
6	0x40492ee5	3.1434872
7	0xbf2c15ca	-0.6722075
8	0x3f868ea2	1.0512278
9	0x4050b77a	3.2611985
10	0xbf15ff6f	-0.58592886
11	0xc0a597f6	-5.1748
12	0xc01880ad	-2.3828537
13	0xbfc9a5d0	-1.5753727
14	0xbf71def0	-0.944808
15	0xbfa0f144	-1.2573628
16	0xbf15b14a	-0.58473647
17	0x3e90152e	0.2814116
18	0xbf876985	-1.0579077
19	0xbfae4c33	-1.3617004
20	0xc01a2179	-2.408293
21	0x3ff4588d	1.9089524
22	0xbfe41565	-1.7819029
23	0x3f56142c	0.8362453
24	0xc0379809	-2.8686545
25	0xbf1aef2f	-0.60521215
26	0x3fd0d6e4	1.631558
27	0x3f61943a	0.881168
28	0xbf33dfcc	-0.7026336
29	0x4049c98b	3.1529262
30	0xbee9ccec	-0.45664155
31	0x3ef34b7a	0.47518522
32	0x3fdfa796	1.7473018
33	0x3f0750bb	0.5285756
34	0xc065d479	-3.5910933
35	0x3f8dd7ba	1.108146
36	0xbfde19e7	-1.7351655
37	0x3f258595	0.64656955
38	0xbff3590e	-1.9011552
39	0xbebdb13e	-0.37049288
40	0xc028ea60	-2.639305
41	0x3f0c56d6	0.5482
42	0xbed4819a	-0.41505128
43	0xc02a4d45	-2.6609662
44	0xbd93bb41	-0.0721345
45	0xbf3939c2	-0.72353756
46	0x3ee706c9	0.45122364
47	0x3e952417	0.29129097
48	0xbfb70853	-1.4299415
49	0x3fff808b	1.9961103
50	0x3f35a434	0.7095368
51	0x3fe67d3b	1.8006967
52	0x3f42ce7a	0.7609631
53	0xbf95beef	-1.1698893
54	0x3f195aec	0.5990436
55	0x3feb2366	1.8370178
56	0x40292cb4	2.6433535
57	0x3f2ae71c	0.66758895
58	0x3f919739	1.1374274
59	0x4032f5df	2.7962568
60	0xbe9b13a0	-0.3028841
61	0x3e20715b	0.15668242
62	0xbf03f98c	-0.51552653
63	0xbd5a646d	-0.05331843

body.block2.norm.running_var f4 [64]
0	0x3fdf622d	1.7451836
1	0x3fad7d10	1.3553791
2	0x3ffbff09	1.9687206
3	0x3f8abdac	1.0839133
4	0x3fac87d0	1.3478947
5	0x400d2927	2.2056367
6	0x403a9855	2.9155476
7	0x3f5fd51e	0.87434566
8	0x40314591	2.769871
9	0x3fb3c451	1.4044286
10	0x3f768d9e	0.9630984
11	0x4021aa5d	2.5260231
12	0x3f94bf47	1.1620873
13	0x3f3e04ee	0.7422627
14	0x3fac235c	1.3448291
15	0x3ff37d57	1.9022626
16	0x40002972	2.0025296
17	0x4005f7c1	2.0932467
18	0x3fc8a5e5	1.5675627
19	0x3fa67ff9	1.3007804
20	0x400e5e4e	2.224506
21	0x3f974300	1.1817322
22	0x3ff9fda7	1.9530534
23	0x3ff46039	1.9091865
24	0x3fe5f994	1.796679
25	0x401e20c8	2.4707508
26	0x40035c32	2.0525022
27	0x408921b6	4.285365
28	0x3fed83f3	1.8555893
29	0x3fa9203d	1.3212963
30	0x3fa737aa	1.3063862
31	0x40179cab	2.3689373
32	0x3fbb9729	1.4655505
33	0x3f9cec44	1.2259603
34	0x3ffcb84e	1.9743745
35	0x400a2c72	2.1589627
36	0x3ff0832f	1.8790034
37	0x3f591013	0.8479015
38	0x404cc4f1	3.1995203
39	0x401fb472	2.4953885
40	0x40080ca0	2.1257706
41	0x40037b6f	2.0544088
42	0x3f9f7d0f	1.246004
43	0x3faa049b	1.3282655
44	0x3fb3e113	1.4053062
45	0x400c60ea	2.1934152
46	0x3fe95d8a	1.8231671
47	0x40464b88	3.09836
48	0x3fb7705c	1.4331164
49	0x3fb7e448	1.4366541
50	0x3f921f4b	1.14158
51	0x401ff9b0	2.4996147
52	0x3ffbc4c3	1.9669422
53	0x3f92d40f	1.1470965
54	0x3f8ac835	1.0842348
55	0x3fcf2594	1.6183343
56	0x4002c253	2.0431106
57	0x40010b6a	2.0163217
58	0x3f9c597a	1.2214806
59	0x3f658888	0.89661455
60	0x3fbd71f6	1.4800403
61	0x3fb6322f	1.4234065
62	0x3fb3697a	1.4016564
63	0x3fba81f3	1.4570907
