trained_models/sinGan/mountains/scale_factor=0.750000,alpha=10/6/netG.pth (torch_old, 466445 bytes, 26 tensors)

head.conv.weight f4 [64, 3, 3, 3]
000000 5f 33 b1 3e e9 d4 a6 3e f1 64 a1 3e 84 49 87 3c
       0.34609506 0.32584313 0.31522325 0.016514547
000010 26 80 83 bc 6e 71 9b 3d 16 6a f5 3d 6a 65 fe 3d
       -0.016052317 0.07589994 0.11983125 0.12421687
000020 5a 03 04 3e 6f 28 4f 3d c9 11 7e 3d 3b a0 4f 3c
       0.12891904 0.05057567 0.06202868 0.012672479
000030 9b f9 73 bc 4e 4f a7 bb 3d f5 2a 3d 28 81 9e 3c
       -0.014891054 -0.0051058894 0.041737784 0.019348696
000040 5b 18 3f bc fb 30 74 bd 53 7b a1 bc 11 f3 16 3c
       -0.011663522 -0.059617024 -0.019712126 0.009213225
000050 cf 01 53 bd 85 3b e0 bc 65 40 d3 3c 56 62 75 bc
       -0.051515397 -0.027372131 0.025787542 -0.014977058
000060 b0 dc bd bd 2a 1e ab bd 15 2a 0c be 02 b7 59 bc
       -0.092706084 -0.08355363 -0.13687928 -0.013288261
000070 57 3a 6d 3c 26 bc 79 3d af be 18 bd 3a 90 4d bd
       0.014479241 0.060970448 -0.037291225 -0.050186373
000080 64 ee 6c bd bf b4 a7 3c c0 fb a6 bb 1d a4 8e bb
       -0.057844535 0.020471929 -0.005095929 -0.00435306
000090 d1 54 69 3d 68 bf 73 3b 16 28 fd 3c 3b 89 1a 3e
       0.056965653 0.0037192944 0.030902904 0.15091412
0000a0 75 6a a0 bd 2d c1 d2 bd ab c5 5d 3e b1 1d 8d 3d
       -0.07832805 -0.102907516 0.21657436 0.06890429
0000b0 84 16 69 3d 92 f7 16 3e 73 df 6a 3d c1 91 7a bc
       0.05690624 0.14742878 0.057342004 -0.0152935395
0000c0 9a 8e 32 3e 13 ad 4d bc 0e 72 0b be 79 89 97 3e
       0.1743721 -0.012553471 -0.13617727 0.2959707
0000d0 21 21 ca 3d e0 5f 06 bd 16 28 39 be 9a 01 4b be
       0.098696 -0.032806277 -0.18081698 -0.1982483
0000e0 4e f3 68 be b7 3d 8b bc 86 5e 3c bd 7b 65 95 3b
       -0.22749063 -0.016997201 -0.045988582 0.0045592166
0000f0 59 d1 0f 3c fe ea 5c 3d 6b 2c 46 3d f1 23 eb bc
       0.00877794 0.053935044 0.048382204 -0.028703662
000100 32 f6 a2 bd fa 95 93 bd 93 d9 01 3c 29 a2 d7 bc
       -0.07957114 -0.0720634 0.007925409 -0.026322441
000110 27 4d 75 3d 55 f1 5d 3d f5 1f 15 3e 66 9d 33 3e
       0.05988803 0.05418523 0.14562972 0.17540511
000120 6d 88 3d bd 52 e0 85 3b 00 6c 61 bc 29 87 15 bd
       -0.046272684 0.004085579 -0.013758659 -0.036505852
000130 b3 62 0d 3d d6 aa f8 3c 84 ed b9 3c b9 d5 b6 3d
       0.034517955 0.030354898 0.022696264 0.08927483
000140 b1 38 b4 3d 0f ef 3b 3e ce 10 33 3d 96 a0 63 3c
       0.087998755 0.18352912 0.043717198 0.013893267
000150 9f 4f 3b 3c b4 2b 57 3d a0 05 be bd a7 8c 2f be
       0.011432557 0.052531913 -0.09278417 -0.17143498
000160 cb 9c a0 bd 6b 99 9e be 12 5a a1 3d 62 7d 85 3d
       -0.07842406 -0.30976424 0.07878508 0.065180555
000170 e9 cb f0 3d 1e 4d 78 3c a2 2f 18 3d 22 a0 70 3d
       0.11757643 0.015155105 0.0371548 0.058746465
000180 25 63 bc bd 28 a4 b7 3b 73 81 e6 bd 3a e6 82 3b
       -0.09198598 0.0056042857 -0.11255159 0.0039947303
000190 06 d9 23 bd e1 57 03 3e d4 ff 12 3a 67 17 6d bd
       -0.04000189 0.12826492 0.00056075794 -0.057883646
0001a0 ad f4 6c 3d d2 2f e2 bd fc fd 0f bd 9d 2f 4e bd
       0.05785053 -0.11044277 -0.035154328 -0.050338376
0001b0 ef ef 8b 3d b0 15 ab 3d ed b3 f9 3d 20 aa f5 bd
       0.06832873 0.08353746 0.12192521 -0.119953394
0001c0 c7 11 b1 bd fb d3 fe bd 23 82 b0 bb 8f 67 00 3e
       -0.08645969 -0.12442776 -0.0053866073 0.12539504
0001d0 b5 f3 66 3a b6 a4 da 3d bf 2f 10 3d 1a bc b6 bb
       0.0008810119 0.10675947 0.035201784 -0.0055766227
0001e0 2a 12 3a bd e9 dd b0 bd 27 7a 0e be 82 de 82 3d
       -0.04542748 -0.08636076 -0.13913785 0.06390096
0001f0 da bd 0e 3e 33 02 e6 3d 2d 2a c7 3d ee 53 81 bd
       0.1393961 0.11230888 0.09724841 -0.063148364
000200 d9 b9 a2 bd a7 be a4 bd ed 41 c4 bd d2 ce 3a be
       -0.07945604 -0.080441765 -0.09582887 -0.18242958
000210 61 0d 38 3d e2 05 71 3d 5c be 11 3d 64 b8 2e 3d
       0.044934634 0.0588435 0.03558193 0.042656317
000220 76 ff c6 bc 8f a3 a2 bd 7f 84 b0 bd 0d 40 f1 bc
       -0.024291735 -0.079413526 -0.086190216 -0.029449487
000230 2d 27 1c bd b4 ee d8 bd 6b 87 04 be 4b ea d1 bd
       -0.0381233 -0.10592404 -0.12942283 -0.10249766
000240 15 47 4a 3e ff fa 25 3d 75 21 45 bd 9b 8b 39 bd
       0.19753678 0.04052257 -0.04812761 -0.045299154
000250 8d af 4e 3d 43 7b c8 3d 5a 5b 10 3d 5c 3f 16 3a
       0.050460387 0.09789135 0.03524337 0.0005731487
000260 7d cb 05 3e 6e 34 51 bd be d5 02 be 3d c6 8d be
       0.13065906 -0.05107539 -0.12776849 -0.27690306
000270 1f f2 25 bd b5 45 aa bd 1b 48 c0 bd e3 dc 1f 3d
       -0.040514108 -0.08314077 -0.09388753 0.039029013
000280 2b a9 10 3d e8 c6 13 3d cd 3b 59 bd b7 f2 d7 bd
       0.03531758 0.036078364 -0.053035546 -0.10544341
000290 01 cf 29 be ed 95 06 3e 9d ae 12 3c d8 37 bc bd
       -0.16582872 0.1314313 0.008952764 -0.09190339
0002a0 44 1b b7 3d a2 cf 89 3d a7 d7 32 3e 59 e2 f9 bd
       0.089407474 0.06729056 0.17465077 -0.122013755
0002b0 3a 70 e7 bd e8 c4 2b be 7a 25 b3 3d 98 7a 4a 3c
       -0.113007024 -0.16774333 0.087473825 0.01235833
0002c0 0f b6 59 bd 57 f1 d4 3d ba 1f e7 3d 75 32 b6 3d
       -0.05315214 0.103975944 0.11285348 0.08896343
0002d0 a0 ae dd bc bf 48 cd bc 2d 44 11 bc d7 29 d9 3c
       -0.027060807 -0.025059102 -0.008866352 0.026509209
0002e0 1c 53 9f 3c 49 d2 67 3d 27 0b b5 3c 4d c8 85 3d
       0.01944881 0.056597028 0.022100044 0.06532345
0002f0 df b7 81 3d a2 b1 33 3c ab f7 ae 3d 57 02 c2 bd
       0.06333899 0.010967644 0.08543333 -0.094731025
000300 b4 c8 91 3d f8 2f 2c 3e f4 58 9b bc c8 c3 eb bd
       0.07118359 0.16815174 -0.018963315 -0.11511952
000310 df d1 0c bc 05 8c f3 bc b7 a4 4e be 2b 0e bd bd
       -0.008594959 -0.029729852 -0.20180021 -0.09231218
000320 61 ef a3 be 55 01 b3 bc 02 e2 46 3d 7f 47 d6 bd
       -0.3201857 -0.021851221 0.04855538 -0.104628555
000330 09 43 68 be d5 32 55 bc df 76 17 be ea 2e 6e 3c
       -0.22681822 -0.013012608 -0.1479144 0.014537552
000340 d2 95 39 3d 57 06 c4 bc 01 ef 4c 3d 70 c5 6b 3d
       0.045308895 -0.023928804 0.05003262 0.057561338
000350 45 99 f9 3b 97 8b f0 ba b4 5b 0a 3d 37 58 0d 3d
       0.007617148 -0.0018352148 0.03377886 0.034507956
000360 7a 1a 24 bd b3 e1 02 bd 9e c0 97 bc e6 5a a9 bd
       -0.040064313 -0.031953525 -0.018524464 -0.082692906
000370 fc 93 0f bd a6 eb 88 3d c9 73 de bc 04 ee 8a 3c
       -0.03505324 0.06685571 -0.02715482 0.016959198
000380 85 47 ae 3d a2 67 8b 3d 6c ac 1a 3c 81 b9 10 3d
       0.08509735 0.06806876 0.009440523 0.03533316
000390 55 19 23 bd e8 53 5e bc a2 a1 da 3d 6f e1 e5 bc
       -0.03981908 -0.0135698095 0.1067536 -0.028061597
0003a0 9e e1 26 bc 4a c6 97 3d a8 ac 2e 3e c9 7d 14 3e
       -0.010185627 0.074108675 0.1705805 0.14501108
0003b0 4f a4 80 3e 2b d5 31 bb b6 3d 30 bc 91 94 9e 3d
       0.25125358 -0.0027135115 -0.0107569005 0.077431805
0003c0 e3 a4 04 be 74 7b c4 bd a7 2e cc bd 2f a9 89 3d
       -0.12953524 -0.09593859 -0.09969836 0.06721722
0003d0 4f e3 a3 3d ae 13 f2 3d a7 34 2a be be a4 01 be
       0.0800234 0.1182016 -0.16621648 -0.126605
0003e0 92 88 dd 3b f6 08 7d bd 68 6f 67 bc 33 da 05 3d
       0.006760665 -0.061776124 -0.014125682 0.032678794
0003f0 39 84 92 3d 95 3f 10 3d 12 b1 af bb ef be 5c 3d
       0.07154126 0.035216887 -0.0053616846 0.053893026

head.conv.bias f4 [64]
000000 52 75 60 3d 77 40 f7 3d cf 19 c4 3d 2f f4 49 bd
       0.054799385 0.120728426 0.09575235 -0.049305137
000010 92 97 0c bd e4 e5 4c bd 3f 89 85 bc 6e be a7 bc
       -0.034324236 -0.05002393 -0.016300796 -0.020476546
000020 b4 1e ea 3d 3b f6 bd 3d 41 9b e5 3c c5 be 07 be
       0.114316374 0.0927548 0.028028132 -0.13256367
000030 bc ea 78 b8 5b 21 1c 3e 25 58 5e bd 1b bb 39 be
       -5.934642e-05 0.15247099 -0.05428328 -0.18137781
000040 a2 9d 1b 3e ab ac c2 bd 6d 38 21 3d 2d cd 02 3d
       0.15196851 -0.0950559 0.039360452 0.031933952
000050 24 ea 90 3d 39 b3 9c bd 42 30 04 be b6 d7 97 bd
       0.07075909 -0.076513715 -0.12909034 -0.074141905
000060 9d d5 55 3b d2 5c 90 3d 87 b8 78 bc 24 c1 3e 3d
       0.0032628544 0.07048954 -0.0151807135 0.046570912
000070 01 12 52 bd ea b3 bd bd 30 df 22 bc da 4d 77 bd
       -0.0512867 -0.092628315 -0.009940907 -0.06037698
000080 1e 4e 56 3e 41 87 e6 bc ab 75 43 3d b7 9c a4 bc
       0.20928237 -0.028140666 0.04771964 -0.020094259
000090 37 07 24 3c 34 02 26 be c6 11 2f 3d 0f f4 01 bd
       0.010011486 -0.16211778 0.04274156 -0.031726893
0000a0 32 8a 53 bc e2 f1 27 3d bf b6 08 be af 3b 27 3e
       -0.012911366 0.04100216 -0.13350962 0.16331361
0000b0 2a 24 0f be ba b1 27 be ce 11 98 3d 3f cb 0c bd
       -0.13978639 -0.16376391 0.07425271 -0.034373518
0000c0 60 0b 06 bd ff ef 22 bd 3c 66 e3 3c 56 8c 32 bd
       -0.03272569 -0.03977966 0.02775871 -0.043590866
0000d0 7a a7 13 3c de fd 74 3d bc 89 91 bc 65 59 86 bd
       0.0090120975 0.05981242 -0.017765872 -0.065600194
0000e0 49 b7 18 be 07 38 38 bd e0 b4 87 3c 37 3d 88 bd
       -0.14913668 -0.044975307 0.01656574 -0.06652301
0000f0 90 2e 87 3d 55 96 ca bd 5b c1 4f 3d fb 15 3e bc
       0.06600678 -0.09891955 0.050721508 -0.01160192

head.norm.weight f4 [64]
000000 c1 88 a7 3f a9 ed 82 3f 1f 41 ac 3f 3c e0 bf 3f
       1.3088609 1.0228778 1.3457373 1.4990306
000010 7f 18 cd 3f 48 5b 9e 3f e8 5e b2 3f cc 18 a1 3f
       1.6023101 1.2371607 1.3935213 1.2585692
000020 f9 74 87 3f a8 a6 a2 3f 3f 85 c0 3f be 9c a2 3f
       1.0582572 1.270711 1.5040663 1.2704084
000030 24 a4 a9 3f 7a 99 9c 3f dd 98 e0 3f b8 05 71 3f
       1.3253217 1.2234337 1.754665 0.9414935
000040 59 fa a1 3f 8f ac 9b 3f a2 f2 ad 3f 91 0a ae 3f
       1.2654525 1.2162036 1.3589671 1.3596975
000050 d1 89 a3 3f 06 ff c0 3f da 0e a7 3f a1 66 bf 3f
       1.2776433 1.5077827 1.3051407 1.4953195
000060 85 8b fa 3f 46 9b b8 3f f8 2b 81 3f 62 13 c6 3f
       1.9573828 1.4422386 1.0091543 1.5474665
000070 b9 1b 8d 3f 2f 52 b5 3f cb f0 cd 3f 90 69 c8 3f
       1.1024085 1.4165705 1.6089109 1.5657215
000080 82 5e 93 3f bb 18 b2 3f 68 49 b9 3f 6b 6d c8 3f
       1.1513216 1.3913797 1.4475527 1.5658392
000090 0b 7f a3 3f 14 14 9a 3f 6e 8d b5 3f 77 66 7e 3f
       1.2773145 1.2037377 1.4183786 0.993751
0000a0 8a e7 97 3f 7b e4 c9 3f b2 a1 a2 3f c4 7d 98 3f
       1.1867535 1.5772852 1.2705595 1.1913381
0000b0 36 ee 8b 3f bf 5a 94 3f a3 74 ac 3f 53 49 97 3f
       1.0932071 1.1590194 1.3473095 1.1819252
0000c0 cf 64 9b 3f 87 8c d8 3f 0f 4d dc 3f 0e d4 7b 3f
       1.2140139 1.6917886 1.7211016 0.98370445
0000d0 a9 6c 94 3f 4b 08 a9 3f 03 fa f4 3f 91 fe ab 3f
       1.159566 1.3205656 1.9138798 1.3437063
0000e0 99 ed 77 3f f7 e6 95 3f b0 f0 c3 3f c6 04 7b 3f
       0.9684692 1.171111 1.5307827 0.9805416
0000f0 3e dc a1 3f 7f 59 b2 3f 7e cc a6 3f 59 aa 94 3f
       1.2645338 1.3933562 1.3031156 1.1614486

head.norm.bias f4 [64]
000000 77 0a a9 bd 39 78 10 bd 82 b7 09 be 08 72 4c be
       -0.08253949 -0.035270903 -0.13448909 -0.19965374
000010 0d 8e 03 bf 94 e9 83 be db 1d 73 be 94 e0 0d bd
       -0.5138863 -0.25764143 -0.23741858 -0.034638003
000020 13 b8 99 be ea dc 96 be 0e 40 fe bd 0d cc 94 be
       -0.3002325 -0.2946542 -0.12414561 -0.29061928
000030 a5 85 f7 be 61 ba ab bd e6 8d 9a be 29 ee f7 be
       -0.4834415 -0.08385158 -0.30186385 -0.4842389
000040 bd 76 95 be 73 3a 09 be 7b cb 87 be c2 41 ce be
       -0.29192153 -0.13401203 -0.2652243 -0.40284544
000050 b7 ba 78 3d 4b ce 65 be ed 5d 70 be 52 48 4f be
       0.06072494 -0.22441976 -0.2347333 -0.20242432
000060 19 5d 0f be 65 d6 f7 be 23 c6 9d be 7c 1c c9 bd
       -0.14000358 -0.48405758 -0.3081523 -0.09819886
000070 98 82 1d be a1 9c 92 be 6b c9 48 be 11 f2 74 be
       -0.15381849 -0.28635123 -0.19608085 -0.23920466
000080 83 93 66 be 46 f3 a2 be 5e e1 d5 bd 1e 9a 86 be
       -0.22517209 -0.31826228 -0.10443376 -0.26289457
000090 de b8 25 be df ac 50 3c cd 49 89 be 41 ba 8c be
       -0.16183802 0.012736528 -0.26814118 -0.2748585
0000a0 30 8f 4e 3d ed 4e 0d be 97 03 18 bc 41 9f df bd
       0.050429523 -0.13799639 -0.0092782 -0.10919047
0000b0 a9 42 34 be ff 77 52 be c1 da a0 be bd 13 90 be
       -0.17603554 -0.20553587 -0.31416896 -0.2814006
0000c0 40 46 93 be 5e 83 39 3e e8 d3 a4 3b 6a 9b 14 be
       -0.28764534 0.18116519 0.005030144 -0.14512411
0000d0 64 7c cc be d3 74 2f 3b c0 ea 95 be 4f e1 a2 bb
       -0.39938653 0.0026772514 -0.29280663 -0.0049707065
0000e0 e7 77 ae be d1 1c 73 be d1 fb a1 be 4b 80 44 be
       -0.34075853 -0.23741461 -0.31637433 -0.19189565
0000f0 cb 42 e6 bd bd d1 6e be 63 d2 40 be 12 b8 6a be
       -0.112432085 -0.23322196 -0.18830256 -0.2292178

head.norm.running_mean f4 [64]
000000 a6 7d 9e bd e0 60 c9 3c bf fd fb 3d a6 2a d2 bb
       -0.07738809 0.024582326 0.123042576 -0.0064137755
000010 0d e6 ab bc c9 a1 66 3d ee aa 35 bd 93 51 c5 3c
       -0.02098372 0.056306634 -0.044352464 0.02408675
000020 ef 62 89 3d f5 f6 ca 3d e8 d0 9c 3d 77 b1 08 be
       0.06708323 0.099103846 0.07657033 -0.13348947
000030 9c fe 6a 3c 3c fc f0 3d a9 12 76 bd 2b d0 aa be
       0.01434293 0.1176686 -0.06007639 -0.33361945
000040 89 2b f3 3d ff 07 88 bd 08 ea 17 bc 9e 23 4f 3d
       0.11873538 -0.0664215 -0.009272106 0.050571077
000050 9d 6f 6c bc 3f b0 8f bd d1 c4 18 bd 46 c5 c9 bd
       -0.014430908 -0.07016038 -0.037297074 -0.0985208
000060 1e ee d3 bc c5 08 81 3d 55 11 d7 bd 5f 75 af 3d
       -0.025870379 0.06300501 -0.10501353 0.08567309
000070 4c ca b2 bd c8 ec ac bc 73 25 90 ba c7 72 68 bd
       -0.08729991 -0.021109 -0.0010997489 -0.056750085
000080 80 6d 71 3e 88 5b c3 bc 28 a7 ba 3c 24 32 1b bd
       0.23576927 -0.023847356 0.022784784 -0.037889615
000090 a3 5f e5 bd 59 02 eb bd c7 5e b4 3d 9b 10 bd bd
       -0.11199882 -0.11475057 0.0880714 -0.09231683
0000a0 02 9f f5 3d 97 df 1f 3d 9d 14 23 be 5b cc 49 3e
       0.11993219 0.03903159 -0.15925832 0.19706862
0000b0 0b 77 26 be b9 cf 22 be 2c 5b a0 3d ae 59 10 bd
       -0.16256349 -0.15899552 0.0782989 -0.035241775
0000c0 72 e7 1d 3c f8 09 3b bd 39 f9 16 3d e6 b9 d8 bd
       0.0096377 -0.045663804 0.03685877 -0.10582332
0000d0 96 61 52 3d d0 60 52 3d 97 5f a6 bb ff 66 49 be
       0.051362596 0.05136186 -0.005077313 -0.19668196
0000e0 3c 91 2f be a5 79 39 bc df 1b 26 3d a7 37 c5 bd
       -0.17145246 -0.011320506 0.040553924 -0.096297555
0000f0 d4 bf 80 3d 1a 39 2d bd 6d 06 e6 3d 36 d7 1f bd
       0.06286588 -0.042290784 0.11231694 -0.0390236

head.norm.running_var f4 [64]
000000 f8 80 19 3e 18 4b 48 3e 5d f2 14 3d 40 68 0d 3d
       0.14990604 0.19559896 0.036363948 0.03452325
000010 93 8c 2d 3c 5d a2 a1 3d 38 0e 14 3d bf 82 af 3d
       0.010592598 0.078922965 0.036146373 0.0856986
000020 2d 16 76 3d bf 71 60 3c 72 30 70 3d da 8e a0 3c
       0.060079742 0.013698994 0.05863995 0.019599367
000030 d5 17 1b 3c c4 25 ad 3c d6 31 14 3c 17 bd 8d 3e
       0.009466131 0.021136172 0.009045085 0.27683327
000040 79 c6 b1 3b 93 54 9d 3b 3d 1b c4 3c 2e 81 2d 3d
       0.005425271 0.004801342 0.02393877 0.042359523
000050 16 c3 10 3d 86 a0 07 3c f4 97 6a 3d d4 d0 58 3c
       0.0353423 0.008278018 0.05727382 0.013233382
000060 ae b6 9e 3b e2 93 49 3c 68 be 53 3e 3a f3 03 3d
       0.0048435545 0.012303324 0.20678103 0.03221438
000070 0f 91 a9 3d 45 e6 0a 3d 4c 5a de 3b 4a 30 57 3b
       0.08279621 0.03391101 0.0067856666 0.003283518
000080 2a ed 3f 3b 70 8d f4 3b d4 c0 1c 3c a1 02 69 3c
       0.0029285648 0.0074631497 0.009567458 0.014221818
000090 a1 9a eb 3d 84 89 23 3d 10 92 65 3c 98 13 d8 3d
       0.115041025 0.039926067 0.014011875 0.10550612
0000a0 13 5b 29 3e 7b 55 02 3c cc c0 86 3b ae be 79 3c
       0.16538648 0.00795495 0.0041123386 0.0152432155
0000b0 93 8b cd 3d e9 7d cb 3c 7b a0 fe 3b 5c eb ad 3d
       0.10036387 0.024840312 0.0077705956 0.08492157
0000c0 77 b8 98 3c 29 7b 02 3c 14 97 e7 3b 0a dd 20 3e
       0.018642647 0.007963934 0.0070675705 0.1570932
0000d0 9a ea 09 3d e6 60 32 3c e5 61 c8 3b 8f a3 35 3e
       0.033671 0.01088736 0.0061151856 0.17738174
0000e0 01 e0 15 3d 1c c8 e6 3c 7d 9f e4 3c 66 b5 22 3e
       0.03659058 0.028171591 0.027908081 0.1588951
0000f0 5c a5 75 3c 85 77 91 3c 2c 64 b9 3c 66 59 a8 3c
       0.014993038 0.017757187 0.022630773 0.020550441

body.block1.conv.weight f4 [64, 64, 3, 3]
000000 f0 9d b6 3d 8a 5e a2 bc 09 cc 10 3d 9a 8d 09 3d
       0.08916843 -0.01982047 0.035350833 0.033582307
000010 7e 60 8e 3d f0 5c 0e 3c 7d e0 16 3e f4 f9 71 3d
       0.06951998 0.00868915 0.14734073 0.059076265
000020 9b 61 84 3d f9 65 13 be f5 d6 b9 bd e5 6f 0e be
       0.06463929 -0.14394368 -0.09074203 -0.13909872
000030 4c f9 02 be a3 31 24 be 4b aa 6f be f7 51 32 be
       -0.12790412 -0.1603456 -0.23404805 -0.1741408
000040 5a 7f 5b be a5 58 88 be 4f ea d6 bc 88 c8 d9 bc
       -0.214353 -0.2663013 -0.026234774 -0.026584879
000050 f8 b5 98 3d d1 64 83 3d 8d 65 7a 3d cc 37 89 3d
       0.07456583 0.064157136 0.061132003 0.067000955
000060 d1 2c e3 3d 19 7f 7e 3d 6f 12 a0 3d 54 de 04 3e
       0.110925324 0.06213293 0.07816016 0.12975436
000070 12 49 fd 3c 3f 84 53 3e 39 d9 a7 3d 0e 70 85 bb
       0.030918632 0.20655917 0.08195729 -0.004072196
000080 47 c8 e5 3c e9 41 d0 3d df 50 03 3e 46 af fc 3d
       0.028049601 0.10168821 0.12823819 0.12338118
000090 3c 46 58 bd 6f 4f 9f bc 63 3d 30 3d 75 b7 e9 3b
       -0.052801356 -0.019447057 0.043027293 0.0071324655
0000a0 9b 12 af bd 02 74 e9 bd 8e 88 4e 3d 0f 45 92 3d
       -0.085484706 -0.1139908 0.050423197 0.07142078
0000b0 8a 53 b8 3d 64 e4 40 be a7 fd 3b be 0b 77 2f be
       0.09000309 -0.18837124 -0.1835848 -0.17135255
0000c0 2f 34 12 be 31 e8 06 be ac 7a 52 be 1c 20 41 be
       -0.14277719 -0.13174511 -0.20554608 -0.18859905
0000d0 27 3b 19 be f1 1b 13 be 60 a8 ea 3d 71 31 c7 3d
       -0.14963971 -0.14366128 0.11457896 0.09726227
0000e0 12 1f 2c 3e e2 15 f7 3c 5e 37 8d 3d 0a 21 a7 3d
       0.16808727 0.030161802 0.06895326 0.081605986
0000f0 46 00 24 3e f5 1e ca 3d 40 a3 0a 3e 3d 8b 3f be
       0.1601573 0.09869186 0.13538837 -0.18705459
000100 bd cc 54 be a1 36 1a be e4 6b ce 3c e8 e2 31 bd
       -0.20781226 -0.15059902 0.02519793 -0.043429285
000110 cf f4 e2 bd b8 bf 8b bd b2 77 0c bd 94 92 71 3d
       -0.1108185 -0.06823677 -0.034293838 0.05897768
000120 9b c2 37 bd a2 41 89 bd 6b 2d 8f 3d 71 ff d9 bd
       -0.044863325 -0.067019716 0.06991085 -0.10644425
000130 06 ec ad bd ab 57 11 bd 04 2a 24 be 6a cd fc bd
       -0.084922835 -0.035483997 -0.16031653 -0.12343867
000140 d9 0c 32 be 5d d3 a8 bd bb b9 59 bc 41 1a af 3d
       -0.17387713 -0.08243439 -0.0132889105 0.085499294
000150 5e 31 83 bc f7 20 ed 3d 5a 16 49 3c ea 5d 29 bd
       -0.016014751 0.11578553 0.012273395 -0.04134933
000160 0b 5a 1d bd 57 75 44 3d 35 a3 1a bd ae 9c 17 bc
       -0.03841595 0.047963466 -0.037753303 -0.009253664
000170 5b 31 3a 3d b5 39 3b 3d 36 1b 5d 3b 36 10 96 3d
       0.045457225 0.04570933 0.0033738143 0.07327311
000180 6c 93 0f 3d 94 4b 93 bd 55 69 9c bd d0 95 3c 3d
       0.0350527 -0.0719215 -0.07637278 0.04604131
000190 92 b5 5c 3e 10 f2 2f 3e fa 2c ba 3d 34 e4 78 3d
       0.21553639 0.17182183 0.0909061 0.060764506
0001a0 75 45 b3 3d 12 2a 9a 3d 78 31 23 3e 73 53 07 3e
       0.08753482 0.075275555 0.1593684 0.13215427
0001b0 47 b7 91 3d 9b df 24 3b a3 0e 11 3d 3b df 9a 3a
       0.071150355 0.0025157693 0.03541435 0.0011815795
0001c0 ef 8f bc bb bb 5d a6 3d 38 52 8c 3d a4 cb d4 3c
       -0.005754463 0.081233464 0.068516195 0.02597601
0001d0 9a 4a 30 bc a6 34 8c bd b9 40 19 bd 37 93 82 bc
       -0.010759974 -0.068459794 -0.03741524 -0.015939338
0001e0 35 c7 2d 3d b4 90 bc bd 68 4b 93 3c 6c 6b 4b bb
       0.042426307 -0.092072874 0.017980292 -0.003103937
0001f0 ca 41 4d 3c aa e2 07 3e 23 04 57 3e 42 e5 1d 3c
       0.012527892 0.13270059 0.20997672 0.009637179
000200 0c 0c 0f be e4 55 05 bc 25 67 0b bd ca 04 5a 3c
       -0.1396944 -0.008138154 -0.034033913 0.013306806
000210 d3 7e 7e bc 63 fb eb bd b5 23 9a bd 9e f7 db 39
       -0.015533167 -0.115225576 -0.07526342 0.00041955424
000220 de a0 07 bd 8b 7e bd bd 87 ac fa bd e0 a4 08 be
       -0.0331124 -0.09252652 -0.12239938 -0.13344145
000230 6e 78 af bd c8 a9 32 bd 1c 8c 3c 3c 0f 4f c8 3b
       -0.08567892 -0.043618947 0.011508014 0.00611294
000240 aa 62 80 bc 8a ae f6 3c 0c 12 6f 3d 23 9a 0e 3d
       -0.015672047 0.030112524 0.05836682 0.034814965
000250 27 e1 17 bd 7e e5 00 bd d6 7a 61 3d a3 78 25 3e
       -0.037079956 -0.03146886 0.055048786 0.161593
000260 2a 9f 16 3e 84 d2 2a 3e 99 80 00 3e 12 eb fe 3d
       0.14709154 0.16681868 0.12549056 0.1244718
000270 88 b1 b3 3d 44 17 22 bd 2c 56 b0 bd 55 5b e8 3d
       0.08774096 -0.03957297 -0.08610186 0.11345545
000280 e1 f1 cb 3c 2a d1 20 3d 44 01 c0 bb 4a a8 98 bc
       0.02489561 0.039261974 -0.005859526 -0.018634934
000290 a3 07 c3 bb 5f 9d c0 bd b3 62 b6 bd eb ae d3 bd
       -0.005951838 -0.09405016 -0.08905544 -0.10336097
0002a0 16 bc 51 bd a9 c7 ec 3c 09 8d 15 3e fb a2 59 3d
       -0.051204763 0.0289038 0.14604582 0.053133946
0002b0 64 e3 2b 3c 47 ae 5f 3d f4 51 82 bc 88 cf b1 3b
       0.010491226 0.054609563 -0.015908219 0.005426351
0002c0 cb a9 88 bd 32 58 ab 3d 9f 99 a4 3c b0 88 12 3b
       -0.066730104 0.08366431 0.020092783 0.0022359304
0002d0 b8 6f 0a bd 40 0a f3 bd 62 52 d0 bd 7b a8 59 bd
       -0.03379795 -0.118671894 -0.10171963 -0.05313919
0002e0 8a 0a c3 bd aa 5f 00 be 1b 80 a9 bd db c2 88 bd
       -0.095234945 -0.12536493 -0.08276387 -0.06677791
0002f0 83 4f ca bd 71 7e 52 be 0c 0c f8 bd 04 87 dc bd
       -0.09878447 -0.20556046 -0.12111673 -0.1076794
000300 89 d4 96 3d 21 89 cf 3d 9a 45 5e bd 22 cd 11 3d
       0.073647566 0.10133577 -0.054265596 0.03559602
000310 3a be 7c 3d 97 d1 61 3e 4c 3e 3b bd dd 35 ec bc
       0.06170485 0.22052608 -0.045713708 -0.028834278
000320 c4 80 d0 bd 28 da 8f bd 3b 66 c2 bd 0a c0 11 bd
       -0.1018081 -0.07024032 -0.09492155 -0.035583533
000330 89 cf f9 bd 0e 57 02 be a7 69 1c be ca 09 99 3d
       -0.12197787 -0.12728521 -0.15274678 0.0747257
000340 6a 4a c4 3d e4 67 87 3e c6 0b 0a 3d 7a 2a 06 be
       0.09584506 0.2644645 0.033702634 -0.13102141
000350 87 65 0e be f9 c4 33 bd 40 97 27 be c0 a4 84 3d
       -0.13905917 -0.04388902 -0.16366291 0.06476736
000360 1d 60 ec bd 34 c7 5c bd ed 7b 0a be d1 63 32 bd
       -0.1154177 -0.053900912 -0.13523836 -0.043552224
000370 2d ab 63 3d 11 03 a9 bd d4 f4 e4 3d fb a0 4a 3d
       0.055583168 -0.08252538 0.1117951 0.04946993
000380 03 82 83 3e 05 be 29 3d 54 bc d2 3d a1 6c 06 3e
       0.2568513 0.041440982 0.10289827 0.13127376
000390 e3 06 e5 3d 05 61 d9 3d f9 aa c7 3d f0 75 db bd
       0.11182954 0.10614208 0.09749407 -0.10715854
0003a0 2c 27 ad ba 54 c8 1c 3e aa 8c 03 be 8c 84 d9 bd
       -0.0013210527 0.15310794 -0.12846628 -0.106209844
0003b0 d9 05 0f be 7d 67 5b be 0e 74 4e be d9 d6 41 be
       -0.13967074 -0.21426196 -0.20161459 -0.18929614
0003c0 a2 82 12 be 40 39 6d bd 5c 43 1d be 70 4f 35 bd
       -0.14307645 -0.057915926 -0.15357727 -0.04426521
0003d0 5e 81 99 3d fd 18 a5 3d d7 d6 80 3c f2 62 79 3d
       0.07495378 0.08061407 0.015727444 0.060885377
0003e0 28 34 00 3e 7a 13 8e 3d 2d b0 be 3b 9f 24 e1 bb
       0.12519896 0.069373086 0.0058193416 -0.0068708207
0003f0 91 5a 4a bd d5 76 97 bd 45 30 7c bd e0 91 af bc
       -0.049402777 -0.07395712 -0.06156947 -0.021431863

body.block1.conv.bias f4 [64]
000000 53 f4 8c bb 6d 8f 9a 3c 50 b2 0c bd a3 d2 53 3c
       -0.0043015867 0.018867219 -0.03434974 0.012928638
000010 da cc d7 bb d4 7b ab bc 42 8e 09 bd 54 be 1a ba
       -0.0065856995 -0.02093307 -0.033582933 -0.0005902995
000020 74 71 05 bd 8d 5e d2 bb df ce 6f bc 16 9e 90 ba
       -0.0325789 -0.0064199627 -0.014636724 -0.0011033441
000030 00 7b 93 bc f5 b2 0d 3c 01 79 65 bc 05 18 35 bb
       -0.018002987 0.008648624 -0.0140059 -0.0027632725
000040 78 4a 88 3c 58 d8 b8 3b e0 80 a6 bc d2 96 9a bb
       0.016637072 0.0056410246 -0.020325124 -0.004717686
000050 88 e3 e8 bc 63 c9 27 bd 3d cd ff bc c8 09 27 3b
       -0.028428808 -0.04096354 -0.031225795 0.0025488008
000060 06 93 09 bd 7a da d6 bc cf 49 cd bc d3 f5 f4 3b
       -0.033587478 -0.026227225 -0.025059609 0.0074755936
000070 3d 0e e5 3c 4d 9c 6a 3c fc b5 0f 3d 2a 14 5a 3c
       0.02796089 0.014319492 0.035085663 0.013310472
000080 aa 0b fa bc bc 2d 2e bc 92 b4 60 3c c7 37 0d bc
       -0.03052314 -0.010631021 0.013714926 -0.008619255
000090 46 72 11 3d 54 59 c9 bc 89 5c e0 3c b4 44 c2 bc
       0.03550937 -0.024578728 0.027387874 -0.0237144
0000a0 9b 3d 24 3d 1e 2d 0c 3d 13 50 72 bc 3f f7 3c 3c
       0.040097814 0.034222715 -0.014789599 0.011533557
0000b0 a4 7b fe 3c ea 3c f4 3c 0d 8d 6f bc 45 3d 92 bc
       0.031064816 0.029814202 -0.0146210315 -0.017851481
0000c0 c4 63 44 3c 7c 4c e2 bc 1d 1f fb bc ea 04 45 3c
       0.011986677 -0.027624361 -0.030654484 0.012025097
0000d0 f5 22 a7 bc 12 62 4e bb 0c b4 a3 bc c9 8b 26 bc
       -0.020402411 -0.003149156 -0.019983314 -0.010165163
0000e0 d1 2b 14 bd e9 6a 0b 3d 2e 18 13 3c ae f1 e7 3c
       -0.0361746 0.034037504 0.008977933 0.028313484
0000f0 80 e7 19 3d eb 8f f6 bc de 4e 0c 3d 5f 77 64 bb
       0.03757429 -0.030097922 0.0342549 -0.003486119

body.block1.norm.weight f4 [64]
000000 19 26 cd 3f f7 64 c9 3f 04 b1 af 3f ea 7a b8 3f
       1.6027251 1.5733937 1.3725896 1.441251
000010 6c 82 b5 3f 9e 9e ad 3f 58 f1 a6 3f 6e fe ad 3f
       1.4180427 1.3564031 1.3042402 1.3593271
000020 20 81 b4 3f 81 33 b3 3f 42 1d bf 3f 41 3f 9e 3f
       1.4101906 1.4000093 1.4930804 1.2363054
000030 a8 71 9e 3f 04 eb bd 3f b0 43 b8 3f d4 6f c1 3f
       1.2378435 1.4837346 1.4395657 1.5112252
000040 f5 72 b4 3f 2c 98 a6 3f 46 e1 a6 3f b5 db b7 3f
       1.4097582 1.3015189 1.3037498 1.4363924
000050 b4 27 b6 3f 37 17 9e 3f 2c 0e b2 3f f3 ff 9b 3f
       1.4230866 1.2350835 1.3910575 1.2187485
000060 53 c3 a7 3f 1a a2 a2 3f 33 c2 a4 3f 84 94 c9 3f
       1.3106483 1.270572 1.2871765 1.5748448
000070 b5 5e a8 3f 29 31 9c 3f ef 2a ac 3f a2 69 aa 3f
       1.3153902 1.2202502 1.3450602 1.3313487
000080 5f d4 b5 3f 78 04 b2 3f 30 b6 be 3f 32 ec bb 3f
       1.4205436 1.3907614 1.4899349 1.4681456
000090 ef 2b b7 3f 97 da ab 3f 69 e3 bf 3f a6 bf b5 3f
       1.4310282 1.3426083 1.4991275 1.4199111
0000a0 38 57 aa 3f 6a 29 c0 3f 85 16 b8 3f 42 89 88 3f
       1.3307867 1.5012639 1.4381872 1.0666888
0000b0 2b 95 98 3f 5e ed a0 3f e0 e6 b1 3f 35 92 be 3f
       1.1920522 1.2572439 1.3898582 1.4888369
0000c0 f6 55 c9 3f 74 69 aa 3f 2b ef af 3f d3 39 c0 3f
       1.5729358 1.3313432 1.3744863 1.5017647
0000d0 0d e5 94 3f 39 62 cf 3f 31 ef b9 3f 00 9f bb 3f
       1.1632401 1.620185 1.452612 1.4657898
0000e0 da 70 b6 3f d2 b4 ad 3f ef bf b7 3f c0 c6 92 3f
       1.425319 1.3570807 1.4355448 1.1466904
0000f0 7c d7 b9 3f 25 1a b9 3f 92 67 b2 3f 0a 2e a8 3f
       1.4518886 1.4461104 1.3937857 1.313905

body.block1.norm.bias f4 [64]
000000 d5 ef 9e be 14 3a 21 bf c5 3a e0 be 46 0d 3a be
       -0.31042352 -0.62979245 -0.43794838 -0.18169126
000010 2b b1 50 be 46 d5 b5 be ad 27 9b be 38 2a d3 be
       -0.20380084 -0.35514277 -0.30303708 -0.41243148
000020 b3 62 e7 be 7d d4 18 be c2 87 ca be f9 08 81 bd
       -0.4519249 -0.14924808 -0.395567 -0.063005395
000030 53 e1 c4 be 1c f2 f0 be a9 95 e5 be b3 a1 c5 be
       -0.3845316 -0.47059715 -0.44840744 -0.3859993
000040 0e 0f 79 be 95 24 e1 be 16 cf d7 be bd d0 f2 bd
       -0.24322149 -0.43973222 -0.42150182 -0.1185622
000050 7c 98 94 be a6 49 38 bf 5e 26 35 be 93 57 f7 be
       -0.29022586 -0.7198738 -0.17690417 -0.48309
000060 a4 ec 97 be 25 2c 10 be 84 29 8e be 7a b5 68 be
       -0.2967273 -0.1407934 -0.2776605 -0.22725478
000070 dd e1 58 be d7 93 ca be ed 94 a8 be 71 80 1e be
       -0.2117991 -0.39565918 -0.3292612 -0.15478684
000080 87 83 7f be 1c 35 6e be f7 89 45 bd 60 a1 fa bd
       -0.24952517 -0.23262447 -0.048227277 -0.12237811
000090 e4 9f 9f be ac 95 16 bf 06 2a ef bd 55 30 1b 3c
       -0.31176674 -0.5882213 -0.11677937 0.0094719725
0000a0 46 69 4b be 2e e0 19 be 73 7f 6c be 8d 2d 8f be
       -0.19864377 -0.15026924 -0.23095493 -0.2796444
0000b0 32 3b e4 be 03 df d8 be 99 d3 19 bf 9c 92 c2 be
       -0.44576412 -0.42357644 -0.600885 -0.3800248
0000c0 89 b3 b9 be ae 80 c2 be 7c 81 0c bf 7f c1 bf 3c
       -0.36269787 -0.379888 -0.5488508 0.023407696
0000d0 14 a5 0f bf 2e dc 99 be 74 67 bf bd 7f 65 31 be
       -0.56111264 -0.30050796 -0.09345904 -0.17323874
0000e0 6d 60 29 be 34 26 1f bf bf ba 3e bd 15 30 e3 be
       -0.1654069 -0.6216767 -0.046564814 -0.4437262
0000f0 f1 a0 38 bd 48 59 e4 be 52 95 6c be d7 96 dd be
       -0.04507536 -0.44599366 -0.23103836 -0.43279144

body.block1.norm.running_mean f4 [64]
000000 b4 c8 1b c0 b9 f6 92 bf 79 da 65 c0 f1 78 72 c0
       -2.434125 -1.1481544 -3.5914595 -3.7886317
000010 0e a9 98 3f eb f0 06 c0 ff 92 95 bf 4f 69 aa 40
       1.1926591 -2.1084545 -1.1685485 5.325355
000020 f9 0b 01 c0 2c 97 1e c0 ea ad 3e c0 eb 9d 82 c0
       -2.0163558 -2.4779768 -2.9793649 -4.081777
000030 dc ef 16 bf 66 61 06 c0 72 d1 12 3f b9 27 9d 3e
       -0.58959746 -2.0996947 0.5735084 0.30694368
000040 9f ba 9a 40 02 48 75 40 bb c5 08 3f 5f b5 bb bf
       4.835281 3.83252 0.5342671 -1.4664725
000050 5f 96 3c 3f 2e 56 bf 3f 10 bf a3 c0 8c 1c 88 40
       0.7366695 1.4948175 -5.117073 4.2534847
000060 5b 8b 8a be 1f 24 64 c0 38 dc 64 bf d2 4b 69 be
       -0.27059445 -3.5647047 -0.8939853 -0.2278283
000070 82 c3 df be 57 dd 57 3f f4 a1 ce 3f dd de 0c c1
       -0.43703848 0.8432211 1.6143174 -8.80441
000080 94 86 10 c0 db 36 72 bf 32 63 9d 3f a7 c5 a7 c0
       -2.258214 -0.9461495 1.2295897 -5.2428775
000090 d6 6a 79 3f 42 cd 18 40 15 15 60 40 08 31 0f c0
       0.97428644 2.387528 3.5012867 -2.2373676
0000a0 3a c9 c6 bf 5e 7b 08 c0 b5 00 19 c0 84 8d 6d c0
       -1.553016 -2.1325297 -2.3906682 -3.7117624
0000b0 f1 25 b2 3f f2 e3 c8 3f 86 dc 3d 40 9e bc 23 c0
       1.3917829 1.5694563 2.9665847 -2.5583873
0000c0 8f d4 83 c0 00 89 3c c0 f9 dd df bf b1 5d d2 bf
       -4.119697 -2.9458618 -1.7489616 -1.6434842
0000d0 7e e0 89 40 d5 1b 23 c0 bf 24 79 c0 b2 80 b1 bf
       4.308654 -2.5485737 -3.8928678 -1.38674
0000e0 32 07 38 c0 aa 36 ac 3f e7 46 78 bf be 12 6c 40
       -2.8754392 1.3454182 -0.9698319 3.688644
0000f0 2c a2 4d c0 5e 0c 6e bf fc 59 ee 3e 58 f3 1b 40
       -3.2130232 -0.9298762 0.46553028 2.4367275

body.block1.norm.running_var f4 [64]
000000 77 01 28 41 e1 df 76 40 cf 60 19 41 b9 c1 7e 41
       10.500358 3.8574145 9.586135 15.922296
000010 5d 79 1c 41 94 84 00 41 30 d7 0d 41 0c ff 9f 41
       9.77963 8.032368 8.865036 19.999535
000020 d2 47 fb 40 0e 97 04 41 8e 35 2a 41 68 a6 9e 41
       7.852517 8.286879 10.638075 19.831253
000030 c7 ac 78 41 8d 1e 12 41 63 03 06 41 91 6c de 40
       15.542182 9.132459 8.375827 6.9507527
000040 1c 5d 71 41 8d e5 7e 41 6b c8 04 41 7d b6 d2 40
       15.085232 15.931043 8.29893 6.5847764
000050 4d 11 20 41 cb 0a 67 41 40 49 93 41 ae 96 af 41
       10.004224 14.440135 18.410767 21.948574
000060 c1 9e 24 41 82 20 88 41 5c 1b e2 40 de 9e d8 40
       10.288758 17.015873 7.06584 6.769393
000070 6a a0 2b 41 d3 66 8c 41 cc ae 33 41 0d ca ce 41
       10.726664 17.550207 11.230175 25.848658
000080 9d 71 29 41 ae b2 c5 40 84 72 26 41 f5 8b 5c 41
       10.590238 6.1780615 10.402958 13.784169
000090 cb ab 70 41 2e 70 13 41 ce 07 03 41 e0 b3 06 41
       15.041942 9.214888 8.189405 8.418915
0000a0 9e f4 fe 40 e8 d3 23 41 d4 78 da 40 61 f3 e1 41
       7.9673605 10.239235 6.8272495 28.243837
0000b0 f8 d7 6d 41 81 c6 16 41 7f 8a 6c 41 c2 01 ca 40
       14.865227 9.423463 14.7838125 6.3127146
0000c0 ea 23 40 41 18 6e f0 40 bf e6 f0 40 c5 37 f6 40
       12.008768 7.513439 7.5281672 7.694308
0000d0 af 37 cf 41 43 d7 02 41 d1 82 31 41 4c ba 97 40
       25.90219 8.177554 11.094438 4.7414913
0000e0 59 2f fc 40 cc 8f 9b 40 bb a5 94 40 52 69 1e 42
       7.8807797 4.8613033 4.645231 39.60285
0000f0 82 72 6f 41 93 72 b4 40 fc 13 92 40 9a ac 4e 41
       14.965456 5.638986 4.5649395 12.917139

body.block2.conv.weight f4 [64, 64, 3, 3]
000000 56 89 de bd cc 20 6e bd c6 df 65 3d 13 6d a5 bd
       -0.108660385 -0.058136746 0.05612161 -0.08077445
000010 9d 85 39 3c bf c4 ab 3d 5b 76 61 bc ac a5 b6 bc
       0.01132336 0.08387136 -0.013761128 -0.022295795
000020 37 a2 0a 3d e5 58 a8 bc 44 00 02 be c2 ca 63 bd
       0.033846106 -0.0205502 -0.12695414 -0.055613287
000030 ae 94 23 3e e7 77 b1 bb 50 82 35 3d 21 8d 88 3e
       0.15974686 -0.005415905 0.04431373 0.26670173
000040 b1 bb 2a 3e c3 78 81 3e 41 bd 2d bd a1 e3 ee 3c
       0.16673161 0.25287446 -0.042416815 0.029161276
000050 f1 9b a7 3d e8 dc 4f bd db a9 ac bc c7 d3 bd bc
       0.0818404 -0.050747782 -0.021077087 -0.023172272
000060 08 0e 6b bc 98 20 55 bd 06 8c f4 bc 17 0b 18 3e
       -0.014346607 -0.052033037 -0.029851925 0.1484798
000070 c5 90 1f 3e 29 1e 02 3e 4c f4 dc 3d eb c4 96 3d
       0.15582569 0.12706818 0.107887834 0.07361778
000080 35 dc ef 3c 79 a3 24 3d 0e 79 8f 3c 89 4a 8c bd
       0.029279808 0.040194962 0.017513778 -0.06850154
000090 f4 40 87 3d 60 44 ed 3c bb e5 b7 3b a8 76 a8 3d
       0.06604186 0.028963268 0.005612103 0.08225757
0000a0 1f a9 9d bd 69 d5 91 bc dc 93 a5 bc 1c cc de bd
       -0.07698273 -0.017801957 -0.020212106 -0.108787745
0000b0 7c 34 b8 bc 21 23 71 3d 55 a6 88 3d 5f 73 a3 3d
       -0.022485964 0.058871392 0.0667235 0.0798099
0000c0 34 c6 33 3e d5 40 a9 3c 5b 5f 76 3d 99 1d 85 3d
       0.17556077 0.020660797 0.06014953 0.06499786
0000d0 c9 87 d7 3d f2 ff 3f 3e 15 4e ae bd be fe 63 3d
       0.10523946 0.18749979 -0.08510987 0.055662863
0000e0 14 93 18 3d 61 5f 69 3d e8 a4 ad 3d 4a 5d 26 3e
       0.03724964 0.056975726 0.08478719 0.16246524
0000f0 5b 2f 29 3e 8e fc 08 3e 35 d0 6e 3d 93 ee 54 bd
       0.16521971 0.13377592 0.05830403 -0.051985335
000100 97 b7 78 bd 15 9c 50 bd 7f da 3a bc 05 b3 8c bd
       -0.06072196 -0.0509301 -0.011404633 -0.06870083
000110 36 52 56 3c 6d ec f1 3c 24 52 03 3d 25 9c b9 3d
       0.013081124 0.029531682 0.032060757 0.09062985
000120 45 66 9e bd 70 b4 e3 bd 32 61 71 bd 3d 1e f0 3a
       -0.0773435 -0.111184 -0.058930583 0.0018319559
000130 20 38 fe 3b e4 dc 69 bc f3 f3 73 3e 16 91 0e 3e
       0.0077581555 -0.014273856 0.23823528 0.13922533
000140 5e e9 35 3d e5 75 25 bd 9c 51 23 3b 51 a7 4b bd
       0.04441201 -0.040395636 0.002492047 -0.049720112
000150 45 e7 ce 3d c6 6a 8f 3d 47 b7 cc 3d 2a 79 44 be
       0.10102705 0.07002787 0.09995895 -0.19186845
000160 4a b6 22 be 58 cc 51 bd a7 3f 9f 3d f4 26 70 3d
       -0.1588985 -0.051220268 0.077758126 0.0586309
000170 2f 3e 71 3d b5 8a 0b 3e 99 de 8d 3c 78 2f 39 3d
       0.058897194 0.13627131 0.017318057 0.045211285
000180 d9 22 0d 3e 18 03 0d 3e 0f 17 15 3e f0 31 83 bd
       0.13782825 0.13770711 0.14559577 -0.06406009
000190 90 a2 a0 bd 8b 77 0e be d4 71 ba 3c f3 02 a0 3d
       -0.07843506 -0.1391279 0.022759356 0.078130625
0001a0 79 02 99 bb 62 90 87 bc 67 32 dc 3c 86 e0 05 bd
       -0.004669484 -0.01654834 0.026879502 -0.032684825
0001b0 45 39 85 bc 21 bd c6 bc 6f 21 07 be 51 a3 98 3d
       -0.01626266 -0.024260106 -0.13196348 0.07453025
0001c0 6b fa 8d 3d a1 63 58 bc af 3e 38 3e 8a 83 23 3e
       0.06932529 -0.013207347 0.17992662 0.15968147
0001d0 f8 51 ac 3d 79 8d 20 be d6 6c 39 ba 3c e4 86 3d
       0.08414072 -0.15678968 -0.0007073408 0.06586501
0001e0 41 da a7 bd 21 e0 a3 3d 25 72 79 bd 58 a4 4e be
       -0.081959255 0.080017336 -0.060899872 -0.2017988
0001f0 7c 3d d4 bd 15 b6 40 be a8 96 5b bd e5 6d 0b 3c
       -0.1036329 -0.18819459 -0.053610474 0.008510088
000200 b4 af 39 3d bf df d5 3c 59 3e 03 3e e4 f5 43 3e
       0.04533358 0.026107667 0.12816752 0.19136769
000210 45 06 cc bd 15 21 07 3d b7 0d b2 3d d9 8b b2 bd
       -0.09962133 0.032990534 0.08694022 -0.0871808
000220 4a 45 d5 bb 94 c7 a4 bc b3 36 32 3c c3 72 be 3c
       -0.006508504 -0.020114698 0.010877299 0.023248082
000230 09 cc 97 bd 7e 9a 26 3d e9 b5 24 3e d8 29 a7 bc
       -0.074119635 0.04067468 0.16085018 -0.020405695
000240 b6 60 bf ba ef bc 0e be 68 59 ef bd c1 da 02 3d
       -0.0014600966 -0.1393926 -0.11686975 0.0319469
000250 a9 88 63 3b 66 3a 8e bd 7f 8b c1 3c c5 3f bb bb
       0.0034718907 -0.06944732 0.023626087 -0.005714389
000260 90 d6 ec b8 44 6e 5d 3d 74 e7 1f bd 8b 9f e5 3c
       -0.00011293322 0.054060236 -0.03903909 0.028030178
000270 cc ad fc 3b f6 13 52 bc 2c fa 8f 3d a6 3c 0f bc
       0.007711148 -0.012822142 0.070301384 -0.008742487
000280 0d f0 86 3d 40 5a e8 3d 82 c3 22 bd f1 a9 45 bd
       0.06588755 0.11345339 -0.039737232 -0.048257772
000290 a1 6a 43 bd 23 81 05 be 81 5e 08 be 77 7a 90 bd
       -0.04770911 -0.13037543 -0.133173 -0.07054608
0002a0 83 47 1e bd 06 fb 59 bd 16 f7 19 bd 3c 34 80 3d
       -0.038642418 -0.05321791 -0.037589155 0.06259963
0002b0 67 8a c3 bc 28 78 a0 3c 55 81 ea 3c 3f c9 01 3d
       -0.023869706 0.019588545 0.028626123 0.031686064
0002c0 f5 c4 62 bc 40 51 0b be 28 7d 11 bc b2 01 48 bd
       -0.0138409035 -0.13605213 -0.008879937 -0.04882974
0002d0 a2 d9 dd bc d6 b1 25 be bc ff 92 bd 0b 3a 16 bd
       -0.027081314 -0.1618112 -0.07177684 -0.036676448
0002e0 98 7e a4 bb 4f 91 94 bc 14 17 8f 3d 44 2b 2b 3e
       -0.005019974 -0.018135695 0.06986824 0.16715723
0002f0 0d 1b 14 3e 77 6d 7d 3e 03 c6 78 3e 11 4b 96 3e
       0.14463444 0.24748789 0.24294285 0.29354146
000300 f2 f0 14 3e 05 90 01 3e 47 70 51 3e 5e fe 09 3d
       0.14545038 0.12652595 0.20452987 0.03368985
000310 e0 5b 76 bd 7f 83 44 bd d0 3a d1 bc f4 ba 71 bd
       -0.060146213 -0.047976967 -0.02554074 -0.059016183
000320 2a 59 63 3d 72 bc 71 3d c7 a9 2c 3d 92 52 a7 3c
       0.055504955 0.059017606 0.0421541 0.020425115
000330 80 a2 bd 3d 9e ef 35 3e 7a 4a f0 3d 40 02 5f 3d
       0.0925951 0.17767188 0.11732955 0.054445505
000340 04 6b 3a 3d 0c 41 df 3d 76 dc c3 bd ee e8 c4 bd
       0.045512214 0.109010786 -0.09563534 -0.0961474
000350 ec 36 a9 bd 2a 49 d6 bc fe 58 08 be 04 5e a0 bd
       -0.08262429 -0.026157934 -0.13315198 -0.07830432
000360 b8 14 ca bd 99 13 bd bd 06 4b 6b bd c3 09 c7 bd
       -0.09867233 -0.092322536 -0.057444595 -0.09718659
000370 68 b3 e5 bd fb 81 e4 bd 49 58 46 bd 77 6e fb 3c
       -0.1121586 -0.11157604 -0.04842404 0.030692322
000380 f8 75 20 3c 9f 40 63 3d 7e 1c a7 3d 96 1e ce 3b
       0.009793751 0.05548155 0.08159731 0.006290267
000390 8a 92 eb bc bd a1 2f bd 0f 11 52 3c 04 96 8c bd
       -0.028756399 -0.042878855 0.01282145 -0.06864551
0003a0 1c fa 11 bd 7b 06 40 3d 91 f3 33 bd 5a b1 08 be
       -0.035638914 0.04688118 -0.043933455 -0.13348904
0003b0 97 d3 5f be 50 e3 eb bc b8 5e 3a bc fe 34 1a bd
       -0.21858059 -0.028794914 -0.011375122 -0.037648194
0003c0 6f d0 e3 bd d9 96 d9 bd fa 4f ea bd df 87 4b be
       -0.1112374 -0.10624475 -0.114410356 -0.1987605
0003d0 ff d6 ca bd 02 fc 03 3d 3f 84 cf bc ff 9b 16 bd
       -0.099042885 0.032222755 -0.025331615 -0.036769863
0003e0 18 78 8e 3d 22 39 28 3d 15 00 3d 3d 39 b1 9d 3d
       0.069565 0.04107011 0.046142656 0.07699818
0003f0 c8 75 cb bd ac 95 24 bd dd 0e 18 3e 26 ca 44 3d
       -0.09934574 -0.0401818 0.1484942 0.048044346

body.block2.conv.bias f4 [64]
000000 0c 4e a6 bc 73 82 9c bc c7 85 d5 3c 8a cd eb bc
       -0.020300888 -0.019105172 0.026064767 -0.028784532
000010 42 ab ef bb 7e 00 07 bd 16 a9 8b bc a2 f4 c5 3c
       -0.0073141167 -0.032959454 -0.0170484 0.024164502
000020 83 5e b3 3c 7a 09 ac bc 49 a3 b7 bc 77 bd 02 3d
       0.021895653 -0.021000613 -0.022416728 0.03191897
000030 c7 6b be 3c f0 da 83 bc 43 a4 47 bb 27 92 1d 3d
       0.023244752 -0.016095608 -0.0030462898 0.03846946
000040 90 33 b5 bc 67 d2 37 3c 89 d6 0d 3d ac bd 17 bb
       -0.022119313 0.011219597 0.034628425 -0.0023153825
000050 9a b6 35 3c 2a 10 b5 bb 9c 66 f0 3c 9b 2b b0 bc
       0.011090899 -0.0055256085 0.029345803 -0.021505168
000060 e1 98 90 bc 21 ea 7a 3b 0a e9 ea 3b 36 a6 3a bc
       -0.017651023 0.0038286524 0.0071688937 -0.011392167
000070 f9 53 33 3c 4e 95 8f bc ca bb 1c bc 25 c4 c8 bb
       0.010945314 -0.017527249 -0.009566257 -0.006126898
000080 99 9b f6 3c c7 4b 8c 3c 44 88 33 bd 4b 42 ec bb
       0.030103492 0.017125977 -0.043831125 -0.007210051
000090 bb a7 ef bb 8b 84 c5 bc 0b 92 b1 3b 36 70 33 3d
       -0.007313696 -0.024111053 0.005419021 0.043808185
0000a0 34 40 d7 bb f7 96 bd 3c fe 1f 10 3d ee 12 6b bc
       -0.006568933 0.023143275 0.03518676 -0.014347775
0000b0 bb 79 32 3c 21 34 1f 3d 7d 8b ba b9 0f dd 05 3d
       0.010893281 0.038868073 -0.0003558061 0.03268152
0000c0 23 77 6d bc d9 14 f8 3c 1c da 8b 3c a6 19 25 bd
       -0.014493736 0.030283378 0.017071776 -0.040307663
0000d0 49 80 a6 3c 53 6a f7 bc 34 69 9f bc 18 e7 1f bd
       0.020324843 -0.030202067 -0.019459344 -0.039038748
0000e0 6e 4e 69 bc a8 e3 44 bc 91 57 fd 3c 9f f2 08 3d
       -0.0142398905 -0.012017168 0.030925544 0.033434507
0000f0 a0 95 df 3c 1a 1f 26 3d 29 93 e7 bc 40 45 ce bc
       0.027293026 0.040557005 -0.028268414 -0.025179505

body.block2.norm.weight f4 [64]
000000 5c 5b a1 3f f4 69 a7 3f be d7 97 3f ca 54 9e 3f
       1.2606006 1.3079209 1.1862714 1.2369626
000010 5b 42 a9 3f 0b 0c b4 3f 75 34 aa 3f 0d 8d c0 3f
       1.3223375 1.4066175 1.3297259 1.5043045
000020 80 79 a3 3f 9f 77 b5 3f a6 63 ae 3f 29 55 b3 3f
       1.2771454 1.417713 1.362416 1.4010364
000030 9c c5 ca 3f a2 ec b3 3f f5 a5 bb 3f e0 5f a2 3f
       1.5841556 1.405659 1.4660021 1.2685509
000040 f5 cc b6 3f 94 a9 a2 3f d8 3e c2 3f 76 5f b5 3f
       1.4281298 1.2708001 1.5175428 1.4169757
000050 92 3a a1 3f d7 4e c2 3f c0 ae 9c 3f 56 e2 a7 3f
       1.2595999 1.518031 1.224083 1.3115947
000060 7f bf b4 3f cd d8 bf 3f f8 4b c2 3f dc d6 bb 3f
       1.412094 1.4988037 1.5179434 1.4674945
000070 f9 b8 a1 3f 68 4a b6 3f 78 9e 9e 3f f5 66 a1 3f
       1.2634574 1.4241457 1.2392111 1.2609545
000080 39 4c c5 3f a1 50 b0 3f b6 3c ac 3f d6 41 9c 3f
       1.5413886 1.3774606 1.3456028 1.2207592
000090 1d 8e 9b 3f 35 67 bd 3f db 28 c0 3f d5 bb ac 3f
       1.2152745 1.4797121 1.5012468 1.3494822
0000a0 d7 d5 bd 3f a8 ce 92 3f 36 63 b4 3f 6a dd ab 3f
       1.4830884 1.1469316 1.4092777 1.3426945
0000b0 57 42 b4 3f 41 01 b0 3f 50 1e c7 3f 1d e5 ad 3f
       1.4082745 1.3750383 1.5556126 1.3585545
0000c0 2c 9f ad 3f f3 fa 95 3f 32 c4 aa 3f ea ad b0 3f
       1.35642 1.1717209 1.3341124 1.3803074
0000d0 96 e1 9b 3f a4 e2 9d 3f 35 e5 b0 3f 0b 45 ae 3f
       1.2178218 1.233479 1.3819948 1.361482
0000e0 de ce b5 3f 51 ef 9d 3f 4c 10 97 3f 42 38 a3 3f
       1.4203756 1.2338659 1.1801848 1.2751544
0000f0 1a ea bb 3f ce 80 ac 3f f5 fe ad 3f 0f fa a3 3f
       1.4680817 1.3476808 1.3593432 1.2810687

body.block2.norm.bias f4 [64]
000000 2b 0f 51 be 99 84 f1 be 71 ab d5 be 4c 7d e9 bd
       -0.20415942 -0.47171476 -0.41732362 -0.114008516
000010 ab 79 3c be 19 a9 a0 be da 61 a0 be a3 76 66 3c
       -0.18405788 -0.3137901 -0.31324655 0.014066371
000020 34 e1 0d bf ac da bb be e2 67 71 be c4 b8 23 be
       -0.5542176 -0.3669027 -0.23574784 -0.15988451
000030 fc 4d c3 be ad 78 42 bf e3 32 31 be 62 01 bd be
       -0.38145435 -0.75965387 -0.17304568 -0.36915118
000040 98 26 f1 be c4 3f d3 be 26 7f 9b be 56 56 b1 be
       -0.47099757 -0.41259587 -0.30370444 -0.34636182
000050 13 4f 88 be 3a c4 d9 be ef 75 0a bf dc 30 e4 be
       -0.2662283 -0.4253252 -0.540862 -0.44568527
000060 17 1c 14 be 2e 38 75 be 8b 26 c3 be 96 cb bc be
       -0.1446384 -0.23947212 -0.38115343 -0.36874074
000070 84 4f 85 be df 42 01 bf 6d 28 58 bf cc e3 35 bf
       -0.26037228 -0.5049266 -0.84436685 -0.71050715
000080 00 81 20 be b3 ba fd be 44 13 e4 be 15 63 1d be
       -0.1567421 -0.49556503 -0.44545949 -0.15369828
000090 93 eb 81 be 97 9e 63 be 86 c0 ac be 4d a1 80 3c
       -0.2537504 -0.22228466 -0.33740634 0.015701914
0000a0 c2 eb ce be 2b aa d0 be 49 dd bc be f5 7e 6a be
       -0.40414244 -0.40754828 -0.36887577 -0.22899993
0000b0 f7 10 89 be 3d 70 0c bf 3d b8 8d be 75 68 88 bd
       -0.26770756 -0.5485876 -0.27679625 -0.066605486
0000c0 f7 b8 89 be 7b 58 05 bf af f6 a4 be 7b 20 a0 be
       -0.2689893 -0.52088135 -0.32219455 -0.3127478
0000d0 c6 42 05 bf 61 5f 47 be ce c8 4a be 61 48 aa be
       -0.52055013 -0.19469978 -0.19803163 -0.33258346
0000e0 c1 7d ad be d0 c1 e4 be 80 be f6 be db 13 83 be
       -0.33885005 -0.44679117 -0.48192215 -0.25601086
0000f0 e5 71 86 be 7c 7b 89 be 3f e7 6c be e2 e8 c5 be
       -0.2625877 -0.26852024 -0.23135088 -0.38654238

body.block2.norm.running_mean f4 [64]
000000 d1 4e c0 3f 19 94 30 40 c6 8f 31 40 c4 1b 07 c0
       1.5024053 2.7590392 2.7744002 -2.1110697
000010 34 9f 69 c0 89 ac 02 3f e3 4b d3 be 7e a2 90 bf
       -3.650342 0.5104452 -0.41268834 -1.1299589
000020 a4 e1 e6 3f a1 bf 23 3f 5c 20 82 bf 59 49 bf bf
       1.803761 0.6396428 -1.0166125 -1.4944259
000030 4e 87 51 be 54 80 c7 3f 03 35 98 bf 83 7a 09 bd
       -0.20461771 1.5586038 -1.1891178 -0.033564102
000040 a4 5c fc 3e 06 32 0a 40 84 71 09 bf 2d 4c a7 be
       0.4928943 2.1593032 -0.53688836 -0.32675305
000050 b5 45 f9 bf b3 47 6a bf eb 49 cd 3d 30 df ba be
       -1.9474398 -0.91515654 0.10023864 -0.36498404
000060 ed 18 16 3d a2 dd 04 c0 74 aa 83 bd 17 3b 22 c0
       0.036644865 -2.0760274 -0.06428996 -2.5348566
000070 f0 ff ea bf 38 e3 9e 3f 0c c3 05 40 cc dc 77 3f
       -1.8359356 1.2413092 2.0900297 0.96821284
000080 9c ac 9a bf e0 e6 b2 3f 71 ec 9b 3f 06 34 f4 3f
       -1.2083926 1.3976707 1.2181531 1.9078376
000090 48 2c 0d bf 8e 63 f9 3d a5 af ff be c5 11 87 bf
       -0.5514569 0.12177192 -0.49938694 -1.0552298
0000a0 df 17 86 3f 5a 88 0d 3f 56 63 56 3e fd 69 b9 bf
       1.0476035 0.5528618 0.20936331 -1.448547
0000b0 f0 89 00 bf 70 27 cf 3f a2 73 3d bf db 9f 4d c0
       -0.50210476 1.618391 -0.74004567 -3.2128818
0000c0 0a a4 2d bf a9 ca a2 3e 82 2b a3 3f 44 b8 b3 bb
       -0.6782843 0.31795242 1.2747653 -0.0054846127
0000d0 57 71 78 bf a4 08 09 c0 f1 47 e4 3f 6f fa 53 40
       -0.9704794 -2.1411524 1.7834455 3.3121603
0000e0 66 86 08 40 b8 b5 66 40 17 f5 2b 40 f7 e0 5e 3f
       2.133203 3.6048412 2.686834 0.8706202
0000f0 ac 5d 85 3e 77 e2 2d 3d 54 d2 5e bf 60 47 69 40
       0.26048028 0.0424523 -0.87039685 3.6449814

body.block2.norm.running_var f4 [64]
000000 e1 4c f7 40 c5 bd 0c 41 27 80 29 41 fd 92 a1 41
       7.7281346 8.79633 10.593787 20.196772
000010 1e eb df 40 8e 07 82 40 2c 92 f3 40 72 78 b9 40
       6.997451 4.063422 7.6115932 5.795953
000020 4d 99 a6 40 34 94 b2 40 53 6a ce 40 9f f3 04 40
       5.2062135 5.580591 6.450479 2.0773695
000030 09 87 6b 40 c3 aa c1 40 c4 5e ae 40 56 6f f1 40
       3.680117 6.052095 5.449068 7.544841
000040 66 12 36 41 32 43 e2 40 fd f7 82 40 c7 3e 83 40
       11.379492 7.0707026 4.092772 4.1014132
000050 dd 21 c2 40 1a 5f a2 40 86 3e fa 40 2a a6 be 40
       6.0666337 5.074109 7.8201323 5.9577837
000060 e5 72 c8 40 5e ee 84 40 95 ee 29 40 fc 30 81 40
       6.264025 4.1540976 2.655187 4.0372295
000070 88 ed 2d 41 01 c7 20 41 65 40 08 41 90 73 dc 40
       10.870491 10.048585 8.515721 6.8891068
000080 cc f5 23 40 e8 1b bb 40 d8 dd 45 40 24 79 15 41
       2.5618773 5.8471565 3.0916653 9.342075
000090 32 88 6a 41 0f bf 14 40 82 ea 9e 40 68 4e 8b 40
       14.658251 2.3241613 4.9661264 4.353321
0000a0 52 70 93 40 3e ec 2a 41 ed 01 50 40 a5 c6 c0 40
       4.607461 10.682676 3.2501175 6.0242486
0000b0 e0 02 c2 40 29 d2 f0 40 38 71 4e 40 71 7e cb 40
       6.062851 7.5256543 3.2256603 6.3591847
0000c0 5f 10 a9 40 c0 d4 e5 40 7c f7 d0 40 4f a4 00 41
       5.2832484 7.1822205 6.5302105 8.040114
0000d0 3c a6 07 41 42 c9 b3 40 c5 5d da 40 41 e9 97 40
       8.478085 5.6183176 6.8239465 4.7472234
0000e0 1a 31 d9 40 06 5a 31 41 f8 16 c5 40 80 78 25 41
       6.787244 11.084478 6.159054 10.341919
0000f0 84 df 36 40 f9 94 72 40 4a 81 70 40 3e 55 7e 41
       2.8573923 3.7903426 3.7578912 15.895811
