SinGan/TrainedModels/cows/scale_factor=0.750000,alpha=10/5/netG.pth (torch_old, 466445 bytes, 26 tensors)

head.conv.weight f4 [64, 3, 3, 3]
0	0x3e242b74	0.16032201
1	0x3e1692b4	0.147044
2	0x3d94f158	0.07272595
3	0x3d85e8bb	0.065385304
4	0x3d1ab8e7	0.037773993
5	0xb9909b8f	-0.0002758172
6	0xbd060b1d	-0.032725442
7	0xbdc3efce	-0.095672235
8	0xbd45e419	-0.048313234
9	0xbdddfbef	-0.10839068
10	0xbda33a4c	-0.079701036
11	0xbd1f6ddc	-0.03892313
12	0xbccf35ef	-0.025294272
13	0xbcd40aba	-0.025884021
14	0xbd199b68	-0.037501723
15	0x3c8eec81	0.017446758
16	0x3d0b83f8	0.034061402
17	0x3da19d8e	0.07891379
18	0xbe33d748	-0.17562592
19	0xbd2e0d70	-0.042493284
20	0xbc50c27d	-0.012741682
21	0xbd8c29d5	-0.06843916
22	0x3bc2ceb7	0.0059450525
23	0x3b8f87a5	0.0043801838
24	0x3d1a6c56	0.037700973
25	0x3d379498	0.044819444
26	0x3cb041f1	0.021515818
27	0xbda097f3	-0.07841482
28	0xbd4a8efd	-0.04945277
29	0xbda8e3d7	-0.08246582
30	0xbdec3638	-0.11533779
31	0x3bbfd460	0.0058541745
32	0x3d93a5be	0.07209347
33	0xbe2f79c6	-0.17136297
34	0xbda01ce8	-0.078180134
35	0xbd62ec81	-0.05540133
36	0x3d9dbc60	0.07701945
37	0x3da21fe6	0.079162404
38	0xbd3771ef	-0.04478639
39	0x3ca3fd51	0.020018252
40	0x3db7daf6	0.0897731
41	0xbc07fd5c	-0.008300152
42	0x3d82de47	0.06390052
43	0xbaf1b7c1	-0.0018441604
44	0xbd30c5a2	-0.043157227
45	0x3d07a8ca	0.033119954
46	0xbdab1309	-0.0835324
47	0xbcf73250	-0.030175358
48	0x3b9d630e	0.004803068
49	0x3d0fe33f	0.03512883
50	0xbc46c11a	-0.012131
51	0xbc39eac4	-0.011347476
52	0xbd92c94d	-0.07167301
53	0xbdf3e857	-0.1190955
54	0xbdc4b42c	-0.096046776
55	0x3abd07d1	0.0014421885
56	0x3d99d83d	0.07511947
57	0x3cab48ab	0.020908674
58	0x3c9b023e	0.018921968
59	0x3df2510b	0.11831864
60	0xbcc81681	-0.024424793
61	0x3d264977	0.040597405
62	0x3e81fa29	0.2538617
63	0xbddb2cf3	-0.10701933
64	0xbc49648e	-0.0122920405
65	0xbdc4076d	-0.09571729
66	0x3d8c8cf7	0.068628244
67	0x3c94fea4	0.018187828
68	0xbd1a1d9a	-0.037625886
69	0xbdde0619	-0.10841007
70	0xbd38ec81	-0.045147423
71	0x3dfb9092	0.12283434
72	0xbce1f811	-0.027584108
73	0xba9f835d	-0.0012169887
74	0xbd19a45a	-0.037510253
75	0x3cddfa85	0.027096996
76	0x3c119b1e	0.0088870805
77	0xbd2448da	-0.04010854
78	0x3c0d188d	0.00861181
79	0x3ba428b5	0.0050097355
80	0x3dcc394a	0.099718645
81	0xbcd89d6c	-0.026442252
82	0xbe019b6d	-0.12656946
83	0xbe3ab628	-0.1823355
84	0x3cb44067	0.022003366
85	0xbcb3a528	-0.021929339
86	0xbd243b89	-0.04009584
87	0x3d804f4c	0.06265125
88	0x3d1f3e57	0.03887781
89	0x3d365922	0.044518597
90	0x3d9ce597	0.07660978
91	0x3d57daad	0.05269878
92	0x3ce7cd54	0.02829615
93	0x3c9b4050	0.018951565
94	0x3bd6c18f	0.0065538357
95	0x3dd69f2a	0.10479577
96	0xbd775ca0	-0.06039107
97	0xbc4b5c3c	-0.012412127
98	0xbca413bb	-0.02002894
99	0x3e06db6d	0.13169642
100	0x3ad2e005	0.0016088492
101	0xbd84be7a	-0.06481643
102	0x3d77f4f3	0.060536336
103	0xbd2eba33	-0.042658042
104	0xbd9781e5	-0.07397822
105	0x3ddaa38e	0.10675727
106	0x3b115e59	0.002218148
107	0xbdab2564	-0.08356741
108	0xbd37e038	-0.044891566
109	0xbc83939c	-0.016061597
110	0xbd1471e0	-0.036241412
111	0x3dd360a2	0.103211656
112	0x3d52a63f	0.051428076
113	0x3c37249f	0.011178165
114	0x3cabd0b1	0.020973535
115	0x3db44a4e	0.08803235
116	0x3dd60af8	0.10451311
117	0xbdf4f8cf	-0.11961519
118	0xbd5873db	-0.052844863
119	0xbe17e21b	-0.14832346
120	0xbbdfaa47	-0.0068257186
121	0xbc819ba5	-0.015821287
122	0xbdbe8d1a	-0.09304257
123	0xbc7d45f1	-0.01545857
124	0x3ccfb0de	0.025352892
125	0xbd3eafc2	-0.046554334
126	0x3d08de4a	0.033415116
127	0xbccbf37d	-0.024896378
128	0xbc976012	-0.018478427
129	0x3d90a56a	0.070628
130	0xbcc5b92b	-0.024136147
131	0xbd8fd521	-0.07023073
132	0x3dd8eb96	0.105918095
133	0x3deaf324	0.11472157
134	0x3d5debd1	0.05417997
135	0x3cb405ef	0.021975486
136	0xbb4f79de	-0.0031658332
137	0xbaa6ab68	-0.0012715878
138	0xbcf18045	-0.029480109
139	0x3c8a2f7b	0.016868344
140	0x3e314ac7	0.17313682
141	0x3dd58b27	0.10426932
142	0x3d370f02	0.044692047
143	0x3dfd198b	0.123583876
144	0x3d7434a5	0.05962052
145	0xbd2e8a51	-0.042612378
146	0xbdd7e3e4	-0.105415136
147	0xbddbda59	-0.10735006
148	0xbde39caf	-0.111138694
149	0x3ceb4fe0	0.02872461
150	0xbdb03e17	-0.08605593
151	0xbd792e71	-0.060835306
152	0xbda31077	-0.07962125
153	0xbc1aa7d2	-0.009439426
154	0x3c393188	0.011303313
155	0x3ca0190a	0.01954319
156	0xbda778a9	-0.08177311
157	0xbd35c6d8	-0.044379085
158	0x3dad3a02	0.0845833
159	0x3d101570	0.035176694
160	0xbcc55c57	-0.024091883
161	0x3d0b16fa	0.03395746
162	0xbd9b845c	-0.07593605
163	0xbdf40236	-0.11914484
164	0xbd5e301f	-0.05424511
165	0x3c46d8de	0.012136666
166	0x3d671e5a	0.05642543
167	0x3d65beb1	0.05609006
168	0xbdb739c3	-0.08946564
169	0xbdb920ca	-0.09039457
170	0xbe252a30	-0.16129375
171	0x3d7a9401	0.061176304
172	0xbd0e321c	-0.034715757
173	0xbd04638a	-0.03232149
174	0x3ddbd01f	0.10733055
175	0x3dda0e8c	0.10647306
176	0x3dc78ec2	0.09744026
177	0x3c5c0469	0.013428786
178	0x3dd904be	0.105966076
179	0x3d1072bb	0.035265666
180	0xbce839d7	-0.028347893
181	0xbd8207e0	-0.06349158
182	0x3b308cdd	0.002693943
183	0x3d6320d6	0.055451237
184	0xbcdc1799	-0.026866721
185	0x3ca235b0	0.01980099
186	0x3d77b259	0.06047282
187	0x3da6dac1	0.08147193
188	0xbb84cd7b	-0.0040528155
189	0xbdce2a2b	-0.10066637
190	0xbe1dead6	-0.15421614
191	0x3cb9c22b	0.022675594
192	0xbd00684a	-0.031349458
193	0xbd89d2b4	-0.067296416
194	0x3d485578	0.048909634
195	0xbd25595e	-0.04036843
196	0xbd3af653	-0.04564507
197	0x3d6baf4d	0.057540227
198	0xbcb4d8d9	-0.022076057
199	0xbda11cab	-0.07866796
200	0x3d5e7a8e	0.054316096
201	0x3dbdc670	0.092663646
202	0xbd23ab4f	-0.039958294
203	0x3d197baa	0.03747145
204	0xbd5ab9e6	-0.053399943
205	0xbddf7bc1	-0.10912276
206	0xbca755d0	-0.02042666
207	0x3c9b514f	0.01895967
208	0xbca0ba21	-0.019620003
209	0x3e055bc8	0.13023293
210	0x3d78ba13	0.06072433
211	0xbd21fd39	-0.039548133
212	0x3d55c141	0.052186254
213	0x3d1d6659	0.038427684
214	0x3ce54011	0.02798465
215	0x3de8243d	0.11335037
216	0xbd5d74b6	-0.054066382
217	0x3b876b5f	0.0041326727
218	0xbd5c6816	-0.0538102
219	0x3d0f22f9	0.034945462
220	0x3d988c3b	0.07448622
221	0xbd78cbd3	-0.060741257
222	0x3d725e0f	0.059171733
223	0xbd158380	-0.03650236
224	0xbe189ca4	-0.14903504
225	0xbe073566	-0.13203964
226	0xbdb66f2b	-0.08907922
227	0x3ce51ad9	0.027966904
228	0x3dd2c59e	0.10291599
229	0x3d7accce	0.061230473
230	0x3d6a4586	0.05719521
231	0x3de9b69f	0.11411785
232	0x3d1f3ed6	0.038878284
233	0xbd7eb246	-0.062181734
234	0xbccb6c0a	-0.02483179
235	0xbd5420df	-0.05178916
236	0x3d2fd6d6	0.042929493
237	0x3dbcdbec	0.09221634
238	0x3d51bd01	0.05120564
239	0x3d31624a	0.043306626
240	0x3dbea490	0.093087316
241	0x3d50013e	0.050782435
242	0x3c2ae88b	0.010431419
243	0x3dffaaff	0.12483787
244	0x3d64a1d0	0.05581838
245	0x3daa0052	0.08300842
246	0x3d933f6a	0.0718983
247	0x3d0124bd	0.031529177
248	0x3d1449a4	0.03620304
249	0x3dd6bb50	0.10484946
250	0x3cfec35a	0.03109901
251	0x3da06106	0.07831006
252	0x3e2fb140	0.1715746
253	0x3dd0a012	0.10186781
254	0x3e3ea9f6	0.18619522
255	0x3d82518b	0.06363209

head.conv.bias f4 [64]
0	0xbb418e26	-0.002953419
1	0xbdd65a4e	-0.10466443
2	0x3e827dd7	0.25486633
3	0x3dd8c649	0.10584695
4	0x3e113a5e	0.14182422
5	0xbe41d164	-0.18927532
6	0xbd89fc8c	-0.067376226
7	0xbdd0cc61	-0.10195232
8	0xbe3ce96b	-0.18448417
9	0x3e4705fe	0.1943588
10	0x3dedcff5	0.1161193
11	0x3e673f0d	0.22582646
12	0x3e54c918	0.20779836
13	0x3e468636	0.19387135
14	0xbe994e87	-0.29942724
15	0x3e7e1241	0.24811651
16	0x3e034c4a	0.1282207
17	0xbe0941b1	-0.13403966
18	0x3e8d38e9	0.27582482
19	0xbe8bc19a	-0.27296144
20	0xbd8af8b9	-0.06785721
21	0x3e30fb7a	0.1728343
22	0x3d8d7746	0.06907515
23	0xbe19f14f	-0.15033458
24	0xbb263364	-0.002536022
25	0x3e095817	0.1341251
26	0x3e28f7da	0.16500798
27	0x3e8b437c	0.27199924
28	0x3e35b901	0.17746355
29	0xbe28086c	-0.16409463
30	0xbe37320d	-0.17890187
31	0x3dded019	0.10879535
32	0x3e7fc521	0.24977542
33	0xbe02d959	-0.12778224
34	0xbb0ede19	-0.002179986
35	0x3e72dbed	0.23716708
36	0x3de63402	0.112403885
37	0xbab4c282	-0.0013790878
38	0x3e50978c	0.2037031
39	0x3dc5ad38	0.096521795
40	0x3e4b4555	0.19850667
41	0x3dd5cc02	0.10439302
42	0x3d973ebd	0.07385013
43	0x3e90e30a	0.28298217
44	0x3ddd6b1d	0.10811446
45	0xbe4e2f65	-0.20135267
46	0x3e3ab5e5	0.1823345
47	0xbdcab632	-0.09898032
48	0xbe21541f	-0.15754746
49	0xbe2c30c2	-0.16815475
50	0xbe1d3bb2	-0.15354803
51	0xbe117e4d	-0.14208336
52	0xbe58c5c5	-0.21169193
53	0x3daf4f7e	0.08560084
54	0x3e2f5f6b	0.17126243
55	0x3e1aac0c	0.15104693
56	0xbe84ae72	-0.2591434
57	0x3e29b8db	0.16574423
58	0x3d43a1e0	0.047761798
59	0x3ddeb7b7	0.108748846
60	0x3d3198ad	0.043358494
61	0x3d7d51f2	0.061845727
62	0xbdc514dd	-0.0962312
63	0x3e43e32b	0.19129626

head.norm.weight f4 [64]
0	0x3fa39d31	1.2782346
1	0x3fa5435c	1.2911181
2	0x3fb23b53	1.3924354
3	0x3fafc698	1.3732481
4	0x3f97be16	1.1854885
5	0x3f9c55c3	1.2213672
6	0x3fa8c4bc	1.3185039
7	0x3fa15dc5	1.2606741
8	0x3fafe702	1.3742373
9	0x3fab90a1	1.3403512
10	0x3f944319	1.1582977
11	0x3fa9600d	1.3232437
12	0x3fab6fa3	1.3393444
13	0x3faa3b12	1.3299277
14	0x3fbb86ac	1.4650474
15	0x3f8a869f	1.0822333
16	0x3fab07cf	1.3361758
17	0x3f9fa784	1.2472997
18	0x3fab1919	1.3367034
19	0x3fae07c7	1.3596123
20	0x3f9c0d51	1.2191564
21	0x3f9511ae	1.164602
22	0x3fb937d9	1.4470168
23	0x3fad6a75	1.3548113
24	0x3f87db70	1.0613842
25	0x3fa80799	1.3127319
26	0x3f9f9e26	1.2470138
27	0x3fb80584	1.4376683
28	0x3fa06383	1.2530369
29	0x3fae5fd4	1.3622994
30	0x3f9b9879	1.2155906
31	0x3fb1db49	1.3895046
32	0x3fbccd2f	1.4750117
33	0x3f8c69cb	1.0969785
34	0x3f93ca03	1.1546024
35	0x3fa35b56	1.2762249
36	0x3fb5ddde	1.4208333
37	0x3f99e4c6	1.2022941
38	0x3fa90aa4	1.3206372
39	0x3fb247bc	1.3928142
40	0x3faf6ab2	1.3704436
41	0x3f9d0dad	1.2269799
42	0x3f865694	1.0495172
43	0x3fa5a4f4	1.2940965
44	0x3fa870ff	1.3159484
45	0x3fadb60a	1.3571179
46	0x3f986ace	1.1907594
47	0x3fb41999	1.4070312
48	0x3fa8c31e	1.3184545
49	0x3f8e3245	1.1109091
50	0x3fb4d253	1.4126686
51	0x3fae62c2	1.3623888
52	0x3f950408	1.1641855
53	0x3fa04278	1.2520285
54	0x3f9b0da8	1.2113543
55	0x3fcc4b73	1.5960525
56	0x3f964119	1.1738616
57	0x3f8c0fbf	1.0942305
58	0x3fb19f93	1.3876823
59	0x3fb59afa	1.418792
60	0x3faacf6f	1.3344554
61	0x3fa4233d	1.2823254
62	0x3f9ed1a3	1.2407726
63	0x3fadb07d	1.3569485

head.norm.bias f4 [64]
0	0xbe38180e	-0.17977926
1	0xbe46b082	-0.1940327
2	0xbeb1c952	-0.34723908
3	0xbeba154c	-0.36344373
4	0xbedab0a3	-0.42712888
5	0xbec4cdf5	-0.38438383
6	0xbe26c3c9	-0.16285624
7	0xbec53cf2	-0.3852306
8	0xbecd978c	-0.40154684
9	0x3e989883	0.29803857
10	0xbe8611a5	-0.26185337
11	0xbe747006	-0.23870859
12	0x3ccc5c75	0.02494643
13	0x3e38f274	0.18061239
14	0xbe5612ee	-0.20905659
15	0xbed752f6	-0.42055482
16	0xbe1816f3	-0.14852504
17	0x3e394315	0.18091996
18	0x3d99b4d7	0.075051956
19	0xbebec48d	-0.3725933
20	0xbeb266d8	-0.3484409
21	0xbec39997	-0.38203117
22	0x3e56d4e9	0.20979656
23	0x3c2ed720	0.010671407
24	0xbf17b161	-0.59255034
25	0xbe21b50e	-0.15791723
26	0xbecb2252	-0.39674622
27	0xbcee4ddd	-0.029089862
28	0xbedf0727	-0.43560144
29	0xbefd27dd	-0.49444476
30	0xbe17a381	-0.14808466
31	0xbf07354a	-0.5281569
32	0xbe8f7cd1	-0.28024915
33	0xbee9d878	-0.45672965
34	0xbee0874d	-0.43853226
35	0x3e18176a	0.14852682
36	0xbe90638d	-0.2820095
37	0xbe435d5b	-0.19078581
38	0xbf084e52	-0.5324451
39	0xbe62229a	-0.22083512
40	0xbeb7dbdd	-0.3590993
41	0xbe3d0c4a	-0.18461719
42	0xbf1ac456	-0.60455835
43	0xbe759ad8	-0.2398485
44	0xbeeae2e5	-0.45876232
45	0xbe6c0a48	-0.23050797
46	0xbea23699	-0.3168228
47	0xbe7fed54	-0.24992877
48	0xbe3f662b	-0.18691318
49	0xbee45070	-0.4459262
50	0xbeb98b90	-0.3623929
51	0x3e52660d	0.20546742
52	0xbecf5050	-0.4049096
53	0xbd81ccd6	-0.063378975
54	0xbe75a0ed	-0.2398717
55	0x3d0f1512	0.034932204
56	0xbe56b44c	-0.20967215
57	0xbf035c8d	-0.51313096
58	0xbd4e331d	-0.050341714
59	0x3e12e0d6	0.1434358
60	0xbe6ab732	-0.22921446
61	0xbe0c7d8a	-0.13719764
62	0xbd2cecb1	-0.042217914
63	0xbc70b35c	-0.0146912

head.norm.running_mean f4 [64]
0	0x3da3beee	0.07995401
1	0xbc216459	-0.009850585
2	0x3e7bf7ae	0.24606201
3	0x3db54bc3	0.08852341
4	0x3d03ca86	0.032175563
5	0xbe4f37a2	-0.20236066
6	0xbdde5f91	-0.108580716
7	0xbe904956	-0.2818095
8	0xbea1f2b6	-0.31630486
9	0x3ec1b3ef	0.3783259
10	0x3e45a51f	0.1930127
11	0x3e89a106	0.26880664
12	0x3e608096	0.21924052
13	0x3eca1724	0.3947078
14	0xbe99eaf2	-0.30062062
15	0x3e8acd7b	0.27109894
16	0x3e595aa0	0.21225977
17	0xbe6e3aa6	-0.2326456
18	0x3ee52abe	0.44759172
19	0xbe93c7d9	-0.2886341
20	0xbda10c5e	-0.07863687
21	0xbb8f5634	-0.00437429
22	0x3e7e2aae	0.24820969
23	0xbe01cd8a	-0.12676063
24	0xbe0f89f3	-0.14017467
25	0x3eb3688c	0.350407
26	0x3e551168	0.20807421
27	0x3eb7f410	0.35928392
28	0x3e2dd7b3	0.16976814
29	0xbe1ba8f6	-0.15201172
30	0xbefa71d5	-0.48914972
31	0x3c576fe7	0.013149238
32	0x3e9b89cd	0.3037857
33	0xbe13fd13	-0.14452009
34	0xbdd0694b	-0.10176333
35	0x3e85465f	0.2603025
36	0x3da00a24	0.07814434
37	0x3ec2828a	0.37990218
38	0x3da8ae96	0.082364246
39	0x3d4f4275	0.050600488
40	0x3e2fa349	0.17152132
41	0x3cf46cc0	0.029837012
42	0x3dc5617a	0.09637733
43	0x3e94a768	0.2903397
44	0x3c1089b4	0.0088218935
45	0xbe3f5317	-0.1868404
46	0x3e35d635	0.17757495
47	0xbc9fd351	-0.019509943
48	0xbd4a70eb	-0.049424093
49	0xbe8d030c	-0.27541387
50	0xbe1aff14	-0.15136367
51	0xbdc13fbc	-0.094359845
52	0xbe64762e	-0.22310707
53	0x3e35a7b3	0.17739753
54	0x3e2f8871	0.17141892
55	0x3e849106	0.25891894
56	0xbe7117b4	-0.23544198
57	0x3c436df2	0.0119280685
58	0x3d51bd99	0.051206205
59	0x3eb1097e	0.34577554
60	0x3d92cd7a	0.07168098
61	0x3dc1b14d	0.094576456
62	0xbebbc953	-0.36677036
63	0x3e70d053	0.2351697

head.norm.running_var f4 [64]
0	0x3b4ef698	0.0031580087
1	0x3c211fbf	0.009834229
2	0x3c06fd4e	0.0082391035
3	0x3b6eab13	0.0036417886
4	0x3c2117d1	0.009832338
5	0x3b6dad8c	0.0036266772
6	0x3b898d10	0.004197724
7	0x3c270096	0.010193011
8	0x3c0c33f3	0.0085573075
9	0x3d47951f	0.048726197
10	0x3c17e79c	0.009271529
11	0x3b5de82c	0.003386031
12	0x3bcbf788	0.0062245764
13	0x3c5656a4	0.01308218
14	0x3b2897eb	0.0025725316
15	0x3c198996	0.009371182
16	0x3b9ebe30	0.0048444495
17	0x3c5d4d87	0.0135072535
18	0x3c7f43b8	0.01558011
19	0x3bdb1dc5	0.0066868984
20	0x3bf1391a	0.0073615434
21	0x3c5c1830	0.013433501
22	0x3c2205bf	0.009889065
23	0x3be75d74	0.007060701
24	0x3c245511	0.010030047
25	0x3c8cb4e2	0.017176095
26	0x3b572dea	0.0032833763
27	0x3b7884e4	0.0037921006
28	0x3bfdb6f1	0.0077427556
29	0x3a693c44	0.0008897225
30	0x3cf3e2dd	0.029771263
31	0x3b804dcc	0.003915524
32	0x3b528ed3	0.0032128587
33	0x3c1580d9	0.009124958
34	0x3bf89127	0.007585663
35	0x3c8c245c	0.017107181
36	0x3b892b2c	0.0041860547
37	0x3d529b04	0.051417366
38	0x3c0ddf8c	0.008659255
39	0x3b23503e	0.0024919654
40	0x3b3de67c	0.002897649
41	0x3bb6a5b3	0.005573952
42	0x3ba4d816	0.0050306423
43	0x3be39277	0.00694495
44	0x3be9eb5f	0.007138654
45	0x3b59f93f	0.0033260135
46	0x3b767fc1	0.0037612768
47	0x3b28dd34	0.0025766613
48	0x3c12bb74	0.008955825
49	0x3bc6d765	0.0060681575
50	0x3b49d294	0.003079568
51	0x3b91809a	0.0044403793
52	0x3ba51b40	0.005038649
53	0x3b75dec6	0.0037516817
54	0x3b6e1972	0.0036331085
55	0x3b9c23c3	0.0047650053
56	0x3c245593	0.010030168
57	0x3c457815	0.012052556
58	0x3b292a77	0.0025812665
59	0x3ca5176f	0.020152776
60	0x3b50a62f	0.0031837334
61	0x3b107640	0.0022043139
62	0x3cc3c5ea	0.023898084
63	0x3b671e64	0.0035265917

body.block1.conv.weight f4 [64, 64, 3, 3]
0	0x3d6c4078	0.05767867
1	0x3c0d9455	0.008641322
2	0x3d218747	0.03943565
3	0xbb706d24	-0.0036686147
4	0x3d7c714b	0.061631482
5	0x3dd1ff65	0.10253791
6	0xbd021c2a	-0.03176514
7	0x3d07be5c	0.033140525
8	0x3cb66718	0.022265956
9	0xbe17e3ed	-0.1483304
10	0xbdadda9e	-0.084889635
11	0xbcd0c478	-0.025484309
12	0xbca9c8a0	-0.020725548
13	0xbdb56c1d	-0.088585116
14	0x3c639b9a	0.013892079
15	0xbda5861f	-0.08082222
16	0xbcddab9f	-0.027059374
17	0x3cb6d5a8	0.022318676
18	0xbe4b0fe7	-0.19830285
19	0x3bc3c1fc	0.0059740525
20	0x3d8db933	0.069200896
21	0xbd1b20e2	-0.037873156
22	0xbcf6ef9d	-0.030143553
23	0xbc81fd92	-0.015867982
24	0x3c7774bf	0.015103518
25	0x3d8d4b29	0.06899101
26	0x3d898d91	0.06716455
27	0x3de751e1	0.11294914
28	0x3b1d7455	0.0024025638
29	0xbddcc1ff	-0.10779189
30	0x3ce1734e	0.027520802
31	0x3d0d4ab4	0.03449507
32	0xbcc9624e	-0.024583008
33	0x3d643bee	0.055721216
34	0x3dadd9ac	0.08488783
35	0x3cf71f24	0.030166216
36	0xbde017a9	-0.10942013
37	0xbd882ea0	-0.06649518
38	0x3d8fc09b	0.070191585
39	0xbd1817a4	-0.03713192
40	0xbb3070e0	-0.0026922747
41	0xbd741bd7	-0.059596863
42	0x3d3345fa	0.043767907
43	0x3de030d0	0.1094681
44	0x3d6d566d	0.05794375
45	0x3d00f1c0	0.03148055
46	0x3d2d13c7	0.04225519
47	0xbdae48fa	-0.08510013
48	0xbd5a77b9	-0.053336833
49	0x3db85755	0.09001032
50	0x3c8a77d1	0.016902836
51	0xbd86106b	-0.065461
52	0xbc10ba62	-0.0088335
53	0xbd326b55	-0.04355939
54	0x3d762c3b	0.060100775
55	0x3debb18d	0.115084745
56	0x3e0f92b0	0.140208
57	0x3db42712	0.087965146
58	0xbd89c88e	-0.06727706
59	0xbcce4634	-0.02517996
60	0xbdb68f04	-0.08913997
61	0xbd1354ec	-0.03596966
62	0x3c849e6a	0.016188819
63	0xbb471146	-0.0030375286
64	0xbc0dc8b7	-0.008653811
65	0xbbd5f09c	-0.006528927
66	0xbdb403fe	-0.08789824
67	0xbdfeca40	-0.1244092
68	0xbcda5a5d	-0.026654417
69	0x3d815a8d	0.06316099
70	0x3cb86fa1	0.022514166
71	0xbbc738f1	-0.006079786
72	0xbb71d355	-0.0036899645
73	0xbd9a17e4	-0.07524088
74	0xbd26b2e6	-0.040697955
75	0x3e13eb51	0.14445235
76	0x3d283c3a	0.04107306
77	0x3cb5251e	0.022112425
78	0xbd1d4aa5	-0.038401265
79	0x3d88438e	0.0665351
80	0x3d5a305d	0.05326878
81	0xbd7b152d	-0.06129949
82	0xbd195dc6	-0.037442945
83	0xbbb7df73	-0.005611354
84	0xbdd33423	-0.10312679
85	0xbdd9aece	-0.106290445
86	0xbd1d2809	-0.03836826
87	0xbe1d6365	-0.15369947
88	0xbe2fcfca	-0.17169109
89	0xbdbbd142	-0.09170772
90	0xbccabff2	-0.02474973
91	0xbc090a88	-0.008364327
92	0x3c4ea274	0.012611974
93	0xbc9c290b	-0.01906254
94	0xbd332e15	-0.04374512
95	0xbced0ab7	-0.028935773
96	0xbd91a28e	-0.07111083
97	0x3c3e7055	0.011623462
98	0xbd11c3c7	-0.0355871
99	0xbdfbe059	-0.1229865
100	0xbdc9eba8	-0.09859401
101	0xbd2d0ee0	-0.042250514
102	0x39f44730	0.00046592345
103	0xbd9a9057	-0.07547062
104	0xbd85697c	-0.0651426
105	0x3c745ceb	0.0149147315
106	0xbc6f5102	-0.014606716
107	0x3db5d1a1	0.08877874
108	0xbc70eba8	-0.014704622
109	0xbe011206	-0.12604532
110	0xbdb36a29	-0.08760483
111	0xbc5dffbd	-0.013549742
112	0x3d7145a4	0.058904305
113	0x3de2b90d	0.11070452
114	0xbd527756	-0.05138334
115	0x3dbf118d	0.093295194
116	0x3d9e1b64	0.07720068
117	0xbcf302af	-0.029664366
118	0x3cf141d9	0.029450344
119	0x3ca08a92	0.019597325
120	0xbc7d0491	-0.015442983
121	0x3d430199	0.047608946
122	0xbde2a450	-0.11066496
123	0xbe0f5e2b	-0.14000766
124	0xbd447df8	-0.047971696
125	0xbe1cae10	-0.15300775
126	0xbd333248	-0.043749124
127	0xbe362677	-0.1778811
128	0xbd1584cd	-0.0365036
129	0xbd9f48e3	-0.07777574
130	0xbd872cf6	-0.066003725
131	0xbd12bc02	-0.03582383
132	0xbe418b1b	-0.18900721
133	0xbc61f967	-0.013792372
134	0x3cc0db15	0.023541966
135	0xbc3a53f5	-0.011372556
136	0xbdb8fc1c	-0.09032461
137	0xbdd94770	-0.10609329
138	0x3c0827b0	0.0083102435
139	0xbd6b1c39	-0.057399962
140	0xbccb3d85	-0.024809608
141	0x3b8a716e	0.0042249477
142	0x3d0d4f91	0.03449971
143	0x3de7bbaa	0.11315091
144	0xbe01c067	-0.12671052
145	0xbe460805	-0.19338997
146	0xbc7a9dc2	-0.015296401
147	0x3cde18ce	0.027111437
148	0x3cb84dd6	0.022498053
149	0x3dcd327b	0.10019394
150	0xbd1edef3	-0.03878684
151	0x3caaf681	0.020869495
152	0x3e02846b	0.12745826
153	0xbca5bf80	-0.020232916
154	0xbda48669	-0.08033449
155	0xbe0bc796	-0.13650355
156	0xbd30d853	-0.043175053
157	0x3d16f691	0.036856238
158	0x3d4887d8	0.048957676
159	0xbd84cf8f	-0.06484901
160	0xbcd87981	-0.026425125
161	0x3d323412	0.04350669
162	0xbd3de4b5	-0.04636069
163	0xbcc413b7	-0.023935182
164	0x3bc623d7	0.006046753
165	0xbd26af33	-0.040694427
166	0x3d6ce1b1	0.057832424
167	0x3d0886c7	0.03333166
168	0xbd94ae19	-0.07259769
169	0xbd95fe93	-0.07323947
170	0xbdab9e96	-0.08379857
171	0xbd3dfeb8	-0.046385497
172	0xbe197b23	-0.14988379
173	0xbd27b4bc	-0.040943846
174	0xbd6a185a	-0.05715213
175	0xbdb2eb4c	-0.087362856
176	0xbdbee0fa	-0.093202546
177	0x3e0db59c	0.1383881
178	0x3de33c82	0.11095525
179	0x3d901c31	0.07036627
180	0xbd7f4d5e	-0.062329642
181	0xbd68d06e	-0.0568394
182	0xbd85501e	-0.06509422
183	0xbdb8449a	-0.0899746
184	0xbd9c312a	-0.07626565
185	0x3a8002dc	0.0009766477
186	0x3b9e4cff	0.004830956
187	0x3d813a6b	0.063099705
188	0x3d8925b2	0.06696643
189	0xbd7e0d85	-0.062024612
190	0xbda9ee6f	-0.08297431
191	0x3c9d4e5a	0.0192024
192	0xbddb1dec	-0.106990665
193	0xbda4e8ec	-0.08052239
194	0xbd025d14	-0.031827047
195	0xbcdb0082	-0.02673364
196	0xbc8c013c	-0.017090432
197	0xbdce910f	-0.100862615
198	0xbd416314	-0.04721363
199	0xbd005742	-0.031333216
200	0xbc57f099	-0.013179922
201	0x3cf32a3e	0.029683229
202	0x3dd3d7b2	0.10343875
203	0x3e05aec5	0.1305495
204	0x3cac8dea	0.021063764
205	0x3dab1e48	0.08355385
206	0x3c43a136	0.011940291
207	0xbdc9a77f	-0.098464005
208	0xbdecd6c3	-0.115644
209	0x3b5f44e5	0.0034068164
210	0x3db3000b	0.087402426
211	0x3df4a334	0.11945191
212	0x3dad37b4	0.0845789
213	0xbc8d5839	-0.017253982
214	0x3cc102f1	0.023560973
215	0xbd9b198f	-0.07573234
216	0xbe1c85b4	-0.15285379
217	0xbd8b8b6a	-0.068137005
218	0xbcfcecf9	-0.030874716
219	0xbd512e4f	-0.051069554
220	0xbd9e60f4	-0.07733336
221	0xbb804ea2	-0.0039156238
222	0xbc28724a	-0.010281155
223	0xbca4ae90	-0.02010277
224	0x3db6094a	0.088884905
225	0xbd496b8b	-0.049174827
226	0xbd6ad916	-0.057335936
227	0x3d0a950d	0.033833552
228	0xbd3cf8cc	-0.04613571
229	0x3d602e19	0.054731462
230	0x3e12eb5f	0.143476
231	0xbd1c90c1	-0.038223986
232	0x3d8736b0	0.06602228
233	0x3db64bfc	0.089012116
234	0x3cf1a288	0.029496446
235	0x3e158d9c	0.14604801
236	0x3c757dd2	0.014983611
237	0xbdc65e30	-0.096859336
238	0xbd3e4173	-0.046449136
239	0xbe0f35dc	-0.1398539
240	0xbde5feaa	-0.11230214
241	0xbd3df485	-0.04637577
242	0xbc3d6308	-0.011559255
243	0x3d63663d	0.055517424
244	0x3d65f9d3	0.056146454
245	0xbda4b359	-0.0804202
246	0x3cb7d06e	0.022438254
247	0x3dc83418	0.09775561
248	0x3cbc1338	0.022958383
249	0x3d926541	0.07148219
250	0xbd500d66	-0.050794028
251	0x3ca8dee5	0.020614097
252	0xbdb4e426	-0.08832578
253	0xbdc71567	-0.09720879
254	0xbd4c1ca7	-0.049832013
255	0x3c6c728c	0.014431607

body.block1.conv.bias f4 [64]
0	0xbc491edf	-0.012275427
1	0x3cc2c6e1	0.023776473
2	0xbd18a457	-0.0372661
3	0xbc65e994	-0.01403274
4	0xbc2c6a28	-0.0105233565
5	0x3ce6564d	0.028117323
6	0x3d181670	0.037130773
7	0x3d20f55e	0.0392965
8	0x3bc69d14	0.0060612056
9	0x3d255af8	0.040369958
10	0xbbe12d63	-0.0068718656
11	0xbcebc4ac	-0.028780304
12	0x3d0837eb	0.033256453
13	0xbd3c5790	-0.045981944
14	0xbcd07454	-0.025446095
15	0x3d1176c1	0.035513643
16	0x3cb5c262	0.022187416
17	0x3c35f205	0.011105065
18	0xbca5c530	-0.020235628
19	0xbc60e7f9	-0.013727182
20	0x3d13a821	0.036049012
21	0x3c9b3629	0.018946724
22	0xbbb10f2b	-0.0054034195
23	0xbd1aa08e	-0.037750773
24	0x3c8c63bf	0.017137406
25	0x3d28a09b	0.04116879
26	0xbcb7104f	-0.022346644
27	0xbc8ea2bb	-0.01741158
28	0x3b1ccfdf	0.0023927612
29	0xbc909113	-0.017647302
30	0xbd06a2b1	-0.03287
31	0x3b445df7	0.0029963234
32	0xbc865a41	-0.016400458
33	0x3cfb0127	0.030640198
34	0x3cabb756	0.020961445
35	0x3bb7bd3c	0.0056072753
36	0x3c9fbc4e	0.01949897
37	0x3a3c6e2c	0.0007188048
38	0xbd0f4af5	-0.034983594
39	0xbb1673b2	-0.0022957143
40	0x3d197a84	0.037470356
41	0x3cf44a5d	0.029820615
42	0xbc0b5ee7	-0.008506513
43	0x3ae5e7f6	0.0017540443
44	0xbd07ce02	-0.03315545
45	0xbbc366bc	-0.0059631746
46	0x3cf06127	0.0293432
47	0x3cc0753b	0.0234934
48	0xb9a1bbe7	-0.0003084831
49	0x3ca2f5d6	0.019892614
50	0xbcd7207d	-0.026260609
51	0xbcad53cd	-0.021158123
52	0x3c496027	0.012290991
53	0xbd206e11	-0.039167468
54	0xbd19e84e	-0.03757506
55	0xbc8739f9	-0.016507136
56	0x3635eb40	2.7108035e-06
57	0xbcc4cac8	-0.024022475
58	0xbcca76a1	-0.02471477
59	0x3d126539	0.035741065
60	0x3cd80010	0.026367217
61	0xbc8dee11	-0.017325433
62	0xbd082206	-0.033235572
63	0x3c508a78	0.012728326

body.block1.norm.weight f4 [64]
0	0x3fb8a499	1.4425231
1	0x3f99a85d	1.2004505
2	0x3faf5d30	1.3700314
3	0x3fb11c5e	1.3836782
4	0x3faa234b	1.329202
5	0x3fa773a9	1.3082172
6	0x3fb29711	1.3952352
7	0x3fab77fb	1.339599
8	0x3fac0c77	1.3441304
9	0x3facddeb	1.3505224
10	0x3fae8198	1.3633299
11	0x3fbc935a	1.4732468
12	0x3f96f864	1.1794553
13	0x3fa0fa82	1.2576449
14	0x3fa0d562	1.2565119
15	0x3f9c2663	1.2199215
16	0x3f90a573	1.1300491
17	0x3f91d705	1.1393744
18	0x3fba4919	1.4553558
19	0x3fa74331	1.306738
20	0x3fa4cc0a	1.2874768
21	0x3fa72f24	1.3061261
22	0x3f97aead	1.1850182
23	0x3faa1782	1.3288424
24	0x3faa7839	1.3317939
25	0x3fa33aa8	1.2752275
26	0x3fa8ddb6	1.3192661
27	0x3fa72a0c	1.3059707
28	0x3fa3eaa8	1.2805986
29	0x3f9d7325	1.2300764
30	0x3fb0ba9a	1.3806946
31	0x3fa63a14	1.2986474
32	0x3fad1211	1.3521138
33	0x3fa9c3b2	1.3262846
34	0x3fb70ffe	1.4301755
35	0x3f9ece5c	1.2406726
36	0x3fbacdca	1.4594052
37	0x3fa26347	1.2686547
38	0x3fafac53	1.3724464
39	0x3fb1b140	1.3882217
40	0x3fa5e3a0	1.2960091
41	0x3faf9ac6	1.3719108
42	0x3fa09ff0	1.2548809
43	0x3f97b0df	1.1850852
44	0x3fb4d33b	1.4126962
45	0x3fa9db75	1.3270098
46	0x3fb34bb6	1.400748
47	0x3fab0670	1.336134
48	0x3fbc1cb3	1.4696258
49	0x3fade4ca	1.3585446
50	0x3fa7ffa6	1.3124893
51	0x3f9ffb65	1.2498595
52	0x3fa5e2d8	1.2959852
53	0x3faeefb9	1.3666908
54	0x3fad87a1	1.3557016
55	0x3fb20360	1.390728
56	0x3fa006e8	1.2502108
57	0x3fbb8cf4	1.465239
58	0x3fb5fcc0	1.4217758
59	0x3fb4221e	1.4072912
60	0x3fa2c53a	1.2716439
61	0x3fa74d13	1.3070396
62	0x3fb0336c	1.3765693
63	0x3fb68596	1.4259517

body.block1.norm.bias f4 [64]
0	0xbd0ea5e7	-0.034826186
1	0xbf02538f	-0.5090875
2	0xbe941ad0	-0.28926706
3	0xbe94af38	-0.2903993
4	0xbecdf1e7	-0.4022362
5	0xbf148916	-0.58021677
6	0x3c14cfdb	0.00908276
7	0xbdb1b7c3	-0.08677628
8	0xbe300853	-0.17190675
9	0xbea37e1a	-0.31932145
10	0xbe4c645d	-0.1996016
11	0xbdb9412d	-0.090456344
12	0xbe8bc094	-0.27295363
13	0xbf2e4c0a	-0.68084776
14	0xbcc5154a	-0.024058003
15	0xbe26295c	-0.16226715
16	0xbf09cf78	-0.538322
17	0xbf072758	-0.5279441
18	0x3bfb6756	0.0076722307
19	0xbd97f8ef	-0.07420527
20	0xbecc3d36	-0.3989045
21	0xbea0592b	-0.3131803
22	0xbed5f401	-0.41787723
23	0xbea84be0	-0.32870388
24	0xbe138fc4	-0.14410311
25	0xbd0f397a	-0.034966923
26	0x3e91f3f7	0.28506443
27	0xbeca4b5c	-0.3951062
28	0xbe9f5b3d	-0.31124297
29	0xbee90782	-0.4551354
30	0xbeee6e5e	-0.46568578
31	0xbed82eac	-0.42223108
32	0xbe0f3304	-0.13984305
33	0xbed9a132	-0.42505795
34	0xbea8bbf4	-0.32955897
35	0xbe8b4def	-0.27207896
36	0xbe5da083	-0.21643262
37	0xbe9df5c7	-0.30851576
38	0x3db0a445	0.08625082
39	0xbe68209f	-0.22668694
40	0xbe1390f6	-0.14410767
41	0xbda3f325	-0.080053605
42	0xbe5c0d63	-0.21489482
43	0xbe8b258e	-0.2717709
44	0xbcb39fd6	-0.021926802
45	0xbeff5557	-0.49869797
46	0xbe046223	-0.12928061
47	0xbec51843	-0.38495073
48	0xbdb4f9b5	-0.0883669
49	0x3e10e7ec	0.14150971
50	0xbede171d	-0.4337701
51	0xbeefa234	-0.4680344
52	0xbe752749	-0.23940767
53	0xbdebd273	-0.115147494
54	0x3dfc9765	0.12333564
55	0xbe7533a8	-0.23945487
56	0x3e502ddc	0.20329994
57	0xbea7643e	-0.32693666
58	0xbe66a754	-0.22524768
59	0x3de3c68d	0.11121855
60	0xbe35bb5f	-0.17747258
61	0xbef2f676	-0.4745366
62	0xbe646ffd	-0.22308345
63	0xbeb15563	-0.34635457

body.block1.norm.running_mean f4 [64]
0	0xbfe1011e	-1.7578466
1	0x3f989d9b	1.1923097
2	0xbf6548ef	-0.8956441
3	0xbf44e9bc	-0.7691915
4	0x40140905	2.3130505
5	0xbe58448d	-0.211199
6	0xbf8b3ba8	-1.0877581
7	0xc02d37c0	-2.7065277
8	0xc0023ef7	-2.035093
9	0x40026725	2.0375454
10	0xc00eb847	-2.2299974
11	0xc042a5cc	-3.0413694
12	0x3fea8505	1.8321844
13	0x408f75e7	4.4831424
14	0x40066866	2.100122
15	0xbea0b150	-0.3138528
16	0x3f2d88e3	0.67787
17	0x404ae06c	3.1699476
18	0xbf6c75b3	-0.92367095
19	0xc022931f	-2.5402296
20	0x3ec8d86b	0.39227614
21	0x40453cf3	3.081845
22	0x3fd832ec	1.689054
23	0xbf819c39	-1.01258
24	0xbede959e	-0.43473524
25	0xc00b0b4c	-2.1725645
26	0xbf595803	-0.8489992
27	0xbe8c396a	-0.27387553
28	0x3fdf0155	1.7422282
29	0xbe1f1ad1	-0.15537573
30	0xbf697f55	-0.9120992
31	0x3f85b423	1.0445598
32	0x3f029352	0.5100604
33	0x3f52b818	0.82312155
34	0xc00060ec	-2.0059156
35	0x40337530	2.8040276
36	0xbfbcbc39	-1.4744941
37	0x3f58a4aa	0.8462626
38	0xbf7aa79c	-0.97912
39	0xc072b716	-3.7924247
40	0x3ec262d7	0.37966034
41	0xbfbbc58a	-1.4669659
42	0x3eac9e6c	0.33714616
43	0x3ff399eb	1.9031347
44	0xc0059d37	-2.0877206
45	0xbff2674c	-1.8937774
46	0x3fe2537b	1.7681726
47	0x3f2c5448	0.67316103
48	0xc041bf4d	-3.027301
49	0xc067fa44	-3.62465
50	0xc050fdb3	-3.2654846
51	0x3fc098d9	1.5046645
52	0x3fe12252	1.7588599
53	0x3ef77fbc	0.4833964
54	0xc06ea959	-3.7290862
55	0x3f8a733b	1.0816416
56	0xc0aa129d	-5.314772
57	0xbfcdea40	-1.6087112
58	0xbb4eca3c	-0.0031553647
59	0xbfbfa20d	-1.4971329
60	0x3f104134	0.5634949
61	0xbf5f0d25	-0.8712943
62	0xbf99efb6	-1.2026279
63	0xbd53b551	-0.05168659

body.block1.norm.running_var f4 [64]
0	0x406ea90f	3.7290685
1	0x41132345	9.196111
2	0x4035baa9	2.8395178
3	0x401744d2	2.3635755
4	0x409aaf79	4.83392
5	0x404e2b72	3.2214017
6	0x4076a122	3.8535848
7	0x4084bd66	4.14812
8	0x405693f7	3.352781
9	0x4089bcd2	4.3042994
10	0x40410b85	3.016328
11	0x407ef897	3.9839227
12	0x404a1970	3.1578026
13	0x4080f8ad	4.030356
14	0x40b7f830	5.7490463
15	0x40a65769	5.19817
16	0x405ade15	3.4198048
17	0x40a5a906	5.1768827
18	0x40772224	3.8614588
19	0x40cc417e	6.3829947
20	0x400498f6	2.071836
21	0x40b661b3	5.699426
22	0x404de9aa	3.2173867
23	0x4065f4c0	3.5930634
24	0x401d80cd	2.4609864
25	0x40627b03	3.538758
26	0x410369d6	8.213339
27	0x40380828	2.8754978
28	0x407c63f8	3.9436016
29	0x4018d5b3	2.3880432
30	0x40174218	2.363409
31	0x40684275	3.6290562
32	0x402a9c6c	2.6657972
33	0x4037507b	2.8642871
34	0x4047c74c	3.121539
35	0x40935072	4.60357
36	0x406cc688	3.6996174
37	0x404578b0	3.0854912
38	0x40724450	3.7854195
39	0x40afbac6	5.4915495
40	0x405b3149	3.4248831
41	0x402afaf5	2.6715672
42	0x407c7fb9	3.9452956
43	0x409810a2	4.7520304
44	0x406f160a	3.7357202
45	0x403674f2	2.8508878
46	0x404ce978	3.2017498
47	0x405e65c5	3.4749615
48	0x4081fc13	4.062021
49	0x40d8b3bb	6.7719398
50	0x404bb286	3.1827712
51	0x402ac0d7	2.66802
52	0x403b0440	2.9221344
53	0x3ff04e1c	1.8773837
54	0x40e28e97	7.079906
55	0x400cda59	2.200827
56	0x4141a141	12.101869
57	0x400ba461	2.181908
58	0x400a0838	2.1567516
59	0x40a1912c	5.048971
60	0x4080aa48	4.0207863
61	0x40636db7	3.5535715
62	0x403a1ff2	2.9081998
63	0x40259cbf	2.587692

body.block2.conv.weight f4 [64, 64, 3, 3]
0	0xbda5d095	-0.080964245
1	0xbc8f533e	-0.017495748
2	0x3d9c5884	0.076340705
3	0x3cc5dc17	0.024152799
4	0x3deaf9ba	0.11473413
5	0xbccf8b68	-0.025335029
6	0xbd73d993	-0.059533667
7	0x3d178f9e	0.0370022
8	0xbdb8d215	-0.09024445
9	0xbdd317ac	-0.103072494
10	0xbd39657d	-0.045262802
11	0xbdb6a8d1	-0.08918918
12	0xbdd56ff6	-0.104217455
13	0xbd71c868	-0.059029013
14	0xbdf835f7	-0.12119668
15	0xbe3b073a	-0.18264475
16	0xbe340aac	-0.17582196
17	0xbdac463f	-0.08411836
18	0x3d4c74e6	0.04991617
19	0x3de55a31	0.11198843
20	0x3db6faaf	0.08934533
21	0xbc3d5a2b	-0.011557142
22	0xbd373090	-0.044724047
23	0x3d5058bd	0.050865877
24	0xbbc0be71	-0.0058820774
25	0xbda697f4	-0.081344515
26	0xbd55493f	-0.052071806
27	0xbd151ffc	-0.036407456
28	0xbdb9c2dc	-0.090703696
29	0x3d3ae9c7	0.045633104
30	0xbdb70be3	-0.08937814
31	0xbe38dbe7	-0.18052636
32	0xbc85bf29	-0.016326504
33	0xbcc3e4a7	-0.02391274
34	0xbb466ded	-0.0030277923
35	0x3d3f7d0c	0.046750113
36	0x3d5b0077	0.05346724
37	0x3df73081	0.12069798
38	0xbd0cbc81	-0.03435946
39	0xbb97fd0d	-0.0046383203
40	0x3d0f3ba5	0.03496899
41	0xbddde38c	-0.10834417
42	0xbd0544be	-0.03253626
43	0xbdd438a4	-0.10362366
44	0xbd61efc8	-0.055160314
45	0xbdd9752d	-0.10618053
46	0xbdefb53b	-0.11704489
47	0xbe029c23	-0.12754874
48	0x3c06d9c5	0.008230631
49	0x3c985a6d	0.018597806
50	0xbcd4a644	-0.025958188
51	0xbc32192e	-0.010870261
52	0x3d2f3a4f	0.042780217
53	0x3ba28b73	0.0049604713
54	0xbdd920d3	-0.10601964
55	0xbc10c256	-0.008835396
56	0x3cf5bbe9	0.02999683
57	0xbc5011c9	-0.012699553
58	0x3cd93862	0.026516143
59	0xb9094ba5	-0.00013093518
60	0x3b52d8d5	0.00321727
61	0x3da2d517	0.079508
62	0x3c70adca	0.014689872
63	0x3d7171f9	0.058946583
64	0x3e47192d	0.19443198
65	0x3def811f	0.1169455
66	0xbc01c6e4	-0.007920954
67	0x3d130c71	0.035900537
68	0xbd8cbfcf	-0.06872522
69	0x3b8faae1	0.004384384
70	0x3e004af9	0.125286
71	0xbdf42179	-0.11920447
72	0xbd0d6033	-0.03451557
73	0xbd2b1078	-0.041763753
74	0x3d5a6d14	0.05332668
75	0x3d2c3848	0.04204586
76	0xbbdf6aa5	-0.006818133
77	0xbcc61c10	-0.024183303
78	0x3e00242d	0.125138
79	0x3ce2b53d	0.027674312
80	0x3d6f7926	0.058465146
81	0xbba84f54	-0.00513641
82	0xbcfa49eb	-0.030552825
83	0xbd2bb543	-0.04192091
84	0x3d878ec8	0.0661903
85	0xbc2fd91b	-0.010732914
86	0xba921768	-0.0011145892
87	0x3d4293c0	0.047504187
88	0x3cb153d3	0.021646416
89	0x3dbbe6fe	0.09174918
90	0x3b8a4d4e	0.004220641
91	0x3d04fda6	0.03246846
92	0xbda5b7b7	-0.080916815
93	0xbcf8314d	-0.030296946
94	0xbdc1b57c	-0.094584435
95	0xbd3e246a	-0.046421446
96	0xbc1d7086	-0.009609347
97	0xbcad3dcd	-0.021147633
98	0x3c087879	0.008329504
99	0xbd9835c5	-0.07432131
100	0xbdbc75e6	-0.09202175
101	0x3df9c111	0.121950276
102	0xbe115a94	-0.14194709
103	0x3d17278a	0.03690294
104	0x3d84d9d5	0.06486861
105	0xbdaaa08d	-0.08331404
106	0xbdac013c	-0.08398673
107	0x3de40f2f	0.111357085
108	0x3db0537b	0.08609673
109	0x3c90d094	0.017677583
110	0xbca8ee32	-0.020621393
111	0xbbcff92b	-0.006346842
112	0x3b257bad	0.0025250718
113	0xbcc55119	-0.024086522
114	0xbd71aa50	-0.059000313
115	0x3be09526	0.0068537174
116	0x3d8a0a3d	0.06740234
117	0x3d263942	0.04058195
118	0xbd151239	-0.03639433
119	0xbd32cd46	-0.043652795
120	0xbce38479	-0.027773129
121	0x3ca19c04	0.019727714
122	0x3daeb544	0.085306674
123	0x3db1f084	0.08688453
124	0x3d64fe5c	0.05590664
125	0x3e32fc04	0.17478949
126	0x3cd9b433	0.026575183
127	0xbdcc5e3b	-0.099789105
128	0xbe0c9f68	-0.13732684
129	0xbd1b8dad	-0.03797691
130	0xbd47d628	-0.04878822
131	0x3d31208f	0.04324394
132	0x3d670a24	0.056406155
133	0x3d1a571e	0.037680738
134	0x3c5863bf	0.013207375
135	0x3deb01c3	0.114749454
136	0xbd3f28c5	-0.04666974
137	0x3d5c7b0c	0.053828284
138	0x3d71f387	0.059070136
139	0x3d546b3b	0.051860075
140	0x3dfd94dc	0.12381908
141	0xbbdea01d	-0.0067939893
142	0xbd226cff	-0.039654728
143	0xbd9ca900	-0.07649422
144	0x3d589082	0.05287219
145	0xbd9edfe1	-0.07757545
146	0xbdc1b4e3	-0.094583295
147	0x3d79b381	0.060962204
148	0x3d801996	0.0625488
149	0xba808b20	-0.0009807087
150	0xbcca8fb2	-0.024726722
151	0x3bfe7bc9	0.007766221
152	0xbd142298	-0.036165804
153	0xbcf78eae	-0.030219402
154	0xbd99f971	-0.0751828
155	0xbcbeb51b	-0.023279717
156	0xbe11d1ad	-0.14240141
157	0xbd932dfe	-0.07186507
158	0x3c016288	0.007897027
159	0xbe03a5e1	-0.12856247
160	0xbdb2d87b	-0.087326966
161	0xbd42b5c2	-0.04753662
162	0x3c759a20	0.01499036
163	0xbd250d09	-0.040295634
164	0xbc68c19b	-0.014206315
165	0xbdd184af	-0.102303855
166	0xbd92c431	-0.07166327
167	0xbd620a03	-0.05518533
168	0x3e14d5b9	0.14534654
169	0xbd4d8eca	-0.050185002
170	0xbe8717c9	-0.26385334
171	0xbdec587c	-0.115403146
172	0xbe06c3ce	-0.13160631
173	0xbd2b40bb	-0.04180978
174	0xbd9dbc38	-0.077019155
175	0xbc5181c5	-0.012787287
176	0xbd760840	-0.06006646
177	0xbd21bf64	-0.039489165
178	0x3db48f59	0.08816404
179	0xbd45f452	-0.048328705
180	0xbd17bade	-0.037043445
181	0x3dee188a	0.11625774
182	0x3dee1ba9	0.116263695
183	0xbe03186a	-0.12802282
184	0x3b136971	0.0022493268
185	0x3df90e1c	0.12160894
186	0xbd0bd99f	-0.034143087
187	0x3d7c4491	0.061588828
188	0x3d002c93	0.03129251
189	0xbe03cbcd	-0.12870713
190	0xbdf01177	-0.11722081
191	0xbe2aa115	-0.1666301
192	0xbdf82951	-0.121172555
193	0xbdf98992	-0.121844426
194	0x3c140263	0.009033772
195	0xbd1ce238	-0.038301677
196	0xbdf7d6a2	-0.12101485
197	0x3c800903	0.015629297
198	0xbdc2f144	-0.09518674
199	0x3d7b8f0b	0.061415713
200	0x3c8ea71b	0.017413666
201	0xbdf6e0cb	-0.120545946
202	0x3db60a55	0.088886894
203	0xbdc5fc1c	-0.09667227
204	0xbda751ac	-0.081698745
205	0x3cdd5db7	0.027022226
206	0xbd0f093a	-0.03492091
207	0x3d03b659	0.032156322
208	0xbc865cdf	-0.016401706
209	0xbd139646	-0.036031984
210	0x3b9763f8	0.0046200715
211	0x3d0e8183	0.03479148
212	0xbd94b18b	-0.07260426
213	0xbc82f2a3	-0.015984839
214	0x3d7fb6b6	0.062430106
215	0x3d2b391f	0.04180252
216	0xbd2579dc	-0.040399417
217	0xbcd3c7e1	-0.025852146
218	0x3d1bec57	0.038067188
219	0x3d555f2e	0.052092724
220	0xbba59947	-0.0050536725
221	0x3cae738e	0.021295335
222	0x3dca53ed	0.09879289
223	0x3df01cb3	0.11724224
224	0x3c8ecc3a	0.017431367
225	0xbdd43659	-0.103619285
226	0x3d00b25c	0.031420097
227	0xbc8bf014	-0.017082252
228	0xbdede387	-0.11615663
229	0x3e018da5	0.1265169
230	0x3e00df2d	0.12585135
231	0x3af166c4	0.0018417467
232	0x3cb4f131	0.022087665
233	0x3d94054f	0.07227575
234	0xbe13957b	-0.14412491
235	0xbe3bee6a	-0.18352666
236	0xbd16154d	-0.036641408
237	0xbca99d06	-0.020704757
238	0xbcb70548	-0.022341385
239	0xbbc27a08	-0.0059349574
240	0x3c800302	0.015626434
241	0x3d5badd3	0.05363257
242	0x3d159eca	0.036528386
243	0x3d3b0266	0.045656584
244	0x3a5ee802	0.00085032
245	0xbd9719fa	-0.073780015
246	0xbc5224f9	-0.012826198
247	0xbd8273ea	-0.06369765
248	0x3df3fd88	0.119135916
249	0x3d823e51	0.06359542
250	0xbd0051d5	-0.03132804
251	0xbd619b75	-0.055079896
252	0x3e36382c	0.17794865
253	0x3dcf24bc	0.101144284
254	0x3d38a872	0.045082517
255	0x3c2b500e	0.010456098

body.block2.conv.bias f4 [64]
0	0xbcf79284	-0.030221231
1	0xbb64ddad	-0.0034922168
2	0x3d12758e	0.03575664
3	0x3c0f68d6	0.008753022
4	0xbcea48d4	-0.02859918
5	0xbbd52c08	-0.006505493
6	0xbd07db46	-0.0331681
7	0xbcf0ac4a	-0.029379029
8	0x3bf87c9e	0.007583215
9	0x3cdbecfa	0.026846398
10	0x3cebe1ff	0.028794287
11	0xbd0c93c5	-0.03432061
12	0xbd1d671d	-0.038428415
13	0xbcabda71	-0.020978184
14	0xbd294816	-0.041328512
15	0xbc9a3ca4	-0.018827744
16	0x3ca4086a	0.020023543
17	0xbd04145c	-0.03224598
18	0xba46be8f	-0.0007581496
19	0xbcbb8222	-0.0228892
20	0xbce4e19a	-0.027939606
21	0xbbcb07dc	-0.0061960053
22	0xbc4bebec	-0.012446385
23	0x3cb33c52	0.021879349
24	0xbd13cf8a	-0.036086597
25	0xbca5d909	-0.020245092
26	0x3c8ba2b0	0.017045349
27	0x3d057f8e	0.03259235
28	0xbcca2663	-0.024676507
29	0xbb80c101	-0.003929258
30	0xbc8f9d6c	-0.01753112
31	0x3c9b0367	0.01892252
32	0x3c4ca063	0.012489411
33	0x3ba1ddc2	0.0049397657
34	0xbd184daf	-0.03718346
35	0xbc65a24a	-0.0140157435
36	0xbc47fcf5	-0.012206306
37	0xbc8df5af	-0.017329065
38	0xbcb1549e	-0.021646794
39	0xbd159d85	-0.036527175
40	0xbcebcd58	-0.028784439
41	0x3b47a673	0.0030464202
42	0xbd198056	-0.037475906
43	0xb95dd3c1	-0.00021155087
44	0xbd027366	-0.031848334
45	0xbd1f7ef9	-0.03893945
46	0x3d17a973	0.037026834
47	0xbc94e319	-0.018174695
48	0xbca7fae8	-0.020505384
49	0x3bfd1641	0.0077236
50	0xbac5c9fb	-0.0015090102
51	0x3c431456	0.011906704
52	0x3bb0dfb0	0.0053977594
53	0xbb82e81e	-0.0039949557
54	0xbb83983c	-0.0040159505
55	0x3d156e49	0.03648213
56	0xbbd23b7b	-0.006415782
57	0xbc88507e	-0.016639944
58	0x3d25d183	0.04048301
59	0xbbbd0b65	-0.0057691806
60	0x3d2ac2c6	0.041689657
61	0x3beac443	0.0071645095
62	0x3c129031	0.008945511
63	0x3a10b1e5	0.00055196724

body.block2.norm.weight f4 [64]
0	0x3fa7a348	1.3096704
1	0x3fa74a85	1.3069617
2	0x3f9f7560	1.2457695
3	0x3fb7690c	1.4328933
4	0x3fa2c5b5	1.2716585
5	0x3fa019d1	1.2507879
6	0x3fb3e7f5	1.4055163
7	0x3faa6326	1.3311508
8	0x3f98888b	1.191667
9	0x3fa86f5d	1.3158985
10	0x3f9d2931	1.2278196
11	0x3fab3ba7	1.337758
12	0x3fa96b4b	1.3235868
13	0x3fb51a56	1.4148662
14	0x3f9faea3	1.247517
15	0x3fa108d7	1.2580823
16	0x3fa1a679	1.2628928
17	0x3fb69432	1.4263976
18	0x3faaa96b	1.3332952
19	0x3fa094c5	1.2545401
20	0x3fa71993	1.305468
21	0x3fb80fa5	1.4379774
22	0x3fa93be9	1.3221408
23	0x3fa085c3	1.2540821
24	0x3fb22fdf	1.3920859
25	0x3fb84569	1.4396182
26	0x3fa8f0da	1.3198502
27	0x3fa37ea7	1.2773026
28	0x3fbb438c	1.4629989
29	0x3fa897d1	1.3171331
30	0x3fa3b623	1.2789959
31	0x3fa93b54	1.322123
32	0x3fb3bb58	1.4041548
33	0x3fb4aeef	1.4115885
34	0x3fa9819c	1.3242679
35	0x3fb233a6	1.3922012
36	0x3fa6eb17	1.3040494
37	0x3fa453cc	1.2838073
38	0x3f9c35f2	1.2203963
39	0x3fb4bc87	1.4120034
40	0x3f996cc4	1.1986318
41	0x3fa78841	1.3088456
42	0x3fa467a7	1.2844132
43	0x3faf289a	1.3684266
44	0x3fb21145	1.391152
45	0x3fa71b0f	1.3055133
46	0x3f9bb196	1.216357
47	0x3fb39579	1.402999
48	0x3fabb7b8	1.3415442
49	0x3f9f50e8	1.2446566
50	0x3f99233d	1.1963879
51	0x3fb535f9	1.4157096
52	0x3fa4f0e1	1.288601
53	0x3f965b64	1.174664
54	0x3f9cd61d	1.2252842
55	0x3fb06573	1.378096
56	0x3fa446c5	1.2834097
57	0x3fb299e5	1.3953215
58	0x3f99b53e	1.2008436
59	0x3fa5bc97	1.2948178
60	0x3facbf58	1.3495893
61	0x3fb725f0	1.4308453
62	0x3f9dbea1	1.23238
63	0x3f9d5813	1.2292503

body.block2.norm.bias f4 [64]
0	0xbe4d0b45	-0.2002383
1	0xbeb9aa27	-0.36262628
2	0xbf1bf521	-0.6092091
3	0xbe272029	-0.16320862
4	0xbef891b1	-0.48548654
5	0xbed60c60	-0.41806316
6	0x3b448e8c	0.002999219
7	0x3bea4d05	0.0071502947
8	0xbf240840	-0.6407509
9	0xbee2894e	-0.4424538
10	0xbe3e2d43	-0.18571953
11	0xbc457f34	-0.012054253
12	0xbe74bbc0	-0.23899746
13	0xbe3e0477	-0.1855639
14	0xbe94c54c	-0.29056776
15	0xbe552d90	-0.20818162
16	0xbe9a77bf	-0.30169484
17	0xbdab6074	-0.08368006
18	0xbe06196d	-0.13095637
19	0xbf199431	-0.5999175
20	0xbeaf0955	-0.34186807
21	0xbe9aea41	-0.30256847
22	0xbec99fe7	-0.39379808
23	0xbf232279	-0.63724476
24	0xbeb216f4	-0.34783137
25	0xbe46cb4f	-0.19413494
26	0xbe8676e4	-0.2626258
27	0xbe881b7a	-0.26583463
28	0xbe9850ff	-0.29749295
29	0xbe979fba	-0.2961405
30	0xbeb52197	-0.3537719
31	0x3e07a401	0.13246156
32	0xbde29b3e	-0.11064766
33	0xbebdccd1	-0.37070325
34	0xbec14fe7	-0.37756273
35	0xbd8e4936	-0.06947558
36	0xbef615c4	-0.4806348
37	0xbe1dee6b	-0.1542298
38	0xbf06d292	-0.52665055
39	0xbe0eec59	-0.13957347
40	0xbee4929b	-0.446431
41	0xbe4d195e	-0.20029208
42	0xbce9b668	-0.02852936
43	0xbeca887c	-0.39557254
44	0xbead21e5	-0.33814922
45	0xbe62b552	-0.2213948
46	0xbe8e5699	-0.27800444
47	0xbeb332c6	-0.34999675
48	0xbe77052b	-0.24123065
49	0xbeb745c3	-0.3579541
50	0xbf26b6fd	-0.6512297
51	0xbe426bca	-0.18986431
52	0xbec1bede	-0.37840933
53	0xbecd4baa	-0.4009679
54	0xbf149c14	-0.58050656
55	0xbe7e630b	-0.2484247
56	0x3d631a57	0.05544504
57	0xbeb55b0a	-0.3542102
58	0xbe64f1e4	-0.22357899
59	0xbe5c87b2	-0.21536139
60	0xbec8e41f	-0.39236543
61	0xbe8967d2	-0.2683702
62	0xbf004b4f	-0.5011491
63	0xbee3aa0f	-0.44465682

body.block2.norm.running_mean f4 [64]
0	0xbfa90e15	-1.3207422
1	0xbfbe2999	-1.4856445
2	0xbf9ff2a2	-1.2495921
3	0x3f57cbff	0.8429565
4	0x3f8885b1	1.0665799
5	0xbdf6eb2e	-0.12056576
6	0xbedb2027	-0.42797968
7	0xbe0e782c	-0.1391303
8	0xbe8085d5	-0.25102106
9	0xbebd5921	-0.36982062
10	0xbf927090	-1.1440601
11	0xbf3663fe	-0.71246326
12	0x3f60e548	0.87849855
13	0xbf593bb2	-0.8485671
14	0xbf85b767	-1.0446595
15	0x3eefeadf	0.4685888
16	0xbfb37297	-1.4019345
17	0xbeaf465b	-0.34233364
18	0xbfe57c2f	-1.7928523
19	0x3f90c8fc	1.1311336
20	0x3eb43d76	0.3520314
21	0x3fc7bfb2	1.5605376
22	0x3eb5d92a	0.35517246
23	0xbf730ee6	-0.9494461
24	0x3f2d4d3d	0.6769598
25	0xbe820772	-0.25396305
26	0x3f38214b	0.719258
27	0x3fbe708d	1.4878098
28	0xbe8698c3	-0.26288423
29	0xbe878704	-0.26470196
30	0x3f92a525	1.1456648
31	0xbf820152	-1.0156653
32	0x3d160245	0.03662326
33	0x3ebc7ade	0.3681249
34	0x400824de	2.1272502
35	0xc00b6fb2	-2.1786923
36	0xbf2c8e12	-0.6740428
37	0x3f1c2ff6	0.6101068
38	0x3f7ad8a0	0.97986794
39	0xbf41a912	-0.75648606
40	0x3ec9bdb2	0.3940254
41	0xbeba7438	-0.36416793
42	0xbed8afac	-0.42321527
43	0xbf09cb1a	-0.53825533
44	0x3fcb0f82	1.5864108
45	0x3e9f6df3	0.31138572
46	0x3faabf95	1.3339716
47	0x3f0e50f3	0.5559227
48	0xbe9101bb	-0.28321633
49	0x3ef178c0	0.47162437
50	0xbf8f60f5	-1.1201464
51	0x3e45296c	0.19254082
52	0x3f3351e0	0.70046806
53	0xbef540fd	-0.47901145
54	0x40212de0	2.518425
55	0x3fc47175	1.5347124
56	0x3f930968	1.1487246
57	0x3ec652bf	0.38735005
58	0x3e474ba7	0.19462453
59	0x3eda7779	0.42669275
60	0xbf416d1a	-0.755571
61	0x3fa70d34	1.3050904
62	0x3f367488	0.7127156
63	0x3f2cff47	0.6757702

body.block2.norm.running_var f4 [64]
0	0x4050e708	3.264101
1	0x4012c730	2.2934074
2	0x3fef2a55	1.8684794
3	0x4021e781	2.5297549
4	0x4032bb53	2.7926834
5	0x401b1cc2	2.4236302
6	0x4012cc8e	2.293735
7	0x4077269e	3.861732
8	0x401c7f7c	2.445281
9	0x407ccb99	3.9499266
10	0x40133f4d	2.3007386
11	0x408bd8f3	4.370233
12	0x40121e92	2.2831159
13	0x40665586	3.59897
14	0x401f1188	2.485445
15	0x403d2d96	2.9559073
16	0x403f6660	2.9906235
17	0x400c8d36	2.1961188
18	0x401ea40c	2.4787626
19	0x406b3824	3.6753016
20	0x401ec9dc	2.4810705
21	0x3ff75386	1.9322364
22	0x40380356	2.8752036
23	0x3ff6b45f	1.9273795
24	0x40338453	2.8049514
25	0x400f7f53	2.2421463
26	0x403d7c97	2.9607294
27	0x40550baa	3.328837
28	0x400c8196	2.1954093
29	0x4075f249	3.842913
30	0x40464d4c	3.0984678
31	0x405781d4	3.367299
32	0x404b8fde	3.180656
33	0x4030ea20	2.7642899
34	0x405353d1	3.3019907
35	0x40332d77	2.79965
36	0x3ffefdb8	1.9921179
37	0x403fcced	2.9968827
38	0x40565f78	3.349577
39	0x40231579	2.5481856
40	0x405455f2	3.3177457
41	0x401c06b0	2.4379082
42	0x403bbd81	2.9334414
43	0x3ff5554b	1.9166654
44	0x404b65e7	3.1780946
45	0x40332d55	2.7996418
46	0x402e9c8a	2.7283044
47	0x403b636a	2.9279428
48	0x4015845c	2.3362036
49	0x40678161	3.6172717
50	0x40285e75	2.6307652
51	0x4023ea84	2.5611887
52	0x4065220f	3.5802038
53	0x4055457b	3.3323658
54	0x40861341	4.1898503
55	0x40277963	2.6167839
56	0x4098197b	4.7531104
57	0x3fe10ad0	1.7581425
58	0x401a2b64	2.4088984
59	0x402774cc	2.6165037
60	0x400e15bb	2.2200763
61	0x3ff5800b	1.9179701
62	0x40390de2	2.8914723
63	0x40334139	2.8008559
