SinGan/TrainedModels/cows/scale_factor=0.750000,alpha=10/3/netD.pth (torch_old, 122821 bytes, 25 tensors)

head.conv.weight f4 [32, 3, 3, 3]
00000000: e113 363c 8720 8fbc 5993 bdbc d8f2 173d
00000010: 2643 a43b 6e4d 26bc d0c5 1d3d c34d 3fbc
00000020: b667 f0bd a54b e33d 1ac5 403d 86e9 833d
00000030: 7ff2 6c3d b588 653c 803c d7bc 3f2c e13c
00000040: 5a7c d0bc 0120 30be e3cd c13d c4b1 473d
00000050: 4a54 a93d 1089 2f3d cf1e 83bb ce51 4dbd
00000060: 6fe6 6abc 7c2e a1bd 5142 83be 6b76 b4bd
00000070: 318a 1fbd e120 5bbc 8704 01bb 30d6 9e3c
00000080: c743 f83c a0b7 2b3d dfeb 3bbc 45c5 723d
00000090: 2063 4e3c d5e7 3d3d ad09 793d 0d81 c13d
000000a0: cd3a 053d 99f8 893c c851 e53c db5a 2cbb
000000b0: 09ca 533d a280 2f3c 2d46 90bd 3435 163d
000000c0: 6eac 123e 7300 263d 6357 893d 01b5 8b3e
000000d0: 8fb7 c03d f947 b03d 4d0a 423d 9876 c03d
000000e0: a8bf ea3d ce34 23bc 8a35 8c3d a559 eb3d
000000f0: d071 7abd 030a 8cbc 396b 12bd eea4 b5bc
00000100: 1f64 713d 82bd b73d 8759 c6bd bf53 82bc
00000110: a58c 5b3d a314 0abe 43a7 b4bd 0352 85bd
00000120: 9ce2 a3bd 7249 05bd 89dc bf3b 0209 bebd
00000130: 224e e8bc 3158 1d3d 1f45 98bd 5082 23bd
00000140: bc31 ebbc 2ef3 fb3d 43d5 1c3d fdd2 b13d
00000150: 2226 aa3d 006c e63c 8e1b 173e b206 503e
00000160: a0be e63d 46cd 233d 5017 8f3d 11da babc
00000170: c7a2 803d 391b 923d a5ff 1abd d844 943d
00000180: f280 3d3e 7b30 1f3d 6a66 06bb 9bf6 3fbd
00000190: 5cd0 453d b210 aabc 0a94 f7bc 0bbb b03c
000001a0: d3f7 a3bc d7b2 3a3d a09f e43a e97e 20bd
000001b0: 11f1 823c 0cfc f43c cbef 023d 98aa c1bd
000001c0: 6708 0dbc 020c 173c e37c 1d3d 29b9 bd3c
000001d0: dd5d 13bd 46df 01bd fd7c 18bd 90e4 b4bd
000001e0: 1cb9 f9bd e96e 3ebd 636c cbbd d93b f33b
000001f0: 4161 d1bb 93a2 ffbd 5606 0dbc b81c c3bc
00000200: 4cc6 83bd 3c5b ab3c a08c 3ebb 23a8 87bd
00000210: b564 783e af75 b63d b9c4 0fbe 438e 763e
00000220: a1f8 2e3d c483 82bd f71b ea3c fdcc 3d3d
00000230: cfcc b73c 685a 54bc 020a 6f3d 2564 d63d
00000240: 3e49 1d3e 2ec0 cebc a2e6 1ebe bcb4 20bc
00000250: 8d09 cabc 1f10 353c b56a c8bd 003f 0e3c
00000260: ff02 ab3d 6479 bc3d 485c 5fbc 2e2c bc3b
00000270: e3e3 573b e404 8d3c 59d1 583d 5f96 d53c
00000280: 3ce6 8c3c 84ef 833d 1d2e 65bd a50a 8b3b
00000290: 6ef4 1ebe 8ec5 d4bc a049 80bd 6801 f9bc
000002a0: 2ba9 763b 88e3 59bd e82c f13c 9d77 70bc
000002b0: 11a3 ed3c b19f 0abe 9e91 2f3d e644 96bb
000002c0: 983a 0f3d 2938 8a3d 7ba0 a83a 0446 943d
000002d0: df74 f0bc ed44 3e3c b60f 74bd 11d3 523d
000002e0: 7af7 113d cb07 ae3d 5e33 ba3d aa0f 853d
000002f0: 83ec 163e 63c9 423b ed71 ac3c d628 51bd
00000300: bd45 68bd f744 aabc 84b1 e3bc 7f5a 75be
00000310: d654 133c 23de f73c 8196 71bd b11c 0d3a
00000320: c267 75bd 94c1 48bd 515f 123d 334a af3c
00000330: 4730 9cbe ac55 753d 622b 603d 8735 50bd
00000340: bf68 5e3d 17bf 21bd 33eb 423d c844 473d
00000350: 89ef e3bc 8779 f2bd f892 973d 628a a63d
00000360: a8b4 883d 8917 8fbc 6a10 04be df7c da3d
00000370: f79f e83b a725 25bd 249b b93d 3ac7 33bc
00000380: 259e 8dbc 36f8 e33c 6131 7abd 86bd 29be
00000390: 1c44 963d 0b3b 32bd 4189 8fbd ea61 963d
000003a0: b8cb 29bd f202 22bd 20bc ee3d 09f9 d9bc
000003b0: afc1 c0bd 0ad1 a03d b820 23bd a58f 80bd
000003c0: 1b10 c53c a575 8bbd bae6 81bd 353e e23d
000003d0: 9d4c 363d 0322 e33d 8b3d d33c ec7d 143d
000003e0: 1f83 923c 4f7e 513d 00f0 dd3c 66ce bc3d
000003f0: 0eb8 fabd 03f7 9fbd 2bc3 3bbd df30 85bd
0.011113138 -0.017471565 -0.02314155 0.03709683 0.0050128875 -0.010150297 0.038518727 -0.011676255
-0.11738531 0.110984124 0.04706297 0.064410254 0.05784845 0.014009644 -0.026273966 0.027486918
-0.02544992 -0.17199709 0.09463098 0.048753515 0.0826803 0.042855322 -0.0040014754 -0.050126843
-0.014337166 -0.07870194 -0.25636533 -0.08811649 -0.03895015 -0.013374538 -0.0019686536 0.019389242
0.030305756 0.041923165 -0.01146981 0.059270162 0.012596875 0.04636367 0.060800243 0.094484426
0.03252678 0.016842173 0.027993098 -0.0026299271 0.051706348 0.010711821 -0.07044635 0.036671832
0.14323589 0.040527772 0.06706121 0.27286533 0.09410011 0.08607478 0.047373105 0.0939762
0.11462337 -0.00996132 0.06846149 0.11491708 -0.061143696 -0.017094618 -0.035746787 -0.022173371
0.058933374 0.089716926 -0.09685045 -0.015909074 0.053600926 -0.13484435 -0.08820965 -0.06509783
-0.08002207 -0.032540746 0.0058551473 -0.09279062 -0.02835757 0.038414184 -0.07435059 -0.039919198
-0.028710239 0.12302242 0.03828932 0.08682821 0.083080545 0.02812767 0.14756605 0.20315054
0.112668276 0.039990686 0.069868684 -0.02280906 0.06281047 0.071340986 -0.037841458 0.072396934
0.1850622 0.038864594 -0.002050782 -0.04686604 0.04829441 -0.020759914 -0.030221958 0.021573564
-0.020015633 0.04558071 0.0017442591 -0.03918353 0.01598409 0.029905342 0.031966966 -0.09456366
-0.00860796 0.0092191715 0.03844918 0.02315958 -0.035978187 -0.03170707 -0.037228573 -0.08832657
-0.1219351 -0.04649249 -0.099327825 0.007422906 -0.0063897674 -0.124821804 -0.008607468 -0.023817405
-0.064343065 0.020917527 -0.0029075518 -0.066238664 0.24257167 0.08909165 -0.14039887 0.24077706
0.04271758 -0.063727885 0.028577788 0.04633807 0.022436528 -0.012961008 0.058359154 0.1046832
0.15359971 -0.025238123 -0.15517667 -0.009808715 -0.024662757 0.011051207 -0.09785978 0.008682013
0.08350181 0.09202841 -0.013632841 0.0057425713 0.0032942228 0.017214246 0.052934024 0.02607268
0.017199628 0.06442168 -0.05595218 0.0042432123 -0.1552293 -0.025973108 -0.06264043 -0.030396178
0.0037637453 -0.053195506 0.029440358 -0.0146769555 0.02900842 -0.1353748 0.04286348 -0.00458585
0.03496799 0.06748993 0.001286521 0.07239917 -0.029352603 0.011613113 -0.059585296 0.05147082
0.035636403 0.0849758 0.09091829 0.06497128 0.1473866 0.0029722087 0.021050418 -0.051064335
-0.056707133 -0.020784838 -0.027794607 -0.23960303 0.008992394 0.03025729 -0.058981422 0.00053829985
-0.059913404 -0.049012735 0.035735432 0.021397686 -0.30505583 0.059896156 0.054728873 -0.050832298
0.054299112 -0.039488878 0.047587585 0.04864958 -0.02782418 -0.11839586 0.07401079 0.08131863
0.066750824 -0.017467277 -0.12896886 0.106683485 0.0070991474 -0.04031911 0.09062794 -0.010972792
-0.017287323 0.027828317 -0.061082248 -0.16576204 0.073372096 -0.04351334 -0.07008601 0.073428944
-0.041454047 -0.03955359 0.11656976 -0.026608007 -0.09411942 0.07852371 -0.039826125 -0.06277398
0.024055531 -0.06809548 -0.06342836 0.11047021 0.044506658 0.110904716 0.025786182 0.0362529
0.017884789 0.051145848 0.02709198 0.09219055 -0.12242137 -0.078107856 -0.045840424 -0.06503462

head.conv.bias f4 [32]
00000000: dcfb 443f e10b c5be 0631 1c3d 24dd b5be
00000010: 61e9 483f bd53 77bf fb9f ed3d cf9a 5cbf
00000020: 94e0 e53e d73f 15bf 977b 433d cfa8 18be
00000030: 1072 4f3f db4f 0b3c b1c3 ea3b c997 fabc
00000040: 77f6 46bf 2999 523e 88f6 c8bd 597c 25be
00000050: 92c2 05bf 5143 e23e 6dd9 a8be 8c2a 053f
00000060: 790b 24bf ad67 1fbb 83d4 32be 5e95 dcbc
00000070: 34ec 35bf 87ea dcbd d4b4 31bf 2cf4 81bd
0.76946807 -0.38485625 0.03813269 -0.3552028 0.7848111 -0.9661215 0.116027795 -0.8617372
0.44897902 -0.58300537 0.047725286 -0.14908145 0.8103342 0.008502926 0.0071644415 -0.030589955
-0.77719826 0.20566238 -0.09812647 -0.16160716 -0.52250016 0.44191983 -0.32978383 0.52018046
-0.64080006 -0.002432327 -0.1746388 -0.026926693 -0.7106354 -0.1078692 -0.69416547 -0.063454

head.norm.weight f4 [32]
00000000: 0495 6a3f 4d1c 533f dd46 923f 3e4f 643f
00000010: cab1 3e3f 9e3b 603f d31c 6a3f cbdf 493f
00000020: fe6d 6b3f 820e 2a3f 8cb4 343f fdd2 7e3f
00000030: c8f8 3a3f 870c 8d3f a8a3 833f 9b28 803f
00000040: ca93 5a3f b9cc 383f d389 3c3f 970b 7f3f
00000050: e9ba 7b3f 5cae 613f 7a9c 513f 6065 543f
00000060: d219 693f b38d 823f 24ff 6f3f fc54 643f
00000070: b307 7c3f a209 3e3f f83f 243f e534 7c3f
0.9163363 0.8246506 1.1427876 0.89183414 0.74490035 0.8759097 0.9145023 0.78857106
0.9196471 0.6642839 0.7058799 0.9954069 0.7303586 1.1019448 1.0284319 1.0012392
0.8538176 0.7218738 0.73647803 0.9962706 0.9833208 0.88156676 0.8187939 0.82967186
0.91055024 1.0199493 0.9374869 0.89192176 0.9844925 0.7423345 0.6416011 0.9851821

head.norm.bias f4 [32]
00000000: 6c51 843e f101 983e ccc2 d53d b5dd 133f
00000010: 874c 263e fe3b 323f 33ed 403e fcce 663f
00000020: 195d b43e 8d08 333f 83d4 f13e 34f7 f1bd
00000030: 1002 6c3f c5e0 64bd 361a 7a3e 836b 91be
00000040: 80c3 753f 4ee0 033e 6ac9 833f f744 f5be
00000050: 5f20 653e d5db 3b3f f6af 1c3e aa9d a23e
00000060: 5f75 173f 84dd e83d 7a65 4f3e 4a60 f13d
00000070: cb28 9c3e ba11 d53e 9d93 473f 20f2 913e
0.2584337 0.2968898 0.10437545 0.57760173 0.1624013 0.6962279 0.18840484 0.90159583
0.35227278 0.6993492 0.47232446 -0.118147284 0.9219065 -0.05587842 0.24424061 -0.28402337
0.96001434 0.12878534 1.0295842 -0.47904179 0.2237563 0.7338231 0.15301499 0.31760913
0.5916347 0.11370376 0.20253554 0.11785944 0.30499873 0.41615087 0.77959615 0.2850504

head.norm.running_mean f4 [32]
00000000: b7d4 553f 218b 31bf 8edf 503e e815 86be
00000010: b7e0 3a3f ebfd 88bf 4961 b8bd 1243 6ebf
00000020: 8e90 003f 8185 6ebf 6b7c 8dbe bc11 cfbe
00000030: 93d1 4f3f 2640 e63b 5707 803b e2a7 023c
00000040: 00d7 49bf 981e 8b3b c617 6cbd 1ab3 e4bd
00000050: adb2 fabe 8d4e ed3e fb8f 15bf d85a 263f
00000060: 8cde 26bf 30a2 433c ccc6 e03c 76f5 6dbd
00000070: 95d0 58bf 08f2 983c 7a9c 1ebf bf54 aabe
0.835277 -0.6935292 0.2039778 -0.26188588 0.7299914 -1.070249 -0.09002931 -0.9307109
0.5022057 -0.9317246 -0.27633986 -0.40443218 0.8117916 0.00702669 0.003907125 0.007974597
-0.7884369 0.0042455904 -0.05763986 -0.111669734 -0.48964444 0.46348992 -0.5842282 0.64982367
-0.6518333 0.011940524 0.027438544 -0.058095418 -0.8469327 0.018670097 -0.61957514 -0.3326778

head.norm.running_var f4 [32]
00000000: 609b 7f3c 7558 ae3c 5505 673c b572 2e3d
00000010: 606b 4f3c 427f 813c 7996 153c 79af 8c3c
00000020: 9b6f 683c e28c 6e3c 6d31 283c 20e2 c73c
00000030: c77d cc3c 5b49 4437 e77f 3d37 b05e 2639
00000040: 64d7 133d b4b1 833b 509d 0c3c 10c3 3f3d
00000050: 3787 9f3c cc15 cd3c 8901 f73b 8813 5e3c
00000060: 3e22 393c a180 013c 0217 403c 4690 c23b
00000070: a8d0 fa3c 803e 993b eb03 a53c 959c b53c
0.015601009 0.021282414 0.014100392 0.042589862 0.012659878 0.015807752 0.009130114 0.017173516
0.014186765 0.014559956 0.01026569 0.024399817 0.024962319 1.169959e-05 1.1295057e-05 0.00015866267
0.036094084 0.0040189866 0.008582428 0.046816885 0.019473655 0.025034808 0.007538025 0.013554461
0.011299668 0.007904203 0.0117242355 0.005937609 0.030617073 0.00467664 0.02014347 0.02216939

body.block1.conv.weight f4 [32, 32, 3, 3]
00000000: 1f0c 9bbc de4e 2e3d ec07 e73c 25e5 d93c
00000010: 0dda 91bc 4b19 f93d 07e9 49bd 823e 863d
00000020: e4f0 093e 4560 f3bc 4dd6 033c 14e1 a4bd
00000030: 3d48 71bd aa17 9dbd dceb 80bd 0f42 3cbe
00000040: 5157 e6bb 7fa7 b63c 031f 013c 130a 89bb
00000050: 0d4a 88bd 4003 99bd bc53 853d f159 a23d
00000060: 4017 963d fc05 e23d c559 833d 1b64 92bd
00000070: ba70 a03d ad1e fabd 3c93 d73c 64bf 13bd
00000080: 1f85 743d 968a 92bd 76a1 18ba 2116 7a3b
00000090: 8b7e bf3c 5c63 593d 0046 0e3e 8661 1ebb
000000a0: ca84 513d a667 babc 2e94 67bd c044 173d
000000b0: 7199 643d 4f6b 11bd 2e25 e23c 2e18 a63d
000000c0: 4998 05bc f426 633d 0eb9 143e 30d8 2fbd
000000d0: a7fc 883c 2f0a c33d 841f a0bd c8bf a2bd
000000e0: a277 49bd ee81 01bb 229d 75bd 179e 6e3d
000000f0: 7718 ccbc b474 8ebd 9907 db3d 3464 44bd
00000100: 68fd d1bd b4f2 c1bb 592a 80bc a4f6 53bd
00000110: c020 73bd e80f bfbd cc23 94bd 8af8 ae3c
00000120: efd3 043b 2f01 93bd fa35 5d3d 16c5 14bc
00000130: cc0a cb3d 74b2 82bc 5249 f4bb ecce a5bc
00000140: 3ecc 8cbc 03d0 f1b9 60c5 a6bc 1e86 70bc
00000150: 6ca2 d4bc 364b a53c 4415 8e3d 0522 e1bc
00000160: b428 7ebb 64ac 09bd 42c9 34bd 1ea7 7ebc
00000170: 95ad 98bc 7a9e ca3d 59cc 053d 19f6 003d
00000180: ef52 d83b 5d5f febc cf79 2fbb b9cb a9bd
00000190: 169a 883b 3f8b f43d f2ae e63d 780c c23d
000001a0: 7d5c b7bc 2c08 25be d775 c7bd e1b3 8c3d
000001b0: d561 30be 7379 bfbd 665c 25be 62d5 403d
000001c0: 113b 2f3d 4a35 a13b f0ab 19bd 03d8 513d
000001d0: eb00 ad3c 7981 b6bd 935e 533d b00b 97bd
000001e0: 8886 b1bd 0a46 93bc e0a8 7ebd 1e3f 79bd
000001f0: 50b3 5b3c 8aae 51ba f52c cbbd 537a 28bd
00000200: 05d3 0cbe 9d07 dc3c 1623 203d 6b7f 8bbd
00000210: 8f5c bbbc a979 f63c 2118 8abc 23d6 903d
00000220: a9fc 613d 2759 7c3d 1198 90bd 7256 25bd
00000230: 2890 43bd 2554 93bd 8e2e ed3b ee78 833d
00000240: 8c2a 233c 4056 a53d d6c6 da3d b6f5 78bc
00000250: a3dd 003d 7ba7 353d 9b56 66bd 7df6 38bb
00000260: e6a4 bf3c 60b3 2fbd 25ad 5e3d 8d51 ed3b
00000270: 810a 283d 7d59 063d 279a 58bc 13f0 983d
00000280: 6b40 223d a3e3 e1bc 6404 4b3d 253a 483d
00000290: 351d f23d 71b0 bb3c c932 f53d 7299 af3d
000002a0: 8f82 953d 6bee 223d 443d d63d c4cd 7a3b
000002b0: 9200 c8bd 6dbb 8cbe 835c 16bd c077 0abd
000002c0: 6d92 56be 4971 f7bd 3c37 aebd c0ce 7ebe
000002d0: d076 aa3b df3c d73d ee65 cf3c 6193 713d
000002e0: 1fcb b03d 2b7f a33d 5e7d 423d 0357 0cbb
000002f0: 0a55 84bc 7c66 1cbd 2226 773d cf68 9dbc
00000300: f548 da3c 71e3 90bb 6dff 653d 37b4 b73d
00000310: 1602 1d3e 9fac f13d 0a0f 2bbc b93f 8e3d
00000320: 188b 3b3e cb78 e1bb b329 343d 6592 90bd
00000330: 8c8e c63d 2ea0 173d d965 72bd d4d6 663d
00000340: c74e a73d 566a fe3b 1ddc e7bb 502a 923c
00000350: cdb2 b73d 5b51 2fbd ca8c d5bd 849a e1bd
00000360: bb67 cf3c 21d4 703c 1232 3e3e 355a 813c
00000370: c2d9 23bd 1d54 56bd 7160 a23d 315a 0b3d
00000380: aa83 ce3c 153a db3c e344 3dbd 09b8 7f3d
00000390: 51b5 033d d237 873a 7f33 90bd 34aa 323d
000003a0: e8b0 eebb 6fac ef3c b1a4 61bd aa39 04bd
000003b0: 24f2 8f3d 38df 8d3d 861a fcbc 4773 11bd
000003c0: 4934 1c3b 3ef5 ebbd 2b79 ddbd 526d a43d
000003d0: 6889 8f3c 4236 963d 3b94 223c 168d c7ba
000003e0: a8fc 2c3d 505a 013e 2de2 393d ac8a 8bbc
000003f0: 28ee debd c06d 2cbe 6cfe 62be 0e40 0fbd
-0.018926678 0.042555682 0.02820202 0.026598522 -0.01780417 0.121630274 -0.049294498 0.06554891
0.13470799 -0.02970899 0.008046699 -0.08050743 -0.058906782 -0.07670529 -0.062949866 -0.18384574
-0.007029452 0.022296665 0.007880929 -0.004182109 -0.06654749 -0.07471323 0.06510112 0.07927311
0.07328653 0.11036298 0.064136066 -0.07148 0.07834001 -0.12212882 0.026315324 -0.036071196
0.059697267 -0.071553394 -0.00058223994 0.0038160163 0.02337577 0.053073272 0.1389389 -0.0024167015
0.05115203 -0.022754502 -0.0565378 0.0369308 0.055810396 -0.035502728 0.02760562 0.08110081
-0.008153983 0.05545707 0.14523718 -0.04293078 0.016722037 0.09523427 -0.07818511 -0.079467356
-0.049186356 -0.0019761282 -0.059964307 0.058256235 -0.02491401 -0.06955853 0.106948085 -0.047947124
-0.102534115 -0.005918825 -0.015645193 -0.051748887 -0.059357405 -0.09329206 -0.0723339 0.021358747
0.0020267924 -0.0717796 0.054006554 -0.009080192 0.09914169 -0.015954234 -0.0074550295 -0.02024027
-0.017187234 -0.00046122083 -0.020357788 -0.0146804135 -0.025956355 0.020177465 0.0693765 -0.027482042
-0.0038781585 -0.03361167 -0.044137247 -0.0155427735 -0.018637458 0.09893508 0.032665584 0.031484697
0.0066016833 -0.031051332 -0.0026775484 -0.0829081 0.004168759 0.119406216 0.11263837 0.094750345
-0.022382969 -0.16116399 -0.09739273 0.06870247 -0.1722482 -0.093493365 -0.16148528 0.047078498
0.04278094 0.0049196826 -0.037517488 0.051231395 0.021118602 -0.08911414 0.051603865 -0.07375276
-0.08668238 -0.017977733 -0.06217277 -0.06085121 0.013409451 -0.00079987256 -0.09920684 -0.041132282
-0.13752373 0.026859099 0.03909596 -0.068114124 -0.022871284 0.030087309 -0.016857209 0.07072093
0.055172596 0.06160846 -0.07060254 -0.040365644 -0.0477449 -0.07193784 0.0072382158 0.0641955
0.009958874 0.080730915 0.10682456 -0.015195301 0.03146137 0.044349175 -0.056234937 -0.002822309
0.02339406 -0.042895675 0.054364342 0.0072423876 0.041025642 0.032800186 -0.0132203465 0.074676655
0.039612215 -0.027574366 0.049564734 0.048883576 0.11821977 0.022911282 0.11972577 0.08574189
0.07300293 0.039778154 0.10460904 0.0038269619 -0.09765734 -0.27486745 -0.03670932 -0.03380561
-0.20954295 -0.12082154 -0.08506629 -0.24883556 0.005202152 0.10509657 0.025317159 0.058978442
0.08632492 0.0798324 0.04748284 -0.0021414168 -0.016153831 -0.038183674 0.0603391 -0.019215016
0.026646117 -0.0044216444 0.056151796 0.0896992 0.15332827 0.11800503 -0.010440597 0.06945748
0.18314779 -0.0068808547 0.04398508 -0.070591725 0.096951574 0.037017994 -0.05917916 0.05635722
0.081693225 0.007764141 -0.0070758 0.017842442 0.089696504 -0.042802196 -0.10427244 -0.110158
0.025318017 0.014699013 0.18573788 0.015790084 -0.040002592 -0.05232631 0.07928551 0.03402156
0.025209267 0.026761094 -0.046208274 0.06243137 0.03215534 0.0010316318 -0.07041072 0.04361935
-0.0072842725 0.029257027 -0.055088703 -0.032281555 0.070286065 0.06927341 -0.030774366 -0.035510328
0.0023834875 -0.115213856 -0.108141266 0.08028664 0.017521575 0.073345676 0.009923036 -0.0015224542
0.04223314 0.12632108 0.045381714 -0.017033897 -0.108852684 -0.16838741 -0.22167367 -0.034973197

body.block1.conv.bias f4 [32]
00000000: bc2d e3bc cf48 433d a705 303d 2aa0 393d
00000010: 5b2e ae3c c94a 0bbd fe6b 103d b9dc cdbb
00000020: 1137 2c3d 2d83 a6bc 7024 30bc 4b83 603d
00000030: ba16 9e3d ef7c 86bc 5ee3 823c c971 943c
00000040: 8849 ac3d becf 22bd ffcc 323d 6be6 413d
00000050: dceb 8dbd fa07 913d abab a43a 3dba cb3c
00000060: cf3a 0c3e 4a41 273d 60d8 603d 1c7b d0ba
00000070: 6e87 6f3d c6ac be3c 00cd ae3c 9966 95bc
-0.027731769 0.047676858 0.04297414 0.04531876 0.021262338 -0.034006868 0.03525924 -0.0062824157
0.042044703 -0.020326221 -0.010750875 0.05481271 0.077191785 -0.016416995 0.015977558 0.018120663
0.084124625 -0.0397489 0.04365253 0.047338884 -0.06929752 0.070815995 0.0012563368 0.024869079
0.13694309 0.04083375 0.05489385 -0.001590583 0.058478765 0.023275744 0.021337986 -0.018237399

body.block1.norm.weight f4 [32]
00000000: a45f 4c3f fd83 653f 938e 743f a853 5a3f
00000010: 81b2 5c3f de68 603f 435b 5b3f 3643 4c3f
00000020: 9e06 233f 153a 333f 4270 683f 2111 623f
00000030: c792 4a3f a055 3d3f 761f 253f fcfc 633f
00000040: 82b5 573f 4acd 623f 68af 4b3f 3270 2f3f
00000050: f39d 493f e1ab 773f 4f1e 4a3f 60f1 6c3f
00000060: 72ca 653f 7865 393f 33d5 3c3f 6b73 7d3f
00000070: ac68 753f 0806 2d3f d829 623f 980b 563f
0.79833436 0.89654523 0.9553005 0.852839 0.86209875 0.87660015 0.8568613 0.79790056
0.6368197 0.700105 0.9079629 0.88307387 0.79130214 0.7395878 0.6450113 0.890579
0.84261334 0.88594496 0.79564524 0.6853057 0.78756636 0.9674664 0.789525 0.9255581
0.8976203 0.72420454 0.73762816 0.9900424 0.9586284 0.6758733 0.883451 0.8361144

body.block1.norm.bias f4 [32]
00000000: 4dee 3b3f f71a 2b3f 8e69 593e f91b 113f
00000010: 5b30 203f 0f36 683f ca1e 053f b257 1e3f
00000020: bbe7 8f3f a196 c93e e888 e63e 7075 613f
00000030: b73f 973f 4aae 253f 7682 1a3f b101 843f
00000040: 8f0a 613f c506 303f 68e0 143f e934 e73f
00000050: 714b a93e 5eb6 463f 5d8a 933f 6cf6 093f
00000060: f6e2 113f 0cd4 483f e5ec 8a3f 3093 303f
00000070: 63cf 9d3e d644 8b3f edfc 733f f206 803f
0.73410493 0.6683802 0.21231672 0.5668331 0.62573785 0.90707487 0.52000105 0.6185256
1.1242594 0.39372733 0.45026326 0.8806982 1.1816319 0.6471907 0.6035532 1.0313016
0.87906736 0.6876033 0.58154917 1.8063022 0.3306537 0.7762202 1.15266 0.53891635
0.5698694 0.7844856 1.0853544 0.6897459 0.30822286 1.0880382 0.9530781 1.000212

body.block1.norm.running_mean f4 [32]
00000000: a394 9e3e deaa 3ac0 5f75 ab3f 2f89 da3f
00000010: 2bcc 1b3f 7d7b 473f bc8a 80bf 1abe a83f
00000020: 5ddf 0140 0623 353f b88a 66bf b943 09c0
00000030: 4e02 e8be 7880 23bf 15a6 28bf 76be b13e
00000040: d38d d63f 4d76 243f 45d6 5840 6219 4e3d
00000050: 91c8 3c3f 0536 42bf f028 9a3d 10aa bfbe
00000060: 8b56 0740 ceaa aa3f 391f c1be 5946 70c0
00000070: 12c7 4d3f 1181 a63e 7dbb 683e 105e 16c0
0.30972776 -2.916679 1.3395194 1.7073115 0.6085841 0.77922803 -1.0042338 1.3183014
2.029258 0.70756567 -0.9005542 -2.1447585 -0.45314258 -0.638679 -0.6587842 0.34715623
1.6762031 0.6424301 3.388078 0.050317176 0.7374354 -0.7586368 0.075273395 -0.37434435
2.1146572 1.3333375 -0.37719133 -3.7542937 0.8038188 0.32520345 0.22727771 -2.3494911

body.block1.norm.running_var f4 [32]
00000000: cb09 9a3e 8878 4d3f 4c7e 2d3f 7e08 bb3f
00000010: f293 bb3e 3c1c 223f adde 1d3f 6890 013f
00000020: 430c 773e ca60 943e 4a22 153f 1ae6 be3f
00000030: 1cd7 233f 6774 d33e 204d bf3e aa52 643f
00000040: ad57 323f 91c1 fa3e eeba f53e a1e9 123f
00000050: 6b98 e43e 2135 4d3f 2f59 453f b7db f93e
00000060: 3c40 0040 ed83 1e3f 821a ef3e 138c 3740
00000070: 8266 393f b60a 993e fd1a 2c3f d8a1 a73f
0.30085596 0.8026204 0.6777084 1.4611967 0.3663631 0.6332433 0.616679 0.5061097
0.24125771 0.28980094 0.58255446 1.4913971 0.64000106 0.41299745 0.3736353 0.89188635
0.6966503 0.48975804 0.4799418 0.5738774 0.44647536 0.80159193 0.7708921 0.48800442
2.0039206 0.6192005 0.4669991 2.8679245 0.7242204 0.29890984 0.6722868 1.3096266

body.block2.conv.weight f4 [32, 32, 3, 3]
00000000: 1a97 6a3c 42e2 553d 54ed 2c3d 7af9 77bd
00000010: a2d0 b13d 2a1a ca3c 3aa2 6dbd 9bfb 70bd
00000020: 4ac8 e1bd ed29 61be b2a4 433d 1825 fabc
00000030: df3a 35bd d2fb 81bd 128b 7e3c 2459 15be
00000040: 4b96 b6bd 625b 75bd 1cb0 9d3d 6246 883c
00000050: 8971 603d d805 38bd 6c8d f53d e8a5 4c3d
00000060: 1088 05bd 472b 9a3b d092 2a3d a868 aebd
00000070: fdc2 8dbd 0d41 abbd 8fb7 813c e4a0 ba3b
00000080: ef42 d4bc 8050 ff3c be2d ae3a bf80 2abd
00000090: db1d 393b 02e5 94bd f77a 6ebd faac ef3d
000000a0: 5d42 283d b5a5 b53c 652d f83d d492 13bd
000000b0: a772 40bd 1f54 083d f5fd af3d 9e52 123d
000000c0: eea5 16bd 7b69 18bd 6e47 52bd cfd2 de3c
000000d0: 9f95 ba3c 1b00 d03c 2fa4 b8bc e64b ba3c
000000e0: d026 06bd 6ba8 223d 8950 493d e453 96bb
000000f0: 7ee6 b93a 8164 b03d 99a4 293d 1cef 23be
00000100: a649 bbbd b145 ad3c 59d9 adbd b87c 46bd
00000110: d30a 5abd 9a55 9cbd 8571 a6bd 476e 6abd
00000120: bfd5 40be 22c5 fbbd ad1b e8bc d736 b1bd
00000130: 26d1 38bc 12c2 ccbd aa85 92be 3373 09be
00000140: a009 3cbe e238 9cbd 5736 a8bc 79a4 b6bd
00000150: 2a27 02bd f43f 193d 4122 db3b 6422 3e3c
00000160: 8ff8 183d b70b b93c e26d 983d 5cb9 ef3d
00000170: a1e6 62bc 62ba 04bd 186e 473d c3fa a9bc
00000180: 0058 a3bc 3fff beb9 43b7 3dbd 62fa 133c
00000190: 6fad afbd b54d d6bd ebd9 b03d 1ca4 c2bd
000001a0: 67b6 58be 8c90 f3bd acfc 93bd 40ee 38be
000001b0: 3042 cc3d 2d56 803d 2994 43bc 0ba5 0a3c
000001c0: 29b5 40bd 7b33 2cbd 65ea a33d 3385 253d
000001d0: f900 b7bc 4b2b 71bd c645 d23c a15c ddbd
000001e0: d49b 0a3d 14be dabc 5a92 c3bd 425d 84bd
000001f0: 6ff0 d7bb 8028 77bd bb08 49bd b9ed c13b
00000200: 03d9 5abc 8fa3 a0bc 4819 ee3c 402b c4bc
00000210: 6cb1 06bc 5ca8 c6bc 43d1 b1bc 0d43 f2bd
00000220: cc75 1f3d 3f5b a93d 855d 8fbb 59e2 1d3c
00000230: 040c cb3d a848 b6bc 0996 193d 263f 113d
00000240: a3d8 dc3d e89d be3d bc64 d43d b2ea 1e3c
00000250: ab44 09bd d2a1 0cbd 3e93 653d be09 33bd
00000260: 8b89 203b 43cd 413c faf7 0c3e e8ce 1a3e
00000270: e8ed 9ebb 3a6a 45bb 4785 87bd 7b37 b2bc
00000280: 182b 893c 0aa0 a6bd 45c3 323d 933f 6cbd
00000290: e10a 0d3a 1340 853d 9fac 243b b6e7 d53b
000002a0: d25c 9d3c 9921 193c 8f35 3fbc 11de 0a3b
000002b0: 9c44 143c ff9e 2dbd 9de1 c0bb 20a4 cf3d
000002c0: 8c00 f73d e051 b8bd dea7 88bd 7b39 6d3d
000002d0: 95e6 d1bd 7e08 07bd 2c62 9cbb f0b5 30bd
000002e0: f4bb e13c a173 5a3c 39c3 ed39 c471 a63d
000002f0: 9656 4e3d 91fe 96bd bbab bfbc 6067 e3bd
00000300: 84bc ea3d 048e 9f3d 3c9f 90bd da30 0d3e
00000310: c9e3 b23d 613e bd3d 9b0d 863c f3de ef3d
00000320: 6979 b63d ad60 cabd e643 babc 199e 873d
00000330: a4a4 99bd 1e60 e2bb bbcd 7f3c 7a96 583d
00000340: aad0 ccbb bd8a 9abd 8519 aa3d 6b40 2e3d
00000350: b1d2 8d3c 612d 64ba c7f5 0bbc ec0b 46bd
00000360: 4ece 87bd d37e fdbb 648c 54bd fa5d 16bd
00000370: d5ae 9fbb c517 92bc 23a7 19be 5048 93bd
00000380: 30ab 0ebd f131 43bc 16ff 113d 58ac 2d3c
00000390: 44fe b1bd e5e9 d4bd 5fe0 3d3d 59ea bd3d
000003a0: 398e c73d 0569 d33d 34b4 74bc 1a52 72bb
000003b0: fd0d 81bc 9c2c 99bd fb2b 0abe a0f7 4dbe
000003c0: 003f 83bd 695e 26be b1ab 60be de82 f93c
000003d0: b1cd 02bc d241 7e3d 49c5 82bc 6827 87bd
000003e0: 0420 19bd 7323 0cbd c800 13be 70a2 dcbd
000003f0: 1c6f 9cbd 972a 99bc 3486 883c 9121 7bbc
0.014318252 0.05221773 0.04221852 -0.060540654 0.08682372 0.02467068 -0.05801604 -0.0588337
-0.1102453 -0.2198865 0.047764488 -0.030535266 -0.044245597 -0.06346859 0.015536087 -0.14584786
-0.08915385 -0.059901603 0.07699606 0.016635124 0.054795776 -0.044927448 0.11989865 0.049962908
-0.032600462 0.004704866 0.041643918 -0.08516055 -0.06921957 -0.08362017 0.015834598 0.005695449
-0.025910823 0.031166315 0.0013288779 -0.041626688 0.0028246555 -0.07270242 -0.058222737 0.117029145
0.041078914 0.022173742 0.12118033 -0.036028698 -0.04698434 0.03328335 0.0859336 0.03572332
-0.036779337 -0.03720997 -0.051337652 0.02720013 0.022776423 0.025390675 -0.022539226 0.02274127
-0.03275186 0.039711397 0.04914907 -0.0045876373 0.0014183072 0.086129196 0.04141674 -0.16009182
-0.09144907 0.021151396 -0.084887214 -0.048458785 -0.05323298 -0.07633515 -0.08127121 -0.057234075
-0.18831538 -0.122934595 -0.02833351 -0.08653038 -0.011280334 -0.099979535 -0.28617603 -0.13422851
-0.18363047 -0.07628037 -0.020533724 -0.089180894 -0.03177563 0.037414506 0.006687433 0.011604879
0.03734642 0.022588594 0.074428335 0.11705276 -0.0138489315 -0.03240431 0.048688978 -0.020749455
-0.019939423 -0.00036429797 -0.04631735 0.009031864 -0.08578002 -0.1046404 0.086353146 -0.09503958
-0.21163331 -0.118928045 -0.07225928 -0.18059635 0.09973562 0.06266437 -0.01193718 0.008462201
-0.047047768 -0.042041283 0.080036916 0.04041023 -0.022339331 -0.058879178 0.025668036 -0.10808683
0.033840016 -0.026701964 -0.09549399 -0.064631 -0.006589941 -0.06034136 -0.04908059 0.0059182313
-0.013357404 -0.01960924 0.02906479 -0.023946404 -0.008221012 -0.024250202 -0.02170623 -0.11829195
0.0389307 0.08269357 -0.004375162 0.009636485 0.09914401 -0.022251442 0.0374966 0.035460614
0.10783508 0.09307462 0.10370776 0.00969951 -0.033512753 -0.03433401 0.056048624 -0.043710463
0.0024496044 0.011828723 0.1376647 0.15117991 -0.004850138 -0.003012313 -0.066172175 -0.02175497
0.016744182 -0.08135994 0.043643255 -0.057677817 0.0005380344 0.06506362 0.0025127304 0.0065278662
0.0192093 0.009346389 -0.011670484 0.002118949 0.009049561 -0.04238796 -0.00588627 0.10138726
0.12060651 -0.089999914 -0.06672643 0.057916146 -0.10249058 -0.032967083 -0.004772445 -0.04314226
0.027555443 0.013333232 0.00045349615 0.08127168 0.050375544 -0.073727734 -0.023397317 -0.111037016
0.11461738 0.07790759 -0.070616215 0.13788167 0.08734853 0.092404135 0.01636391 0.11712446
0.08909876 -0.09881721 -0.022737455 0.066219516 -0.07502106 -0.0069084307 0.015613015 0.05287788
-0.0062504606 -0.075459935 0.08305649 0.042541903 0.01731238 -0.0008704272 -0.008542485 -0.048351213
-0.06631146 -0.007736066 -0.0518917 -0.036710717 -0.0048731365 -0.0178336 -0.15005164 -0.07191527
-0.034831226 -0.011913762 0.03564366 0.010600172 -0.086910754 -0.10396174 0.046356555 0.09273214
0.09743924 0.10322765 -0.014935542 -0.0036975206 -0.01575374 -0.07479212 -0.1349334 -0.20113993
-0.06408501 -0.16246952 -0.21940495 0.03045791 -0.007983611 0.06207449 -0.015963214 -0.06599313
-0.037384048 -0.034213495 -0.14355767 -0.1077317 -0.0763838 -0.018697066 0.016665556 -0.015327827

body.block2.conv.bias f4 [32]
00000000: 3e9b b93c 58ce df3c 2f95 bb3d 30e8 663b
00000010: 967d 273d 5648 d83d 27a9 7d3b c3cd 93bc
00000020: 53b1 b1bc b000 5f3d 3b55 443d c575 ee3c
00000030: cee2 533d 9ec3 d9bc 7d08 3c3d d36f 9dbd
00000040: c466 2a3d 8f21 533d 818c 1c3d 3092 14bd
00000050: 6ba7 c53d 22c9 ca3c ea67 943c 8d5f dc3d
00000060: 73c4 ab3c e0f7 703c 1218 e6bb 0226 363d
00000070: 8c26 b23c d037 033d 852d 0abc 1d40 643d
0.022657033 0.027320072 0.09159314 0.003523361 0.040891252 0.10560672 0.003870556 -0.01804245
-0.021691 0.054444015 0.047932845 0.029108891 0.05172997 -0.026582535 0.045906533 -0.076873444
0.04160191 0.051545676 0.038219932 -0.036272228 0.09651073 0.02475411 0.018115956 0.10760412
0.020967698 0.0147075355 -0.0070219124 0.04446984 0.021746896 0.03203565 -0.008433704 0.055725206

body.block2.norm.weight f4 [32]
00000000: d7a0 613f dd0a 613f 4840 5b3f c95a 5a3f
00000010: 029e 803f 9cf6 713f 4510 6c3f 9b73 733f
00000020: b9a3 7c3f 51e6 593f 91e8 6a3f 0c92 703f
00000030: d5e6 6f3f f524 6d3f 3892 623f fc11 483f
00000040: 34a0 4c3f fdd0 5f3f 6016 5e3f fb2c 563f
00000050: ee29 633f 3ba6 823f b404 5a3f 6990 683f
00000060: 7d5c 723f 0ef3 533f e0ad 563f 9889 1e3f
00000070: e212 563f ca75 663f 4074 643f 1c6d 763f
0.8813605 0.879072 0.8564496 0.8529478 1.004822 0.9451692 0.92212325 0.95098275
0.9868732 0.8511706 0.9176112 0.9397285 0.93711597 0.92634517 0.8850436 0.7815244
0.7993195 0.87428266 0.8675289 0.83662385 0.88735855 1.020698 0.85163426 0.9084535
0.94672376 0.8279275 0.8385906 0.619287 0.8362256 0.9002348 0.89239883 0.9626024

body.block2.norm.bias f4 [32]
00000000: 2762 5b3f 895a 123f e5a2 983f ae43 333f
00000010: 7b70 ed3e 08a9 6e3e e968 b43e faf3 bb3e
00000020: f4eb 153f 7210 a43f 92ac 5d3f cc1a 023f
00000030: c3ee 0b3f 1b71 1b3e 47cb 1a3f 20f6 5a3f
00000040: 2222 693f 3cef 213f 6646 7e3f 1e75 eb3e
00000050: 741d 063f 82cd 933d 2b83 6c3f 8ecc f23e
00000060: f29b 5c3e 8e32 2a3f 46f7 093f 8de8 883f
00000070: 2933 3d3f 3220 34bd eb42 823e fab3 af3e
0.85696644 0.57169396 1.1924711 0.70025146 0.46374878 0.23306668 0.3523629 0.36709577
0.5856316 1.2817519 0.86591446 0.5082214 0.54661196 0.15179865 0.60466427 0.85531807
0.9106771 0.6325567 0.9932617 0.4598779 0.5238869 0.07216932 0.92387646 0.47421688
0.21543863 0.6648339 0.53892934 1.0695969 0.7390619 -0.043976016 0.2544168 0.34317

body.block2.norm.running_mean f4 [32]
00000000: ebd3 2ec0 ef46 91be b77f e83e 6c36 523f
00000010: 0a4e 6140 71fa 21c0 b74a a13f b134 cebf
00000020: d050 6c3e 897f 9f3f e6bd 19c0 5708 cebf
00000030: 9436 91bf 1843 1bc0 ceaa fcbe 8bb0 3e40
00000040: f6ae 4840 65f8 e23f 4803 3e40 fd83 bbbf
00000050: a9eb 9cbf 2b61 1c40 21be 1640 0b1f a3be
00000060: c175 983d 7c90 3cc0 cbde 703d 0cf6 473f
00000070: 5790 2fc0 f6e7 353f d39f efbe 610e d5be
-2.7316844 -0.2837443 0.4540994 0.8211429 3.5203881 -2.5309107 1.2600926 -1.610983
0.23077703 1.2460796 -2.4022155 -1.6096295 -1.1344781 -2.42597 -0.49349064 2.9795253
3.1356788 1.7732054 2.9689503 -1.4649655 -1.2259418 2.4434307 2.3553545 -0.3185962
0.07444335 -2.9463186 0.058806222 0.7810981 -2.7431848 0.7105707 -0.46801624 -0.41612533

body.block2.norm.running_var f4 [32]
00000000: b1a8 db3f 49e8 4d3f 26e8 c43f bd20 753f
00000010: 1a1d 413f 5ee6 1c3f 761b 1a3f 7437 0a3f
00000020: a65d 6a3f c580 0f3f 2b62 353f 13c0 753f
00000030: cd64 353f e018 043f 7c7d 0a3f 6764 5b3f
00000040: e481 243f d387 d03e d9ac 6a3f ae15 f33e
00000050: 55cb 243f 5c52 233f e254 683f 410a 183f
00000060: dc6e 303f 238a f13e edc3 143f e13c de3e
00000070: 0d69 613f 3444 893e 1492 073f c4a1 463f
1.7160856 0.80432564 1.5383346 0.9575308 0.7543503 0.6128901 0.6019815 0.53990865
0.91549146 0.5605586 0.7085292 0.95996207 0.70856935 0.51600456 0.54097724 0.85700077
0.642607 0.40728626 0.91669995 0.47477478 0.6437276 0.63797545 0.9075452 0.59390646
0.6891916 0.47175702 0.5811146 0.43405822 0.8805092 0.26809847 0.5295727 0.77590585

body.block3.conv.weight f4 [32, 32, 3, 3]
00000000: 48f2 0a3e 39e4 843d abe2 973d 6e73 633d
00000010: b1b9 893d ab5d 4ebb 5e4f c1bd 6199 cf3c
00000020: 4ff8 91bd 647d b9bd cea2 103d 6815 71bd
00000030: 6465 c6bc 990c 35bd c1a8 46bb ad61 cebc
00000040: 6266 52bd d5ef e13b 905a 04bb 07ed 25bd
00000050: 8f59 edbc 7cf7 f13b 7d12 02bc 5eb8 353c
00000060: 4b2b e2bc e9ca b5bd 8352 d5bc 316e 7c3d
00000070: 736b e23c 1cd4 9abd 7b93 923d e0b6 333d
00000080: c1d6 bf3c f45a e53c 8458 4ebd 127c e7bd
00000090: fbfd 71bd d13b 24bd e482 b3bd 5032 1f3e
000000a0: 52e5 69ba 3357 773c 864b 503d 5289 8e3d
000000b0: 3e6a 063e 9fd7 853d a8bf 913d 3780 8a3d
000000c0: 1956 303d e43a 083e 787c c53c 6565 c2bd
000000d0: d4c3 a13b 51ea d8bd e1e7 e43c a62a e5bd
000000e0: 8e7d 42be 7303 d33c 577b 72bc ae00 673c
000000f0: 23fa 12bc 1ed2 3cbc 2c18 9d3d 1ea5 8bbd
00000100: 8182 05be 40a5 c0bd eac0 b9bd 2187 1cbd
00000110: 046d 99bd 5f07 d83d 7eb6 803d ddff 25bc
00000120: d830 27bc 734d f1bd 8329 9bbd 3b25 553d
00000130: 914e 7cbc d55d 98bc 452a 093d 9db3 743d
00000140: f90c 243d 71c4 c03b 08d8 b03c b695 783d
00000150: 9bcf e63b 329c c33d 86d4 ce3d ba8e debd
00000160: 9659 71bd f2e5 98bd 4224 9a3d c104 ab3c
00000170: 9a6c 893d 0fd2 12bc 73d1 20be 2ba7 413d
00000180: 49c4 133e 833e 81bd d5c0 80bd ff9b fd3b
00000190: c392 22bd 517e 3cbc f92f df3d 6a7d 463d
000001a0: 6987 0f3b d1ea 64bd 60f7 bfbd a512 c7bc
000001b0: 20ef 713d 87b2 58bd 0b97 803c bf95 f13c
000001c0: 5658 4bbd 49dd 0a3d ccbb f73d f1e1 81bc
000001d0: 00d1 64bb 23e6 673d 2c85 103d 8b3a 9dbc
000001e0: 3594 64bd bd46 143d f0c2 8a3d 3135 8dbc
000001f0: e570 003c 2b6f 7dbc 340d 043e a0fa 233d
00000200: d2f9 c73c b099 8cbc 65be 0dbd 12ee 8fbc
00000210: 1854 a0bd 4d01 13be d02e c6bd 936a b3bd
00000220: 7827 543d 99cd 783d 3ac7 aabd 7129 933c
00000230: f49f 983d ef6a 3dbd 68d5 3e3d 2728 ea3d
00000240: baab 35bc 6024 45bd 9257 0cbe d102 883c
00000250: c7c5 e8bc 0a2b bebc 1f14 b03d 784d ac3d
00000260: e732 fc3d 2668 da3b 6f53 3b3c d296 373e
00000270: 5718 ebbd efab 8abd 8cae ad3d 5680 0dbd
00000280: 9814 2bbc 48b5 303e 9eba 733d 1f82 c13d
00000290: df74 49bd 22ba 043e 9426 263d e305 e53c
000002a0: 904c 0b3e 5059 2c3c bb72 a3bd df4f b7bb
000002b0: 4e51 1fbc 898b d33d 75e3 42bb d856 4ebd
000002c0: 0164 133d 1258 4c3d a197 4bbd fd42 7b3a
000002d0: 1a77 b43d 40d9 a23d 9af2 e73b 99b4 ac3c
000002e0: f35c 95bc 54e3 90bd 6301 8b3d dac6 253e
000002f0: 665d 1e3e 6e86 ca3b 0761 06bb 819c 87bd
00000300: 5da8 8d3d 4cc8 9fbc cc23 f5bc 2834 b63d
00000310: 78fd 5f3d d8e5 7fbc 3e6a dc3d 36ab 203d
00000320: b6b9 803d 7000 f93d 5a85 383d dfb6 9cbc
00000330: 07c0 6fbd be31 acbd 542c 89bc 3958 ef3d
00000340: 2baf 81bd 0cc5 8fbd 39a1 fa3d 3233 e43c
00000350: 641b 173d f4f9 b33b 1b35 42bd 5633 2dbc
00000360: 4d8f c83c 13d4 9cbc f01f c2bc 572f b13c
00000370: 8658 273d 9293 863d 599d a43c 36ad 83bd
00000380: b576 9fbc fa2c f5bd 6dac 4b3d d87d 01bd
00000390: 12bd 82bd b26f 9dbd 8cc2 05be 40ae 023e
000003a0: 01d2 ec3c 5c34 4db9 12e4 c93d 293b 163d
000003b0: 11d1 063e 0884 c93d 948f a3bd 9018 88bd
000003c0: a221 a63d fd35 4dbd 1404 be3d 661b 233d
000003d0: f398 02bd fed8 5a3d 9466 e2bb 5f39 61bd
000003e0: 9467 093d fc82 01be 9242 06be 1926 273e
000003f0: f62b a2bd 45e0 09be 12e9 30be 301d 913d
0.13568985 0.064888425 0.0741628 0.055530004 0.06724871 -0.0031488936 -0.09438966 0.025341691
-0.07127439 -0.090571195 0.035311513 -0.058858305 -0.024218269 -0.044201467 -0.0030312988 -0.02519306
-0.05136717 0.0068950453 -0.002019558 -0.04050925 -0.028973369 0.0073842388 -0.007938978 0.01109132
-0.027608534 -0.08876593 -0.026040321 0.061628524 0.027639126 -0.07559988 0.07157036 0.043875575
0.023417832 0.027997471 -0.050377384 -0.113029614 -0.059080105 -0.040096108 -0.087652 0.15546536
-0.0008922416 0.0150964735 0.050853275 0.069597855 0.13126466 0.06535267 0.07116634 0.06762736
0.04305086 0.13303715 0.024107203 -0.09491996 0.0049366746 -0.10591567 0.0279426 -0.11189775
-0.18993208 0.02575848 -0.014799914 0.014099283 -0.00897077 -0.011524705 0.07670626 -0.06818603
-0.13038065 -0.09406519 -0.090699986 -0.038214806 -0.07491496 0.10548281 0.062848076 -0.010131803
-0.010204516 -0.117823504 -0.07576277 0.05203746 -0.015399591 -0.01859943 0.033487577 0.059741605
0.040051434 0.0058827926 0.021587387 0.06068965 0.0070437915 0.09551276 0.100991294 -0.10867067
-0.058923326 -0.074657336 0.07526447 0.02087629 0.06710167 -0.008961215 -0.15704899 0.047278564
0.14430346 -0.06310751 -0.0628678 0.0077395434 -0.039690744 -0.011504726 0.10897822 0.048459448
0.002190078 -0.055888 -0.09373355 -0.024300883 0.059065938 -0.052904632 0.015697023 0.02949035
-0.04964479 0.03390244 0.12096366 -0.015854808 -0.0034914613 0.05661596 0.035283253 -0.019192955
-0.055805404 0.036200274 0.067754626 -0.017237278 0.007839416 -0.015468399 0.12895662 0.040033937
0.024411116 -0.017163128 -0.034605402 -0.017569575 -0.078285396 -0.14355965 -0.096768975 -0.08760562
0.051795453 0.06074295 -0.08338781 0.017964097 0.07452384 -0.046244558 0.04659024 0.1143344
-0.011088306 -0.048130393 -0.1370528 0.016602905 -0.02841462 -0.023213882 0.08597588 0.084132135
0.12314396 0.0066652475 0.011433466 0.17928627 -0.11479252 -0.06771075 0.08480558 -0.03454622
-0.010441922 0.17256653 0.059504144 0.09448647 -0.049183723 0.12961629 0.040564135 0.027956909
0.13603425 0.010519341 -0.079808675 -0.005594238 -0.009723974 0.103293486 -0.0029737626 -0.05037579
0.035984043 0.049888678 -0.04970515 0.0009584872 0.08811779 0.079515934 0.007078481 0.02108221
-0.018232798 -0.070746094 0.06787374 0.16189137 0.15465316 0.006180576 -0.002050461 -0.066216476
0.06916878 -0.019504689 -0.029924296 0.08896667 0.054685086 -0.015618764 0.107624516 0.03922578
0.062854216 0.121582866 0.04504905 -0.019130168 -0.05853274 -0.08407925 -0.01674477 0.11686749
-0.06332239 -0.070200056 0.12237782 0.027856443 0.036891356 0.005492443 -0.047413927 -0.0105713215
0.024482394 -0.019144094 -0.02369687 0.021629019 0.040855907 0.065711156 0.02009456 -0.06429522
-0.019465784 -0.11971469 0.049724985 -0.031614155 -0.063837186 -0.0768732 -0.13062495 0.12761784
0.028908731 -0.00019569829 0.09857954 0.036677513 0.1316569 0.09839636 -0.0798637 -0.0664531
0.08111884 -0.050100315 0.092781216 0.03982105 -0.031884145 0.053429596 -0.006909201 -0.054986354
0.033546045 -0.12647623 -0.13111332 0.16323127 -0.07918541 -0.13464458 -0.1727641 0.07085645

body.block3.conv.bias f4 [32]
00000000: 6eca d9bc 2a66 9ebc 4b6b 00bc f16f c0ba
00000010: 3854 8b3d 3a4c 853c fff8 70bd 695a 16bd
00000020: f783 923c bb70 c23c 3118 6f3d d69b ab3c
00000030: ba68 263b f624 f83d 9da8 ccbd a7f2 853d
00000040: e9a1 b3bd 0704 68bd a9d1 993d f8e1 6f3d
00000050: 50de 43bd b8aa 1ebd 82d9 af3d 1f6f fc3d
00000060: 6d56 0e3c b2b4 0fbd 9b97 903c 561b 61bb
00000070: 228f a23a 5fbb 9ebd 65aa c43c 3e97 adbd
-0.026585784 -0.019335825 -0.007838081 -0.0014681799 0.06803173 0.0162717 -0.05883121 -0.036707316
0.017885191 0.023735395 0.05837268 0.020948332 0.0025392012 0.12116425 -0.09993098 0.06540423
-0.08771116 -0.056644466 0.075106926 0.05856511 -0.047819436 -0.03873703 0.08586408 0.12325882
0.008687598 -0.035084434 0.017650416 -0.003434857 0.0012402276 -0.07750582 0.024007032 -0.08476113

body.block3.norm.weight f4 [32]
00000000: 034b 9a3f b1bd 803f 03e8 ae3f 9e4a 833f
00000010: dfcc 633f 8ed9 7f3f 7b88 723f f2e1 903f
00000020: 61bc 8b3f 2cbc 783f 8d14 563f 21d4 a13f
00000030: 94f0 673f 8897 943f 82c3 983f 2941 7b3f
00000040: 4a5d 683f c635 973f 58f6 7f3f 67f0 623f
00000050: e572 853f b2ec 9f3f 8f7d 993f f77b 8c3f
00000060: 5abd 933f 79b2 973f 6eca a13f 59a4 a53f
00000070: 74da a73f e53b a43f 50a4 6c3f aa24 6f3f
1.2054142 1.0057889 1.3664554 1.0257146 0.88984483 0.9994134 0.947395 1.1318953
1.0916864 0.9716213 0.8362511 1.2642862 0.9060147 1.1608744 1.1934664 0.981463
0.9076735 1.1813285 0.99985266 0.88648075 1.0425688 1.2494109 1.1991442 1.0975331
1.154216 1.185134 1.2639902 1.294078 1.3113542 1.2830778 0.9243822 0.9341532

body.block3.norm.bias f4 [32]
00000000: 9b96 4a3f f2ff 02bf 7749 10bf 322b 023f
00000010: 167b 283f 5dea 193f a1e2 1b3f e321 aa3f
00000020: 7698 333f 3ee2 0b3f 4c50 45bf 5e7d ef3e
00000030: c89a 643f 820f 373f 3705 f93e b50d 283e
00000040: 428e c53e aced 813f 40ba 1b3f 71b2 613f
00000050: ca22 fb3e b7d1 ea3e 3683 01bf 5f5b 843f
00000060: d8ca 573c f3a0 2a3f 1fb7 883f 2249 803f
00000070: 519f ce3e 8a80 27bf 1489 42bf 0837 4d3f
0.79136056 -0.5117179 -0.563621 0.5084716 0.65812814 0.60123235 0.60892683 1.3291591
0.7015451 0.54642093 -0.7707565 0.46775335 0.8929868 0.7150804 0.4863679 0.16411479
0.38585097 1.0150657 0.6083107 0.88162905 0.4904998 0.45863125 -0.50590837 1.0340384
0.01317092 0.6665184 1.0680884 1.0022318 0.40355924 -0.6543051 -0.75990415 0.80162096

body.block3.norm.running_mean f4 [32]
00000000: 7464 463f 2209 c1bf 911e 98bf 6f16 3fbf
00000010: c7fa 54c0 61c4 1440 cfde 663f 0a8b 2dbf
00000020: 56bc 8b3f 3b89 8d3e 5a89 72bf 07bf 4840
00000030: 1b37 99be 3aef 1340 aeff 0940 ec81 38c0
00000040: 3170 8ebf 6a17 463f 6201 0dc0 e187 f33e
00000050: 913d 613f 60c5 b73e 4a9f 0cbf 7342 86c0
00000060: 75e7 293e 0151 0040 1913 f83e 75b5 2840
00000070: 8536 a43f 5810 5c3f 0959 e23e 7e0b 79c0
0.7749703 -1.5080912 -1.1884328 -0.74643606 -3.3278062 2.324486 0.9018373 -0.6779028
1.091685 0.2764376 -0.9474083 3.1366594 -0.29924855 2.3114762 2.1562304 -2.8829298
-1.1127988 0.7737948 -2.2032094 0.47564605 0.8798457 0.35892773 -0.54930556 -4.1956115
0.165922 2.004944 0.4845207 2.6360753 1.2829138 0.8596244 0.44208553 -3.8913264

body.block3.norm.running_var f4 [32]
00000000: 7a8a a33e 20c3 f83e 388e c23e a8f1 133f
00000010: ff81 533f df5d 1b3f d4ea 1e3f a01a 573f
00000020: ce34 e83e 0225 e93e 6948 c43e 34b0 0f3f
00000030: ad3c af3e 8947 273f 7962 e73e e9d9 283f
00000040: 8be7 e53e 65b2 073f 0f94 d03e fca1 d73e
00000050: 70ce 043f 5bf5 ba3e 5e2c 213f fe8c db3e
00000060: ca4f cf3e 2e6a 4a3f 59e4 f43e 0794 c73e
00000070: a04c 7c3f 9560 d83e e2b0 c73e 7c00 673f
0.31941587 0.4858637 0.3799913 0.57790613 0.82620233 0.6069011 0.6207707 0.84025
0.45352787 0.45536047 0.38336495 0.5612824 0.3422598 0.6534353 0.45192316 0.65957505
0.44903216 0.53006583 0.4073796 0.42115772 0.518775 0.36515316 0.62958324 0.42881006
0.40490562 0.7906827 0.47830465 0.38980123 0.9855442 0.42261186 0.39002138 0.90235114

tail.weight f4 [1, 32, 3, 3]
00000000: 096e 8ebd a142 2b3d 6569 753e a3f1 02be
00000010: 943f d3bc cc00 583e 6d92 8dbe c821 51bd
00000020: d36f 053e 81d2 383e 8629 a13d 4a66 173c
00000030: b328 743d bc38 0e3d a402 263d b5fa 43bd
00000040: 77b8 f9bd 7c74 bdbd 3807 8e3e 75e7 273d
00000050: 3822 87bd 28db 323e 442d 81bc 9651 43be
00000060: 3098 da3d ef9f 21bd 75b5 37be 96fa c4bd
00000070: 92ea 10bd 71d8 8fbb d643 5fbd 7545 3b3c
00000080: 7329 e63d 8e3d 28be a24c c4bd cd98 503c
00000090: 2be1 8bbc 6305 50ba f219 823c a427 b0bd
000000a0: 1e03 b4bc 4edb 02bc 0a2f 99bd 7ed1 cbbb
000000b0: 8e92 813d cc33 9bbd 4222 24bd be38 39bd
000000c0: b32b 05be b15c 8fbd 2c0b 71bd e83f ac3d
000000d0: a879 c63d 4f58 5f3d b409 44bd 220a 0ebd
000000e0: c888 6ebc 394f adbd fbb5 48bd 0421 93bd
000000f0: b8e0 bcbc 1fad b23c f3fe 01bd 724d c63d
00000100: cebe 243e 3d7a 783e 3d5d a1bd 9bd1 14bd
00000110: 86b7 8a3c 39a7 4fbe 9a78 4bbe f914 7abe
00000120: a0cd 723d 927a e03a 5565 873d 61ca 4b3c
00000130: 102d 41bd 4a30 cd3c 5693 783b 1ff9 7f3c
00000140: 1fe2 683e 8da2 613c 5f0c 1fbd d90f aabd
00000150: 32d1 bebc 4d13 f1ba 86d9 5ebd cbee bcbd
00000160: c511 7c3c ed85 f33c 5837 ed3d 9ff1 b33d
00000170: 7089 0a3e 55c6 ab3d 6c32 b03d 0c44 913d
00000180: db44 613c 7a09 43bc 5813 8e3d 32fa 75bd
00000190: 96f3 6f3d 1731 05be ca1d 7d3e cb70 8f3e
000001a0: 74f4 f83b 3dee 2cbc 7253 b3bd d202 8bbe
000001b0: b966 6d3d 7634 243d 8e30 883e b061 8ebd
000001c0: f882 31bd aca7 8a3d be62 413d 1064 213d
000001d0: 18b4 f93d a8a6 9f3e 81ae 843c 0eb3 9cbe
000001e0: 7ae8 223e 2139 6fbd 4b95 68be f5af 6f3e
000001f0: 4df7 9d3d 186f afbd 4820 a63d 50ab a8bd
00000200: 2dcd 55be 2efc 2c3e ff9c e23c 0027 013c
00000210: d988 0d3e a36c 0fbc 7de9 dc3d 9f3a 4fbb
00000220: 562c 8fbd 47c9 92bd 374d 82bc 09d5 13bd
00000230: c40f efbd 8380 fcbb d706 3bbc 8c4b 92bd
00000240: ee22 7ebc 67b2 87bc e7a8 0b3d 860d c83d
00000250: 36ed 013d 8a82 9d3d 0e90 3c3d 8749 5e3c
00000260: 8be5 8b3c 584c 9fbe c054 67be 4897 9f3d
00000270: 27ca bebd e208 80bd fb51 553e 7ee6 00bd
00000280: 98ea 8cbb 649b 193e a9a1 763d 5f13 c23c
00000290: 4823 8cbe 4d03 903d f626 aa3d 9734 bdbd
000002a0: f29a e7bc 13bc 2f3c 7c37 4dbd b4e9 463b
000002b0: 9d03 f83a 378e 123d 476e c33d 05ba 8c3c
000002c0: a9c8 da3d 144a e53d 86c9 293d 5e67 9c3d
000002d0: 4136 3e3e e96c 953d ee39 273d b50d 9a3d
000002e0: 1341 1ebc 3a45 afbd 0e15 b53d 57a1 ddbc
000002f0: e0a0 6bbd 41a1 373d 8e51 bc3d dc06 863e
00000300: 424b b33c 1b70 d1bc 4445 0d3b cb00 32be
00000310: eef2 28be 2e07 73be 1999 30be c73c adbd
00000320: 53b4 8cbd 2d6a 6f3b fea7 973d 4ebb ec3d
00000330: 8e61 c13b fac1 ff3d 1bfa 5f3e 6a2a 1abe
00000340: b5e7 02be 7585 3abe ae04 89bd ee00 3dbd
00000350: ca2d bc3c f3fb 423d 9776 1b3e a8b0 743e
00000360: e6bc cabc 268e c83c a16b 693e 3c6c 69bd
00000370: 23ec 1fbd 7bb1 e73d 8402 7dbd 769c 78bd
00000380: 5792 b83d b789 2dbe 9869 0cbe c957 843c
00000390: 9c96 24be 5bf5 443b 00f6 1f3e a090 29be
000003a0: 4eb4 0abd 1ce5 c53d 322e 92bd fb05 04be
000003b0: c072 acbe 3f80 283e 605b 153e 1ec7 3cbd
000003c0: f3c2 343e 4dda 313e efba 033e 723f f8bd
000003d0: 8f38 13be d6ba 87bd 5cf9 a53d 0517 743e
000003e0: f4f6 a23e 792f a3be 580b 30be 8898 a0bd
000003f0: 9ebf dd3c 168b babd b076 a1be 05fb 1c3e
-0.06954581 0.04181159 0.23965986 -0.1278749 -0.025787152 0.21094054 -0.27650777 -0.051057607
0.13030939 0.18049051 0.07869248 0.009240696 0.059609126 0.034722075 0.040529862 -0.047846515
-0.12193387 -0.09250733 0.27739882 0.04099222 -0.065983236 0.17466414 -0.015768655 -0.19074091
0.10673559 -0.039459165 -0.17940314 -0.09618108 -0.035379954 -0.0043898155 -0.054508053 0.011430134
0.112383746 -0.16429731 -0.09584929 0.012731743 -0.017075142 -0.0007935373 0.015881512 -0.08601311
-0.021974143 -0.007986857 -0.07479675 -0.006220042 0.06326781 -0.07578239 -0.040071733 -0.04522013
-0.13004951 -0.07000101 -0.058848545 0.08410627 0.09691173 0.054527577 -0.047860816 -0.034677632
-0.014558978 -0.08462376 -0.049001675 -0.071840316 -0.023056373 0.021811066 -0.03173728 0.0968274
0.16088411 0.2426538 -0.07879112 -0.036332708 0.016933214 -0.20278634 -0.19870225 -0.24422063
0.05927813 0.0017126373 0.066111244 0.012438388 -0.047162116 0.02504744 0.0037929616 0.01562336
0.22742508 0.013771665 -0.038830157 -0.08303804 -0.023293111 -0.0018392593 -0.054406665 -0.09225234
0.015385096 0.029726947 0.115828216 0.0878632 0.13528991 0.08387438 0.08603367 0.07093057
0.013749327 -0.011904115 0.06937283 -0.060053058 0.05858191 -0.13007008 0.24718395 0.28015742
0.0075975005 -0.010554847 -0.0875615 -0.2715059 0.057959292 0.040089093 0.26599544 -0.06952226
-0.043337792 0.06770262 0.04721331 0.039402068 0.12192553 0.31181836 0.016196491 -0.30605358
0.15908995 -0.05840409 -0.22713201 0.23406966 0.077131845 -0.08566111 0.08111626 -0.082358
-0.2087905 0.16893074 0.027662752 0.0078828335 0.13821734 -0.008753928 0.10786722 -0.0031620634
-0.06990878 -0.07167297 -0.01590596 -0.036091838 -0.11672929 -0.0077057495 -0.011415205 -0.07143316
-0.015511258 -0.016564561 0.034096625 0.097682044 0.031720363 0.07690914 0.04603582 0.013567335
0.017077228 -0.31112933 -0.22590923 0.077925265 -0.09315901 -0.06251694 0.20832054 -0.031469814
-0.0043004267 0.15000683 0.060212765 0.023690877 -0.27370667 0.070318796 0.083082125 -0.09238546
-0.028272126 0.010725993 -0.050101742 0.00303517 0.0018921975 0.035780158 0.09542518 0.017178545
0.10682804 0.1119577 0.041451953 0.07636903 0.18575384 0.072961636 0.04082673 0.07522146
-0.00965907 -0.08558126 0.088419065 -0.027054472 -0.05752647 0.044831518 0.09195243 0.26177108
0.021886472 -0.025566151 0.0021556178 -0.17383115 -0.1649892 -0.23733208 -0.17245902 -0.08458858
-0.068703316 0.0036531792 0.07405089 0.11559163 0.005901522 0.1248817 0.21872751 -0.15055242
-0.12783702 -0.18214972 -0.06690346 -0.046143465 0.022971053 0.04760356 0.15181957 0.23895514
-0.024748277 0.024481844 0.22794963 -0.056987986 -0.039043557 0.113131486 -0.061769977 -0.060696088
0.09012287 -0.16947065 -0.13712156 0.01615514 -0.16073078 0.003005347 0.15621185 -0.16559076
-0.03386336 0.0966284 -0.07137717 -0.12892906 -0.33681297 0.16455172 0.14585638 -0.04608833
0.17652492 0.17368431 0.12864278 -0.12121476 -0.14377044 -0.06627433 0.08104202 0.23836906
0.31829035 -0.31872156 -0.17191827 -0.07841593 0.02706891 -0.0910856 -0.31535864 0.15330131
