trained_models/sinGan/cows/scale_factor=0.750000,alpha=10/4/netG.pth (torch_old, 466445 bytes, 26 tensors)

head.conv.weight f4 [64, 3, 3, 3]
0	0x3db1118e	0.086459264
1	0x3de22d22	0.11043765
2	0x3d01a54f	0.03165179
3	0x3c0d7d1c	0.008635785
4	0x3d1521a2	0.036409028
5	0x3b1f51a3	0.0024310134
6	0xbce737b3	-0.028224802
7	0xbd8ea322	-0.06964709
8	0xbcc19679	-0.023631321
9	0xbd7407a5	-0.059577603
10	0xbcfb93ec	-0.030710183
11	0xbcc9e0e5	-0.02464337
12	0xbcbd3dd1	-0.023100765
13	0xbbcbae6b	-0.0062158606
14	0xbd222f3a	-0.03959582
15	0xbb0e9360	-0.0021755323
16	0x3d2e25a9	0.042516384
17	0x3d61bab6	0.055109702
18	0xbdae7216	-0.08517854
19	0xbba2062c	-0.0049445834
20	0xbb7647fd	-0.003757953
21	0xbd73b5bd	-0.05949949
22	0xbc6f2a47	-0.014597482
23	0xbbca5a68	-0.006175328
24	0x3a3a5302	0.0007107706
25	0x3c4444c4	0.011979286
26	0x3c5679f7	0.013090602
27	0xbd135826	-0.035972737
28	0xbd021070	-0.031753957
29	0xbcf66ab2	-0.030080173
30	0xbd6e218d	-0.058137465
31	0x380dacf9	3.3778113e-05
32	0x3d435b1a	0.047694303
33	0xbdba5fb1	-0.09100283
34	0xbd5a9211	-0.053361956
35	0xbd6805f0	-0.056646287
36	0x3d3d29ef	0.04618257
37	0x3d55e7e1	0.05222309
38	0xbcd6a484	-0.026201494
39	0xbb7b9d56	-0.003839334
40	0x3d9c3ae3	0.07628419
41	0xbc6616c4	-0.014043514
42	0x3d5ce32a	0.053927578
43	0x3b823c2f	0.0039744596
44	0xbd21c0cc	-0.039490506
45	0x3ca9cee9	0.020728545
46	0xbd8e4cb3	-0.06948223
47	0x3b244a0b	0.0025068547
48	0xbc7fb86b	-0.0156079335
49	0x3cf64ee4	0.030066915
50	0xbb8b9324	-0.004259484
51	0x3ca985d5	0.020693699
52	0xbaef7a4d	-0.0018270701
53	0xbd29fdac	-0.041501686
54	0xbd8ada72	-0.067799464
55	0xbc3be4a6	-0.011468088
56	0x3cfc5d0e	0.03080609
57	0x3cbadfa8	0.022811726
58	0x3c640602	0.013917448
59	0x3da8238e	0.082099065
60	0xbc8b2b77	-0.0169885
61	0x3d24a772	0.04019875
62	0x3db82454	0.08991304
63	0xbdbe17fb	-0.09281918
64	0x3bf85546	0.0075785248
65	0xbd804880	-0.06263828
66	0x3cd6544b	0.02616324
67	0x3cf5a721	0.02998692
68	0x3cd5c3ea	0.026094396
69	0xbdea193c	-0.11430594
70	0x3ba1692a	0.0049258666
71	0x3da210b8	0.07913345
72	0x3b2eea9e	0.0026690136
73	0xbbe708cf	-0.0070506106
74	0x3b93b0d0	0.0045071617
75	0x3c61e30d	0.013787043
76	0x3b53508c	0.0032244055
77	0xbc2349ef	-0.009966358
78	0xbc8c050b	-0.017092248
79	0x3b9923dd	0.0046734647
80	0x3cc060b3	0.02348361
81	0xbce70827	-0.02820213
82	0xbdc39851	-0.095505364
83	0xbdd25a25	-0.102711
84	0x3cd956f5	0.026530722
85	0xbc82a7e7	-0.015949203
86	0xbd089f40	-0.033354998
87	0x3d1485c0	0.036260366
88	0x3cd069dd	0.025441105
89	0x3c90e606	0.017687809
90	0x3d594264	0.05304183
91	0x3d17604c	0.03695707
92	0x3d13d003	0.036087047
93	0xbac7a70c	-0.0015232279
94	0xbc747a21	-0.014921696
95	0x3d6666d4	0.05625041
96	0xbd16a0af	-0.036774334
97	0xbb4a2b4f	-0.0030848568
98	0xbd46ef15	-0.04856785
99	0x3d70f749	0.05882958
100	0x3c1ddb60	0.009634823
101	0xbd00a839	-0.03141043
102	0x3d2d8bdb	0.042369705
103	0xbc1d4138	-0.009598069
104	0xbd4cdf45	-0.050017614
105	0x3d994dfd	0.07485578
106	0x3c6cfa89	0.014464029
107	0xbd78d882	-0.060753353
108	0xbc50c58f	-0.012742414
109	0xbb15cf58	-0.0022859182
110	0xbc21968e	-0.009862555
111	0x3dc0957d	0.094035126
112	0x3d444a01	0.047922138
113	0x3c55fe80	0.013061166
114	0xbb24aba9	-0.0025126731
115	0x3d43696c	0.04770796
116	0x3d8ec388	0.069708884
117	0xbdb82471	-0.08991326
118	0xbceab2c3	-0.028649693
119	0xbdbf996e	-0.09355436
120	0xbcb61778	-0.022227988
121	0xbc4b90df	-0.012424677
122	0xbd7cbcc0	-0.061703444
123	0xbd247910	-0.040154517
124	0xbb39d69c	-0.0028356677
125	0xbd350121	-0.04419053
126	0x3c452013	0.012031573
127	0xbce6dff5	-0.028182963
128	0xbc0939e4	-0.008375619
129	0x3d453cb5	0.048153598
130	0xbc9bd613	-0.019022977
131	0xbd0f99cd	-0.035058785
132	0x3d68276f	0.05667823
133	0x3d97b47b	0.07407471
134	0x3cc3437f	0.023835896
135	0x3ca45b23	0.020062989
136	0x3bc550dd	0.0060216025
137	0x3b855c44	0.004069837
138	0xbcf0e846	-0.029407632
139	0x3bb37c3d	0.005477457
140	0x3deca1b7	0.11554282
141	0x3d9da9b6	0.076983854
142	0x3c9dd9c3	0.019268876
143	0x3d9c621c	0.076359004
144	0x3d7821bb	0.060579043
145	0xbcdbf8bc	-0.026852004
146	0xbd5e55cc	-0.05428104
147	0xbd84aa01	-0.06477738
148	0xbdb207fd	-0.0869293
149	0x3cd96294	0.026536264
150	0xbd5191eb	-0.05116455
151	0xbce7af36	-0.02828179
152	0xbd93f708	-0.07224852
153	0xbbba6123	-0.005687849
154	0x3b135d0a	0.0022485876
155	0x3b9fdc02	0.004878522
156	0xbd5301d6	-0.051515423
157	0xbcf8c4b4	-0.030367233
158	0x3d1de377	0.038547006
159	0x3d1cd4d6	0.038288914
160	0xbc3ec9da	-0.011644805
161	0x3ce021cc	0.027359866
162	0xbd7f1efb	-0.062285405
163	0xbdafbb10	-0.08580601
164	0xbcbb734b	-0.022882124
165	0x3c64fe1c	0.0139766
166	0x3cf9cca8	0.030493096
167	0x3cb188a0	0.021671593
168	0xbcf1eb55	-0.02953116
169	0xbd580aee	-0.0527448
170	0xbde1ddbc	-0.110286206
171	0x3d901a23	0.07036235
172	0xbcaf3414	-0.021387137
173	0xbc5d87ff	-0.0135211935
174	0x3d70fd5f	0.058835384
175	0x3d2c7d9a	0.04211197
176	0x3d2bb30e	0.041918807
177	0xbc35e24b	-0.011101316
178	0x3d96fe32	0.07372703
179	0x3d16133b	0.036639433
180	0xbd259f61	-0.0404352
181	0xbca2750c	-0.019831203
182	0x3ceb6138	0.028732881
183	0x3ca56381	0.020189049
184	0xbd07a9aa	-0.03312079
185	0xba622969	-0.00086273864
186	0x3cf8f5fb	0.03039073
187	0x3d8b8438	0.06812328
188	0xbc211b75	-0.009833206
189	0xbd87f52b	-0.06638559
190	0xbded4039	-0.11584515
191	0xbca4540a	-0.020059604
192	0xbc88d4d1	-0.016703041
193	0xbcfa1bde	-0.030530866
194	0x3d42ffd1	0.047607247
195	0xbcf44117	-0.029816194
196	0xbca16b93	-0.019704616
197	0x3d3c6304	0.045992866
198	0xbcef5f43	-0.029220229
199	0xbd55d29c	-0.052202806
200	0x3c84f05a	0.01622789
201	0x3d96e822	0.073684946
202	0xbc843720	-0.016139567
203	0x3cf3183f	0.029674647
204	0xbd37afc5	-0.04484536
205	0xbd959a12	-0.07304777
206	0xbcbe5539	-0.023233997
207	0x3b0380b5	0.002006573
208	0xbc015af9	-0.007895225
209	0x3d9e6e3d	0.0773587
210	0x3d61d6d7	0.055136528
211	0xbccbb76d	-0.024867738
212	0x3cbe8001	0.023254396
213	0x3ce7ab09	0.028279798
214	0x3c83fb7e	0.016111132
215	0x3d807c6e	0.06273733
216	0xbcec31fe	-0.028832432
217	0x3c0674f8	0.008206598
218	0xbd9258a0	-0.0714581
219	0x3c698e29	0.014255085
220	0x3d8f8575	0.07007877
221	0xbd46027a	-0.048342206
222	0x3d2af7fb	0.0417404
223	0xbcc8e985	-0.024525413
224	0xbdd6e04d	-0.10492001
225	0xbd86faac	-0.065907806
226	0xbd11e211	-0.035615984
227	0x3cd5d135	0.026100734
228	0x3d8d755a	0.06907149
229	0x3d2822a9	0.04104868
230	0x3d02d397	0.03194007
231	0x3d810d53	0.063013695
232	0x3c8f7519	0.017511891
233	0xbd600458	-0.054691643
234	0xbc9d12ca	-0.019173998
235	0xbd27e550	-0.040990174
236	0x3ba357a3	0.0049848123
237	0x3d4546d4	0.04816325
238	0x3d37ecfa	0.044903733
239	0x3cc8caee	0.024510827
240	0x3d5cb3d2	0.053882428
241	0x3ca0f683	0.019648796
242	0xbbe175f7	-0.0068805176
243	0x3d9c7824	0.076401025
244	0x3cac683f	0.021045802
245	0x3d4f4e8f	0.05061203
246	0x3d31cd55	0.04340871
247	0x3c881907	0.016613496
248	0x3cac3fa7	0.021026446
249	0x3d9c4eb7	0.07632201
250	0x3d0904bb	0.033451777
251	0x3d8f920d	0.07010279
252	0x3dcd940d	0.10038004
253	0x3c930b38	0.017949685
254	0x3dd989dd	0.106219985
255	0x3d2f73c3	0.04283501

head.conv.bias f4 [64]
0	0xbbe00e6b	-0.0068376563
1	0xbdfccfc4	-0.12344316
2	0x3e8601e3	0.26173314
3	0x3de8f4dc	0.11374828
4	0x3e0af756	0.13570914
5	0xbe28db1e	-0.16489837
6	0xbd8b2aeb	-0.06795295
7	0xbdd19f9e	-0.10235523
8	0xbe4331a2	-0.19061902
9	0x3e480f31	0.19537045
10	0x3dfaaf40	0.122404575
11	0x3e43e13d	0.1912889
12	0x3e2d0cf8	0.16899478
13	0x3e413ded	0.18871279
14	0xbea3025d	-0.3183774
15	0x3e790c6c	0.24321145
16	0x3dfe5f88	0.12420565
17	0xbe08e45b	-0.1336836
18	0x3e818ff5	0.25305143
19	0xbe926820	-0.28595066
20	0xbd9a37e3	-0.07530191
21	0x3e2e78d7	0.17038284
22	0x3d86f018	0.06588763
23	0xbe226d7f	-0.15862082
24	0xbc6bb3c8	-0.014386125
25	0x3e04106d	0.12896891
26	0x3e2189a3	0.1577516
27	0x3e89832d	0.26857892
28	0x3e3acd24	0.18242317
29	0xbddc2f96	-0.10751264
30	0xbe2f3e20	-0.17113543
31	0x3dd5e4dc	0.10444042
32	0x3e788eb0	0.24273181
33	0xbdecdd64	-0.115656644
34	0xbc95008c	-0.018188737
35	0x3e6500e6	0.22363624
36	0x3dcbfdc3	0.099605106
37	0xbb4211dd	-0.0029612698
38	0x3e50b2b9	0.20380677
39	0x3ddc41ae	0.10754715
40	0x3e32ad9e	0.17449042
41	0x3dcb3e2c	0.09923968
42	0x3d964f81	0.07339383
43	0x3e81775a	0.2528637
44	0x3dd9e23a	0.106388524
45	0xbe428262	-0.1899505
46	0x3e360ca8	0.17778265
47	0xbdc9f3a9	-0.098609276
48	0xbe217333	-0.15766601
49	0xbe266f72	-0.1625345
50	0xbe1c3e2a	-0.15258089
51	0xbe19472d	-0.14968558
52	0xbe55155d	-0.2080893
53	0x3dbc6347	0.09198623
54	0x3e2c97f1	0.16854836
55	0x3e265430	0.16243052
56	0xbe810376	-0.25197953
57	0x3e2bde72	0.16784075
58	0x3d60d91f	0.054894563
59	0x3dd31d26	0.10308294
60	0x3d42b7ee	0.04753869
61	0x3db55e31	0.08855856
62	0xbdaf943b	-0.085731946
63	0x3e516418	0.20448339

head.norm.weight f4 [64]
0	0x3f93f737	1.1559819
1	0x3f905fa5	1.1279188
2	0x3f9e4c49	1.236703
3	0x3f9c9e74	1.2235856
4	0x3f8d9bfb	1.1063226
5	0x3f946185	1.1592261
6	0x3f963695	1.1735407
7	0x3f946b96	1.1595333
8	0x3fa171c9	1.261285
9	0x3f9a7f5f	1.207012
10	0x3f88b642	1.0680621
11	0x3f9339a4	1.1501966
12	0x3f9bff01	1.2187196
13	0x3f9b2ffe	1.2124021
14	0x3fa88f2a	1.316869
15	0x3f877272	1.0581801
16	0x3f9b9d2c	1.215734
17	0x3f927c69	1.1444217
18	0x3f9c5646	1.2213829
19	0x3f9acd41	1.2093889
20	0x3f914a9f	1.1350898
21	0x3f8e3af5	1.1111742
22	0x3fa00137	1.2500371
23	0x3f9c652e	1.2218378
24	0x3f81ebed	1.0150124
25	0x3f95edb2	1.1713164
26	0x3f8fba6b	1.1228765
27	0x3fa28c5e	1.2699087
28	0x3f935b62	1.1512263
29	0x3fa36071	1.2763807
30	0x3f8f47e2	1.1193812
31	0x3f9f797c	1.2458949
32	0x3fa4964f	1.285837
33	0x3f86aef3	1.052214
34	0x3f8c1545	1.0943991
35	0x3f9538c9	1.1657954
36	0x3fa246af	1.2677821
37	0x3f8cba57	1.0994366
38	0x3f97a136	1.1846073
39	0x3f9de789	1.2336284
40	0x3f90b6fe	1.1305845
41	0x3f8bbdd0	1.0917301
42	0x3f802362	1.0010798
43	0x3f9c07c6	1.2189872
44	0x3f932b63	1.1497616
45	0x3f9dc966	1.2327087
46	0x3f8c0694	1.0939507
47	0x3f993b2c	1.1971183
48	0x3f95ac10	1.1693134
49	0x3f85fa1b	1.0466951
50	0x3f97165f	1.1803702
51	0x3f9d9747	1.2311791
52	0x3f8c7ab6	1.0974948
53	0x3f8e8dae	1.1136987
54	0x3f8e320e	1.1109025
55	0x3fa8d738	1.319068
56	0x3f8b024f	1.086008
57	0x3f895f9e	1.0732305
58	0x3f9d1408	1.2271738
59	0x3fa24eb6	1.2680271
60	0x3f92f0d6	1.1479747
61	0x3f8bc196	1.0918453
62	0x3f90cf1b	1.1313204
63	0x3f93f425	1.1558882

head.norm.bias f4 [64]
0	0xbe582760	-0.2110877
1	0xbe2321b9	-0.15930833
2	0xbe102450	-0.14076352
3	0xbe38cc71	-0.18046738
4	0xbe6f5d98	-0.23375547
5	0xbe07faf6	-0.13279328
6	0xbdb5e206	-0.08881001
7	0xbe1a74bd	-0.15083595
8	0xbe0db82f	-0.13839792
9	0x3e00b7a7	0.12570058
10	0xbe1f946d	-0.15583964
11	0xbe4bd65f	-0.19905995
12	0xb9837348	-0.00025072158
13	0x3d15c7e6	0.03656759
14	0xbe121604	-0.14266211
15	0xbe5249fd	-0.20536037
16	0xbd40a1ff	-0.04702949
17	0x3d937e00	0.07201767
18	0xbcf6faaf	-0.030148832
19	0xbe815f5f	-0.25268075
20	0xbe28ae64	-0.16472775
21	0xbe2b297d	-0.16715045
22	0xbd40fdaf	-0.04711693
23	0x3c36556f	0.011128767
24	0xbe86fcf6	-0.2636487
25	0xbe0ad60f	-0.1355822
26	0xbe589e38	-0.21154106
27	0xbc4f881e	-0.01266673
28	0xbe692c07	-0.22770701
29	0xbe848f52	-0.25890595
30	0xbd8202bb	-0.06348177
31	0xbe1b8b50	-0.15189862
32	0xbe2aea58	-0.16690958
33	0xbe4b886f	-0.19876264
34	0xbe3cdaa2	-0.18442777
35	0x3d8e34e6	0.06943683
36	0xbe2db04b	-0.16961782
37	0xbe494a23	-0.19657187
38	0xbe2bca18	-0.16776311
39	0xbcbcabe8	-0.02303119
40	0xbe0c10da	-0.13678303
41	0xbda250ea	-0.079255894
42	0xbe983f19	-0.2973564
43	0xbd9c3986	-0.07628159
44	0xbe4aaae9	-0.1979176
45	0xbe1bd278	-0.15217006
46	0xbe35843d	-0.17726226
47	0xbe22c40a	-0.15895095
48	0xbdb32b94	-0.08748546
49	0xbe43db1a	-0.1912655
50	0xbe41cd3f	-0.18925951
51	0x3da602ed	0.08106027
52	0xbe54be60	-0.20775747
53	0xbe07dbfe	-0.13267514
54	0xbe07f6f7	-0.13277803
55	0xbd1819a8	-0.037133843
56	0xbe302a11	-0.17203547
57	0xbe845a26	-0.25850028
58	0xbcacd298	-0.021096513
59	0x3ce1d9bb	0.027569642
60	0xbe0f202d	-0.13977118
61	0xbe03d5a3	-0.12874465
62	0xbd0bc960	-0.034127593
63	0xbcc05b61	-0.023481073

head.norm.running_mean f4 [64]
0	0x3d65032f	0.05591124
1	0xbdd9511c	-0.106111735
2	0x3e83fdb8	0.2577951
3	0x3db82eaa	0.089932755
4	0x3d9fbb66	0.07799415
5	0xbe2ea0db	-0.17053549
6	0xbdb221c4	-0.086978465
7	0xbe58b174	-0.21161443
8	0xbe7b895d	-0.24564119
9	0x3ea07e77	0.31346485
10	0x3e1313eb	0.14363067
11	0x3e5c6d95	0.21526177
12	0x3e340343	0.17579369
13	0x3e9d806d	0.30762044
14	0xbea37660	-0.3192625
15	0x3e7e70bc	0.24847692
16	0x3e3be823	0.18350272
17	0xbe47c168	-0.19507372
18	0x3eb80161	0.35938552
19	0xbe971bd1	-0.2951341
20	0xbd9e936a	-0.07742961
21	0x3d6c45f2	0.057683893
22	0x3e29fe05	0.16600807
23	0xbe1d1a09	-0.15341963
24	0xbde2ff2a	-0.11083825
25	0x3e8306dc	0.2559117
26	0x3e500840	0.20315647
27	0x3eb0d194	0.34534895
28	0x3e2b34f8	0.16719425
29	0xbdc0a776	-0.09406941
30	0xbe8e11d3	-0.27747974
31	0x3d3f79e8	0.04674712
32	0x3e88377d	0.26604834
33	0xbdff0278	-0.12451643
34	0xbdcb2a85	-0.09920219
35	0x3e751d82	0.23937038
36	0x3d9c71ed	0.07638917
37	0x3e3ab760	0.18234015
38	0x3decbd79	0.115595765
39	0x3dba5df0	0.090999484
40	0x3e1eadef	0.15496038
41	0x3cbbaa8b	0.02290847
42	0x3dbd0246	0.09228949
43	0x3e8459ba	0.25849706
44	0x3d43c42b	0.047794502
45	0xbe1ea8ca	-0.15494075
46	0x3e31d378	0.17365825
47	0xbd065bc2	-0.03280235
48	0xbda86c34	-0.08223763
49	0xbe643f1c	-0.222897
50	0xbe19d427	-0.15022336
51	0xbde80135	-0.11328355
52	0xbe5c6302	-0.21522143
53	0x3e1987e9	0.14993252
54	0x3e2c85b6	0.16847882
55	0x3e640332	0.22266844
56	0xbe7cd694	-0.2469123
57	0x3dbb9c67	0.09160691
58	0x3d7c8028	0.061645657
59	0x3e7be808	0.24600232
60	0x3d09a21e	0.033601873
61	0x3e055121	0.1301923
62	0xbe83fdd5	-0.25779596
63	0x3e787fe6	0.2426754

head.norm.running_var f4 [64]
0	0x3ada7e23	0.0016669672
1	0x3ace003c	0.0015716623
2	0x3b33245b	0.0027334902
3	0x3ac8eede	0.0015329977
4	0x3b5a54a4	0.003331461
5	0x3aaf9328	0.0013395296
6	0x3ab6d590	0.0013949145
7	0x3b935284	0.0044959206
8	0x3b393ffd	0.00282669
9	0x3c5f6791	0.013635532
10	0x3b2a4697	0.0025982016
11	0x3aa85264	0.0012841937
12	0x3b0d5aeb	0.0021569084
13	0x3bb94b8a	0.005654757
14	0x3a9750f1	0.0011544508
15	0x3b898e59	0.0041978774
16	0x3b1a7fa9	0.0023574627
17	0x3bc4fff7	0.0060119587
18	0x3bc05d15	0.0058704712
19	0x3b2325d2	0.0024894369
20	0x3b3286d5	0.002724101
21	0x3bbb66e4	0.0057190526
22	0x3b824c8b	0.00397641
23	0x3b2190c5	0.002465294
24	0x3bb83048	0.00562099
25	0x3bf0ac56	0.007344763
26	0x3b04f4f0	0.0020287596
27	0x3b3550f7	0.0027666667
28	0x3b3d47b6	0.0028881854
29	0x39d12b7a	0.0003989598
30	0x3bbb180b	0.0057096533
31	0x3aff5055	0.0019478897
32	0x3a9b97eb	0.0011870837
33	0x3b26dd1a	0.0025461377
34	0x3ba40141	0.0050050323
35	0x3c122473	0.008919823
36	0x3ae9560d	0.0017802134
37	0x3c6ae16c	0.014335971
38	0x3bacd6c9	0.005274628
39	0x3a99bdf8	0.0011729589
40	0x3aa07d1c	0.0012244317
41	0x3b838e72	0.0040147835
42	0x3b389b13	0.0028168603
43	0x3b300ef1	0.0026864375
44	0x3b533147	0.0032225417
45	0x3ae6cd89	0.0017608862
46	0x3b0a2969	0.0021081811
47	0x3aeef929	0.0018232214
48	0x3b3cc850	0.002880592
49	0x3b6a67e4	0.003576749
50	0x3ace2996	0.0015728946
51	0x3b44db89	0.003003808
52	0x3b096e5e	0.0020970325
53	0x3ada4f13	0.0016655646
54	0x3a93223c	0.0011225413
55	0x3b0aec01	0.0021197798
56	0x3b7babd8	0.0038401987
57	0x3b8a640f	0.0042233537
58	0x3a92ca29	0.0011199164
59	0x3bf6a6cb	0.0075272075
60	0x3a889b04	0.0010422175
61	0x3ac81aa3	0.0015266727
62	0x3c33bb70	0.010969982
63	0x3ae185ef	0.0017206053

body.block1.conv.weight f4 [64, 64, 3, 3]
0	0x3c72a9cd	0.0148109915
1	0xbd20a114	-0.039216116
2	0xbc93d87e	-0.018047567
3	0x3c3f6499	0.011681699
4	0x3c9d0de3	0.01917166
5	0x3d868da2	0.06569983
6	0x3d441e56	0.047880493
7	0x3c477452	0.012173729
8	0xbcbfa9fc	-0.023396485
9	0xbdd82165	-0.105532445
10	0xbd264542	-0.040593393
11	0x3c4d0440	0.01251322
12	0xbd21e2a4	-0.039522782
13	0xbcbd6530	-0.023119539
14	0x3d050560	0.03247583
15	0xbd82e2d0	-0.06390917
16	0xbbfac221	-0.0076525365
17	0xbc2b18d8	-0.010442935
18	0xbd78d38f	-0.060748633
19	0xbcb5cf3e	-0.022193547
20	0x3d438dce	0.047742657
21	0xbc08496b	-0.008318285
22	0xbb99b401	-0.0046906476
23	0xbcf45297	-0.029824538
24	0xb907066b	-0.00012876994
25	0x3cc252b2	0.023721073
26	0x3cfeb211	0.031090768
27	0x3d98d7b9	0.07463021
28	0xbbc1be3e	-0.005912571
29	0xbced4586	-0.028963815
30	0x3d75111b	0.059830766
31	0x3ba761ce	0.005108095
32	0xbcaac479	-0.020845639
33	0x3c6a20f4	0.014290083
34	0x3c90c410	0.017671615
35	0x3d963045	0.073334254
36	0xbce537c4	-0.027980693
37	0xbc1e96bb	-0.009679492
38	0x3bf2026d	0.007385543
39	0xbd769604	-0.06020166
40	0xbc401869	-0.01172457
41	0xbc6edcfd	-0.014579055
42	0x3c4eafcf	0.012615158
43	0xbc07c92a	-0.008287707
44	0xbbb8bf93	-0.005638072
45	0x3d139fc6	0.036041044
46	0x3d70fa32	0.058832355
47	0xbd42194e	-0.047387414
48	0xbce1655b	-0.02751415
49	0x3cf8250e	0.030291107
50	0xbd3e9a10	-0.046533644
51	0xbd2fe7cd	-0.04294567
52	0x3ccf2307	0.025285257
53	0xbcf8ce5b	-0.030371835
54	0x3d08ecb3	0.03342886
55	0x3d86f965	0.06590537
56	0x3d634e76	0.055494748
57	0x3d59505b	0.05305515
58	0xbcd6f756	-0.026240986
59	0xbcd63e5e	-0.026152786
60	0xbdb9cafe	-0.09071921
61	0xbd697a12	-0.05700118
62	0xbbda9c2d	-0.0066714496
63	0xbcc1f06b	-0.02367421
64	0x3caf272c	0.021380983
65	0x3c9c47dc	0.019077234
66	0xbdd3dddf	-0.10345053
67	0xbd9fe600	-0.07807541
68	0xbd3c4354	-0.045962647
69	0x3d031144	0.031998888
70	0x3d32c258	0.043642372
71	0xbd0c3bcf	-0.034236725
72	0x3d0c2f0e	0.034224562
73	0xbd138983	-0.036019813
74	0xbcef327d	-0.02919888
75	0x3da3de2d	0.08001361
76	0x3c57b5e0	0.013165921
77	0xbd1e0580	-0.038579464
78	0xbcc54944	-0.024082787
79	0x3c71818e	0.014740361
80	0x3d256239	0.040376876
81	0xbd50c1ee	-0.050966196
82	0xbcb4a873	-0.02205298
83	0x3c6bf1e0	0.014400929
84	0xbd862279	-0.06549544
85	0xbd319655	-0.04335626
86	0x3cf650e3	0.030067867
87	0xbdc6e871	-0.097123034
88	0xbdb6b19c	-0.08920595
89	0xbd06dc64	-0.032925025
90	0xbd5c6889	-0.05381063
91	0xbb0458f7	-0.0020194629
92	0x3ce8814c	0.028381966
93	0xbcea6469	-0.028612332
94	0xba91aa0d	-0.0011113301
95	0x3b1b9e69	0.0023745543
96	0xbcc86bb2	-0.024465416
97	0x3c99ca11	0.01877311
98	0xbd7a24eb	-0.061070364
99	0xbd9aff13	-0.07568183
100	0xbd956d27	-0.0729621
101	0xbd6c9042	-0.057754762
102	0x3b14bf16	0.0022696904
103	0xbd0f41a8	-0.034974724
104	0xbcd153b5	-0.02555261
105	0xbc74d749	-0.014943906
106	0xbb632de0	-0.0034664795
107	0x3d4a3234	0.049364284
108	0xbb6c8f69	-0.0036096221
109	0xbd99e88f	-0.0751506
110	0xbd63e769	-0.05564061
111	0x3ac73e44	0.0015201052
112	0x3c06d43f	0.008229314
113	0x3d8c9800	0.06864929
114	0xbd5604e5	-0.05225076
115	0x3c40ae97	0.011760375
116	0x3cd6d58e	0.026224878
117	0xbcc5a282	-0.024125341
118	0x3b9b00bd	0.0047303126
119	0xbca3ef10	-0.020011455
120	0xbd8a526c	-0.06754002
121	0xbd252547	-0.040318754
122	0xbd1cdb99	-0.038295362
123	0xbe0f2446	-0.13978681
124	0xbda43cce	-0.0801941
125	0xbd629d96	-0.055326067
126	0xbce72b83	-0.02821899
127	0xbdc221d9	-0.09479112
128	0xbd83a380	-0.064276695
129	0xbd56c301	-0.052432064
130	0xbcdcd990	-0.02695921
131	0x3b999479	0.004686889
132	0xbd8cc8b8	-0.068742216
133	0xbd40d397	-0.047076788
134	0xbcc7223f	-0.024308322
135	0x3b83ddc9	0.0040242416
136	0xbd225856	-0.039635025
137	0xbd15fa7c	-0.036615834
138	0x3cb7fd49	0.022459643
139	0xbcbeb34f	-0.02327886
140	0xbcb0e535	-0.02159367
141	0xbd1097d3	-0.03530104
142	0xbbc5a88c	-0.0060320552
143	0x3d6c31c9	0.057664666
144	0xbd1ce0e7	-0.03830042
145	0xbdd8183d	-0.10551498
146	0xbd0c4756	-0.03424772
147	0xbc20d306	-0.009815937
148	0xbcb5b482	-0.0221808
149	0x3c0aa118	0.008461259
150	0xbd7df2f8	-0.06199929
151	0xbb68de79	-0.0035532995
152	0x3d44b239	0.04802153
153	0xbdc51597	-0.096232586
154	0xbd89df79	-0.06732077
155	0xbd9a14fb	-0.07523533
156	0xbd93bdff	-0.07213973
157	0x3b898a6f	0.004197411
158	0x3d8cea3b	0.068806134
159	0xbd72be8b	-0.059263747
160	0xbca7672e	-0.020434942
161	0x3c9ed066	0.019386481
162	0xbca679fc	-0.020321839
163	0x3cc60633	0.024172878
164	0x3caae383	0.02086044
165	0xbd1b22c1	-0.03787494
166	0x3c968b6a	0.018377025
167	0x3d8d0e46	0.06887488
168	0xbdbe20be	-0.09283589
169	0xbdba0e55	-0.09084765
170	0xbcb57cbb	-0.022154203
171	0x3cc7647f	0.024339912
172	0xbdd615df	-0.1045339
173	0x3ce5b30f	0.028039483
174	0xbcdbaf66	-0.026817035
175	0xbd11c222	-0.03558553
176	0x3d126c11	0.03574759
177	0x3d1f3196	0.03886565
178	0x3dbafc85	0.091301955
179	0x3d529615	0.05141266
180	0xbd2b8d35	-0.041882712
181	0xbc6aa01e	-0.0143204015
182	0xbd92b62e	-0.07163654
183	0xbd8bea66	-0.06831817
184	0xbd29ef5e	-0.041488044
185	0x3be3ea54	0.0069554243
186	0x3d4300a5	0.047608037
187	0x3d4601ef	0.048341688
188	0x3c878194	0.01654128
189	0xbd27a51e	-0.040928952
190	0xbd44eaf6	-0.04807564
191	0x3d0edf0d	0.034880687
192	0xbdb40b86	-0.087912604
193	0xbd647459	-0.05577502
194	0x3bed9b0c	0.007251149
195	0xbd804e92	-0.06264986
196	0xbcac46e0	-0.02102989
197	0xbdab5bd8	-0.08367127
198	0xbd00a8a0	-0.031410813
199	0xbd8059ec	-0.06267151
200	0xbbd0dbb6	-0.006373848
201	0x3cf16c69	0.02947064
202	0x3d51d29d	0.051226247
203	0x3df9a47b	0.12189575
204	0x3c843fae	0.016143646
205	0x3cf8de54	0.030379452
206	0x3c2ce5ce	0.010552837
207	0xbdf5d8d0	-0.12004244
208	0xbdce2939	-0.10066456
209	0xbcb9797d	-0.022640938
210	0x3b3c6415	0.0028746177
211	0x3d8493d1	0.06473506
212	0x3cbb2ad5	0.022847572
213	0xbd2286dc	-0.039679393
214	0x3cb0c593	0.021578586
215	0xbd94ffee	-0.07275377
216	0xbd81e9ac	-0.063433975
217	0xbd82b023	-0.06381252
218	0xbc5568b4	-0.013025451
219	0xbcf50773	-0.029910779
220	0xbc7436c9	-0.01490564
221	0x3d0a3496	0.033741556
222	0x3c12a58f	0.008950605
223	0xbcc83461	-0.024439039
224	0x3ce91a7b	0.02845501
225	0x3bcd0a11	0.0062573035
226	0x3c4c861d	0.012483147
227	0x3d00ed56	0.03147634
228	0xbc353e29	-0.011062183
229	0xbc220afb	-0.009890313
230	0x3d3b8aa4	0.045786515
231	0x3ccc2e65	0.024924466
232	0xbbd898de	-0.00661002
233	0x3bd455a0	0.006479934
234	0x3ce989c4	0.028508075
235	0x3ca37fac	0.01995834
236	0x3cf1ce93	0.029517448
237	0xbd9241b2	-0.07141437
238	0xbd75d4dc	-0.06001745
239	0xbc7b6c44	-0.015345637
240	0xbdadcdb3	-0.084865
241	0xbca97beb	-0.020688972
242	0x3c28b2b1	0.01029651
243	0x3c559326	0.013035571
244	0x3d7b6d67	0.06138363
245	0x3bf31fcc	0.007419562
246	0xbb949774	-0.004534656
247	0x3d36ecde	0.044659488
248	0x3d1c25b2	0.038121887
249	0x3c775002	0.015094759
250	0xbbf3ef3c	-0.0074442904
251	0x3cf7762b	0.030207714
252	0xbb49d9d2	-0.0030799997
253	0xbd65cab5	-0.05610152
254	0xbd1f28c1	-0.038857225
255	0x3d25cf88	0.04048112

body.block1.conv.bias f4 [64]
0	0xbc5179b9	-0.012785369
1	0x3cc6d20f	0.024270086
2	0xbd1a7604	-0.037710205
3	0xbc6dcc6d	-0.014514071
4	0xbc269af3	-0.010168779
5	0x3ce39a60	0.027783573
6	0x3d187238	0.037218302
7	0x3d23efe8	0.040023714
8	0x3bac11f9	0.005251166
9	0x3d252308	0.04031661
10	0xbbf2b6f7	-0.007407065
11	0xbcf1d4ef	-0.02952048
12	0x3d0a64f0	0.033787668
13	0xbd13c5a7	-0.036077168
14	0xbcd4fd2a	-0.025999624
15	0x3d1058be	0.03524088
16	0x3cb61241	0.022225501
17	0x3c465ce1	0.012107105
18	0xbcac9ad5	-0.021069923
19	0xbc664ad1	-0.014055924
20	0x3d1521cd	0.036409188
21	0x3ca4f800	0.020137787
22	0xbba366e1	-0.0049866294
23	0xbd1a76f0	-0.037711084
24	0x3c895c44	0.016767628
25	0x3d2795fc	0.04091452
26	0xbcb5c1d6	-0.022187155
27	0xbc8c4842	-0.017124299
28	0x3b2284c8	0.0024798382
29	0xbc8fe799	-0.017566489
30	0xbd09afec	-0.033615038
31	0x3b28fc2e	0.0025785076
32	0xbc8ee212	-0.017441783
33	0x3cff33ca	0.031152625
34	0x3ca31737	0.01990853
35	0x3bc8d3b8	0.0061287545
36	0x3c99b273	0.018761849
37	0x3a3660b6	0.000695716
38	0xbd100002	-0.035156257
39	0xbb26f841	-0.002547756
40	0x3d1a7b35	0.037715156
41	0x3cf32f66	0.029685687
42	0xbc118e1f	-0.008883982
43	0x3af53468	0.0018707635
44	0xbd0916d9	-0.033469055
45	0xbbd11197	-0.0063802707
46	0x3cf245e2	0.029574338
47	0x3cc756ca	0.024333376
48	0xbb04b64c	-0.002025026
49	0x3ca62164	0.020279594
50	0xbcd8ccbb	-0.02646481
51	0xbcaa58b3	-0.020794248
52	0x3c4dae8e	0.012553824
53	0xbd21f564	-0.039540663
54	0xbd1eba4f	-0.038751896
55	0xbc87d326	-0.016580176
56	0xbb35c18e	-0.0027733776
57	0xbcc58647	-0.02411188
58	0xbccdbc16	-0.0251141
59	0x3d1172a9	0.03550974
60	0x3cd7e7c1	0.026355626
61	0xbc8b4fc1	-0.017005803
62	0xbd0d1053	-0.034439396
63	0x3c4ebdff	0.012618541

body.block1.norm.weight f4 [64]
0	0x3fa32cb7	1.2748021
1	0x3f93793e	1.1521375
2	0x3f9930e1	1.1968042
3	0x3f9c01fd	1.2188107
4	0x3f9ba6f8	1.216033
5	0x3f9e975b	1.238994
6	0x3f98c4e6	1.1935089
7	0x3f9a50b2	1.2055876
8	0x3f9c7377	1.2222737
9	0x3f9ba022	1.2158244
10	0x3f9aae2a	1.2084401
11	0x3f9ce02a	1.225591
12	0x3f85ad15	1.0443445
13	0x3f9565b2	1.167166
14	0x3f91e7e2	1.139889
15	0x3f92f011	1.1479512
16	0x3f8ef083	1.1167148
17	0x3f81c68f	1.013872
18	0x3f9d2b86	1.2278907
19	0x3f95f026	1.1713912
20	0x3f935363	1.1509823
21	0x3f9e8f48	1.2387476
22	0x3f8eec42	1.116585
23	0x3f9ab184	1.2085423
24	0x3f926ec5	1.1440054
25	0x3f8c383d	1.0954663
26	0x3f984eff	1.1899108
27	0x3f981eeb	1.1884435
28	0x3f92ea4a	1.1477749
29	0x3f8c2b9d	1.095081
30	0x3f98b6b4	1.1930757
31	0x3f93d5ca	1.1549618
32	0x3f8f4d6c	1.1195502
33	0x3f9220bd	1.1416241
34	0x3f998e49	1.1996547
35	0x3f892ae2	1.0716212
36	0x3fa0a940	1.2551651
37	0x3f94d6de	1.1628072
38	0x3f9786d3	1.183802
39	0x3f9c5bdb	1.2215532
40	0x3f91e3c6	1.1397636
41	0x3f9c5491	1.2213308
42	0x3f8efd8f	1.117113
43	0x3f8c7bd5	1.097529
44	0x3f99a7fb	1.2004389
45	0x3f908f13	1.1293663
46	0x3f9c4942	1.2209857
47	0x3f9bbf80	1.2167816
48	0x3fa06eb3	1.2533783
49	0x3f99d48d	1.201799
50	0x3f970ef7	1.1801442
51	0x3f8bc4dd	1.0919453
52	0x3f94ea6e	1.1634042
53	0x3fa1a833	1.2629455
54	0x3f9740be	1.1816633
55	0x3f9ffdf2	1.2499373
56	0x3f94fdf2	1.1639998
57	0x3fabc6e1	1.3420068
58	0x3f9d9a30	1.2312679
59	0x3f9cda5c	1.2254138
60	0x3f9267f8	1.1437979
61	0x3f94a3a6	1.1612442
62	0x3f9d0446	1.2266929
63	0x3f9b702a	1.2143605

body.block1.norm.bias f4 [64]
0	0xbd90a755	-0.07063166
1	0xbeb1f9da	-0.34760934
2	0xbe2efa00	-0.17087555
3	0xbe3fb86c	-0.18722695
4	0xbe1871ec	-0.14887208
5	0xbea38de3	-0.31944188
6	0x3cf89ea6	0.030349087
7	0xbda60a2e	-0.0810741
8	0xbde5106c	-0.11184773
9	0xbe16edec	-0.14739197
10	0xbd6b4a00	-0.05744362
11	0xbd4abb4d	-0.04949503
12	0xbe428588	-0.1899625
13	0xbe8e7573	-0.27823982
14	0xbd7cd568	-0.061726958
15	0xbe05cfc6	-0.1306754
16	0xbe92d579	-0.28678492
17	0xbe8d0e05	-0.2754976
18	0xbd147b9e	-0.036250703
19	0xbcd09606	-0.025462162
20	0xbe5584e6	-0.20851478
21	0xbe315494	-0.1731742
22	0xbe94c63d	-0.29057494
23	0xbdd5e9fa	-0.10445018
24	0xbe135acc	-0.14390105
25	0xbe360ffa	-0.17779532
26	0x3e215f61	0.1575904
27	0xbe38a434	-0.18031389
28	0xbe4c36e9	-0.19942822
29	0xbe7dcd8e	-0.24785444
30	0xbea0d491	-0.31412175
31	0xbea5e5df	-0.3240194
32	0xbdb9a8de	-0.09065412
33	0xbe398693	-0.18117742
34	0xbe3e7983	-0.1860104
35	0xbe659fc3	-0.22424226
36	0xbcf498b1	-0.029857965
37	0xbe74c571	-0.23903443
38	0x3dc0f2a7	0.09421282
39	0xbddaab75	-0.10677234
40	0xbdfd6730	-0.12373197
41	0xbd1c5e28	-0.038175732
42	0xbdf469c8	-0.11934239
43	0xbe090189	-0.13379492
44	0xbbbc2c93	-0.0057426183
45	0xbe936e24	-0.28794968
46	0xbbe6ca10	-0.0070431307
47	0xbe823040	-0.25427437
48	0xbc84e432	-0.016222093
49	0x3e0d9cef	0.13829397
50	0xbe5d1a52	-0.21592072
51	0xbe89f9d9	-0.2694843
52	0xbe2f17d9	-0.17098941
53	0xbce0d95f	-0.0274474
54	0x3d85090a	0.06495865
55	0xbdf9cca4	-0.12197235
56	0x3e258aaf	0.16166185
57	0xbe5a4aee	-0.21317646
58	0xbdbbd25d	-0.09170983
59	0x3b6dcfc9	0.003628718
60	0xbdce7341	-0.10080577
61	0xbeae4ea0	-0.3404436
62	0xbe78560b	-0.24251573
63	0xbe0bc32a	-0.13648668

body.block1.norm.running_mean f4 [64]
0	0xbfc2e49f	-1.522602
1	0x3f8a2f21	1.0795633
2	0xbef2f7cc	-0.4745468
3	0xbf03101d	-0.5119646
4	0x3f2b0b0f	0.6681375
5	0xbd362bda	-0.044475414
6	0xbf4bd018	-0.796144
7	0xbf4d2b53	-0.8014423
8	0xbf7ff50c	-0.99983287
9	0x3f398e64	0.72482896
10	0xbfb12551	-1.3839513
11	0xbffaaff7	-1.958495
12	0x3f66f45e	0.90216625
13	0x40172292	2.361485
14	0x3fc2cd44	1.5218892
15	0x3f360d03	0.71113604
16	0x3f37e25a	0.7182976
17	0x3fa629f9	1.2981559
18	0x3d721e4a	0.059110917
19	0xc002fa4d	-2.0465271
20	0x3e1af33f	0.15131854
21	0x400fd652	2.247456
22	0x3f313f22	0.6923696
23	0xbe0b670e	-0.13613531
24	0xbeedf6b0	-0.4647727
25	0xbe9328ed	-0.2874216
26	0xbfaf32ae	-1.3687341
27	0xbe1e86bb	-0.15481083
28	0x3f137799	0.57604367
29	0x3f1cf075	0.6130441
30	0xbf38003f	-0.71875376
31	0x3eb3b8bc	0.3510188
32	0x3f14876a	0.58019125
33	0x3ed44748	0.41460633
34	0xbf9dab2d	-1.2317864
35	0x3f90f8f0	1.132597
36	0xbef5d639	-0.48015
37	0x3f1e2197	0.61770004
38	0xbf6c7165	-0.92360526
39	0xbf82843d	-1.0196606
40	0x3ec8203d	0.39087096
41	0xbf24a360	-0.6431179
42	0x3ea2cb0a	0.31795532
43	0x3f95a866	1.1692016
44	0xbfa4a528	-1.2862902
45	0xbef00e62	-0.46885973
46	0x3f35ac3b	0.7096593
47	0x3f61d818	0.8822036
48	0xbfc898e1	-1.5671655
49	0xc00161b0	-2.0215874
50	0xbfbe0ae8	-1.4847078
51	0x3f461001	0.7736817
52	0x3fc575af	1.5426539
53	0x3dc574c9	0.096414156
54	0xbfb55860	-1.4167595
55	0x3f83c9c6	1.0295951
56	0xc04ba90a	-3.1821923
57	0xbf077588	-0.52913713
58	0xbec7fb2b	-0.39058813
59	0xbf8fde2f	-1.123968
60	0x3fa4b3b4	1.2867341
61	0xbf04b61b	-0.5184037
62	0xbf8917cc	-1.0710387
63	0x3e3547a4	0.1770311

body.block1.norm.running_var f4 [64]
0	0x3fbcdfc3	1.4755787
1	0x3ff695a1	1.9264413
2	0x3f8f4cd5	1.1195322
3	0x3f970afd	1.1800228
4	0x3f88de7c	1.0692897
5	0x3f8e3b0e	1.1111772
6	0x3fba6295	1.4561335
7	0x3f524bba	0.821468
8	0x3f8e099f	1.1096686
9	0x3f968524	1.1759381
10	0x3f7573e9	0.9587999
11	0x3f88f710	1.0700397
12	0x3f9613d3	1.17248
13	0x3fe09fc8	1.7548761
14	0x4024245f	2.56472
15	0x3fd7ceaa	1.6859944
16	0x3fa31af1	1.2742597
17	0x3fd5ac3d	1.6693188
18	0x3fbf184e	1.4929292
19	0x3ff7c7ae	1.9357812
20	0x3f43533a	0.7629887
21	0x3ff7f114	1.9370446
22	0x3f39ee44	0.7262919
23	0x3f9f2fc1	1.2436448
24	0x3f34e05b	0.7065484
25	0x3f93a25c	1.1533923
26	0x40098d0d	2.149234
27	0x3f8eaa41	1.1145707
28	0x3f65789b	0.89637154
29	0x3f93101c	1.1489291
30	0x3f3e2a6e	0.7428349
31	0x3f7edff3	0.9956047
32	0x3f561b7f	0.83635706
33	0x3f961ac5	1.172692
34	0x3f4c833b	0.7988774
35	0x3fa50ea8	1.2895098
36	0x3f7ccfc8	0.9875455
37	0x3f97971f	1.1842993
38	0x3fea7723	1.8317608
39	0x3f858184	1.043015
40	0x3fc2ee34	1.5228944
41	0x3f8535d5	1.0407053
42	0x3fccd5c5	1.6002737
43	0x3fffa993	1.9973625
44	0x3f8592d7	1.0435437
45	0x3f976bec	1.182981
46	0x3f82047e	1.0157621
47	0x3fa51a52	1.2898657
48	0x3f9a116f	1.203657
49	0x400b5aa7	2.177408
50	0x3f809dd5	1.0048167
51	0x3f35b795	0.7098325
52	0x3fa0dac5	1.2566763
53	0x3f1c1d99	0.6098266
54	0x401d9f55	2.4628499
55	0x3f9443d7	1.1583203
56	0x408a3e3f	4.3200984
57	0x3f1c7968	0.6112275
58	0x3f1b9059	0.6076713
59	0x3fce40d1	1.611353
60	0x3ff7dd0d	1.9364334
61	0x3f67e5e4	0.9058516
62	0x3f61abb8	0.88152647
63	0x3f2b21c6	0.6684841

body.block2.conv.weight f4 [64, 64, 3, 3]
0	0xbd4ea768	-0.05045262
1	0xbd887dd2	-0.06664623
2	0x3cb4a276	0.022050124
3	0xbc91ea85	-0.017812023
4	0xbbd9f9d9	-0.0066520986
5	0xbda65f05	-0.08123592
6	0xbc826b40	-0.015920281
7	0xbd1164dd	-0.03549658
8	0xbdf5b5bf	-0.11997556
9	0xbce5f48e	-0.028070714
10	0xbc92f8e7	-0.017940952
11	0xbd507d54	-0.050900772
12	0xbd09a103	-0.03360082
13	0xbb2499a5	-0.0025115993
14	0xbdba1e66	-0.09087829
15	0xbd811ac4	-0.06303933
16	0xbd8eba88	-0.06969172
17	0xbd3319d2	-0.043725796
18	0x3cc65b18	0.024213359
19	0x3c3b114d	0.011417699
20	0x3d185d0f	0.037198123
21	0xbc2fc3aa	-0.010727802
22	0xbc6f7e67	-0.014617539
23	0xbae16e56	-0.001719902
24	0x3b4ae2a3	0.003095784
25	0xbd889633	-0.06669273
26	0xbdce5f5b	-0.10076781
27	0xbd01fcf4	-0.031735376
28	0xbbbd6262	-0.0057795504
29	0x3d48c0e7	0.04901209
30	0xbd72b5d9	-0.059255455
31	0xbde582dd	-0.11206601
32	0xbc241cd1	-0.010016636
33	0xbd3ceb20	-0.04612267
34	0xbcb576b0	-0.022151321
35	0x3d181fa6	0.037139557
36	0x3afabf94	0.0019130581
37	0x3d5c4f2b	0.053786438
38	0x395ee487	0.00021256703
39	0x3d27aea5	0.04093804
40	0xbb63a5fc	-0.0034736386
41	0xbdcede53	-0.10100999
42	0x3a96ec22	0.0011514465
43	0xbd22b6df	-0.03972518
44	0x3c8efa2e	0.01745328
45	0xbd8b1c9f	-0.067925684
46	0xbdbfb09d	-0.09359858
47	0xbdc24d32	-0.0948738
48	0xbd3320f8	-0.043732613
49	0xbc2ffbf1	-0.01074122
50	0xbd47d033	-0.04878254
51	0xbb2b8142	-0.0026169573
52	0xb92692d9	-0.00015885699
53	0xbc6d257d	-0.01447427
54	0xbcf839e6	-0.030301046
55	0x3c2a73b6	0.010403564
56	0xbccd334f	-0.02504888
57	0x3d187a25	0.03722586
58	0x3d0d4422	0.034488805
59	0xbbcba44d	-0.0062146545
60	0xbcc410f9	-0.023933874
61	0x3d0c6cb3	0.03428335
62	0xbd0efa17	-0.034906473
63	0x3d3d4ac1	0.04621387
64	0x3dafb775	0.085799135
65	0xbd377dd4	-0.044797733
66	0xbd6a8110	-0.05725199
67	0xbcd12774	-0.025531508
68	0xbd98b5b4	-0.07456532
69	0x3d1a3c9f	0.03765547
70	0x3d0e6860	0.03476751
71	0xbd514896	-0.051094614
72	0xbca78850	-0.020450741
73	0xbd138576	-0.03601595
74	0xbc6fc22b	-0.014633696
75	0x3c5e048b	0.013550888
76	0x3d2e64ef	0.042576727
77	0xbc9eb720	-0.01937443
78	0x3d31e956	0.043435417
79	0x3ba2a0f8	0.0049630366
80	0xbc9abd41	-0.018889071
81	0xbd08194a	-0.033227243
82	0xbc8347ab	-0.016025385
83	0xbd21d66c	-0.03951113
84	0x3cf6414b	0.030060431
85	0x3b7bd4a8	0.0038426314
86	0xbc176aa3	-0.009241733
87	0x3c00ec7b	0.007868881
88	0x3a96a139	0.001149214
89	0x3d9bcdb7	0.07607596
90	0xbb3cf9e5	-0.0028835472
91	0x3d25fe19	0.04052553
92	0xbd8182ee	-0.06323801
93	0xbbe6f5d6	-0.007048349
94	0xbd3c77e5	-0.046012778
95	0xbc94742c	-0.018121801
96	0x3c9de5b3	0.019274568
97	0xbc6a5b42	-0.014303984
98	0x3cef8c52	0.029241715
99	0xbcb90f78	-0.022590384
100	0xbcf73db9	-0.030180799
101	0x3df2d44d	0.118568994
102	0xbdd4524d	-0.1036726
103	0x3c849629	0.016184883
104	0x3d9ba3cb	0.075996004
105	0x3c7b4550	0.01533635
106	0xbd3db60a	-0.046316184
107	0x3d9d40a7	0.07678347
108	0x3d9a8bb9	0.07546181
109	0x3ce798b4	0.028271057
110	0xbd4c51a9	-0.049882565
111	0xbd0e9ea7	-0.03481927
112	0xbcb11654	-0.021617092
113	0xbce07214	-0.027398147
114	0xbd0797b6	-0.033103667
115	0x3b14d242	0.0022708331
116	0x3cc2bb02	0.023770813
117	0x3d1c9197	0.038224783
118	0xbd7d9d04	-0.06191732
119	0x3c5b94dd	0.013402191
120	0xbd2b23be	-0.041782133
121	0x37e9189f	2.778723e-05
122	0x3d4988b4	0.049202636
123	0x3d12ce7a	0.035841443
124	0x3d56ceda	0.052443363
125	0x3dc56e29	0.09640152
126	0x3b930560	0.0044867247
127	0xbd9314ca	-0.071816996
128	0xbd9879b6	-0.074450895
129	0xbcac8faf	-0.021064607
130	0xbbadde68	-0.005306054
131	0x3cd4449b	0.02591162
132	0xbb8b5a6b	-0.004252722
133	0xbc0edf92	-0.0087202955
134	0xbd17b7c1	-0.037040476
135	0x3d64fa07	0.055902507
136	0xbccce810	-0.025013
137	0x3d5aaa3c	0.053385004
138	0x3cca91b9	0.02472769
139	0x3d99f9b4	0.0751833
140	0x3d52977f	0.05141401
141	0xbcb8d655	-0.022563139
142	0x3b89ce86	0.0042055277
143	0xbc09a9a6	-0.008402264
144	0x3d8b1e57	0.06792896
145	0xbd14159c	-0.03615342
146	0xbcba1fa8	-0.022720173
147	0x3d495c59	0.049160335
148	0x3ce740b0	0.028229088
149	0x3c78e785	0.015191917
150	0x3c82c199	0.015961455
151	0xbbc10d8a	-0.0058915066
152	0xbd1c6c03	-0.038188946
153	0x3d1e29ab	0.038613956
154	0xbd118dc3	-0.035535585
155	0x3d136ca3	0.035992276
156	0xbc58d6c7	-0.013234801
157	0xbcaccd27	-0.021093918
158	0x3a17e597	0.00057944044
159	0xbd075eef	-0.03304952
160	0xbd0870af	-0.03331059
161	0x3d10c7bc	0.03534673
162	0xbc9dea98	-0.019276902
163	0xbc8887c2	-0.016666297
164	0xbc2882e4	-0.010285113
165	0x3baef000	0.005338669
166	0x3d31fbe4	0.043453112
167	0xbd27a486	-0.040928386
168	0x3d897c02	0.06713106
169	0x3cdd715d	0.027031595
170	0xbd84cd42	-0.06484462
171	0xbd5d0b86	-0.053966068
172	0xbd34b058	-0.044113487
173	0xbdb2d833	-0.08732643
174	0xbc7915d8	-0.015202962
175	0x3c7ac619	0.015306019
176	0xbc6d6669	-0.0144897485
177	0x3d656f95	0.056014616
178	0x3d68e963	0.0568632
179	0x3ccdec19	0.025136994
180	0xbc37c238	-0.011215739
181	0x3d9360aa	0.071961716
182	0x3d642924	0.055703297
183	0xbdebcc4d	-0.11513577
184	0xba8283df	-0.0009957514
185	0x3de44df2	0.111476794
186	0xbd4b1af1	-0.04958624
187	0x3d063bf5	0.032772023
188	0x3cfd0b36	0.030889135
189	0xbd707a9a	-0.058710672
190	0xbda0c914	-0.078508526
191	0xbdc05bba	-0.093924955
192	0x3bedce52	0.0072572613
193	0xbd5b932d	-0.053607155
194	0x3cd8bec2	0.026458148
195	0xbd0a6784	-0.033790126
196	0xbda09a3f	-0.0784192
197	0x3c988c37	0.018621547
198	0xbda44d22	-0.080225244
199	0x3cc6fc60	0.024290264
200	0x3d497adc	0.049189433
201	0xbc928557	-0.017885847
202	0x3d9dbf89	0.07702548
203	0xbaad4ec5	-0.0013222328
204	0xbd958610	-0.07300961
205	0xbcbb1314	-0.022836246
206	0xbb9d6543	-0.004803331
207	0x3caeaad4	0.021321692
208	0x3d62330d	0.055224467
209	0xbc0421f8	-0.008064739
210	0xbd39726d	-0.04527514
211	0xbb6bf350	-0.003600318
212	0xbd201b0b	-0.03908829
213	0xbca943b9	-0.020662175
214	0x3ca3d91f	0.020000992
215	0x3d798f84	0.060927883
216	0x3d00f2c2	0.031481512
217	0x3d1703a0	0.03686869
218	0x3c964003	0.01834107
219	0xb9da6fef	-0.00041663597
220	0xbbb70dcc	-0.0055863615
221	0x3d53b980	0.05169058
222	0x3d182ee2	0.037154086
223	0x3d2b6bbd	0.041850794
224	0xbc9562d5	-0.018235603
225	0xbda1a168	-0.07892114
226	0xbd081c59	-0.03323016
227	0x3af50660	0.0018693916
228	0xbd2953f5	-0.041339833
229	0x3cb47709	0.022029417
230	0xbb21a51b	-0.002466506
231	0xbcbf1806	-0.023326885
232	0x3c0e267d	0.0086761685
233	0x3da2aa98	0.079426944
234	0xbd91164d	-0.07084332
235	0xbd8df5f6	-0.06931679
236	0xbbb19905	-0.0054198527
237	0x3d326dca	0.043561734
238	0xbb042f0b	-0.0020169641
239	0xbc3d45b5	-0.011552264
240	0x3ce302b3	0.027711248
241	0x3cff1663	0.031138605
242	0x3c41dc8a	0.011832366
243	0x3cd563a4	0.026048489
244	0x3c3810b6	0.011234453
245	0xbd035533	-0.032063674
246	0xbc1e4e35	-0.009662201
247	0xbd334e1c	-0.043775663
248	0x3cb775a0	0.022394955
249	0x3d9c53c3	0.07633164
250	0x3cb5b0c7	0.02217902
251	0xbca30ca6	-0.019903492
252	0x3dddb191	0.10824884
253	0xbc2b0cb8	-0.010440044
254	0x3cf275c6	0.029597174
255	0x3de5dc2c	0.11223635

body.block2.conv.bias f4 [64]
0	0xbcf98e11	-0.03046325
1	0xbb7200b4	-0.0036926689
2	0x3d10c6ac	0.03534572
3	0x3c19514a	0.00935776
4	0xbcea23bc	-0.028581493
5	0xbbcfd7a7	-0.0063428464
6	0xbd09159e	-0.03346788
7	0xbcf04e15	-0.029334107
8	0x3bf1c14a	0.007377778
9	0x3cdcd8d0	0.026958853
10	0x3cea64d4	0.028612532
11	0xbd0b2632	-0.033971973
12	0xbd1e40f5	-0.038636167
13	0xbcb31671	-0.021861287
14	0xbd289973	-0.041161966
15	0xbc9e566a	-0.019328315
16	0x3c9f6fb8	0.019462451
17	0xbd004b69	-0.031321917
18	0xbad6b772	-0.0016381575
19	0xbcb4ff74	-0.022094466
20	0xbce226b1	-0.02760634
21	0xbbb68d3a	-0.0055710347
22	0xbc50fec5	-0.012756054
23	0x3cb4ecf9	0.022085654
24	0xbd13e15b	-0.036103588
25	0xbcaba01c	-0.02095037
26	0x3c895788	0.016765371
27	0x3d05b260	0.032640815
28	0xbccd9d2c	-0.02509936
29	0xbb765d75	-0.0037592326
30	0xbc926b7c	-0.017873518
31	0x3c919708	0.017772213
32	0x3c43f426	0.011960065
33	0x3bb8aec0	0.005636066
34	0xbd180b79	-0.037120316
35	0xbc627dcd	-0.013823939
36	0xbc464d86	-0.012103444
37	0xbc897851	-0.016781004
38	0xbcafeb8e	-0.021474626
39	0xbd106d26	-0.035260342
40	0xbcebeebc	-0.02880036
41	0x3b7f8c60	0.0038993582
42	0xbd17024b	-0.03686742
43	0xb956da79	-0.00020490018
44	0xbcfad717	-0.030620141
45	0xbd208941	-0.039193396
46	0x3d1a0ff6	0.037612878
47	0xbc937da1	-0.01800424
48	0xbca3a234	-0.019974805
49	0x3bf54cc1	0.0074859564
50	0xbab5ca92	-0.0013869575
51	0x3c350ab1	0.011049912
52	0x3ba418c4	0.005007835
53	0xbb80de22	-0.0039327303
54	0xbb6997f7	-0.0035643557
55	0x3d15243c	0.03641151
56	0xbbddcfc5	-0.006769153
57	0xbc87e78f	-0.016589908
58	0x3d272d72	0.040814824
59	0xbbaf4142	-0.0053483555
60	0x3d299f4d	0.041411687
61	0x3bed27aa	0.0072373943
62	0x3c132191	0.008980171
63	0x3a57954a	0.0008223845

body.block2.norm.weight f4 [64]
0	0x3f8db0f6	1.1069629
1	0x3f8dc963	1.1077083
2	0x3f933239	1.1499702
3	0x3f99ce15	1.2016016
4	0x3f912a9a	1.1341126
5	0x3f91367a	1.134475
6	0x3f961884	1.1726232
7	0x3f91d696	1.1393611
8	0x3f90693e	1.1282117
9	0x3f9c83c6	1.2227714
10	0x3f8b5d1d	1.0887791
11	0x3f9ceba0	1.2259407
12	0x3f910132	1.132849
13	0x3f99e6a0	1.2023506
14	0x3f9159db	1.1355547
15	0x3f92bd52	1.1464026
16	0x3f8c7821	1.097416
17	0x3f9ead2f	1.2396601
18	0x3f9032a2	1.1265452
19	0x3f8d8a46	1.1057823
20	0x3f9076a2	1.1286204
21	0x3f9b2d90	1.212328
22	0x3f9c2ee4	1.220181
23	0x3f989419	1.1920196
24	0x3f997150	1.1987705
25	0x3f939bba	1.1531899
26	0x3f99cbe9	1.2015353
27	0x3f972fb9	1.1811439
28	0x3fa1aaaf	1.2630213
29	0x3f9395cd	1.153009
30	0x3f915644	1.1354451
31	0x3f90237d	1.126083
32	0x3f9453ff	1.1588134
33	0x3f9aca3e	1.209297
34	0x3f8ff92a	1.1247914
35	0x3f9cc724	1.2248273
36	0x3f97cd0c	1.185945
37	0x3f908e82	1.129349
38	0x3f8b7526	1.0895126
39	0x3f9797eb	1.1843237
40	0x3f8dd409	1.1080333
41	0x3f94e82e	1.1633356
42	0x3f94294a	1.15751
43	0x3f9456e2	1.1589015
44	0x3f95dd44	1.170815
45	0x3f991e0f	1.1962298
46	0x3f94a685	1.1613318
47	0x3f98202f	1.1884822
48	0x3f92520c	1.1431289
49	0x3f8c786c	1.097425
50	0x3f932e67	1.1498536
51	0x3f95f486	1.1715248
52	0x3f94d2d0	1.1626835
53	0x3f878904	1.0588689
54	0x3f898a5f	1.0745353
55	0x3f996176	1.1982868
56	0x3f953f4e	1.1659944
57	0x3f95edc6	1.1713188
58	0x3f8cd74c	1.1003203
59	0x3f9608cc	1.1721435
60	0x3f957aa5	1.1678053
61	0x3f9d1881	1.2273103
62	0x3f8a5bc0	1.080925
63	0x3f8f3b4f	1.1189975

body.block2.norm.bias f4 [64]
0	0xbe657f9f	-0.22411965
1	0xbe818def	-0.253036
2	0xbea115b3	-0.31461868
3	0xbd64eb9c	-0.055888757
4	0xbe5b0d70	-0.21391845
5	0xbe59f0f3	-0.21283321
6	0x3d353ae2	0.04424561
7	0xbcde3cfd	-0.02712869
8	0xbed819e7	-0.42207262
9	0xbe8287d2	-0.25494248
10	0xbdc2db97	-0.0951454
11	0xbd5efff6	-0.054443322
12	0xbe2aaddc	-0.16667885
13	0xbd882eac	-0.06649527
14	0xbe3ce38e	-0.1844618
15	0xbe1437e2	-0.14474443
16	0xbe27c213	-0.16382627
17	0xbc9b9ae0	-0.018994749
18	0xbda83cbd	-0.0821471
19	0xbeb09997	-0.3449218
20	0xbe51f611	-0.20504023
21	0xbdd0b92b	-0.10191568
22	0xbea68122	-0.32520396
23	0xbe999c6b	-0.3000215
24	0xbe93eaf0	-0.2889018
25	0xbddcbe7b	-0.10778519
26	0xbe60c51c	-0.21950191
27	0xbdc4c9e4	-0.0960882
28	0xbd97f13f	-0.07419061
29	0xbe57c01a	-0.21069375
30	0xbe64b6d8	-0.22335374
31	0x3c60043a	0.013672883
32	0x3b498a83	0.0030752725
33	0xbe109f3b	-0.14123242
34	0xbe776fa0	-0.24163675
35	0xbc1ca0a6	-0.009559786
36	0xbe90dad9	-0.28291968
37	0xbe0d4613	-0.13796262
38	0xbe76d4e8	-0.24104655
39	0xbc02062a	-0.00793604
40	0xbe427f31	-0.18993832
41	0xbe251efc	-0.16125101
42	0xbd223864	-0.03960456
43	0xbe84b9b4	-0.2592293
44	0xbe4142ab	-0.18873088
45	0xbe19278f	-0.14956497
46	0xbe6d4b58	-0.23173273
47	0xbdfb4d5e	-0.12270616
48	0xbdd5dc7f	-0.10442447
49	0xbe2a5fcd	-0.16638108
50	0xbecf2c45	-0.40463462
51	0xbe22e7d7	-0.15908752
52	0xbe8e3acf	-0.27779242
53	0xbe6fdbeb	-0.23423736
54	0xbeab0b8e	-0.33407253
55	0xbdeac878	-0.11464018
56	0x3d994187	0.074832015
57	0xbe2c66c2	-0.16836074
58	0xbd90c675	-0.07069103
59	0xbb958c32	-0.0045638317
60	0xbe56f8ed	-0.20993395
61	0xbd6caa80	-0.05777979
62	0xbe8da1b4	-0.27662432
63	0xbe73d929	-0.23813309

body.block2.norm.running_mean f4 [64]
0	0xbda5956b	-0.0808514
1	0x3c38e4c1	0.011285008
2	0xbf0b9058	-0.54517126
3	0x3f00eefa	0.5036465
4	0x3f2e0e1b	0.67990273
5	0x3f225480	0.63410187
6	0xbf0c150f	-0.5471963
7	0xbe639792	-0.22225788
8	0x3dad2c6d	0.08455739
9	0x3e4bfcab	0.19920604
10	0xbf4892ff	-0.783493
11	0xbe813eb0	-0.2524314
12	0x3f40043d	0.7500647
13	0xbea48b51	-0.3213754
14	0xbe6d71b2	-0.23187903
15	0x3efcb5aa	0.4935735
16	0xbf61af8c	-0.8815849
17	0xbeb0bda0	-0.34519672
18	0xbfa43da8	-1.2831316
19	0xbc3334f6	-0.01093792
20	0x3ef4de33	0.47825775
21	0x3f8d6cc9	1.1048824
22	0x3f0c5bfb	0.5482785
23	0x3e47683c	0.19473356
24	0x3ea6fbe8	0.32614064
25	0xb9556345	-0.00020350244
26	0xbd98ed7f	-0.07467174
27	0x3f82b21d	1.0210606
28	0x3e68ea24	0.22745568
29	0x3ecee40c	0.4040836
30	0x3ed68244	0.4189626
31	0xbf11bd05	-0.56929046
32	0x3e437c12	0.19090298
33	0x3e330b6a	0.17484823
34	0x3f01e456	0.5073904
35	0xbf601f26	-0.8754753
36	0xbe58c2bf	-0.2116804
37	0x3f40f4ec	0.7537372
38	0x3eb4df9f	0.3532686
39	0xbe4abba2	-0.19798139
40	0x3f0521c9	0.5200468
41	0xbed1a86d	-0.4094881
42	0x3c6f90ae	0.014621897
43	0x3ead088c	0.33795583
44	0x3fa7ec39	1.3118964
45	0xbf00ad07	-0.5026402
46	0x3f744d64	0.9543059
47	0x3f00d2e3	0.5032179
48	0x3e4944f0	0.19655204
49	0x3ee91ef1	0.4553142
50	0xbf360280	-0.71097565
51	0xbeefa344	-0.4680425
52	0x3f119602	0.5686952
53	0x3fa38c49	1.2777187
54	0x3fc9050e	1.5704668
55	0x3f0918c9	0.53553444
56	0x3ea6169d	0.32439128
57	0xbc6402ec	-0.013916712
58	0xbe6b61f9	-0.22986592
59	0x3ec9b7fd	0.39398184
60	0xbeacf6ec	-0.33782136
61	0x3f078047	0.5293011
62	0x3f280ab5	0.6564134
63	0x3eb3c68e	0.35112423

body.block2.norm.running_var f4 [64]
0	0x3fb6137e	1.4224699
1	0x3f7e1d19	0.9926315
2	0x3f5e16cf	0.86753553
3	0x3f3ff75c	0.74986815
4	0x3f8d067c	1.1017604
5	0x3fa14ad6	1.2600963
6	0x3f8b7f3b	1.0898203
7	0x3fe62525	1.7980086
8	0x3f2ce060	0.6752987
9	0x3fa49b3e	1.2859876
10	0x3f714dd2	0.9425937
11	0x3ff1d1f1	1.8892194
12	0x3f3e7b78	0.7440715
13	0x3f803727	1.0016831
14	0x3fa92509	1.3214427
15	0x3f957ce9	1.1678745
16	0x3f5dd2fc	0.8665006
17	0x3f95fc7d	1.1717678
18	0x3f7182b7	0.9434008
19	0x3f69ea6b	0.9137332
20	0x3f80e706	1.0070503
21	0x3f334037	0.7001986
22	0x3fb7c369	1.435651
23	0x3f3e1ad2	0.74259675
24	0x3f8bd25e	1.0923574
25	0x3f3274e5	0.69709617
26	0x3f69a5a5	0.9126838
27	0x3fdd76d5	1.730189
28	0x3f9a3370	1.2046947
29	0x3fa228bf	1.2668685
30	0x3f615aca	0.8802916
31	0x3f671742	0.90269864
32	0x3f7e90fb	0.9943997
33	0x3f881e81	1.0634309
34	0x3f1bc523	0.6084768
35	0x3f777743	0.96666354
36	0x3f34e91f	0.70668215
37	0x3f5f66b6	0.872661
38	0x3f90dc48	1.1317225
39	0x3f36fcff	0.7147979
40	0x3f8570f4	1.0425096
41	0x3fa426e9	1.2824374
42	0x3f57eb6c	0.843436
43	0x3f46c146	0.7763866
44	0x3f9553f2	1.1666243
45	0x3fc0a69a	1.5050843
46	0x3f7e2505	0.9927524
47	0x3f9fd52b	1.2486929
48	0x3f62dbe5	0.8861678
49	0x3fc521f2	1.5400984
50	0x3f86bafc	1.0525813
51	0x3f56ca36	0.839023
52	0x3f9f95d0	1.2467594
53	0x3f607432	0.876773
54	0x3f9e2cc4	1.2357411
55	0x3f83076a	1.0236638
56	0x3fd83ff5	1.6894518
57	0x3f082860	0.5318661
58	0x3fac41ce	1.3457582
59	0x3fa5f8d2	1.2966559
60	0x3f56eda0	0.83956337
61	0x3f323c9f	0.6962375
62	0x3f7c49f0	0.9855032
63	0x3fba5d1e	1.4559667
