SinGan/TrainedModels/cows/scale_factor=0.750000,alpha=10/6/netD.pth (torch_old, 461765 bytes, 25 tensors)

head.conv.weight f4 [64, 3, 3, 3]
00000000: b132 0dbe 54de 39bd de97 8e3d fbc8 57bd
00000010: 10e1 cfbc 0e73 ca3c 1672 25bc ecf0 043c
00000020: 25df d0bb f0d3 ccbd 507e f93b fbad 193e
00000030: a1e7 ebbc 2e2b 133c ddd5 943d cc35 b83a
00000040: 27f4 bc3c b906 063d f285 df3c f594 0d3d
00000050: f46e 853d 3538 973c be04 3dbc a76b b0bc
00000060: 64da 823c 0a69 a2bb cbbc b3bc 0f10 cd3d
00000070: 4231 2abc a024 51bd 1275 16bc c3b3 413d
00000080: cbd0 cf3c 03bc d8bd 4ae9 673c 0120 fa3c
00000090: 8d08 fa3d e7aa 6bbc f961 96bd 3bf0 b43b
000000a0: bd5c 553d f64e 00bb 2402 cfbd eea2 553c
000000b0: ca0d 313c daff 043e 64c1 debc 9a61 c0bd
000000c0: 87e6 c5bc 699e 0b3d 4a58 5c3c bd1b aebd
000000d0: b04a d33c ea51 753d 347b 8cbd af6e 043c
000000e0: e162 c83c ce30 b7bc 2141 ab3b 8a70 8c39
000000f0: 0171 e43d 7c5a bd3a c4e1 9cbc 9a70 05be
00000100: 889c a7bc 1bce 0ebd fe0f 6ebd 7423 36bc
00000110: a20e 3dbd d01e c73d 1278 44bc 14ad c1bc
00000120: a0d9 4fbc a3c0 513d 1b7a 9e3d c89c b13a
00000130: faae fa3c b9b3 613c 78ca 003e a2a7 c53b
00000140: fcb6 26bd 935b 033e 7342 603d ef6f 993d
00000150: 285d 463d 4fd9 ce3c f81c 063d 9ae9 aa3d
00000160: a7bc ee3c 601d e63c 5545 91bd 2ac3 7bbd
00000170: e397 9abd dce9 21bd 0cfe 29bd 34b6 32bd
00000180: f087 82bd bb89 3ebd a3e4 6abc 2e3d b7bd
00000190: a573 63bd ae91 a1bd dc9c 6abc 03bc 0fbc
000001a0: 8f91 dfbc 992c febc f7d1 26bc e2e5 51bd
000001b0: de12 143d 4240 e13c 506f 3f3d 2886 cc3a
000001c0: 950a 38bc 174c 1d3d ca99 c33c 035b e6bc
000001d0: 71db 863c 68b2 89bd 3193 cdbc 4b2c 88bd
000001e0: c258 59bd d514 01bd a3b1 8ebb 4cc5 29bd
000001f0: 509b 2cbd 2b86 12bd ade0 923d 0d25 573d
00000200: fda2 1a3e 934b a33d a1b5 03bc 93ec 963d
00000210: 7385 0b3e cec4 8b3c 38c8 0c3e c4cd 723d
00000220: 8f25 5c3d 6b88 013d d57a 683c 282e 2b3d
00000230: 2239 cd3c 40af d9bc c189 453c 88ab 973c
00000240: 61a2 30be 9ad3 55bd fdeb 8abd 962a e0bd
00000250: e37e 38bc ff33 50bc f9cb 92bd b782 10bd
00000260: 3c89 973c 5c29 ff3c a18d 803c 668d 59bc
00000270: 71c9 013c 37e9 c23c d6b7 31bd 9809 1b3d
00000280: 2cc0 043d d943 88bc 2dec 96bd 4f0f 9abd
00000290: c03a a73d f7bf 3c3d 42fc 92bb 328a b13d
000002a0: f659 91bc 5ee1 c33a 0bdb 2abd 69a7 50bc
000002b0: 49c8 63bd db30 413d 6bd3 ae3d f441 9dbc
000002c0: 8acf ec3c 6660 363c bd73 d4bc fb64 efbd
000002d0: 4b7b 3039 770a 0cbd d165 b13d 3db9 5d3d
000002e0: 4ece e6bc ea48 1a3c 4698 10bd a1df 06bd
000002f0: 90a3 f2bd 416f fd3d a5d1 823d de37 b13d
00000300: 3a24 bb3c d37a c2bc b4a4 5cbc d675 00be
00000310: 6064 40bd 01f8 2c3a 0811 653d fd15 4f3d
00000320: f4be 9e3d 483e d4bb c819 f8bc f92b c6bc
00000330: 1104 95bd fa65 36bc beb3 c23c 3a55 a83d
00000340: f4dd 423d eb90 cb3d 90f4 23bd 4725 4bbd
00000350: 603a afbc 87af cbbd ecf7 d9bc 9291 8dba
00000360: 8c5c 38bc d6c2 3fbd 34f1 aabd da59 4ebd
00000370: d0ae 043c 6d39 c83c 4548 13bd 640d 263d
00000380: a36f 043e 244b 663d 3168 b6bc b383 a6bd
00000390: b87b c0bc a60e a7bb 227e 50bc 6978 debc
000003a0: b5c3 bf3c 9271 a33d 6cb6 f03d f929 783d
000003b0: 75f8 93bb 1095 b8bc 4a40 c53c 91ee bbb9
000003c0: 1683 9dbd 4572 acbc 5bb4 60bc edbc 46bc
000003d0: f9a8 aa3b 7543 003d 2910 88bd 0dec 9cbd
000003e0: 2dbc 5fbd 205e fc3d d9c8 9b3c 8c6d 6d3d
000003f0: c8f3 343d 3a9b 5d3d 9d29 0d3d 943d 40bd
-0.13788868 -0.045378044 0.0696256 -0.052681904 -0.025375873 0.024713065 -0.010098001 0.008114081
-0.006374257 -0.10001361 0.0076139346 0.15007775 -0.028796973 0.008982463 0.07267354 0.0014054119
0.02306564 0.032721255 0.02728555 0.034565885 0.06515303 0.018459419 -0.011536775 -0.021535708
0.015973277 -0.0049563693 -0.02194061 0.100128286 -0.010387721 -0.05106032 -0.009183185 0.047290575
0.025368115 -0.105827354 0.014154742 0.030532839 0.12208662 -0.014384008 -0.073429056 0.0055218018
0.052090395 -0.0019578314 -0.1010783 0.013039334 0.01080651 0.12988225 -0.027191825 -0.09393616
-0.024157776 0.03408662 0.013448784 -0.085013844 0.02579245 0.059892572 -0.06859437 0.00808303
0.024461212 -0.02236214 0.00522627 0.0002678673 0.11154366 0.0014446522 -0.019150622 -0.13031235
-0.020460382 -0.034864526 -0.05812072 -0.011116851 -0.046156533 0.09722674 -0.011991518 -0.0236421
-0.012686163 0.051209103 0.077381335 0.0013550753 0.030601013 0.013775759 0.12577236 0.0060319463
-0.04070185 0.12827902 0.05475087 0.07492053 0.048428684 0.025250105 0.03274247 0.08345337
0.02914269 0.028090179 -0.07093302 -0.06146542 -0.07548501 -0.039529666 -0.041502044 -0.043630794
-0.06373584 -0.04651807 -0.014336738 -0.08947216 -0.05553021 -0.07889114 -0.014319625 -0.008772853
-0.027291087 -0.031027125 -0.010181895 -0.051244624 0.036150806 0.02749646 0.046737015 0.0015603947
-0.011232992 0.038402643 0.023877043 -0.02811957 0.01646206 -0.067234814 -0.0250946 -0.06649073
-0.05306316 -0.031514008 -0.004354672 -0.041447923 -0.042140305 -0.035772484 0.0717176 0.05252557
0.15101238 0.07973399 -0.008038909 0.07369342 0.13625126 0.017061617 0.13748252 0.059278265
0.053746756 0.03162424 0.014189442 0.041792065 0.025051657 -0.026572824 0.012056769 0.01851441
-0.17249443 -0.052203752 -0.067832924 -0.109456226 -0.011260721 -0.012707709 -0.07167811 -0.03528091
0.018498056 0.031147651 0.015692534 -0.013278341 0.0079215625 0.023792846 -0.04338821 0.037850946
0.032409832 -0.016633915 -0.07369266 -0.07522451 0.081655025 0.04608151 -0.004485638 0.08668937
-0.017743092 0.0014944484 -0.041712802 -0.012735226 -0.05561093 0.047165733 0.085364185 -0.019196488
0.028907556 0.011131382 -0.025934095 -0.11689182 0.00016830598 -0.034189668 0.08661998 0.054131735
-0.028174546 0.009416798 -0.03530147 -0.032928113 -0.11847603 0.123747356 0.06387643 0.08653234
0.022844423 -0.023740208 -0.013467003 -0.12544951 -0.046970725 0.0006598235 0.055924445 0.05055808
0.07751265 -0.006477151 -0.030285731 -0.02419089 -0.07276166 -0.011132712 0.023767348 0.08219381
0.047574952 0.0993975 -0.040028155 -0.049596097 -0.02139014 -0.099455886 -0.026607476 -0.001080083
-0.011252534 -0.04681667 -0.08346787 -0.050378658 0.008098319 0.024441445 -0.035957593 0.040540114
0.12933211 0.056224003 -0.02226648 -0.081305884 -0.023496494 -0.005098182 -0.012725385 -0.027157025
0.02340875 0.07980646 0.11753544 0.060586903 -0.0045157024 -0.022532016 0.024078507 -0.00035845165
-0.07691018 -0.021050582 -0.013714875 -0.012130004 0.0052081314 0.031314332 -0.06643707 -0.076622106
-0.054622818 0.123226404 0.01901667 0.0579658 0.0441778 0.054103114 0.034463514 -0.046933725

head.conv.bias f4 [64]
00000000: 8f4a 05be 5fb6 673c c060 69be a171 bd3d
00000010: 80df 763e 76ae 273e ef38 08be 3125 bcbc
00000020: 6c9b 153e 362b ce3d a0d1 453e b9df 023e
00000030: 6ccb 9d3c 5194 25be e7a6 7b3e 6af5 893d
00000040: 08b7 dcbd 9ad5 3f3e 45ef 03be c5fa 7f3d
00000050: 57a6 26be 4b0f 543e dc16 7abe 3d06 69be
00000060: 154c c9bd 4615 72bd 02fb 9fbd cd25 373e
00000070: 2016 423e 9a69 683d b087 853e a0c0 563d
00000080: 0863 ce3d 8ffd ebbd 22f8 a8bc ebd8 3d3d
00000090: e211 313e 867b 0e3e eae9 25be be8e 1c3e
000000a0: 3778 ab3c 2a57 243e 26a0 533e aaab ae3d
000000b0: 471c 7ebe 3609 0abe a65f 943d 9d69 05be
000000c0: a752 80bc af21 423e 1178 0c3e f814 95bd
000000d0: 8ae9 373e c5a3 5f3c 7e10 debd c3c5 76bd
000000e0: 9556 dcbe 2830 5d3c 4647 2b3e 299b 1a3b
000000f0: dd01 ba3b 6a9d 993d 88f7 533d 259a 0e3e
-0.13016723 0.014142602 -0.22790813 0.092501886 0.24108696 0.16375145 -0.13302968 -0.022966953
0.1461007 0.100668356 0.19318247 0.12780656 0.019262038 -0.1616986 0.24575387 0.06736262
-0.10777098 0.18733826 -0.12884243 0.06249501 -0.16274391 0.20708959 -0.24422783 -0.22756286
-0.098289646 -0.05910232 -0.07811548 0.17885514 0.18953753 0.056741334 0.26080084 0.052429795
0.100774825 -0.11522972 -0.020626131 0.046349447 0.17291978 0.13914308 -0.16202512 0.15288827
0.020931346 0.16048875 0.2066656 0.08528836 -0.24815474 -0.13480076 0.07244806 -0.1302857
-0.015664412 0.18958162 0.13717677 -0.0727939 0.17960182 0.013649886 -0.108429894 -0.060247194
-0.43034807 0.013500251 0.16726407 0.0023591018 0.0056764917 0.075007275 0.051749736 0.13925989

head.norm.weight f4 [64]
00000000: b80a 8f3f a712 793f 41fe 613f 441b 723f
00000010: 7457 773f 7371 3a3f ecdb 7c3f 9bf6 8e3f
00000020: 8121 713f 7427 6d3f 6a7f 4e3f 58f1 803f
00000030: 6288 803f 6e1f 963f c8b7 593f 30be 723f
00000040: 8fa4 663f 5388 4b3f 4452 713f dc4f 5a3f
00000050: 3367 513f f351 593f d4f8 513f 0cdf 5d3f
00000060: 506a 443f 4b94 913f ca5f 533f 1069 7c3f
00000070: 3805 863f 5bb7 4c3f 4a5d 6c3f 6093 4b3f
00000080: 4688 873f fc74 a83f b4f2 813f a973 3a3f
00000090: 0912 7b3f cf0b 6f3f d588 993f 2bd7 8d3f
000000a0: 710a 633f c6c0 683f 3fbe 393f 4379 953f
000000b0: 34b1 823f 557a 6a3f de7b 843f e503 903f
000000c0: 87cb 503f 2331 623f 60ba 5c3f ee6a 653f
000000d0: 06f1 7e3f 5ae4 5d3f 971c a43f afcf 883f
000000e0: e6c4 653f 75cf 4a3f 47bb 393f 1def 6b3f
000000f0: cb7d 883f 00af 993f 997a 6a3f 4de8 4a3f
1.1175146 0.97294086 0.88278586 0.94572854 0.9661782 0.7282936 0.98773074 1.1169008
0.9419175 0.92638326 0.8066317 1.0073652 1.0041621 1.1728342 0.8504605 0.94821453
0.90094846 0.7950489 0.9426615 0.85278106 0.81798095 0.8489067 0.82020307 0.8666847
0.7672472 1.137338 0.8256804 0.9859781 1.0470343 0.7996728 0.9232985 0.7952175
1.0588462 1.3160701 1.0152192 0.72832733 0.98074394 0.93377393 1.1994883 1.1081289
0.8868781 0.9091915 0.7255592 1.1677631 1.0210328 0.91592914 1.0350301 1.1251189
0.8156056 0.88356227 0.86221886 0.89616287 0.9958652 0.8667656 1.2821225 1.068838
0.8975357 0.79222804 0.7255139 0.9216173 1.0663389 1.2006531 0.9159332 0.7926071

head.norm.bias f4 [64]
00000000: 9f34 80bc 9ab6 173e 8c64 ec3e 4d96 803e
00000010: 3208 893e 78f9 813f 0358 7c39 3c14 fd3e
00000020: c89b e53d b933 983e eb0f 923e c222 033f
00000030: 35ad 9d3c d006 073f 8bcf 683f 1c55 fe3d
00000040: b115 bb3e bdb3 b83e a13c 953e e741 ff3e
00000050: f3fc 593f 16d1 083e f93d cd3e 4498 e43e
00000060: 8ce2 d73e a5ac 873d aa0d e13e 82e4 86be
00000070: 7e15 603e 5794 743e 5eb0 cf3d 5770 c13e
00000080: 0b1f b03e 6e87 d73d 0e39 9fbe 9b0c df3e
00000090: 3dc9 e23e 24ac f73c 1c46 f23d 8946 c43e
000000a0: 87ff a23e 5635 6b3e 4815 b03e a3bb 0c3e
000000b0: 40ac bc3d f76f 853e c8f9 8a3e e509 86be
000000c0: 821e be3d 3437 003f 8bb5 9a3e 320d 9e3d
000000d0: 293b cf3e 9602 893d b0f3 be3e 7549 32bc
000000e0: 86f1 143f 13eb ad3e 957a 243e d123 4f3d
000000f0: 62f2 eabc f185 62bd 93f6 30be 3329 953e
-0.015650092 0.1481575 0.4617046 0.2511467 0.26764065 1.0154257 0.0002406538 0.494295
0.112113535 0.2972696 0.2852777 0.5122491 0.01924763 0.5274477 0.90941685 0.12418577
0.36539987 0.3607463 0.2914782 0.49854967 0.85151595 0.1336101 0.40086344 0.4464742
0.4216503 0.06624726 0.43955737 -0.26346213 0.21883199 0.23884712 0.10141061 0.3778102
0.34398684 0.10523878 -0.31098217 0.43564305 0.44294158 0.03023345 0.118297786 0.38335064
0.31835577 0.22969565 0.34391236 0.13743453 0.092125416 0.26061985 0.27143693 -0.26179424
0.09283163 0.50084233 0.3021663 0.077173606 0.40474823 0.06689946 0.37295294 -0.010881771
0.58181036 0.3396841 0.16062386 0.050571267 -0.02868003 -0.055303518 -0.1728156 0.29132995

head.norm.running_mean f4 [64]
00000000: a45e 38be 1563 8b3a a941 babe 616f 8c3e
00000010: 599f f9bd 7371 e13d df9e b2bd 0faa 1abc
00000020: a83e e73d e1a3 633d 07bb 5e3e 48d1 bf3e
00000030: c72d 84be 2df0 83be 8a47 a33e 5a08 12be
00000040: 562e 5dbd afa8 6a3e cd7c 1a3b dca3 12bc
00000050: c6af 7bbe 81df b1bc 2c8c c4bd 3a90 dabe
00000060: 7bb4 12be 84c2 c03d ba79 39be 0c14 e03e
00000070: f43d 733e 9310 073e 80e7 3b3e ccc0 2bbd
00000080: 831a 033e 9e33 993d 5352 20be 1f64 2abd
00000090: 5fde 143e d2de f93b 91dc 20be 0312 9b3d
000000a0: 613f aebc 266a 403e 13c1 1f3e 4e3e 283e
000000b0: 24eb 3ebe a769 6cbd 2806 133e 90fa bdbd
000000c0: b20a 12bd c3b8 953e fc21 af3e 48b5 6ebd
000000d0: f869 57bd 09ee 013d 6e42 893b fc19 fd3d
000000e0: db5c 0cbf e328 ee3d 0065 0f3e 553c 30bd
000000f0: 89e6 5e3e 0283 1b3d a1fd ca3d e680 a43d
-0.18004853 0.0010634387 -0.3637822 0.27428725 -0.12188596 0.11007967 -0.087217085 -0.009439959
0.112912476 0.05557621 0.21751033 0.37464356 -0.25816175 -0.25769177 0.31890517 -0.14260998
-0.053999268 0.2291591 0.0023572922 -0.0089502 -0.24578771 -0.02171302 -0.09597048 -0.4268816
-0.1432666 0.09412101 -0.18112841 0.43765295 0.23754102 0.13189916 0.18350029 -0.041931912
0.12803082 0.07480548 -0.15656404 -0.04159939 0.14537953 0.007625439 -0.1570914 0.07571795
-0.021270456 0.18790492 0.15600996 0.16430017 -0.18644387 -0.057717945 0.14357817 -0.09276307
-0.03565473 0.29242525 0.34205616 -0.058278352 -0.052591294 0.03172115 0.0041888272 0.12358472
-0.54829186 0.11628892 0.14003372 -0.043026287 0.2176763 0.037966736 0.09911657 0.08032398

head.norm.running_var f4 [64]
00000000: 358a a23b 77ca 9f3b 3414 a33b 34b8 9a3b
00000010: aa55 2f3c e2bc 8c3b 03d0 7d3b 07d8 563c
00000020: b5b9 443b 0342 913b 7e05 493b 2191 fd3b
00000030: 2b73 6e3c a4af 5b3c d622 de3c 0cc2 e33b
00000040: e579 cf3c 7fe1 4b3c b358 833c 27fd a13b
00000050: 03d7 4a3c d49d 9f3b 663e 8f3b a211 3d3c
00000060: df0d df3c 68e3 063c e9aa 473b 0f1d e43b
00000070: 4953 fe3b c8bb b13b 1488 8e3b 3a7e b83c
00000080: 28bb c53c 72a5 753c f080 923c 24cd 383c
00000090: 9d7f 8a3b de9c 0b3c 644d 9b3b 2c82 463c
000000a0: e7d6 ad3b 5699 833b ab45 463b d80a 123c
000000b0: 573b f63b 8bfc d83b 40b4 813c 1da3 473d
000000c0: db12 393b 5c2b 5d3c d4d3 283c 55fb 773b
000000d0: 3a0c 0c3c 1ffd ee3b b051 9a3c 59b2 033c
000000e0: e425 e73b 2efa 873c 8d1d dc3a 2f06 753c
000000f0: 1d75 c53c 815b 3f3c 7c09 323b 68f3 833b
0.004960323 0.0048764306 0.0049767736 0.0047216658 0.010701576 0.0042949775 0.003872872 0.013113028
0.0030017917 0.004432918 0.003067344 0.007738248 0.014553825 0.013408575 0.02711622 0.0069506224
0.025326679 0.012443899 0.016033506 0.004943508 0.012380364 0.0048711095 0.004371452 0.0115398485
0.027228294 0.008232929 0.003046686 0.006961472 0.007761393 0.0054239966 0.004349718 0.022521127
0.024137095 0.0149930585 0.017883748 0.011279378 0.0042266385 0.008521287 0.0047394503 0.012115996
0.0053051594 0.004016082 0.0030253928 0.008913718 0.007514398 0.0066219023 0.01583302 0.04873954
0.0028239999 0.013499107 0.01030441 0.0037839015 0.008547837 0.007293358 0.01883778 0.008038127
0.0070540775 0.016598787 0.0016793475 0.014955088 0.024103696 0.011679531 0.0027166298 0.004026819

body.block1.conv.weight f4 [64, 64, 3, 3]
00000000: 89e7 313e 47e0 5b3d 4c60 b23c 9543 aa3c
00000010: d54c 7abd 68b9 87bd 250f 49bd 408b 6bbd
00000020: 2b30 88bd d27f 043e 8da2 c3bb 34c1 f53c
00000030: 1a3d 253d a7be a4bc ec03 b53b 4d88 823d
00000040: 1f7c 173d f8cf 2e3d da0c b5bd c2b6 64bd
00000050: 6d92 b03c dc9c 6abd 84f6 9fbd 65d8 993b
00000060: ae2e 913d 3dd7 2b3d 1646 4abc c192 343e
00000070: 949e 233c d1ad ba3d 63f1 093d 2137 2abd
00000080: 7b2b fabc 3a22 fd3d 8d10 cc3c 8436 a7bc
00000090: 9479 94bd 4f7a 27bd f7e7 ddbd dec3 fcbc
000000a0: 0e58 8239 4a7b 8dbd 6a44 133d 11a7 da3b
000000b0: 39bd e7bc d388 e13d 5d14 4bbd 85b9 37bc
000000c0: b106 4f3d b156 afbc 0860 25bd 2f7d 903d
000000d0: 18f5 983b 1443 363c 0240 81bc 9ac9 ec3c
000000e0: 6945 c7bb f6b0 bebb 791d 503c a8ee b8bd
000000f0: c97c 5abc c7a7 9f3d 44df 293d ae2f c13d
00000100: 1ea3 263d 6bea 893d cc42 febc 6e1b 80bb
00000110: 4871 023d 5cdb 043d 60bf 853c 8b10 843d
00000120: 2928 cdbd 2373 923c f4a4 8e3c 552d 4a3d
00000130: 69bc b83c 05bc 54bc bebb 143e a0f5 823c
00000140: 617c e13d eddf cdbb d20a 17bd 0a28 38bc
00000150: 84fe 0ebd 1565 76bd f528 08bc b962 61bb
00000160: 990a 063d be67 c93d 37d3 963b 7325 c1bd
00000170: bdba 0d3d 505c c23d 2623 60bd 3929 f73d
00000180: 81e1 0bbc 4d54 34bd 16ff 083e 6026 12be
00000190: 2f4f a63b 1bef e1bc 1010 01be 9d9e f7bc
000001a0: 54f1 4cbc d962 e4bc 69c3 db3b 9d25 a43c
000001b0: 5b0f c63d 5163 163d beda 643d cce2 c43c
000001c0: 339f 333d dccf 3a3d 450f e23c 754a ba3d
000001d0: 62c8 283d c54e fb3d f411 16bb c946 1abd
000001e0: 1d36 143e 5fd3 6a3c be8b d9bc afeb e03d
000001f0: 76c9 fbbb 4d84 54bc a0c0 b9bc 41d2 933a
00000200: 6670 c23c 110a 033c 9cca 10bd 965d 75bd
00000210: 9337 cb3c d8af 0a3d ef09 e4bc 49da 523c
00000220: 5bb5 653d 6686 97bb acfa fc3c 9599 36bd
00000230: 113d b9bd f449 d73d 5915 3cbb f599 5e3d
00000240: e50b db3d 2636 803b a63b 2bbd 0c44 423d
00000250: 175e 23bd ae41 11bd d36f d93c 27cb ca3c
00000260: 2fe7 133d 15ca 883d b6eb 7e3d 6671 5d3d
00000270: 92e7 303c 8281 60bc 8165 51bd b3a4 00bd
00000280: 6c5c 8cbc bbd0 7dbc aa28 e2bd 4094 b4bc
00000290: 0cd8 28bd 2dc6 9dbd f6d3 b4bc cd11 96bb
000002a0: fc6b c8bd 4285 debd 6016 dbbc b359 b9bd
000002b0: fa7c a4bd fb06 aabd b99c 56bc 4d2d 01bd
000002c0: b0d7 13bd 1918 713d 1aa6 513d 07cb 973c
000002d0: 8479 393d 3c7f 3a3c 793a f2bc 8093 c5bc
000002e0: e213 36bd e5d0 30bb cdce 153c 4457 53bd
000002f0: 7a80 163d 80e1 803d 8e28 703b 099c b33d
00000300: d4f6 d3bb 6e70 88bd edb1 b73c 3987 053d
00000310: f760 1a3d 6be4 0b3e 0167 0cbb d3d6 133c
00000320: 0c4c 823d fca0 283d 34ff 953d a7dc 333d
00000330: 5fa7 dd3d e89a df3d 587e cc3d 764c 6b3d
00000340: c0cc 46bc e202 bc3b 636d 813c 5b53 413a
00000350: c58f b23d ac8c 233d 819b bf3d 3e91 da3d
00000360: 5d90 5ebd f4b6 85bd e028 e53c 440e 1ebc
00000370: df55 463d 06c2 28bd 0d77 d13b 1f7a 0a3d
00000380: 3ad1 643d e234 633d fbd7 793a 0df5 c7bc
00000390: e2c9 4ebd db88 30bd eb72 22bd 0f29 9e3d
000003a0: 95d6 4e3d 7279 133e 63a9 b8ba 5df1 f43c
000003b0: c578 22bc 4561 c73c 8971 59bb 7185 26bd
000003c0: 7c79 9b3d d1e0 153e 8701 a43d cccb 293c
000003d0: af74 7d3c b1fc e7bb 1d14 2c3d 2c3f 41bc
000003e0: ee8e 623d efe4 c83d 72cb 363c 13e7 7d3d
000003f0: 1c70 a0bd 6de2 073c 7d26 913d 121e dd3c
0.1737348 0.053680684 0.021774434 0.020784179 -0.06110843 -0.0662716 -0.04908671 -0.057505846
-0.06649812 0.12939385 -0.0059703053 0.029999353 0.040341474 -0.020110441 0.005524149 0.063736536
0.036983605 0.042678803 -0.08840342 -0.055838354 0.021554196 -0.0572785 -0.07810691 0.0046949857
0.070889816 0.041953314 -0.012345811 0.17634107 0.009986538 0.09115184 0.03367747 -0.04155648
-0.030538311 0.12360044 0.024910236 -0.020411737 -0.07249752 -0.040888127 -0.108352594 -0.030855116
0.00024861138 -0.06908281 0.035953917 0.006672748 -0.02828847 0.11012425 -0.049579967 -0.011213665
0.05054349 -0.021403642 -0.040374786 0.07055127 0.0046678893 0.011124391 -0.015777592 0.028904725
-0.0060812724 -0.005819435 0.012702339 -0.09029895 -0.013335415 0.07795673 0.04147269 0.09432922
0.040682904 0.06734165 -0.03103771 -0.00390952 0.031846315 0.03243576 0.016326606 0.06448468
-0.100174256 0.017877167 0.01741264 0.04935964 0.022550778 -0.0129842805 0.14524743 0.015986264
0.110100515 -0.0062827975 -0.036875553 -0.011240015 -0.034910694 -0.060154993 -0.008310546 -0.0034391119
0.03272495 0.098342404 0.0046028155 -0.09430971 0.034601916 0.094902635 -0.05472102 0.120684095
-0.008537651 -0.044025708 0.13378558 -0.14272451 0.0050753574 -0.027579835 -0.12603784 -0.030227
-0.012508709 -0.027879165 0.0067066443 0.020037467 0.096708976 0.03671581 0.05587267 0.024033926
0.043852996 0.045608386 0.027595172 0.09096233 0.041206725 0.122708835 -0.0022898884 -0.037665162
0.14473768 0.014332621 -0.026555892 0.10982453 -0.007683928 -0.012970996 -0.022674859 0.001127787
0.023735236 0.0079980055 -0.035349473 -0.059903704 0.024806773 0.033859104 -0.027836768 0.012869426
0.056081157 -0.004624176 0.030881248 -0.04458006 -0.090448506 0.10512152 -0.0028699248 0.054346044
0.10695628 0.003912705 -0.041804932 0.047428176 -0.039884653 -0.035463028 0.02654258 0.024755074
0.036109146 0.06679169 0.06223651 0.054063223 0.010797398 -0.013702752 -0.051122192 -0.03140707
-0.017133914 -0.01549166 -0.11042912 -0.022043347 -0.041221663 -0.07703815 -0.022073727 -0.0045797587
-0.097862214 -0.10865261 -0.026744068 -0.09050312 -0.0803165 -0.08302113 -0.013098889 -0.031537343
-0.036094368 0.058860872 0.051183797 0.018529428 0.045281902 0.011382874 -0.029568898 -0.024118185
-0.044452555 -0.002697998 0.009143543 -0.051596895 0.03674362 0.06293011 0.0036645266 0.08769996
-0.006468633 -0.06662069 0.022423709 0.03259966 0.03769013 0.13661353 -0.00214237 0.009023386
0.06362161 0.04116915 0.07324067 0.043911602 0.10822939 0.10918218 0.09985036 0.057445966
-0.012133777 0.0057376483 0.01579923 0.00073747867 0.08718828 0.039929077 0.09355832 0.10672234
-0.054336894 -0.06529036 0.027973592 -0.009646956 0.048421737 -0.04120066 0.006392366 0.03380787
0.055863596 0.055470355 0.000953078 -0.024408842 -0.0504855 -0.043099266 -0.039660376 0.07722675
0.05049761 0.14401796 -0.0014088567 0.029900247 -0.009916489 0.024338374 -0.0033179244 -0.040654603
0.07591531 0.14636542 0.08008104 0.01036353 0.015469714 -0.0070796837 0.04201137 -0.0117948465
0.05531209 0.098092906 0.011156904 0.061987948 -0.07833883 0.00829373 0.07087419 0.026991878

body.block1.conv.bias f4 [64]
00000000: 4c8d 18bd 2236 943b 23ab a7bc 4771 263d
00000010: fbd8 1dbc 8823 7b3c 2296 c63c 27d0 f43b
00000020: 865c 72bb 2da8 1bbd 26c1 353c 3e3c 93bb
00000030: 5777 0ebd 2004 433d b442 2bbb 86fb 923c
00000040: 55b7 493c b7e8 13bc c950 0c3c 7d08 a33c
00000050: 0fde 5ebc 7c83 6ebb ed31 c2bc 7245 cf3c
00000060: 4501 1cbd f2ff 973c 36fc 953c 7c73 163d
00000070: 226e f63c a264 d2bb 677e 9e3c 7b5c 233d
00000080: a77d 29bc 5de7 2f3d 891f 34bd 9af3 313c
00000090: 3ead 613c 3655 4fbc b58c 5fbb cd6a e83c
000000a0: 0d80 8abc 76d6 28bb c933 403c e0a2 fa3b
000000b0: 4f30 e2bc 7598 07bc ce60 973c f378 653c
000000c0: 4769 02bd 9a6e acbc 4327 9abc 1452 2cbc
000000d0: cdc1 873b 2768 003d 1519 133d 8d32 293c
000000e0: 3d19 23bd ad6e 47bd 1111 67ba db34 c43a
000000f0: 2d7a dbbc 64e0 61bc e37b ba3c b5c5 f2bc
-0.037244126 0.0045230547 -0.020467347 0.040635373 -0.009634252 0.0153282955 0.02424151 0.0074711028
-0.0036981418 -0.03800218 0.011093413 -0.0044932654 -0.03478178 0.047611356 -0.0026132287 0.017942201
0.012311776 -0.0090276515 0.008564183 0.019901508 -0.013602748 -0.0036394289 -0.023705447 0.025301669
-0.03808715 0.018554661 0.01830874 0.03673123 0.030081812 -0.006420688 0.019347383 0.039883118
-0.010344899 0.042945255 -0.043975387 0.010861302 0.013774214 -0.012654593 -0.0034110968 0.02837124
-0.016906762 -0.0025762594 0.011731097 0.0076488107 -0.027610926 -0.008276095 0.018478777 0.014005887
-0.03183868 -0.021048833 -0.01881755 -0.010517616 0.004142976 0.031349327 0.035912592 0.010326994
-0.03981899 -0.048689533 -0.0008814494 0.0014969365 -0.026791656 -0.013786409 0.022764152 -0.02963529

body.block1.norm.weight f4 [64]
00000000: d10a 523f 51a2 8b3f 535f 623f aba6 883f
00000010: 3e0b 7c3f 9211 7d3f 9703 463f 9d02 7b3f
00000020: 31fc 5d3f 1d3c 633f 520c 7c3f 4898 593f
00000030: e2b1 4a3f ef3e 833f f19c 823f 957d 5f3f
00000040: 35fc 863f 887a 653f 3695 5b3f fd9b 6a3f
00000050: 412e 573f 9aa3 603f 3ea2 803f 5f95 8c3f
00000060: d39e 703f 4751 803f fc10 673f 3c09 533f
00000070: 4aaa 573f ade7 623f c32c 603f 7c42 603f
00000080: f01a 8b3f ab66 813f e8a4 293f 6c20 763f
00000090: 67cf 7b3f cae3 6c3f 0ff0 793f 903b 703f
000000a0: 9167 6b3f b7b5 823f b45e 803f d6b2 7c3f
000000b0: cc0f 5e3f 45eb 8e3f a1ba 7e3f 41c3 5c3f
000000c0: 55f6 6d3f bf6a 523f 6258 603f b36c 823f
000000d0: 70d3 573f 77e2 823f 3646 623f d8cb 403f
000000e0: 2793 783f ffb0 803f b84e 4d3f e9dc 7b3f
000000f0: e2b1 663f d241 713f 5d1b 753f 2523 5e3f
0.82047755 1.090891 0.88426703 1.0675863 0.98454654 0.98854935 0.7734923 0.9805086
0.8671294 0.887636 0.984563 0.8499799 0.7917768 1.0253581 1.0204145 0.87301
1.0545717 0.8964009 0.8577455 0.9164427 0.8405495 0.87749636 1.0049512 1.0983084
0.93992347 1.0024804 0.9026029 0.82435966 0.84244215 0.8863476 0.875683 0.8760145
1.0867596 1.0109457 0.6626725 0.9614322 0.98363346 0.9253508 0.97631925 0.93840885
0.91954905 1.0211705 1.0028901 0.9871038 0.86742854 1.1165549 0.99503523 0.86235434
0.92954 0.8219413 0.8763486 1.0189422 0.84307003 1.0225362 0.88388383 0.7531104
0.97099537 1.0054015 0.8019824 0.9838396 0.9011518 0.9424106 0.9574488 0.86772376

body.block1.norm.bias f4 [64]
00000000: 2c31 163f 0144 ca3d 894f 403f 705c be3e
00000010: da50 0c3f 67d2 073f 7368 093f 8a05 6b3e
00000020: c298 e63e be19 d33e dbfa 1a3e d6fc a13e
00000030: a5d3 f03e 9b3d eebd 3a76 733e d34d 093f
00000040: 1986 113f 3f2d c33e 029f fd3e 51fe 0a3f
00000050: 0c5d b43e 8e98 393f 985c a43e c8e0 04bc
00000060: 85fb 423e b878 f13e 3c75 e13e 3fa6 343f
00000070: 55f1 c83e 1b76 0a3f df4b b13e 5f9b 253e
00000080: c1f4 813c 2a33 2e3f 8430 4a3f fe6a 3c3f
00000090: 939a be3e bcef 1c3f eb76 363f c62e 183f
000000a0: 13fd 3e3e fe4f 303f 2baa 993e 42b0 7f3e
000000b0: 2db3 e63e 654a bf3e 3b80 c53e 524a 153f
000000c0: 30c6 d63d 5ea7 2b3f 5899 de3e 8c31 e53d
000000d0: 074a 693f c619 4b3e 60b5 523f bb4a 2a3f
000000e0: 79c7 dc3e 6a9f b23e 9e7e 033f b9e5 c73e
000000f0: d230 e73e 13f5 e23e baed 833e 3c11 063f
0.5866878 0.09876252 0.7512136 0.371799 0.5481087 0.53055423 0.53675 0.22951332
0.4503842 0.41230577 0.15134756 0.3163821 0.47036472 -0.11632844 0.23775569 0.53634375
0.5684524 0.38120458 0.49535376 0.54294306 0.3522724 0.72498405 0.32101893 -0.008110233
0.1904126 0.47162414 0.44034755 0.7056617 0.39246622 0.54086465 0.34628198 0.1617255
0.015863778 0.6804682 0.7898028 0.7360076 0.37227306 0.61303306 0.71275204 0.5944637
0.18651228 0.6887206 0.3001264 0.24969581 0.45058575 0.37361446 0.38574395 0.5831653
0.1048702 0.6705226 0.43476367 0.11191091 0.9112858 0.1983405 0.82308006 0.6652028
0.43120936 0.34887248 0.5136508 0.39042452 0.45154434 0.44327602 0.25767308 0.5237005

body.block1.norm.running_mean f4 [64]
00000000: df52 913f 3bfd 51bf 91ac 81c0 bd99 cbbf
00000010: fff2 dc3e 5a4a cc3f 8df1 7140 513a 233f
00000020: 02a2 dbbf 32b8 ae3f 92ad 0240 5c62 db3d
00000030: b5db 663e 2d64 df3e fed5 49bf 441b bcbe
00000040: 9e1a e3bf a5e8 003f bb38 b2bf d9e2 81bf
00000050: 6b37 4440 2360 2c3f f573 0cc0 72e7 84c0
00000060: ffd8 6b3e 2a04 c5bf 9f73 1540 9440 33bf
00000070: 0755 74bf 9306 a8bf a218 9e3d 3e30 483f
00000080: 7a2a 843e 10f4 2fc0 14fc 8540 6ed3 8a3c
00000090: a2b5 ecbe 4e3c ea3e 23b2 02c0 6120 f5bf
000000a0: 872f 843e b438 cc3e 06df 2e40 a9f5 1fbf
000000b0: 5f59 7b3f 4aa1 4dc0 d771 053f c304 eabe
000000c0: 7237 1ec0 ff03 f4bf 01bc ee3f fd0f 02c0
000000d0: dfe0 d6bf 2c44 9cbf 53ae ccbf 4dfc 7140
000000e0: 8e8d 29c0 aa79 d33f 9e27 c83e d435 04c0
000000f0: 0f1f fa3f 25cf e3bf 393d 13c0 7220 b2bf
1.1353415 -0.82027024 -4.052315 -1.5906292 0.4315414 1.596019 3.780368 0.6376086
-1.7158816 1.3649962 2.041844 0.1071212 0.22544749 0.43631116 -0.7884215 -0.36739552
-1.7742498 0.5035499 -1.3923563 -1.0147353 3.0658824 0.67334193 -2.1945775 -4.1532526
0.23031996 -1.5391896 2.335182 -0.70020413 -0.9544224 -1.3127006 0.07719542 0.7819861
0.25813657 -2.7492714 4.1870213 0.01694652 -0.46232325 0.45749134 -2.0421226 -1.9150506
0.2581751 0.3988701 2.7323623 -0.6248422 0.98183244 -3.2129693 0.5212683 -0.45706758
-2.472134 -1.906372 1.8651124 -2.0322258 -1.6787375 -1.2208304 -1.59907 3.7810242
-2.6492648 1.6521504 0.39092726 -2.0657854 1.9540728 -1.779759 -2.3006117 -1.3916152

body.block1.norm.running_var f4 [64]
00000000: 8992 ff3f 6866 1040 e1b1 5040 6cb5 1c40
00000010: 2d94 603f 4589 4840 0b62 6240 3468 7f3f
00000020: fdc3 4e3f 9a1c b13f a7aa 0a40 fb5b 493f
00000030: ead7 1b3f ce71 4040 db65 b93f c41f a63f
00000040: d233 1540 dea8 8c3f 1f76 293f d42d 823f
00000050: 8482 753f 54fb 673f acdc c63f f838 9140
00000060: ead5 563f cf12 b53f d91d fd3f f117 a13f
00000070: 8e19 953f a533 c73f 93f0 803f 3f95 123f
00000080: 0b2c b73f 30dd 3840 f41f 8d40 6e72 9b3f
00000090: d7f6 5140 7cc7 2140 6f3a dc3f 6cd6 0040
000000a0: 6c40 833f 4189 9e3f 4328 ce3f 5ed8 9f3f
000000b0: 0a4b 8c3f 4fd7 5b40 9217 c93f 6a1f 693f
000000c0: f8aa 8b3f cc4b 923f 7cbf b03f 8844 db3f
000000d0: 1def 0840 c3a4 1140 9b33 a83f 8b7a 1a40
000000e0: a72d 6a40 fbac 9d3f 6ec3 233f 4b2b f63f
000000f0: 4e8b 923f d32c 3840 9084 1340 3783 863f
1.9966594 2.2562504 3.2608569 2.448573 0.877261 3.1333783 3.537234 0.99768376
0.80767804 1.3836854 2.1666658 0.78655976 0.60876334 3.006946 1.4484209 1.2978444
2.3312879 1.0989034 0.66195863 1.0170236 0.95902276 0.9061787 1.5536094 4.538204
0.83920157 1.4146365 1.9774734 1.2585431 1.1648424 1.5562636 1.0073417 0.5725898
1.4310316 2.8885002 4.4101505 1.2144296 3.280691 2.5278006 1.7205333 2.0130873
1.0254035 1.2385637 1.6106037 1.2487905 1.09604 3.4350164 1.5710318 0.9106356
1.091155 1.1429381 1.3808436 1.7130289 2.1395943 2.2756813 1.3140749 2.4137294
3.6590364 1.2318414 0.6397008 1.9231962 1.1448762 2.8777359 2.304966 1.0508794

body.block2.conv.weight f4 [64, 64, 3, 3]
00000000: 7dba c2bd 1074 17be 1bea 0cbe 246c 13bd
00000010: 208f 50bc 1db5 5fbc 9d4a 163d 8d31 13bd
00000020: b38b 24bd 2b59 563d 3a40 863d 7842 8c3d
00000030: 580c 77bb 0c87 9e3c f0d9 4b3d 2f01 f73c
00000040: b05d 903b 2513 a93d 9bc4 b43d 7848 0b3d
00000050: b08c 64bd d930 ff3c ec9c 51bc 742e 47bd
00000060: dd81 1a3b 3179 47bd 01ac c9bd 8ef8 9dbd
00000070: 669a db3c 3f51 193d 3266 37bd 0adf 583c
00000080: 6193 7f3d 2b98 f93c 4f6d 153d f897 123c
00000090: b25a 87bd ad48 5bbd b6bb 67bc 92e9 81bc
000000a0: c0a1 25bd 3de0 84bd 819a 12bd 70ff 56bb
000000b0: 3d73 30bd 08c4 06bd a700 973c 43dc 68bd
000000c0: b11b fc3c 16a4 3ebd e0a1 1dbc ccdc fd3c
000000d0: 0c9e 9e3b bc3d dbbc d244 af3d 0f23 f83c
000000e0: 4017 28bd 3d9a af3d 6148 403d 6485 b1bb
000000f0: fab5 c03c 97b0 333d 0317 7a3c 866d fb3c
00000100: fe6a 5c3c b96b 6ebc 5966 923a 71ab 143d
00000110: da14 f63b 0ecf d0bc 4f84 8fbc 4c8b 053d
00000120: fddc 753a e680 d23c 92fc d83c 93bf b0bd
00000130: f23e 173d 3c03 35bd cadf e43c 096c 1abd
00000140: 5e3f 0ebd 5cb8 acbd b0a5 a6bd 5478 183d
00000150: 01f3 aa3d 7034 d53c 7437 543d 7bee 2b3d
00000160: 2ed8 2b3d 6509 9b3c f9d0 9ebd 00ae 91bd
00000170: e125 2f3d e395 36bc 2b7b 68bd 1a58 333d
00000180: d77b cabc 9ba6 babd 53f6 44bd 7511 0dbc
00000190: d572 ea3c 6fd4 2b3e 4939 ec3c 899a 7ebd
000001a0: 1b26 31bb e48e 443d cdf5 0bbc f1c3 c5bd
000001b0: 4960 183d fca7 183d 016d f13d 7640 973c
000001c0: f443 4abd 5586 e6bc 6436 653b e23a 39bd
000001d0: 4e60 e8bc 60be 1b3d df4d 233d 74dd 22bd
000001e0: f784 2c3d d073 e5bc 813d e63c 5ee1 42bd
000001f0: 8e1f d1bd 22f5 9fbc 9fff 653d 16af ec3a
00000200: 6899 373d 1c67 883c eef4 91bc 3b30 ce3d
00000210: b901 e8bd 7bbf 88bc 00c0 1cbc 5755 983d
00000220: ff6d 2c3d bbab 33bd 3e63 c1bc f93a 77bc
00000230: 3327 60bd a739 2bbe fe13 d7bd aa60 adbd
00000240: da15 c23c a9a6 6e3c 0160 323d 3f6c 123d
00000250: 389f 88bc 445b a3bd 06f2 9b3d 1edb ccbd
00000260: 3378 46be 1140 b93d 6258 44bd 7f08 56bd
00000270: ce65 9f3c 50a4 52bd 4412 e4bd 8315 d63c
00000280: 04b0 60bd 233f 7abd b61e 143d 7af5 253d
00000290: dec0 3a3d f7d6 0a3e ca0b ca3d 3088 983d
000002a0: 9d0a 163d 963c bebc 8e21 ecbc dae1 6ebd
000002b0: 3678 49bd 6f6f 46bd 8787 f9ba 27c7 1f3d
000002c0: ad00 c13d 7935 a9bd 3aab b4bc f048 b33c
000002d0: 0ace b73d a699 ca3c c1f7 febc bd58 7dba
000002e0: 34b9 573d 815e c2bb b3cc 913c 0633 153d
000002f0: 43d5 72bd 189d a53d 08ec ee3b c866 eebd
00000300: 47d0 1cbd fbaf ab3c e843 35bd db4b d2bd
00000310: e213 34bd 94e7 d3bd a046 1dbc 42b2 7f3d
00000320: fb05 fa3d 5c4a 41bd 95ab f13a 6ae2 7f3d
00000330: c3cb 16bd 83f7 bfbb 92b6 303d 2694 64bd
00000340: 33a3 45bd ecec 18bd 362f 95ba 1b31 80bc
00000350: 625b 73bc c299 053e bfa6 f83d 9f33 47bb
00000360: 4f33 0fbe 686f 2dbe 72d7 83bd 2da7 f5bb
00000370: 8005 86bd 0fbe 1ebc 2c52 b63d 369f 74bd
00000380: c697 38bd a072 233d 05d6 643c a78a 38be
00000390: e064 84bd 7da5 5c3c df31 9cbd 9a9e 64bd
000003a0: 0afa 693c 400d 303a a1cb cf3d d3d0 713d
000003b0: 6e60 f83c 00d4 7bbd 9387 a3bc 8ef8 9dbd
000003c0: 6529 40be 3a3b a3bd 8334 013d 967e d23c
000003d0: a466 a73d d4f1 b53c a85e a0bc 0436 973a
000003e0: 2ea3 bb3b ab6f acba 6374 80bd 0838 9cbc
000003f0: e4a5 33bd 3c14 dfbd ad03 4bbe f1e3 553c
-0.09508226 -0.14790368 -0.13761179 -0.035991803 -0.012729436 -0.013654021 0.03669225 -0.035935927
-0.04017229 0.05233113 0.06555219 0.068486154 -0.0037696566 0.019351505 0.04976839 0.030151932
0.0044056997 0.08255605 0.08826562 0.03400466 -0.055798233 0.031151222 -0.012793761 -0.048628286
0.002357594 -0.04869956 -0.0984726 -0.07713424 0.026807021 0.037430998 -0.044775195 0.01323677
0.06239641 0.030468067 0.036481198 0.008947365 -0.06609096 -0.053536106 -0.014143875 -0.015858445
-0.04043746 -0.064880826 -0.035791878 -0.0032806061 -0.04307865 -0.032901794 0.018432928 -0.056850683
0.030774923 -0.046543203 -0.009621114 0.030989073 0.004840618 -0.026762836 0.08558048 0.030290155
-0.041037798 0.085743405 0.046944026 -0.0054175127 0.023524273 0.04386958 0.0152642755 0.030691873
0.013453243 -0.01455205 0.0011169418 0.03629631 0.00750981 -0.025489356 -0.017519144 0.032603547
0.0009378938 0.02569623 0.026487622 -0.0863029 0.036925264 -0.044192538 0.027938742 -0.037700687
-0.0347284 -0.08433601 -0.08137071 0.03722413 0.083471306 0.02602598 0.051810697 0.04197548
0.041954212 0.018925378 -0.07754702 -0.07113266 0.042760734 -0.011144134 -0.056758087 0.043785192
-0.024717255 -0.09113809 -0.048086476 -0.008610119 0.02861921 0.16780256 0.02883591 -0.062159095
-0.002703077 0.047987834 -0.00854249 -0.096565135 0.0372012 0.037269577 0.11788369 0.018463355
-0.04938121 -0.028140226 0.0034975046 -0.04522217 -0.028366234 0.038023353 0.039869186 -0.039761975
0.042118993 -0.028009325 0.0281055 -0.04757821 -0.10211097 -0.019526068 0.056151982 0.0018057551
0.044824034 0.016650729 -0.017816987 0.10067793 -0.113284536 -0.016692868 -0.009567261 0.07438152
0.042097088 -0.043864947 -0.023606893 -0.015089744 -0.054724883 -0.16721211 -0.1050186 -0.08465703
0.02369206 0.014566102 0.043548588 0.035747763 -0.016677484 -0.07976392 0.07614522 -0.10002731
-0.1938179 0.09045423 -0.04793585 -0.052254196 0.019457724 -0.05142623 -0.111362964 0.026133304
-0.05485536 -0.061095368 0.0361621 0.040517308 0.04559409 0.13558565 0.0986553 0.07447851
0.036631215 -0.023222249 -0.028824594 -0.058320858 -0.049186908 -0.048446115 -0.0019037583 0.039008286
0.09423957 -0.08262152 -0.022054303 0.021885365 0.08974846 0.024731468 -0.031123998 -0.0009664407
0.052666858 -0.005931676 0.017797804 0.036425613 -0.059285413 0.08086604 0.0072913207 -0.11640698
-0.038284566 0.020957937 -0.044254214 -0.102683745 -0.043964274 -0.103469044 -0.009599358 0.06242586
0.12208172 -0.047190055 0.0018437976 0.062471785 -0.036815416 -0.005858363 0.043142863 -0.055805348
-0.048251342 -0.03733532 -0.0011381868 -0.015648415 -0.01485333 0.13046935 0.12141179 -0.0030395759
-0.13984416 -0.1693703 -0.06437577 -0.0074967355 -0.06544018 -0.009688868 0.08902392 -0.059722148
-0.045066617 0.039904237 0.013967042 -0.18021642 -0.06464553 0.01346719 -0.076267 -0.055815317
0.014280805 0.00067158416 0.10146261 0.05903704 0.030319419 -0.061481476 -0.019962108 -0.07713424
-0.18765791 -0.07970281 0.03154422 0.025695127 0.08173874 0.02221004 -0.019576386 0.0011536484
0.0057262396 -0.0013155838 -0.06272199 -0.019069687 -0.043859378 -0.10892531 -0.19825621 0.013054834

body.block2.conv.bias f4 [64]
00000000: fed2 11bd 648b bc3c c11f d7b9 a694 06bc
00000010: 1921 7f3c 2e44 72bc 7797 3a3c cae7 26bd
00000020: 287b 30bc 402b 1cbd fd5e 8cbc e970 803d
00000030: f7c7 a83b c6e7 033d 0956 02bd 1b53 123d
00000040: e993 303c 1b1f debb 9268 143d 105a b1bc
00000050: fc7a f2bb 7b88 b3ba 68e8 0f3d c41b fabc
00000060: fccd a8bc 391e 323d 2351 5e3c 150f 863c
00000070: efc6 233b 7c06 4bbc 7232 19bc c166 a6bc
00000080: 9501 b23b 4c04 283d a69b 12bd 0453 fabc
00000090: 1c0b e83c 0018 1a3c e782 eebc 1ba5 44bd
000000a0: bb0c a4bc 0bd4 383b f01f 69bc 12e7 a83a
000000b0: bd19 a73c d603 86bc b2b2 2dbc 9303 56bc
000000c0: d71f f73c 007b 0c3c dd09 2cbd 7e2d 06bd
000000d0: 8c9a a13b f137 94bc 1f4f cabc 2fb9 a4bc
000000e0: 18d3 e6bc 221a f7bc f26d 02bd ecee 19bc
000000f0: d8eb 193d d266 223d bc4e ebbc 6427 23bd
-0.03560161 0.023015685 -0.00041031654 -0.0082141515 0.015571856 -0.014786763 0.011388651 -0.040748395
-0.01077155 -0.038127184 -0.017135138 0.06271536 0.005150791 0.03220346 -0.03182033 0.035723787
0.010777452 -0.0067786104 0.03623254 -0.02164939 -0.007399915 -0.001369729 0.03513375 -0.030530818
-0.020606034 0.043485854 0.013569149 0.016364614 0.00249904 -0.012391683 -0.009350406 -0.020312669
0.0054323175 0.041019723 -0.03579297 -0.030557163 0.02832561 0.009405136 -0.029115153 -0.04800902
-0.020025602 0.002820256 -0.014228806 0.0012886247 0.020398015 -0.016359251 -0.010601686 -0.013062376
0.03016655 0.008574247 -0.042001594 -0.03275823 0.0049317535 -0.018093081 -0.024695931 -0.020107834
-0.02817683 -0.030163828 -0.031843133 -0.009395342 0.037578434 0.03964884 -0.028724067 -0.039832488

body.block2.norm.weight f4 [64]
00000000: 80ed 483f c71e 563f 0338 653f 8cdf 873f
00000010: 17d9 513f 4fd6 653f bb22 823f 1692 773f
00000020: e234 6a3f 6717 733f 3c69 8a3f c2b2 713f
00000030: dda0 463f 3e9f 743f 14a7 663f 37d1 443f
00000040: a005 6c3f 7d56 563f 1151 5e3f 880e 473f
00000050: 752f 543f c558 7c3f c698 553f 0663 873f
00000060: 3b4f 803f e83e 673f b924 6d3f 6668 603f
00000070: ed61 783f 011e 6c3f be76 7a3f b343 653f
00000080: 07fb 7c3f 59c2 673f bbe2 613f 54b5 543f
00000090: f905 583f e56b 7b3f f216 6e3f efbd 6d3f
000000a0: cc29 773f 121a 9a3f 10eb 6b3f 0592 443f
000000b0: 5fd5 6d3f 6d53 503f 94b2 633f 55eb 763f
000000c0: c260 7d3f 178d 5c3f 08e1 593f 7aa7 5c3f
000000d0: 1e0a 633f 2fa5 833f ca2f 5e3f 1c52 613f
000000e0: 8cfd 7f3f c21b 4e3f 9923 543f 451d 853f
000000f0: 60be 723f bb41 883f aab0 6e3f 3cc1 7c3f
0.78487396 0.8364071 0.8953859 1.0615096 0.8197188 0.89780134 1.0166849 0.96707284
0.9148694 0.94957584 1.0813365 0.9441339 0.7758921 0.95555484 0.9009869 0.76881737
0.92196083 0.8372572 0.8684245 0.7775655 0.82884914 0.9857295 0.8343624 1.0577095
1.0024179 0.9033036 0.9263416 0.876593 0.9702442 0.9223328 0.97837436 0.89556426
0.9882054 0.90530926 0.8823659 0.83089185 0.84384114 0.9821151 0.9300376 0.9286794
0.9654815 1.2039206 0.9215555 0.7678531 0.92903703 0.813773 0.88944364 0.9645284
0.98975766 0.86152786 0.85108995 0.8619305 0.8868731 1.0284785 0.8679167 0.88015914
0.99996257 0.80511105 0.8286682 1.0399557 0.9482174 1.0645059 0.9323832 0.9873235

body.block2.norm.bias f4 [64]
00000000: 0442 ea3e f23f c13e 9d58 e03e 1c9b 193f
00000010: 5a83 1d3f 9f99 fc3e 2295 0d3f fb73 cb3e
00000020: e38f 3d3f a47e 183f 8fb0 cebd 360e 3e3e
00000030: 1414 2b3f 9c6e 1b3f 5cdf 643e 3306 353f
00000040: 27f2 253f f889 093f 97e7 b83e 73ed 4d3f
00000050: 25b5 a73e 9b0e c73e 94fd 243f d267 ee3e
00000060: 2941 6e3e cb7c 9b3e 6657 3a3e 6fa9 cc3e
00000070: a2f5 62bd 224b 293e 0440 233f 3377 c63e
00000080: 5710 d33e 0711 f83e 9f08 363e 6f6a fa3e
00000090: 125b 143f 6f14 a43e c17d 2b3f 99d5 da3e
000000a0: 3447 6e3e 70a0 0c3e 6107 063e 5214 423f
000000b0: f581 d43e de7b 1f3f 88a0 173f 70ac 9b3e
000000c0: 25cc d23e fcf1 043f 83ed 8a3c b93d 3f3f
000000d0: 8b4e 073f bdb8 b7be b655 283f e1fb ef3e
000000e0: ae3d c03e a64b 083f 2b99 693e 2454 b83e
000000f0: 7494 a73e 0c6b f43d 285b 8f3e 25b6 9d3d
0.4575349 0.377441 0.43817607 0.60002303 0.6152855 0.49335954 0.55305684 0.39736924
0.7404768 0.5956824 -0.1009227 0.18560109 0.6682751 0.6071565 0.2235083 0.70712584
0.6482262 0.5372615 0.3611419 0.80440444 0.3275539 0.3887833 0.6444943 0.46563584
0.23267044 0.30368647 0.18197402 0.39973018 -0.055410035 0.16532567 0.63769555 0.38762817
0.41223404 0.4845049 0.17776726 0.48909327 0.5795146 0.3204684 0.6698876 0.42741087
0.2326935 0.13733077 0.13088752 0.75812256 0.415054 0.6229838 0.59229326 0.30404997
0.41171375 0.5193174 0.016958958 0.74703556 0.5285422 -0.35883132 0.65755785 0.46871856
0.37547058 0.5324043 0.22812335 0.36001694 0.32730448 0.1193448 0.27999234 0.07700757

body.block2.norm.running_mean f4 [64]
00000000: 02b3 b8bf e26e fabf 1553 14c0 b088 9fc0
00000010: c6cd 013e dcca 79be e362 40bc 00e6 83bf
00000020: 2440 9dc0 6829 ad3f 52f6 d4c0 d85b 08c0
00000030: 1869 a9bf 6e86 1e3f cb36 d63f 2c22 a63f
00000040: ebdd 05c0 31a5 3ec0 52e5 edbe cf83 2d3f
00000050: ac46 19c0 cc1d 6f3f 57c7 c1bf 0d8a 4fc0
00000060: 6b29 32c0 7588 9d3e 7454 91bf 1d9e 0dc0
00000070: 6e5c 0940 05ed 8ebf 804e 0cc0 35b0 52bf
00000080: 29b0 38c0 61b0 5240 e47f d63f 1fea 2ac0
00000090: 439e b73f 81da acbe 1233 ccbd 6bbe 153f
000000a0: 9a2b 40c0 fb44 6940 f8b8 e3bf a67f 2ac0
000000b0: 2308 84c0 695e cabf 111e a5be 0776 b6bd
000000c0: d505 28c0 b3f5 14c0 9d58 17c0 52bf 50c0
000000d0: 3245 9fbf e960 523f c04f 713f d06c 31bf
000000e0: bf6c 4cbc b080 bd3f 2f1e d13d c970 79c0
000000f0: 9701 c23e ae55 67bf 61a2 a0bf f46c 62c0
-1.4429629 -1.9565089 -2.317571 -4.9854355 0.12676153 -0.24393791 -0.011742326 -1.0304565
-4.9140797 1.3528261 -6.6550684 -2.1306057 -1.3235197 0.61923873 1.6735471 1.2979178
-2.0916698 -2.9788325 -0.4646402 0.6777925 -2.3949385 0.9340484 -1.5138959 -3.242801
-2.783778 0.3076817 -1.1353898 -2.2127755 2.1462665 -1.1166083 -2.1922913 -0.8230012
-2.885752 3.2920153 1.6757779 -2.6705396 1.4345173 -0.33760455 -0.099706784 0.5849368
-3.0026612 3.6448352 -1.7790823 -2.664041 -4.1259933 -1.5810062 -0.322495 -0.08909231
-2.625356 -2.3274963 -2.3647835 -3.2616773 -1.2442992 0.82179123 0.94262314 -0.6930666
-0.012477099 1.4804897 0.10210835 -3.8975089 0.37891838 -0.9036511 -1.2549554 -3.5379

body.block2.norm.running_var f4 [64]
00000000: 95a8 473f 4982 583f 48a6 3a3f 2926 9440
00000010: 05f2 ae3f 4fb2 903f 662c 2540 7625 963f
00000020: f89b 4c40 bd50 9d3f 5f87 843f 32b3 1e3f
00000030: ffdf 203f 7e72 423f 7a9b 473f 2efe 383f
00000040: b0dd 203f 0212 0b3f 2862 433f 83e9 2a3f
00000050: 8108 1e3f 05df e83f 34cf 6a3f 907f 1440
00000060: a8b0 dd3f 24fb 2e3f 5bcb 253f eabc 823f
00000070: 8700 613f 45f8 6f3f 04e6 e03f d8e8 0e3f
00000080: 4967 a33f bf94 7b3f 8936 593f 8080 743f
00000090: 43d2 543f 2593 ae3f 0e09 0a3f 1699 a13f
000000a0: fb08 973f a219 b840 6027 5c3f 34d9 893f
000000b0: 69ec e73f 1002 583f 8f6f 8d3f 05e7 d03f
000000c0: 634f 5c3f 2b88 5b3f c063 1d3f a1ac 0140
000000d0: 436c 633f 1285 043f 12d0 f13e 1dac ad3f
000000e0: b30e f83f cd1a 2c3f 5e79 593f f399 2a40
000000f0: 3c28 9b3f 0eb5 a93f 1623 a63f d116 453f
0.7799161 0.845738 0.72909975 4.629658 1.3667608 1.1304415 2.5808349 1.1730182
3.1970196 1.2290264 1.0353812 0.6199218 0.6284179 0.7595595 0.77971613 0.7226285
0.6283827 0.5432435 0.7632165 0.6676256 0.61731726 1.819306 0.91722417 2.3202858
1.7319536 0.6835196 0.6476342 1.0213902 0.8789143 0.93738204 1.7570195 0.5582404
1.2765895 0.98273844 0.8484884 0.95508575 0.83133334 1.3638655 0.53920066 1.2624843
1.1799616 5.753129 0.8599758 1.076941 1.8119022 0.8437815 1.104967 1.6320502
0.86058635 0.8575465 0.6148033 2.0261614 0.8883707 0.5176555 0.47229058 1.356815
1.9379486 0.67228395 0.84950817 2.6656463 1.2121654 1.3258379 1.2979457 0.7698794

body.block3.conv.weight f4 [64, 64, 3, 3]
00000000: f2e7 05bd 63ca adbd 5935 6abd e3a9 2dbc
00000010: 4754 bfbd ef73 f8bd a416 dd3a 564c 823d
00000020: b78e c23c 3ac4 64bd 318c 86bd 250e b2bd
00000030: 8fe5 e4bd 0a16 29bc 7596 563d d0af 8a3c
00000040: 72ae 223d 2a89 4abd dec1 343b cbe4 923d
00000050: 191b e4bc 0403 f03c 3964 e93c 3b1c dbbc
00000060: aa4a b2bb d1dd dabc 014d e3bb 89a6 223d
00000070: d854 b23c f38b 41bd efc2 0b3d 6303 c93d
00000080: 4700 903d fb1b ad3d 1785 203e 2bc3 3f3e
00000090: d85e 1b3d 16d5 06bd 371c c6bd 964e f33c
000000a0: 7782 b9bc d7a1 273b 7326 d13b eb2c 1cbd
000000b0: c417 613d 434d 02bc f920 17bd 38f8 99bd
000000c0: 1eb4 a5bb 9234 3fbd f0fe fdbd 9898 42bd
000000d0: e7bf 6a3d bb49 123c 9481 c0ba b643 e33a
000000e0: 7c16 3e3d aa54 733d 21f3 45bc 4c7a b9bb
000000f0: 0b1f f13d cd6f 633d d7f6 3dbb 7b19 7f3d
00000100: 9f02 313d 1758 a8bb 07b8 ca3c 4743 463d
00000110: 9a1a efbd 5843 87bd 640e 64bc 5676 863d
00000120: b474 983d 2a65 d13d d3f5 7fbb 22f7 fb3c
00000130: 754c 023c 2c6c a8bd ebbf a3bd 2274 26bd
00000140: 3b00 9bbd e8aa 993d 1436 443c 7ccb 9c3d
00000150: 1ad5 dcbd 0ddd 77bd 8f8d 233d 164c 3bbe
00000160: 26c5 12bd 2b74 cf3d 19ec 363d 8b85 6b3d
00000170: d055 ec3c b3c5 253e c6c9 983d 2e61 e43c
00000180: 113e 09bc 4385 df3b 4677 203d 5364 1dbe
00000190: 648c 243d a937 413c fb15 85bd c671 4f3d
000001a0: 6602 10bd aaf7 7abd ba29 2d3d 3b50 b0bd
000001b0: da97 c63d 053a 583c f7ba 86bd 23ac 8c3b
000001c0: e80f b0bc 78b8 b53c a785 04bb 24e3 86bd
000001d0: 942f 31bd 1700 afbd 8398 7ebd 6a37 51bd
000001e0: 85a9 d1bd 6f23 cd3b 678a 7d3d a405 113e
000001f0: db4f da3c c4bb b63d af93 dcbd 5aca cabb
00000200: 55d3 88bc a4e6 f1bd e3d8 b0bd b8d1 2b3d
00000210: 88a1 123d 6746 ae3d e68d 993d d2f2 c8bd
00000220: 1858 bb3d aa4a a03d d01e 0abb e566 ce3c
00000230: aecb 2e3e 0e43 b0bd b36a 02bc c6bd 1f3e
00000240: 90ca 8dbd af6f 693c 3918 8fbb 2d3d 92bd
00000250: 0de3 e6bc 6c53 b93c b430 debd 22e6 e8bd
00000260: 0e60 85bb e2d5 d8bd 7e02 85bd 7949 4c3d
00000270: d375 183c c98b b4bd f3ae 823d 130f 5dbc
00000280: 49bc f6bc e5c4 b6ba 186b febc 1e2a 29bd
00000290: cae3 983c 3432 debd 3291 e2bc 5597 0c3d
000002a0: 6d5c 343d db97 4fbd 4dbd c0bc 1a04 b7bb
000002b0: 4537 c63b 4245 afbc 50db 483d be10 c139
000002c0: f163 97bc cada 55bd 8787 09bb 1f2d 873c
000002d0: 8b5d a7bd 63e5 1f3d 04c6 003c 63a8 5ebd
000002e0: cfa6 cbbc b8ac 843d 2f9f afbd 48f1 a5bd
000002f0: d2a9 303d 21ba 3dbe d7a7 ddbd e35f 56bd
00000300: 882b 95bd de45 4abd d87a c1bd 0875 a03c
00000310: f810 b33d a04b 663c cef1 923d 2c4d f13c
00000320: 1758 323d ab37 c6bb cb92 e93b 98f0 87bd
00000330: 0e51 7bbc dc00 7b3d 98ca 4b3c b17a 843c
00000340: e2be 373d efbc 6ebd a9d3 a639 064c 2c3d
00000350: afeb 54bc 52f1 ad3d 56b9 d03d 27bd b13d
00000360: 071b 5c3d 3cc8 0b3d 2eed f7bb 67e0 723d
00000370: e78c e43d 6d53 283c def1 cdbd 446f 03bd
00000380: 68a9 9b3d 42e3 8fbd ace0 afbd c493 83bd
00000390: 3940 c23d bbd1 a13d 7b37 ed3d 910c 98bd
000003a0: 2b29 bfbd a8fe 2c3d 55b0 493c 2e30 abbc
000003b0: d031 63bc 9fe4 92bc 8dec 9fbd ab5e 903b
000003c0: dcde 7fbd 4513 47bd cc76 19bd 5c6c 463d
000003d0: 93fe 373c 235f 633e 3770 f03b 50da b9bd
000003e0: eaf6 cbbd 580f b53c d139 873c c3de d53c
000003f0: 0059 053d 99fb c2bc 32b9 213d ba0a 30bb
-0.032691903 -0.08485868 -0.057179783 -0.010599586 -0.093422465 -0.121314876 0.0016867709 0.06362216
0.023749692 -0.0558512 -0.06569708 -0.08694104 -0.11176597 -0.010320196 0.05238958 0.016929537
0.039717145 -0.049447216 0.0027581374 0.07172545 -0.027844952 0.029298313 0.028490173 -0.02674686
-0.0054410296 -0.026717098 -0.00693667 0.0397096 0.021768972 -0.047252607 0.03412145 0.09815099
0.07031303 0.084526025 0.1567577 0.18726794 0.037932247 -0.03291806 -0.0967335 0.029700559
-0.022645218 0.0025578642 0.0063827573 -0.038128775 0.054954305 -0.007952991 -0.03689668 -0.07518047
-0.005056872 -0.046680994 -0.12402141 -0.047508806 0.05731192 0.0089287115 -0.0014687055 0.0017338905
0.04640816 0.059406914 -0.012081892 -0.005660331 0.11773499 0.055526543 -0.002898624 0.06228016
0.04321539 -0.0051374543 0.024745954 0.048404004 -0.11674996 -0.06604642 -0.013919447 0.065655395
0.07444134 0.10224374 -0.0039056435 0.03075749 0.007952799 -0.08223757 -0.0799559 -0.040638097
-0.07568403 0.07503301 0.011975784 0.07655999 -0.107828334 -0.060513545 0.039929923 -0.18290743
-0.035832547 0.10129579 0.044658754 0.057500403 0.028849512 0.16188698 0.0746036 0.02787837
-0.008376614 0.006821306 0.039176248 -0.15370302 0.04017295 0.011793056 -0.06498333 0.050645612
-0.035158537 -0.061271347 0.04227612 -0.08609053 0.09696932 0.013197427 -0.065786295 0.0042929812
-0.02149196 0.022182688 -0.0020221265 -0.065862924 -0.043258265 -0.08544939 -0.062157165 -0.051078238
-0.102374114 0.0062603275 0.06189957 0.14162308 0.026649406 0.08922532 -0.10770356 -0.006188673
-0.016702333 -0.11811569 -0.08635118 0.04194805 0.03579858 0.08509522 0.07497768 -0.09811939
0.09147662 0.07826741 -0.0021075495 0.025195548 0.17069885 -0.0860654 -0.007960009 0.15599737
-0.06923401 0.014247819 -0.0043669012 -0.071405746 -0.028184438 0.022622786 -0.10849133 -0.11372019
-0.0040702885 -0.1058767 -0.06494616 0.049874756 0.009305435 -0.088157244 0.06381025 -0.0134923635
-0.030119078 -0.0013944177 -0.031056926 -0.04129993 0.018663306 -0.10849419 -0.027657125 0.03432401
0.044033457 -0.05068193 -0.023527766 -0.0055852057 0.006049069 -0.02139533 0.049037278 0.00036824303
-0.018480273 -0.052210607 -0.0020985322 0.016501008 -0.08172139 0.03903712 0.007859711 -0.054359805
-0.024859814 0.06478256 -0.08575284 -0.08102661 0.043130703 -0.18528034 -0.108230285 -0.05233754
-0.072836936 -0.049383037 -0.09447259 0.019587055 0.08743471 0.014056116 0.07175027 0.029455744
0.04354104 -0.0060491166 0.007128095 -0.066376865 -0.015339149 0.061280116 0.012438439 0.016171785
0.044859774 -0.05828565 0.00031819686 0.04206469 -0.0129956445 0.08493294 0.101916 0.08678656
0.053736713 0.034126505 -0.007566116 0.059296038 0.111596875 0.0102737965 -0.10055898 -0.032088533
0.07600671 -0.07025768 -0.08587775 -0.064246684 0.09484906 0.07901331 0.11582848 -0.07424272
-0.09334024 0.042235047 0.012310107 -0.020896997 -0.013866857 -0.01793128 -0.0780879 0.0044058166
-0.062468395 -0.04860236 -0.03746681 0.048443183 0.011230129 0.2220426 0.007337596 -0.09074843
-0.099592045 0.022102043 0.016507061 0.026107198 0.03255558 -0.023801612 0.039483257 -0.0026861862

body.block3.conv.bias f4 [64]
00000000: 31a0 263d 6ce4 f7bc 425b b7bc 3bea 11bd
00000010: 021e 983b 710e 13bd f494 443d 6966 013d
00000020: f497 c1bd 7b6e 2a3d 0ae1 223c 5bb2 643c
00000030: e0b7 813d c9fd 0fbc 17e7 393d adba 5ebb
00000040: 151d 9c3c 6955 2dbc 6979 9ebd dae8 81bc
00000050: ac52 9cbd 6775 81bc 1cc8 793d a8f4 10be
00000060: f8c6 e6bd bd7a 64be 4cc8 d53a 2330 babc
00000070: 9f06 a4bb 4f66 163d a6ed ca3c 5997 3e3d
00000080: 0231 123d fa98 59bb 4347 98bb 9b36 8d3c
00000090: 0d44 d53c 4157 153e afec c9bd 017f c83c
000000a0: 3438 2d3d 9775 0f3d 008c 9bbd b141 7dbc
000000b0: cdf6 fa3c bb97 8dbd d381 0bbc 1980 70bb
000000c0: 08be 923d ad9d 34bd 24ff 92bd d5db 253d
000000d0: 2f1c 3b3d 585e 253c 2b6c b03b 95da 69bd
000000e0: a28a 31bd a183 0ebc f164 653d f80b 643d
000000f0: 21d2 273e 50d2 873d 782c 08bd 76f1 b8bd
0.040680114 -0.030260287 -0.022382382 -0.03562377 0.004642249 -0.035902444 0.047993615 0.031591807
-0.09452811 0.04160927 0.009941349 0.013958539 0.063338995 -0.008788534 0.0453864 -0.003398578
0.019056836 -0.010579445 -0.07738001 -0.015858103 -0.07632956 -0.015803052 0.060981855 -0.14155829
-0.11268419 -0.22312446 0.0016310303 -0.022728032 -0.005005672 0.036718663 0.024771523 0.046531055
0.03569127 -0.0033202753 -0.004647167 0.017237952 0.026033426 0.14584066 -0.09859597 0.024474623
0.042289928 0.03502425 -0.07595062 -0.015457557 0.030635262 -0.06913706 -0.008514839 -0.0036697446
0.07165152 -0.044095684 -0.071775705 0.04049285 0.045681175 0.010093294 0.0053839884 -0.05709322
-0.0433451 -0.008698375 0.05600447 0.055675477 0.16388752 0.06631911 -0.033245534 -0.0903043
