SinGan/TrainedModels/cows/scale_factor=0.750000,alpha=10/6/netG.pth (torch_old, 466445 bytes, 26 tensors)

head.conv.weight f4 [64, 3, 3, 3]
0.18477447 0.18012471 0.08699806 0.0905184 0.07667191 -0.033653557 -0.077477165 -0.08724928
-0.046408195 -0.14166063 -0.11188848 -0.060710117 -0.04144106 -0.021692215 -0.059612475 0.0005857211
0.06330267 0.12632018 -0.20825352 -0.055734027 -0.02608821 -0.07241307 0.021960407 -0.013560275
0.021464618 0.06692705 0.0329412 -0.14021285 -0.059992146 -0.128974 -0.17582455 -0.002316195
0.07960031 -0.21739708 -0.06358156 -0.076315224 0.07926097 0.11944849 -0.03667893 0.015005301
0.12400329 0.041735806 0.06319153 0.05114305 0.0060085733 0.043773033 -0.023696564 -0.021107426
-0.019657286 0.04317372 -0.012559611 0.017521314 -0.030376296 -0.18632647 -0.082582355 0.037807085
0.098291926 0.034973737 0.029008768 0.14867754 -0.0052846256 0.039184235 0.39955196 -0.12448338
-0.0321423 -0.120265916 0.08236134 -0.006009225 -0.061892655 -0.0860089 -0.08200539 0.11288765
-0.05923279 -0.010501827 -0.04433575 0.036235016 0.002967555 -0.02113659 -0.021271965 -0.036514305
0.1649676 -0.05683719 -0.1550849 -0.21072005 0.0016812346 -0.030179182 -0.03357574 0.07390858
0.05065412 0.03779591 0.08116259 0.059179824 0.04778912 0.0021243154 0.0035373047 0.14678071
-0.038204663 -0.021145832 -0.032189026 0.18359528 0.021843953 -0.106670305 0.089495234 -0.026817258
-0.104310386 0.13914919 0.006021542 -0.13401368 -0.053141188 -0.002519917 -0.06235415 0.0894412
0.05649859 -0.007208447 0.024074964 0.09862762 0.10045536 -0.16029233 -0.07253668 -0.18155989
-0.00064411666 0.00855141 -0.097519055 0.016973883 0.052158155 -0.03815283 0.07367328 -0.0289332
-0.057949483 0.10703494 -0.021223845 -0.09986043 0.17195937 0.14848219 0.06367803 0.04093745
0.010657882 -0.00049467286 -0.038472783 0.023734873 0.22983783 0.11189968 0.03154692 0.17375444
0.056232125 -0.05204259 -0.12717211 -0.13643485 -0.13159753 0.035003234 -0.10372846 -0.10488996
-0.072041065 -0.0038556745 -0.004160127 0.008662283 -0.08045649 -0.075971656 0.105974205 0.05670562
-0.0443823 0.06647639 -0.11238256 -0.13347192 -0.090276115 -0.0005345565 0.079122275 0.06820654
-0.12143401 -0.11031816 -0.20439622 0.074526645 -0.005083094 -0.014208019 0.10722449 0.16533463
0.14078227 -0.0022101065 0.13186596 0.01242482 -0.013381373 -0.057690874 0.010803708 0.06018541
-0.020695722 -0.0056005586 0.098046735 0.08763991 -0.04150956 -0.12332907 -0.17830217 0.046956886
-0.040286075 -0.07489161 0.06639515 -0.07439404 -0.06606682 0.060340874 -0.03102791 -0.09918299
0.078571275 0.09782292 -0.042399224 0.06847297 -0.08302005 -0.13207722 0.0012911647 0.034538124
-0.011156015 0.17397591 0.044860214 -0.05005387 0.06592639 0.031482965 0.04579026 0.15198296
-0.09913943 0.010501842 -0.035381068 0.027905475 0.07230626 -0.0899229 0.05895518 -0.043139797
-0.18617639 -0.17155328 -0.087114416 0.052306794 0.11966606 0.08400386 0.058915883 0.16402581
0.07866293 -0.07611765 -0.055131372 -0.04898597 0.07614008 0.11649327 0.059641354 0.01662718
0.11581642 0.062000103 -0.011922906 0.1800549 0.08150418 0.096337095 0.12565732 0.049919922
0.028365444 0.15255247 0.04489706 0.07627023 0.18185702 0.103220165 0.2374794 0.061800256
00000000: 8535 3d3e 9d72 383e 0a2c b23d b661 b93d
00000010: 2a06 9d3d 50d8 09bd 59ac 9ebd c0af b2bd
00000020: 8516 3ebd 7c0f 11be ca25 e5bd 2cab 78bd
00000030: 1abe 29bd dfb3 b1bc 362c 74bd 148b 193a
00000040: d5a4 813d 145a 013e 6940 55be 5d49 64bd
00000050: f1b6 d5bc 4e4d 94bd 50e6 b33c ea2b 5ebc
00000060: 91d6 af3c 0d11 893d 5aed 063d f593 0fbe
00000070: 53ba 75bd c311 04be 5a0b 34be 4ecb 17bb
00000080: 7d05 a33d 579d 5ebe 0d37 82bd 284b 9cbd
00000090: 9353 a23d 69a1 f43d a53c 16bd cbd8 753c
000000a0: 70f5 fd3d 2af3 2a3d 906a 813d 607b 513d
000000b0: 91e3 c43b 5a4b 333d 4c1f c2bc 7be9 acbc
000000c0: 5108 a1bc edd6 303d d4c6 4dbc dc88 8f3c
000000d0: b6d7 f8bc 5ecc 3ebe f020 a9bd 9adb 1a3d
000000e0: 474d c93d 9f40 0f3d cca3 ed3c ed3e 183e
000000f0: a72a adbb a67f 203d 1392 cc3e 24f1 febd
00000100: a5a7 03bd fa4d f6bd 10ad a83d 08e9 c4bb
00000110: 2783 7dbd 6f25 b0bd 71f2 a7bd a431 e73d
00000120: 159e 72bd db0f 2cbc 6799 35bd 2b6b 143d
00000130: 507b 423b a426 adbc 8b42 aebc 0690 15bd
00000140: 44ed 283e 1dce 68bd 93ce 1ebe ffc6 57be
00000150: df5c dc3a 553a f7bc b786 09bd 625d 973d
00000160: b27a 4f3d e2cf 1a3d 9238 a63d 8b66 723d
00000170: 86be 433d 1938 0b3b 20d2 673b af4d 163e
00000180: 7e7c 1cbd 063a adbc a4d8 03bd 6700 3c3e
00000190: 17f2 b23c f675 dabd 4749 b73d deaf dbbc
000001a0: afa0 d5bd 207d 0e3e 5b50 c53b e23a 09be
000001b0: 93aa 59bd 3125 25bb 1167 7fbd f32c b73d
000001c0: 116b 673d d634 ecbb dc38 c53c 47fd c93d
000001d0: 8abb cd3d ac23 24be 1c8e 94bd d6ea 39be
000001e0: f0d9 28ba 371b 0c3c 12b8 c7bd d00c 8b3c
000001f0: caa3 553d 2446 1cbd 04e2 963d 5105 edbc
00000200: 705c 6dbd 2235 db3d a1dd adbc a083 ccbd
00000210: 1e16 303e b70b 183e a169 823d 07ae 273d
00000220: 669e 2e3c efac 01ba a395 1dbd a36f c23c
00000230: 9c5a 6b3e a92b e53d 5837 013d afec 313e
00000240: a853 663d 9c2a 55bd 6839 02be 94b5 0bbe
00000250: 81c1 06be 8d5f 0f3d 966f d4bd 8cd0 d6bd
00000260: 448a 93bd 7caf 7cbb ad51 88bb 40ec 0d3c
00000270: 5fc6 a4bd 0797 9bbd 0109 d93d 2744 683d
00000280: 37ca 35bd c624 883d d428 e6bd ddac 08be
00000290: afe2 b8bd 7b21 0cba dc0a a23d dfaf 8b3d
000002a0: 65b2 f8bd 7dee e1bd 3e4d 51be 6da1 983d
000002b0: 1590 a6bb c0c8 68bc 8398 db3d 7b4d 293e
000002c0: 3a29 103e 6fd7 10bb df07 073e 7991 4b3c
000002d0: 8c3d 5bbc 444d 6cbd 0902 313c fa84 763d
000002e0: 138a a9bc e484 b7bb bacc c83d 8e7c b33d
000002f0: ee05 2abd f493 fcbd d894 36be dd55 403d
00000300: 0303 25bd c660 99bd 2efa 873d e75b 98bd
00000310: 0a4e 87bd fe27 773d 3e2e febc 7420 cbbd
00000320: fae9 a03d 6257 c83d cfaa 2dbd 8e3b 8c3d
00000330: 6a06 aabd 403f 07be 4c3c a93a d977 0d3d
00000340: b8c7 36bc be26 323e 58bf 373d 4905 4dbd
00000350: 6a04 873d 48f4 003d 918e 3b3d 6ca1 1b3e
00000360: 9d09 cbbd eb0f 2c3c bdeb 10bd 069a e43c
00000370: 4e15 943d 7f29 b8bd fd7a 713d 5bb3 30bd
00000380: 06a5 3ebe aaab 2fbe 0b69 b2bd a63f 563d
00000390: 7b13 f53d 370a ac3d c851 713d 62f6 273e
000003a0: 081a a13d 92e3 9bbd 6fd1 61bd 83a5 48bd
000003b0: 55ef 9b3d 0694 ee3d 7e4a 743d b935 883c
000003c0: 2931 ed3d d2f3 7d3d 4b58 43bc 5060 383e
000003d0: aaeb a63d 624c c53d 50ac 003e d578 4c3d
000003e0: a65e e83c b736 1c3e fbe5 373d 9133 9c3d
000003f0: ba38 3a3e 1865 d33d cd2d 733e 4422 7d3d

head.conv.bias f4 [64]
0.009539421 -0.111540765 0.25037208 0.105387785 0.14181104 -0.19098072 -0.0532003 -0.11485374
-0.18345122 0.1952023 0.11553743 0.21995328 0.1981652 0.19444418 -0.30390117 0.23166405
0.1540172 -0.1368051 0.27365103 -0.24118683 -0.05600916 0.17124614 0.0623701 -0.15304863
-0.002720328 0.12457868 0.16298719 0.24926038 0.16006449 -0.15208958 -0.17063266 0.10738518
0.23744692 -0.13006724 -0.0119609125 0.23631941 0.123782724 -0.003609167 0.19002338 0.09343663
0.20126739 0.10130722 0.070193596 0.27588883 0.11655738 -0.18954149 0.17584892 -0.103763215
-0.14902255 -0.15833056 -0.14779265 -0.13024722 -0.17703195 0.084601514 0.15158866 0.16211852
-0.24617401 0.17207982 0.037395004 0.09586038 0.03625663 0.045137048 -0.107929006 0.17033899
00000000: 3b4b 1c3c 7c6f e4bd c530 803e 8dd5 d73d
00000010: ea36 113e 7390 43be 8fe8 59bd 7038 ebbd
00000020: a3da 3bbe 1de3 473e e39e ec3d 6f3b 613e
00000030: d1eb 4a3e 601c 473e ef98 9bbe 5739 6d3e
00000040: afb6 1d3e a316 0cbe fd1b 8c3e aef9 76be
00000050: dc69 65bd 265b 2f3e ca77 7f3d c8b8 1cbe
00000060: 8847 32bb 1b23 ff3d 1de6 263e 1d3e 7f3e
00000070: f2e7 233e 5fbd 1bbe 54ba 2ebe c3ec db3d
00000080: 4925 733e 5930 05be b4f7 43bc b7fd 713e
00000090: cc81 fd3d c687 6cbb 7d95 423e b45b bf3d
000000a0: 0a19 4e3e 297a cf3d a9c1 8f3d 4d41 8d3e
000000b0: a3b5 ee3d 2a17 42be bd11 343e cf81 d4bd
000000c0: 5e99 18be 6821 22be f556 17be 875f 05be
000000d0: dd47 35be 8f43 ad3d 0f3a 1b3e 6602 263e
000000e0: 0a15 7cbe b135 303e 812b 193d 7252 c43d
000000f0: d581 143d a0e1 383d e209 ddbd 586d 2e3e

head.norm.weight f4 [64]
1.2530962 1.3679348 1.4431777 1.538878 1.2484277 1.2506791 1.3864689 1.2812382
1.4400548 1.4107106 1.220295 1.3700764 1.3850083 1.3830642 1.5875679 1.13215
1.390397 1.2850645 1.3476782 1.4878515 1.2903593 1.1789829 1.5308853 1.4190634
1.0993317 1.4655532 1.3270477 1.5778968 1.2905464 1.4497625 1.2805482 1.4633714
1.6626346 1.1041902 1.1635202 1.3226285 1.4510884 1.2580768 1.4508865 1.478743
1.4225127 1.3998483 1.1239967 1.3336842 1.3693382 1.4557083 1.28424 1.5359267
1.4038949 1.1399232 1.5105858 1.4663516 1.2148026 1.2892139 1.2881972 1.6787064
1.3034836 1.1077433 1.3761969 1.4941586 1.4886192 1.4251496 1.3369044 1.4254668
00000000: 7565 a03f 7d18 af3f 0cba b83f f4f9 c43f
00000010: 7bcc 9f3f 4116 a03f d077 b13f 9dff a33f
00000020: b753 b83f 2a92 b43f a032 9c3f aa5e af3f
00000030: f447 b13f 3f08 b13f 6d35 cb3f 4bea 903f
00000040: 87f8 b13f fe7c a43f b880 ac3f eb71 be3f
00000050: 7e2a a53f e9e8 963f 0df4 c33f dfa3 b53f
00000060: e7b6 8c3f 3f97 bb3f b3dc a93f 86f8 c93f
00000070: a030 a53f d191 b93f 01e9 a33f c14f bb3f
00000080: 36d1 d43f 1b56 8d3f 3bee 943f e44b a93f
00000090: 44bd b93f a908 a13f a6b6 b93f 7347 bd3f
000000a0: e514 b63f 3b2e b33f 20df 8f3f 2ab6 aa3f
000000b0: 7946 af3f a654 ba3f fa61 a43f 3f99 c43f
000000c0: d4b2 b33f 01e9 913f e05a c13f 69b1 bb3f
000000d0: a77e 9b3f f604 a53f a5e3 a43f dadf d63f
000000e0: 8dd8 a63f 88ca 8d3f 3827 b03f 9740 bf3f
000000f0: 138b be3f 4d6b b63f af1f ab3f b275 b63f

head.norm.bias f4 [64]
-0.27670124 -0.15397792 -0.4504378 -0.44070953 -0.5999642 -0.4521662 -0.2921105 -0.6258526
-0.7090687 0.42264053 -0.33216038 -0.29422 -0.016275346 0.42263398 -0.30241606 -0.5358926
-0.14240253 0.18090272 0.16275646 -0.42106974 -0.52324915 -0.625915 0.43415588 -0.02014575
-0.82654625 -0.1656141 -0.43183205 -0.08748984 -0.6113706 -0.51284915 -0.23366933 -0.99518067
-0.42371914 -0.5464008 -0.79083884 0.14481786 -0.34390664 -0.28220734 -0.7221863 -0.43368948
-0.5209758 -0.21033207 -0.67056453 -0.26883894 -0.8427055 -0.4974767 -0.3073723 -0.30166063
-0.21936059 -0.81304204 -0.4868558 0.3033604 -0.50976366 0.03164136 -0.37687463 0.15016069
-0.33982632 -0.69764596 -0.055319007 0.2849412 -0.28632966 -0.11584094 -0.14434044 -0.0013430321
00000000: c9ab 8dbe 63ac 1dbe c99f e6be aea4 e1be
00000010: 4197 19bf 5482 e7be 828f 95be e037 20bf
00000020: 8785 35bf 5764 d83e ed10 aabe 01a4 96be
00000030: e053 85bc 7b63 d83e 47d6 9abe 4230 09bf
00000040: f8d1 11be 903e 393e a1a9 263e 7496 d7be
00000050: a8f3 05bf f73b 20bf ae49 de3e b308 a5bc
00000060: 8998 53bf be96 29be 1719 ddbe e02d b3bd
00000070: c982 1cbf 154a 03bf 0347 6fbe 29c4 7ebf
00000080: b7f1 d8be ece0 0bbf 6a74 4abf 224b 143e
00000090: 8814 b0be 7b7d 90be 34e1 38bf 8c0c debe
000000a0: ac5e 05bf 4a61 57be 1eaa 2bbf 42a5 89be
000000b0: 8cbb 57bf 44b5 febe e75f 9dbe 4373 9abe
000000c0: 10a0 60be 8623 50bf 2a45 f9be 0e52 9b3e
000000d0: df7f 02bf 5f9a 013d b6f5 c0be b9c3 193e
000000e0: b7fd adbe ed98 32bf 2f96 62bd d0e3 913e
000000f0: cd99 92be 043e edbd fbcd 13be ae08 b0ba

head.norm.running_mean f4 [64]
0.11596486 -0.0445342 0.26282087 0.072908215 -0.022764647 -0.20587893 -0.10493148 -0.34928662
-0.32916343 0.426345 0.23423778 0.2783491 0.24253172 0.42898965 -0.29828137 0.23384342
0.2651557 -0.31020012 0.4643235 -0.2604257 -0.06498163 -0.083689086 0.33652657 -0.11433259
-0.18483482 0.4082204 0.18421681 0.33552814 0.14538887 -0.12769477 -0.611389 -0.052980278
0.33464363 -0.12198893 -0.14536253 0.31536126 0.10054657 0.45005903 0.057668414 0.026494687
0.16112816 -0.007043565 0.10670984 0.27944973 -0.0047781053 -0.2209907 0.17892069 0.0011299085
-0.008432594 -0.2977996 -0.1200405 -0.046262212 -0.192249 0.19352987 0.16213647 0.30342445
-0.24037981 -0.042082634 0.06589283 0.41888893 0.085942194 0.0979363 -0.50942326 0.23013057
00000000: fc7e ed3d 7e69 36bd 7590 863e e750 953d
00000010: ed7c babc edd1 52be 51e6 d6bd b2d5 b2be
00000020: 1c88 a8be e449 da3e 07dc 6f3e c683 8e3e
00000030: 3c5a 783e 88a4 db3e 56b8 98be a674 6f3e
00000040: 7dc2 873e 8dd2 9ebe cfbb ed3e 8456 85be
00000050: 1715 85bd 2f65 abbd 364d ac3e 3427 eabd
00000060: 5745 3dbe 4402 d13e 55a3 3c3e 58ca ab3e
00000070: d2e0 143e 6bc2 02be fd83 1cbf d901 59bd
00000080: 6956 ab3e 55d5 f9bd ead9 14be 0877 a13e
00000090: 5ceb cd3d 236e e63e b735 6c3d 630b d93c
000000a0: c8fe 243e b5cd e6bb b08a da3d 0914 8f3e
000000b0: a791 9cbb 634b 62be fc36 373e 7019 943a
000000c0: dd28 0abc 3079 98be cbd7 f5bd 727d 3dbd
000000d0: ecdc 44be b22c 463e 1a07 263e 735a 9b3e
000000e0: 2026 76be d75e 2cbd d2f2 863d 9c78 d63e
000000f0: 7602 b03d d492 c83d 9069 02bf 59a7 6b3e

head.norm.running_var f4 [64]
0.0048189308 0.011935516 0.01730192 0.0063637956 0.018877031 0.0069108047 0.00681663 0.016508013
0.012159851 0.081337206 0.013907158 0.005453939 0.011556282 0.018155904 0.0042210654 0.021210644
0.008141807 0.0203242 0.02855938 0.012430179 0.01289961 0.024188938 0.019856447 0.014382214
0.014472038 0.027546624 0.0048183994 0.005314903 0.013512709 0.0015988386 0.052923083 0.009652783
0.0064688935 0.019429466 0.011178819 0.028401703 0.0056743217 0.075966425 0.012210224 0.0039020183
0.005134369 0.011439828 0.008718519 0.011816573 0.009630108 0.0051781745 0.005876307 0.003848197
0.014116414 0.008365441 0.0059992694 0.0073166327 0.0073089194 0.0056933546 0.009216977 0.008295082
0.018870052 0.02100496 0.004402234 0.033323377 0.0056751533 0.0036258122 0.043650743 0.005407631
00000000: 1fe8 9d3b 2f8d 433c c2bc 8d3c 6387 d03b
00000010: 01a4 9a3c 0874 e23b 095e df3b d03b 873c
00000020: 1d3a 473c 1f94 a63d d9da 633c f5b6 b23b
00000030: 8f56 3d3c b1bb 943c dd50 8a3b f2c1 ad3c
00000040: 3765 053c f07e a63c 5cf5 e93c f3a7 4b3c
00000050: e358 533c e127 c63c fda9 a23c 61a3 6b3c
00000060: 201c 6d3c 75a9 e13c aae3 9d3b a328 ae3b
00000070: 6964 5d3c 1f90 d13a e0c5 583d b526 1e3c
00000080: 03f9 d33b 8b2a 9f3c 5e27 373c b0aa e83c
00000090: a9ef b93b 4994 9b3d 640d 483c 01b9 7f3b
000000a0: 353e a83b 1e6e 3b3c 1ed8 0e3c 4d9a 413c
000000b0: 9ac7 1d3c adad a93b 098e c03b 0832 7c3b
000000c0: 8848 673c 340f 093c 8595 c43b 5dc0 ef3b
000000d0: a97f ef3b 528f ba3b ce02 173c 18e8 073c
000000e0: 5e95 9a3c 9812 ac3c 9e40 903b 187e 083d
000000f0: a3f6 b93b 099f 6d3b 1fcb 323d 7f32 b13b

body.block1.conv.weight f4 [64, 64, 3, 3]
0.09218002 0.04994229 0.14590332 0.041550484 0.04410704 0.08215585 -0.006327222 0.020934189
-0.002087648 -0.20885669 -0.122977994 -0.049199436 0.018630829 -0.030111466 0.057731755 -0.027015667
-0.011520424 0.013784843 -0.1296206 0.083484106 0.08912126 0.0641511 -0.057486482 -0.056883074
0.10036287 0.08700053 0.008802106 0.066044025 0.01269143 -0.031033095 -0.033209052 0.050063863
0.02431741 0.09596702 0.072420105 -0.058114797 -0.17391977 -0.11058722 0.06835246 -0.04202781
-0.004632684 -0.053771857 0.07325572 0.12643553 0.07416317 0.0701636 0.033428933 -0.09689559
-0.028477237 0.031992134 0.026592571 -0.06855089 -0.030249571 -0.055731945 0.15526861 0.10122829
0.08370618 0.110263556 -0.03804476 0.11160524 -0.12995572 -0.0769798 0.038105372 -0.105169825
-0.022468572 -0.03495856 -0.13394253 -0.08681892 0.05232897 -0.04566853 -0.00957023 -0.009867175
-0.064971685 -0.13411391 -0.09856396 0.14044818 0.02425551 0.078712754 -0.06392188 0.051224906
0.15809567 -0.05509042 -0.024659742 0.008883578 -0.04284519 -0.08535053 -0.06238277 -0.19631666
-0.21104957 -0.14961693 -0.09916532 -0.10506264 -0.072082795 -0.10049944 -0.06952421 -0.013593862
-0.17474401 -0.055906676 -0.05771113 -0.11496248 -0.09181884 -0.02807692 -0.01363556 -0.10752931
-0.13840279 0.061084565 -0.10345527 0.041768033 -0.023689348 -0.16261025 -0.12636167 -0.09155068
0.03952087 0.085768774 -0.07258195 0.105090015 0.08129902 -0.05380194 0.060074475 0.01851508
0.019036159 0.13728832 -0.04696214 -0.13990667 0.0076648775 -0.10124574 -0.06986174 -0.16360965
-0.047621265 -0.019810017 -0.023580842 -0.010970901 -0.16490854 -0.02624585 -0.016067402 -0.07480908
-0.15786819 -0.19090211 -0.0004953524 -0.044244207 -0.034752425 -0.036604892 -0.05402353 0.048235893
-0.1521816 -0.24168478 -0.021190446 0.0679509 0.056318384 0.0426335 -0.028809845 0.031331625
0.10597453 -0.042378034 -0.088087805 -0.14569667 -0.039718725 0.10326384 0.05812257 -0.059411533
0.002188754 -0.017318457 -0.115912184 -0.055544566 -0.037721768 0.016547933 0.09276013 0.027268589
-0.09362751 -0.07904636 -0.07086655 -0.1324505 -0.10004022 -0.0376729 -0.16319546 -0.105727695
-0.115984954 0.15549766 0.09130363 0.05204048 -0.111645296 -0.028216058 -0.0019015382 -0.06892066
-0.05804861 0.026212173 -0.021203475 0.032745387 0.12274346 -0.101910815 -0.11913242 -0.013113116
-0.12634344 -0.09670587 0.007362377 -0.055976607 -0.0574291 -0.1452371 -0.09343058 -0.025035108
0.007755206 0.04774311 0.15256368 0.16773495 -0.023534082 0.08616592 0.09364686 -0.16290095
-0.10062673 0.06649985 0.11874574 0.15861131 0.06397854 -0.02557997 0.018305294 -0.09617687
-0.07251472 -0.025109723 -0.017332902 0.039580245 -0.10842026 -0.014057021 -0.014653819 -0.06485426
0.13562396 -0.13957313 -0.12677513 0.024328103 -0.08675509 0.04363421 0.19154271 -0.13074236
0.11255346 0.19420978 0.052533083 0.180048 -0.016128253 -0.13809691 0.01124825 -0.12544408
-0.094303615 -0.036389694 0.028546281 0.051720288 0.09509409 -0.15799998 0.0072954353 0.049471155
-0.012481486 0.10356434 0.047834337 -0.010742025 -0.19103211 -0.17702252 -0.10791707 -0.011569228
00000000: e1c8 bc3d 4990 4c3d ae67 153e d730 2a3d
00000010: 95a9 343d 5441 a83d 9654 cfbb 2d7e ab3c
00000020: ecd0 08bb 87de 55be e3db fbbd 5985 49bd
00000030: ae9f 983c 52ac f6bc 2278 6c3d f64f ddbc
00000040: 29c0 3cbc d2d9 613c 43bb 04be b7f9 aa3d
00000050: 3585 b63d a761 833d f276 6bbd 3afe 68bd
00000060: 0c8b cd3d 552d b23d b536 103c 1742 873d
00000070: b7ef 4f3c 1e39 febc 3706 08bd c40f 4d3d
00000080: 4e35 c73c 5b8a c43d fe50 943d c809 6ebd
00000090: 0618 32be 8d7b e2bd 60fc 8b3d 5a25 2cbd
000000a0: c5cd 97bb e13f 5cbd 1807 963d 5178 013e
000000b0: dce2 973d efb1 8f3d c7ec 083d 3271 c6bd
000000c0: 1849 e9bc 2f0a 033d aad8 d93c 6964 8cbd
000000d0: f3cd f7bc 2e47 64bd bcfe 1e3e c750 cf3d
000000e0: 256e ab3d dcd1 e13d d2d4 1bbd 4a91 e43d
000000f0: 1d13 05be 96a7 9dbd 6114 1c3d 4763 d7bd
00000100: 0310 b8bc b530 0fbd 3b28 09be 1ece b1bd
00000110: e756 563d ed0e 3bbd 74cc 1cbc eea9 21bc
00000120: e00f 85bd 2855 09be e7db c9bd a6d1 0f3e
00000130: 7eb3 c63c 2734 a13d 7ae9 82bd 35d1 513d
00000140: d5e3 213e 7ea6 61bd 3a03 cabc 6d8c 113c
00000150: 707e 2fbd 42cc aebd 1385 7fbd 3c07 49be
00000160: 611d 58be 2e35 19be 3017 cbbd 152b d7bd
00000170: 25a0 93bd a7d2 cdbd b662 8ebd cab8 5ebc
00000180: 18f0 32be 66fe 64bd 8162 6cbd 7371 ebbd
00000190: 840b bcbd 9201 e6bc af67 5fbc 5438 dcbd
000001a0: 76b9 0dbe cf33 7a3d 5be0 d3bd f514 2b3d
000001b0: 2a10 c2bc 4d83 26be f464 01be ec7e bbbd
000001c0: a3e0 213d 8aa7 af3d d8a5 94bd 6f39 d73d
000001d0: 1a80 a63d 6c5f 5cbd a710 763d f0ac 973c
000001e0: b8f1 9b3c 4f95 0c3e 5f5b 40bd b243 0fbe
000001f0: a729 fb3b ed59 cfbd ac13 8fbd 4a89 27be
00000200: 840e 43bd 9e48 a2bc 9c2c c1bc 4bbf 33bc
00000210: c9dd 28be 8901 d7bc c99f 83bc 8135 99bd
00000220: 33a8 21be d87b 43be 89da 01ba 6a39 35bd
00000230: 8f58 0ebd 03ef 15bd c747 5dbd 0093 453d
00000240: 7ed5 1bbe 377c 77be 9697 adbc d729 8b3d
00000250: 1bae 663d 77a0 2e3d a002 ecbc 9755 003d
00000260: 2d09 d93d 9794 2dbd 6167 b4bd 8231 15be
00000270: 1ab0 22bd fe7b d33d ef11 6e3d 8259 73bd
00000280: 3371 0f3b 70df 8dbc 5e63 edbd b382 63bd
00000290: 2482 1abd 888f 873c 06f9 bd3d 6062 df3c
000002a0: c8bf bfbd 0fe3 a1bd 7b22 91bd 1ba1 07be
000002b0: e3e1 ccbd e64e 1abd b61c 27be c387 d8bd
000002c0: 8589 edbd c73a 1f3e 66fd ba3d 6628 553d
000002d0: 4aa6 e4bd 5d25 e7bc 093d f9ba 4626 8dbd
000002e0: 61c4 6dbd e9ba d63c e9b2 adbc 0720 063d
000002f0: ec60 fb3d 9eb6 d0bd b3fb f3bd 65d8 56bc
00000300: 2d60 01be ba0d c6bd 1840 f13b ba47 65bd
00000310: c73a 6bbd 09b9 14be 8858 bfbd 6d16 cdbc
00000320: 621f fe3b 488e 433d a739 1c3e b6c2 2b3e
00000330: 8cca c0bc c277 b03d edc9 bf3d 82cf 26be
00000340: 6315 cebd 1331 883d f730 f33d 016b 223e
00000350: 2e07 833d 168d d1bc fcf4 953c 61f8 c4bd
00000360: 9982 94bd e8b2 cdbc bbfd 8dbc e51e 223d
00000370: 710b debd 6b4f 66bc 9216 70bc 4fd2 84bd
00000380: 02e1 0a3e 42ec 0ebe 57d1 01be bb4b c73c
00000390: a7ac b1bd c9b9 323d c623 443e 53e1 05be
000003a0: 6e82 e63d eede 463e ee2c 573d 815e 383e
000003b0: 661f 84bc 4769 0dbe 944a 383c 6a74 00be
000003c0: 4122 c1bd 5c0d 15bd e4d9 e93c a7d8 533d
000003d0: b1c0 c23d bfca 21be 8c0e ef3b 44a2 4a3d
000003e0: 267f 4cbc 8a19 d43d f0ed 433d 52ff 2fbc
000003f0: ec9d 43be 6445 35be a003 ddbd dc8c 3dbc

body.block1.conv.bias f4 [64]
-0.012454447 0.023680963 -0.03721063 -0.013816694 -0.010949378 0.028330134 0.037563004 0.03927965
0.00627344 0.040219165 -0.0069135875 -0.028460871 0.033509184 -0.04807196 -0.025666052 0.035495702
0.021920487 0.010777718 -0.020448226 -0.013666802 0.03592954 0.01914255 -0.0049059503 -0.037642427
0.01715629 0.04072487 -0.022326907 -0.017181342 0.001403989 -0.017679924 -0.032860976 0.0030138006
-0.016360536 0.030739846 0.020820213 0.0056700115 0.01980848 0.00078550674 -0.03466921 -0.0024998698
0.03724171 0.02995736 -0.0085009085 0.0016181786 -0.03304966 -0.005998923 0.029953597 0.023577014
-0.0004902844 0.019673677 -0.02631279 -0.021311771 0.012207547 -0.03901503 -0.03705707 -0.016727181
-0.0010648164 -0.023939906 -0.025499653 0.035313856 0.026513143 -0.017414518 -0.03282216 0.012539903
00000000: bd0d 4cbc 94fe c13c 2c6a 18bd 6a5f 62bc
00000010: 0565 33bc 9914 e83c aadb 193d b3e3 203d
00000020: 6e91 cd3b dabc 243d 608b e2bb c626 e9bc
00000030: ed40 093d 1be7 44bd 9d41 d2bc f163 113d
00000040: 9892 b33c 0795 303c 0a83 a7bc b9ea 5fbc
00000050: da2a 133d d6d0 9c3c 18c2 a0bb f22e 1abd
00000060: 598b 8c3c 1fcf 263d ebe6 b6bc e3bf 8cbc
00000070: 0e06 b83a 7dd5 90bc 3b99 06bd 2f83 453b
00000080: 8806 86bc 21d2 fb3c 278f aa3c 81cb b93b
00000090: 6545 a23c 77ea 4d3a 4d01 0ebd dbd4 23bb
000000a0: c38a 183d 2369 f53c 6547 0bbc 1019 d43a
000000b0: 155f 07bd 9d92 c4bb 3f61 f53c 9524 c13c
000000c0: 6e86 00ba b12a a13c ec8d d7bc 0696 aebc
000000d0: 2a02 483c 39ce 1fbd 27c9 17bd 7107 89bc
000000e0: 4f91 8bba 9f1d c4bc a6e4 d0bc 43a5 103d
000000f0: 1732 d93c e4a8 8ebc 8770 06bd 2a74 4d3c

body.block1.norm.weight f4 [64]
1.5334064 1.2535704 1.4932958 1.5173753 1.4042236 1.3055505 1.4722155 1.442758
1.4540333 1.4814174 1.4488262 1.5624496 1.2762988 1.3287201 1.3493111 1.27085
1.2358738 1.1578406 1.5210627 1.3580225 1.4827808 1.337189 1.2307973 1.4548981
1.4461217 1.4178216 1.4204303 1.3537568 1.4064215 1.2735724 1.5060914 1.3367783
1.4803426 1.3729504 1.5710825 1.2795167 1.5859933 1.3579869 1.5607623 1.4685187
1.4376856 1.5067438 1.3607247 1.3038502 1.580485 1.3714777 1.4950794 1.4266899
1.5776643 1.4278114 1.425974 1.3958828 1.3675005 1.5063015 1.419916 1.4730389
1.2994303 1.5893791 1.5478231 1.5632588 1.3555868 1.3606024 1.4391862 1.5376629
00000000: a946 c43f ff74 a03f 5124 bf3f 5b39 c23f
00000010: 99bd b33f 471c a73f 8f71 bc3f 4bac b83f
00000020: c31d ba3f 169f bd3f 2373 b93f 59fe c73f
00000030: c25d a33f 8013 aa3f 3ab6 ac3f 36ab a23f
00000040: 1d31 9e3f 1f34 943f 2fb2 c23f aed3 ad3f
00000050: c3cb bd3f 0229 ab3f c48a 9d3f 1a3a ba3f
00000060: 841a b93f 2e7b b53f a9d0 b53f e747 ad3f
00000070: 9f05 b43f 6c04 a33f 9ac7 c03f 8d1b ab3f
00000080: de7b bd3f d7bc af3f 3b19 c93f 34c7 a33f
00000090: d401 cb3f 84d2 ad3f 0fc7 c73f 6cf8 bb3f
000000a0: 1506 b83f fbdc c03f 3a2c ae3f 90e4 a63f
000000b0: 554d ca3f 958c af3f c35e bf3f c69d b63f
000000c0: e7f0 c93f 86c2 b63f 5186 b63f 4aac b23f
000000d0: 420a af3f 7dce c03f cfbf b53f 8a8c bc3f
000000e0: bb53 a63f c670 cb3f 111f c63f dd18 c83f
000000f0: de83 ad3f 3828 ae3f 4137 b83f 23d2 c43f

body.block1.norm.bias f4 [64]
-0.029782625 -0.5883393 -0.24748127 -0.3932392 -0.6088854 -0.6501917 -0.034982912 -0.15475297
-0.22162177 -0.43627602 -0.24855752 -0.099844955 -0.34629828 -0.9175621 -0.05002472 -0.15016426
-0.63281584 -0.6424932 -0.010915392 -0.07692686 -0.48874906 -0.4116787 -0.5746824 -0.37297392
-0.22811863 -0.10690352 0.3044318 -0.43439105 -0.4148953 -0.5726892 -0.3794116 -0.59681785
-0.32390028 -0.63914293 -0.38680938 -0.39901242 -0.21160252 -0.4030504 0.09487302 -0.26128602
-0.2349538 -0.054550305 -0.33238557 -0.29256514 -0.00028880045 -0.5627224 -0.1682235 -0.49129128
-0.17092736 0.1884444 -0.4491848 -0.64468235 -0.19965298 -0.04604781 0.19784975 -0.44860223
0.26065642 -0.48177233 -0.241905 0.0596174 -0.17502667 -0.55781126 -0.25592455 -0.59235615
00000000: b1fa f3bc 689d 16bf bb6b 7dbe a656 c9be
00000010: eadf 1bbf f772 26bf 3e4a 0fbd 9077 1ebe
00000020: d1f0 62be 925f dfbe dd85 7ebe 837b ccbd
00000030: 024e b1be 5ae5 6abf b9e6 4cbd a9c4 19be
00000040: 3800 22bf 6f7a 24bf 79d6 32bc d48b 9dbd
00000050: 513d fabe 8dc7 d2be 631e 13bf 70f6 bebe
00000060: ee97 69be 3cf0 dabd 7cde 9b3e 8168 debe
00000070: 286d d4be c29b 12bf 3d42 c2be 0ec9 18bf
00000080: 42d6 a5be df9e 23bf e10b c6be 5b4b ccbe
00000090: 55ae 58be 9f5c cebe c94c c23d 48c7 85be
000000a0: bb97 70be 2470 5fbd 712e aabe 19cb 95be
000000b0: 246a 97b9 930e 10bf c842 2cbe 888a fbbe
000000c0: 9507 2fbe 92f7 403e 8dfb e5be e709 25bf
000000d0: d571 4cbe a19c 3cbd 2099 4a3e 31af e5be
000000e0: c274 853e ddaa f6be f2b5 77be 6031 743d
000000f0: 313a 33be b8cc 0ebf 8b08 83be a7a4 17bf

body.block1.norm.running_mean f4 [64]
-1.551861 0.74801594 -1.511216 -0.8794987 2.9664364 -0.80488944 -1.6956272 -2.6772366
-3.7185893 2.8585484 -3.2965565 -4.0490127 2.1789339 3.809891 2.853424 -1.0323195
0.6942501 4.92661 -2.2197556 -3.1768894 0.5187918 4.1653633 2.7131553 -1.5043117
-0.7838504 -3.1140187 -0.83973604 -1.108171 2.3459067 -1.3034945 -2.419853 1.8504936
0.30689943 1.4147547 -1.5917846 4.321972 -2.0579228 1.2099532 -0.85860467 -5.731553
0.8542697 -1.3628701 0.0126600955 3.4495587 -2.3190196 -1.8674247 2.2002735 0.840559
-4.5623555 -3.7643168 -3.5990999 1.7739298 1.7568861 0.24171863 -3.9792833 -0.04761468
-5.112375 -2.8496442 -0.3018211 -1.5144668 0.4732329 -2.4703684 -1.1395164 -1.0605897
00000000: 62a3 c6bf f97d 3f3f 876f c1bf d426 61bf
00000010: 18da 3d40 3c0d 4ebf 500a d9bf d857 2bc0
00000020: 5efd 6dc0 75f2 3640 c8fa 52c0 8391 81c0
00000030: a773 0b40 41d5 7340 809e 3640 0c23 84bf
00000040: 60ba 313f caa6 9d40 7a10 0ec0 2852 4bc0
00000050: 8acf 043f a84a 8540 56a4 2d40 498d c0bf
00000060: 6baa 48bf 154c 47c0 f1f8 56bf 8cd8 8dbf
00000070: 5623 1640 e8d8 a6bf dfde 1ac0 f9dc ec3f
00000080: ec21 9d3e af16 b53f 99bf cbbf 984d 8a40
00000090: 02b5 03c0 bfdf 9a3f 84cd 5bbf e268 b7c0
000000a0: 6bb1 5a3f 8772 aebf 4a6c 4f3c 92c5 5c40
000000b0: d16a 14c0 c607 efbf 48d1 0c40 e02e 573f
000000c0: d1fe 91c0 91ea 70c0 a757 66c0 2210 e33f
000000d0: a5e1 e03f 1785 773e 94ac 7ec0 9c07 43bd
000000e0: 9398 a3c0 9260 36c0 4c88 9abe 0cda c1bf
000000f0: 954b f23e 841a 1ec0 acdb 91bf 67c1 87bf

body.block1.norm.running_var f4 [64]
8.482178 16.61425 5.9498076 4.1161766 7.823789 5.435582 6.7927713 4.574231
6.9059324 7.671539 6.8521433 7.1195674 7.0392675 4.6757145 10.943418 8.4138775
4.2896724 10.808978 5.841475 10.275453 3.5479178 8.850711 6.030337 6.709373
4.7942166 5.928798 13.131089 4.9696364 6.629514 4.195636 5.062915 7.3204308
4.8686 4.4898634 5.0747414 8.646113 5.6031857 7.18333 6.9509377 11.698548
4.8781824 3.9652567 6.1255183 5.4157786 8.127665 4.8514886 5.2207756 5.5935
6.9793215 11.134938 8.956703 4.801647 5.4760766 3.4782379 13.183073 3.517337
21.575521 5.530353 3.5605483 7.493576 6.3333945 5.772524 6.7713056 4.2205267
00000000: 00b7 0741 fce9 8441 d364 be40 b8b7 8340
00000010: 7b5c fa40 4af0 ad40 625e d940 1a60 9240
00000020: 66fd dc40 3f7d f540 c244 db40 7fd3 e340
00000030: ae41 e140 749f 9540 3d18 2f41 3e9f 0641
00000040: ff44 8940 93f1 2c41 5ded ba40 4168 2441
00000050: 1611 6340 839c 0d41 85f8 c040 2fb3 d640
00000060: 396a 9940 b7b8 bd40 f118 5241 4307 9f40
00000070: fb24 d440 a642 8640 6603 a240 f840 ea40
00000080: 92cb 9b40 f6ac 8f40 4864 a240 7b56 0a41
00000090: 4c4d b340 d7dd e540 156e de40 412d 3b41
000000a0: 121a 9c40 c4c6 7d40 3f04 c440 0f4e ad40
000000b0: ea0a 0241 653f 9b40 9810 a740 f4fd b240
000000c0: 9a56 df40 b528 3241 a84e 0f41 18a7 9940
000000d0: 053c af40 739b 5e40 deed 5241 0d1c 6140
000000e0: ab9a ac41 a7f8 b040 06e0 6340 60cb ef40
000000f0: 2bab ca40 84b8 b840 89ae d840 8e0e 8740

body.block2.conv.weight f4 [64, 64, 3, 3]
-0.23500827 -0.06371054 -0.002255173 0.0036678014 0.10728683 -0.088702515 -0.01940784 0.058558524
-0.04503102 -0.11923112 -0.0980029 -0.17210391 -0.069601215 -0.10817961 -0.18251404 -0.21406028
-0.24442877 -0.16801369 0.051246814 0.11990432 0.09704388 -0.042102292 -0.024487864 0.0870792
0.004944533 -0.023649061 -0.0818007 0.027918749 -0.061093826 0.08611556 -0.11967983 -0.1770875
0.005361758 -0.14058298 -0.031586982 0.08306677 0.12083392 0.14608224 -0.032515917 -0.01187189
0.04924323 -0.13857535 -0.0008696218 -0.03452198 -0.097185954 -0.13598657 -0.106308244 -0.085966304
-0.00053590065 0.0387305 0.04727005 0.047073573 0.003944734 -0.028233448 -0.051829997 -0.0055885236
0.05269485 -0.021219218 0.056253914 0.0061480077 0.074523605 0.12960194 -0.07000783 -0.0027814063
0.1399171 0.19669549 -0.00075307564 0.0021366922 -0.033992514 -0.014293247 0.07547731 -0.07066715
0.033413086 -0.06399956 -0.032568127 0.07674461 -0.01989119 -0.085928805 0.07833932 0.013586233
0.014259743 -0.044382956 0.005399771 0.005773494 -0.0014194777 0.00687481 -0.0173836 0.051011883
0.057914358 0.15678033 -0.051673476 0.07327759 -0.08485622 -0.10174479 -0.061710235 0.02389306
-0.0013127229 0.07557731 -0.013192426 -0.07288413 -0.062155165 0.08527173 -0.13668698 0.06236135
0.031581443 -0.11838522 -0.03884794 0.15377809 0.0942196 -0.06286938 -0.121531434 0.0148548605
-0.0041983104 -0.033375744 -0.06591242 -0.024831437 0.08645144 0.2168103 0.103883594 -0.0012810491
0.12029898 0.15182605 0.13407122 0.11694209 0.14111497 0.30960515 0.044676278 -0.008066366
-0.09203838 -0.08349706 -0.06665108 0.03180541 0.051430635 0.005715518 0.12335974 0.093178235
-0.11329129 -0.027088577 0.06274201 0.012274655 0.11078337 0.031138701 -0.012237673 -0.075169295
0.036341242 -0.1541644 -0.13795081 0.015463977 0.005247158 0.06445132 -0.07868212 -0.0147886295
-0.011354661 -0.054330427 -0.03849468 -0.085063264 -0.25244623 -0.091251254 -0.031703748 -0.16478464
-0.033175807 -0.11389991 -0.0022149042 -0.15375608 -0.014849672 -0.113931544 -0.002866753 0.080167696
0.07624362 0.022364058 -0.19084166 -0.17559698 -0.156543 -0.0550412 -0.08080484 0.03592907
-0.07517658 -0.0049344962 0.12916611 -0.035806987 -0.037656773 0.15566504 0.15983665 -0.22866394
-0.0018636547 0.113858595 -0.037542935 0.04999878 0.10373796 -0.10212121 -0.12200167 -0.24765398
-0.15365243 -0.030492134 0.063261665 -0.015926288 -0.093029484 -0.018745944 -0.12605117 0.1365151
0.033330597 -0.1869036 0.11368677 -0.100169405 -0.11878074 0.06292531 0.0014362443 -0.0049071666
0.07627187 -0.04075219 -0.06608889 0.1282246 -0.166145 -0.007827646 0.14733444 -0.01623945
-0.06303123 -0.03469905 0.064987384 0.014443852 -0.03572795 -0.005401957 0.04050436 0.14367482
0.10577056 -0.20559524 -0.036874622 -0.043225147 -0.18186621 0.12423356 0.15656306 0.079358324
0.075689904 0.12744595 -0.231926 -0.23039007 -0.022363134 -0.0102316225 -0.059902456 -0.005927447
-0.08869644 -0.08422726 -0.01832874 0.04316971 -0.01718718 -0.12924063 0.037638914 -0.07486196
0.07134765 0.13568635 0.020809561 -0.0050270674 0.14664848 0.07689801 0.0074947854 -0.06693794
00000000: 02a6 70be ac7a 82bd 86cb 13bb 7f5f 703b
00000010: 33b9 db3d aaa9 b5bd 31fd 9ebc 10db 6f3d
00000020: 7272 38bd 722f f4bd bfb5 c8bd 023c 30be
00000030: 158b 8ebd 458d ddbd f6e4 3abe 9e32 5bbe
00000040: 894b 7abe c80b 2cbe 2ee8 513d 6590 f53d
00000050: f1be c63d 7473 2cbd c69a c8bc 9456 b23d
00000060: c005 a23b adbb c1bc 2087 a7bd dcb5 e43c
00000070: 853d 7abd 5b5d b03d b31a f5bd 6d56 35be
00000080: b0b1 af3b fcf4 0fbe 5a61 01bd e91e aa3d
00000090: c677 f73d 9596 153e 692f 05bd 5182 42bc
000000a0: 45b3 493d b2e6 0dbe 55f7 63ba eb66 0dbd
000000b0: 6e09 c7bd 1040 0bbe 23b8 d9bd 1a0f b0bd
000000c0: af7b 0cba dfa3 1e3d 3d9e 413d 38d0 403d
000000d0: d442 813b d549 e7bc b14b 54bd ef1f b7bb
000000e0: 8ed6 573d edd3 adbc 816a 663d 3a75 c93b
000000f0: d59f 983d 5fb6 043e 4460 8fbd 4148 36bb
00000100: 6e46 0f3e 8b6a 493e 0d6a 45ba bf07 0c3b
00000110: bc3b 0bbd 392e 6abc d993 9a3d f0b9 90bd
00000120: 29dc 083d 3412 83bd 2866 05bd 472c 9d3d
00000130: d9f2 a2bc 71fb afbd 5e70 a03d cb98 5e3c
00000140: b2a1 693c e7ca 35bd 90f0 b03b 942f bd3b
00000150: c50d baba 1646 e13b 0d68 8ebc d6f1 503d
00000160: 9b37 6d3d 068b 203e 91a7 53bd 9012 963d
00000170: 19c9 adbd 935f d0bd dfc3 7cbd 61bb c33c
00000180: ac0f acba 47c8 9a3d 0c25 58bc 4644 95bd
00000190: 6a96 7ebd f2a2 ae3d acf7 0bbe 9d6e 7f3d
000001a0: 8b5b 013d f373 f2bd 041f 1fbd 0178 1d3e
000001b0: 35f6 c03d a9c1 80bd 79e5 f8bd cd61 733c
000001c0: fb91 89bb 01b5 08bd 17fd 86bd 4c6b cbbc
000001d0: 740d b13d 8503 5e3e ecc0 d43d e0e8 a7ba
000001e0: 505f f63d 4a78 1b3e f749 093e 567f ef3d
000001f0: 7180 103e 9184 9e3e 79fe 363d cb28 04bc
00000200: 9e7e bcbd 8200 abbd 5d80 88bd 6446 023d
00000210: eea8 523d 3d49 bb3b 08a4 fc3d 3bd4 be3d
00000220: 4405 e8bd dde8 ddbc e27e 803d a21b 493c
00000230: 64e2 e23d 9716 ff3c 8580 48bc 5cf2 99bd
00000240: 8eda 143d 46dd 1dbe fa42 0dbe 9f5c 7d3c
00000250: 5af0 ab3b 0eff 833d 1724 a1bd 024c 72bc
00000260: e608 3abc 9589 5ebd 99ac 1dbd a635 aebd
00000270: a240 81be f0e1 babd cadb 01bd 4ebd 28be
00000280: 5be3 07bd 5b44 e9bd ed27 11bb 3c72 1dbe
00000290: 0a4c 73bc f154 e9bd 22e0 3bbb f62e a43d
000002a0: 9d25 9c3d d434 b73c ff6b 43be b2cf 33be
000002b0: cf4c 20be e272 61bd 027d a5bd 5c2a 133d
000002c0: 2ef6 99bd 8eb1 a1bb 1f44 043e 59aa 12bd
000002d0: fd3d 1abd a866 1f3e 38ac 233e e126 6abe
000002e0: e045 f4ba b22e e93d 9fc6 19bd 85cb 4c3d
000002f0: 9174 d43d ed24 d1bd 03dc f9bd 0199 7dbe
00000300: 1057 1dbe a4ca f9bc 558f 813d d977 82bc
00000310: 3e86 bebd 1891 99bc 8f13 01be 9dca 0b3e
00000320: aa85 083d a863 3fbe 9cd4 e83d 9e25 cdbd
00000330: 5143 f3bd fcde 803d 5d40 bc3a 4ccc a0bb
00000340: 6d34 9c3d c5eb 26bd 9d59 87bd 4f4d 033e
00000350: ea21 2abe 873f 00bc d7de 163e 9808 85bc
00000360: 8416 81bd 9720 0ebd 1b18 853d e8a5 6c3c
00000370: 7957 12bd e602 b1bb e6e7 253d 7e1f 133e
00000380: 3c9e d83d 8f87 52be d809 17bd da0c 31bd
00000390: 233b 3abe 2a6e fe3d 1152 203e 9e86 a23d
000003a0: 4f03 9b3d 3181 023e 027e 6dbe 60eb 6bbe
000003b0: e432 b7bc 89a2 27bc 475c 75bd 083b c2bb
000003c0: 7ba6 b5bd 577f acbd 2726 96bc b9d2 303d
000003d0: 21cc 8cbc a857 04be 432b 1a3d 3a51 99bd
000003e0: b71e 923d 5df1 0a3e d078 aa3c 19ba a4bb
000003f0: 052b 163e b47c 9d3d d196 f53b c216 89bd

body.block2.conv.bias f4 [64]
-0.030424953 -0.003948738 0.03528148 0.008232837 -0.028579857 -0.006604736 -0.03274917 -0.029277619
0.008011183 0.02678581 0.029296488 -0.034368433 -0.03822425 -0.021272207 -0.041816656 -0.018595
0.019776141 -0.031619526 -0.0010029625 -0.023135902 -0.027872723 -0.007330314 -0.012110146 0.021889398
-0.035711754 -0.020791098 0.016880363 0.03224462 -0.025107324 -0.004188857 -0.01756349 0.019043505
0.01247955 0.0048708124 -0.03741663 -0.014207559 -0.01245743 -0.017343033 -0.02118068 -0.036094304
-0.028678453 0.0032328854 -0.03759337 0.00030183885 -0.031997774 -0.038714778 0.037388537 -0.018193357
-0.021118043 0.007593121 -0.0014687553 0.011918065 0.005341685 -0.0037552156 -0.0040193507 0.03629138
-0.0056620925 -0.016467344 0.0409178 -0.0059232996 0.04158424 0.007493488 0.009338371 0.00082954596
00000000: c03d f9bc 6a64 81bb 5083 103d 05e3 063c
00000010: 4e20 eabc 8b6c d8bb fe23 06bd 9ed7 efbc
00000020: 5641 033c ea6d db3c 30ff ef3c eac5 0cbd
00000030: 0891 1cbd 0d43 aebc f147 2bbd 8b54 98bc
00000040: 9301 a23c 7a83 01bd d675 83ba 8187 bdbc
00000050: 5655 e4bc 2133 f0bb a269 46bc 6551 b33c
00000060: 7d46 12bd 1852 aabc b048 8a3c ef12 043d
00000070: e0ad cdbc ae42 89bb 4fe1 8fbc 2001 9c3c
00000080: 0777 4c3c 569b 9f3b 2e42 19bd d2c6 68bc
00000090: 401a 4cbc fa12 8ebc 1b83 adbc 9fd7 13bd
000000a0: 13ef eabc d1de 533b 81fb 19bd 2040 9e39
000000b0: 1910 03bd 6393 1ebd b924 193d 3c0a 95bc
000000c0: bfff acbc b7cf f83b 4083 c0ba fd43 433c
000000d0: 4d09 af3b 101a 76bb c2b4 83bb 45a6 143d
000000e0: 1389 b9bb 86e6 86bc 6c99 273d 3d18 c2bb
000000f0: 3c54 2a3d ef8b f53b f8ff 183c e375 593a

body.block2.norm.weight f4 [64]
1.384582 1.4596069 1.3399965 1.511553 1.4599925 1.375927 1.5711368 1.4950625
1.2371056 1.3498427 1.4361202 1.4340539 1.5056629 1.5523624 1.3979006 1.3958743
1.3570783 1.5606811 1.427499 1.2994308 1.4449227 1.6595035 1.3677456 1.362997
1.5871488 1.5658956 1.3982954 1.3852025 1.6935279 1.4520593 1.3916495 1.4735045
1.5605618 1.4921838 1.3894753 1.49134 1.3587174 1.3520911 1.3247095 1.5678316
1.2839435 1.494619 1.3422773 1.4667717 1.5547692 1.4457834 1.3236705 1.6334653
1.4940124 1.3578827 1.247973 1.5563504 1.3492023 1.2297997 1.2856337 1.5604765
1.3957955 1.521576 1.2964605 1.4141339 1.4337637 1.5821406 1.4170984 1.3549999
00000000: fc39 b13f 66d4 ba3f 0185 ab3f 927a c13f
00000010: 09e1 ba3f 601e b03f 031b c93f 355e bf3f
00000020: 7a59 9e3f a5c7 ac3f c9d2 b73f 148f b73f
00000030: 90b9 c03f d0b3 c63f 68ee b23f 02ac b23f
00000040: beb4 ad3f 66c4 c73f 4ab8 b63f c053 a63f
00000050: 3af3 b83f 9c6a d43f 4a12 af3f b076 ae3f
00000060: b127 cb3f 446f c83f 58fb b23f 514e b13f
00000070: 86c5 d83f 14dd b93f 9221 b23f cc9b bc3f
00000080: 7dc0 c73f e1ff be3f 54da b13f 3be4 be3f
00000090: 74ea ad3f 5211 ad3f 1590 a93f b5ae c83f
000000a0: 4358 a43f ad4f bf3f becf ab3f 2dbf bb3f
000000b0: ad02 c73f 6e0f b93f 096e a93f 6415 d13f
000000c0: cc3b bf3f 1acf ad3f 94bd 9f3f 7d36 c73f
000000d0: a9b2 ac3f 146a 9d3f a58f a43f b2bd c73f
000000e0: 6da9 b23f 01c3 c23f 6bf2 a53f 5702 b53f
000000f0: 9285 b73f 9583 ca3f 7b63 b53f a370 ad3f

body.block2.norm.bias f4 [64]
-0.26005918 -0.4151132 -0.8173654 -0.22299437 -0.63532984 -0.5319248 -0.0024008402 -0.021824578
-0.80212104 -0.59150743 -0.2012595 0.008321976 -0.26732522 -0.18603167 -0.39085925 -0.34493282
-0.31257296 -0.13242793 -0.23842888 -0.6759712 -0.4122162 -0.46320707 -0.39536083 -0.7177629
-0.49675173 -0.35835344 -0.35552958 -0.39831576 -0.45918933 -0.3654839 -0.46496034 0.025508666
-0.21787664 -0.4375284 -0.3828935 -0.0973563 -0.5963403 -0.36185035 -0.6479185 -0.106010534
-0.56607527 -0.12768075 -0.2547675 -0.51704633 -0.46931973 -0.25711688 -0.32194385 -0.56311965
-0.3203793 -0.34199053 -0.71091974 -0.23100623 -0.52739644 -0.5151916 -0.66533643 -0.40373284
0.06538781 -0.37010595 -0.33499902 -0.16149035 -0.41361725 -0.31981394 -0.55600184 -0.42694858
00000000: 7a26 85be b889 d4be dc3e 51bf a358 64be
00000010: faa4 22bf 392c 08bf 6a57 1dbb 75c9 b2bc
00000020: ce57 4dbf 086d 17bf f816 4ebe e658 083c
00000030: dade 88be 167f 3ebe b41e c8be 099b b0be
00000040: 9009 a0be 309b 07be b326 74be 730c 2dbf
00000050: 000e d3be 7a29 edbe bc6c cabe 4fbf 37bf
00000060: 3e56 febe 1a7a b7be f907 b6be 0bf0 cbbe
00000070: dd1a ebbe b520 bbbe 480f eebe 8df7 d03c
00000080: 0e1b 5fbe b903 e0be 9e0a c4be bd62 c7bd
00000090: c2a9 18bf 7344 b9be fddd 25bf 0d1c d9bd
000000a0: 4fea 10bf bebe 02be e370 82be 265d 04bf
000000b0: ad4a f0be d3a4 83be d3d5 a4be 9c28 10bf
000000c0: c108 a4be 6219 afbe d6fe 35bf e68c 6cbe
000000d0: 7403 07bf 99e3 03bf 7d53 2abf 12b6 cebe
000000e0: 0bea 853d 877e bdbe fe84 abbe ba5d 25be
000000f0: a4c5 d3be a7be a3be 2356 0ebf 0199 dabe

body.block2.norm.running_mean f4 [64]
-1.7217116 -1.9734055 -3.3915696 1.2661965 0.7358262 -0.6318975 -0.40890306 -0.7736081
-1.3763305 -0.75815916 -1.7263238 -1.7770376 0.491933 -0.77363586 -1.5570302 0.28214085
-0.42154738 -0.12139046 -0.5758698 0.8615847 -0.73064244 1.5635635 0.18591288 -2.066663
0.4950212 -0.0900453 0.6140608 2.1780324 0.41630915 -0.37659898 1.4836128 -0.92579836
0.43507448 0.74153703 2.3364468 -2.5129995 -1.8288875 0.01516887 1.2005574 -0.72435635
0.7111618 0.35954747 -0.014180165 -1.5843148 1.4366448 1.265879 1.1408479 -0.05723054
-0.9787706 0.013880995 -0.9462243 0.14280178 1.6662974 -0.5489148 3.033182 0.12820558
1.6463141 1.0568525 0.91043246 -0.0681352 -1.6520395 0.6357273 0.04245363 1.2351029
00000000: 0c61 dcbf 8d98 fcbf 7a0f 59c0 ba12 a23f
00000010: 1b5f 3c3f 09c4 21bf be5b d1be 2e0b 46bf
00000020: 992b b0bf b816 42bf 2ef8 dcbf f875 e3bf
00000030: a4de fb3e 000d 46bf c44c c7bf c474 903e
00000040: 0fd5 d7be 909b f8bd 346c 13bf d190 5c3f
00000050: 620b 3bbf d922 c83f f25f 3e3e 3544 04c0
00000060: 6b73 fd3e ac69 b8bd 1733 1d3f e264 0b40
00000070: 7926 d53e 95d1 c0be 06e7 bd3f 1f01 6dbf
00000080: 15c2 de3e 5fd5 3d3f 5888 1540 fcd4 20c0
00000090: fc18 eabf da86 783c ddab 993f 6b6f 39bf
000000a0: b30e 363f 9b16 b83e ec53 68bc d4ca cabf
000000b0: fae3 b73f 5308 a23f 4e07 923f 926a 6abd
000000c0: b690 7abf 1d6d 633c c13b 72bf a13a 123e
000000d0: 3c49 d53f ae85 0cbf a71f 4240 5348 033e
000000e0: 6cba d23f f146 873f 1a12 693f 788a 8bbd
000000f0: 0876 d3bf 06bf 223f dce3 2d3d da17 9e3f

body.block2.norm.running_var f4 [64]
4.2611904 4.2683926 3.6839755 4.677356 4.9222918 3.582504 3.6865788 6.2287984
6.5136094 4.9042697 3.7506552 6.3321805 4.1266327 5.663346 5.0652 3.882142
4.657701 3.6759777 3.4455016 7.020139 3.8770382 3.5105433 4.0292606 3.0992556
4.1906385 3.6209574 4.4823775 4.586412 3.976168 4.789762 4.2664948 5.155242
5.1926107 4.305319 5.526224 4.1493926 3.6064494 4.9896545 6.171715 4.3913355
6.0730386 4.87561 4.0272603 3.3414948 6.669442 3.531187 5.417891 4.5786147
4.2369804 5.683899 5.738995 5.0061193 7.57272 4.1771283 7.7715673 3.8052914
7.3682103 3.4250162 4.0389833 4.7259283 4.192128 3.463894 4.923453 4.7533603
00000000: ac5b 8840 ac96 8840 41c6 6b40 e6ac 9540
00000010: 6a83 9d40 bf47 6540 e8f0 6b40 5152 c740
00000020: 7d6f d040 c7ef 9c40 bc0a 7040 39a1 ca40
00000030: 600d 8440 213a b540 1e16 a240 0475 7840
00000040: e30b 9540 3843 6b40 1983 5c40 fba4 e040
00000050: 6521 7840 beac 6040 b4ef 8040 345a 4640
00000060: b619 8640 c4bd 6740 a36f 8f40 e3c3 9240
00000070: 8979 7e40 bb45 9940 2087 8840 bef7 a440
00000080: de29 a640 2cc5 8940 d4d6 b040 d3c7 8440
00000090: 11d0 6640 40ab 9f40 b07e c540 d285 8c40
000000a0: 5556 c240 ff04 9c40 51df 8040 0ddb 5540
000000b0: 126c d540 f8fe 6140 5d5f ad40 0384 9240
000000c0: 5895 8740 80e2 b540 d9a5 b740 2132 a040
000000d0: b953 f240 09ab 8540 aeb0 f840 e589 7340
000000e0: 61c8 eb40 7733 5b40 5a3f 8140 ce3a 9740
000000f0: ea25 8640 70b0 5d40 ed8c 9d40 871b 9840

body.block3.conv.weight f4 [64, 64, 3, 3]
-0.07267341 -0.088350736 -0.022716826 -0.005463388 -0.075713225 -0.039801568 -0.101458125 -0.25192484
-0.091120206 0.12489019 0.09071652 0.00784437 -0.045606688 0.072401226 0.12694333 0.0055938186
0.11778542 0.021023218 -0.20536499 -0.09896956 0.14107981 0.0036381471 -0.09825847 -0.060225897
-0.02951127 -0.15743533 -0.031196285 -0.1691333 0.0024102218 0.14747053 0.051401276 -0.063800395
-0.038000077 -0.018296165 -0.17194198 -0.070038386 -0.014824712 -0.06433914 0.04564161 -0.1763009
-0.16022041 -0.117126256 -0.21590425 -0.30080825 -0.4104651 0.07045635 0.009032419 -0.13106135
0.081212156 -0.00018381115 -0.18758284 0.20720159 0.07384661 -0.07360071 -0.18372717 -0.004681465
-0.07891884 -0.044488356 0.06640696 -0.06623421 -0.05152539 0.049606003 0.032098897 -0.0653718
-0.04659915 0.14493385 -0.12299405 -0.025939418 0.14606217 0.019315261 0.07151799 -0.0034084616
0.09002957 0.09641368 0.018367972 0.08383637 0.04496633 -0.004264957 0.13019767 0.15441442
-0.027665183 0.10954085 0.030204618 -0.11291085 0.0121550895 0.058115978 0.11274752 -0.060417905
0.03638026 0.12988122 0.090173796 0.016392304 0.165321 0.07169457 -0.00436001 -0.10073
0.17688987 -0.057264704 -0.08750412 -0.09287408 -0.057950504 0.029545343 -0.06552491 0.1507234
0.07774413 -0.1321475 0.040909223 -0.04193633 0.020523824 0.08937138 -0.018626636 0.0007203482
0.016630683 -0.081307195 0.05799465 0.090365976 -0.030633658 -0.13685381 -0.1842244 0.031136598
-0.05015433 -0.067336455 0.04505091 0.025925744 -0.07104161 0.054537587 -0.025967807 -0.064689614
-0.1256398 -0.13162684 -0.11136751 -0.113605365 0.0039986097 -0.09986888 -0.15939407 0.13335627
0.049185716 0.052284937 0.15913267 -0.01058943 -0.0076380577 0.0019701186 -0.051818997 -0.053992838
0.09752215 -0.0073807333 0.0013587131 -0.06447534 0.021506507 -0.08454314 -0.03702721 0.052977405
0.07684922 0.08162325 -0.0011322768 -0.06988568 0.11364752 -0.020748224 0.011790849 0.0098024765
-0.030667001 -0.10288942 -0.08823639 0.042961318 -0.0073658507 0.03280745 -0.028891657 0.057578422
0.05243237 -0.029875254 0.00427146 -0.031673808 0.031954862 0.13847888 -0.0044568805 0.005714875
0.06436306 -0.10829561 -0.01390371 0.003189315 -0.11721682 -0.058378186 0.095854625 -0.12600708
-0.03655415 0.050302204 -0.076832265 0.038420584 0.036371477 0.3117462 0.030584957 -0.10580837
-0.008794959 -0.049701873 -0.0996475 -0.017259486 -0.03537909 -0.092275016 0.022216393 0.013881962
-0.07432576 0.06745309 -0.011297206 -0.025908493 -0.039180823 -0.066756785 -0.09278993 0.07377197
0.10072074 0.11079708 0.103787534 -0.08423427 0.054875966 -0.069380246 0.04229056 0.13255002
-0.06193544 -0.047991488 -0.15210865 -0.069071926 0.00017004322 -0.003718765 -0.099091984 0.061602544
0.065300204 0.074153244 -0.17294128 -0.24968569 0.014058822 0.04204857 -0.13543333 0.14638649
0.10409249 0.0829199 0.053213954 -0.07869737 -0.13223979 -0.10694962 -0.08664509 -0.1425565
0.005354402 -0.039339762 0.07671528 0.12116503 -0.060781848 -0.04352755 -0.0917184 -0.16732262
-0.043822933 -0.062317636 -0.11435056 -0.0758334 0.06792829 -0.028179618 -0.20914672 0.0003789866
00000000: ccd5 94bd 3bf1 b4bd a318 babc 3806 b3bb
00000010: 890f 9bbd f806 23bd 47c9 cfbd 4bfc 80be
00000020: 3b9d babd 6ec6 ff3d 95c9 b93d ac85 003c
00000030: 14ce 3abd 1847 943d 6ffd 013e 5a4c b73b
00000040: 7b39 f13d e238 ac3c 334b 52be 8db0 cabd
00000050: 3a77 103e fb6d 6e3b bd3b c9bd 6eaf 76bd
00000060: 9ec1 f1bc ba36 21be 5a8f ffbc 4831 2dbe
00000070: d0f4 1d3b 8402 173e 258a 523d c8a9 82bd
00000080: f8a5 1bbd d7e1 95bc 8f11 30be 4970 8fbd
00000090: 59e3 72bc 3dc4 83bd b2f2 3a3d 3988 34be
000000a0: d210 24be e4df efbd 0116 5dbe 8a03 9abe
000000b0: 7b28 d2be 6b4b 903d b6fc 133c f234 06be
000000c0: 8f52 a63d 6ebd 40b9 b715 40be a72c 543e
000000d0: e43c 973d f8bb 96bd fa22 3cbe fa66 99bb
000000e0: 33a0 a1bd 6c39 36bd 5f00 883d cda5 87bd
000000f0: 4a0c 53bd aa2f 4b3d 227a 033d a6e1 85bd
00000100: c0de 3ebd 8a69 143e 4ee4 fbbd e77e d4bc
00000110: 5291 153e 0a3b 9e3c 0678 923d 7f60 5fbb
00000120: 6c61 b83d 8974 c53d 6e78 963c 67b2 ab3d
00000130: 9d2e 383d 0dc1 8bbb 8a52 053e d01e 1e3e
00000140: 18a2 e2bc f456 e03d ad6f f73c ce3d e7bd
00000150: 2426 473c 050b 6e3d 2ce8 e63d c478 77bd
00000160: 7803 153d 95ff 043e 0aad b83d 2749 863c
00000170: e949 293e 9ad4 923d 6ade 8ebb 884b cebd
00000180: 9e22 353e 658e 6abd 5c35 b3bd c434 bebd
00000190: 825d 6dbd 1309 f23c ed31 86bd 3c57 1a3e
000001a0: 5038 9f3d ad51 07be 6e90 273d 6ec5 2bbd
000001b0: 9421 a83c 5808 b73d e396 98bc c0d5 3c3a
000001c0: 123d 883c 6384 a6bd cc8b 6d3d cc11 b93d
000001d0: 70f3 fabc 6823 0cbe 52a5 3cbe 2e12 ff3c
000001e0: a06e 4dbd b2e7 89bd 4e87 383d 3a62 d43c
000001f0: 437e 91bd ce62 5f3d 70ba d4bc fd7b 84bd
00000200: b8a7 00be 30c9 06be a614 e4bd eea9 e8bd
00000210: c506 833b 0e88 ccbd 3338 23be 8c8e 083e
00000220: f676 493d bb28 563d adf3 223e 4a7f 2dbc
00000230: ac48 fabb 1b1d 013b 2840 54bd 9827 5dbd
00000240: b1b9 c73d 14da f1bb d916 b23a a60b 84bd
00000250: 6a2e b03c f424 adbd d8a9 17bd d6fe 583d
00000260: 2063 9d3d 172a a73d e868 94ba 3920 8fbd
00000270: 08c0 e83d 2ef8 a9bc 682e 413c 919a 203c
00000280: 5d39 fbbc b0b7 d2bd 48b5 b4bd 35f8 2f3d
00000290: 3c5d f1bb 1b61 063d 32ae ecbc 5ad7 6b3d
000002a0: 53c3 563d f3bc f4bc 9bf7 8b3b 65bc 01bd
000002b0: 1ae3 023d 68cd 0d3e 060b 92bb d943 bb3b
000002c0: c8d0 833d 17ca ddbd 63cc 63bc d403 513b
000002d0: 5f0f f0bd f71d 6fbd 6e4f c43d 0008 01be
000002e0: ceb9 15bd af09 4e3d 3c5a 9dbd e75e 1d3d
000002f0: 42fa 143d 339d 9f3e 4e8d fa3c 0fb2 d8bd
00000300: bb18 10bc 3194 4bbd fd13 ccbd c463 8dbc
00000310: aae9 10bd affa bcbd 27ff b53c 2b71 633c
00000320: 1b38 98bd d824 8a3d eb17 39bc 0c3e d4bc
00000330: 127c 20bd c8b7 88bd a608 bebd c215 973d
00000340: ad46 ce3d 94e9 e23d 8f8e d43d 0483 acbd
00000350: 9fc5 603d 3b17 8ebd de38 2d3d 31bb 073e
00000360: 04b0 7dbd b992 44bd 5fc2 1bbe 9575 8dbd
00000370: a14d 3239 86b6 73bb bdf0 cabd f352 7c3d
00000380: 1dbc 853d a8dd 973d 8517 31be 9bad 7fbe
00000390: f956 663c 1f3b 2c3d 09af 0abe 57e6 153e
000003a0: 722e d53d e9d1 a93d e0f6 593d 162c a1bd
000003b0: de69 07be 6708 dbbd fb72 b1bd 55fa 11be
000003c0: fb73 af3b bb22 21bd e71c 9d3d 5f25 f83d
000003d0: 63f6 78bd f249 32bd dbd6 bbbd 9f56 2bbe
000003e0: ad7f 33bd c740 7fbd a030 eabd 8b4e 9bbd
000003f0: fd1d 8b3d f1d8 e6bc 8f2a 56be b8b2 c639

body.block3.conv.bias f4 [64]
-0.031040281 -0.014944319 -0.0036003652 -0.03569238 0.015759964 -0.009485972 0.018897012 -0.017268253
-0.0074653532 -0.0126106385 -0.032731295 -0.0035164813 0.029989384 0.004272533 0.02593766 -0.02732054
-0.029687256 -0.040041633 -0.028982228 -0.0059123617 -0.017851396 -0.023639448 -0.011575438 0.018369805
-0.017898198 0.016870309 -0.01340484 0.03621541 0.03597678 -0.019429972 -0.01800002 0.00854304
0.025869701 -0.025868565 -0.03348423 0.018406881 0.010357999 0.016132789 -0.01752119 -0.019524748
0.006101009 -0.015443731 -0.008189873 0.005120835 -0.031055352 -0.018723056 0.034591462 -0.013047295
-0.012711233 0.027514298 -0.020536544 -0.013741243 0.024345418 -0.018607304 0.035350163 -0.0037271269
-0.039611135 0.010046897 -0.028309593 0.022924323 -0.01985655 -0.021465372 -0.02326234 0.03104623
00000000: 3048 febc 04d9 74bc 1bf4 6bbb 2c32 12bd
00000010: 0a1b 813c 0d6b 1bbc e8cd 9a3c 2776 8dbc
00000020: ec9f f4bb da9c 4ebc 4011 06bd c474 66bb
00000030: 4cac f53c 9b00 8c3b 377b d43c 53cf dfbc
00000040: b032 f3bc b202 24bd 236c edbc 7cbc c1bb
00000050: 173d 92bc 84a7 c1bc e8a6 3dbc 467c 963c
00000060: 3e9f 92bc 9a33 8a3c f99f 5bbc 9c56 143d
00000070: 635c 133d 9b2b 9fbc c774 93bc 1bf8 0b3c
00000080: b2ec d33c 50ea d3bc c326 09bd 07ca 963c
00000090: 99b4 293c e928 843c 9988 8fbc 5df2 9fbc
000000a0: f9ea c73b b407 7dbc d12e 06bc adcc a73b
000000b0: cb67 febc 1861 99bc c7af 0d3d 52c4 55bc
000000c0: c742 50bc aa65 e13c 413c a8bc f322 61bc
000000d0: 0b70 c73c 586e 98bc 55cb 103d d042 74bb
000000e0: 493f 22bd be9b 243c 85e9 e7bc cacb bb3c
000000f0: 34aa a2bc 26d8 afbc aa90 bebc aa54 fe3c
