trained_models/sinGan/cows/scale_factor=0.750000,alpha=10/0/netD.pth (torch_old, 122821 bytes, 25 tensors)

head.conv.weight f4 [32, 3, 3, 3]
00000000: e70e 903a 4fa1 8c3b 75e1 bdbc 5f2f 4abc
00000010: f8ad 713c 68e9 463c 9622 d53c c674 883c
00000020: 41b6 a8bd f55e af3d 0be8 b03c db1c c1bb
00000030: 8936 7c3c 7a72 b9bb fba8 bdbb 4a65 29bc
00000040: 7157 39bd 2d0c d4bd 2bac 273d 9eb3 bcbb
00000050: edb9 143d 9f93 c8ba 226a 9d3c ab70 2a3d
00000060: 78f7 c0bc c298 b1bd e8bd 90bd 6e59 1dbd
00000070: fa11 22bd 455f 3f3d a6b6 d63a 06b9 2fbd
00000080: bc3c 0dbc f273 233d 1dd7 d13c 012e 443d
00000090: 0e81 d13b d6c9 febc eec3 8c3d 778c 983c
000000a0: cf46 c4bc 7a0c 063d f249 733d 59b0 1a3d
000000b0: 411d 823c b521 c6bb f319 0fbd 305c 68bb
000000c0: 3fbe 183d 2c10 4c3c d6d3 4f3d 2eeb 923d
000000d0: f2df fa3c 9c39 333d 1f5e 043d 0851 843d
000000e0: ca16 883d 5bab b33b 4e7e 9f3d a652 153d
000000f0: d855 95bd 6c31 68bc eccd f83a 907b babc
00000100: 2804 de3c 68e9 013d 04a1 3bbd f6d5 343d
00000110: 3858 c73c 93e4 afbd 4479 0dbd c10e c4bc
00000120: b358 f93c b960 aa3c 50f3 eb3a 6817 92bc
00000130: ca31 ec3b 2310 f7bc 30fc 62bc 3dd3 c2bb
00000140: 7c60 2ebd 5fe0 6a3c aa4c 40bc 742b 083c
00000150: 05c1 8e3d d7f5 973d d73f 893d 9888 fb3d
00000160: 2182 1a3d b150 043b 6c8d 623c 1d2b 2cbd
00000170: 127d e6bc b636 a03c be4c d6bc e6e8 ecbc
00000180: b104 db3c 4b48 c4bc c173 26bd 73e0 7bbd
00000190: 3f95 41bd c7b8 643c 8cf6 3a3d 28f9 7d3b
000001a0: 2415 a33c ba84 863d aad6 c73c 77f1 8abd
000001b0: d0f3 943c 39df a53c 0305 783b 17d6 2fbd
000001c0: 80b6 1dbd edda 4a3d 7680 833c 67ae 1fbb
000001d0: c3e6 323c 936a 0d3d 905d 87bc ac30 7abd
000001e0: bd75 6abd 7a3d 46bd 4156 e93c 7847 03bd
000001f0: e598 a2bb 1d85 00bd 9180 133d 1b7f 073d
00000200: 1371 d9bb 9c2b 203d 67ac 3cbd b1f0 18be
00000210: 47d3 8b3d ceb0 04bc 8db3 9dbd e2fe d53d
00000220: 2495 833c 1f81 ddbc c59a 37bc 61ac 82bc
00000230: 44b6 3e3d 18c1 03bd 048e e13b a1c5 013d
00000240: a663 9c3d f708 143c 3e10 bbbd bfcf d03c
00000250: 7578 d9bb e546 d23c bf93 61ba fc34 6f3c
00000260: 52a9 673d 8e2b 943d edd7 c13c 10dc 133d
00000270: 8f8f dd3b 3228 a43c bea4 9c3d 2223 0a3d
00000280: 9e15 32bc a6ab c33c 090f 30bc 458b 90bc
00000290: 096d 67bd b9b1 e0ba e146 0bbd 24a2 59bd
000002a0: ca99 5b3c 723f 10bd a530 233d 83aa 653c
000002b0: f5a8 a9bb 20e6 39bc f584 cb3c ac20 04bc
000002c0: d295 03bc 4037 d93c ad15 35bc d6b5 843d
000002d0: 0004 2fbd d0ef 0dbd bae2 17bc 1ccf 02bd
000002e0: f4cd 2e3c 8103 ee3c 3414 173d 81f6 8a3d
000002f0: e733 c33d 7550 413d bf97 e33b 9d71 72bd
00000300: 7b69 163c 3c44 ccbc d9f6 43bd 1708 eebd
00000310: cd36 23bc c942 14bd 37a5 fbba 46d8 b2bc
00000320: 66c1 9fbc 48b2 25bd d2fb b8bc d88b 7bbc
00000330: 9ac9 1fbe 097a f73c efd0 7cbc 0510 003d
00000340: 12fe f93c c95b 313c 8a45 8fbb 1090 74bb
00000350: 046c 4ebd bda5 a1bc 9676 2c3d 0f87 85bc
00000360: c434 843d ff24 a03b 29c0 48bd 39b5 a53d
00000370: 7fb4 523c 7571 5bbd 639b a23d d4ca ffbc
00000380: b5be 273d 05a7 d1b9 5b93 24bd 4d5d bcbd
00000390: e55d acbc 4c5e 8abc 7699 a6bd e720 d73c
000003a0: 7ea9 b03b 1a6d ea3c 69db 343d 2070 a3bc
000003b0: c8e1 edbb 4268 59bc aa47 d9bc cd62 ddbc
000003c0: c75a 6bbc 044d 5bbd 2e77 b43c 15a2 593d
000003d0: b9fb bf3c 10bc 823d 1134 3c3d 51e3 d8ba
000003e0: b0a8 f83b 8ac3 823d 7e2d f43c 405e 243d
000003f0: 006c dcbc 23e1 07bd 1ab5 223c 045c 51bd
0.0010990769 0.0042916904 -0.023178795 -0.012340396 0.01475095 0.012140609 0.026017468 0.016657244
-0.08237887 0.085630335 0.021595022 -0.0058933324 0.015393862 -0.0056593986 -0.0057879663 -0.010339091
-0.045249406 -0.10353885 0.040935677 -0.0057587167 0.036310125 -0.0015302784 0.019215647 0.041611355
-0.023555502 -0.08671714 -0.07067472 -0.038415365 -0.039567925 0.046721715 0.0016381338 -0.04290106
-0.008620437 0.039905496 0.02561527 0.047895435 0.0063935583 -0.031102102 0.06873308 0.018621666
-0.023959545 0.032726742 0.05939669 0.037765834 0.01588309 -0.0060464987 -0.034936856 -0.0035455339
0.037290808 0.012455028 0.050739132 0.07173763 0.030624364 0.043756112 0.032316323 0.06460768
0.06644972 0.0054830736 0.077877626 0.036455773 -0.07291764 -0.014171939 0.0018982268 -0.022763997
0.027101591 0.031716734 -0.045807853 0.04414936 0.024334058 -0.08588519 -0.034539476 -0.023932816
0.030437803 0.020798074 0.001800159 -0.017833427 0.0072080838 -0.030159062 -0.0138540715 -0.0059455917
-0.042572483 0.014335721 -0.011737028 0.008311141 0.06970409 0.07419937 0.067016296 0.122819126
0.037721757 0.0020189697 0.013827663 -0.042033304 -0.02813581 0.019557338 -0.02615964 -0.028919648
0.026735635 -0.023960253 -0.040637735 -0.06149335 -0.047261473 0.01396007 0.04564528 0.0038753245
0.019907542 0.06568284 0.024394352 -0.06784337 0.018182665 0.020248042 0.0037844784 -0.04292878
-0.038504124 0.04952519 0.016052466 -0.0024365427 0.010919276 0.034525465 -0.016524106 -0.061081573
-0.05724119 -0.048398472 0.028483512 -0.03205058 -0.004962074 -0.031376947 0.036011282 0.0330802
-0.006635794 0.03910409 -0.046062853 -0.14935566 0.06827407 -0.008098794 -0.07700262 0.10449006
0.016062327 -0.027039109 -0.0112063335 -0.015951337 0.04656054 -0.03216657 0.0068833847 0.031682614
0.07636194 0.0090353405 -0.09133957 0.025489686 -0.006636674 0.02566857 -0.0008605085 0.014600035
0.05655796 0.0723487 0.023662532 0.03609854 0.0067614983 0.020038698 0.076486096 0.03372491
-0.010869412 0.02388556 -0.010745772 -0.017644534 -0.05650047 -0.0017142809 -0.034003142 -0.053133145
0.013403365 -0.035216756 0.039841313 0.014017704 -0.005177612 -0.01134637 0.024843672 -0.00806443
-0.008031325 0.026515603 -0.011052531 0.06479995 -0.042728424 -0.03465253 -0.009270364 -0.031935796
0.01066922 0.029054405 0.0368845 0.06785298 0.09531384 0.04719587 0.00694558 -0.05919038
0.009180422 -0.02493488 -0.047842834 -0.11622637 -0.009961796 -0.036196504 -0.0019199018 -0.021831643
-0.0195014 -0.040453225 -0.022581015 -0.015353166 -0.15604249 0.030209558 -0.015430673 0.031265277
0.030516658 0.010825106 -0.0043723034 -0.0037317313 -0.05039598 -0.01973235 0.04210528 -0.016299753
0.06455377 0.004887223 -0.049011383 0.08091206 0.012860416 -0.053574998 0.07939794 -0.031224646
0.040953357 -0.00039988026 -0.04017959 -0.09197483 -0.021040866 -0.016890667 -0.08134739 0.026260806
0.005391299 0.028616477 0.04415456 -0.019950926 -0.0072595812 -0.013269486 -0.02652343 -0.027024651
-0.014364905 -0.053540245 0.022029486 0.05313309 0.02343546 0.06383526 0.045948092 -0.0016547238
0.0075884685 0.06384952 0.029806849 0.040128946 -0.026906967 -0.03317369 0.009930873 -0.051113144

head.conv.bias f4 [32]
00000000: 0ead ac3e 863c 43be 0bce 9f3e e5cf 9c3b
00000010: 3f4b 583e bb9b c6be f495 7f3d 5ae7 ecbc
00000020: b7a2 b73e c7c7 a2be 3331 193e 9261 3bbe
00000030: c184 513e 93c8 bfbb 9264 4d3c 0a3d 82bc
00000040: ba23 4ebe 3470 8f3d a720 b5bd fa73 9abe
00000050: 81ac 03be 88a4 693e 6f01 55be 3cd0 583e
00000060: 3f5c 85be 6054 213d 9699 5ebd 5f31 c6bc
00000070: 8bf8 c7be e589 33bd e0ea 3fbe e19f 3fbe
0.3372578 -0.19066057 0.31211886 0.004785525 0.21122454 -0.38790688 0.062398866 -0.02891891
0.3586633 -0.31793043 0.14960174 -0.18298939 0.20460798 -0.0058527677 0.012536185 -0.015898246
-0.20130816 0.07003823 -0.088441186 -0.30166608 -0.12858774 0.2281667 -0.20801328 0.21173185
-0.2604694 0.039387107 -0.05434569 -0.024193464 -0.3905681 -0.04383268 -0.18741941 -0.18713333

head.norm.weight f4 [32]
00000000: 0b81 503f 6ec3 643f 1bbe 803f 9627 543f
00000010: d51f 473f 6ee7 5f3f 2d31 543f 1660 483f
00000020: 6d83 4c3f 1159 5d3f 4811 4d3f 1fd6 6f3f
00000030: f6de 593f bfaa 8a3f 5ee0 823f 0a3a 893f
00000040: 40ee 6c3f 2b0a 543f 2448 5b3f 97bd 693f
00000050: b9b2 5b3f 5903 503f 3916 533f f76e 573f
00000060: 3d5e 423f 0780 843f 430f 5a3f 4b91 7b3f
00000070: 9efc 5a3f a4b0 563f dbf5 233f 3348 813f
0.81446904 0.893607 1.0058016 0.82872903 0.77782947 0.8746251 0.82887536 0.78271616
0.7988804 0.8646403 0.80104494 0.936861 0.85105836 1.0833358 1.0224721 1.0720837
0.9255104 0.82828015 0.8565695 0.91304916 0.85819584 0.8125511 0.82455784 0.84153694
0.75925046 1.0351571 0.8517954 0.98268574 0.85541713 0.8386328 0.6404702 1.0100158

head.norm.bias f4 [32]
00000000: f4d7 243f 7fd9 dc3e 5fd6 c63d 55d0 1e3f
00000010: 85d6 853e da5a 163f 5879 bd3e e6e6 5a3f
00000020: 369c 143f 5e78 203f 14d7 cc3e 2c75 b2bd
00000030: 776b 043f d2f9 813e f3a2 483e b29e 07be
00000040: f8b4 aa3e dffe 243f 5f52 0e3f be86 b43e
00000050: 1577 c43e 70aa 233f 46ba 343f 1814 053f
00000060: 941d 623f 342d 323e 0a1a 013f af64 8f3e
00000070: 028e 0a3f e433 c83e 6f28 443f 3ae8 b93d
0.6439202 0.43134686 0.09708857 0.6203664 0.26140228 0.5873238 0.3700664 0.85508573
0.5805086 0.62683666 0.40007842 -0.08713755 0.5172648 0.2538591 0.1959341 -0.13244131
0.33341193 0.644514 0.5559444 0.3525905 0.38372102 0.6393194 0.7059673 0.51983786
0.8832638 0.17400056 0.5043036 0.28006503 0.54122937 0.3910209 0.76624197 0.09077497

head.norm.running_mean f4 [32]
00000000: 33d8 b73e 9cff 8fbe beac b03e 1815 933c
00000010: 89ed 833e 7178 03bf f70a 40bb 967f 7cbd
00000020: 889c ce3e 5804 f9be ac22 01bd 26b7 84be
00000030: 1e9e 9f3e a31e 80bb 4a7f 583c 30f3 0abc
00000040: 6153 9fbe 7653 29bb 94d3 03be 51c1 d7be
00000050: bed6 e0bd cfdb 8f3e e45c 8abe f6ef 983e
00000060: 13eb 97be 94a4 4f3d adc8 973c f03f 3bbb
00000070: 4b16 04bf 4d4d a13b 0c4a 38be a6a3 76be
0.35907134 -0.28124702 0.34506792 0.017954394 0.25767162 -0.51355654 -0.002930341 -0.061645113
0.403538 -0.48636127 -0.031527206 -0.2592098 0.3117532 -0.003909902 0.013213942 -0.008480832
-0.311183 -0.00258371 -0.1287368 -0.42139676 -0.10978459 0.28097388 -0.27023995 0.29870576
-0.29671535 0.050694063 0.018528307 -0.0028572045 -0.51596516 0.004922545 -0.17996997 -0.24085864

head.norm.running_var f4 [32]
00000000: ebae fd3a 94c0 093b 5cf0 103b de1a 0f3b
00000010: ffe2 a43a 072b 203b 881c 9c3a 0d24 483b
00000020: 33c8 c63a daa9 3e3b da44 983a b1e2 8d3b
00000030: 1e10 9c3b 909a c536 11ae af36 793f 6c36
00000040: 0b05 273b cbe7 8739 d07b ac3a fc96 923b
00000050: e055 1c3b 8a8d 113b 74d3 943a b28f 243b
00000060: cd0f af3a 74b2 a43a 4cc7 883a 2296 143a
00000070: 4d89 8d3b 3b1b 043a eb8c d43a b848 283b
0.0019354498 0.0021019327 0.0022115922 0.0021836082 0.0012579857 0.0024439709 0.0011910358 0.0030539066
0.0015165865 0.0029092939 0.0011617199 0.0043300022 0.0047626635 5.889051e-06 5.2356704e-06 3.5203686e-06
0.0025485184 0.00025921906 0.0013159458 0.004473565 0.0023854896 0.0022209608 0.0011354522 0.0025110063
0.001335615 0.001256539 0.0010435372 0.00056681235 0.004319346 0.0005039458 0.0016216313 0.002567811

body.block1.conv.weight f4 [32, 32, 3, 3]
00000000: 1140 7bbd 1151 80bc 1f0b 963c 8a96 d83c
00000010: 72f8 1ebd 688f 8f3c a748 53bd 5472 883d
00000020: 1b17 743c 9542 02bd 466a 7cbc a5e3 fa3c
00000030: fc7c 05bd 5a77 8b3c 0287 68bc 8a9f 10bd
00000040: 1b7c 233d 7c7b 2bbd 3083 04bd 3077 3dbc
00000050: 68af 3bbc 045a 7a3c 1d0c 5a3d 4686 653d
00000060: ef05 6e3d 6ab4 39bc 6d35 5bbd f6a5 d9bc
00000070: 2a84 a739 dfa6 8ebd 4e54 503d f246 b13c
00000080: f536 043d dc60 c4bc f00c 203d b645 68ba
00000090: 7b4e 98bd ef05 f5bb 373f 36bd a9bc 37bd
000000a0: 2f4c bf3b ec18 cfbc b57a 08bd 986d c13b
000000b0: 3a6b 3a3b 1f2f 9c3c 5a64 063b 8683 a8bb
000000c0: f136 713d bafb c73d 1ef5 373d 6084 05be
000000d0: 56ff 17b9 a451 583d 8b0d 9ebd 53e6 17bd
000000e0: 8c59 51bb 12e3 f5bb 817e b439 8bbd 1a3c
000000f0: 343c 143c 80bd 6ebb 4262 1a3d 6354 0c3a
00000100: 8f04 c83c 281f 283d ac33 d2ba 9545 b43c
00000110: ba19 b1bc fe9f f23c 8d5a 03bd af9b 86bc
00000120: 6aab 95bc 1099 8a3c b52b 433d e45b 9dba
00000130: 7a59 6e3d 4a4e 99bb d045 11bc 5f99 0dbd
00000140: 714d cabb 7ea8 043d b748 6bbd bede 6cbd
00000150: 288e 283c 1a31 f4bc b312 c3bb b135 eabc
00000160: e345 213d c296 3ebd 6618 c2bc 0d88 07bd
00000170: bbe6 5abc 8f80 493d d313 533c 660f a23c
00000180: 08ec c9bc 4a71 273c 0cb0 533d c5b8 3ebd
00000190: e1e3 7fbd 89ab d9bc 7a90 15bd 34c0 3bbc
000001a0: a895 47bd 3679 eabd d431 aebb 0a4b 6bbd
000001b0: 2d27 63bd 8517 1b3b fb8c bcbd 7cf0 2f3d
000001c0: 7c5e 0b3d dbb2 8abc 9fa3 02bd 5079 c0bc
000001d0: 0a9d 1dbd 4e26 a5bc a4b4 ac3c ac60 953c
000001e0: 3e77 03bd 7300 b13c 3399 a73d f7fe 88bd
000001f0: b4cd 0fbd 5b49 f639 0487 f5bc 5fff 0e3b
00000200: 2def e0bb 8514 153c cf92 4c3d 05ec 843c
00000210: a64d 9fbd 41e7 c63c 7474 4b3d 7bf9 653d
00000220: 95b7 97bc 3143 39bd 03c5 403d 6db0 823b
00000230: c264 17bd 3692 bb3b a76a 6c3c fb63 f03c
00000240: 977c 043c db31 173c 0342 f3bc 5f00 2cbc
00000250: 9c45 ef3a 5d98 a13c f232 38bd 1f3c 09bc
00000260: e46c 5e3c 3a2f aa3c 4c68 e53b 8710 603b
00000270: b9fa 05bd e6fa bfbb eae3 5cbc 4f2b e039
00000280: c416 c5bc 043c 07ba 760c 6f3c 2e28 00bd
00000290: b593 0f3d 56e4 f83c b5b7 d83c 04d4 173d
000002a0: a3e8 a33d de91 783d 4444 77bd eb32 2a3d
000002b0: a1dd 1e3c 1790 87bd 40a8 23bd 291c b23c
000002c0: 05c4 95bd 1b23 debd 472d 413d 04d1 7fbd
000002d0: 9469 29bb d0cf 203d 4f7e e6bc 48f6 923c
000002e0: 4599 adbc 6f3e 023d 44e5 9f3d 0994 8c3b
000002f0: 3a59 53bd ba35 61bb 08d7 b8bc a2c9 0b3d
00000300: 9a95 97bd 5838 fd3c d3dc 033d d2a4 073d
00000310: 9407 303d 2552 b7bc 7a57 1abd 1249 c2bb
00000320: 341f 913b 78d3 74bc 3850 b43c f1ec 493b
00000330: d018 ff3c abc5 8e3d 6250 40bc f624 4ebb
00000340: 2227 29bc ebdd 343d 58e6 dfbc 16e3 1ebb
00000350: 859a 413c cddd debd 6d32 94bd 7728 cfbd
00000360: d57b 52bc ab6f 033d c598 c2bc 14ef d7bb
00000370: bed5 00bc dcac 333d fc84 b33d bb94 c63d
00000380: f8d4 a63d ef4b 243d 72f3 86bc 0443 82bc
00000390: 347e f7bd 7347 553d a636 953d c10d efbc
000003a0: 9817 91bd dad5 f73d c42c ddbd 63ad e2bd
000003b0: 3b4b 9abb 08b6 1dbd 07b5 773b 7c5f d13c
000003c0: 0ac9 403d 4cae 87ba 616c a5bd 5460 acbd
000003d0: 9002 143d 7813 b23c e9a6 3abc 106f 2fbd
000003e0: c023 bbbb d14e 1e3d 9b04 983a 3053 923c
000003f0: 6e6e 993c 4d45 3dbd 03d8 74bd cab7 3a3c
-0.061340395 -0.015663655 0.01831585 0.02643897 -0.038811155 0.017524436 -0.05158296 0.06662431
0.014898087 -0.03180178 -0.015406197 0.030626127 -0.032589898 0.017024685 -0.014192345 -0.0353084
0.039913278 -0.04186581 -0.032351673 -0.011564061 -0.011455394 0.01528025 0.05323421 0.056036256
0.058111127 -0.011334518 -0.053517748 -0.026568394 0.00031951192 -0.06965422 0.05086165 0.021640275
0.032278974 -0.023971967 0.03907484 -0.00088604854 -0.07436844 -0.007477514 -0.04449388 -0.044857655
0.005837939 -0.025280438 -0.033320148 0.005902957 0.002844526 0.019065438 0.0020506592 -0.005142632
0.058890287 0.0976481 0.044911496 -0.13038778 -0.00014495602 0.052812234 -0.07717427 -0.03708489
-0.0031944243 -0.0075038755 0.00034426528 0.009444605 0.009047557 -0.0036428869 0.037691362 0.0005353151
0.024416236 0.041045338 -0.0016037128 0.022005836 -0.021618713 0.029617306 -0.032068778 -0.016431658
-0.018270213 0.016918689 0.047649104 -0.0012005535 0.0581908 -0.0046785222 -0.008866742 -0.034570094
-0.0061737825 0.03238725 -0.057442393 -0.05782961 0.010287799 -0.02980857 -0.005953157 -0.028590055
0.03937329 -0.046530493 -0.023693275 -0.033088733 -0.0133606745 0.04919487 0.012883144 0.019782733
-0.024648681 0.010219881 0.051681563 -0.04656293 -0.06247318 -0.026571052 -0.036514737 -0.011459399
-0.048726708 -0.114489004 -0.0053159986 -0.05744461 -0.055457283 0.0023665142 -0.092065774 0.042953953
0.034025654 -0.016930988 -0.031894322 -0.023495346 -0.038479842 -0.020159867 0.02108223 0.018234573
-0.03209614 0.02160666 0.08183517 -0.06689256 -0.035108283 0.0004697543 -0.029971607 0.0021819694
-0.0068644495 0.0090991305 0.049944695 0.016225824 -0.07778482 0.024280192 0.049671605 0.056146126
-0.018520156 -0.045230094 0.047062885 0.0039883167 -0.036961325 0.005724217 0.014429725 0.02934455
0.008086345 0.009228195 -0.029694563 -0.010498135 0.0018254998 0.019725973 -0.04497046 -0.00837615
0.013575766 0.020774473 0.0070009585 0.0034189539 -0.03270981 -0.005858767 -0.013482073 0.00042756877
-0.024058707 -0.00051587843 0.014590373 -0.03128832 0.035052974 0.030382317 0.026454786 0.03706743
0.08003356 0.060685985 -0.060367838 0.041552465 0.009696395 -0.0661928 -0.039955378 0.021741943
-0.073127784 -0.108465396 0.04716232 -0.062455192 -0.0025850283 0.039260685 -0.0281364 0.017939702
-0.021191249 0.031797823 0.07807401 0.004290108 -0.051598765 -0.00343643 -0.022563472 0.03412784
-0.07401581 0.030910656 0.032193016 0.03311617 0.042975977 -0.022378037 -0.03768108 -0.005929121
0.0044287685 -0.014942996 0.022010908 0.0030811394 0.031139761 0.06971296 -0.011737915 -0.0031455136
-0.010324271 0.04415695 -0.027331516 -0.002424424 0.0118166255 -0.10882149 -0.072361805 -0.1011514
-0.012846907 0.032088917 -0.023754487 -0.0065897796 -0.00786346 0.043866023 0.08765599 0.09696337
0.08146089 0.04011148 -0.016473506 -0.015901096 -0.12084618 0.052070092 0.07285814 -0.029181363
-0.07084578 0.12101336 -0.10799554 -0.11068227 -0.004708675 -0.038503677 0.003779711 0.025558226
0.047066726 -0.0010351627 -0.08077312 -0.08416811 0.036135256 0.021737799 -0.011392334 -0.042830527
-0.005711049 0.038649384 0.0011598052 0.017861933 0.018729415 -0.04620867 -0.059776317 0.011396358

body.block1.conv.bias f4 [32]
00000000: 8c51 c6bb 9484 1dbb cd2c 57bc cf99 963c
00000010: 3701 943c af0c 9abc dd68 db3c a821 b53c
00000020: fd86 783d b1bc 933c bbf7 693b d9b1 4b3d
00000030: a3d5 913d 86da 43bd 5459 bc3c a988 2b3d
00000040: 9a56 8a3d d93b 0bbd 511d eb3c 06ae 603d
00000050: 69f0 34bd b807 863d 33e9 a33c 1784 013d
00000060: 17df 933c 2e8d 883d 2b51 6f3d 6815 f13b
00000070: 428d 593d 8a40 ee3c 4ef1 853d dc8d 943c
-0.0060522016 -0.0024035322 -0.01313324 0.018383889 0.018066986 -0.018804876 0.026783401 0.022110775
0.06067561 0.018034311 0.0035700637 0.049730156 0.07120826 -0.047815822 0.022991814 0.041878376
0.06754799 -0.033992622 0.028700503 0.05485346 -0.044174585 0.06544441 0.020008659 0.03162011
0.018050713 0.06667553 0.058427017 0.007357288 0.05311323 0.029083509 0.06540166 0.01813405

body.block1.norm.weight f4 [32]
00000000: 7c07 803f d928 6f3f feb4 553f 0951 523f
00000010: fd31 583f 863b 613f f959 5f3f 6cdc 4f3f
00000020: 5078 6b3f edf1 453f 3d70 7d3f 2aff 453f
00000030: a5b2 793f bf82 7a3f d41c 493f 79b3 633f
00000040: efe4 6b3f 33b8 753f 9d46 703f 89a1 4f3f
00000050: 5ed1 6a3f 2658 403f 4fa3 4b3f 76dc 723f
00000060: 1b69 633f 227d 483f e165 4e3f ef2d 5d3f
00000070: 8d95 683f d025 403f 87af 743f f73f 4f3f
1.0002284 0.93421704 0.834793 0.821549 0.84451276 0.8798145 0.8724666 0.8119571
0.9198046 0.77322274 0.9899939 0.77342474 0.97538215 0.9785575 0.78559613 0.8894573
0.921462 0.9598419 0.9385775 0.8110586 0.9172572 0.75134504 0.79546064 0.94867647
0.88832253 0.7831594 0.80624205 0.86398214 0.90853196 0.750577 0.95580333 0.8095698

body.block1.norm.bias f4 [32]
00000000: 78c4 bf3e d85f c13e 5dd1 1d3f f7bf 653f
00000010: 1b58 223f 3f23 1e3f 75b2 0b3f 1abf 653f
00000020: d349 ee3e d45e 073f 1cfd 753e 7a84 463f
00000030: 6405 293f a024 b83e 1c78 3f3f 31ea 433f
00000040: 19e7 0c3f 1c29 d23e 8022 1d3f 2d70 593f
00000050: 4519 ae3e f78a 3c3f 380c 313f 3a27 0d3f
00000060: e30b 283f 7fa1 583f f04a 483f 2331 163f
00000070: 9246 293f f715 5c3f 42fb 1a3f e55f 4c3f
0.3745458 0.37768435 0.6164759 0.8974604 0.6341569 0.6177253 0.5456918 0.8974472
0.46540698 0.5287907 0.24022335 0.77545893 0.6602385 0.35965443 0.7479265 0.7652922
0.5504013 0.4104699 0.6138077 0.8493679 0.34003654 0.73649544 0.6915927 0.5513798
0.6564314 0.84621423 0.78239346 0.58668727 0.66123307 0.85971016 0.6053964 0.79833823

body.block1.norm.running_mean f4 [32]
00000000: c92c 1cbf 9b94 75bf 688a 6d3f c439 c63e
00000010: fc83 3b3f 06c4 2b3e 035d b73d e39e 0f3f
00000020: 62f7 b63e 6e18 50be 4374 4cbf e9e8 c9bf
00000030: 3957 a63e 8db9 0ebd d594 41bd e455 2abe
00000040: 97be 11be d8f2 a43e 9be9 cb3f 34c4 453d
00000050: 06e4 58bf d9e0 88be 33c7 a2be 3726 273f
00000060: 47df aa3e e7b8 97bb 83f4 f83e 8496 2ebf
00000070: ef37 653f 23a2 26bf e4f5 8f3f 500c 3fbf
-0.61005837 -0.9592988 0.92789316 0.38715947 0.7324827 0.16773996 0.089532875 0.56101817
0.35735613 -0.20321819 -0.798649 -1.5774204 0.3248842 -0.034844924 -0.047261078 -0.16634327
-0.1423286 0.32216525 1.5930666 0.048282817 -0.84722936 -0.26734045 -0.31792602 0.65292686
0.33373472 -0.0046301964 0.48624048 -0.6819842 0.8953847 -0.6509115 1.1246915 -0.7462816

body.block1.norm.running_var f4 [32]
00000000: cd17 373e 2d1c 653e baa9 a43e f5af 6a3e
00000010: 30f6 433e 8f8a 893e e665 613e 8703 6f3e
00000020: bd98 813e 902a cb3d 229a 843e 08a1 ad3e
00000030: 75e1 993e 562f 4f3e 6cef c03e 5748 f83e
00000040: def5 743e 2bc0 5c3e 8906 7c3e 6a58 5b3e
00000050: c9e5 8d3e 9f41 303e 8062 b73e 7a18 a73e
00000060: c382 033f 189e 873e e6af 0d3e b221 3a3e
00000070: 39d8 823e ad43 353e 3e4b a73e 52f7 b73e
0.17880173 0.2237403 0.3216074 0.22918685 0.19136882 0.26863524 0.22011527 0.2334119
0.25311843 0.099202275 0.25898844 0.3391192 0.30054823 0.20232901 0.37682664 0.4849269
0.23921916 0.21557681 0.24611868 0.21420446 0.27714375 0.17212532 0.35817337 0.32635862
0.513714 0.26487803 0.13836631 0.18176916 0.2555559 0.17701598 0.32674593 0.35930878

body.block2.conv.weight f4 [32, 32, 3, 3]
00000000: 9766 a03a 2968 d7bd a961 77bd 7993 b3bc
00000010: 8ce3 97bc 2748 04bd 9787 413c d039 13bd
00000020: 4b2b 4fbd ee13 82bd d850 1bbc 0def 94bc
00000030: d9a6 bdbc aa94 14bc 646c ca3c 4c72 aabd
00000040: f087 6fbd 2bd6 31bd 518f 473d 6c22 643a
00000050: c092 b7bb d167 92bc c07e f43c 9717 96bc
00000060: 22b0 9aba 5ffe b73c ced9 183d 222c f5b9
00000070: fddf 9bbc c313 8fbd 0148 21ba 320a 513c
00000080: af7d 38bc 0593 d8bc 4dcb 3d3c d895 b4bb
00000090: dec2 e43c fd9b 813c 4538 093d 5819 c8bc
000000a0: f214 bebc ac46 173c 4d33 4e3c 4b98 f73a
000000b0: 475e 3fbd a438 f73b 7403 ff3c 2b06 793b
000000c0: 8757 5b3d f3ae 3f3c 173a 84bd 76cb c63d
000000d0: a78e 8b3c 86ae 7bbd e567 a3bd f7a2 39bd
000000e0: e0e7 1ebd 33b0 6cbc 9b52 353c 1d0a e8bc
000000f0: b925 1fbc db2b 8d3d f8ca 513d 8e45 22be
00000100: b089 8bbd 68ae a23d 32c6 97bd 2da0 d2bd
00000110: 8316 88bd b45f 063c 4a7d 42bd 6a81 a2bc
00000120: 778e 5abd 4a35 3ebd 1b38 353c 4423 cfbd
00000130: dde3 7fbd bc56 89bd cfb2 4ebd 88c9 75bd
00000140: 6a12 adbd 051b dfbc 4251 c1bc dd7f d9bb
00000150: 0ce7 4fbc 1396 00bd ba22 ab3c acba 933c
00000160: 14b6 843c 1438 993b 3d58 213c 03f0 de3c
00000170: 500d 2e3d f3c9 143d 8dad 5cbb 6abd f5bb
00000180: 7066 033d 0dd8 6a3c 4f47 773c 0485 d93c
00000190: b7f4 99bb 19e9 51bd 8f35 afbb de56 05bd
000001a0: 2bd5 51bd edfe 0b3c 6834 5dbc e1e7 0fbd
000001b0: 6c58 bfbc c0cb 713d 00fa 873c 3193 1fbd
000001c0: 3ed5 453c 16ef b43d e4e0 3ebd dedf 933c
000001d0: 7f0c 353d 6727 b5bb 44d4 4d3d 1796 f2bc
000001e0: 36dc be3c e6bc 453d 510c 533d e5af b3bd
000001f0: c88b 79bd b023 24bd 4615 c03c 62c1 b0bb
00000200: bf54 153c d3bb bc3b c775 a13c f128 64bc
00000210: cac8 183d 8584 0a3d 7409 513d 7bfd a2bd
00000220: 5723 bfbb 57f7 4d3a 4b71 81bc bac2 903c
00000230: c259 b0bc 3c4c 453d 7f2f dd3c 2fb7 6bbd
00000240: a7bc febb be32 593c 946b fa3c f84a 5fbc
00000250: 8262 22bc a97f 863c b699 38ba 5b4c c8bc
00000260: 6b52 7d3d 08cd 193d 65a3 a83b 7b9e 8abc
00000270: 5ab2 54bc b1fd 2abd a7d5 18bd 6b62 e83c
00000280: 46dd 2d3d f4ec 2e3b c209 b83c cb9c 583d
00000290: 952c b53d 1c74 bf3c 772c c4bc 97e4 8dbc
000002a0: a9dc 1c3c 8ae5 323b a609 b2bd 7a4f d8bc
000002b0: ee76 80bc eb87 473c e266 d23c 1384 0c3d
000002c0: 6132 ad3d 8134 7e3b 4d0e b5bc e24a c23d
000002d0: 78e0 85bd 63cd 2bbd 433a 963c cd6e 68bb
000002e0: 0a37 293d fff3 5f3d 7aba 41bd d65d cc3c
000002f0: 2210 c23c f1f5 f5bc 1a21 553b 283d 21bd
00000300: d250 ce3c 003c 4a3d 7d27 f73c 4c5c 25bc
00000310: e630 e93c 5922 713c 8dcf 5c3c 4f56 4b3c
00000320: 085e 9b3b 86be e739 394d c9bc 35f3 20bb
00000330: c563 b43c 97e6 e2bc 007c 17bd dbfb afb9
00000340: 534f 463c 2bf2 f03c f78a 2f3c 6759 05bd
00000350: 0a8e 4abb a482 173d 2f6a 493c a526 143d
00000360: dc9b 23bd 4fc3 013d 0b3b 91bb 6fe2 3dbc
00000370: de89 a33c 3fe7 c03c 6e9c bcbd 2d6b 8bbc
00000380: 8448 b63c 4780 ed3c 3c14 7a3d d3eb 273d
00000390: f387 cebc 08a1 d53b b4bc a93d 295d 1c3d
000003a0: 66ea dc3c d17c 633d 2af1 173d 11c5 8bbc
000003b0: f7b5 77bc 946f 55bb 6b88 98bd a625 b5bd
000003c0: 9a00 163d d2bc 95bd 7f03 bcbd 8423 9c3c
000003d0: f361 e63a 8c46 313d 062a afbb 37e7 50bc
000003e0: 2f33 41b8 385e e4bb 63ec 42bd 13cf abbc
000003f0: 7181 a2bc d4a9 ee3c cb86 df3c c2b6 6abd
0.0012237605 -0.10517914 -0.06039587 -0.021920906 -0.01854112 -0.032295372 0.011812112 -0.035943806
-0.050578397 -0.063514575 -0.009479724 -0.018180395 -0.023150848 -0.009068647 0.024709888 -0.08322582
-0.05847925 -0.043417137 0.04872066 0.0008702639 -0.0056022108 -0.01787177 0.029845595 -0.018321795
-0.0011801759 0.02246016 0.03731709 -0.00046762923 -0.019027704 -0.06986191 -0.0006152392 0.012758778
-0.011260434 -0.026437292 0.011584115 -0.005511027 0.027924951 0.015821451 0.03350093 -0.024426147
-0.023203347 0.009233158 0.012585473 0.0018889991 -0.04672077 0.007544594 0.031129576 0.003799806
0.05355027 0.011699426 -0.06456392 0.09706776 0.017035795 -0.061445735 -0.07978801 -0.04532143
-0.038795352 -0.014446306 0.011067058 -0.028325135 -0.009713584 0.068931304 0.051218957 -0.15846846
-0.06813371 0.079434216 -0.0741085 -0.10284457 -0.06644919 0.008201528 -0.047482766 -0.0198371
-0.05335852 -0.04643754 0.01106074 -0.10114148 -0.062473167 -0.067059964 -0.050463494 -0.06000665
-0.08450778 -0.027234564 -0.023598317 -0.006637557 -0.012689363 -0.031393122 0.020890582 0.018033348
0.016200103 0.0046758745 0.009847698 0.027214056 0.042493165 0.036325406 -0.003367278 -0.0074993866
0.032080114 0.014333737 0.015092685 0.026552685 -0.0046983617 -0.05124769 -0.005346961 -0.032553546
-0.051228683 0.008544666 -0.013501264 -0.035133246 -0.023357593 0.0590322 0.016598701 -0.038958732
0.012074767 0.088346645 -0.04660119 0.018051084 0.04420137 -0.0055283788 0.05025126 -0.029612584
0.023298364 0.04827585 0.051525418 -0.087737836 -0.06092432 -0.040073097 0.023447644 -0.005394147
0.009114443 0.005759695 0.01970948 -0.013925777 0.037300862 0.033817787 0.051034406 -0.07958504
-0.0058330703 0.0007856986 -0.015801093 0.017670978 -0.021527175 0.048168406 0.027000187 -0.057547744
-0.007773954 0.013256727 0.030568875 -0.013628714 -0.009911181 0.016418295 -0.00070419477 -0.024450472
0.061846178 0.03754905 0.0051464313 -0.016921273 -0.012981975 -0.041745845 -0.03731313 0.028367242
0.04244735 0.0026691528 0.02246559 0.052883904 0.08846394 0.023370795 -0.023946984 -0.017320914
0.009574094 0.002729746 -0.086932465 -0.026405085 -0.01568171 0.012178401 0.025683824 0.034305643
0.08456875 0.003878862 -0.022101546 0.09486939 -0.06536955 -0.04194392 0.018338328 -0.0035466433
0.041312255 0.054676052 -0.04729698 0.024947088 0.023689333 -0.0300245 0.003252095 -0.039364964
0.025185023 0.049373627 0.030170197 -0.010092806 0.0284657 0.014717662 0.013477218 0.012410714
0.004741434 0.00044201704 -0.024572955 -0.0024559025 0.02202023 -0.027697844 -0.03698349 -0.00033566248
0.012103873 0.02941235 0.010714284 -0.032555964 -0.0030907416 0.036989823 0.012293383 0.036169667
-0.03994356 0.0316804 -0.0044320873 -0.0115896305 0.019963201 0.023547767 -0.09209524 -0.017018879
0.022251375 0.028991831 0.061054453 0.040996384 -0.02521131 0.0065194406 0.082879454 0.038174782
0.026967239 0.055538956 0.037095226 -0.017061742 -0.015119067 -0.0032567726 -0.07447895 -0.088450715
0.036621667 -0.07311405 -0.09180354 0.019059904 0.0017576799 0.04328017 -0.0053455858 -0.012750438
-4.6062454e-05 -0.0069692396 -0.047588717 -0.020972764 -0.019837113 0.029133715 0.027285954 -0.057303198

body.block2.conv.bias f4 [32]
00000000: 5ab2 9339 919e 713c 2966 8e3d 7419 ca3c
00000010: cdf6 e43c b692 ae3d c91c 653c 35af c23c
00000020: 3ad7 413c f792 073d 91aa 563d 6977 183d
00000030: dd75 243d dfce 8b3b 19ae 1b3c 8a8d 3abd
00000040: ee4d 3d3d 71d2 2f3d 9441 873c 61f0 cabc
00000050: 9047 c63d 065b 103d 2148 db3c c515 973d
00000060: 3126 763c 7570 40bc 2ff0 d5bc dcd8 813d
00000070: 6f73 8e3c 1fe0 7c3c 4b06 2fbc 331d 813d
0.00028170907 0.014747278 0.06953079 0.02467034 0.027949715 0.08524077 0.013983914 0.023765186
0.011831099 0.03309914 0.05240876 0.037223253 0.040151466 0.0042666043 0.009501957 -0.04554514
0.046216898 0.042925302 0.016510762 -0.024772825 0.09681618 0.035243057 0.026767792 0.07377199
0.015023754 -0.011745562 -0.026115505 0.06340191 0.017389027 0.015434294 -0.010682653 0.063043974

body.block2.norm.weight f4 [32]
00000000: b1f1 723f 364c 573f 0a86 6a3f 0af9 673f
00000010: a2ce 863f e9e9 673f f005 693f c8fd 753f
00000020: 2091 763f 7057 7a3f 159d 733f 8a06 793f
00000030: a175 5d3f f3ae 763f 71f2 733f c842 5c3f
00000040: 7a98 653f 48a2 703f 192a 623f ad5f 783f
00000050: 9fb0 613f 9b48 833f a64b 5e3f 9e52 7d3f
00000060: 56c1 5c3f 4a40 823f 8419 6e3f 6316 6d3f
00000070: b9a9 3d3f 886e 6e3f b3a2 723f 3121 723f
0.9490004 0.84100664 0.9161078 0.9061438 1.0531809 0.90591294 0.91024685 0.96090364
0.96315193 0.9778967 0.95161563 0.972756 0.8650761 0.963607 0.9529181 0.860394
0.89685786 0.9399762 0.88345486 0.9702099 0.8816013 1.0256532 0.8683418 0.9895419
0.8623251 1.017587 0.93007684 0.92612284 0.740871 0.9313741 0.9477951 0.94581896

body.block2.norm.bias f4 [32]
00000000: d93f 023f 21e8 173f d1d3 503f e7ae 143f
00000010: 720c 493e 1a27 c83e 4da4 d63e bd1e 0c3f
00000020: 8127 bd3e f4a9 eb3e 7d7d 033f b46f e93e
00000030: 0f7f 2e3f 5cab b23e ce70 c83e 4cb4 103f
00000040: fb42 013f ca21 243f cce5 043f 394f d83e
00000050: aff6 f33e 4ef4 4d3e ba7e 5c3f 7b9a da3e
00000060: c170 0c3f 599b 4c3e d9ef 8a3e d704 053f
00000070: 9c8b 9c3f e2a2 b43e 8496 bb3e ba43 fe3e
0.50878674 0.59338576 0.81573206 0.5807938 0.19633654 0.39092332 0.41922227 0.547344
0.36944202 0.460281 0.51363355 0.45593035 0.68162626 0.34896362 0.39148563 0.5652511
0.5049283 0.6411406 0.5191314 0.42247942 0.47649142 0.20112726 0.8613087 0.42695984
0.5485955 0.19981135 0.27136114 0.5196051 1.2230105 0.3528052 0.36638272 0.49661046

body.block2.norm.running_mean f4 [32]
00000000: 2201 04bf 0151 c0be 592e 3f3f 2d88 41bf
00000010: 6031 243f 49c7 88be ac09 babe 237c babe
00000020: 91d5 d03e a9e9 fbbb 4396 28bf 1063 2abf
00000030: 1d93 b7bf ad9c 59bf 6084 9cbe 4f8d e43c
00000040: 772f dbbe 7595 5a3f 863b 90bf b57b 1fbf
00000050: a985 b83f 9f1c 213f d110 7b3f 76be 1e3d
00000060: 4e8d b03c 11eb 8bbf ed2c acbf 650a f5be
00000070: d11d 54bf ab11 0cbf 78b4 49bf c9bc 56be
-0.5156423 -0.375618 0.74680096 -0.7559841 0.6413784 -0.26714543 -0.36335504 -0.36422834
0.40787938 -0.0076877666 -0.6585428 -0.6655741 -1.434177 -0.85004693 -0.30569744 0.027899412
-0.4280965 0.85384303 -1.1268165 -0.62298137 1.441579 0.629343 0.98072535 0.038755856
0.021551754 -1.0931112 -1.345121 -0.47859493 -0.82857996 -0.5471446 -0.78791 -0.20970453

body.block2.norm.running_var f4 [32]
00000000: 6a0d 2e3f c404 bd3e e3b7 0c3f ee5f ab3e
00000010: 0d54 a13e fec3 b93e c959 4d3e a66c a53e
00000020: a274 3f3e 420d 9e3e 8096 873e a0db 803e
00000030: 318c 303e da68 803e e0f3 843e f9ee 6f3e
00000040: 0b79 0a3f e965 2f3e 7d27 6c3e cf6e 853e
00000050: 0d31 903e f332 a03e 344d c03e 9cf2 503e
00000060: e387 933e ce7e 703e b6c4 303f a080 e53e
00000070: 40a9 1f3f e33b f03e 8286 0b3e 4da0 e33e
0.6798922 0.36917698 0.5496809 0.33471626 0.31509438 0.36282343 0.20053782 0.32309455
0.18696836 0.3086949 0.2648201 0.2516756 0.17240979 0.25079995 0.25967312 0.23431005
0.54090947 0.1712872 0.23061939 0.26061103 0.28162423 0.3128887 0.375589 0.20405048
0.2881461 0.23485872 0.6905016 0.44824696 0.6236763 0.4692069 0.1362553 0.44458237

body.block3.conv.weight f4 [32, 32, 3, 3]
00000000: 4221 843d 99df 183d 2619 803d fdbb 0cbc
00000010: 224c febc f85e 083d 87b2 e6bc e33c 083c
00000020: f255 293d 5092 a7bc f706 7d3c 96cf b63c
00000030: f6d2 18bc 6a6f 553d 2ba1 fc3b f5a4 9dbc
00000040: 924f a7bb bb6b 24bd f8e1 4f3c b23e 8c3c
00000050: 9243 11bd 26ec 593c 7930 263d e618 393c
00000060: c8d0 443d 39d0 8c3d 7021 0c3d 25bf ef3c
00000070: ea1c 5bbd d457 ccbd d2c6 b23c a6fd a63b
00000080: f8c1 1dbd f7b7 43bd 7444 83bd 6edd 89bd
00000090: c8cc 39bc f065 8a3d 968d 8d3d f59e 4b3c
000000a0: 9db1 383d c16c 943d b622 5bbd 4592 363d
000000b0: 23e8 6d3d b9ac a33c 62b2 c2bc 941e 793d
000000c0: 6cc3 29bd cba1 923c 0e35 003d 94e8 14bc
000000d0: 33dd 513d bf26 ee3c 4c07 febc bcf7 0a3b
000000e0: 2af5 463d 0290 c33c dafb 38bd 44a7 1a3c
000000f0: 069c 813d ab8a 233c 35ae 3abc af96 3fbd
00000100: 2f79 43bc 45b7 b0bc 252e e1bb 9474 933c
00000110: e3be 4a3b fcf5 82bb 17b6 b23c 8e90 53bc
00000120: 7d45 c83c 1074 b53c 2b34 d23b 5eb1 063d
00000130: 605e 213c e908 ec3b aeb6 143d 90e4 8bbc
00000140: 1a95 fabb 609c 3f3c 886a c53b a5a9 a83c
00000150: 9178 9fbc 8d6f 733a fed4 483d f1ea 61bd
00000160: 655c cab9 5f5f 93bc 5664 4a3d e6c6 71bc
00000170: 2ec9 7a3d c7a9 00bc 7de4 9fbb 90ed 303d
00000180: 976e 643d f13c c93b 4186 ea3c 0b25 583c
00000190: 2077 5b3c 4b48 163d c055 79bc 62cf b73c
000001a0: 985a 333d 8db8 073c a12f febb f98f bf3c
000001b0: 6aeb a33c 306e b93c 9249 8fba 5b52 933d
000001c0: 9257 2ebc 9d31 ebbb bf7f 713d 5d45 463d
000001d0: 2141 28bd 08aa 8a3b 9b83 d33a a2f4 07bd
000001e0: f226 a83c acf5 053d d7b7 c93c 46dc eabc
000001f0: 3817 093d 8866 6cbd 138b efbc 27f8 33ba
00000200: aff4 253d bb51 cdbc f5b1 9abb 4997 fdbb
00000210: ab17 6dbd 95ba 0ebd 9fb4 95bb c467 b5bd
00000220: d4ba a23c d92e b43c f770 94bd fb5d 593d
00000230: f987 b13c b278 3dbd cd8f 1c3c a6ed 3c3c
00000240: d8e7 00bd 6f6c c03c 9d2a 733c 6b6b e93b
00000250: 1ea2 883d a574 103b 4f94 953d 318d 363d
00000260: 4051 cabb 7b36 f03c 7dc3 0ebd bd97 153d
00000270: 72bd d13c 0a0a a93b 74aa 803d 4619 323d
00000280: 662a 87bc d3b0 953d c199 70bc fb06 ff3c
00000290: ede4 893a 07d5 e73c 78d7 84bd 3ceb b8bc
000002a0: 6243 11bd b4b9 8ebd fa72 95bd 9638 7f3b
000002b0: c04b d9bb de0f 0dbc 6d38 0e3d 91c2 89bc
000002c0: 18bf 843c f613 843d c565 a13a 2918 46bd
000002d0: c3f2 7c3c 5123 463c 90b4 8d3c c865 7c3c
000002e0: 3849 2a3d 8687 06bd 6bf6 c03c c280 bdbb
000002f0: 5db9 9dbd 5eb4 2abd f8a3 573c 4690 14bd
00000300: a172 f0bc 3d68 71bb 3fa6 eb3b bd32 6cbd
00000310: e49a 39bc c479 d4bc 3e91 813c 244b a43d
00000320: d04e f03d a737 a03c d45e b33c 25d0 833d
00000330: 02b5 60bd 0180 f8bc d94d 843c e388 b73c
00000340: 631f c53b d482 613d fc5b c1bc 3705 233b
00000350: aa0f ef3b 8014 dbbc 6341 98bc 83d3 b43c
00000360: 8970 783d 4dd3 103d 2b9c 823d 2be7 1d3c
00000370: ddd1 85bc 3301 8f3c fd33 483d 86ca e0bb
00000380: 08b0 0fbc 7d3b 44bc 6e10 c83b f1ca dbbb
00000390: 33ac 893c 6e10 ce3c d8fd 1c3d cc56 bfbb
000003a0: df1a 943c 60ff 953c c798 febc 2f4c 9bbc
000003b0: 2bd6 223d 7787 343d aba2 6c3d 0f47 1d3d
000003c0: 296d ad3d dba2 af3d 6df2 8fbb 1fde 933c
000003d0: 6527 27bd 800c 893d 23b1 bebc b0ac 4cbd
000003e0: ceb3 7c3d 749a ec3b 2836 dbbd d1b1 8a3d
000003f0: a535 50bd 87ab c439 907f a23c eb7a 5fbc
0.06451656 0.037322614 0.06254797 -0.008589742 -0.031042162 0.033293694 -0.0281613 0.008315298
0.04134173 -0.02045551 0.015443555 0.022315782 -0.009327641 0.052108206 0.0077096424 -0.019243697
-0.005105921 -0.040141802 0.0126881525 0.01711974 -0.03546483 0.013300931 0.04057357 0.01129744
0.04805067 0.06875653 0.034211576 0.02926595 -0.05349437 -0.099776894 0.02182332 0.005096155
-0.03851506 -0.047782864 -0.06409541 -0.067316875 -0.011340328 0.06757724 0.06911771 0.012428035
0.04509126 0.07247306 -0.0534999 0.044573087 0.05808271 0.019979822 -0.0237667 0.060820177
-0.041446134 0.017899415 0.031300597 -0.009088654 0.051236343 0.02907121 -0.031009339 0.002120479
0.04857365 0.02387238 -0.04516206 0.009439293 0.06328587 0.0099817915 -0.011394073 -0.046774562
-0.011930748 -0.021571765 -0.006871956 0.017999925 0.0030936531 -0.003996609 0.021815343 -0.0129128825
0.024447197 0.02215007 0.0064149103 0.032883994 0.009849161 0.0072032106 0.03630703 -0.01707676
-0.007647169 0.011694998 0.0060246624 0.020588705 -0.01946667 0.0009286337 0.04903125 -0.0551557
-0.00038597282 -0.017989812 0.049412094 -0.014756894 0.061227016 -0.007852978 -0.004879533 0.043195307
0.05576953 0.006141298 0.02862847 0.0131924255 0.013395101 0.036690038 -0.015218198 0.022437755
0.04378757 0.008283746 -0.0077571427 0.023384081 0.020009715 0.02263555 -0.001093196 0.071934424
-0.010640996 -0.007177545 0.05895972 0.048405994 -0.041077737 0.004231695 0.0016137244 -0.033192284
0.020526383 0.032704994 0.024623794 -0.028669488 0.03346941 -0.05771497 -0.02924112 -0.00068652857
0.04051655 -0.025063386 -0.004720921 -0.007738982 -0.0578839 -0.034845907 -0.004568651 -0.08857682
0.019864477 0.021994995 -0.07248109 0.053068142 0.021671282 -0.046257682 0.009555769 0.011531269
-0.031471103 0.023489205 0.014841703 0.007123401 0.066715464 0.0022042182 0.07303678 0.044568244
-0.0061742365 0.029322853 -0.0348544 0.036521662 0.02560303 0.0051586675 0.06282511 0.043481134
-0.01649971 0.07309117 -0.014685095 0.031131258 0.0010520496 0.028299822 -0.0648641 -0.022573106
-0.035464652 -0.06969014 -0.07297321 0.003894364 -0.0066313446 -0.00860974 0.03472178 -0.01681641
0.016204402 0.0644912 0.0012313655 -0.048362885 0.015438738 0.012093381 0.017298013 0.015405126
0.041573733 -0.03284409 0.023555001 -0.0057831714 -0.07701371 -0.041675918 0.013161652 -0.036270402
-0.029351534 -0.0036835812 0.007191449 -0.057665575 -0.011328433 -0.025936969 0.015816327 0.080221444
0.11733782 0.019557787 0.021895804 0.06436185 -0.054860123 -0.030334475 0.016150402 0.02240414
0.0060157045 0.055056408 -0.023603432 0.0024874934 0.0072955685 -0.026743174 -0.018585866 0.022073513
0.060654197 0.035357762 0.06377443 0.009637634 -0.016335422 0.017456627 0.048877705 -0.00686008
-0.008769996 -0.011977074 0.006105474 -0.006707542 0.016805744 0.025154319 0.03832802 -0.0058392044
0.01807922 0.018310249 -0.03107871 -0.018957226 0.039755028 0.0440745 0.05777232 0.038397845
0.08468086 0.08575984 -0.004392913 0.018050252 -0.040809054 0.06691837 -0.023277825 -0.049969375
0.061694913 0.0072205607 -0.10703689 0.06772197 -0.05083241 0.0003751183 0.019836217 -0.013640146

body.block3.conv.bias f4 [32]
00000000: 4bf1 6d3c b7e9 03bd 2634 1ebc 838d a4b8
00000010: f8c1 753d f266 e03c e6bc 82bd ebe3 febc
00000020: 1685 8abc 8f18 eebb 8ab7 c8bb f987 633d
00000030: 58e5 e93c 6233 183d 760a cfbd 8ce4 633c
00000040: dae4 4abd e4c6 27bd adbb 823c 9c2d 8a3d
00000050: 188d 40bd 6676 c3bb df4a ac3c 02cb 473d
00000060: 6ed5 a53a b1d3 8abb 8e28 9a3a 28a5 763c
00000070: 8f3a 98bc 57ff 03bd 3eac e33c 1eec a1bd
0.014522861 -0.03220531 -0.009655988 -7.846488e-05 0.059999436 0.027392838 -0.06383686 -0.03111454
-0.016909163 -0.007266111 -0.006125395 0.055549596 0.028551742 0.037158377 -0.10109417 0.01390947
-0.049534656 -0.04096116 0.015958631 0.067469805 -0.047009557 -0.005965042 0.021031795 0.048777588
0.0012652108 -0.0042366614 0.0011761354 0.015054025 -0.01858261 -0.032225933 0.027792092 -0.07906364

body.block3.norm.weight f4 [32]
00000000: 67a7 893f 5d9b 7a3f 2e69 813f bb1c 723f
00000010: 6f1c 5e3f 8f79 823f 57df 693f c718 943f
00000020: cce5 913f 94ab 6b3f 0c59 593f c748 913f
00000030: bbf7 543f b553 6f3f 9c7e 833f 2baa 6c3f
00000040: 0dc5 673f dfec 723f 2485 553f 5efd 753f
00000050: d376 703f 0d57 8d3f b845 873f 30d1 833f
00000060: 9b99 7a3f 0c9f 853f d2c8 873f 11f3 723f
00000070: 2f76 7a3f e3d2 803f 427f 613f d513 5c3f
1.0754212 0.97893316 1.0110223 0.9457509 0.86762136 1.0193347 0.91356415 1.1570061
1.1398253 0.9205868 0.849015 1.1350335 0.83190507 0.934871 1.0273013 0.92447156
0.9053505 0.94892687 0.8340628 0.9608973 0.9393131 1.1042191 1.0568151 1.0298214
0.97890633 1.0439162 1.060816 0.9490214 0.97836584 1.0064358 0.88084805 0.8596776

body.block3.norm.bias f4 [32]
00000000: 4970 1b3f d046 7fbe 0511 073e 68e1 463f
00000010: 05c5 913f 4f0a 703f 48d1 913f efcf 193f
00000020: 1be3 973f 031e 8f3f 10a2 19bf 038b c13f
00000030: 6225 763f 278b 883f 6959 783f 2a0e 273f
00000040: 4df7 2e3f 5115 993f 1902 923f 0583 273f
00000050: 1f6c 2e3f d686 2c3e f91b 0cbf 56f9 5d3f
00000060: 2888 033f 7e93 843f 2d56 563f 3d4d c33e
00000070: 1f1e fa3e 7130 e2bd 207e 20bf f794 8d3f
0.6071821 -0.24929357 0.13190086 0.7768769 1.138825 0.9376573 1.1391993 0.60082906
1.1866182 1.1181034 -0.6001291 1.5120548 0.9615079 1.0667466 0.9701143 0.6525599
0.683461 1.195963 1.140689 0.65434295 0.6813373 0.16848311 -0.5473018 0.8670858
0.5137963 1.0357511 0.83725244 0.38144866 0.48851106 -0.11044396 -0.6269245 1.1061085

body.block3.norm.running_mean f4 [32]
00000000: 9c2e 8c3f 634a 1fc0 2731 14bf 0a48 29be
00000010: 1d0a 863e 6b43 fe3e fa3a a03e 1c25 c03e
00000020: d973 2e3f 201e 0bbe 54ad 3f3f 07b7 b13f
00000030: e457 40bc 5fa5 173f 3a25 a3ba 57c7 ab3e
00000040: e52c 02be 9031 6c3f 7884 acbd 225b c3be
00000050: d861 6fbe ce5a 00bf cdb6 b6be d15f 07bf
00000060: a1eb 513f 9446 123f 14ea e0bc 749f 463f
00000070: 5b16 053f 70ec 153f ed1c 94be 3b43 993e
1.0951724 -2.4889152 -0.578875 -0.16531387 0.2617959 0.4966081 0.31294996 0.37528312
0.6814552 -0.1358571 0.7487385 1.388398 -0.011739705 0.5923671 -0.0012447007 0.33550522
-0.12712438 0.92263126 -0.08423704 -0.38155466 -0.23377168 -0.50138557 -0.3568634 -0.5288058
0.82000166 0.57138944 -0.027455367 0.77587056 0.51987237 0.585639 -0.2892832 0.29934105

body.block3.norm.running_var f4 [32]
00000000: 3d77 ce3e 9629 803e d43c 473e 9b8c e43e
00000010: c75c 403f c8b3 363f 65a3 dc3e ffac 1d3f
00000020: fb91 d33e caba cf3e 0692 843e f6b8 b13e
00000030: 8ed1 783e 8374 c83e 32f9 e13e 9bd1 1b3f
00000040: ceed db3e 496c 543f 06e0 533f f073 a03e
00000050: 8179 9f3e 1f0d cb3e f570 713e 21a6 003f
00000060: 4ae8 cb3e 4f6c 713f f658 a13e 7625 cb3e
00000070: e98a 983e 837e 983e 9c6e 643e 8e0b 223f
0.40325347 0.25031728 0.19456798 0.44638523 0.75141567 0.71368074 0.4309341 0.61592096
0.41322312 0.40572196 0.25892657 0.34711426 0.24298689 0.3915139 0.44135433 0.6086671
0.42954868 0.8297773 0.8276371 0.31338453 0.31147388 0.39658448 0.23578246 0.5025349
0.3982566 0.9430589 0.31513184 0.39677018 0.2979348 0.2978402 0.22307819 0.6329888

tail.weight f4 [1, 32, 3, 3]
00000000: 3e81 44bc 9fbb 1bbd 9a80 a43d 7be4 b5bd
00000010: be3c d3bd 0341 9c3d e1f8 12be 40aa 0fbd
00000020: 4055 eb3d 638d ee3c 124d ac3b e02d 96bc
00000030: d129 9b3c 6a50 2f3d f684 1d3d 8936 fd3c
00000040: 76f0 04bc 7670 8ebb d3c8 4f3d bbf0 92bb
00000050: 0478 f8bc 51fc af3d da09 223d 7729 4cbd
00000060: 8bd5 223c de20 1cbd c68d a1bd f62e 15bd
00000070: 5f47 55bd 672d 9fbd 8cb9 f0bc 5f73 37bd
00000080: 7f37 e93b c211 05bd 0afb 8bbc 1a3d 7e3d
00000090: 3d8b e13d 2a15 423d de24 213d d0ad 91bd
000000a0: 5f6f a8bd 5feb c3bd e2f9 73bd bab6 6dbd
000000b0: 226d afbc 09ee 59bd 9da5 b1bd 804b c0bd
000000c0: 9d7c 8cbd 418e 7bbd 36ab a6bd 7925 e83d
000000d0: c29e 013e 128e d23d 7a02 5abc 4b7d a7bd
000000e0: 2058 8dbd de0a 853b b4a6 6cbd 914e b5bd
000000f0: e10b de3d 3837 933d a0e5 403c f349 273d
00000100: deb9 fc3d 7688 4f3e d6e0 91bd 0cd6 97bb
00000110: 4f76 3c3d b007 09be 6e8e e5bd 3809 11be
00000120: 9671 21be 0f45 8dbd 809b c93d 3245 e1bd
00000130: d879 05bd 3048 d83d ad70 99bd 3c05 983c
00000140: 39dc 853e ee49 63bd fed0 86bd ae2a e33c
00000150: 07cf dcbd c569 a9bd 1bd8 b5bc f70d 04be
00000160: fb41 dbbc d6a9 953d 1e1e 8e3c 1fd3 4bbc
00000170: bd8e 8e3c 08b7 dc3c 21e1 923c be88 cabc
00000180: c9e5 b23c 1463 58bc 8f5a 0f3d 26ce 7e3b
00000190: 3a01 50bc 0edd 1abe 8dd5 863e ae29 fe3d
000001a0: cf4a e2bd 4c4e b13d f369 acbd 7c16 6fbe
000001b0: 599e 9e3d 3d17 923d 9e30 1a3e cd24 aebd
000001c0: 374b b93b 25e1 fa3c 988f fdbc 8755 0b3c
000001d0: 643b 353d 291d 243e b18f a13c 2d5d cabd
000001e0: 1204 893d 0230 84bd 69a9 e7bd 26ae 943d
000001f0: ce58 6bbc dcb2 63bd b66f c43d 99ff 01bc
00000200: a5a5 24be 219a f73d 1967 dcbc 7cc9 fbbd
00000210: d938 db3d c6f9 72bd 0abf 86bd 499d d73c
00000220: df9d 05bc 4d91 ed3d 69ce 9abd 9d3d 2dbd
00000230: d882 f83c f731 a0bd a1ac d5bc 18f3 343d
00000240: 7b1b 243b c5d8 89bc e275 36bd 28c9 233d
00000250: 1b53 59b9 3cd1 94bc bc80 593d dcc4 903d
00000260: 8cab 0d3d e3fe 1fbe c4e0 9cbd 1415 2d3e
00000270: 8fd4 bfbd c77b a4bd 266d b33d 32db 67bd
00000280: d6d4 2abd 799d 293c 11f2 bb3d df51 3c3d
00000290: 8162 0ebe 59bd a83b 2b19 16bc 2a3b b6bd
000002a0: 4b9e 60bd a0de 7bbd d11b 71bd 7c4e b2bd
000002b0: 38ad 883c c8bd fb3c b480 563c bbc8 433c
000002c0: bf3d 703d 0ed9 3fbc 68ff 673c 65f4 a93c
000002d0: 852b 713d bb76 223d 202c 29bd 770e 933c
000002e0: c042 4a3d a0f2 98bd 1207 e23b 6dd5 e03c
000002f0: 2f89 19bc 9994 433d b46d 993d 1fea 0a3e
00000300: 2fab a6bb 5940 1bbc 0fcd 1bbd bac7 abbd
00000310: 0e20 e6bc 7219 d3bd 5100 b8bd f565 abbc
00000320: f41b 7abd 09ae c03c 0fab 9a3d ae35 1a3d
00000330: c41f eabb 5d1d 2b3d c24f d13c 6d5b 82bd
00000340: 257f 5bbd 4791 bebd c428 2dbd c285 9fbd
00000350: 47d4 43bd ccd0 733d 7b87 ec3d 38a4 fc3d
00000360: 0d38 20bc 8d98 143c aeff 903d edb2 a6bc
00000370: 960e cfbc 3264 1cbd d1ea 243d e972 243d
00000380: e9c4 1f3d 435a 0abe 0ce6 16be de4a 143b
00000390: 6719 3ebe f0e1 a4bd f5d8 603d 3414 c8bd
000003a0: 13bd e7bb 9b90 fc3d 265f 23bc f4cf 91bd
000003b0: 0205 54be 8182 a33d cf36 153d 958b 46bd
000003c0: 868d c93d 70f6 183d f1c9 473d 38e4 a03c
000003d0: c098 85bd 8b0c 983a 744d 89bc 48de d53b
000003e0: 83ae 553d 9084 9cbd d459 37bd 73ae 183d
000003f0: 0f0a 07bb 75bb 7ebb c0eb 5fbd 79c1 953d
-0.011993704 -0.038020726 0.08032341 -0.0888147 -0.1031432 0.076295875 -0.14352752 -0.035074472
0.114908695 0.029120153 0.005258211 -0.018332422 0.018940838 0.0428013 0.03845688 0.030909793
-0.008113971 -0.0043469025 0.05072863 -0.0044842637 -0.030330665 0.085930474 0.039560176 -0.04984423
0.009938608 -0.038117282 -0.07888369 -0.03642174 -0.052070018 -0.07772332 -0.02938535 -0.04478776
0.0071172114 -0.03248764 -0.017087478 0.06206999 0.11012886 0.047383465 0.0393418 -0.0711323
-0.08224367 -0.09566378 -0.05956448 -0.05803559 -0.021414343 -0.053205524 -0.08674166 -0.093894005
-0.068597056 -0.06141496 -0.08138125 0.11335272 0.12658218 0.10281004 -0.0133062545 -0.081781946
-0.06901574 0.0040601334 -0.057776168 -0.08852876 0.108421095 0.071882665 0.011773497 0.040842008
0.12340139 0.202669 -0.07122962 -0.0046336707 0.046011265 -0.13381839 -0.11208807 -0.14163673
-0.15765986 -0.068979375 0.098441124 -0.10999526 -0.032586902 0.10560644 -0.07492194 0.018557183
0.2614458 -0.055490427 -0.06582831 0.027730312 -0.10781675 -0.08272127 -0.022197774 -0.12895952
-0.02676486 0.07307784 0.017348345 -0.012440472 0.017402047 0.026942745 0.017929615 -0.024723407
0.021838086 -0.013207216 0.034998473 0.0038880198 -0.012695605 -0.15123388 0.263348 0.124102935
-0.11049425 0.08657512 -0.08418646 -0.23348421 0.07745046 0.071333386 0.15057608 -0.08503113
0.0056547183 0.030624935 -0.03095226 0.008504278 0.044246092 0.16026749 0.019721838 -0.09881053
0.066902295 -0.06454469 -0.11311609 0.07259779 -0.014364434 -0.055590495 0.0959162 -0.007934474
-0.16078813 0.12089945 -0.02690463 -0.122942895 0.10704202 -0.059320234 -0.065794066 0.026320117
-0.008155315 0.115999795 -0.07558901 -0.042295087 0.030335829 -0.0782203 -0.026083292 0.044177145
0.0025040794 -0.016826997 -0.044546016 0.03998676 -0.00020725692 -0.018166177 0.053101286 0.07068798
0.034587428 -0.15624575 -0.07660058 0.16902572 -0.09366714 -0.08031421 0.08761053 -0.056605525
-0.041706882 0.010352486 0.0917703 0.045976516 -0.13904764 0.005149525 -0.009161274 -0.088980034
-0.05483846 -0.06149161 -0.05886442 -0.08706376 0.01668416 0.030730143 0.013092209 0.011949713
0.058652636 -0.011709465 0.014160015 0.02074642 0.058879394 0.03966401 -0.041301847 0.017951233
0.049380064 -0.07468152 0.0068978155 0.02744552 -0.009371086 0.047749136 0.07491627 0.13565873
-0.0050863246 -0.009475791 -0.038037356 -0.08387704 -0.028091457 -0.10307588 -0.08984435 -0.02092264
-0.061061814 0.023520486 0.07552158 0.03764885 -0.0071449 0.04177605 0.025550727 -0.06365094
-0.05358805 -0.09305053 -0.042275205 -0.07789184 -0.047809865 0.059525296 0.11549278 0.1233601
-0.009778989 0.009069574 0.07080017 -0.02034899 -0.02527551 -0.03818149 0.040263 0.04014865
0.039006148 -0.13510995 -0.14736193 0.0022627632 -0.18564378 -0.08050907 0.054894406 -0.097694784
-0.0070721 0.12332269 -0.009971416 -0.07119742 -0.20705035 0.07983876 0.036429223 -0.04847296
0.098414466 0.037344396 0.04877657 0.019640073 -0.065232754 0.0011600418 -0.016760565 0.006526742
0.05216838 -0.07642472 -0.0447634 0.037275743 -0.002060536 -0.0038869057 -0.054668188 0.073122926
